mix_350.pth (torch, 670996 bytes, 21 tensors)

shared_encoder.0.weight f4 [16, 8, 3, 3]
00000000: 5823 5cbd ffee ff3c a6f8 703d d35b 99bd
00000010: daff a2bd a762 d53d 94b6 9abc 03b6 9fbd
00000020: 1494 cb3c 4aa9 a2bd 9fe1 d3bd d9fa fa3d
00000030: 367f 153c 3eba 673c 2f69 733d 3992 b03d
00000040: 398b c23d 1350 bfbd 84f3 98bc e6b3 6f3d
00000050: 312a ec3d 2a92 bbbd a17e 803d 825e 15bd
00000060: 2821 50bd c53e 803d 7a75 0fbd 02c0 403d
00000070: 252d 8fbd 348f 60bd 29fd d53d 52fc 43bd
00000080: 5362 ef3d bc25 02bd 72fa 10bd dc18 9a3c
00000090: 5cf7 893c 5649 4bbd 2921 48bc 6615 a9bd
000000a0: 15b9 b1bd 505f 903c ac8a aa3d 9d00 e73c
000000b0: 4473 d53d 0f9b 8dbd b00f a5bd dca8 97bd
000000c0: 8699 273d f66e ddbd 8182 ecbc 4762 d2bd
000000d0: c321 d33d 2f01 26bd c362 55bd c69a ef3d
000000e0: a56a 8fbc c0b7 bc3d 97cd babd a669 b13d
000000f0: 6eb6 a3bd c20e 923d 0bf6 a7bc 9859 733d
00000100: ca83 713d 0659 c33d 8795 cdbd 0786 d9bd
00000110: 22cb 853d 0f8d a3bc 97da 993d 02a6 ca3c
00000120: af64 113d f75d b9bd dacf a8bd fcc7 d8bd
00000130: 2e59 083d 6b25 5fbd 72d5 bebd d5dd bdbd
00000140: e03b 96bd 5b22 5e3d 7399 a3bd d586 5dbd
00000150: 431a ac3d 7be7 333d dd88 413b db65 85bc
00000160: 90bb b0bd e0de bf3d f8e7 7a3c 1c5d aebd
00000170: edae d0bd 8c53 60bd 80b0 8bbb 3450 e5bd
00000180: 748a f23c 7096 debb a0da 32bc eb22 bb3d
00000190: 26f7 3e3d 1809 76bd ded0 3a3d a2a1 b5bd
000001a0: 9c84 c63c 828b 3bbd fbc8 c13d 4328 9e3d
000001b0: f89d d03d 4b11 3f3c 4275 dcba befb 7c3d
000001c0: 20a9 adbc 1fc4 4a3c 586d eebd d7df ebbd
000001d0: 6f66 8d3d c39c 75bd 0e95 ebbd 8a6a d53d
000001e0: 199b c7bd f9f0 623d bd6f ce3d 0a7f 9d3d
000001f0: e0a2 5b3c c763 e8ba 86a4 fbbb fae5 2abd
00000200: 9f18 d0bd be56 b7bc 6add 14bd 3ca2 d9bd
00000210: f4f2 a63b 969f 3ebd a8f5 07be 2c05 aabb
00000220: 733c cf3c 4061 4cbd b4be 72bd 1ec4 6b3d
00000230: d19c 003d ff94 e8bd ff03 583b fe23 48bd
00000240: e2be 703d 13dc 413d 19fc 10bd 29dd d43d
00000250: 1626 cabd 375c 76bc 76ef 0f3d 230e c3bd
00000260: 9089 01be 5c16 db3d 7c5f a6bd 65ea b739
00000270: 4a60 a83c faee 913d 762b 97bc 907c 83bd
00000280: bfe5 90bd 2fce 413a ae7e 5d3d 1478 90bd
00000290: 7697 163d 6047 74bd 56f2 84bd bcfe d8bd
000002a0: 78ff 4a3c 3266 723d 72d9 6c3d b6f3 4b3d
000002b0: d7f8 9bbd 54fe 9e3c 6a38 1f3d 0442 0ebd
000002c0: ec63 e43c 9691 83bd 58cd 673c e854 a5bc
000002d0: b986 a73c 0c42 ba3d bc3a b8bd 2169 08bc
000002e0: f125 1bbd 1927 e2bc f1d7 60bd 84be c7bd
000002f0: 15c8 55bd 85b8 cfbd e4fc 083b 2e04 9e3d
00000300: a203 b13c fb2a c63d b6bd fdbd c5a9 eabd
00000310: 2a81 2e3d 4f55 933d 1acb 9f3c 9213 103d
00000320: 5ba8 47bd 86d2 d53d 4bed d0bc 629a bdbb
00000330: fe2c 093d bef5 2c3c 19d8 a43d 69f3 593d
00000340: 4897 9ebd ff70 febd b95d d63d e8f7 2fbd
00000350: b6b5 eebd faf8 7b3d 944d 83bd 862e cdbc
00000360: 16b8 c8bd c0d4 cabd 43f1 80bc f11e 8bbd
00000370: deb4 213d e48d 3cbc 9548 0b3d 082a e2bd
00000380: cb44 aa3d 312d 393d df96 003d 62ce 993d
00000390: e524 ce3c bbc5 a0bd 9abc b63d c20a 9cbd
000003a0: 6c99 3d3d a414 03bc 6db4 97bd 40e3 f5bb
000003b0: 115c 883d 264b b0bd af44 823d b6fb 6e3d
000003c0: cfd7 8f3d 7f2a b7bd 30fb 74bc ef6b e73d
000003d0: 9c4f 3dbd 30e3 79bc 8b47 81bd 603d 523b
000003e0: 5904 b43d ef54 d8bd bb20 da3d 97c7 b63d
000003f0: f051 bfbd 1ba4 bfbd a00d 8c3d 460f a4bd
-0.053744644 0.031241892 0.05883088 -0.07488217 -0.07958956 0.10419207 -0.018885888 -0.07798388
0.024850883 -0.079424456 -0.10345768 0.12254877 0.009124568 0.014143525 0.059426483 0.0862164
0.09499211 -0.09341445 -0.018670805 0.058521174 0.11531485 -0.09158738 0.062741525 -0.036467083
-0.05081287 0.06261972 -0.035024144 0.047058113 -0.069910325 -0.05482407 0.10448677 -0.047848053
0.11688676 -0.031774268 -0.035395093 0.018810682 0.016841583 -0.049630485 -0.012214937 -0.082560346
-0.0867788 0.017623574 0.08327231 0.028198535 0.10422376 -0.06914341 -0.08059633 -0.07405254
0.040917896 -0.1081218 -0.028870823 -0.10272651 0.10309174 -0.040528473 -0.05209614 0.116994426
-0.017506907 0.09214735 -0.091212444 0.08662729 -0.0799378 0.07131721 -0.020503065 0.059411615
0.058963574 0.09538464 -0.10038286 -0.10621267 0.06532885 -0.019964723 0.07512396 0.024737362
0.03549641 -0.090511255 -0.082427695 -0.10585019 0.033288173 -0.054479044 -0.09318055 -0.09270827
-0.07335639 0.054231983 -0.079882525 -0.054083664 0.084034465 0.04392193 0.002953104 -0.01628392
-0.08629525 0.09368682 0.015314095 -0.08513853 -0.101896144 -0.054767177 -0.004262984 -0.11196938
0.029607035 -0.006792836 -0.010916382 0.091375194 0.046622418 -0.060067266 0.045609348 -0.0886872
0.024233155 -0.045787342 0.09462162 0.07722523 0.1018638 0.011661838 -0.0016819614 0.061763518
-0.02119881 0.0123758605 -0.116419494 -0.115173034 0.06904303 -0.059963953 -0.11503039 0.10420711
-0.097463794 0.05540559 0.10079906 0.076902464 0.013405532 -0.0017729931 -0.007679525 -0.04172323
-0.10160946 -0.02238023 -0.03634397 -0.10626647 0.0050948802 -0.04653891 -0.13277304 -0.005188605
0.02529738 -0.049897432 -0.0592639 0.05756008 0.03139955 -0.11356544 0.0032961366 -0.04886245
0.05877579 0.04732902 -0.03539667 0.103937455 -0.098705456 -0.015036634 0.035140477 -0.09524181
-0.12650132 0.10697624 -0.08123681 0.00035079118 0.020553727 0.07125659 -0.018453341 -0.06420243
-0.070750706 0.00073930895 0.05407589 -0.07054153 0.03676554 -0.05963838 -0.064915344 -0.10595462
0.01239001 0.059179492 0.05782456 0.049792968 -0.07615822 0.019408382 0.03887216 -0.034730926
0.027879678 -0.06424253 0.014148079 -0.020182088 0.020449983 0.09094629 -0.08995578 -0.008325846
-0.03787798 -0.027606534 -0.054893438 -0.09753135 -0.052192766 -0.10142616 0.0020902688 0.07715641
0.021608178 0.096761666 -0.123897 -0.11458162 0.04260365 0.07194006 0.019506026 0.035174914
-0.04874454 0.10440545 -0.025503775 -0.005786226 0.033490174 0.010556636 0.0804903 0.05321065
-0.07743698 -0.12423896 0.10467095 -0.04296103 -0.11655752 0.06151674 -0.06411281 -0.025046598
-0.098007366 -0.0990386 -0.015740043 -0.06793011 0.03947913 -0.011508439 0.034004766 -0.11043173
0.083139025 0.045209114 0.031393882 0.075100675 0.025164077 -0.07850214 0.08922692 -0.076192394
0.046288893 -0.008000527 -0.0740746 -0.007503897 0.06658185 -0.086080834 0.063607566 0.05834552
0.07023584 -0.08943652 -0.014952466 0.112998836 -0.0462185 -0.01525192 -0.06312474 0.003208004
0.08789892 -0.10563075 0.10650774 0.089247875 -0.093418 -0.093574725 0.06838536 -0.08010726

shared_encoder.0.bias f4 [16]
00000000: c79f 7ebd 50a1 c03d 5c66 913d 8a39 323d
00000010: 3904 83bd 6674 a93d bb7e c9bd 6228 8ebd
00000020: a5b7 323d 5706 9bbd 439b 9a3c f961 473d
00000030: ef24 d93d c275 9ebd a458 1bbd 6a0c 783d
-0.062164094 0.09405768 0.070996016 0.043511905 -0.0639729 0.08274154 -0.09838625 -0.06941296
0.04363217 -0.075695686 0.018872863 0.04867742 0.10602748 -0.07737304 -0.03792633 0.060558714

shared_encoder.2.weight f4 [32, 16, 3, 3]
00000000: 9c73 a4bd 78bb 20bd 0d70 87bd eff4 4b3d
00000010: cbe5 6fbd 8180 8b3c 4870 453c 6756 943d
00000020: 7af1 943d ac0d f73c ac4c 5a3c 0dfe a7bc
00000030: 53a3 843d 8990 3e3d 02e0 ed3c d5ac 1ebd
00000040: af26 6ebd fc72 6c3d 65a2 9a3c f87d 843c
00000050: fbca 813c ade2 f93a dfdc be3c 7ade e1ba
00000060: 9b97 25bd 7822 3a3d e7cf 973d 60fe 403d
00000070: f9b1 80bd 419a 8d3d 2ac6 0b3c 7a1d 66bd
00000080: f000 4abd 7557 71ba 4855 87bd 4bd0 423c
00000090: 0829 9f3c 25e1 493d b1f4 093d e06f 7f3d
000000a0: bcd3 72bd d25c 90bd 3e18 593d 7821 08bd
000000b0: 3d75 5c3c 513c 1a3b eaa6 fe3c 96f9 933d
000000c0: acb6 04bd 6bb8 813d e861 3ebd 5a9c 88bc
000000d0: 38a4 95bd b428 9dbd 5973 a4bd c49e 833d
000000e0: fa67 8dbd 2701 a4bd 0cd4 d83c b19f f4bc
000000f0: f290 72bd 2bcb 933d 54df da3c d5a2 5dbd
00000100: d6a2 27bc b008 17bc 1953 14bc a46d 97bd
00000110: 686d 87bd 34af 663b edbc 29bc 55b5 9bbd
00000120: 4328 0fbd 1892 493c 1a6a 473d 3a63 953d
00000130: 3c66 723d 8764 a1bd 0ea5 0f3d 8125 d63c
00000140: d6c0 51bd a6b4 1dbc 136e 423d 37cf 92bc
00000150: b71e cb3b af56 2d3d 2caf 8bbc d6fc d2bc
00000160: 2784 9a3d 83ba 903d 9643 6abc c463 893c
00000170: fc76 603d a87a 04bb b6f4 97bd c486 9d3d
00000180: d4d3 d33c 61ad bdbc 8447 9b3d 7998 2a3d
00000190: c2fb 9bbd eb78 36bd 18c3 fdbc f7a3 d53b
000001a0: 4822 aabc e9ab 76bd 19e2 e2bc a68f 393d
000001b0: 4e3d 9f3d ff8f 2dbd ddbb a43c 0351 9c3d
000001c0: 1606 d43c a4f6 2dbd ee28 033c 0bc2 b3bc
000001d0: 514a 94bd 487a 6abd 5680 573d 0a04 f73c
000001e0: 15a5 733d faa6 7a3d 0eac d73b 67d2 4cba
000001f0: bb5d d1bc 8d72 adbc 9f4b 1cbd f5df e3bc
00000200: 5869 bcbc 51f7 5d3c 5fc0 983c 9532 ed3c
00000210: 8fdb 08bd afdf 65bd 753f 1a3d a236 a03d
00000220: 733e 57bc c042 e73c 0786 f83b 2add 6e3d
00000230: 2fee 88bd 5300 a1bd e025 44bd af23 aa3d
00000240: 4f4f a63a 52f8 8fbd ee37 893d 2a24 4bbd
00000250: f2f7 803c bf56 4eba 73a1 78bc 9e5e 61bd
00000260: e19c 85bc f8b8 a7bc e671 243c 9c53 92bc
00000270: 517e edbb 942c 19bd 123c 44bc d88e 8dbb
00000280: c2d3 a43d dd84 6abc 57f5 debb 75ff 0e3c
00000290: 813d 003d b799 af3d a3f9 143c 3fb0 8d3d
000002a0: 05f6 5ebb 14ea 0fbd d711 513b 12b6 413d
000002b0: 9bf8 0abd 4b93 37bd 6fdb c0bb f28c 8fbd
000002c0: 2451 973d d9af 64bd 514d 853d ef54 193d
000002d0: 41c9 92bd 0aad c1bd a864 e23c f1f0 6ebb
000002e0: 018c 9ebd 9e0a 2c3c c4bf 86bd 0ef8 103d
000002f0: 39fb a1bd b3f0 8abc 658e 61bd 2507 863d
00000300: ffb2 393d 5052 0a3d 6e56 50bd b8e8 853c
00000310: a28b b93c 1d85 423d 1141 65bd 8590 c7bc
00000320: 8376 c1bb 1d9e bbbc 4af8 213d d5a2 a9bd
00000330: f42a 3f3d 4875 83bb 9db2 2a3d 1e4b dc3c
00000340: 13b6 cbbb 280c 4e3d 35dd 5bbd 22f2 d23c
00000350: 8306 47bd b037 db3b 7957 afbd ec4b bbbc
00000360: 9aa0 213d 2f2b 8fbc d248 be3d 634f ae3d
00000370: 91e9 183c 8485 923d 40cd bf3d 7c02 67bd
00000380: 8d09 07ba c772 8cbd 2c30 29bd a43f 51bd
00000390: cd78 9d3c 5ccc 783d b9e5 8b3b 1bbd 303d
000003a0: 5855 b9bd 2a27 b63c c35e 9bbd 4a45 ffbc
000003b0: 6694 2bbd 688a b0bc 7e45 adbd 6a1f b7bd
000003c0: 602b 1b3d 9d42 693d 9594 edbc c1cb bb3d
000003d0: 863c 2abc 76f4 73bd c687 c53d 3926 1cbd
000003e0: 33ac 523d e5b0 7e3d c5cc 4f3d 5a7e 4b3d
000003f0: b01d 393c bb22 113d 3a39 b03d 363d 6dbd
-0.08029863 -0.039241284 -0.06613169 0.049794134 -0.058568757 0.017029049 0.012050696 0.072430424
0.072726205 0.030157886 0.013323944 -0.020506883 0.06476464 0.04652456 0.02903748 -0.038739044
-0.05814236 0.057726845 0.018876264 0.016173348 0.015843859 0.0019064747 0.023298679 -0.0017232441
-0.040427785 0.04544303 0.07412701 0.04711759 -0.062839456 0.06914187 0.008531133 -0.056180455
-0.0493173 -0.00092064525 -0.06608063 0.011890481 0.019428745 0.04928698 0.03368062 0.06236255
-0.059283957 -0.07048954 0.053001635 -0.033235043 0.013455686 0.0023534487 0.03108545 0.07225339
-0.032400772 0.06334003 -0.04648009 -0.016676117 -0.07306713 -0.07673779 -0.08029813 0.064267665
-0.069045976 -0.08008032 0.0264683 -0.029861303 -0.059220262 0.072164856 0.02671782 -0.054110367
-0.010231694 -0.00921838 -0.009053015 -0.07393959 -0.066126645 0.0035199644 -0.010359985 -0.07602946
-0.034950506 0.012302898 0.04868517 0.072943166 0.05917953 -0.07880502 0.035069518 0.02614093
-0.051209293 -0.0096255895 0.047468256 -0.017921073 0.00619873 0.042318996 -0.017051302 -0.025755327
0.07544737 0.07066824 -0.01429834 0.016771205 0.054800972 -0.002021471 -0.07419722 0.0769172
0.025857843 -0.023153963 0.07582 0.041649316 -0.07616378 -0.04454891 -0.030976817 0.0065197903
-0.0207683 -0.06022254 -0.027695702 0.04530301 0.07775365 -0.042373654 0.020109111 0.07632639
0.025881808 -0.042471543 0.008005364 -0.021943113 -0.07240737 -0.057245523 0.052612625 0.030153293
0.059483606 0.061194398 0.00658179 -0.0007813335 -0.02555739 -0.021172786 -0.038158055 -0.027816752
-0.02299945 0.013547734 0.018646417 0.028954783 -0.033412512 -0.056121524 0.037658174 0.078229204
-0.013137448 0.028230071 0.0075843367 0.058316387 -0.06686055 -0.0786139 -0.047887683 0.08307587
0.0012688431 -0.07029785 0.06700121 -0.049595036 0.01574323 -0.00078712025 -0.015175211 -0.055021875
-0.016310157 -0.020473942 0.010036921 -0.017862134 -0.007247724 -0.03739603 -0.0119772125 -0.004320007
0.08048202 -0.014313904 -0.006804149 0.008727898 0.031308655 0.08574241 0.009092721 0.06918382
-0.003402115 -0.035135344 0.0031901503 0.047292776 -0.033928495 -0.044818204 -0.0058855335 -0.07009305
0.07388523 -0.055831764 0.065088876 0.037434515 -0.071672924 -0.09456833 0.027635887 -0.003645953
-0.077415474 0.010500578 -0.06579545 0.035392813 -0.07909245 -0.016960477 -0.05506744 0.065443315
0.04533672 0.033769906 -0.050863676 0.01634632 0.02264959 0.047490228 -0.055970255 -0.024360904
-0.0059040203 -0.022902543 0.039543428 -0.08283011 0.046671823 -0.0040117837 0.041674245 0.026891287
-0.0062167733 0.05030456 -0.053677756 0.025750224 -0.048590194 0.006689988 -0.08561606 -0.02286335
0.039459802 -0.017476646 0.09291233 0.085112356 0.00933303 0.07154372 0.0936532 -0.056398854
-0.00051512645 -0.068578295 -0.041305706 -0.051086083 0.019222641 0.060741767 0.0042693284 0.043149095
-0.09049481 0.022235472 -0.07586434 -0.03116097 -0.04188957 -0.021550372 -0.0846052 -0.08941539
0.037883162 0.056948293 -0.029001513 0.09169722 -0.0103904065 -0.059559308 0.09645037 -0.03812239
0.051433753 0.06218042 0.050732393 0.049681045 0.011298582 0.035433512 0.08604665 -0.057919703

shared_encoder.2.bias f4 [32]
00000000: 04e6 65bd e0a8 53bd 8038 9ebc 2321 4bbd
00000010: 3823 753b cfe8 bd3c 7fb1 503d f8d4 8e3d
00000020: 4eb6 1abc 4c75 85bd f35f 6dbd 33ef e33c
00000030: b23f 37bd 64bf 1dbc f2ed 44bd 78dd a5bc
00000040: 67e1 f6ba 840d fabc e8d6 afbc a8b7 aa3c
00000050: 44b7 49bd ce49 79bd d6ce 293d 7cb6 e5bc
00000060: 51a2 703d de67 b03d 6402 853d c646 0c3c
00000070: 279a 95bd ef96 61bd 66bb 8fbd be6e bf3c
-0.056127563 -0.051674724 -0.01931405 -0.04959215 0.0037405025 0.0231823 0.050950523 0.06974214
-0.009442879 -0.06516513 -0.057952832 0.02782402 -0.04473848 -0.009628151 -0.048078485 -0.020247206
-0.0018835486 -0.030524023 -0.02146478 0.020839527 -0.04924704 -0.0608614 0.04145702 -0.028041117
0.058748547 0.08613561 0.064945966 0.008561796 -0.07304793 -0.055075582 -0.07018165 0.023368236

shared_encoder.4.weight f4 [64, 32, 3, 3]
00000000: 1600 37bc 9277 4ebd 0d50 d8bc 6217 9dba
00000010: 1166 b43a a11c b4bc b723 c5bc d530 22bd
00000020: f726 d83c 6070 15bd f92a d6ba c65f 7ebc
00000030: 2a26 64bd 34f0 513c 9238 fa3c 8c05 dcbc
00000040: b18c 41bd 1ca8 413c f115 a53c 822a e63b
00000050: eb82 2d3d 5cce feba f510 80bd 6a42 13bd
00000060: 90b6 7fbc 4f98 ccbc 46f5 413d ec01 b5bc
00000070: 3a08 5dbd 5fd4 28bd d6fe 5f3d 3feb 273d
00000080: 27f8 8b3c 0512 79bc 8b34 d23b 4f98 a4bc
00000090: 426f e8bc e006 043d b932 30bb 470d 3fbd
000000a0: dd9b 2e3c 9b92 54bc a8f3 ae3c 097f f33c
000000b0: dab9 673c 18f0 553c 2787 4abd 0ac9 49bd
000000c0: 7b9b 44bd 4b9e c43b f30e 58bd fbf7 1c3c
000000d0: d993 57bc 37e2 babc 97af 1bbc 9359 773d
000000e0: fbb0 253d 4594 593d d660 01bb a167 45bd
000000f0: 5796 6b3c 69e7 403c 407a 9d3c 9d3f 2c3d
00000100: 1f35 a6bb 18ed d1bc a4fb 853c 5640 453d
00000110: b02e db3c f5e7 6dba 10a7 b13c 0d4c 42bd
00000120: 8bb0 4d3d 318a ebbc e060 46bc 26a7 31bd
00000130: 748c 4d3d 9f3b 74bd 173b e0bc 2b84 dd3c
00000140: 5195 4dbc d233 7d3c da2d dabc 0eef 283d
00000150: 7960 f13b fd58 063d 5106 883b 278c c7bc
00000160: 4f09 8a3c b822 9a3c e897 76bd 23ac bfbc
00000170: a61d 673c ade3 76bd be88 0cbd 5d59 81bd
00000180: 31bf 323d 5ca6 25bc ce75 483d 55ab 08bc
00000190: 6893 a83a 4011 1bbd 8f95 0aba 5f1a 91bc
000001a0: be7a 0abd 14d8 70bc ff87 4ebd 74f8 e33c
000001b0: 64af 44bd d953 953b 97df 18bd 8c84 57bc
000001c0: e04a 83bd 3b43 3e3c a746 d8bc fbbd 213d
000001d0: 424d b8bc 17b3 b33c 686c ae3b 2759 4f3d
000001e0: 47b7 99bc 7def e1bc ea06 7bbc 0a9a 26bd
000001f0: 4241 023d a7cc 0ebd 4ad2 0c3c ddb7 6ebd
00000200: 5185 3fbd 9e28 2e3c d9ce 26bd 720e 09bd
00000210: 7269 123d 365c aa3c f28c 103d 5eeb 603c
00000220: b3c3 f73c 0427 85bb f288 81bd a867 17bd
00000230: 6ea3 cf3c 982e a33c c3ad 7bbd 176a 73bd
00000240: 583c 323d 692d 2dbd d3af 4a3d 078c c9bb
00000250: 2c33 b4bb c8b6 453d b5e9 05bd dab3 87bd
00000260: 493d 143d dce1 25bd befa 07bd 4c75 72bd
00000270: c535 b2bc aa3b 31bd 2c61 233a 9dda 91bb
00000280: db06 bf3c d73a 31bd b915 7cbc 4409 e438
00000290: 2aef eb3c 41f5 853c dd2e 47bc 5105 ba3b
000002a0: a47a 0c3d a156 7abc 2372 03bc 779f 2abd
000002b0: a6ae 0c3d ff96 033d deb3 a0bc a522 ef3b
000002c0: 4f33 783d cd1e 2a3d 9974 063b 2138 593d
000002d0: 1e24 023d e9f8 9bbc 9d22 3abd 9494 f43c
000002e0: 94a4 26bc 32a4 1a3d f7b6 f73c dbe4 423d
000002f0: fc4c e5bb d458 b5bc 933e 87bc 0abe caba
00000300: aea4 a73b ee12 3f3d 0d58 373d 5352 d6bc
00000310: 3416 71bc 63f8 dc3c 8b33 223d 9f0b 46bd
00000320: e2de 773d 8963 3dbd 2be9 8e3b 393b 4e3d
00000330: 4b09 1abd 0b9b 443c 0a27 2dbd b109 7cbc
00000340: 947b 2ebc 7a2e 47bd 4b75 053d 2f26 183d
00000350: afb5 30bd 7f2d fb3c acd0 82bd 3335 b9bc
00000360: 91d5 91bc 0b38 033d 8ba4 07bd c334 80bc
00000370: 485e 003d 8e9f 9d3c b70c 86bb 6c2b 673d
00000380: f543 20bd 4ffd c73c d6cc c9bb e5f8 16bd
00000390: c0cf edbc 50ab 21bd 7922 1c3d 940e 2f3d
000003a0: 0c8d 113c 45fe 12bd d184 3e3d 7672 bebc
000003b0: fa23 9f3c 16c3 6b3d 7a51 213d 1fa4 3f3d
000003c0: dfa9 1cbc c534 4d3c d814 4e3d d8da 42bd
000003d0: 2bcb ab3c 142e e53c be3b 053c f6b8 4ebc
000003e0: 00a2 72bd 313f 853a bce2 1a3b c7bf 39bc
000003f0: 3deb 6bbc bf9a 2abd 4c63 56bd 6b5f b0bc
-0.011169454 -0.050407 -0.026405359 -0.0011985118 0.0013763328 -0.021986308 -0.024064882 -0.03959735
0.026385767 -0.036484122 -0.0016339711 -0.015525764 -0.05570046 0.012813617 0.030544553 -0.026858114
-0.047253314 0.011819866 0.020152064 0.0070241103 0.04236118 -0.0019440162 -0.06253234 -0.03595201
-0.015607491 -0.02497497 0.04735305 -0.022095643 -0.053962924 -0.041218158 0.05468639 0.040995833
0.017086102 -0.01520205 0.006414955 -0.020092158 -0.028373364 0.03223312 -0.0026885702 -0.04664352
0.010657278 -0.012974407 0.021356419 0.029723661 0.014143432 0.013057731 -0.049445298 -0.04926399
-0.04799984 0.0060003153 -0.05274863 0.0095806075 -0.013157808 -0.022812946 -0.009502313 0.06038816
0.040451985 0.053119916 -0.0019741557 -0.04819453 0.0143791055 0.0117739225 0.019223332 0.042052854
-0.0050722505 -0.02562575 0.016355343 0.04815706 0.02675566 -0.0009075397 0.021686107 -0.04743581
0.050217193 -0.028752418 -0.012108058 -0.043372296 0.050182775 -0.05962717 -0.027371926 0.027040562
-0.012547807 0.015454249 -0.026633192 0.041243605 0.0073662368 0.03279971 0.0041511436 -0.024358822
0.016850142 0.018815383 -0.060203463 -0.02339751 0.01410619 -0.060275722 -0.034310095 -0.06315873
0.043639366 -0.010110464 0.048940472 -0.00834163 0.0012861313 -0.037858248 -0.0005286568 -0.01771277
-0.033808462 -0.014699955 -0.050422665 0.027828433 -0.048018828 0.0045571146 -0.037322607 -0.01315416
-0.06410766 0.011612709 -0.026400877 0.03948782 -0.022497777 0.021935983 0.0053229816 0.05062213
-0.018764151 -0.027580017 -0.015321473 -0.040674247 0.031800516 -0.03486314 0.008595059 -0.058280814
-0.046758 0.010629801 -0.04072461 -0.03346104 0.03574509 0.020795923 0.035290666 0.013727991
0.030244684 -0.004063489 -0.06324948 -0.03696409 0.025346484 0.019919679 -0.06144501 -0.059427347
0.04351458 -0.042279635 0.049484085 -0.0061507258 -0.005499264 0.048270017 -0.032693584 -0.06626101
0.03619126 -0.0404986 -0.03319811 -0.059193894 -0.021754155 -0.04326979 0.0006232436 -0.0044511096
0.023318699 -0.043269005 -0.015386038 0.00010873613 0.028800566 0.016352298 -0.012157169 0.0056769033
0.034296647 -0.015279443 -0.008022818 -0.041655984 0.034346245 0.032126423 -0.019617017 0.007297831
0.060595807 0.04153328 0.0020516275 0.053032044 0.031772725 -0.019039588 -0.045443166 0.029856004
-0.010171074 0.037754245 0.030238612 0.047581535 -0.0069977026 -0.022137083 -0.01650933 -0.0015468013
0.005116067 0.046648912 0.044761706 -0.026162302 -0.014714766 0.026973909 0.039599936 -0.048350926
0.060515292 -0.046237502 0.004361292 0.050349448 -0.03760652 0.011999856 -0.04227356 -0.01538317
-0.0106495805 -0.048628308 0.032582562 0.03714579 -0.043142017 0.030661343 -0.06387457 -0.022608375
-0.017802032 0.03203587 -0.033115905 -0.015650159 0.031339914 0.01924112 -0.004090871 0.056437895
-0.03912731 0.02441278 -0.0061584515 -0.036858458 -0.029029727 -0.039470017 0.038118813 0.042738512
0.008883726 -0.03588702 0.046513382 -0.023247939 0.019426335 0.057559095 0.039384343 0.046787377
-0.009561985 0.012524788 0.050312847 -0.047571987 0.020970901 0.027976073 0.008131919 -0.01261734
-0.059236526 0.0010165927 0.002363368 -0.011337227 -0.014399347 -0.041651484 -0.05234079 -0.021529874

shared_encoder.4.bias f4 [64]
00000000: 4ad1 6e3d 2fa0 7a3d 6472 80bd 17fb 2a3d
00000010: 0ce4 a43c 24c9 e43c 67b4 19bd 19ab 2c3d
00000020: 20ab 15bd f2fa aabc d1ca d3bc e29d 9a3c
00000030: 50b5 2dbd fe5d 233c bc76 9cbc 2b7d 273d
00000040: 7145 f5ba b738 913c fad9 f53c c52e 24bd
00000050: e04d 233d fee3 233d d21a 09bd c2d0 07bd
00000060: c0cd 0abd 73a4 703d 4426 cabc afb6 4c3d
00000070: 0d96 81bd 5f51 8e39 a701 84bd 7dc4 303d
00000080: fbac b33b 5e5e e4bc dd6d 65bd 852e 30bd
00000090: 41d6 22bd 15f3 73bd 7e8b b93c 9459 023d
000000a0: 2c22 ecbc 6517 803d 83ee 43bd 115d f2bc
000000b0: 59ee 683b 63eb 163d e51d 873d a0b7 0f3d
000000c0: 23ed 303d cf6d 903c ee9d a5bb 64a6 82bc
000000d0: f927 aa3b af1d 10bd 166a 283d 3c64 fdba
000000e0: e4cd bd3c 83b8 0fb9 ff55 2fbd 6158 a1bc
000000f0: 29db 5dbd 4af4 c33c c1b9 0f3d d3ce 4b3d
0.058305062 0.06118792 -0.06271818 0.041743364 0.020128272 0.027927943 -0.03752556 0.04215536
-0.03654015 -0.020871613 -0.025853546 0.018874113 -0.04240924 0.00997114 -0.019099586 0.040890854
-0.0018712712 0.017727239 0.030011166 -0.040083665 0.03986919 0.040012352 -0.033472843 -0.03315807
-0.033887625 0.05875058 -0.02467645 0.04997891 -0.06327448 0.00027144977 -0.06445628 0.043156136
0.0054832674 -0.027877029 -0.056012977 -0.043013114 -0.03975511 -0.059557993 0.022649523 0.03182371
-0.028824888 0.06254462 -0.047834884 -0.029585393 0.0035542457 0.036845576 0.06597499 0.035087228
0.0431949 0.017630486 -0.005054227 -0.015948482 0.0051927534 -0.03518456 0.041116796 -0.001933224
0.023169465 -0.00013706279 -0.04280662 -0.019695463 -0.054164086 0.023920197 0.035089258 0.04975779

fc.0.weight f4 [32, 64]
00000000: bc6c eb3d d8ed b4bd b461 a13d 2dfc 8cbd
00000010: 8b02 59bd e5b5 9ebc b76c 943d 85ee 82bd
00000020: 0d64 003e a86c 5d3a 4b04 b33d ca3b 253d
00000030: 9f37 e23c 1515 b2bd fc9e 3abc 4065 003d
00000040: 8f3e 5abd d417 7f3c d743 00bd a519 b03d
00000050: 5fd8 123d a501 10bd ed76 6bbd 9953 62bc
00000060: 23d1 bdbd e803 a9bc 3eb5 0bbd a11a cbbd
00000070: 3b70 6dbd a17c f4bc c6fe 77bd 591f cfbb
00000080: 6750 f8bd 9ce7 debd 917f d0bd 7484 c23b
00000090: f6d6 6c3d 561a 51bd 4a1a fc3d f5ad b0bd
000000a0: 8735 e3bc 90fe 923c 6dfc 2f3d e626 89bd
000000b0: 1bab 36bd 4191 ddbd 6017 1ebd 9691 91bd
000000c0: 2d82 19bd b89c 68bb 96f8 aa3d 7c00 143d
000000d0: 4874 433a 06c8 acbd d7aa 7ebc 0c40 ff3c
000000e0: e875 8e3c 079b 8b3c add9 09bd 5aca 0f3c
000000f0: 65e8 9ebd 2c6d 7dbc 73d2 973d d158 d13c
00000100: de39 ce3d 112a 99bc f8d1 2c3d b4c0 b53d
00000110: f307 f3bd 2ec0 e63d 3934 f53d ab68 a0bd
00000120: a126 bcbc 9656 36bc 1629 883c 7655 d63d
00000130: d298 23bc d9e8 b0bd aa88 9d3d 20d4 b0bd
00000140: 14d7 e93d b162 26bc f8ee 04bd 78d4 9ebd
00000150: 4b1d d0bc 5901 ebbd 2320 04bd a0e2 db3d
00000160: bb1b b83d cfd4 10bd ef7a d1bd afbb ae3d
00000170: 5fe7 053e 23e7 d53b 41e8 52bd cbbb 06be
00000180: 64fe d5bd 27d5 c83d 1e30 10bc d2fe a0bc
00000190: 3188 f0bc af81 19bd 2e4a bd3d 7c2e d93c
000001a0: 2b77 ed3d e627 4cbd 2aa9 24bc 5e94 0d3e
000001b0: 8ee3 52bc 5ae3 933d 0fcd 52bd 8526 c33d
000001c0: d9ce 0d3e 1fa5 573d 3408 053e cd90 c73d
000001d0: f085 b7bd 84b5 23bd e75a efbd a26d 973d
000001e0: f0d7 223d 0b11 f73c e4d0 ef3d d6e5 b73c
000001f0: ce38 1e3d 01c5 efbc 5850 7b3c 0c0c a7bd
00000200: 6c67 06be 17f9 8b3d 6c81 cb3d 56fe 2ebc
00000210: 8725 2d3d 8088 d9bc 6d5a b2bd 7b93 f9bd
00000220: e2c8 afbd 0b88 d23c 6f6b 363c b1c6 a6bd
00000230: 3adc 103d d8e3 08be 5049 9bbc dae6 1a3d
00000240: 200b 89bc 6d46 dc3d 646e 2fbd 041f 94bd
00000250: ed73 7ebd a99f 94bd cd53 723d da85 b0bd
00000260: 1052 b03d 01c0 04be 7d50 b9bd 2b40 9d3d
00000270: 1265 c73d 8ea4 82bd ed35 9a3d eed5 873a
00000280: 7288 453c 7dd8 7dbd f67c 0d3e 8608 883d
00000290: 6212 b5bd 998f e23d ffba a4bd bf2b a03d
000002a0: 7eae edbc 65e3 04be de96 4b3d ff95 523d
000002b0: d362 003d 9a70 723c 41bc dfbd 0201 183d
000002c0: 0c3f abbd bc12 53bd 784f de3d 0a6d 2ebd
000002d0: 3703 0cbd 5a6b e23d 8ae5 9abd 8d39 383d
000002e0: 0bd0 aa3d b41a f4bc 8b1b 0b3e 8219 89bd
000002f0: 6083 873d c7a0 b63d 2b75 10bd 06ff 75bd
00000300: 2149 67bd 4187 8c3d 157c d1bc 97d1 ae3d
00000310: 8fba 40bd 5067 b6bd 589c 89bd 4849 66bd
00000320: a6fe f1bc 74ba 3e3d f8b6 a63c c072 f93c
00000330: 7fb4 333c c2d8 d63d 2d9b 973a 31d1 d83d
00000340: 8977 3dbd e427 3dbc 02c8 4e3d 1ad7 583d
00000350: 16f8 623d c1be 4a3d 66da dc3d d25c c03d
00000360: ab2d 73bd 05d8 ebbd 457b 013d 2633 043e
00000370: 01ac 813c a51f 32bc e5ce da3d cd23 943d
00000380: 25b4 e33d 3eb1 833d 2f6d 223c 8e07 c6bd
00000390: 0b2b 6fbd b929 1b3d 7bfb a03d c0b4 bfbd
000003a0: 41cc 88bd 3fb3 7a3d c25a 193d adfd 3f3d
000003b0: a113 9e3d 200f 73bd 0460 553d b2d6 8cbd
000003c0: 9f92 33bd f4fa a6bd 8194 dbbd eff5 7e3d
000003d0: 3cd7 e7bd 57a0 dcbd f267 c03d 88db 8d3b
000003e0: a4fc ac3c 588c c2bc e891 913d 878d 97bd
000003f0: 1497 a1bd 10d0 e73d ad3e d53d fab6 cdbc
0.11495349 -0.088344276 0.078799635 -0.06884036 -0.05298094 -0.019373843 0.07247298 -0.0639315
0.12538166 0.0008446672 0.08741053 0.040340222 0.027614413 -0.08695427 -0.011390444 0.03134656
-0.053282317 0.015569646 -0.031314697 0.08598641 0.03585088 -0.03515782 -0.057486463 -0.013813877
-0.09268405 -0.020631745 -0.034108393 -0.099171884 -0.05796836 -0.029844584 -0.060545705 -0.0063208756
-0.121247105 -0.1088402 -0.10180581 0.0059362 0.05782219 -0.051050507 0.12309702 -0.0862693
-0.027735485 0.01794365 0.04296534 -0.066968724 -0.044596773 -0.108187206 -0.03859651 -0.071078464
-0.03747766 -0.0035493802 0.08348195 0.036133274 0.0007455987 -0.08436589 -0.015543661 0.03115847
0.017390206 0.017041696 -0.033654857 0.008776272 -0.077591695 -0.015467923 0.07413187 0.025555046
0.10069631 -0.018696817 0.04219243 0.08874646 -0.118667506 0.11267124 0.11972851 -0.07832464
-0.022967638 -0.011129042 0.016621154 0.10465519 -0.009985166 -0.08638162 0.07692082 -0.0863421
0.11417976 -0.010155366 -0.03245446 -0.07755369 -0.025404593 -0.114748664 -0.03225721 0.10736585
0.08989664 -0.0353592 -0.10228526 0.085318916 0.13076542 0.006527798 -0.051491026 -0.13157575
-0.10448912 0.098062806 -0.0088005345 -0.019652758 -0.029361816 -0.03747719 0.09242664 0.026511423
0.11594995 -0.049842738 -0.0100500975 0.13826129 -0.012871636 0.07221098 -0.05146509 0.095288314
0.13848437 0.052647706 0.1299141 0.097444154 -0.089610934 -0.03996803 -0.1168726 0.07393958
0.039756715 0.030159494 0.117097646 0.022448462 0.038628392 -0.029268743 0.01533898 -0.08156595
-0.1312539 0.068346195 0.09936795 -0.010680756 0.042272117 -0.026554346 -0.087086536 -0.12186333
-0.08583237 0.025699636 0.011134013 -0.08143366 0.035366274 -0.13368165 -0.018955857 0.037817813
-0.016728938 0.1075562 -0.042829886 -0.07232478 -0.062122274 -0.07257015 0.05916195 -0.0861928
0.08609402 -0.12963869 -0.09048555 0.07678255 0.097360745 -0.063790426 0.07529817 0.0010363439
0.012056457 -0.061974037 0.138172 0.06642251 -0.08841397 0.11062545 -0.08043479 0.07820844
-0.029013868 -0.12977369 0.049704425 0.05141258 0.031344246 0.014797354 -0.109245785 0.037110336
-0.083616346 -0.05153154 0.10855001 -0.042584457 -0.034182753 0.11055632 -0.07563312 0.04497676
0.08340462 -0.02979789 0.13584726 -0.06694318 0.06616855 0.089173846 -0.03526799 -0.060057662
-0.056466226 0.06861735 -0.025571862 0.0853607 -0.047052916 -0.08906424 -0.06719273 -0.05622223
-0.029540371 0.046564534 0.020350918 0.030450225 0.010968327 0.10490562 0.0011566632 0.10586775
-0.046256576 -0.011545155 0.05048371 0.05293951 0.055412374 0.049498323 0.10783844 0.09392704
-0.059369724 -0.11515812 0.0316117 0.12910137 0.015829088 -0.010871802 0.10683993 0.07233391
0.11118344 0.06430291 0.009913727 -0.0966941 -0.05839066 0.037881587 0.07860466 -0.09360647
-0.06679583 0.0612061 0.03744007 0.046872783 0.07718588 -0.059340596 0.05209352 -0.068768874
-0.043841 -0.08153334 -0.10721684 0.06224626 -0.113203496 -0.1077277 0.09394826 0.0043291487
0.021116562 -0.023748562 0.071079075 -0.07400041 -0.07890144 0.11318982 0.10412345 -0.025111664

fc.0.bias f4 [32]
00000000: 9325 56bd 7a66 bfbd f5e2 923d f368 abbd
00000010: 1d12 babc e5c8 e0bc 7522 08be 21e2 e4bd
00000020: e6cd 99bd 978b 9abd 0f26 88bd 84ec 82bd
00000030: ecf3 9bba 2b8d f93d 6330 92bd b53a eabd
00000040: e0f2 c93c 1708 713d 3350 913d 9e2b b03d
00000050: 0a8f 85bd 2e35 d5bd c44e c6bd ecfd 093d
00000060: 9b60 d63d 20ea 6fbd e37f ea3c 5a7d 513d
00000070: e950 24bc a3e8 af3c c83b b83a 0f3f 8dbd
-0.052281927 -0.09345718 0.07172195 -0.08369627 -0.022713715 -0.027439544 -0.13294394 -0.11175943
-0.07509975 -0.07546156 -0.06647884 -0.06392768 -0.0011898256 0.12185129 -0.07138135 -0.11436979
0.024651945 0.058845606 0.07095375 0.08602069 -0.06521423 -0.10410534 -0.09682992 0.033689424
0.10467645 -0.05857289 0.028625434 0.051144935 -0.010029056 0.021473235 0.0014055902 -0.06896793

attention.in_proj_weight f4 [96, 32]
00000000: 8ecb dc3d 0f87 593e 1492 51bd eb44 4b3e
00000010: 35d4 0e3e fdfe 0ebe c0a5 993b 0062 49bb
00000020: 62b8 ef3d d842 cfbc c82e f93c 44f0 493d
00000030: 2e28 5cbe 692f 0b3e 049d 473d a824 8fbd
00000040: 4b3b 073e 444f 3e3d 4276 a7bd 04ed 493d
00000050: f769 47be b0c3 a5bc 7211 54be 80f8 82bd
00000060: 9558 5c3e e746 183e 4dbf efbd c473 533d
00000070: 2476 52be e7cc 0d3e 74c5 27be e0b5 2ebc
00000080: de2a b83d 9439 603d d552 473e 2a28 b0bd
00000090: 2cca 29bd 5f64 57be e809 77bd e2c6 d63d
000000a0: 9eaa 9f3d f3c0 563e 0cdb 83bd bdf8 3ebe
000000b0: dc3a 71bd d449 10bd 4c92 153d d394 113e
000000c0: c5d7 fabd 84cc 13be 3448 743d 3ac5 9c3d
000000d0: 792c 38be d8c0 c9bc f06a 2b3c 5153 f1bd
000000e0: bedd 943d 95e3 3dbe 91ef fcbd 205c 14be
000000f0: 4d59 39be 0143 123e 4a2a 9e3d 9c7b 6b3d
00000100: f021 75bc 425b 4ebe 9efe 20be 31b3 d8bd
00000110: 33a3 27be 297e 4c3e 07ad 0ebe 6dfa e8bd
00000120: 3b9e 28be 8bf9 0c3e eb2d 4c3e bd62 05be
00000130: 636d 3fbe b3e8 dbbd ac53 7cbd 65ce 253e
00000140: 96f1 f83d 7ebe 923d 80f6 d9bc 2489 3bbd
00000150: 6043 04bd 1874 af3c b926 523e bf42 37be
00000160: a50b 4d3e 1baf ffbd 6ba7 ddbd 8049 95ba
00000170: 0b3b 103e 34dd 5d3d 0795 223e 00bb feba
00000180: b1b7 323e 4203 f43d a718 54be ebc7 f1bd
00000190: ced7 26be d703 4bbe 39c9 5abe e350 113e
000001a0: 34f4 8ebd c838 74bd 288c f63c c5ab 57be
000001b0: 16ef 9c3d e841 803c 9093 44bc 25f5 43be
000001c0: e586 2f3e e571 4bbe 492f 1ebe 0c29 90bd
000001d0: 7023 f73c fab0 15be 288d bc3c d2be 903d
000001e0: 87b2 ddbd 1086 0abe 1b14 113e 0042 0e3a
000001f0: 6a76 58be bc59 713d a2c9 a83d 2095 c23b
00000200: 8553 0bbe be57 dabd e363 473e 28d2 a2bd
00000210: aa7c 10be c003 8c3c eae6 8a3d d4f6 23be
00000220: 0c82 1f3d 991f 423e e39a 54be 2eb8 883d
00000230: 5d98 263e ced2 a83d e5cf 38be a6c8 f93d
00000240: cb69 4b3e d6be 0ebe 4e8c 8f3d ee5f fd3d
00000250: b5ce 2cbe 76c5 dd3d 991f 3bbe 6467 1a3d
00000260: 087e c0bc e07a a3bb 4cd2 27bd 8c51 013d
00000270: c8e7 86bd bc34 5f3d a888 843c 9592 c6bd
00000280: 73c0 3c3e a8ef b5bc db78 493e 6686 813d
00000290: e69b a53d 447b 04bd f296 be3d 8ab3 dd3d
000002a0: 06e9 e23d 8064 583b ac17 9fbd 8c7b 173d
000002b0: 1cc9 053d 9a39 fc3d 5a05 9abd dac7 983d
000002c0: 0b0b 203e 02e1 b9bd 40ea ddbc a7da 4d3e
000002d0: 6678 9abd fa53 943d c8b3 10bd fb79 443e
000002e0: 9874 42be 8419 693d 6292 48be 5b77 0dbe
000002f0: fa36 55be 986e 8c3c e0d7 36be 99c4 4cbe
00000300: ae84 983d a665 e53d f0c6 24be 1f62 3a3e
00000310: 72cf d8bd 4e37 a93d bf80 1c3e 9243 c33d
00000320: 3200 8a3d bbf4 333e e79d 5b3e 4f61 003e
00000330: 1e9b a4bd 1752 3f3e bffe 54be 1a47 ca3d
00000340: e9d0 2a3e 9242 19be caa2 e73d b471 47be
00000350: 08b1 1ebd 8029 bdbb 72c4 bb3d 6072 2cbc
00000360: 9c77 24bd 92b8 d33d 0c3a 143d 302f 14bd
00000370: 6f11 403e c0dd bc3b ff01 163e 6420 95bd
00000380: ec24 15bd 35dc 0d3e 1250 8c3d 62cb b1bd
00000390: 3f4c 4dbe d86e 47be ecbb 1a3d c01f 02be
000003a0: 1084 44bd 104e 6d3c 7e05 18be 584a 0bbe
000003b0: 7cd4 5e3d 102b 03be 3681 29be 3487 9abd
000003c0: 87e7 27be d547 0a3e e129 423e 1b60 043e
000003d0: b4ee 283d deb2 ab3d 0cf0 0fbd ce80 b83d
000003e0: e2a8 df3d 8c31 0a3d 525c 8a3d 3868 72bd
000003f0: 1a9c 57be 54c3 2d3d c70d 433e 7840 c1bc
0.107810125 0.21242927 -0.0511647 0.19850509 0.13948138 -0.13964458 0.0046889484 -0.0030728579
0.1170509 -0.025300428 0.030417815 0.0493014 -0.21499702 0.13592304 0.048733726 -0.069894135
0.13206212 0.046462312 -0.08176853 0.0492983 -0.19474016 -0.020234913 -0.2070978 -0.06395054
0.21518166 0.14870797 -0.117064096 0.051624075 -0.2055288 0.13847695 -0.16383916 -0.01066348
0.08992551 0.05474241 0.19465192 -0.08601411 -0.04145257 -0.21034382 -0.06031218 0.10487153
0.077962145 0.20972042 -0.06438264 -0.18649574 -0.058894023 -0.035226658 0.036516473 0.14216928
-0.12248186 -0.14433485 0.05963917 0.076548055 -0.17985715 -0.024628088 0.010462508 -0.117834695
0.072688565 -0.18543847 -0.12350381 -0.14488268 -0.18100472 0.14283372 0.0772291 0.05749093
-0.014961705 -0.20152 -0.15722129 -0.10581053 -0.1637085 0.19970001 -0.13933192 -0.1137589
-0.1646661 0.13767068 0.19939391 -0.13025947 -0.18694071 -0.10737743 -0.061603233 0.16192015
0.12155454 0.0716524 -0.026606798 -0.045785084 -0.032290816 0.021417663 0.20522584 -0.17896555
0.20023973 -0.124845706 -0.10822948 -0.0011389703 0.14085023 0.054166034 0.15877162 -0.0019434392
0.17452885 0.11914684 -0.20712529 -0.118057095 -0.1629326 -0.19825684 -0.21365823 0.14191012
-0.06980172 -0.059624463 0.030096129 -0.21061619 0.076627895 0.015656427 -0.011998072 -0.19136484
0.17141302 -0.19867666 -0.15447725 -0.07039079 0.030168265 -0.14618292 0.023016527 0.07067646
-0.10825067 -0.13527703 0.14167826 0.0005426705 -0.21138921 0.058923468 0.082415834 0.0059381872
-0.13606079 -0.10661267 0.19471698 -0.079502404 -0.14110056 0.017091632 0.067823246 -0.16012126
0.03894238 0.18957366 -0.2076221 0.066757545 0.1626906 0.08243333 -0.18048055 0.12196474
0.19864576 -0.13939986 0.07009183 0.12371813 -0.16875727 0.10828678 -0.18273772 0.037696257
-0.023497596 -0.004989013 -0.04097204 0.03157191 -0.065871775 0.05449365 0.016178444 -0.09695927
0.18432789 -0.022209004 0.19675009 0.063244626 0.08086376 -0.032344118 0.09306134 0.1082526
0.11079602 0.0033018887 -0.07768187 0.036983058 0.032662496 0.12315674 -0.07520552 0.07459994
0.15629213 -0.0907612 -0.027089238 0.2010294 -0.075424954 0.0724258 -0.035327703 0.19187157
-0.1898979 0.0569091 -0.1958709 -0.13815062 -0.20821753 0.017142579 -0.17855787 -0.19996871
0.07447182 0.112010285 -0.16091514 0.18201493 -0.10586442 0.08262502 0.15283488 0.095343724
0.067383185 0.17573826 0.21446954 0.1253712 -0.08037399 0.18683659 -0.20800303 0.09876843
0.16681255 -0.14966801 0.113103464 -0.19476968 -0.03874305 -0.0057727695 0.09168328 -0.010525316
-0.04015313 0.10337938 0.03618817 -0.036177814 0.1875665 0.0057637393 0.14649199 -0.07281569
-0.036412165 0.13853534 0.0685121 -0.0868137 -0.20048617 -0.19475877 0.037776873 -0.12707424
-0.047977507 0.014483944 -0.14845845 -0.13602579 0.05440186 -0.12809396 -0.16553196 -0.07545319
-0.16396914 0.13503964 0.18961288 0.12927286 0.04124327 0.083837256 -0.035141036 0.090089425
0.10920884 0.033738658 0.0675589 -0.059181422 -0.21055642 0.042422608 0.19048224 -0.023590311

attention.in_proj_bias f4 [96]
00000000: a0bd 01b1 c7f4 91af 04ec 5f30 2f86 c6af
00000010: b680 b92f 231c 4430 b552 3730 47f8 eaaf
00000020: 33f2 6eb0 965d cb2f 3df6 a82e 86be 302e
00000030: da9b 11b0 aef6 3e30 737d 7630 0cd2 8b2f
00000040: f264 3330 6ce9 a52f 083d cbaf b775 17af
00000050: bc27 f7ae 8f2f 1fae c0b5 ac2f 478c 87af
00000060: 3f9c 20b1 ac2a abb0 8548 c830 2a9d 15b0
00000070: 9952 11b1 9802 5831 421a 40b0 adba a930
00000080: 01c4 e92e 8e36 b5af 393d f92f d08d 1b30
00000090: c537 87af 7ab8 baaf 0903 ceaf 4ea2 0e2f
000000a0: 5fac 1130 b548 07b0 73a3 1fb0 de8c f72f
000000b0: 6853 0fae 0720 7f30 ce52 f8ae 382c 1baf
000000c0: 5b09 062f fddb 5b30 f9d2 cc2f 957e 2430
000000d0: 0ebb 1caf b5c0 0fae 98ad d8ae de51 3fae
000000e0: 0220 8f30 580f 4330 0644 e5b0 0d9d 2030
000000f0: f05e 0d31 863a f830 629b 1db1 cfeb 73b0
00000100: 9a43 98b8 a86a 0c3c 78ee 91bb 44df eb3b
00000110: edee 83bc 7670 3fbb a792 85bc 81ac 36bb
00000120: a781 38bc 0cf5 96bb 15d7 903c f350 503b
00000130: 6bff 01bc 3918 27bc f3c4 c93c ea18 16bc
00000140: 2e5c 4e3c 5a81 0437 d317 13bc b9a6 343c
00000150: 821b a7bc b98f 0d3c 2d75 7fbc 2bfe 453c
00000160: 6b43 93bc 92ac 88bc cbfa 6c3c cbfc 42bc
00000170: 463d a0bc 1816 2fbc 98db a1bb bb93 8b3c
-1.887976e-09 -2.654927e-10 8.1462326e-10 -3.6111333e-10 3.3742759e-10 7.134437e-10 6.6692546e-10 -4.2740764e-10
-8.692808e-10 3.6991982e-10 7.683496e-11 4.0186986e-11 -5.297217e-10 6.947215e-10 8.967255e-10 2.54332e-10
6.526327e-10 3.017918e-10 -3.696885e-10 -1.3775191e-10 -1.1239318e-10 -3.6194655e-11 3.141576e-10 -2.465603e-10
-2.337188e-09 -1.2454016e-09 1.4572527e-09 -5.442923e-10 -2.1147228e-09 3.1433611e-09 -6.988651e-10 1.2349425e-09
1.06304306e-10 -3.2962472e-10 4.5336337e-10 5.65902e-10 -2.4595984e-10 -3.396428e-10 -3.7473338e-10 1.2972487e-10
5.2995647e-10 -4.9216037e-10 -5.807614e-10 4.502913e-10 -3.2588515e-11 9.2813973e-10 -1.12924434e-10 -1.4112878e-10
1.2190553e-10 7.998436e-10 3.725729e-10 5.9842736e-10 -1.4254573e-10 -3.2685594e-11 -9.853379e-11 -4.3501085e-11
1.0413717e-09 7.096239e-10 -1.6681276e-09 5.8430843e-10 2.0572166e-09 1.8061008e-09 -2.2934832e-09 -8.873799e-10
-7.2605166e-05 0.008570351 -0.0044534765 0.007198246 -0.01610514 -0.002921132 -0.01630528 -0.0027873816
-0.01126138 -0.0046068486 0.017680684 0.003178653 -0.007934432 -0.010198646 0.024630046 -0.009161213
0.01259522 7.89793e-06 -0.008977848 0.011026078 -0.020398859 0.008640223 -0.015591902 0.012084524
-0.017976483 -0.01668385 0.014464091 -0.011901091 -0.019560467 -0.01068642 -0.0049395077 0.017038217

attention.out_proj.weight f4 [32, 32]
00000000: 92dd 64bd f568 e1bd a672 423d 0523 68bd
00000010: aee8 583d 9309 443b 4a79 72bc e661 233e
00000020: 0f51 0a3d a9fd 02be 81b4 bebd df86 bebd
00000030: becc cebd 5767 1a3e ed01 c5bd aad4 cf3c
00000040: 48cf aabd c3d7 2fbe 667c 0cbe 1a22 0dbe
00000050: 5be3 933c f959 8f3d bdb1 3b3d 7c63 34be
00000060: 3c40 c5bd a0dd 9f3d 6b59 c3bd aa38 c43d
00000070: a61d c8bd 0fe3 20bd 1ed0 ce3d fb73 a43c
00000080: 0b7c 673c aa46 39bd bbd5 ebbd 988a 56bd
00000090: 78a2 1f3e 627b e03d 502a 0dbe 8ad0 36be
000000a0: 6765 f63d 8b63 1d3e e537 d4bd 1168 a0bc
000000b0: f866 0a3e 3216 93bd 23c5 35be 4e3a 1d3d
000000c0: f4de 1ebe 37d9 ce3d f55f b7bc 2eed f2bd
000000d0: f7e1 133e 7b61 2bbe 99a6 9c3d b21f de3d
000000e0: 4d9a 5c3d 06fa f33d 3e7a 03be ba29 3bbe
000000f0: 1f6a afbd 6686 4c3d de9d 843d 54f3 15bd
00000100: bf81 233e d6af 0fbd a1e9 9a3c 7b70 cbbd
00000110: 8bd7 05be 8905 36be ddc5 0dbe 220b 023e
00000120: e750 b43c 2679 a4bd e58e 7e3d c280 f13d
00000130: 202b 383e 06ca b53c 967a 213e 4c3f a23d
00000140: c7d1 dabd 0833 c53d 8ce4 123e 8c6a f4bc
00000150: f323 273d b214 b53d 1c68 40bc 00d3 20bd
00000160: 4a74 883c 6e35 293e 4eed a5bd 5367 0a3e
00000170: b7ca babc 28c4 d5bc f597 2e3e d19e 813d
00000180: 81b7 723d 270a c3bd 0415 5c3b a98f 7f3d
00000190: c1f9 e03d e232 d2bd 4943 8d3d 90b1 1bbe
000001a0: 7e1e be3c 1906 9a3d 20aa ba3c 5a8a dd3d
000001b0: 92cc babd e3ad 19be 084d a73d 7a96 09be
000001c0: 4f54 c23d e2ff 0a3e 7fc5 e2bb bfdc d73d
000001d0: fee1 2a3e 069a 02be ee96 0a3e 01d8 6bbc
000001e0: b609 233c 656f a03d 60c5 b73c 9df8 dc3d
000001f0: 4965 64bd 6dba 863d 2f1b 0dbe 1f0b 16be
00000200: e67b ffbd 2710 a3bc 485e 4139 0ea2 9c3d
00000210: 8ce7 d3bd 8d0c 41be 0952 3f3e fb04 853c
00000220: 38b5 923c 6c83 0abd f698 0abe c134 75bc
00000230: 97fe 43bd 2aaf 013e 2286 d6bd 9abc 4dbd
00000240: eb67 e0bc 0aa2 f9bd aeb5 85bd 0f18 06be
00000250: c91c ba3c 24a7 0fbe af86 4bbc 7fdf 13be
00000260: a346 1f3e 44b6 443e 3d79 d5bd f7fc d43d
00000270: f115 ef3d 8abc 013e 4107 ba3d da1e 25be
00000280: de64 5a3d b9d0 acbd 3a47 c93d 8ec9 f9bd
00000290: bde6 13be 61a2 b7bd 73b2 37be f879 863d
000002a0: 647f 74bd eba0 ae3d 8cd2 db3d 35bc 1b3e
000002b0: 71e3 e7bd f0ab 093e ff37 273e 65b3 80bd
000002c0: 141d 393d e285 ab3d 76e2 edbd faad b9bd
000002d0: e320 cd3c f2ea 15be 1961 9bbd 4b58 b039
000002e0: 6bc3 183e eb9d 2abe 6aeb d33d cba2 c7bd
000002f0: c519 a03d 375e 05be 51da 173e af86 b0bd
00000300: 34f3 02bd 9ce0 303e a094 84bd 77f7 283e
00000310: 2c43 1f3e cfe2 263e 3939 3abe 7fd5 2f3d
00000320: 8c15 e23d 0eb4 08be fce9 be3d d5c3 d9bd
00000330: 9582 f23d 2a95 66bd 843a 2abd 161c 69bd
00000340: bf6a ddbd 996a 293e 3e55 e1bd a7c7 2abe
00000350: 87a3 ae3d ba03 6abd ad02 343e 3f5a 1ebc
00000360: 4d1c 06be d51c 483d 2d35 4cbc e128 fcbd
00000370: c41a 723c 19c9 05be 7c8e 0e3e 078d a33c
00000380: 75e3 c4bc e13b 953d c701 50bd 16fb 823d
00000390: 24a3 2e3d 5a2f cd3d 7f37 b33d 7e1d bbbd
000003a0: 212d c8bd 03b7 fa3c abfc db3d 7879 c23d
000003b0: ab96 30bd 1970 31be c7d4 c13d 023f 88bc
000003c0: 2723 0b3e af1a 23bd 9646 ee3c e81c 193e
000003d0: 5d4b 853a 1ea0 63bc 2e86 7abc 25ac a83d
000003e0: 89f5 aabc 3749 ed3d baf0 0a3e e121 ddbd
000003f0: 45ea 27be 1e8b 29be cfd0 50bd abd7 bdbd
-0.05587537 -0.11006347 0.04747262 -0.056674022 0.052956276 0.0029912933 -0.014799425 0.15955314
0.03376871 -0.12792076 -0.09311772 -0.09303068 -0.10097645 0.15078484 -0.09619508 0.02536996
-0.08340317 -0.1717215 -0.13719329 -0.1378254 0.018052747 0.06999583 0.0458238 -0.17616075
-0.09631392 0.078059435 -0.095385395 0.0958112 -0.0977128 -0.03927904 0.10098289 0.020074835
0.014128695 -0.045233406 -0.11515375 -0.052378267 0.1558932 0.109610334 -0.13785672 -0.17852989
0.1203106 0.15370004 -0.103622235 -0.019580873 0.13515842 -0.07181968 -0.17750983 0.03838568
-0.15514737 0.10100024 -0.022384623 -0.11861645 0.14441667 -0.16736405 0.076489635 0.10845889
0.05385809 0.119129226 -0.128396 -0.18277636 -0.08565163 0.04993286 0.06475423 -0.03660901
0.15967463 -0.0350798 0.018910231 -0.09933563 -0.13070504 -0.17775549 -0.1384501 0.1269956
0.022011233 -0.0803092 0.062147994 0.11792137 0.17985201 0.022191059 0.15769419 0.07922229
-0.10684543 0.09628874 0.14344996 -0.029835962 0.04080577 0.08841838 -0.011743572 -0.039263725
0.016657013 0.16524288 -0.08101903 0.13515978 -0.02280174 -0.026094511 0.17050155 0.0632912
0.059257034 -0.09523421 0.0033581862 0.062392864 0.10985137 -0.102636114 0.06897599 -0.15204453
0.0232079 0.07520694 0.0227862 0.10817404 -0.0912105 -0.15007739 0.081689894 -0.13436309
0.09488737 0.13574174 -0.006920516 0.10540151 0.16687772 -0.12754068 0.13534138 -0.014394761
0.009951046 0.07833747 0.022432983 0.10789607 -0.055760656 0.06578527 -0.13779901 -0.1465268
-0.124748036 -0.019905163 0.00018441037 0.07648097 -0.103468984 -0.18852444 0.18683638 0.016237726
0.017908677 -0.03381674 -0.13534912 -0.014966191 -0.047850218 0.12664476 -0.104748026 -0.050228693
-0.027393302 -0.121891096 -0.06528793 -0.13095115 0.022718804 -0.14028603 -0.012422248 -0.14440726
0.1555429 0.19210154 -0.10423515 0.10399812 0.11674107 0.12669578 0.09083415 -0.1612505
0.05331885 -0.08438248 0.098280385 -0.12196647 -0.14443488 -0.08966518 -0.17939167 0.065662324
-0.0596918 0.085267864 0.10733518 0.15208514 -0.11322678 0.13444495 0.16329955 -0.06284217
0.045193747 0.083751455 -0.116154596 -0.090663865 0.025040096 -0.14640406 -0.07586879 0.0003363512
0.14918296 -0.16661803 0.10347636 -0.09747847 0.07817415 -0.13024221 0.14829375 -0.08619439
-0.031970218 0.17273182 -0.064736605 0.1650065 0.15552968 0.16297458 -0.18185891 0.042928215
0.11039266 -0.13349935 0.09321973 -0.10633055 0.11841313 -0.056294598 -0.04155971 -0.05691155
-0.10811376 0.1654457 -0.11002587 -0.16677724 0.08527284 -0.05713246 0.17579146 -0.009665071
-0.13096733 0.04885562 -0.01246385 -0.123124845 0.014776889 -0.13064994 0.13921541 0.019964708
-0.024034241 0.072868116 -0.050782945 0.06395547 0.04263605 0.10018797 0.087508194 -0.091364846
-0.09774233 0.030604845 0.10741552 0.094958246 -0.04311244 -0.17327918 0.09464412 -0.016631607
0.13587628 -0.03982037 0.029086392 0.14952433 0.0010169555 -0.013893155 -0.01529078 0.08235959
-0.020869033 0.1158623 0.13568392 -0.107974775 -0.1639796 -0.16556975 -0.050980385 -0.09269651

attention.out_proj.bias f4 [32]
00000000: 1d2b 32bb dcea d2bc c63d 1ebc fe8b debc
00000010: 8af9 9abc 0c08 bb3c 9f6f 103c 5f7b 8d3c
00000020: 4438 d2bb 4a11 5c3c 3b05 123c eb99 a93b
00000030: 9840 763c 484c 49ba 6405 ff3b a606 703c
00000040: 4540 2dbc e0b8 83bc 85b5 9dbb 0277 733c
00000050: 13e3 37bc a492 41ba d2d5 e4bb e683 8a3c
00000060: ff37 a23b 0e03 92bc 216b 7c3c ff65 45bb
00000070: 0a7f 2f3c c78c 99bc dc81 733c 1484 a9bc
-0.0027186342 -0.025746755 -0.009658283 -0.027166363 -0.018917818 0.022830985 0.008815675 0.017270742
-0.006415399 0.013431856 0.00891238 0.005175819 0.015030049 -0.00076789083 0.007782625 0.014650023
-0.010574405 -0.016079366 -0.0048128986 0.014859917 -0.011223572 -0.0007384217 -0.006983497 0.016908597
0.004950523 -0.017823722 0.015406401 -0.003012061 0.010711441 -0.018743886 0.014862504 -0.020692863
