IQL_CNN_blox_baseline/agent1_91.pth (torch, 745108 bytes, 10 tensors)

c1.weight f4 [32, 8, 3, 3]
000000 7e af 78 bd 92 4f 7b 3d c9 02 0a 3e 3c de 48 be
       -0.060714237 0.06135518 0.13477625 -0.19616026
000010 a6 a8 e7 3c 2b 30 c9 3c 6b 82 77 be 53 ab c0 bc
       0.02827866 0.024559101 -0.24170844 -0.023519194
000020 e2 63 4b bd 91 eb ea be d7 32 f6 3d 96 78 e0 3d
       -0.049655803 -0.45882848 0.12021416 0.109605
000030 5d 09 93 be b6 1f a9 be 2d 66 7e be 83 22 5d 3c
       -0.2871808 -0.33032006 -0.24843664 0.013496998
000040 7d bf b6 be bc 9e 8e be fe 26 b7 bd 46 28 34 3d
       -0.3569297 -0.2785548 -0.08942984 0.04398372
000050 80 f8 25 3a a5 9d 9f 3d 54 ee 82 bc 11 df a5 3d
       0.000633128 0.0779374 -0.015982784 0.08099187
000060 59 79 dd 3d 45 7b 83 3d aa 66 1b 3d 88 84 8e bc
       0.10814161 0.06419996 0.037939705 -0.01739718
000070 1c d0 b9 3c 2e ff 76 3d e4 6e f5 bc 6e 31 8d bd
       0.022682242 0.060301952 -0.029960103 -0.068941936
000080 59 39 73 bd 1a 1e 66 3d a6 b0 b7 bd 34 e6 6a bd
       -0.059380863 0.05618105 -0.0896924 -0.057348445
000090 a8 d2 05 3d a5 7b bd 3c 7d b0 7d 3e 96 84 f7 bd
       0.0326716 0.023130247 0.24774356 -0.12085836
0000a0 3f c3 97 3d 36 f0 a4 3e c7 d4 00 be c1 8f b1 3d
       0.07410287 0.32214516 -0.12581168 0.08669997
0000b0 76 41 09 3e 81 c1 3e 3d 93 c5 88 3d df 3e 54 bc
       0.13403878 0.04657126 0.06678309 -0.012954443
0000c0 e0 94 ce 3c 79 8c 4a bd 3c 3b f5 bd 60 2f 11 3d
       0.025217474 -0.04945037 -0.11974189 0.03544557
0000d0 0f ef 4b 3c 6d 29 43 be 64 2c 0f bd e0 9a ee 3d
       0.012447133 -0.19058771 -0.034954444 0.11650634
0000e0 3d 46 ff 3d 39 04 b3 bd a3 ad e6 3d 41 15 91 3d
       0.12464569 -0.0874104 0.11263587 0.07084132
0000f0 c1 42 97 3d 2c 54 c8 bd a7 d3 e1 3b 85 70 1d bc
       0.07385779 -0.097816795 0.006891686 -0.009609346
000100 b5 0b 0a 3d 47 1a d7 be e6 b8 8f bd 05 d8 c1 be
       0.03370257 -0.42012236 -0.070176885 -0.37860122
000110 35 6f 0e bd 59 35 22 3c 6b 71 e2 bd f9 b5 2d 3b
       -0.034774024 0.009900414 -0.11056789 0.002650617
000120 21 15 d7 bc 3e 8d 07 3e de 95 41 bd 02 96 ba bd
       -0.026255192 0.13237473 -0.047262065 -0.09110643
000130 19 64 34 3b 07 2c 92 bd bd 59 67 be 10 90 2a 3d
       0.0027525483 -0.07137304 -0.22592826 0.041641295
000140 7d e1 2c 3d 30 3f 11 3d 2a 91 ee 3d 8f 6c ef 3d
       0.04220723 0.03546065 0.116487816 0.11690628
000150 8a ff 6a bd 99 27 b9 be 80 4a 61 be 34 bc e9 3d
       -0.057372607 -0.36163023 -0.22001076 0.1141285
000160 3e 12 c9 3d 09 39 e8 3d 60 cb 10 bd 5e c0 1d 3d
       0.098179325 0.113390036 -0.035350204 0.038513534
000170 68 c2 17 3c 08 a8 0b bc 0c f2 ca 3c a2 39 2f 3d
       0.009262659 -0.0085239485 0.02477362 0.042779572
000180 42 92 68 3d ee 85 1c bd ed 33 be 3d 0a c6 34 3d
       0.056780107 -0.038213663 0.09287248 0.044134177
000190 04 0b fd 3c 0d d2 8f 3d 4b 59 b1 3d ba 11 7d 3d
       0.030889042 0.07022486 0.086596094 0.061784483
0001a0 30 38 c3 bb 98 3e 02 3c 96 c7 59 bd a7 e1 99 3d
       -0.005957626 0.007949494 -0.053168856 0.07513743
0001b0 2f 3e ae bd 85 d4 bb bc 59 89 8e 3e 72 28 1b be
       -0.08507954 -0.022928486 0.27839163 -0.15152147
0001c0 c4 44 06 3e 7f 06 d3 3e 08 2f 11 3e 8b b6 9a bc
       0.1311217 0.41215894 0.14178097 -0.018885871
0001d0 82 1c 73 3e 0d 4f 11 3e 64 3e 79 3d ba 37 c6 bd
       0.23741344 0.14190312 0.060850516 -0.09678598
0001e0 94 e5 f1 bd 37 59 39 bc 24 03 23 3e 8c d1 bb bc
       -0.11811367 -0.011312774 0.15919167 -0.022927068
0001f0 11 04 08 bc 0f 5a 7f bd c2 05 28 bd 3b df a4 3b
       -0.008301751 -0.062341746 -0.041021116 0.005031494
000200 bc 76 fd bb 22 ec 63 3d d2 86 d0 bd 6c c7 22 bd
       -0.0077351015 0.055645116 -0.10181965 -0.039740965
000210 4d 3e ce 3c e1 96 41 be 74 98 d5 bc 31 3c ec bc
       0.025176192 -0.18905212 -0.026073672 -0.028837295
000220 a2 56 2e be f6 cf e1 bd f6 b6 cd bd 34 c4 db 3d
       -0.17025235 -0.110259935 -0.10044663 0.10730782
000230 ef 05 fe bd 85 6a 86 3d 9e 04 40 bd d0 af 7f bd
       -0.124034755 0.06563286 -0.046879403 -0.062423527
000240 b9 64 e8 3d 04 39 ef 3c 8a 15 9a bc cf da 23 3d
       0.11347336 0.029201992 -0.018809099 0.040003594
000250 6e 25 83 3d ee 7a 38 bc fc be 02 bd b4 0d 67 bd
       0.064036235 -0.0112597775 -0.03192042 -0.056409553
000260 74 ac 1a 3e b2 c5 41 3c 1c 64 1f bf 4e d7 c4 bd
       0.15104848 0.011826919 -0.6226213 -0.096113786
000270 24 cd 10 bc 42 98 19 bd 62 4d 1e 3e 99 72 a8 3d
       -0.008837972 -0.03749872 0.15459207 0.08224983
000280 bb ce 6b 3d d9 83 26 3e dc 1d 2f bd 0b 0f a8 3d
       0.0575702 0.16261233 -0.042753085 0.08205994
000290 80 a3 62 bb 22 c4 bf bd e5 cd a0 3d 30 30 84 bc
       -0.0034582317 -0.09363581 0.07851771 -0.016136259
0002a0 60 ff 68 bd c7 6e 83 3d 90 51 b8 bc 86 12 46 bd
       -0.05688417 0.064176135 -0.02249983 -0.04835751
0002b0 eb 4a e8 3d 62 a0 37 3d c2 a5 4e 3d 15 fd e8 bd
       0.113424145 0.044830687 0.050451048 -0.113763966
0002c0 88 ae 33 bc d0 ac 2f bc ae 7e 9e bd a2 a7 c2 bd
       -0.010966904 -0.010722354 -0.07739006 -0.0950463
0002d0 e0 98 c1 bd 3d e5 56 bd 54 cb 88 be 17 8a f6 3d
       -0.09452987 -0.052464712 -0.26717627 0.12038057
0002e0 b5 52 83 3c f2 a5 68 bc 06 f7 a3 3d f2 24 4c be
       0.016030649 -0.014199721 0.080061 -0.19935969
0002f0 58 60 ba be ba fd b2 3e ef 33 3a be d3 c8 80 be
       -0.3640163 0.34959203 -0.18183874 -0.25153217
000300 b6 de a4 3e 9c a2 03 be 80 78 87 be 94 ae eb 3d
       0.32201165 -0.12855 -0.26459122 0.115079075
000310 d1 72 88 be 37 72 98 be b8 41 11 bf a6 b1 d6 be
       -0.26650098 -0.2977464 -0.56740904 -0.4193241
000320 f2 ac a1 be 0e f8 fb 3c f8 b4 95 bd c0 2c 67 3d
       -0.3157726 0.03075793 -0.07309908 0.05643916
000330 13 b1 9b 3d 70 3e 56 3e 70 97 c5 3e cf 47 b2 bb
       0.076021336 0.20922256 0.385921 -0.005440689
000340 b4 26 8e bd 4d cb 42 be 51 05 6c bd 9c 9c 2c bd
       -0.06940976 -0.19022866 -0.057622258 -0.04214154
000350 8d bf 0c be 93 09 1d be 49 7a 91 bd d5 25 4d bd
       -0.13744946 -0.15335684 -0.07103402 -0.050084908
000360 b1 1b 50 bd 30 a2 6d bc 1f 23 91 3d 09 7c 6f 3d
       -0.05080766 -0.014504001 0.07086777 0.0584679
000370 cd 4a b2 bd 79 03 91 3c 6c 0c e1 bd 5c e7 55 3d
       -0.08705673 0.017701851 -0.109886974 0.052222595
000380 a9 e8 ab 3d 96 05 65 be 34 a0 5b 3e 58 1f 77 3e
       0.08393986 -0.22365412 0.21447831 0.2413305
000390 c6 21 15 bd 2f ff 3e 3e bd 34 be bc 40 01 fd 3c
       -0.036409162 0.18652032 -0.023218507 0.030884385
0003a0 33 7b 83 3d e5 af 9c be ee 94 ae bd cf 01 aa 3d
       0.06419983 -0.30602947 -0.085245 0.08301126
0003b0 c7 46 8e 3d c2 cd 7c 3d 7a 07 7e bd d0 44 67 bc
       0.069470935 0.061719663 -0.06201885 -0.014115527
0003c0 29 c7 cb 3d 1c e1 b0 3c 54 db c4 3c f8 ce a1 bc
       0.09950096 0.021591716 0.024030365 -0.01975201
0003d0 68 9d 57 3c 44 82 c4 3c 92 e0 bd bd e2 ca 67 3d
       0.013160087 0.023987897 -0.09271349 0.05658997
0003e0 11 00 95 3d 14 9b ec 3c ad 5c b9 bd c1 7e 8d bd
       0.07275403 0.02888254 -0.090508796 -0.06908942
0003f0 9b 83 c1 3e cb 51 57 3e d6 64 f4 bd c3 9c 79 3e
       0.3779572 0.21027295 -0.119332954 0.24376206

c1.bias f4 [32]
000000 f7 d0 f8 3b 0f 56 40 3d c7 40 ea 3d 3a da 59 3b
       0.00759327 0.046957072 0.114381365 0.0033241645
000010 53 76 de 3c 77 32 2a bd 1e 82 26 3d cf 1d d1 3b
       0.02715603 -0.041552033 0.040651433 0.0063817273
000020 c0 d5 55 3d e4 c7 c9 bc 55 be d6 bc f3 eb 28 3d
       0.0522058 -0.024631448 -0.026213804 0.041240644
000030 f2 9e e3 3c 77 c4 f8 3a 1c 89 60 bd d2 f4 85 bd
       0.027785752 0.001897945 -0.054818258 -0.065408364
000040 9a fd f8 bd 74 7b 65 bd 34 07 cb 3c 8e 34 ba bd
       -0.12157746 -0.056025937 0.024783708 -0.09092055
000050 72 77 aa 3c e5 11 e9 3d bd ab 45 3d 00 bd c5 bd
       0.02080891 0.11380366 0.048259486 -0.096551895
000060 75 79 b1 3d b0 b6 7e 3c ef b8 b4 3d d2 3e e4 3c
       0.08665744 0.015546486 0.08824336 0.027861986
000070 3a 7c 93 bd 1b 0a cd 3c 31 9d 3e bd 3b 4c d6 ba
       -0.07201429 0.025029233 -0.04653663 -0.0016349623

c2.weight f4 [64, 32, 3, 3]
000000 6b 00 83 bd 2c 93 d8 bd 5c ec 73 3b 07 2d 15 be
       -0.06396564 -0.10574946 0.0037219739 -0.14567958
000010 32 bf 83 be 36 f9 5b 3d 85 38 39 3d c2 5c 77 3c
       -0.25731808 0.053704463 0.045219917 0.015097799
000020 d3 12 87 be 44 e8 50 3d 5d ec 8a bd 3e ae 33 be
       -0.2638155 0.051002756 -0.06783364 -0.17546937
000030 6a 3f 39 bd de d2 87 bd 1f 29 6d be 43 4c e1 3d
       -0.045226492 -0.066320166 -0.23160218 0.11000874
000040 66 38 49 3d 27 fe 1e be ef 98 7f bd 54 1c 3a bd
       0.04912605 -0.15526639 -0.06240171 -0.045437172
000050 54 cd 1c bc a1 68 1b be ce 81 fc bd b9 2f ab bc
       -0.009570438 -0.15176632 -0.12329446 -0.02089678
000060 51 66 45 bd ca ce 83 3d 9f 37 38 bd 17 e5 92 bc
       -0.04819328 0.06435926 -0.04497492 -0.017931504
000070 03 31 8f 3d c6 2c 81 3d 38 e6 8b bd a7 5b 7d bd
       0.0699177 0.06307368 -0.0683102 -0.061854985
000080 1e fa 10 3e 17 92 84 bc af 46 14 3d 80 bb 9f 3d
       0.14157912 -0.016182942 0.03620022 0.07799435
000090 bb af 2b bc 6a ba 28 be ac 2b bc bc b4 b3 9e 3c
       -0.010478909 -0.16477361 -0.022970043 0.019372799
0000a0 0d b5 f7 3c e2 8b bc bc ab 99 4b 3d e0 fe 85 3b
       0.030237699 -0.02301592 0.049707096 0.0040892214
0000b0 5b 5b 2a bd 8c 3f ce ba c8 59 d9 bc 17 8d 13 bd
       -0.04159103 -0.0015735491 -0.026532069 -0.036023226
0000c0 25 ad 12 3d c0 42 ea bd 55 9a 28 bd 82 a5 a8 bc
       0.035809655 -0.11438513 -0.041162807 -0.020586733
0000d0 2a 1f ab bd b2 a0 05 be 06 ef 41 3d c7 bc d1 bb
       -0.083555534 -0.13049582 0.04734709 -0.006400678
0000e0 3b 8c 30 bd 67 6e 2d bd 43 21 79 3d 0b ea fd bc
       -0.043102484 -0.042341616 0.060822736 -0.03099539
0000f0 fd fc 06 be 4e 7d 9d bd 1b 1b ac bc e9 20 46 be
       -0.13182445 -0.076899156 -0.021009019 -0.19348492
000100 a7 4f 30 be b6 35 4e be 0c 41 89 bc 59 c0 04 bd
       -0.17217885 -0.20137677 -0.01675465 -0.03241
000110 12 76 8f bd 3c f0 00 3d db 12 3a bd 86 3f 56 3d
       -0.07004942 0.031479105 -0.04542814 0.052306674
000120 e8 62 89 3b 1d af 2a bc 36 58 83 3d 14 22 8e 3c
       0.0041926987 -0.010417727 0.06413309 0.017350234
000130 eb 62 92 bb 05 e8 72 bd a2 8d 19 3d 0e 5e 47 bd
       -0.0044673583 -0.059303302 0.037488587 -0.048673682
000140 ba 99 ac 3c 0b 55 ec 3d 6c 59 f6 3b 4f 68 00 3e
       0.021069396 0.11539658 0.007517984 0.1253979
000150 d7 f9 62 3b 6a 8f 3a 3d 5c 14 05 3e e9 55 fb 3d
       0.003463378 0.045546927 0.12996048 0.122722454
000160 50 2f df 3a f7 52 66 bd 01 9f 88 3c 00 ca 3f 3d
       0.001702765 -0.056231465 0.016677381 0.0468235
000170 2b 94 fb 3d f9 2d 0f bd b6 d1 92 bd d2 7b 0f 3e
       0.1228412 -0.034955952 -0.071689054 0.14012077
000180 12 40 57 3d 36 6b c8 3c 29 a3 ad 3d 2a c5 29 bd
       0.052551337 0.024465185 0.08478386 -0.041447796
000190 b6 40 c1 bb d3 89 06 be 9c 7a b3 3c 66 7f 34 bc
       -0.0058976067 -0.13138513 0.02190905 -0.011016702
0001a0 45 fc 68 3d 4b e4 41 be bd 1c 36 be 98 96 4a bd
       0.056881208 -0.18934743 -0.177844 -0.049460024
0001b0 81 88 0f 3e 1d 04 01 3e ab a7 a7 3d 4e 0b 04 3e
       0.14016916 0.12599225 0.08186277 0.12894937
0001c0 f8 67 d1 3d 16 ae 75 bb c2 15 69 bd 11 1a 02 bd
       0.102249086 -0.0037487797 -0.056905515 -0.03176314
0001d0 7b 06 b4 3d 3a 0b 52 b7 81 0a 6c 3d 6d 4c ad 3c
       0.087902986 -1.2519589e-05 0.057627205 0.021154607
0001e0 d5 c9 51 bc e8 3e e9 3a 3a 67 66 bd e2 e8 52 3c
       -0.012804468 0.0017795237 -0.05625079 0.012872906
0001f0 54 42 9f bd 45 fe 90 bd 71 91 9b bb 76 21 a4 bd
       -0.07776323 -0.07079748 -0.0047475626 -0.08014195
000200 b3 b1 55 3d c5 a0 d8 bd 5b 14 8d bc 16 64 d5 bc
       0.05217142 -0.10577539 -0.01722162 -0.026048701
000210 e0 7e b2 bd c2 5d a2 be 6f 19 52 be 17 c6 9a bb
       -0.08715606 -0.31712157 -0.20517515 -0.004723321
000220 f4 1d 30 3d e6 93 24 3e f3 3f 52 bd 50 42 b3 3d
       0.042997316 0.16072044 -0.051330518 0.087528825
000230 eb 23 f1 3d b9 7b 85 be cd 34 29 bc 3f 42 d6 3d
       0.11774429 -0.26070955 -0.01032753 0.10461854
000240 a1 d3 5f 3c d6 fc 01 be 4a a7 bc bd a9 4d cd be
       0.013661296 -0.12694106 -0.09211595 -0.40098312
000250 90 50 3d be 5a 55 80 bd 4d e7 4b bd 1b 46 b4 3d
       -0.18487763 -0.062662795 -0.049781132 0.08802434
000260 fc 80 19 3e 1e e8 82 bd e0 19 80 bd f4 87 4b bd
       0.1499061 -0.06391929 -0.06254935 -0.049690202
000270 62 13 a4 bd b7 bb 0d be ff 20 39 be 1f be f6 3b
       -0.080115095 -0.13841139 -0.18078993 0.0075299884
000280 d6 41 99 ba 70 a8 5d be 71 c4 25 bd 38 fa 09 3d
       -0.0011692594 -0.21646285 -0.040470544 0.033685893
000290 79 6d bc 3c 07 da 5d bc cb a2 40 bd 10 93 98 3d
       0.02300142 -0.013540751 -0.04703025 0.07449925
0002a0 7a 68 34 bc 23 08 38 bd 8f 7e b7 3c 70 2e 15 3e
       -0.011011237 -0.044929635 0.022399215 0.14568496
0002b0 12 5a 55 3e 0b d2 b6 3e 16 89 91 3d 93 5a b4 3c
       0.2083514 0.35707125 0.07106225 0.022015845
0002c0 22 9e a0 bc a7 db 31 be 06 c3 9e 3d a7 da ae 3d
       -0.019606654 -0.17368947 0.077520415 0.085377984
0002d0 91 3f 1c 3d 7d 4a a1 3d f1 0a dd bc be 5d f0 3c
       0.03814656 0.07875536 -0.026982756 0.029341575
0002e0 64 b4 93 bc 75 57 9d 3d 76 a8 3f bc 75 bb 17 3d
       -0.018030353 0.07682697 -0.011697879 0.037044007
0002f0 98 32 28 3d de b4 78 be 34 7e dc bd 91 f6 94 bd
       0.041063875 -0.24287745 -0.10766259 -0.07273591
000300 66 18 0c bd e3 8e 85 bb 6f 38 d7 3d fd 03 99 bd
       -0.034202956 -0.0040758713 0.10508811 -0.07471464
000310 fe b7 85 3d d1 28 89 3d 4b f7 e2 bd c2 67 38 be
       0.06529234 0.06697238 -0.11082324 -0.1800833
000320 3c b4 1a be 47 0f 09 3e 14 cc 16 3d 2e 79 01 be
       -0.15107816 0.13384734 0.036815718 -0.12643883
000330 ff 91 80 3e cb d4 bc 3d b5 15 d4 3d d4 9d e7 3d
       0.25111386 0.092202745 0.10355703 0.113094
000340 4c 84 f5 3d f1 87 bf 3c 31 d6 11 3e f2 35 06 3c
       0.11988124 0.023380252 0.14241864 0.0081915725
000350 ab 5e 7e bd 38 41 05 3d 0d c3 bf bc e0 ac 2f bd
       -0.062102 0.0325329 -0.023408437 -0.042889476
000360 e0 99 99 bc 3e db 7b 3d 2f d1 33 3e 5a 7f 58 be
       -0.018750131 0.061488383 0.17560266 -0.21142331
000370 72 03 c8 3d e4 f8 ca bc 26 02 1c 3e ba 72 dc 3d
       0.09766282 -0.024776883 0.15235195 0.1076407
000380 3e 09 8a 3d df 5c 07 3d 9e 81 90 bc b7 15 65 bc
       0.06740044 0.033047553 -0.017639931 -0.013982228
000390 08 09 d4 bd 1e ec a7 bb a2 ec a0 bd 2b 57 92 be
       -0.10353285 -0.005124583 -0.07857634 -0.2858213
0003a0 de f6 93 bd a0 23 e7 bc 40 70 2b bc 74 e2 13 be
       -0.072248206 -0.02821523 -0.010463774 -0.14441854
0003b0 07 de b8 bd 76 ce ec 3d ac 30 05 3d 47 1b e6 3c
       -0.09026723 0.11562817 0.03251712 0.028089179
0003c0 b3 d3 0f be 8c ce 1f 3c b6 98 c3 3d 63 47 00 3d
       -0.140456 0.009753834 0.09550612 0.03131808
0003d0 34 99 53 3d 58 99 29 3e 60 b8 7e bd b2 66 12 bc
       0.051659778 0.16562402 -0.062187552 -0.008935617
0003e0 26 83 f1 3d 10 24 e9 3d 74 7c 5a 3d ff 34 5a bc
       0.11792593 0.113838315 0.053341344 -0.013318299
0003f0 90 71 cb 3c 68 ec 0c 3e 38 a2 2e be 76 db 8e 3d
       0.024834424 0.13762057 -0.17054069 0.069754526

c2.bias f4 [64]
000000 14 2d 5a 3d 06 df a5 3b ee 90 cb 3d f4 a7 1f bd
       0.053265646 0.005061987 0.099397525 -0.038978532
000010 bb f9 19 bd 33 fc 0e 3d fe 98 86 bc 11 54 e2 bb
       -0.037591677 0.034908485 -0.016430374 -0.006906994
000020 4e 3f 66 3d ba a8 3d 3c 16 68 05 3d f1 09 40 bd
       0.056212716 0.011575872 0.032569967 -0.04688448
000030 2c aa d1 3b 1e 0f 39 3d c5 71 16 3d 66 33 e2 3c
       0.00639846 0.045180432 0.036729593 0.0276124
000040 31 23 31 bd 08 fd 96 bc 46 3f 8a bd ac 08 67 3d
       -0.04324645 -0.018431202 -0.0675035 0.056404755
000050 2d 21 ab 3d 34 23 05 3d eb b0 a2 3d b3 6d 38 3d
       0.08355937 0.032504275 0.07943901 0.045026492
000060 44 d5 9c bc ef 01 26 3d a7 2a 0f bd f9 c5 38 3d
       -0.019144662 0.040529188 -0.034952786 0.045110676
000070 25 39 b4 bb ae 60 d3 3c 39 ba a0 3c 87 48 a5 3c
       -0.005499976 0.025802936 0.019620048 0.020176185
000080 85 64 ac bc 35 06 38 3d 0c 0c 0a bc f6 33 ad 3d
       -0.021044025 0.044927794 -0.008425724 0.084571764
000090 7f 16 e3 bc 5c 01 33 3c 96 ef 8d 3c ac 44 7b bc
       -0.027720688 0.010925617 0.017326158 -0.015336197
0000a0 b5 93 41 3d 52 25 97 bc 4a 79 90 3c fa a9 dd 3b
       0.047260005 -0.018450413 0.01763596 0.0067646476
0000b0 5e ca ba bc e4 5f 20 bd 3a a7 38 3c 52 ac 31 3d
       -0.022801574 -0.03915395 0.011270339 0.043377228
0000c0 79 3b c1 3c 5c 4f b7 3d 60 d3 7d 3d 07 1a 0e 3d
       0.02358793 0.089506835 0.06196916 0.03469279
0000d0 e4 cc 52 bd 74 22 66 3d cb 7c 23 3d e9 3c 57 bd
       -0.05146493 0.0561852 0.039913934 -0.052548323
0000e0 51 ba 07 3b 4e df c8 bb 49 6a 1e bd 94 ef 7a bb
       0.0020710418 -0.0061301356 -0.03867558 -0.0038289772
0000f0 99 e4 67 3c 9e ea ae bb f9 db 89 3d ea 22 59 3d
       0.014153623 -0.005338027 0.067314096 0.053011812

c3.weight f4 [256, 64, 3, 3]
000000 9f a5 33 3e 08 4b dc 3d 1a 8e bb 3d a3 11 d8 3d
       0.17543648 0.107564986 0.09157963 0.10550239
000010 76 0a e5 3d 94 4c b0 3d 4f 50 d3 3d 0d d4 ff 3d
       0.11183636 0.08608356 0.10318052 0.12491617
000020 ab f2 b9 3d a2 4f b5 3d 66 34 22 3d 79 85 b5 3d
       0.09079488 0.088530794 0.039600752 0.088633485
000030 bf ca 64 3d 63 84 82 3d 87 69 8f 3d 72 d7 80 3d
       0.055857416 0.06372907 0.070025496 0.06291093
000040 c1 ca 9a 3d 20 3d bd 3d a0 38 5c bd ea 23 a1 bd
       0.075582035 0.09240174 -0.05376494 -0.07868178
000050 88 e2 93 bd d7 09 ee bd 84 32 f5 bd 3a 54 bf bd
       -0.07220942 -0.116229706 -0.11972526 -0.09342237
000060 76 3f 7c bd ec 66 f9 bd 7c 04 ec bd 95 26 b7 3d
       -0.06158396 -0.12177834 -0.11524293 0.08942906
000070 81 49 4e 3d fb 6b b5 3d 97 b6 c7 3d 91 dc 93 3d
       0.050363068 0.08858486 0.09751623 0.07219804
000080 18 67 e7 3d 96 80 7b 3d 4f bb 8a 3d 6a c1 f2 3d
       0.112989604 0.061401926 0.067740075 0.11853297
000090 5e 77 df 3d a0 e2 40 3d f6 99 91 3d f1 8c ba 3d
       0.10911439 0.047091126 0.07109444 0.09108914
0000a0 6b 95 7d 3d 9e b7 b5 3d 4c df f8 3d 42 d6 82 3d
       0.061910074 0.08872913 0.121519655 0.06388523
0000b0 53 2e c5 3d 39 dc 79 3e 78 40 3f 3e 95 ee e3 3d
       0.09627976 0.24400415 0.18676937 0.1112949
0000c0 e5 b8 5e 3e de 68 07 3e 79 1a 05 3e 2a a2 13 3e
       0.21750219 0.13223597 0.1299838 0.1441733
0000d0 69 7a e1 3d 59 64 02 3e 39 56 0b bd 0f 1e 81 3c
       0.11009676 0.12733592 -0.034017775 0.015761403
0000e0 dc 1b aa 3c 6c 6b 36 3c 86 37 2d bc 1d 7c 87 bb
       0.020765238 0.01113401 -0.01057232 -0.0041346685
0000f0 92 06 8c 3b d0 87 c3 bc 9a 90 e0 bc 84 8c 9a 3d
       0.004273244 -0.023868471 -0.027412701 0.075463325
000100 47 59 af 3c 97 d4 6d 3d 5e 2a 85 3d 10 aa a7 3d
       0.021404875 0.05806407 0.065022215 0.08186734
000110 3a f1 86 3d 40 15 ca 3c 9e 33 81 3d 92 76 b8 3d
       0.06588979 0.024668336 0.06308673 0.090069905
000120 5f 94 39 3e 8b 86 04 3e 8f e1 e2 3d fa 3a 18 3e
       0.18123005 0.12941949 0.11078178 0.14866248
000130 1d e8 f9 3d 15 47 ce 3d b4 b8 6a 3e dd 37 3c 3e
       0.12202475 0.100721516 0.22922021 0.18380685
000140 fe 77 0f 3e 94 eb 00 3e ce ba 02 3e f0 1a 03 3e
       0.14010617 0.12589866 0.12766573 0.12803245
000150 98 6a 4d 3d e9 a5 38 3d cf 27 7a 3d 03 41 01 3e
       0.050150484 0.0450801 0.06107312 0.12622456
000160 02 c8 fd 3d d6 e3 c9 3d 41 19 b6 bd bd 14 b6 bd
       0.12391664 0.098579094 -0.088915356 -0.08890674
000170 3c 7d 6f bd 0e f5 a5 bd 41 95 3c bd 3b 11 9e bd
       -0.058469042 -0.08103381 -0.046040777 -0.0771813
000180 be cc 67 bd 56 c7 ca bd 09 36 cc bd 20 79 80 3d
       -0.05659174 -0.099013016 -0.09971244 0.06273103
000190 c1 e8 e1 3d 5c ca d2 3d de e6 16 3d a5 4f c8 3d
       0.110307224 0.10292503 0.036841266 0.09780816
0001a0 c4 95 a5 3d 06 79 5f 3d 67 f5 52 3d d8 8d 00 3d
       0.08085206 0.054558776 0.051503565 0.031385273
0001b0 6b 75 3d 3e 80 56 21 3e 2d f7 52 3e b6 41 30 3e
       0.18501823 0.15755653 0.20602103 0.17212567
0001c0 21 0b 05 3e 1b 4a 3a 3e 8f 5d 6e 3e b9 cd 4b 3e
       0.12992527 0.18192331 0.23277877 0.19902696
0001d0 8e eb 69 3e d5 0e 5a 3e 96 d3 96 3e a6 af 80 3e
       0.22843763 0.2129472 0.29458302 0.2513401
0001e0 8a 6f aa 3e ad f4 b6 3e 15 b0 ee 3e fd fd b9 3e
       0.33288223 0.35733548 0.46618715 0.3632659
0001f0 12 73 a0 3e 8c 73 c4 3e 83 d1 cc 3e ad 19 c0 3e
       0.31337792 0.38369405 0.40003595 0.3751959
000200 2c eb bb 3e fc 31 c9 3e e0 65 c1 3e 4e b6 bf 3e
       0.3670286 0.39295948 0.37773037 0.37443775
000210 f4 f7 af 3e e5 5d b4 3e 22 27 b4 3e 59 4c 9e 3d
       0.3436886 0.35227886 0.35186106 0.07729406
000220 c3 c0 a2 3c 78 05 4e 3d 1c 98 f9 3d d6 bb a8 3d
       0.019867307 0.050298184 0.12187216 0.08238952
000230 1f 27 60 3d bf 89 de 3d 6f 3f c3 3d 04 55 c3 3d
       0.05472481 0.10866117 0.095335834 0.095377
000240 74 ce 93 3d 84 27 92 3d a4 b3 a7 3d e2 aa f4 3d
       0.07217112 0.07136443 0.081885606 0.11946656
000250 f4 f3 e3 3d dd 3c 10 3e 67 81 a6 3d 49 cd ab 3d
       0.11130515 0.14085717 0.0813015 0.083887644
000260 b7 6a 14 3e 16 cb 15 3e 25 03 2b 3e 83 3d 19 3e
       0.14493833 0.14628252 0.16700418 0.14964871
000270 ae 5a 0a 3e 24 31 c6 3d 04 74 ea 3d e2 87 55 3e
       0.13511154 0.096773416 0.114479095 0.20852616
000280 b0 53 34 3e 70 68 13 3e 11 7c 95 3d d6 42 ec 3d
       0.17610049 0.14395308 0.072990544 0.115361854
000290 f7 92 dd 3d a1 46 83 3d 66 77 7f 3d e3 60 84 3d
       0.10819047 0.06409956 0.062369727 0.06463792
0002a0 ee 6b 73 3d 03 45 ae 3d d4 5d 96 3d fb cc 4f 3e
       0.0594291 0.08509257 0.07342115 0.20293038
0002b0 2a 9d 14 3e fb 9a 1d 3e 55 47 40 3e 3c f8 08 3e
       0.14513078 0.15391152 0.18777211 0.13375944
0002c0 41 a0 52 3e 90 c0 56 3e 9a 05 63 3e ec 2b 42 3e
       0.20568945 0.20971894 0.22170106 0.18962067
0002d0 2c 3b 9a 3e c4 d6 78 3e 15 d5 76 3e a2 76 a1 3e
       0.3012327 0.24300677 0.24104722 0.31535822
0002e0 61 97 86 3e 56 c1 6f 3e 4d 5b b5 3e 81 bf 92 3e
       0.26287368 0.23413596 0.3542122 0.2866173
0002f0 06 34 7c 3e 9c 55 2e bc e6 c5 17 bd 25 33 f0 3a
       0.2462922 -0.010640528 -0.037053965 0.0018325789
000300 e0 31 94 bc 95 20 e4 bc f7 90 c4 bc 15 18 9a bd
       -0.018090189 -0.027847568 -0.023994906 -0.075241245
000310 89 e8 a7 bc b4 cd 08 bd 85 cd 20 bd 56 17 3f bd
       -0.020496624 -0.0333993 -0.0392585 -0.046653114
000320 dc 7a 50 3b c1 60 b3 bd 19 1c 63 bd 81 fd 85 bd
       0.003181151 -0.08758689 -0.055446718 -0.06542493
000330 00 45 27 bc ef 4e 10 bd 92 93 85 bd 12 bc 20 3e
       -0.010209322 -0.035231527 -0.065222874 0.15696743
000340 93 b8 29 3e fe 80 0e 3e e5 fd 01 3e 62 65 85 3d
       0.16574316 0.13916394 0.1269451 0.06513478
000350 75 ab 03 3e 87 dc 1e 3e c2 1a 26 3e 0a 74 0c 3e
       0.12858374 0.15513812 0.16221145 0.1371614
000360 93 51 4a 3d e6 82 dd 3d 63 06 cf 3d 3d 8f bf 3d
       0.0493942 0.108159825 0.1010864 0.093534924
000370 d7 65 49 3d 0d ff 6e 3d 07 b7 90 3d d1 9d ea 3d
       0.049169388 0.058348704 0.0706616 0.11455882
000380 d6 b2 d5 3d 72 37 68 3e cb d7 62 3e b1 99 40 3e
       0.10434501 0.226774 0.22152631 0.18808629
000390 ee 84 50 3e 4d e1 36 3e 07 30 7d 3e 78 e0 56 3e
       0.20363209 0.17859383 0.24725352 0.20984066
0003a0 0f ae 80 3e 6f 64 50 3e d5 71 02 bc 9f b5 d1 bc
       0.25132796 0.20350812 -0.00796171 -0.025599299
0003b0 df 06 3e bc e7 fe 98 bc 4f 09 40 bc 0a ca bc bb
       -0.011598318 -0.018676234 -0.011720969 -0.0057613896
0003c0 80 fb 25 bd 8a c6 73 bd 84 55 dd bd 1e 41 83 3d
       -0.040523052 -0.059515513 -0.108073264 0.064089045
0003d0 ea 1b 02 3e d2 79 ab 3d 53 29 ac 3d 6b e5 a6 3d
       0.12705961 0.08372845 0.084063195 0.08149227
0003e0 f7 9f 90 3c cc 27 b9 3d 3e 64 3f 3d e1 6a c5 3c
       0.017654402 0.09040794 0.046726458 0.024098815
0003f0 3f d6 32 3d e9 3e 88 3d 24 02 ca 3d fb dd 7a 3d
       0.043661352 0.06652624 0.098636895 0.061246853

c3.bias f4 [256]
000000 2f 45 78 bd ee 22 a7 3d db 68 c8 3b 99 60 08 bd
       -0.060612854 0.08160959 0.0061160154 -0.033295248
000010 b9 79 1a bd ec 0e 9a 3d bf 65 4b bb 31 7d 33 3d
       -0.03771374 0.07522377 -0.0031035987 0.043820564
000020 45 18 75 bd 27 ca 17 bd db da 4a bd 46 84 03 3d
       -0.0598376 -0.037058022 -0.049525123 0.032108568
000030 a4 11 cc 3c 77 c8 75 bd f1 88 16 3d b6 ba 6d bd
       0.024910755 -0.06000563 0.03675169 -0.05803939
000040 b5 0f 77 3c 1e d0 97 3b ac 8c c2 3d 99 73 5c bd
       0.015079428 0.004632964 0.09499487 -0.05382118
000050 e1 ce 9e 3d cf 78 16 bd 55 a9 1a 3b 34 7f 41 3d
       0.07754303 -0.036736306 0.0023599465 0.04724045
000060 ff e4 30 3d 37 3d 1d 3b 16 79 d8 3d d6 31 58 3d
       0.043187138 0.0023992786 0.1056997 0.052781902
000070 48 8a 9d bb 21 5c 06 3d f5 ad e1 bb cd 62 05 3d
       -0.004807744 0.032802705 -0.0068871924 0.032564927
000080 20 06 83 bd 0d 58 e7 bc bb d7 91 3c 81 23 61 bd
       -0.063976526 -0.028240228 0.017803064 -0.0549655
000090 37 26 86 3c 44 7d 92 bc 01 7f 9d bc 7d 01 e8 3d
       0.016375644 -0.017881997 -0.0192256 0.11328409
0000a0 56 31 99 bc 61 59 ee 3d c2 f3 ec 3a 2e 4d 7d bd
       -0.018700283 0.116381414 0.0018078017 -0.061841182
0000b0 a0 5f 9e 3d a8 ff c7 3d d9 4e e6 bb e4 18 15 bd
       0.07733083 0.097655594 -0.0070284423 -0.03640069
0000c0 0f 12 b9 3b 4c 22 f2 3c 2b 64 9e bd 7e 79 65 3d
       0.0056479047 0.02955737 -0.07733949 0.056024067
0000d0 75 cc f6 bc da b7 e9 bc 11 8a 1b 3c 96 9b 39 3c
       -0.03012679 -0.02853005 0.009493367 0.0113285985
0000e0 56 da 26 3c 6b f6 90 bd 56 31 c3 bc c4 b6 c3 3d
       0.010183891 -0.070782505 -0.023827236 0.09556344
0000f0 66 7f 56 bd f2 59 5b 3c 2b e9 89 bd 81 b3 21 bd
       -0.05236759 0.013388144 -0.067339264 -0.03947783
000100 84 5d 93 3d d6 be 80 3d de d7 3e bd b2 ab 26 3d
       0.07195571 0.06286399 -0.046592586 0.040691085
000110 2e 05 8c 3d 5e 01 1d bc 04 aa df 3c 35 61 ca 3d
       0.068369254 -0.0095828455 0.02730275 0.09881822
000120 f3 44 2c bd f4 45 8c bc e2 92 27 bd 76 d1 a2 3d
       -0.042057943 -0.0171232 -0.040911563 0.07950108
000130 0f d6 e9 3b 16 7c 3f 3d 8c 37 7d 3c cc 13 d0 bc
       0.0071361135 0.046749197 0.015455138 -0.025400065
000140 01 4c cf bc 4f 41 97 bc 53 d3 08 3d 47 0d a5 3c
       -0.025304796 -0.018463759 0.03340466 0.020147933
000150 5e ac 7b bd 47 45 a9 3d 3e ff 4b bd a0 ab 9c 3c
       -0.06144368 0.08265167 -0.049803965 0.019124806
000160 86 c2 63 bd a0 10 92 39 79 0f 9a 3c f1 ca 80 bc
       -0.055605434 0.00027859677 0.018806206 -0.01572177
000170 7a e7 c0 3c e3 7c 16 ba 4f 14 f3 3d ea 2d 2a bd
       0.023547877 -0.00057406555 0.11869108 -0.041547693
000180 86 cd 2e bd 48 ca 5b bb 96 fb 7b bd e4 a9 fc bc
       -0.04267647 -0.0033537317 -0.061519228 -0.030842729
000190 d2 a9 0f bd 55 da 5c 3d 01 c4 ed 3d 00 3d 20 3d
       -0.035074063 0.053919155 0.116096504 0.039120674
0001a0 51 86 75 bd 38 a9 0f 3c d9 42 95 3d a9 47 c5 bc
       -0.059942547 0.008768372 0.07288141 -0.024082022
0001b0 bb a1 0a 3c e8 47 46 bb 23 82 61 bd c3 5d 85 3c
       0.008461411 -0.0030255262 -0.05505575 0.01628006
0001c0 39 6d 45 3d fb 0e b3 3c 49 35 d2 3d 60 9f 47 bc
       0.048199866 0.02185773 0.102640696 -0.012183994
0001d0 3d ef 67 bd 15 f2 ea ba 93 51 f2 3c 19 d4 21 bd
       -0.05662464 -0.0017924929 0.029579913 -0.039508913
0001e0 13 9a 1c bc 13 32 8a 3c 00 54 6d bc 5e 2b 18 bd
       -0.0095582185 0.01686958 -0.014485359 -0.037150733
0001f0 5c 11 31 3d ec 30 31 bb 9d d0 3b 3d 79 e7 42 bd
       0.043229446 -0.0027037216 0.045853246 -0.04758403
000200 4d d8 e5 bc 4f f3 76 bd d0 9c 3a 3d 08 b1 84 3d
       -0.028057242 -0.06029063 0.045559704 0.064790785
000210 58 58 a6 3d 1a 0f 2e bc df c6 7a 3d e8 ef 2a 3c
       0.08122319 -0.010623718 0.061224815 0.010433175
000220 f7 94 0f bd 79 c2 62 b9 68 ce 8e 3c cc 17 1c 3c
       -0.035054173 -0.00021625486 0.017432407 0.009527158
000230 5a 2b 42 bd ec 8f 2f 3c 77 76 9c bc 9c b9 3a 3d
       -0.047404625 0.010715466 -0.019099457 0.045587167
000240 a5 99 38 bc ca 28 a7 bd 6e 8c a5 3c dc 0d a6 bb
       -0.0112671 -0.08162077 0.020208564 -0.00506757
000250 68 fa 08 3c 05 dd e1 bc ef ca af 3a 4e 99 59 3c
       0.008360483 -0.02757121 0.0013411919 0.01328118
000260 21 72 21 3d 99 9b ae 3c aa b7 0a bd 8b 24 45 bd
       0.039415482 0.02131443 -0.033866562 -0.048130553
000270 53 d6 73 bd 5a 9a 2f 3d 41 12 26 bc 7f 6b 81 bd
       -0.059530567 0.04287181 -0.010136188 -0.063193314
000280 82 c1 64 3d b7 ba 83 bd f4 0f 5e bd c7 1a 78 bc
       0.055848606 -0.064320974 -0.054214433 -0.015143103
000290 1d cc f3 3b 3b 88 75 bd 00 57 bd b9 76 b0 f0 bb
       0.0074401037 -0.059944373 -0.0003611371 -0.0073452545
0002a0 12 55 92 bd 82 de 8b bd fb 82 24 bd b0 ba a6 3d
       -0.07145132 -0.06829549 -0.040163975 0.081410766
0002b0 af 64 89 bd bd 57 50 bd cc 0e 53 bd 54 86 a9 bc
       -0.06708657 -0.050864924 -0.051527783 -0.020693935
0002c0 1f 83 95 3d dd 9f 84 3d 78 ef 8b bd 1e 45 d3 3d
       0.073004 0.06475804 -0.068327844 0.103159174
0002d0 dc d2 54 3a 89 c1 90 bc 0d f8 03 3e 99 d4 78 3d
       0.00081185787 -0.01767041 0.12887593 0.060749624
0002e0 35 ab 99 bd 5c 6f 0e 3e e9 e6 30 bd bc 60 e0 3c
       -0.07503358 0.13909668 -0.043188963 0.027389877
0002f0 59 9e d7 3d b7 2f 39 38 fd b6 83 bd c4 ef 06 bd
       0.10528249 4.4151875e-05 -0.064313866 -0.032943502
000300 4f 06 b9 bd f5 ba f5 bc 63 a4 38 3c d1 68 de 3d
       -0.090344064 -0.029996375 0.011269662 0.10859836
000310 31 ee 1a bd 49 4a 8c 3d b4 2d 4c 3d 2a 91 6d bd
       -0.037824813 0.06850106 0.049848273 -0.057999767
000320 12 b8 7d bc 14 78 fe 3d 54 c6 4c bd 78 3c d2 bc
       -0.01548578 0.12425247 -0.049993828 -0.0256636
000330 97 60 03 3c ba a7 5c 3d a6 e7 fe 3d 52 08 9a ba
       0.008018634 0.053870894 0.12446527 -0.0011751747
000340 db c3 2a bd 01 4b 35 bd da 3e 09 3d e7 46 fd bc
       -0.04169069 -0.044260982 0.033507206 -0.030917598
000350 d8 1e 2d bc a8 c4 93 3d 28 f3 21 3d d3 dc 44 3d
       -0.010566436 0.072152436 0.039538532 0.048062157
000360 4a 2e 4d bd b5 20 a7 3d cb 2e 9c bd 04 f6 d2 3c
       -0.050092973 0.08160535 -0.076261126 0.025752075
000370 c8 81 6f ba f5 50 09 3c 29 76 5c bd a4 a7 92 bd
       -0.00091364654 0.008381118 -0.053823624 -0.07160881
000380 f7 49 47 bb 8a d8 c3 bb ee 77 b3 bd e4 9d a8 bc
       -0.0030409077 -0.005976741 -0.08763109 -0.0205831
000390 a7 75 10 bd c3 21 4b bd df ed 6a 3b 3c fd 99 3d
       -0.035268452 -0.049592745 0.0035847349 0.07519004
0003a0 4f 48 a0 bc e4 f4 ea bc 3c b9 32 bd fa a8 1f 3d
       -0.01956573 -0.028681226 -0.043633685 0.038979508
0003b0 a8 5d 44 bd 52 e3 19 3d 84 68 16 3c 34 73 75 bd
       -0.04794088 0.037570305 0.009180192 -0.05992432
0003c0 d2 08 64 3c 25 29 25 bd a7 8c 18 3d 7f 46 07 3d
       0.013918119 -0.04032244 0.03724351 0.033026215
0003d0 3f 19 42 3d dc 07 12 bc 92 c0 2b bd 39 d7 9d bb
       0.047387358 -0.008913007 -0.041931696 -0.0048169163
0003e0 cf fd e8 bc d6 2d 80 ba c9 de e2 bc 5f 30 ae bd
       -0.028441338 -0.0009779285 -0.027694123 -0.0850532
0003f0 26 cb ca ba 43 32 94 ba 22 c6 ec bb 50 ea 5f bd
       -0.001547192 -0.0011306483 -0.0072257677 -0.054666817

fc1.weight f4 [64, 256]
000000 8e f5 3e bd 70 e5 2e bd 30 db 77 bd 30 73 cc bb
       -0.046620898 -0.042699277 -0.060511768 -0.0062393174
000010 88 3e 58 bd 86 6e 00 bd 08 6c 51 bc 8e d3 1c bd
       -0.05279401 -0.031355403 -0.012782104 -0.03828769
000020 40 6d e8 3a 3c da 44 3d a8 ed c6 3c 00 b7 48 3a
       0.0017732754 0.048059687 0.024283245 0.00076566637
000030 9c 9c 40 3d 34 bb 60 bd 60 d7 f1 bb ae 65 13 bd
       0.047024354 -0.05486603 -0.007380411 -0.03598564
000040 ee ca 77 bd d6 d7 04 3d 7e b1 64 bd 32 f0 3d 3d
       -0.060496263 0.0324324 -0.055833332 0.046371646
000050 a0 c4 68 3b d0 9b 43 bd 46 d7 05 3d 78 1c 64 bc
       0.0035517588 -0.047756016 0.032676004 -0.013922803
000060 2a 48 4b bd 9a a9 54 bd ce 84 55 bd 40 99 3b 3c
       -0.049629368 -0.051919557 -0.052128606 0.011450112
000070 94 7b 1f 3d 56 1c 2e bd 08 0e 1a bd 34 41 c1 bc
       0.038936213 -0.042507492 -0.037611037 -0.023590662
000080 08 5e 96 bc a0 ba 3b 3c 68 bd 5a bd 80 1f 55 bc
       -0.018355384 0.011458069 -0.053403288 -0.0130079985
000090 88 f7 eb 3c 36 ce 47 bd 90 5b ab 3b ac 9b fa 3c
       0.028804556 -0.048780642 0.005229421 0.030591808
0000a0 40 35 85 3b 1c 8b 4c 3d 3e ea 1b 3d 64 ee 85 bc
       0.004065186 0.049937353 0.038065188 -0.016349025
0000b0 f6 27 5a bd dc a0 bc bc ca 0d 2b bd 68 bf 76 bd
       -0.053260766 -0.023025922 -0.041761197 -0.060241133
0000c0 14 b3 0e bd 96 69 72 3d 8c 06 e1 3c d8 e6 5f bd
       -0.03483875 0.059182726 0.027468942 -0.05466351
0000d0 08 79 c8 3c 20 24 77 bb d8 d4 9e bc 74 85 83 3c
       0.024471775 -0.003771074 -0.019388601 0.016054846
0000e0 30 60 53 bd fe ac 04 3d f8 d8 01 3d 60 e0 a9 bb
       -0.051605403 0.03239154 0.03170106 -0.0051842183
0000f0 0c 18 ed bc 00 cb 76 bd e8 ac 18 3d 2e c3 5f 3d
       -0.02894213 -0.06025219 0.03727427 0.054629497
000100 2e 77 34 bd 00 40 6d 38 30 6f d1 3b 40 eb 13 bc
       -0.04405897 5.6564808e-05 0.0063914284 -0.009028256
000110 e0 76 8d 3b 70 ac e4 3c 10 a7 ea bb 36 0c 3c 3d
       0.0043171495 0.027914256 -0.0071610287 0.045910083
000120 94 6e d1 3c 26 6e 43 bd e0 d0 35 bd 00 9b 0f bb
       0.025565423 -0.047712468 -0.04438865 -0.0021912456
000130 90 f4 42 bc 34 6f b1 3c ec f2 bf 3c 60 97 09 3b
       -0.011899129 0.021659471 0.023431264 0.0020994768
000140 6a b8 3a 3d b0 27 2f bd de bf 00 3d 6a b7 04 3d
       0.045586027 -0.04276246 0.03143298 0.03240148
000150 90 58 fa 3b c0 89 df 3b 50 a1 05 3d 36 76 51 3d
       0.007639952 0.006821841 0.032624543 0.051138125
000160 9a 29 0f 3d 08 89 f5 bc 50 8f 51 bd 30 4f c4 3b
       0.034951784 -0.029972568 -0.051162064 0.005990885
000170 2a ea 44 3d e4 48 86 3c 26 07 5e 3d 30 fb 2d bc
       0.04807488 0.016392179 0.054206036 -0.01061897
000180 e4 28 6e bd d8 a7 41 bc 9c d1 58 3d e8 c3 d3 bc
       -0.058144465 -0.011819802 0.052934274 -0.025850251
000190 30 d3 cb bb 36 db 20 bd 60 a7 1d bc fc 8a 16 3d
       -0.006220244 -0.039271556 -0.009622425 0.03675364
0001a0 f6 b0 63 bd 2c 9e cf bc 88 d1 ba bc da 75 64 3d
       -0.055588685 -0.025343977 -0.02280499 0.055776455
0001b0 58 fa 64 3d 60 dd 3b bc 08 39 7f bd 5c d7 5b bd
       0.05590281 -0.011466354 -0.06231025 -0.05367218
0001c0 d0 44 57 bd dc 23 50 bd 7c e4 e3 3c fc 29 37 3d
       -0.05255586 -0.05081545 0.02781891 0.044717774
0001d0 1c 6a 28 bd 26 6e 57 3d e8 ea 41 3c b0 f7 8b bc
       -0.04111682 0.05259528 0.011835791 -0.01708588
0001e0 16 5e 4f 3d fe 91 67 3d 92 82 1c bd d6 b9 1b bd
       0.050626837 0.056535713 -0.03821046 -0.038019024
0001f0 d0 82 6d 3d ee c4 1d bd d4 4a 20 bd bc 27 6f 3d
       0.05798608 -0.038517885 -0.03913386 0.058387503
000200 98 c3 3a bd 5a 95 39 bd ea f2 07 3d 1a bd 64 3d
       -0.04559669 -0.04530845 0.033190645 0.055844404
000210 48 12 37 3d ac e5 4b bd 80 5a 8b bc 6c 89 8a bc
       0.04469517 -0.04977958 -0.017010927 -0.016911231
000220 c8 cf 70 bc d0 74 89 bb a6 18 72 3d 00 1c 62 3c
       -0.014697976 -0.0041948333 0.059105538 0.013800621
000230 d8 01 e5 bc 34 4a 0d 3d 78 e3 23 3c 68 39 7d bd
       -0.02795498 0.034494594 0.010002963 -0.061822325
000240 a8 45 23 bc 78 0b 6c bc a0 69 81 bc b6 eb 03 3d
       -0.009965338 -0.014407031 -0.015797436 0.032207213
000250 2e a6 0a 3d 2c b0 3f bd f0 ec 56 bc f6 ee 37 3d
       0.033849888 -0.04679887 -0.013118014 0.044905625
000260 f0 bc 75 bc d8 22 9e bc dc b1 6b 3d 4e 26 2c bd
       -0.0149986595 -0.019303724 0.057542667 -0.042028718
000270 f2 4a 69 3d a2 1d 47 bd 72 80 78 3d 6a c2 54 bd
       0.05695624 -0.048612244 0.06066937 -0.05194322
000280 de 67 2b bd dc 9c 2a bd d8 84 4c bd 0e f6 66 3d
       -0.041847102 -0.0416535 -0.049931377 0.056387
000290 e8 31 72 bc c0 9d 09 bb 80 2e b5 3b b0 6a 38 bc
       -0.014782406 -0.0020998567 0.005529225 -0.011255905
0002a0 96 98 48 bd 38 75 5c bd 40 49 cf 3c 80 20 51 3b
       -0.048973642 -0.053822726 0.025303483 0.003191024
0002b0 98 e8 6b 3c cc f8 c6 3c bc 0f 03 3d 60 82 ee bb
       0.014398716 0.024288557 0.031997427 -0.0072787255
0002c0 fa 33 07 bd 48 67 e7 bc 14 18 5e 3d b4 c3 2b 3d
       -0.033008553 -0.02824749 0.05422218 0.041934684
0002d0 88 7e 69 bc 24 d2 39 bd 84 00 1e bd 80 be e7 bb
       -0.014251359 -0.04536642 -0.03857471 -0.00707227
0002e0 8a ce 71 3d e0 63 78 3c b2 1b 06 bd 8e 75 19 bd
       0.05903486 0.015160531 -0.032741256 -0.037465625
0002f0 18 ae d9 bc 5e 7d 0e bd 90 99 cb bc 50 57 c9 bb
       -0.026572272 -0.03478753 -0.024853498 -0.0061444417
000300 2c 97 81 bc 50 1a 73 bd 70 97 a7 3b 5a 12 3e bd
       -0.015819155 -0.059351265 0.0051144883 -0.04640422
000310 10 ac 5f 3c fc d8 b0 bc bc 04 c3 bc 04 8f b1 bc
       0.013651863 -0.021587841 -0.023805968 -0.02167464
000320 70 22 cc bb 5c c7 30 3d 4e 38 1b bd d0 99 21 bd
       -0.006229691 0.043158874 -0.037895493 -0.039453328
000330 0c 09 78 3d b8 4a 48 3c b8 7f 44 bd ac 22 e0 3c
       0.060555503 0.012224846 -0.047973365 0.027360283
000340 4e cb 5a 3d 80 c7 0f 3d 10 9f 6b bd 6a a3 18 bd
       0.053416543 0.035102367 -0.05752474 -0.03726522
000350 64 48 ff bc e4 35 c0 bc 38 a6 fb bc f0 a4 f5 bc
       -0.031162448 -0.023463197 -0.030718908 -0.029985875
000360 20 97 10 bc ea 5e 06 bd 58 14 57 bd cc 32 92 3c
       -0.0088250935 -0.03280536 -0.052509636 0.017846487
000370 5c 61 3d bd 18 b8 3a 3c 16 d0 54 bd 60 d3 68 3d
       -0.046235427 0.01139643 -0.05195626 0.056842208
000380 4c e2 d5 bc 40 6e d3 bc 6c ae 14 3d 4a 5a 36 3d
       -0.026108883 -0.025809407 0.036299154 0.0445197
000390 02 a0 04 3d 04 ef 1d 3d 48 ad 65 3d 98 48 79 bd
       0.032379158 0.03855802 0.056073457 -0.060860246
0003a0 e8 5d 49 bd 26 8a 7b 3d 60 9a 44 3d 16 59 39 bd
       -0.04916182 0.061411045 0.047998786 -0.045250975
0003b0 70 7c 45 bd 30 97 f0 bb 2a 51 11 bd 40 1f 7f 3d
       -0.048214376 -0.0073422417 -0.035477795 0.06228566
0003c0 f8 7b 1a 3d 60 e0 57 3c b2 7e 6f bd 86 ea 79 3d
       0.037715882 0.013176054 -0.058470435 0.061014675
0003d0 78 2b aa 3c 50 43 2f bd 3e 04 4a 3d f8 77 33 bc
       0.02077268 -0.042788804 0.049320452 -0.010953896
0003e0 98 d1 37 bd 90 90 1e bc 80 ec 66 bc 2c ca bc bc
       -0.04487762 -0.009678021 -0.014094472 -0.023045622
0003f0 70 74 a2 3c 04 ae 43 bd e6 22 0d 3d 7e 99 3d bd
       0.019830912 -0.047773376 0.03445711 -0.04628896

fc1.bias f4 [64]
000000 fa a7 74 bd 33 e4 8a 3b 5f 20 16 3d 33 cb cd 3c
       -0.059730507 0.0042386292 0.036651965 0.025121307
000010 c3 a1 1d bd 00 9a 88 bc 77 8e 4e 3d f8 06 44 bd
       -0.038484346 -0.016674995 0.050428834 -0.04785821
000020 80 a9 51 bc 99 b8 ac bc 09 78 81 3b fa 18 d9 bc
       -0.01279676 -0.021084117 0.003951077 -0.026501168
000030 5a 6c 4c 3b 1a e4 7c 3d 6f 71 72 bd 93 46 47 3d
       0.0031192512 0.061740972 -0.05919021 0.04865129
000040 14 69 2d bd e4 eb 26 bd c9 d7 56 3c 96 03 31 be
       -0.04233654 -0.040752307 0.013112971 -0.17286524
000050 eb 75 2b 3b 67 af 3f 3d d3 65 49 bc f9 99 8a 3d
       0.0026162814 0.046798136 -0.012292343 0.06767649
000060 64 1d 66 3d 06 0c 35 bc af 0b 3c bd b8 06 97 bd
       0.056180373 -0.01105023 -0.04590958 -0.073743284
000070 84 c2 c0 bc 05 80 71 bd 98 e9 2a bd 1b ac 2e 3e
       -0.023530252 -0.05895998 -0.04172668 0.1705784
000080 cd 46 ab 3c 4c eb 2a bd 1c 8b 05 bd 36 67 03 bd
       0.020907784 -0.041728303 -0.03260337 -0.03208085
000090 fd ac 70 3d 0c aa bd bd 02 b4 03 3e 7e 53 f1 b9
       0.058758724 -0.092609495 0.12861636 -0.0004602931
0000a0 34 11 c4 ba 7f c2 b7 3b de 28 89 b8 5a 6c 49 bd
       -0.001495874 0.0056079025 -6.540281e-05 -0.049175598
0000b0 0c 6c 50 3d 85 7c 0c 3d 2e d5 82 3c 0c 7a 16 bd
       0.05088429 0.03429844 0.015970793 -0.036737487
0000c0 e0 7a fd 3c cc 40 c5 3d 22 3d b5 bc 2e 32 17 bd
       0.03094238 0.096315 -0.022123877 -0.03691309
0000d0 f2 6b 2d bd ca e3 37 bd c4 e9 0f bd ea a8 25 bd
       -0.042339273 -0.04489497 -0.035135046 -0.040444292
0000e0 1e b9 80 3d 24 d2 00 3e 79 e9 cf 3c 60 9b 3a 3d
       0.06285308 0.12580162 0.025379883 0.045558333
0000f0 2b 41 b2 3d fa 7e 4a bc 70 a6 ef bb 83 3f 54 bd
       0.08703836 -0.012359375 -0.007313542 -0.051818382

fc2.weight f4 [5, 64]
000000 da 1d d2 bd 74 ea 31 3e 85 86 0f bd ff fb 3a bd
       -0.102596 0.17374593 -0.035040397 -0.04565048
000010 84 d1 21 3e 60 69 55 bd 72 2e 10 3c 84 17 05 3d
       0.1580258 -0.052102447 0.008800136 0.03249313
000020 6a 7d d9 3d 6f 59 f5 bc c0 af f4 3d 55 4a 8d 3e
       0.10619624 -0.029949872 0.11947584 0.27595773
000030 ad b6 8d 3d ba 54 d1 bd 05 22 a4 3d 3b 04 64 3e
       0.06919608 -0.102212384 0.08014301 0.22267239
000040 4e f9 8e bd a8 64 b8 3c 48 14 17 bc cf b6 7b 3d
       -0.06981145 0.022508934 -0.009221144 0.061453637
000050 46 63 d5 bd 99 10 28 bc c6 3f 06 3e c5 dc 75 3d
       -0.104193255 -0.010257863 0.13110265 0.060024995
000060 57 23 e1 bd 3e a8 60 bd 08 44 43 bd a8 6e 2a 3d
       -0.10993069 -0.05484795 -0.0476723 0.041609436
000070 09 55 e1 bd 01 76 5b 3e ff 30 4d bd 5b 37 ae be
       -0.11002547 0.21431734 -0.050095554 -0.34026608
000080 73 fd e7 bc 4c ac 91 3d d2 a7 36 3d 00 42 9c bc
       -0.028319096 0.07112941 0.04459364 -0.01907444
000090 42 47 8f 3c 85 f1 21 3d d6 17 9b 3c 54 22 e5 bd
       0.017490033 0.03953697 0.018932264 -0.11188188
0000a0 c8 2b f8 3d 31 aa b9 3d 40 3b 32 3d d2 96 aa 3d
       0.121177256 0.090656646 0.043513536 0.08329548
0000b0 e6 4d 20 3e bf e4 18 bd 21 36 14 3d 19 b2 b7 bd
       0.15654716 -0.037327524 0.036184434 -0.08969516
0000c0 ef 57 65 3e a8 4c 9c be 60 2b 0a bd ed a1 fb bd
       0.22396825 -0.30527234 -0.033732772 -0.12286744
0000d0 f1 f4 19 3e 70 83 a2 bd e8 e2 99 3e 2c 84 80 3d
       0.15034844 -0.07935226 0.30055928 0.0627521
0000e0 a7 d9 1f ba bb 85 b6 3e fd f1 47 3e b4 e7 7d 3d
       -0.00060978014 0.35648903 0.19525905 0.061988547
0000f0 3f 3a 96 3e 20 bf 89 3c 20 7d a6 3b 25 60 a7 3d
       0.29341313 0.016814768 0.005080834 0.08172635
000100 90 0c ee 3d 93 21 3a 3e 87 67 fa bd b6 54 a0 3d
       0.1162349 0.1817687 -0.122267775 0.07828657
000110 04 82 07 3e ac e7 28 3d 3f ba 6f bd 12 26 f9 3d
       0.13233191 0.041236565 -0.058527227 0.121654645
000120 bd 7d e1 bd eb 34 9e 3d aa 4d 1b 3d b7 61 74 3e
       -0.11010311 0.07724937 0.037915863 0.238654
000130 ed 6f 6a bb 7f 35 c6 be 76 52 6b 39 3f 82 f0 3c
       -0.003577228 -0.3871269 0.00022442066 0.029358981
000140 74 6c 37 3d 5c 15 32 3d e3 4a c2 bc 1a f8 16 3e
       0.044781163 0.0434774 -0.02371735 0.1474308
000150 0e 7c 23 bd dc b5 2e 3e 83 68 61 3c 01 96 6b 3d
       -0.03991323 0.17061561 0.013757828 0.0575161
000160 e7 0c ef 3d 1e ad 36 bd 9c c0 80 bc 85 bc 6d 3d
       0.11672383 -0.04459869 -0.015716843 0.058041114
000170 56 23 e7 bd 65 fb c4 3c ed 7e 74 bc 63 72 12 bd
       -0.11286037 0.024045656 -0.01492284 -0.03575362
000180 6d b3 19 3d de 5b 3e 3e 78 17 1e 3e 48 b2 dc bc
       0.03752463 0.18589732 0.1543864 -0.02694048
000190 78 ac 36 3e a7 65 c0 3d f8 5e 2c 3d b5 b1 42 bd
       0.17839229 0.09394389 0.042082757 -0.047532756
0001a0 75 16 94 3d 74 3a 83 3e 90 07 df 3d 5e 0f f0 bd
       0.07230846 0.25630534 0.10890114 -0.11721681
0001b0 28 d1 10 3e 31 43 9f 3d 8e b1 59 3e 09 fd b1 3c
       0.14142287 0.077764876 0.21259138 0.021727102
0001c0 b0 5d 5a 3e 18 19 74 be 20 5b 7f 3d bb f9 15 3c
       0.21324801 -0.23837698 0.062342763 0.009153779
0001d0 de 4d e1 3c e0 b4 d6 3d 45 2b 86 3e 54 c2 4f 3d
       0.02750295 0.10483718 0.26204887 0.050722435
0001e0 99 c3 3d 3e 32 57 73 3e f7 79 0d 3e d1 1d e7 bd
       0.18531646 0.23763731 0.13816057 -0.11284984
0001f0 34 8f 04 3e de 82 e2 3d 50 f6 d8 3c b0 44 4f 3d
       0.12945253 0.11060117 0.026484638 0.050602615
000200 b2 66 ff bd f0 a5 4b 3e d9 dc ad bd 03 b4 8b bd
       -0.124707595 0.19887519 -0.08489389 -0.06821444
000210 fa 49 88 3d cc 4d 60 3d 57 7f 3f bd 38 5f c6 bc
       0.06654735 0.054761693 -0.0467523 -0.024215326
000220 ff 10 c2 3d dc a8 0e 3e 10 69 19 bd 9d e4 5f 3e
       0.09475898 0.13931602 -0.03745371 0.21864553
000230 ae be c0 3b c8 1b 4a be df 3b 65 bb f5 2f 3b 3e
       0.005882106 -0.1973716 -0.0034978313 0.18280013
000240 3a ed c3 3d 64 83 55 3d 76 3a 3e bd d5 24 34 3e
       0.09566732 0.052127257 -0.04644247 0.17592175
000250 42 cd 2d bd c8 ec 36 3e da 5f b2 3d 4c 16 3b 3e
       -0.042432077 0.17863762 0.087096885 0.18270224
000260 82 0f ee 3c 7d de 03 3e a8 c0 b3 bd 1c 25 d8 bd
       0.02906013 0.12877841 -0.08776981 -0.10553953
000270 81 55 98 3b e3 7c 86 bc 7f cd cf 3c 91 89 97 bd
       0.0046488647 -0.016416973 0.025366543 -0.073992856
000280 23 ed 90 3c ae 98 4b 3d c2 5b 14 3d ff 84 91 3d
       0.0176912 0.049706154 0.03622032 0.07105445
000290 9b 1f 52 3d ac 3c 8c 3e 36 9c 73 3e e1 86 00 bc
       0.051299673 0.2739004 0.23790058 -0.007844658
0002a0 42 00 7f bd eb 6b ac 3d 06 39 7a 3d 95 34 74 3d
       -0.062256105 0.08419021 0.061089538 0.05962046
0002b0 cd 60 05 3e ed 5b 4d bd 5b ca 55 be 11 e3 90 bd
       0.13025208 -0.050136495 -0.20877974 -0.070745595
0002c0 5f 2a 9b 3e d1 9c 78 be 44 08 41 3d 5e 70 1c 3c
       0.30305764 -0.2427857 0.047127023 0.009548275
0002d0 00 22 03 3e c0 e5 13 3c e1 3a 1b 3e 00 23 7b 3c
       0.12805939 0.009026945 0.1515918 0.015328169
0002e0 96 00 d7 3d bc 23 5d 3e e6 18 0f 3e 7e 84 82 3d
       0.10498159 0.21595663 0.13974342 0.06372927
0002f0 eb 2e 92 3e 52 bd c6 bc 78 4c 4d 3d eb ca c9 bb
       0.2855142 -0.024260197 0.050121754 -0.006158223
000300 5c eb 3b 3d 7e 88 1c bd d3 a0 c5 bd 30 82 e9 3d
       0.045878753 -0.038216107 -0.096498154 0.114017844
000310 db 2d 2d 3e 5c bb cf bd ce ec 3a 3d 68 7c 96 bd
       0.16912024 -0.10143158 0.04563599 -0.07347947
000320 ce de 0b bc 22 21 d1 bd cc 8e 2e 3d 34 04 75 3d
       -0.0085370075 -0.10211398 0.04261665 0.05981846
000330 fd 73 11 bc fd e3 eb 3b 33 69 28 3d dc 63 91 3d
       -0.008877751 0.007198809 0.04111595 0.07099125
000340 f4 36 92 3d 26 fe 8b 3d 1c 0d 9d bd d8 eb 96 3e
       0.07139388 0.06835584 -0.07668516 0.2947681
000350 a8 e4 14 bd 26 d6 00 3d 03 c0 5f 3e 2f f0 54 3e
       -0.036350876 0.031454228 0.2185059 0.20794748
000360 67 19 96 be af 41 be 3d e0 59 ab 3c 21 a9 a8 3d
       -0.29316255 0.09289872 0.02091688 0.08235384
000370 44 55 8c bd 2d 89 0c be e2 5d ae 3d 50 78 bf be
       -0.068522006 -0.13724203 0.085140005 -0.3739648
000380 f7 58 50 bd d4 94 65 3e 0c cb b3 bd ba d0 91 bc
       -0.050866093 0.22420055 -0.087789625 -0.017799724
000390 c1 c6 68 3e 19 83 3e 3e 36 a5 88 3e 42 72 3a bc
       0.22732069 0.18604697 0.26688546 -0.01137978
0003a0 10 10 01 3e 2b 5d 8d 3d 98 9e 2d 3e 85 18 4a 3d
       0.12603784 0.06902536 0.1695503 0.04933979
0003b0 93 bb 1c be 4e bd e8 bd bb 4e 8f be a4 7e 3e bd
       -0.15305929 -0.11364232 -0.27989754 -0.046507493
0003c0 f6 0e c8 3e c5 53 54 be 18 eb 53 bc f8 19 58 3d
       0.39073914 -0.2073508 -0.012934469 0.05275914
0003d0 a1 38 ce 3a 7c 5b a6 3d c3 1e 70 3e 00 5c e2 3b
       0.001573343 0.08122918 0.23449235 0.00690794
0003e0 6c a4 58 3e c6 d8 d6 3e af ef 41 3e 93 b1 93 3d
       0.21156472 0.4196226 0.18939088 0.07211604
0003f0 bc fd 80 3e de bc 97 3d 80 93 ae ba 80 b8 46 3d
       0.25193584 0.074090704 -0.0013319105 0.048515797

fc2.bias f4 [5]
000000 67 8d e5 3d fb 99 f5 bd bd 1f b3 bd 6c 0c 05 3e
       0.11208611 -0.1199226 -0.08746288 0.1299302
000010 a3 7b 0b bd
       -0.034053456
