CNN2_tournament2_tiny/agent3_26.pth (torch, 115973 bytes, 22 tensors)

c1.weight f4 [16, 8, 3, 3]
00000000: 3aa7 393d 8a66 31bd 180b ef3c 9958 0b3c
00000010: c2d9 a7bd 1ac0 b0bd b4c2 de3d aab8 91bd
00000020: b324 06be e7b4 cfbc 502d dc3d f25a 7ebd
00000030: b905 b4bc 517e 33be efd7 a33b 5d70 963d
00000040: 2e3b a9bd 8424 983d f6ba 023d cafb 8fbd
00000050: ef12 e23d 16c9 52bd c24e cfbd cb6a 8c3d
00000060: 7ed6 8cbd 2543 a53d 7fbb c73d 6ccc fbbc
00000070: 8ce3 cf3c 8ab1 a9bd bf55 b43d 5c78 943c
00000080: 5755 cc3d abe8 b93d 690f ec3d 37c5 a33d
00000090: 51e9 16be 99c1 c1bd fb1b 043b bd1b 00be
000000a0: d147 8fbd 1c2d 12be 4adb 413c e1e4 26bd
000000b0: 9d3e 52bd 94a3 783d aa76 80bd 2e81 34be
000000c0: f64d f0bc 802a bbbd f864 0abd a657 193e
000000d0: f903 913d fdfc 37bd 23f9 bebd 9fdb 04be
000000e0: a6da 8cbd 406b 74bd 9968 77bb 9e79 0abe
000000f0: 11c0 8fbb 193e a63d b1b0 353d fb1d f63b
00000100: 6688 b33d 74b5 92bd 8829 193e 0696 39bb
00000110: 47c9 c23d 2660 e93d cb2e 153e 9f47 123e
00000120: 5d08 abbc cd44 9ebd 81a7 b6bd 4462 983d
00000130: d59a c9bd 76e0 b3bd 5013 93bd 8fd2 a03d
00000140: f45d c7bd 8cd2 26bc 10a8 603c af86 2fbd
00000150: 6b5e 3bbd 983c ae3c 8509 0dbd 8407 9ebd
00000160: 54ab 8c3d 024a febb 3699 adbd 0063 dabd
00000170: e4ae bcbd 8ac6 0e3d 7ea1 61bd a8ba 6a3c
00000180: ffe3 a93d 2c79 de3c fa49 24bd 4b43 e03d
00000190: 00a9 58bb d10f 78bd 0730 973d ebd1 8b3d
000001a0: 2667 683d 3912 ae3d 98b2 2b3c d755 a73d
000001b0: 32cd c3bc 79f0 913d 8fd8 0cbb e3fd c6bc
000001c0: d948 643d 3d6d 1c3e 9fa8 51bd b54e b63d
000001d0: e293 913d 704a b23d 554d 61bd 8d79 afbc
000001e0: 0a22 213e 8f6c 023e 6c94 f83d 4057 6bbd
000001f0: 5cba 4e3d ab74 033c 9c10 20bb cf6d a53b
00000200: 2832 ce3d 490e 733d 424a 003d 5614 0ebd
00000210: 0b24 91bc 6ed9 e13d 2c22 26bd 564f 423e
00000220: 54d8 e13d 2824 2c3e 1985 f73b f1fe 053d
00000230: 99d2 3f3e e138 4cbd f47d a4bd f9ff 953d
00000240: 6a26 5d3d 62ea b1bd 6e9c 463d bfdc 533e
00000250: 3c4e a93d 213d e33c b116 5cbd 0496 513d
00000260: 185d 8f3d 4fbb 88bd 9c28 0fbd d76c 933c
00000270: ed7a 4b3d 875a c6bb 17a4 bdbd f9c5 bd3c
00000280: ffb6 f73d fbcb 403e 63ac ec3d 149e c4bc
00000290: b026 1abc 80fd f8ba 8946 8b3d 61ea 89bd
000002a0: 8c2c 28bd 1150 d53d 6ac6 0c3d 3393 b43d
000002b0: 8f10 943d 46de 3ebd 1ad3 083d e04d 4bbb
000002c0: a32c 99bd c814 4fbd 0ef2 2a3d 7883 9cbc
000002d0: acd7 e9bd aa1c 30bd 4073 c83d 1afb 05bd
000002e0: 88da 75bc a765 cebd b8fb b2bd 8a17 efbd
000002f0: 101a b4bd 7b4f 8fbd 6de0 5c3d 2fe0 883c
00000300: 359f f83c 0a50 4d3e 01af 8fbd c8ef ca3c
00000310: 5912 d93d b9af ed3d 2564 94bd e693 25be
00000320: 1c4a 05be 7e52 d53c 23a6 59bc 7762 d53d
00000330: 9292 fcbc 35aa 85bd 111f 75bd 6900 d13c
00000340: 51b5 77bd c621 32be 955f 19be 3a06 01be
00000350: 16f7 df3c 2ebb dcbd 51a3 97bd 1ae1 9ebd
00000360: 0b48 3fbd 849b fb3c ccbd 7a3d ae89 2d3b
00000370: 280b bf3d 410a 013e 05c2 1dbe 3dfe f4bd
00000380: e682 0cbe 7dd7 803d 6873 673c 1a56 5a3d
00000390: 5158 3d3d 2c57 e5bd 8e76 8cbb 80ad bd3c
000003a0: d308 8d3c bb0e 96bc e6b3 5e3d a1db 98bd
000003b0: 33a8 e33d 88bb 5a3c f661 12bd b5f6 bb3d
000003c0: 1360 63bd aab2 92bd 70a7 f23b c2d7 d9bd
000003d0: 8092 9f3a 2e4f 72bd 8cc6 ccbc 59b2 b9bd
000003e0: 288e 563c 0e32 123d 1970 c2bd a035 e9bb
000003f0: 90f4 50bd 5abd c23c ec5c 7e3d ca70 b13d
0.045325495 -0.04331068 0.029180095 0.00850501 -0.08195831 -0.086303905 0.108769804 -0.071153
-0.13099937 -0.025354816 0.1075083 -0.06209845 -0.021975385 -0.17528655 0.0050001065 0.0734565
-0.08263241 0.0742884 0.03191658 -0.07030447 0.110387675 -0.0514613 -0.10122444 0.06856307
-0.06876849 0.080694474 0.09752559 -0.030737124 0.025377057 -0.08285816 0.08805417 0.018123798
0.09977215 0.09077581 0.11526377 0.079966 -0.1473744 -0.09460754 0.002015828 -0.12510581
-0.0699612 -0.1427502 0.011832068 -0.04074562 -0.051329244 0.060702875 -0.062726334 -0.17627403
-0.02933405 -0.091389656 -0.033787698 0.14974841 0.07080836 -0.044919003 -0.09324863 -0.12974404
-0.068776414 -0.059672594 -0.0037751554 -0.13522956 -0.00438691 0.08117313 0.04435796 0.007510898
0.0876625 -0.07163516 0.14957249 -0.002831818 0.09511047 0.11395292 0.14568631 0.14285134
-0.020878011 -0.077279665 -0.089186676 0.07440618 -0.09843985 -0.08783047 -0.07181418 0.07852661
-0.09734717 -0.010182034 0.013711944 -0.042853054 -0.04574434 0.021269128 -0.034432907 -0.07716277
0.06868616 -0.0077602873 -0.08476488 -0.10663414 -0.09213045 0.03485731 -0.05508565 0.014326729
0.0829544 0.027157389 -0.040109612 0.10950335 -0.0033059716 -0.06056196 0.07382207 0.06827148
0.056738995 0.084995694 0.010479592 0.081706695 -0.023901556 0.07125945 -0.0021491384 -0.024290984
0.055733535 0.15276046 -0.0511862 0.08901731 0.071082845 0.08705604 -0.05500539 -0.021420265
0.15735641 0.12736724 0.12137684 -0.057456255 0.050470695 0.008023421 -0.0024423962 0.0050484906
0.1006816 0.059339795 0.031320818 -0.034687363 -0.017717382 0.110277995 -0.040559933 0.18975577
0.110275894 0.16810668 0.0075537083 0.032713834 0.1873268 -0.04985893 -0.08031836 0.073242135
0.053991713 -0.08687283 0.048489027 0.20689677 0.08266875 0.02773911 -0.053732578 0.051168457
0.07000178 -0.06676351 -0.034950837 0.017996235 0.049677778 -0.006053272 -0.09259813 0.02316569
0.120954506 0.18827812 0.11556318 -0.024001159 -0.009408638 -0.0018996447 0.06800563 -0.06734157
-0.04105811 0.10415662 0.03436891 0.088171385 0.07229721 -0.046598695 0.033404447 -0.003102176
-0.07479217 -0.050556928 0.041734748 -0.019105658 -0.11418089 -0.042996086 0.09787607 -0.032710172
-0.015005715 -0.100779824 -0.08739418 -0.116744116 -0.087940335 -0.069975816 0.053924967 0.016708462
0.030349353 0.20050064 -0.07015801 0.02477254 0.10599203 0.11605782 -0.072456636 -0.161697
-0.13016552 0.026040312 -0.013284239 0.10419171 -0.030831609 -0.06526605 -0.05984408 0.02551289
-0.06047565 -0.17395696 -0.14977868 -0.12600031 0.0273395 -0.10777889 -0.07404197 -0.077577785
-0.046699565 0.030713804 0.06121616 0.0026479769 0.093283 0.12601568 -0.15406044 -0.119625546
-0.13721809 0.06291101 0.014126636 0.05330477 0.046226803 -0.11198267 -0.0042865938 0.02315402
0.017216122 -0.01831757 0.054370783 -0.07463766 0.11116066 0.013350375 -0.035737954 0.09177915
-0.055511545 -0.07162984 0.007405214 -0.10636856 0.0012174398 -0.059157543 -0.024997018 -0.0906722
0.013095416 0.035692267 -0.09494037 -0.0071169883 -0.051014483 0.02377193 0.062100336 0.08664091

c1.bias f4 [16]
00000000: de7f 123d 623c c0bd 11ce 103d 493b d73d
00000010: e07b acbd 121d 7a3d 0404 be3d 88a0 79bc
00000020: 6916 95bd 84de b7bd 2847 73bc bde8 593c
00000030: 9ba3 f43d 741e d1bd 81e9 b5bd bacd cfbd
0.035766475 -0.09386517 0.03535277 0.105093546 -0.08422065 0.06106288 0.0927811 -0.015236028
-0.07279665 -0.08977988 -0.014848508 0.013300118 0.11945268 -0.102108866 -0.08882428 -0.10146661

c2.weight f4 [32, 16, 3, 3]
00000000: 372f 853d 732e 1cbd 19a1 923c 9715 46bd
00000010: acf3 65bd c366 3f3c 014c 87bd 493e a83c
00000020: 8a19 bc3d a916 97bd 77cc 913d 4e4b 00bd
00000030: deb0 ab3c 400d 973d e9c4 813d 0c0e 2fbd
00000040: acf7 a2bd 6191 7bbd 9955 d73c c9ac 94bd
00000050: 2890 0cbe 5c3f 733b 80a2 92bd 892a 6dbd
00000060: 8cc6 84bd 087d acbd ecd7 a3bc 895e c1bc
00000070: 1a84 583d d9c4 93bb c27b 2f3d 6b63 96bd
00000080: 9fcb 1d3d c413 5b3d 7924 e53c 6020 8abd
00000090: 4125 213d edcb 023e 13ba d93d 2be7 af3d
000000a0: ad71 a53d 5ddb f4bc 5cb1 9bbd dfd0 5dbb
000000b0: 5799 04bd 4182 a5bc a075 c9bd e923 90bd
000000c0: 630b 2dbd 4951 bf3d 279c bd3d 08cc 4abc
000000d0: 9391 9bbd 1dfe 6b3d 234a 863c 4542 f2bd
000000e0: eb58 09be 0305 02bd a8bb 35b9 a317 f23c
000000f0: 461d 63bc 81bf 0abd 531a 8bbc 6b16 b6bd
00000100: 4373 6e3c 644a 8a3d 488b 37bd dd89 cdbd
00000110: abf3 e1bd f287 b7bd f18f 98bd a078 a3ba
00000120: 007d be3d dcac 473d 61cd a73c 2d9c b33d
00000130: da27 70bc 144c 6c3c 5c94 353d b6b1 e03c
00000140: 6245 073d 493b 01bd eb7e c0bd 2ef0 89bd
00000150: 763d c4bc b8a2 9fbd fe55 5bbb ac1b 5bbd
00000160: 926d 733d a1bb c53b f03c fb3d ec5a f23d
00000170: 4a34 ad3c 092a 8f3d 705b 063e 2b48 6f3d
00000180: 692b 8f3d 641e 853d bac1 a0bc 879e ce3d
00000190: 94da 1cbd 487d 073d 9c9a f4bd e2c8 c5bc
000001a0: 7f7a 27bd 3c77 6c3d 8c68 453c d855 db3d
000001b0: df44 273d 4804 c0bd c344 9bbd 5ce0 333c
000001c0: befd f53b 6272 803d 923d 5a3c 0ed8 043d
000001d0: 7b50 633d fd8d aabc eaaf 773d 25ad 9d3c
000001e0: 0061 903d cf4b 4ebd 4761 cdbc 0781 423d
000001f0: 44e1 bbbd b0e5 abbd 76de fa3c 8aa7 18bd
00000200: fed2 543d 89ba 963c 7aef d1bd 7df8 1fbd
00000210: 2a02 ef3d 009c 873b 08d7 0d3d a8a0 a63c
00000220: 1c60 3e3d 838e 57ba a71b 8f3d 2607 e63c
00000230: 4fd6 4e3c 902a 653d a0a5 94ba 3947 8fbd
00000240: 1ada 57bc ce67 b03d 5aff 7d3d cf67 de3d
00000250: af1b 693d c66d 8abb 86a3 7abd 18bc aabd
00000260: 696b 44bd f9b0 a8bd 78cc 73bb cb44 0dbe
00000270: 4dac 48bd 2a29 eebc 3674 90bd a66b 9c3d
00000280: 28be 253e 174e d53d 25cd bbbd 2a99 2bbd
00000290: 1712 583c 5f61 bdbd d7af ccbd 3a31 033c
000002a0: 4263 c1bd fba7 35bc 39f3 1e3c e2a3 cc3c
000002b0: 06a9 953c 6208 f03d 87f5 343c 1bbc cb3c
000002c0: 31b0 c83d 2885 7c3d 7a64 8b3c 0a38 0b3c
000002d0: a2a6 30bd 201e dfbd 0382 bcbc e577 d73a
000002e0: e406 1b3d 6f3d 31bc 313f 693d 6231 3d3e
000002f0: 785a 363d af81 ac3c 5b3b fbbd e0de 04bd
00000300: 8fff 6bbd 27b6 37bd c1fb 823d f985 903d
00000310: 56a0 8f3d 6fa5 273e 8023 523d 13cc fdbc
00000320: 5c26 073e 39a5 b63b 0283 693d 3cc9 253d
00000330: d613 19be 2abe 133c 6674 7abc 0d47 c2bb
00000340: 8f58 023c 6ffb 2bbe d600 903d f027 ba3c
00000350: 8f04 db3b 9b35 ae3d 122d 0a3e e269 c83d
00000360: d07b b63d d32d c43d afba 4dbd 788c a33d
00000370: 64f5 b13c aeb9 3abd 3086 8fbd 2b14 2abd
00000380: b518 50bd 15e3 f9bd 979b 68bd d0ac 99bd
00000390: f55f 8d3a de53 d93d d2d6 a9bb 3869 813d
000003a0: e9c8 cc3d c9ab da3d f072 253d df50 e33d
000003b0: ec8e 3c3e 4788 bc3d fd3c 043d dc4d 063e
000003c0: a720 993d 701b 083d 124d c23c 6e3d 19bd
000003d0: 69d0 29bd 35b3 5ebd 8e79 66bc 740e 073d
000003e0: c8f7 253c 9907 7ebd d990 823d 7111 9d3d
000003f0: 6f86 913a 819b 0c3d 4008 83bc a32f b83d
0.06503146 -0.038130235 0.017899083 -0.048360433 -0.056140587 0.011682215 -0.066062935 0.020537512
0.09184559 -0.07377369 0.07119077 -0.031321816 0.02095836 0.07375574 0.06336386 -0.042738006
-0.07957396 -0.06141794 0.026285933 -0.07259519 -0.13726866 0.0037116623 -0.07159901 -0.057901893
-0.06483182 -0.08422285 -0.02000042 -0.023604648 0.052860357 -0.00450955 0.042842634 -0.07343181
0.038524266 0.053485647 0.027971493 -0.06744456 0.03934217 0.12773104 0.10631194 0.08589014
0.080783226 -0.029889757 -0.07602188 -0.003384642 -0.0323728 -0.020203711 -0.09836888 -0.07038099
-0.042247187 0.09341676 0.09258299 -0.012377746 -0.075961255 0.05761539 0.016392773 -0.11829046
-0.13412826 -0.03174306 -0.00017331413 0.029552286 -0.01386196 -0.03387404 -0.016980326 -0.08890995
0.014553848 0.0675247 -0.044810563 -0.10036061 -0.11032804 -0.089614764 -0.0744933 -0.0012471862
0.093011856 0.048748836 0.020483674 0.087700225 -0.014657939 0.014422435 0.04433094 0.02742849
0.033025153 -0.03155068 -0.09399208 -0.06735264 -0.023955088 -0.07794708 -0.0033468003 -0.053493187
0.059430666 0.00603433 0.12267482 0.11833748 0.021143097 0.069904394 0.13120818 0.058418434
0.06990702 0.06499937 -0.019623626 0.100888304 -0.03829439 0.033078462 -0.11943552 -0.02414364
-0.040888306 0.0577309 0.012048852 0.10709733 0.040837165 -0.093758166 -0.07581475 0.010978784
0.007507055 0.06271817 0.013320344 0.03243261 0.055496674 -0.020819658 0.0604705 0.0192476
0.07049751 -0.050365265 -0.0250708 0.04748633 -0.091738254 -0.08393419 0.030623656 -0.037269153
0.05195903 0.018399494 -0.10250755 -0.039055336 0.11670335 0.0041384697 0.034628898 0.020340279
0.046478376 -0.0008222835 0.06987696 0.02807958 0.012624337 0.055948794 -0.0011340864 -0.069960065
-0.013174558 0.08613549 0.0620111 0.10859644 0.056911167 -0.004224512 -0.061191104 -0.08336657
-0.047953997 -0.0823688 -0.003720073 -0.13795774 -0.048992444 -0.029072363 -0.070534155 0.0763772
0.1618582 0.10415285 -0.091699876 -0.041894116 0.013187907 -0.09247088 -0.09994476 0.008007342
-0.0944276 -0.011087413 0.0097015435 0.02498049 0.018269073 0.11720349 0.011044866 0.02486997
0.09799231 0.061650425 0.017015684 0.0084972475 -0.043127663 -0.10894418 -0.023011213 0.001643893
0.03784837 -0.01081787 0.05694503 0.1847587 0.04451987 0.021057932 -0.122671805 -0.032439113
-0.057616767 -0.04485145 0.063956745 0.07056803 0.070130035 0.16371702 0.051303387 -0.0309811
0.13198227 0.0055738953 0.057009704 0.040475115 -0.14948973 0.009017507 -0.015286541 -0.00592888
0.007955684 -0.16795133 0.070314094 0.022724122 0.006683893 0.08506318 0.13493755 0.097858205
0.08910334 0.09579053 -0.050226863 0.07985777 0.021723457 -0.045587234 -0.07008016 -0.04152314
-0.050804812 -0.122015156 -0.056789007 -0.075036645 0.0010786044 0.106116995 -0.0051830793 0.06318897
0.09999258 0.10677297 0.040392816 0.11099409 0.18413895 0.0920568 0.032284725 0.13115638
0.07476931 0.03322929 0.02371839 -0.0374121 -0.04145852 -0.054370124 -0.014067067 0.032972768
0.010129876 -0.062018964 0.06375284 0.07669342 0.0011102686 0.034327988 -0.015995145 0.08993461

c2.bias f4 [32]
00000000: 28b9 0b3d 8f0a 98bd 299a 2fbc b1dc bc3d
00000010: 075c 59bb 601b 243c c782 543c e487 1b3c
00000020: c9cc 81bd 0204 b23b 7a3c 1fbd eb79 afbd
00000030: 14f4 bdbc c1f5 163d 1e1c 983d 6393 4c3d
00000040: c906 28bd d0a5 4b3c df9c 17bd b813 09bc
00000050: 30eb 7f3d cd95 dcbc e7dc 773c b6cc 533d
00000060: 45bd acbd 6127 973d 670a aabd 91d2 a8bd
00000070: fad4 1dbc f898 00bc 3994 5cbd b8b6 86bc
0.034112126 -0.07423889 -0.010717907 0.09221781 -0.0033166425 0.010016292 0.012970633 0.009492848
-0.06337888 0.0054326067 -0.038876034 -0.08568176 -0.023187675 0.036855463 0.07427238 0.049945246
-0.041022096 0.0124296695 -0.03701484 -0.008366518 0.06248015 -0.0269269 0.015128351 0.0517089
-0.08434538 0.07380558 -0.08302765 -0.08243287 -0.009633297 -0.007848971 -0.053852294 -0.016444549

c3.weight f4 [64, 32, 3, 3]
00000000: 9b2f abbb ed48 cebc e156 1d3d 3765 f43d
00000010: 89f3 d33d 7be2 0a3d 07f1 543d 611c 783d
00000020: 3d97 143d af04 16be 6faf 563c 25d4 f7bd
00000030: 08bb 19bd 1573 0c3a b828 04bd f179 d13a
00000040: 710a 07bd 81ce b3bb 8372 453c 98f6 9abb
00000050: 4c54 99bd 9260 5b3d 9822 c73d ed8e 203d
00000060: e47d ac3d 8a51 62bc 959d 363d f8d3 eabd
00000070: d2cb 4ebd 747e c6bd 4313 6dbb 0cfa 66bd
00000080: 397b 9abd 690a 4cbd bb82 8d3b 5985 0f3c
00000090: d3d6 e1bc b0a6 02be 32c0 a4bd a295 73bc
000000a0: cce6 7fba 6d37 cbbd 229e 84bd 3f0d 19bd
000000b0: 7a72 10bd 9d57 9d3d 6e14 dc3d f4e5 12bd
000000c0: 1fa9 b3bc 7bc9 f0bc c2de 993c c775 de3c
000000d0: 0cac 7e3d 865b c93c 8fd5 32bc 2a93 323d
000000e0: cd3d 753d 2392 16bc 5cec 643d aa04 2a3d
000000f0: 506d 20bd 71c7 b3bc 119e b23b 125f a43a
00000100: 1c69 3cbb d746 8e3c 2388 27bd 7f74 adbb
00000110: 5cc8 083d ac22 9fbc 44ab 65bd 12a5 8dbd
00000120: f0e1 14bd 27f3 703d eecc 41bd 4f50 8ebd
00000130: 4404 60bd 8a01 5cbc 7824 a3bd cad6 a1bd
00000140: 74f1 9abd 9edb 1f3c 648e fa3b 6c11 2a3d
00000150: 06cb 453d 892c e93d 2beb 1f3c 065d 213d
00000160: bda9 e43c d925 283d 3404 923d 2d76 a43c
00000170: 3949 693d 749f 133c 0701 453d 85f6 1a3c
00000180: 1c43 81bd da04 eebc 8610 1536 351e b0bd
00000190: 5ad7 babd 5063 d2bd f5b8 c1bd f2d2 d6bc
000001a0: 658b 313c 0899 243d 00fc 4dbc bb0d 59bd
000001b0: 9320 85bc d8b5 22bd 62fe c9bd d0cc 3b3d
000001c0: f5ac f8bc 3ea7 543c 0436 083d b93c 89bc
000001d0: 9522 80bd d844 76bd 6056 5cbc e362 3abd
000001e0: cb83 a93c 61f4 b7bc 1c7c bdbc 2637 18bd
000001f0: b562 36bc 4537 ccbd 7090 9e3d 28df 10bd
00000200: 0108 7c3d 38bb 32bd 5411 ffbd 9cbb 4cbd
00000210: 8fc2 e7bd a187 acbd b773 cabc 8444 5fbb
00000220: 9d34 e63d 3617 8b3d d9a6 17bd 24a9 3fbb
00000230: f63d 2cbd a62e c63c 60eb 583d 8f67 ec3d
00000240: f808 82bd f4e8 01be 8011 92bd 3871 eabc
00000250: 767f 39bd 62cf dfbd 7fd2 3c3d e3b4 083d
00000260: a543 6ebd 5c72 053b f859 9ebd 5568 9cbd
00000270: d296 023d f586 e43c 430b 373c fcfd 3ebc
00000280: 8d85 31bc 9d5d 1a3d 9ee1 30bd c9f3 14bd
00000290: 21d6 c5b8 18d4 55bd 648b 943d 7146 b5bd
000002a0: fab1 d1bd f62e 69bd 2e6c 45bd aec0 f7bc
000002b0: f592 f4bb 7a5f a43c 1943 16bd 9777 1abd
000002c0: 6fee 9fbd 11e1 74bd 2983 04be 7a14 cebd
000002d0: eefa 7d3d 88f6 ef3d 3242 673d f698 95bc
000002e0: 59a8 6e3c 2c50 4cbd 1327 9a3d 5ed5 d83d
000002f0: afca 603d 7e0d 8bbd 56d0 bc3c cd2d 27bd
00000300: eed6 41bd c6bf 51bd 2043 6bbd fea8 33bd
00000310: 125c 0ebd a404 38bd b693 3dbc 709e 5bbc
00000320: c648 bebd 204a 50bd 39b9 c3bc 3f0c c9ba
00000330: decf 51bd bfbf 02bd 48f9 313d 3477 02be
00000340: 7943 afbd 8dd1 06bd 8c7e f53b b140 a0bc
00000350: 0027 80bd 387d bdba 2e26 b1bd 354c f2bc
00000360: b4e8 853d aa8b 7fbd 4fc9 cabd f8b0 e93d
00000370: ced5 483d 0cfa 303b 92cc 34bd b4a8 dabc
00000380: 3c4c 193d 27f0 4b3d 3876 08bd a282 7c3d
00000390: 1a4f 99bc a47d ca3c 5bf2 ee3c a907 923c
000003a0: 0650 173d 3b62 093d a79c 2fbd e3e5 e63c
000003b0: 6823 e83b c9b4 7cbc 87dd 98bd 686f 383c
000003c0: 2dc0 70bc 27a1 a23b 4ed2 37bd 4895 5ebd
000003d0: 6713 e1bc 3883 82bd be7b b7bd 6d40 b2bd
000003e0: dbe4 fdbb 705c 723b d145 25bd b411 c8bc
000003f0: af5f 993c d991 933d a2f9 c83d 5c0e d13d
-0.005224181 -0.025181258 0.038412932 0.11933368 0.10349185 0.033907395 0.051987674 0.06057394
0.036277045 -0.14650224 0.01310335 -0.1210101 -0.037531883 0.0005357725 -0.032265395 0.0015981776
-0.032968942 -0.0054872637 0.0120512275 -0.0047291033 -0.074867815 0.053558894 0.09723395 0.039198805
0.08422449 -0.013813386 0.044583876 -0.11466211 -0.050487347 -0.09692088 -0.003617481 -0.056390807
-0.07543034 -0.049814615 0.004318563 0.00875982 -0.027568256 -0.12758899 -0.08044471 -0.014867218
-0.00097618694 -0.09922681 -0.06475474 -0.037366148 -0.035265423 0.076827265 0.10746084 -0.03586383
-0.02193123 -0.029392948 0.018782977 0.02715577 0.062175795 0.024579775 -0.010915174 0.043597378
0.05987339 -0.009190115 0.055889472 0.041508354 -0.03916675 -0.021945687 0.005450972 0.001254054
-0.0028749174 0.017367763 -0.040901314 -0.0052934284 0.033394203 -0.019425713 -0.056071535 -0.0691625
-0.036348283 0.05882564 -0.047314577 -0.069489114 -0.054691568 -0.013428101 -0.0796594 -0.07902296
-0.07565585 0.009756951 0.007646369 0.04152052 0.04828932 0.113854475 0.009760658 0.039395355
0.027912969 0.04105172 0.07129708 0.020075882 0.056954596 0.009010185 0.048096683 0.009458189
-0.06311628 -0.029055048 2.2212348e-06 -0.085995115 -0.09123106 -0.102728486 -0.09459106 -0.026223633
0.010836457 0.040185004 -0.0125722885 -0.05299161 -0.016250884 -0.0397242 -0.09862973 0.04584962
-0.03035591 0.012979327 0.03325464 -0.016752588 -0.06256596 -0.06012425 -0.013448328 -0.045504462
0.020692727 -0.022455396 -0.023130469 -0.03716197 -0.011131932 -0.09971479 0.07742393 -0.03536907
0.06153107 -0.043635577 -0.12454477 -0.049983606 -0.11316406 -0.08424307 -0.02471338 -0.0034067938
0.11240504 0.067915365 -0.037024353 -0.0029245103 -0.042051278 0.024192166 0.052958846 0.1154319
-0.06349367 -0.12686521 -0.07132244 -0.02861844 -0.04528757 -0.10928227 0.046099182 0.033375632
-0.05816998 0.0020362353 -0.07732004 -0.07637087 0.031882115 0.027896384 0.011172119 -0.011657234
-0.010835064 0.037686933 -0.043183915 -0.036365304 -9.4335766e-05 -0.05220422 0.07253149 -0.08851326
-0.102390245 -0.05692955 -0.04819887 -0.030243244 -0.0074638077 0.020065058 -0.036685083 -0.037711706
-0.078091495 -0.059784953 -0.12940659 -0.10062499 0.062006883 0.11716944 0.056459613 -0.018261414
0.014566504 -0.049881145 0.07526984 0.105875716 0.054880794 -0.06789683 0.023048561 -0.040815163
-0.047324114 -0.05120828 -0.057437062 -0.043862335 -0.034755774 -0.0449263 -0.011570862 -0.013404474
-0.09291224 -0.05085194 -0.023892032 -0.0015338733 -0.05122363 -0.031921145 0.043450624 -0.12740785
-0.08557791 -0.032914687 0.007491892 -0.019562097 -0.06257439 -0.0014456874 -0.0864986 -0.029577354
0.06538525 -0.062389053 -0.09901678 0.11410707 0.049032025 0.0027004508 -0.044140406 -0.026691772
0.03742622 0.049789574 -0.033315867 0.06164802 -0.018714476 0.024718113 0.029168298 0.017825918
0.03694155 0.033540946 -0.042874005 0.02818579 0.007084299 -0.015423962 -0.07464128 0.01125703
-0.014694256 0.0049630585 -0.044878297 -0.054341584 -0.027475072 -0.06372684 -0.08959149 -0.087036945
-0.007748229 0.0036981367 -0.040349785 -0.024422504 0.018722383 0.072055526 0.09813239 0.10207817

c3.bias f4 [64]
00000000: b7b7 433d 4a33 de3c d9a7 88bd 8596 243d
00000010: 8851 d73c bc0e f83c 48e2 183d 16fe 1abc
00000020: d4ac 5bbd eebe 523d 78b6 35bd f1b6 38bd
00000030: 5aa7 903d 7e04 393c 2922 2bbc 86f4 91bc
00000040: 40f7 163d 8eb8 dc3c 6df6 5dbd 7805 e3bc
00000050: dc9f 663c 74bc 06bc 2271 41bd 0ec1 313d
00000060: 74c2 bb3c a08a 8b3c 4251 65bd e065 f43c
00000070: c41f 3abd 5764 163d 1d15 1bbd 4c9e d9bc
00000080: 904d dcbc 0a78 8d3c a947 d43c 7ff5 9cbb
00000090: a02f 7dbc cbb1 39bd 997f 313d 744c cdb9
000000a0: 9e73 903d eb48 eb3c 5472 a03c b5fd 903c
000000b0: 9b98 4dbc 7ccf 053d 4b95 fabc 204d e23b
000000c0: e76d 6ebd e3a1 74bc 48ff c0bc 7818 0fbb
000000d0: 6c05 7dbd afd9 5fbc cb44 b6bc 048b ef3c
000000e0: 1338 c6bc cf24 8d3c 427a efbc 8637 15ba
000000f0: 1b2d cbbc 9bbb b1bc 9273 17bd b1a7 19bc
0.047782626 0.027124066 -0.066726394 0.04018261 0.026283994 0.030280463 0.037325174 -0.009459993
-0.05363162 0.051451616 -0.04436347 -0.04509634 0.0706317 0.011292575 -0.010445156 -0.017816793
0.03685689 0.026943471 -0.054190088 -0.027712569 0.014076199 -0.008223642 -0.047227032 0.043397002
0.02291987 0.017033875 -0.055985697 0.029833734 -0.04544045 0.036716785 -0.037861932 -0.02656474
-0.026892453 0.017269153 0.025913076 -0.0047900076 -0.015453249 -0.045335572 0.043334577 -0.0003915761
0.07053302 0.028721293 0.019585766 0.017699102 -0.012548591 0.032668576 -0.030588767 0.0069061667
-0.05821028 -0.014931175 -0.023559228 -0.0021834653 -0.06177275 -0.01366274 -0.0222496 0.029241093
-0.02419666 0.017229466 -0.029233102 -0.00056921726 -0.024801781 -0.021695903 -0.03697545 -0.00937836

bn1.weight f4 [16]
00000000: 1d34 733f 6759 8f3f cdfe 7c3f 8ca5 723f
00000010: d67f 8d3f 9c3c 893f 43f2 813f cfc3 823f
00000020: c980 773f bfc4 833f 29f0 813f 7306 753f
00000030: 2326 803f 8c07 793f 57f7 703f 2cc2 833f
0.95001394 1.1199158 0.98826295 0.94783854 1.1054637 1.0721622 1.0152057 1.0216006
0.96680886 1.0294417 1.0151416 0.95712966 1.0011638 0.9727714 0.9412741 1.0293632

bn1.bias f4 [16]
00000000: c027 e8bd 8e37 4bbd 46e1 35bd 83b0 97bd
00000010: 86b1 863c 9d4a 67bd c569 d0bd d0cd adbd
00000020: 2c19 9bbd c0d5 89bd 04c7 1b3c 8c06 2bbd
00000030: b985 c7bd dbb0 8fbd 566f a2ba a9b7 a1bd
-0.11335707 -0.049613528 -0.04440429 -0.07406714 0.016442072 -0.05646764 -0.10176424 -0.08486521
-0.075731605 -0.06730223 0.009507898 -0.04175429 -0.097423024 -0.070161544 -0.00123928 -0.078963585

bn1.running_mean f4 [16]
00000000: cec1 85ba b7eb 15be 5189 bb3d 186b bd3d
00000010: 88aa 12be 7da4 a33c beeb 203e 7688 f6bc
00000020: 5023 fdbd d239 d2bd 392a f6bd 6d84 abbd
00000030: 2b86 c33d caae 09be 63f6 b4bd 7edc d7bd
-0.0010204853 -0.146407 0.091570504 0.09248942 -0.14322865 0.019975895 0.15714929 -0.030094367
-0.12360251 -0.102649346 -0.12019772 -0.083748676 0.09547075 -0.13445583 -0.08836057 -0.105401024

bn1.running_var f4 [16]
00000000: 8878 693c 90ec 7d3c d102 983c 6313 0a3d
00000010: d2ff 953c 09c5 653c c57d 483c 9348 993c
00000020: 1b58 723c 884f 373c 1ad1 963c 8962 ef3c
00000030: ff80 863c eeb3 1e3c 7a4e 583c 6a03 733c
0.014249928 0.015498295 0.01855603 0.033709895 0.018310461 0.014024028 0.012237017 0.018711364
0.014791514 0.011188395 0.018410254 0.02922179 0.016418932 0.009686453 0.013202304 0.014832357

bn2.weight f4 [32]
00000000: 833a 763f 6681 7e3f 8177 6d3f 3acc 8a3f
00000010: 04d0 7c3f f6b6 6f3f 0b2b 853f dbc5 703f
00000020: 61d5 7f3f 77b0 783f dbd9 843f a357 843f
00000030: 085d 703f 23d5 813f 1c5c 823f e316 673f
00000040: 6523 663f 17de 653f a6a7 8c3f c703 883f
00000050: 0003 6b3f 9e9c 8a3f c7cb 7b3f 9d61 8f3f
00000060: 5b2d 693f c9f3 6b3f c6b7 793f 9340 873f
00000070: 1091 7d3f ba5f 8a3f 2ef4 873f 2927 673f
0.9618303 0.99416196 0.92760473 1.0843575 0.98754907 0.9363855 1.0403761 0.94051903
0.99934965 0.97144264 1.0378984 1.0339245 0.93891954 1.0143169 1.018436 0.902693
0.8989776 0.8979201 1.0988662 1.0626153 0.9180145 1.0829046 0.98357815 1.1201664
0.9108483 0.9216886 0.9754604 1.0566581 0.9904947 1.0810463 1.0621393 0.9029413

bn2.bias f4 [32]
00000000: a95a 39bd b778 bbbd 51e3 a3bd 758d 46bd
00000010: 8b25 9bbd 993f 22bc 9726 00bd 8a5a b4bd
00000020: a55a cfbd 9c79 98bd 3d08 033d 8802 13bd
00000030: 0823 6cbd 9d25 75bd 7458 90bd 0c21 dcbd
00000040: 7b2a d3bd 0193 92bd cedb 9fbc 98b2 b5bd
00000050: 5c37 c7bd 96d3 943a 6425 d6bd 03e4 6fbd
00000060: a00a 09bd ced6 8cbd fb29 e8bc 52fb 9bbc
00000070: 1d1d 9ebd 2899 85bd 121b 97bc a9ac afbd
-0.045252476 -0.09153884 -0.080023415 -0.048474748 -0.0757552 -0.009902858 -0.031286802 -0.088063315
-0.10124711 -0.0744507 0.03199028 -0.035891086 -0.057650596 -0.059850324 -0.07048121 -0.10748491
-0.10310837 -0.07156945 -0.01951399 -0.08871955 -0.09727356 0.0011354561 -0.104563504 -0.05856706
-0.0334574 -0.06876908 -0.02834033 -0.019040737 -0.07720397 -0.06523353 -0.018445525 -0.08577854

bn2.running_mean f4 [32]
00000000: 8ec2 a03d 196c 963e 1973 683e 06b6 b13e
00000010: 5852 bf3e 4fff 10bf c73e 6b3e 903e 663d
00000020: 6248 6f3e 783b fa3c 414b 0b3f bbd2 e73e
00000030: 3fe9 b3be 92e0 8e3e 4e40 2c3f a9a1 63be
00000040: 5ed1 b0be 3d95 a43c f509 a63e f946 c53e
00000050: 77bf f73e d64c f2bd 3305 033e ba25 c23e
00000060: 6064 b5be dbc8 743e 70c9 a83e d4b1 8b3e
00000070: 21f9 bc3e 5e49 8e3e 884d 8d3c 560a febe
0.07849608 0.29379347 0.22700156 0.34709185 0.3736751 -0.5663957 0.22973166 0.056212008
0.23367456 0.030545935 0.54411703 0.45277962 -0.3513889 0.2790571 0.6728562 -0.22229637
-0.34534734 0.020090694 0.32429472 0.3853071 0.48388264 -0.118310615 0.12794952 0.37919408
-0.35428143 0.23904745 0.32966185 0.2728411 0.3690882 0.2779035 0.017248884 -0.4961726

bn2.running_var f4 [32]
00000000: 780b c13e 7ef3 2f40 889d bd3f 768d e13f
00000010: 9a1b 4140 2fd7 8740 3147 fe3f 1094 c83f
00000020: c3d2 1b40 b9bd 1a3f 44bd 2840 f6f2 4a40
00000030: 29d4 b43f 903a f93f 19a2 0f40 7a93 9a3f
00000040: 7900 f43f 6002 193f 1029 1340 668d 3e40
00000050: cdd0 e13f 4d14 fc3f 53e1 0540 d7af 2540
00000060: 63f1 e63f 9b80 fe3e 3128 8e3f 01c9 1f40
00000070: 4688 ed3f af0f 2a40 fc33 a23f 354d 0a40
0.37704062 2.7492366 1.48137 1.7621295 3.0173097 4.2450175 1.9865476 1.5670185
2.4347389 0.60445744 2.6365519 3.1710792 1.4127246 1.9470997 2.2442687 1.2076256
1.9062644 0.5976925 2.2993813 2.9773803 1.7641846 1.9693695 2.0918777 2.5888574
1.8042415 0.49707493 1.1106015 2.4966433 1.8557212 2.6572073 1.2672114 2.1609623

bn3.weight f4 [64]
00000000: c8b2 803f 5ce4 7e3f 8f7b 863f 5892 6e3f
00000010: cc9d 693f 1550 883f 77a5 6d3f 2fee 753f
00000020: 4931 613f 41ba 643f 1524 6d3f 27c9 7c3f
00000030: dab4 833f d42e 7b3f ef9a 6e3f ce2e 6c3f
00000040: ff2b 723f 8429 7c3f 8d25 823f 452e 633f
00000050: 1d88 773f 1144 773f 51ab 773f 48dc 713f
00000060: 86bc 803f 0879 663f b002 7c3f 6da3 7d3f
00000070: 026b 793f edf6 6f3f 15d2 693f 7860 763f
00000080: 0dab 803f e077 663f 0a05 6e3f 94dc 753f
00000090: a631 753f 783a 723f a252 6a3f 1974 6e3f
000000a0: 78d6 693f f678 7b3f 3e48 7f3f e143 753f
000000b0: 396c 6d3f f116 813f d877 833f 585f 6e3f
000000c0: 1253 633f 788b 763f 999d 6d3f ade4 733f
000000d0: 0ba7 6c3f 1f99 6f3f b876 7b3f b8f5 7a3f
000000e0: ecbe 7c3f bcc9 713f 18e4 7a3f 5578 813f
000000f0: 77e3 6e3f 2848 7a3f faf2 723f 7e61 6d3f
1.005456 0.995672 1.0506457 0.9319205 0.91256404 1.0649439 0.92830604 0.96066564
0.8796583 0.893467 0.9263318 0.98744434 1.0289567 0.9811833 0.9320516 0.9225892
0.9459838 0.9850085 1.016771 0.88742477 0.9669207 0.96588236 0.96745783 0.9447675
1.0057533 0.9002843 0.984416 0.9907749 0.97428906 0.93736154 0.91336185 0.9624095
1.00522 0.90026665 0.9297644 0.960397 0.9577888 0.94620466 0.9153234 0.931459
0.9134288 0.98231447 0.9971961 0.958067 0.9274326 1.0085126 1.0270948 0.93114233
0.8879863 0.9630656 0.928186 0.95270807 0.9244239 0.9359302 0.98228025 0.9803119
0.98728824 0.9444845 0.98004293 1.0114847 0.93315834 0.9776635 0.94902 0.92726886

bn3.bias f4 [64]
00000000: 097a bd3b 46ac 92bb ad5d 883d 31d6 80bd
00000010: 6366 d0bd b2e8 9a3d c6cc 84bd cac5 36bd
00000020: 74ee 03be 0b96 d5bd 92e6 8fbd fe9b b2bc
00000030: 099c f73c 3ac5 cbbc 7cf8 8fbd b0c8 a4bd
00000040: 632a 4fbd 517c 02bc 71c4 9b3c 35bc f4bd
00000050: 8a66 d0bc 680d 17bd 4d98 afbc b8ce 49bd
00000060: 9182 813c 199b c5bd 3b9d 95bc 3491 75ba
00000070: 9261 ddbc ee8c 84bd b196 b8bd 0d27 edbc
00000080: 445a 593c ff44 d0bd 067b 87bd c85c 1dbd
00000090: f1e6 d7bc b11e 51bd e2ba aabd 9fb0 92bd
000000a0: 2b92 c4bd 7164 9bbc 56f2 ba3a 99a5 11bd
000000b0: 8cff 87bd b80e 993c 0dd5 2c3d e7e5 6bbd
000000c0: d77b dcbd 5656 0ebd 7e41 88bd 8a2f 5fbd
000000d0: 1a3e 95bd cbe2 80bd 9a8f 2abc c902 bbbc
000000e0: ca86 d7bb b7b7 4cbd fe0c 36bc 16d4 c43c
000000f0: 01c1 7fbd 0ac8 1cbc 4eda 4ebd 1894 9bbd
0.00578237 -0.004476103 0.06658492 -0.06290854 -0.10175779 0.07563914 -0.0648437 -0.04462222
-0.12883931 -0.10429009 -0.070264 -0.021802898 0.03022577 -0.024874318 -0.070298165 -0.080460906
-0.050577533 -0.00796421 0.019014569 -0.1194996 -0.02543952 -0.03687802 -0.021434927 -0.049269408
0.01580933 -0.09648723 -0.01826345 -0.0009367645 -0.027024064 -0.06472193 -0.09013117 -0.028949285
0.01326615 -0.1016941 -0.06615262 -0.03841856 -0.026355239 -0.05105466 -0.08336426 -0.07162594
-0.09598192 -0.018968793 0.0014262896 -0.035558317 -0.066405386 0.018683776 0.04219537 -0.0575923
-0.10765808 -0.034750305 -0.06653117 -0.054488696 -0.072872356 -0.06293257 -0.010410214 -0.022828477
-0.0065773474 -0.04997989 -0.011111496 0.024026912 -0.062439922 -0.009569177 -0.05050116 -0.07596606

bn3.running_mean f4 [64]
00000000: bc75 88be a826 3b3e 1153 0abf 6ace c33e
00000010: 187d 373d 0abd 28bf 51d6 0fbf 9b5e eb3e
00000020: 0115 e9be 68d4 37bf 0068 18bf 7c6c 21be
00000030: f6e8 383e 0797 66bf 8822 a13e fd53 67be
00000040: 591c 1f3f 2556 843e ae08 0abf 0e64 08be
00000050: 0aaa a3be de6b c9bd 6986 3dbf 1788 30bf
00000060: 18b8 e9be fe78 493f 8e0b 28be b335 92bd
00000070: de68 a6be ba0d 563f 9bd3 ba3e 825d 41bf
00000080: a946 3fbe fc28 2f3f 2117 c2be 6698 adbe
00000090: 07d5 1fbf 0864 293f 688a 1f3f 2460 c23e
000000a0: b823 6abe 9d6b 1dbf 9877 c43e 168e 723f
000000b0: 3fd2 34bf 9630 24be 2572 97be 4dbf 4dbf
000000c0: 57f1 083f 1915 23bf c258 0abf b393 dfbe
000000d0: b645 8ebe a8bc 5fbe 5f97 433f 1d8e 763d
000000e0: 2e5f 6dbf ebd6 39bf 3c8b 63bf a70c c43e
000000f0: 8ad1 0d3f 261e f43e c3c3 ef3e a8d7 04bf
-0.26652324 0.18276465 -0.54033 0.3824342 0.044797033 -0.6591345 -0.56186396 0.45970616
-0.45523837 -0.7180848 -0.5953369 -0.1576404 0.18057618 -0.900742 0.31471658 -0.22590633
0.6215263 0.25846973 -0.53919494 -0.13319418 -0.31965667 -0.09835027 -0.7403322 -0.68957657
-0.45648265 0.78700244 -0.16410658 -0.071391486 -0.32501882 0.83614695 0.36489567 -0.75533307
-0.18679298 0.6842191 -0.3790827 -0.33905333 -0.6243443 0.6616826 0.62320566 0.37963974
-0.22865188 -0.6149233 0.38372493 0.94748056 -0.7063331 -0.16034159 -0.29579273 -0.80370027
0.53493255 -0.6370407 -0.54041684 -0.43667373 -0.2778756 -0.2184931 0.7640285 0.060194124
-0.9272336 -0.72593564 -0.8888433 0.38290903 0.55397856 0.4767925 0.46829042 -0.51891565

bn3.running_var f4 [64]
00000000: e585 0c41 d4e1 9940 275a 2d41 12da af40
00000010: c9fe 4e40 84cf 2c41 912d 7041 aa26 4841
00000020: d86f dc40 ceef 8a41 b9af 3641 021e ff40
00000030: 2cc5 cf40 89d2 4341 4160 ec40 8df3 0f41
00000040: ca28 5541 1371 f840 9904 1941 ad5d 3341
00000050: 0da7 1141 dde2 da40 b48d 9741 8a83 9e41
00000060: 017b 3041 06de 6c41 a024 5f40 e2ac 8c40
00000070: 30db 0c41 33b9 6141 4ee8 1441 7f27 bf41
00000080: 2d47 9d40 c54e 1a41 b738 3f41 d5f6 df40
00000090: 028d a441 cf0e 5641 67fa 7141 9266 1441
000000a0: 1f89 1241 537f 3341 5614 1641 6cf3 ae41
000000b0: 6dd4 a041 517a 2c40 a229 0f41 6ba1 cb41
000000c0: ed4d e040 0cb1 6a41 2eff 8d41 402f 7c41
000000d0: b08c 8440 a8dd 6e40 57c2 4e41 3206 9140
000000e0: be56 9e41 329b 9441 876a 6e41 ad6e 0541
000000f0: e155 1f41 1d8f 0141 89ac 4141 0a8f be40
8.782689 4.808817 10.83451 5.49537 3.2343009 10.800663 15.011125 12.509439
6.888653 17.367092 11.417901 7.972413 6.492819 12.2389 7.3867497 8.996961
13.322458 7.763803 9.563622 11.21037 9.103284 6.8401933 18.944191 19.814228
11.03003 14.804205 3.4866104 4.396104 8.803513 14.107715 9.306715 23.894285
4.9149384 9.644231 11.951346 6.998881 20.568851 13.378615 15.123633 9.275042
9.158477 11.218585 9.379965 21.868858 20.103724 2.6949656 8.947664 25.453817
7.0095124 14.668224 17.7496 15.761536 4.142174 3.7322788 12.922446 4.5320063
19.792355 18.575779 14.901008 8.33952 9.958467 8.09744 12.104623 5.954961

fc1.weight f4 [32, 64]
00000000: c63c 8b3d 1e0b d9bd 354f e8bd 5c18 3bbd
00000010: b7bc cabd b4ae b23c 8675 b9bd e918 963d
00000020: 95a0 48bc a064 debd 5030 7e3d e35a 04be
00000030: f940 033d e644 bd3b dba0 e63d 77cb cc3d
00000040: 82d1 973d 5938 c5bd d815 f63c 022c 063c
00000050: 6678 773d c694 6e3d 855b 89bd c3c1 99bd
00000060: 6f93 843d eb6d 003d 1e8e e9bd bbf1 963c
00000070: 26d6 a43c 45ed fbbd 4e7e c5bd b3a2 553d
00000080: 5189 c9bd 2cde 50bd 1444 673d e584 f3bd
00000090: 1b4c acbd 6f04 dcbd b28d 67bd d604 973d
000000a0: 3394 8ebd 4d0a b8bd 7a3b 0fbd 4450 bcbd
000000b0: 2c9b c4bd 0d01 7f3d 3030 efbd 13fa 673b
000000c0: 2a21 043d 4025 aa3d 24a5 c83d 620f 0fbd
000000d0: 466b 823d 2dd7 bcbc 799c a8bd e2f4 8a3d
000000e0: 6deb 783d a419 dd3c 06cf c6bd 004e d03d
000000f0: ddc5 0c3d 1466 05be 63ff 723d 0c2c aebd
00000100: b791 6d3d 47c6 d4bd 1115 903d cee9 bcbb
00000110: de88 c03d b86d 513d d325 cf3d e4de 7d3d
00000120: 13d1 893d c484 c9bd 9414 8f3d 60e1 25bd
00000130: 4c97 b73d b25a d7b8 566c 00be be44 bbbd
00000140: cbef c93d f203 6d3d a0bc c33d 0e7e abbd
00000150: b4d4 9dbd 407e c53b ae23 d33d dea4 af3d
00000160: c629 1e3d 1a6e 2d3d 5627 4bbd d939 16bd
00000170: ee7f 8cbd 9e64 ea3c c4da 7e3c 904e 7f3d
00000180: e601 85bd cc21 e8bd 7860 913d 1d68 a33d
00000190: 1ae6 a73d c3c4 a53d 0fe9 43bd 97b0 dfbd
000001a0: 0514 803d 5750 e3bd bd8a 67bd efe5 363d
000001b0: d819 3cbd 080b 8bbd 35c6 873d 9849 843d
000001c0: 2c3f 693c f048 a1bd bfac 5b3d 39e0 f1bd
000001d0: f620 a2bc 9491 043d 33fa aa3d 5f4c 663d
000001e0: 7066 92bd 3e86 91bd c793 a13c 3148 c6bd
000001f0: cbbd b0bd 9b1a 973d 6d0b ec3c 916e 04be
00000200: 0bbd da3c f8a5 1b3d 634e 123e f911 c13d
00000210: 5571 97bd c1e3 163e b121 be3c 3645 1fbd
00000220: a8a7 dfbc fbdf 753d 2b51 113e c46d 86bd
00000230: 2371 143e b7a4 123e 86c0 f83c e784 823d
00000240: 6a9f 863d 06cd 983d 895f 093e 5fc7 3fbd
00000250: 9e97 153e 4b44 843c 1587 a0bd 2c2e b23d
00000260: 7d4c 183e 1109 61bd 1c6e f43c 57c7 4bbd
00000270: f378 b5bc 69db 4ebd 8209 90bd cb6c 9bbc
00000280: f177 39bd c658 b8bd cea9 02bd 85c2 85bd
00000290: f85a 64bc 6c97 92bd 4230 15bd 22ed 8fbc
000002a0: 314e 24bd 8321 bb3c 90f7 23bb 2067 18bd
000002b0: 0b0f 193d 5393 b73d 5835 06bd c867 fc3d
000002c0: 53dc 173e 9f06 023e 54b3 65bd f9c5 5a3c
000002d0: d86f debc 65f1 ff3d 85d1 dd3d a24b eb3d
000002e0: c6cd 8a3c 28dd b83c b89c 78bd b370 99bd
000002f0: 1ffb 0f3e b171 053e ca0c 6a3c c3cf 6dbc
00000300: ce1c 8fbd 8103 69bc a722 86bd aac8 8bbd
00000310: b33c a0bd 1700 f1bd 4d37 05bd 1940 fcbd
00000320: c8ed cb3c 4543 febd 4f94 04be 1690 7ebd
00000330: 0735 d13c 9b11 acbb 0db1 c63d e804 0abe
00000340: 8c68 aabd cc18 c03c 5e30 a8bd 747c d53c
00000350: 364c 8a3c ea01 04be 059c 563d 9719 e13a
00000360: 390b cabc fb22 d2bd 0a3e 2bbb fc5c f9bc
00000370: 633d a83c 2846 fdbd 548a aabd 2deb e0bd
00000380: 49d4 dfbd 4123 a9bd 32ee d1bb 23d5 343b
00000390: 5aa0 2ebd 2822 2fbd 8685 943d 4c00 613c
000003a0: f62c 45bc 41d5 03be 68da c8bd 9486 c33d
000003b0: fb3d ff3c b6bd 303d a7ae a63d becb 483c
000003c0: 6c45 68bd 8f86 a4bc 0378 d03b 0a9a 5fbd
000003d0: 7b50 df3d 34c1 f13c 3905 edbd 432f 2dbd
000003e0: eddc 913d 6c32 ad3d 56b8 2e3d c8e1 00be
000003f0: c51b 1fbd 19ef 853d bc16 bd3d 8166 03be
0.06798701 -0.105978236 -0.113432325 -0.045677528 -0.09899276 0.02181182 -0.09055619 0.0732897
-0.012245317 -0.108590364 0.062057793 -0.12925296 0.032044385 0.0057760356 0.112611495 0.09999745
0.07413007 -0.09629888 0.030039713 0.008189203 0.060417555 0.05824735 -0.06706909 -0.0750766
0.06473433 0.031354826 -0.1140406 0.018425813 0.020121645 -0.12301115 -0.09643231 0.052157115
-0.09840644 -0.05099313 0.05646141 -0.11890582 -0.084129535 -0.10743033 -0.056531616 0.07373969
-0.069618605 -0.0898634 -0.03496883 -0.09194997 -0.09599909 0.06225686 -0.11679113 0.0035396859
0.03225819 0.08307886 0.09797123 -0.03492678 0.06368117 -0.023051823 -0.0823297 0.06784989
0.060771395 0.026989765 -0.09707455 0.10171127 0.034368385 -0.13027221 0.059325587 -0.08504495
0.058000293 -0.10389381 0.07035268 -0.0057651764 0.09401105 0.051130027 0.10114636 0.061980143
0.06729331 -0.09839776 0.06986347 -0.040498137 0.089644045 -0.00010268892 -0.12541327 -0.09143971
0.0986019 0.05786509 0.09557462 -0.083736524 -0.077065855 0.006027013 0.1030954 0.08576368
0.038614057 0.04234133 -0.04959806 -0.03667626 -0.06860338 0.028612431 0.0155550875 0.062330782
-0.06494503 -0.11334571 0.07098478 0.079788424 0.08198185 0.0809417 -0.047829684 -0.10922354
0.062538184 -0.11099308 -0.056528796 0.044652876 -0.045923084 -0.067892134 0.06629602 0.064593494
0.014236253 -0.0787524 0.05363154 -0.11810345 -0.019791108 0.032365397 0.08348503 0.056225177
-0.07148445 -0.07105683 0.019723786 -0.09681738 -0.0862995 0.073781215 0.028814042 -0.12932803
0.02670147 0.038000077 0.14287715 0.09427256 -0.07394663 0.14735319 0.023209425 -0.038884364
-0.027301624 0.060028058 0.1419112 -0.06563905 0.14496283 0.14320646 0.03036524 0.06373005
0.065733746 0.0746098 0.1341535 -0.046820994 0.14608619 0.016145846 -0.07838265 0.08700213
0.14872928 -0.054940287 0.02983766 -0.049750652 -0.0221524 -0.050502215 -0.070330635 -0.018972775
-0.0452804 -0.09001307 -0.03190022 -0.06531242 -0.013937704 -0.07157788 -0.036422975 -0.017569128
-0.04011363 0.022843128 -0.0025019385 -0.037207723 0.03736786 0.08963647 -0.032765716 0.12324482
0.14830141 0.12697838 -0.056079224 0.013352864 -0.02715294 0.12497214 0.10830978 0.11489035
0.016943824 0.022566393 -0.060696334 -0.07492199 0.14060639 0.13031651 0.014285276 -0.014514866
-0.06987916 -0.014222027 -0.06549578 -0.06825383 -0.078240775 -0.11767595 -0.032523442 -0.12316913
0.024893656 -0.124151744 -0.129472 -0.06214913 0.02553798 -0.005251122 0.097017385 -0.13478434
-0.08320722 0.023449324 -0.0821235 0.02606032 0.016882043 -0.12891355 0.052394886 0.0017173764
-0.024663555 -0.10260578 -0.0026129507 -0.030439846 0.020537084 -0.12366897 -0.08327165 -0.10982356
-0.10929162 -0.08258677 -0.006406569 0.002759286 -0.042633392 -0.042757183 0.0725203 0.013732981
-0.012034645 -0.12874319 -0.09807283 0.09547153 0.031157484 0.043149672 0.08138781 0.012255607
-0.05670683 -0.020083694 0.0063619628 -0.054590262 0.10904022 0.029511072 -0.11573262 -0.0422814
0.071222164 0.08456883 0.042656265 -0.12586129 -0.038844842 0.06539745 0.09232852 -0.12832071

fc1.bias f4 [32]
00000000: bad8 29bd 37d3 d13d 3c04 8cbd b348 89bd
00000010: 5299 103d b4a3 893c f40e c63d c200 113c
00000020: 217e 963c 9ba7 77bb 10c6 04bd 683a d4bd
00000030: 3017 543d f135 7a3d effe 61bd 5e6a 84bd
00000040: 1f84 0a3e 9b1c 4abc 78ab ff3c efb3 803d
00000050: b3ea 00be 7060 bf3d 736d 263d b0f0 babd
00000060: de4f 6ebd 3479 16bd 24a6 043e f8b5 ba3c
00000070: cd0e 69bd 5cb4 0abe 6bfe 04be 3488 af3d
-0.041466452 0.10245364 -0.06836745 -0.067033194 0.035302468 0.016801693 0.09670821 0.008850278
0.01837069 -0.003778911 -0.03241545 -0.103627026 0.051779926 0.0610866 -0.055174764 -0.064656004
0.13526963 -0.012335922 0.031209692 0.062843196 -0.1258953 0.09344566 0.040631723 -0.09127939
-0.058181636 -0.036736682 0.12954003 0.022791848 -0.05689888 -0.13545364 -0.12987678 0.085709006

fc2.weight f4 [5, 32]
00000000: ef0f 2b3e 74d5 dd3c 131b 0cbe b6a1 d43d
00000010: 008c 913c 54e1 8fbd e762 d0bc f0e0 bb3c
00000020: a79f 39be 5b13 c03d 9de0 0cbe e64a 7d3d
00000030: 9f68 eb3c 4326 d43d 586a ce3c abe6 4e3d
00000040: cbd6 2cbd d65b c5bd 6cf1 a1bd 0805 d03b
00000050: 779a 613d 8d92 77bd 4e9e f0bd 74bb ea3d
00000060: 4aaa 31bd d0e5 50bd 710a 81bd d1ce 613d
00000070: 2d49 49bd 85a1 f53d 53dc 493d b306 3b3e
00000080: 4c87 5e3c 72b0 00be 1843 793d 8313 c8bd
00000090: 2e13 8e3d 7df5 093e c6f0 e03d 960e 09bd
000000a0: 2548 843d 4404 bc3d 18a0 40be 5b96 2c3e
000000b0: 005a be3d b576 703d 799a 07bd 2a9c 6dbd
000000c0: f170 b8bd 2053 13be c3cc f53d 6a58 8d3d
000000d0: 37df 353e 2adb ad3d 21f4 26be ebaa 203e
000000e0: 5f0a 81bd 4a77 563d 6248 95bd 44fa 883d
000000f0: 9386 bc3d 58aa f93d eafd 6c3d 3db0 08be
00000100: c420 0abe bb18 16be de34 bdbd 691a 93bd
00000110: 0519 a9bd 4bd8 6ebc 0983 ba3d 8476 b0bd
00000120: dc7e 963d 5907 fe3d ac90 923d f27b dd3d
00000130: 8a8e 78bd c9f1 093e c879 e43d fafc 113e
00000140: fb74 ddbd 07ad c13c 924a 4bbd 877a 3fbc
00000150: 3c0f 91bd 25a3 48be 867c e8bd ed4b 2dbe
00000160: 94ca c8bd f6d1 973d f6dc 53bc 3354 27be
00000170: 1616 113e da08 f73c f275 513e 3e20 23be
00000180: 728b 7e3d cb26 00be 446b b23c 45ee 86bb
00000190: a416 5d3d f282 783d 09e9 003e 5dcb a7bd
000001a0: 6d8c f4bd 4f31 fa3d 9049 cfbd fdcb 66bd
000001b0: b39c 90bc 4ff8 023d c7a4 10be 0e42 4f3e
000001c0: bbe5 30bd a157 823d d896 9d3d 9017 13bd
000001d0: 4bed 1cba 2a28 3fbd 8e08 64bd 1bc8 053c
000001e0: 3347 333d 02f4 1a3d 1693 53be e376 53bc
000001f0: 8506 523c af21 413a 81df 313d 220d 973d
00000200: 344f 383d 004f 0ebe 46d3 8d3d 684b 8a3e
00000210: a6be 2b3e 5842 913e 389d af3d 042c a03c
00000220: 7f0c 18be 31fa ad3d a075 0cbe 03a9 cdbb
00000230: 2b78 1bbe bbe6 853d 2b84 38be 5386 0f3e
00000240: 6883 d5bc d5c3 6ebd 9abc b33d 5e18 ee3d
00000250: bfcf 823d 1b73 d4bd 9c54 dd3d 4bb3 c73d
00000260: 70b7 f0bd 5ee4 083e fa4c b3bd 055c 6fbe
00000270: 3251 b63a 1afe 473e b0a3 54bd aa98 cabd
0.16705297 0.027079321 -0.13682203 0.103824064 0.017766953 -0.070254 -0.025437785 0.022934407
-0.18127309 0.09378692 -0.13757558 0.061839007 0.02873641 0.1035886 0.025197193 0.05051295
-0.04219703 -0.09636657 -0.07907376 0.006348256 0.05507895 -0.060442496 -0.11748944 0.11461535
-0.04337529 -0.051000416 -0.0630082 0.055128876 -0.04914205 0.11993698 0.049282383 0.18264274
0.013582062 -0.12567309 0.060855 -0.097693466 0.06937252 0.13472553 0.10983424 -0.033461176
0.06459073 0.09180501 -0.18811071 0.16854231 0.0929451 0.058706958 -0.0331063 -0.058010258
-0.09005917 -0.14387178 0.12001946 0.06901629 0.17760931 0.08489068 -0.16304065 0.156902
-0.06300806 0.052359857 -0.072891966 0.066883594 0.092053555 0.121906936 0.05785934 -0.1334848
-0.13489062 -0.14657871 -0.09238599 -0.07182772 -0.08256725 -0.014577935 0.09107024 -0.08616355
0.07348415 0.12403745 0.071565 0.10814656 -0.06068281 0.1347114 0.111560404 0.14256659
-0.10813328 0.023642076 -0.049631663 -0.011686928 -0.07082984 -0.19593485 -0.11351876 -0.16923495
-0.09804264 0.07413094 -0.012931099 -0.16340713 0.14168581 0.030155588 0.20455149 -0.15930268
0.062144704 -0.12514798 0.021779664 -0.0041177594 0.05397667 0.060671754 0.12588896 -0.08193085
-0.119408466 0.12216436 -0.10121453 -0.056346882 -0.017652845 0.031975087 -0.14125358 0.20240042
-0.043187838 0.0636437 0.07694787 -0.035911143 -0.0005986287 -0.046669163 -0.05567222 0.008165385
0.043769073 0.03783036 -0.20661578 -0.012906763 0.012818937 0.0007367385 0.04342604 0.07375552
0.04499741 -0.13897324 0.06925063 0.27010655 0.16771945 0.2837093 0.08574909 0.019552238
-0.14848517 0.08494986 -0.13716745 -0.0062762513 -0.15182559 0.06538149 -0.18019168 0.14016084
-0.026063636 -0.05829223 0.08776207 0.116257414 0.06387281 -0.10373517 0.108071536 0.09750994
-0.11753738 0.13368365 -0.087549165 -0.23374946 0.0013909696 0.19530526 -0.051913917 -0.098923996

fc2.bias f4 [5]
00000000: dd22 cabd 90a9 1abe 61b4 e63c 4e3d e7bd
00000010: e83a 7fbc
-0.09869931 -0.15103745 0.028162183 -0.1129099 -0.015578009
