CNN2_tournament2_tiny/agent1_326.pth (torch, 116002 bytes, 22 tensors)

c1.weight f4 [16, 8, 3, 3]
-0.2178579 0.0664663 -0.24437776 -0.04885522 -0.10152692 -0.026122916 -0.03485663 -0.15747978
-0.051509738 0.078303546 0.11036541 0.039143775 -0.16761504 0.07066471 0.06564164 -0.08585338
-0.07010598 -0.11752272 0.062766366 -0.015824705 0.0024834499 0.026004411 -0.02195391 0.10786527
0.100688584 -0.019795641 -0.07233016 -0.079362825 0.0023078918 0.09228989 -0.0708192 0.014334165
-0.11166261 -0.08948611 -0.079780065 0.018300422 -0.057695474 0.026279205 -0.06375556 0.019041436
0.034272928 0.06799085 -0.16368234 -0.17114128 -0.044249903 -0.044480193 -0.11726122 -0.06709068
-0.01063867 0.024632188 0.006502627 0.048173368 -0.075047 -0.10834989 -0.033555333 -0.13765158
-0.031592816 -0.1289074 -0.13481474 -0.0064309686 -0.08274837 0.0072224173 -0.18322772 -0.011227904
-0.018565815 0.0652033 -0.036342308 -0.09472759 0.040609293 0.1475857 -0.022602946 0.066063516
-0.10857143 -0.08533139 -0.0641903 0.04163672 -0.01867062 0.021557014 0.025534356 0.048847135
-0.056929093 -0.11593261 -0.1272989 -0.1160169 -0.059319764 -0.100246675 0.11607287 -0.09033764
0.1576592 0.052420624 -0.08563313 0.046475552 -0.017652169 -0.091748856 0.11203394 -0.11183083
0.10860204 -0.010510072 0.066654004 0.047083877 0.008611448 0.103669755 0.04868009 -0.09226691
0.0123196915 0.039779775 -0.08196369 -0.060395226 -0.01185563 -0.08459473 -0.07195612 0.0013747095
-0.108323164 0.11601552 -0.067615084 -0.029330846 0.0022017004 -0.043952864 -0.022276832 -0.08333851
-0.117765285 0.05249766 -0.026075909 -0.0031335787 -0.0041073305 0.03816611 -0.13329509 -0.11686003
0.13609062 -0.08163368 -0.07327586 -0.10133304 0.043279447 -0.17116933 -0.04267501 0.03822471
0.14711867 0.07216694 -0.07928882 0.21011811 0.10996557 0.001997391 -0.023748828 -0.06458697
0.005497314 -0.10021047 -0.0032958488 -0.06559607 -0.028275406 -0.066727966 -0.06213526 -0.0682891
-0.008290326 0.0128103625 0.03903286 0.11816422 0.091438144 0.066228114 0.026137512 -0.056956872
0.11627384 0.024639169 0.09399942 -0.041015513 0.03951987 0.040449478 0.115182154 -0.0014145678
-0.0037952662 0.010080092 0.010811143 -0.08077246 -0.106299214 -0.038660504 0.05353997 0.017831288
0.009520389 0.025715463 0.013739876 -0.07307817 -0.10234375 0.0071274266 -0.051747188 0.06277034
0.03310704 0.009374292 -0.16017891 7.5322954e-05 -0.13337347 0.13274491 -0.02425459 0.07350051
-0.08219247 0.088815585 -0.13814227 -0.19586422 -0.029024057 0.00512354 -0.00826601 -0.04468525
-0.08625777 -0.12878568 -0.018615875 -0.055497758 -0.12950923 -0.05458658 -0.062171124 0.113597624
0.007076558 -0.1111764 -0.0483494 -0.13697647 -0.10759677 0.05730033 0.11952952 0.057138335
-0.1265255 -0.1108333 -0.003722518 -0.16449088 -0.17771766 0.0126493005 0.019438041 -0.21988334
-0.0048917513 0.02849079 -0.15103903 -0.025518985 -0.091731206 -0.057041183 -0.08888223 -0.09294712
-0.08872969 -0.07308358 -0.06674541 -0.059864078 -0.10514477 0.096069895 0.10284529 -0.055970427
-0.036494337 -0.054779567 -0.01673682 -0.024993658 0.027528621 -0.020316675 0.07020239 0.034131236
-0.09015951 0.014267944 0.065018676 -0.051946834 -0.09578418 0.015969895 -0.009385396 -0.04176508
00000000: 2416 5fbe 7c1f 883d 2a3e 7abe 691c 48bd
00000010: 59ed cfbd baff d5bc d3c5 0ebd 6142 21be
00000020: e0fb 52bd 9c5d a03d 4307 e23d 3955 203d
00000030: 47a3 2bbe a9b8 903d 206f 863d e6d3 afbd
00000040: b993 8fbd c0af f0bd a78b 803d d0a2 81bc
00000050: 60c1 223b 3407 d53c b0d8 b3bc 77e8 dc3d
00000060: d135 ce3d 782a a2bc d621 94bd fa88 a2bd
00000070: 0040 173b 7b02 bd3d a809 91bd d8d9 6a3c
00000080: 5eaf e4bd 7e44 b7bd bb63 a3bd c4ea 953c
00000090: 1752 6cbd 7d47 d73c 4692 82bd c9fc 9b3c
000000a0: c561 0c3d c93e 8b3d 589c 27be a93f 2fbe
000000b0: 633f 35bd dd30 36bd a726 f0bd d766 89bd
000000c0: d14d 2ebc 71c9 c93c fd13 d53b 7051 453d
000000d0: 3eb2 99bd 8ce6 ddbd 5171 09bd 89f4 0cbe
000000e0: 7867 01bd 4d00 04be e00c 0abe e0ba d2bb
000000f0: fa77 a9bd 07aa ec3b 0ca0 3bbe 3ef5 37bc
00000100: 5617 98bc 4f89 853d acdb 14bd 8a00 c2bd
00000110: ee55 263d b520 173e d029 b9bc 4f4c 873d
00000120: b35a debd 39c2 aebd 3476 83bd 448b 2a3d
00000130: 21f3 98bc 5698 b03c 6d2d d13c ef13 483d
00000140: 7b2e 69bd 146e edbd a55a 02be 459a edbd
00000150: 48f9 72bd 214e cdbd 9db7 ed3d f102 b9bd
00000160: 6a71 213e 02b7 563d 6c60 afbd 265d 3e3d
00000170: 489b 90bc d3e6 bbbd 0d72 e53d 9007 e5bd
00000180: bf6a de3d 7032 2cbc e581 883d 06db 403d
00000190: 0817 0d3c cf50 d43d c664 473d 6ff6 bcbd
000001a0: 88d8 493c 1ef0 223d 94dc a7bd fc60 77bd
000001b0: 1e3e 42bc 0040 adbd bb5d 93bd 992f b43a
000001c0: 89d8 ddbd 8c99 ed3d c779 8abd 3e47 f0bc
000001d0: 674a 103b eb07 34bd e77d b6bc 61ad aabd
000001e0: ed2e f1bd c907 573d 259d d5bc ba5c 4dbb
000001f0: c996 86bb 1154 1c3d 827e 08be 5054 efbd
00000200: 575b 0b3e 8f2f a7bd a711 96bd b287 cfbd
00000210: ca45 313d 0347 2fbe fecb 2ebd 8391 1c3d
00000220: 47a6 163e 43cc 933d 2d62 a2bd 3429 573e
00000230: a135 e13d a9e6 023b e78c c2bc 2c46 84bd
00000240: d022 b43b 263b cdbd 2bff 57bb 3b57 86bd
00000250: d3a1 e7bc aca8 88bd 8b81 7ebd 28db 8bbd
00000260: 26d4 07bc 8ee2 513c ece0 1f3d 1500 f23d
00000270: ec43 bb3d 9ba2 873d 561e d63c 9c4b 69bd
00000280: fb20 ee3d 15d8 c93c c582 c03d e2ff 27bd
00000290: 96df 213d 5aae 253d 9fe4 eb3d 0569 b9ba
000002a0: 00ba 78bb f826 253c 3821 313c 086c a5bd
000002b0: 67b3 d9bd 7a5a 1ebd ba4c 5b3d ec12 923c
000002c0: 68fb 1b3c 3ca9 d23c 381d 613c 02aa 95bd
000002d0: 9a99 d1bd 308d e93b dcf4 53bd bc8d 803d
000002e0: 3f9b 073d a196 193c f105 24be b4f6 9d38
000002f0: 0e93 08be 48ee 073e 90b1 c6bc 6f87 963d
00000300: 8754 a8bd f2e4 b53d 2b75 0dbe a190 48be
00000310: dcc3 edbc 5ee3 a73b 296e 07bc e107 37bd
00000320: eaa7 b0bd 65e0 03be 5280 98bc 9e51 63bd
00000330: 119e 04be 2d96 5fbd 26a7 7ebd dfa5 e83d
00000340: 79e2 e73b 74b0 e3bd 050a 46bd 8f43 0cbe
00000350: b25b dcbd c0b3 6a3d e5cb f43d e309 6a3d
00000360: e78f 01be 92fc e2bd 7df5 73bb 4c70 28be
00000370: 9efb 35be 033f 4f3c 873c 9f3c 1929 61be
00000380: fc4a a0bb 8465 e93c faa9 1abe 310d d1bc
00000390: 92dd bbbd 04a4 69bd e307 b6bd 0f5b bebd
000003a0: e9b7 b5bd d8ac 95bd d1b1 88bd 0934 75bd
000003b0: 2456 d7bd 4bc0 c43d 8da0 d23d 3f41 65bd
000003c0: 167b 15bd 8a60 60bd a81b 89bc 80bf ccbc
000003d0: b483 e13c 286f a6bc 45c6 8f3d 32cd 0b3d
000003e0: 8da5 b8bd 18c4 693c 8328 853d 34c6 54bd
000003f0: 7f2a c4bd 4cd3 823c 34c5 19bc dc11 2bbd

c1.bias f4 [16]
-0.030122401 -0.0032568884 -0.008531757 -0.006677238 0.0010368318 0.010259639 0.0962786 -0.05044973
-0.116763085 -0.14789584 -0.054704536 -0.011774894 0.08017836 -0.050520066 0.04926707 -0.003796488
00000000: 41c3 f6bc 8571 55bb c8c8 0bbc bbcc dabb
00000010: 4de6 873a 0b18 283c b72d c53d 60a4 4ebd
00000020: 7c21 efbd 0272 17be dd11 60bd 7ceb 40bc
00000030: 8d34 a43d 21ee 4ebd 44cc 493d 80ce 78bb

c2.weight f4 [32, 16, 3, 3]
-0.03731433 0.024237758 -0.06479338 -0.012956937 -0.057135794 0.00623819 -0.029952493 0.021009525
0.10523789 0.02564107 -0.06567409 0.025004184 0.07303666 0.034872007 -0.016504636 0.08833217
-0.03574167 -0.05848304 -0.026014037 -0.02442369 0.06503212 0.1076061 0.11820762 0.1197353
0.011695048 0.04802974 0.085146464 0.023974989 0.0009152357 -0.031179573 -0.041257128 -0.076436706
0.043100625 0.05209086 0.004440666 -0.059306577 0.031319696 0.14427252 0.11146857 0.107989006
0.10728095 0.10088905 0.119196564 0.18929227 0.21524632 -0.02844517 -0.0022430273 -0.1124846
0.028863221 0.082742795 -0.08834279 0.054266408 0.14151075 -0.014802834 -0.034407046 0.081034146
-0.05467701 0.036846105 -0.02431108 0.027970407 0.12036446 0.095404826 0.02654877 0.04357761
0.006493413 -0.05735432 -0.0598395 -0.0722563 -0.044906873 0.042708576 0.034590162 0.038439594
0.014121143 0.021030858 0.0032813903 0.115883015 0.020414175 0.033648524 0.15022394 0.1408941
0.04019246 -0.030332766 -0.059561107 -0.051233813 0.09486872 0.0887661 0.072832584 0.10545807
0.088704966 -0.03516396 -0.024148846 -0.0054175565 -0.022750022 0.025827534 -0.0054893782 -0.009704484
0.13223976 0.108330384 0.09462026 -0.04671622 0.0041315276 -0.010944036 -0.06780226 0.03524939
-0.025909439 -0.10999745 -0.019689247 -0.101597056 0.10628531 0.09417777 0.07739339 -0.00972765
-0.038310647 -0.020653468 0.03246422 0.10439013 -0.0339647 0.01971172 -0.052616443 0.027891193
0.11169976 0.07360054 0.043906678 0.008301222 0.097373866 -0.022909932 -0.066786885 0.050401554
-0.042837307 -0.030523453 -0.03498265 0.013125233 -0.023950987 -0.11057968 0.013561116 0.002781401
0.027561065 0.059722032 0.049277224 0.13360804 0.051930387 0.092081495 0.13389577 0.06182763
-0.02714859 0.13789213 0.054050334 0.052879155 0.06104173 0.12053295 -0.073054515 -0.04773462
-0.08850386 0.09984021 0.020478802 0.08559122 0.027932348 -0.05532029 0.010909415 0.110961474
-0.012175256 0.049555365 0.09221565 -0.04182753 0.029559009 0.05395983 -0.046713863 -0.03736485
0.04049555 -0.039790932 0.050652713 0.06113715 0.028397303 0.091471784 0.08475306 -0.014759126
0.02991801 0.17161044 0.13617353 0.042653706 0.019085426 0.06275678 -0.014597947 0.045321655
0.106257975 0.07532089 0.031558726 -0.08046484 0.07931406 0.101387516 -0.15033565 -0.034269057
0.011372132 -0.014580013 0.058365203 0.012042696 -0.017479565 0.12297446 -0.09028085 -0.045905825
0.028552704 0.02328912 0.037904102 -0.08074209 -0.060800124 0.03179708 -0.042091932 -0.0006656102
0.014108464 0.014458028 -0.03135662 0.06671543 0.010959253 0.035415035 0.13370703 0.022379648
0.025600033 -0.006953867 0.026229164 -0.020686623 -0.01752936 0.039335173 0.032827463 0.057376415
0.0970157 -0.06737417 -0.025349442 0.012591019 -0.025369737 0.06612316 -0.01109485 0.0073158187
0.12928045 0.070041835 -0.08886355 0.08130253 -0.11208062 0.087940104 0.047640316 0.05644027
0.007280696 -0.005020304 0.0059530814 0.0829178 0.07957636 0.052375816 0.12517965 0.10201885
-0.0030656066 -0.014221861 0.019943547 0.09554751 -0.11832558 -0.14016587 -0.11103594 0.02067619
00000000: e9d6 18bd 438e c63c 64b2 84bd 5549 54bc
00000010: 3907 6abd bb69 cc3b ee5e f5bc 2b1c ac3c
00000020: f686 d73d 390d d23c 2380 86bd 93d5 cc3c
00000030: 3f94 953d f3d5 0e3d bb34 87bc 7fe7 b43d
00000040: db65 12bd ea8b 6fbd 641b d5bc 3114 c8bc
00000050: 8f2f 853d 9660 dc3d d616 f23d c837 f53d
00000060: 969c 3f3c d5ba 443d 4561 ae3d 3267 c43c
00000070: 6eec 6f3a 4e6c ffbc 3cfd 28bd d98a 9cbd
00000080: 488a 303d 3a5d 553d 0283 913b 74eb 72bd
00000090: 1549 003d 2dbc 133e a249 e43d 5729 dd3d
000000a0: 1db6 db3d eb9e ce3d 541d f43d d5d5 413e
000000b0: 8869 5c3e d805 e9bc c1ff 12bb 535e e6bd
000000c0: 9072 ec3c 0e75 a93d 11ed b4bd 7446 5e3d
000000d0: 32e8 103e 9687 72bc 67ee 0cbd 3bf5 a53d
000000e0: 00f5 5fbd f1eb 163d 0828 c7bc 3222 e53c
000000f0: a481 f63d 9b63 c33d ce7c d93c 707e 323d
00000100: b2c6 d43b 5dec 6abd 431a 75bd 1cfb 93bd
00000110: 45f0 37bd 30ef 2e3d 6aae 0d3d d672 1d3d
00000120: 5e5c 673c e848 ac3c 980c 573b 1354 ed3d
00000130: a13b a73c 09d3 093d 4ed4 193e 8b46 103e
00000140: d9a0 243d 6c7c f8bc 59f6 73bd 8cda 51bd
00000150: 884a c23d 00cb b53d 4029 953d 67fa d73d
00000160: f3aa b53d 1608 10bd cdd3 c5bc c285 b1bb
00000170: 415e babc 4494 d33c 3ee0 b3bb 8eff 1ebc
00000180: dc69 073e 52dc dd3d 44c8 c13d 8259 3fbd
00000190: c461 873b 9d4e 33bc e9db 8abd aa61 103d
000001a0: 0840 d4bc 5846 e1bd 584b a1bc 1e12 d0bd
000001b0: 1dac d93d 46e0 c03d 6d80 9e3d b960 1fbc
000001c0: a0eb 1cbd 7631 a9bc 34f9 043d 7eca d53d
000001d0: 921e 0bbd 797a a13c 5784 57bd 127c e43c
000001e0: d8c2 e43d e1bb 963d 7dd7 333d d901 083c
000001f0: f36b c73d 9cad bbbc 90c7 88bd dc71 4e3d
00000200: 2c76 2fbd 520c fabc f849 0fbd 380b 573c
00000210: dc34 c4bc 9977 e2bd 712f 5e3c 2a48 363b
00000220: bec7 e13c 179f 743d ead6 493d 8cd0 083e
00000230: f5b4 543d 3995 bc3d f91b 093e f83e 7d3d
00000240: b866 debc 9833 0d3e e263 5d3d d097 583d
00000250: e506 7a3d fbd9 f63d 9b9d 95bd 6085 43bd
00000260: 8341 b5bd 0679 cc3d 29c3 a73c 734a af3d
00000270: 61d2 e43c 8797 62bd 67bd 323c c53f e33d
00000280: ba7a 47bc 91fa 4a3d 8fdb bc3d 5853 2bbd
00000290: bc25 f23c fc04 5d3d 0957 3fbd e30b 19bd
000002a0: a9de 253d d1fb 22bd 3879 4f3d f36a 7a3d
000002b0: 76a1 e83c 8f55 bb3d 0393 ad3d 43d0 71bc
000002c0: 9d16 f53c a6ba 2f3e 1371 0b3e a7b5 2e3d
000002d0: 0a59 9c3c a086 803d 3a2c 6fbc 33a3 393d
000002e0: c89d d93d d741 9a3d b943 013d c0ca a4bd
000002f0: 696f a23d 42a4 cf3d 97f1 19be b65d 0cbd
00000300: 2e52 3a3c 02e1 6ebc 5a10 6f3d ba4e 453c
00000310: 4e31 8fbc 09da fb3d 2be5 b8bd bf07 3cbd
00000320: 5ce7 e93c d3c8 be3c 5541 1b3d 1c5c a5bd
00000330: 8d09 79bd a83d 023d 9768 2cbd 587c 2eba
00000340: 3027 673c 5de1 6c3c cd6f 00bd 19a2 883d
00000350: 708e 333c 5b0f 113d 7fea 083e 8655 b73c
00000360: 29b7 d13c 44dd e3bb 8bde d63c fe76 a9bc
00000370: bb99 8fbc eb1d 213d 1776 063d 8803 6b3d
00000380: 2bb0 c63d 78fb 89bd a2a9 cfbc 904a 4e3c
00000390: 32d4 cfbc 946b 873d 2cc7 35bc 89b9 ef3b
000003a0: 1862 043e 1872 8f3d 18fe b5bd f181 a63d
000003b0: 868a e5bd f119 b43d 7e22 433d ea2d 673d
000003c0: e892 ee3b 5d81 a4bb 1112 c33b cfd0 a93d
000003d0: eef8 a23d 0688 563d 182f 003e 42ef d03d
000003e0: 58e8 48bb cf02 69bc a660 a33c 6aae c33d
000003f0: af54 f2bd a487 0fbe d066 e3bd 1d61 a93c

c2.bias f4 [32]
0.0314288 -0.053057987 -0.0072209346 -0.048715044 -0.07418587 0.038134012 0.04089447 0.027690765
0.021784939 0.034644093 -0.096683785 0.041684527 -0.06671229 -0.04522078 0.05199265 -0.08009767
0.018803492 0.048450403 0.081725195 -0.066600196 0.031129247 0.073540546 -0.007417651 -0.00041877874
-0.005511969 0.064943165 -0.05115282 0.018517347 -0.09129869 -0.023635121 -0.032244876 -0.048276406
00000000: 7cbb 003d 5553 59bd 979d ecbb 6d89 47bd
00000010: c3ee 97bd 6932 1c3d f680 273d bed7 e23c
00000020: 5476 b23c f7e6 0d3d 2602 c6bd 65bd 2a3d
00000030: 74a0 88bd 6d39 39bd 3ff6 543d 3f0a a4bd
00000040: c809 9a3c ee73 463d 8a5f a73d af65 88bd
00000050: c302 ff3c 6d9c 963d c40f f3bb 888f dbb9
00000060: bf9d b4bb ec00 853d 9f85 51bd b1b1 973c
00000070: cffa babd 719e c1bc 3413 04bd 7bbd 45bd

c3.weight f4 [64, 32, 3, 3]
0.04976821 -0.029265894 0.06695409 0.029211678 0.057946026 -0.02457313 0.113474794 0.12520775
0.11632944 -0.00851153 0.12571616 0.098098174 -0.015688274 -0.019681996 0.005188094 -0.08906252
-0.016655497 -0.020038076 0.036052193 0.12877001 0.09499282 -0.027624154 -0.03888013 0.015599748
0.06478437 0.07618753 -0.0008868655 0.035271898 0.09484858 0.046404976 -0.049258947 -0.024797142
0.06387814 0.017767865 0.06308276 0.08143937 0.05052433 -0.028049553 -0.06883332 0.054829143
0.0148818465 -0.03321806 0.08670394 0.14206374 0.080485076 0.09869459 0.1084971 0.08922581
-0.0023166405 -0.022990083 0.0149834445 0.10645801 -0.00027993787 0.11600576 0.035219602 0.14587733
0.049062945 -0.003607071 -0.035751343 -0.02997529 0.014178835 -0.02058975 -0.045231387 -0.03091912
-0.037255414 -0.10271795 -0.062435046 -0.046781816 -0.07252636 -0.061263733 -0.0798725 -0.11235714
-0.053173874 0.08100048 0.008594573 -0.0001374095 -0.025067259 -0.05355142 0.07320831 0.12697835
0.14193171 -0.04001581 -0.12177542 -0.061958507 -0.06290601 -0.09896264 -0.050794553 -0.12707645
-0.10395848 -0.04250382 0.072919436 0.012462443 0.10331954 0.0059114294 -0.11303527 0.0013337663
-0.025961649 -0.069496244 -0.051426556 0.026745504 -0.050643608 -0.030992273 0.005918136 -0.0021534695
0.007021657 -0.046053927 -0.014267181 0.0013700686 -0.00027706588 0.041740753 0.07658321 0.065807715
-0.073410206 0.011545065 0.03446668 0.089364536 0.065192886 0.07191267 0.03209488 0.08699559
0.004893124 -0.001673854 0.04964118 0.06173533 0.111511104 0.019287594 0.07106381 0.012220458
0.05249996 0.023596538 0.033773877 0.027779019 0.036171187 0.022846565 0.020792909 -0.0586773
-0.016554134 0.028415622 0.008841525 0.002000143 0.069354594 -0.09648785 0.0019828295 -0.023990318
-0.013525844 0.0058251093 0.04116364 0.063635066 -0.009500308 -0.0076583056 0.0885697 0.031447407
0.012959083 -0.057438664 0.007842149 0.0016937896 -0.054986387 -0.05341913 0.0020710272 0.029249651
0.030829199 0.0076627894 -0.0023465583 -0.005347494 -0.012324457 -0.008130244 -0.057435907 0.016376724
-0.091323465 -0.08437556 0.020923954 -0.025520803 -0.03807644 0.025366768 -0.042575583 -0.03907304
-0.04913192 -0.09837971 -0.0474757 -0.014344358 -0.014074313 0.001850075 0.045506228 -0.046863336
-0.09820894 -0.048913136 0.0973034 -0.010010295 -0.014568603 0.018293994 -0.014183297 0.06646231
-0.0041926703 -0.013969624 -0.021671645 -0.00075065315 -0.06454391 -0.010989363 0.09209027 0.077622496
0.08206966 0.036653716 0.05850936 -0.054452416 0.076071195 0.06841985 0.12596075 0.010610688
0.033980433 0.041877706 0.07594511 -0.020999797 0.021816775 -0.072711356 -0.09659921 -0.058011174
-0.006953289 0.049612302 -0.033520024 -0.026018709 0.046671905 0.05277861 -0.08115444 -0.010980193
-0.06183748 0.11863926 0.1387781 0.07381194 0.013112608 0.015585452 0.087796636 0.03284592
-0.022531897 0.014330585 0.0015352197 0.030705843 0.03845342 0.027037436 0.07471235 -0.033132374
0.081370495 0.062288582 0.1375202 0.03445671 -0.023527376 0.0074720588 0.033901345 0.043994006
0.051585365 0.06893194 -0.002732891 0.021512331 0.039909746 0.08727741 0.07377341 -0.0295787
00000000: c0d9 4b3d 07bf efbc 3a1f 893d 544d ef3c
00000010: d058 6d3d 974d c9bc 7965 e83d 7636 003e
00000020: 213e ee3d f273 0bbc bdbb 003e b2e7 c83d
00000030: b284 80bc 233c a1bc e300 aa3b 6966 b6bd
00000040: 1c71 88bc e426 a4bc 77ab 133d 49dc 033e
00000050: 988b c23d 0d4c e2bc c540 1fbd 1696 7f3c
00000060: abad 843d 3508 9c3d 897c 68ba 4479 103d
00000070: f93f c23d 2513 3e3d c0c3 49bd 6023 cbbc
00000080: 8bd2 823d ea8d 913c 8931 813d afc9 a63d
00000090: 9af2 4e3d 2dc8 e5bc 7cf8 8cbd 8694 603d
000000a0: fdd2 733c a90f 08bd d691 b13d 2879 113e
000000b0: 5cd5 a43d 6420 ca3d ba33 de3d 05bc b63d
000000c0: c7d2 17bb b355 bcbc 1f7d 753c a806 da3d
000000d0: a0c4 92b9 6e94 ed3d 6e42 103d de60 153e
000000e0: 3af6 483d 9c64 6cbb 0070 12bd bd8e f5bc
000000f0: 584e 683c d6ab a8bc 8c44 39bd 184a fdbc
00000100: 2299 18bd ca5d d2bd e4bb 7fbd 4a9e 3fbd
00000110: b388 94bd aeef 7abd 3194 a3bd 801b e6bd
00000120: d9cc 59bd 94e3 a53d 40d0 0c3c 9515 10b9
00000130: da59 cdbc bc58 5bbd 3dee 953d 9d06 023e
00000140: 8c56 113e 9ee7 23bd 6465 f9bd 34c8 7dbd
00000150: ded4 80bd edac cabd f30d 50bd 5420 02be
00000160: 2fe8 d4bd 7c18 2ebd c956 953d 462f 4c3c
00000170: 3299 d33d aab4 c13b 097f e7bd c5d1 ae3a
00000180: 86ad d4bc 0c54 8ebd a7a4 52bd 6319 db3c
00000190: ac6f 4fbd 82e3 fdbc ecec c13b 3921 0dbb
000001a0: ee15 e63b 0ba3 3cbd e5c0 69bc e093 b33a
000001b0: 2743 91b9 5af8 2a3d a8d7 9c3d 32c6 863d
000001c0: 1758 96bd 8327 3d3c ef2c 0d3d c104 b73d
000001d0: d983 853d f346 933d ec75 033d be2a b23d
000001e0: 8056 a03b 3865 dbba 8d54 4b3d 2fde 7c3d
000001f0: ef5f e43d 0401 9e3c e789 913d 5138 483c
00000200: 330a 573d 874d c13c 7a56 0a3d d390 e33c
00000210: 3d28 143d b828 bb3c e455 aa3c 9c57 70bd
00000220: 899c 87bc e1c7 e83c 0bdc 103c d514 033b
00000230: c809 8e3d 6c9b c5bd 5cf2 013b 5887 c4bc
00000240: 809b 5dbc 8fe0 be3b 349b 283d 1a53 823d
00000250: 2ea7 1bbc 86f2 fabb 0864 b53d ffce 003d
00000260: 5552 543c ce44 6bbd 5b7c 003c 2602 de3a
00000270: 6839 61bd 05ce 5abd 12ba 073b f79c ef3c
00000280: 848d fc3c 2318 fb3b b7c8 19bb 083a afbb
00000290: 85ec 49bc b734 05bc ea41 6bbd 7b28 863c
000002a0: cc07 bbbd 18cd acbd b668 ab3c 0111 d1bc
000002b0: 0bf6 1bbd f8cd cf3c bc63 2ebd 0d0b 20bd
000002c0: 8d3e 49bd 4d7b c9bd e175 42bd 9904 6bbc
000002d0: f397 66bc 377e f23a bd64 3a3d c5f3 3fbd
000002e0: c521 c9bd 2459 48bd 0147 c73d 3802 24bc
000002f0: 26b1 6ebc 49dd 953c 0f61 68bc 641d 883d
00000300: ab62 89bb dae0 64bc bc88 b1bc 7bc7 44ba
00000310: 992f 84bd bb0c 34bc d399 bc3d 8bf8 9e3d
00000320: 2314 a83d 3522 163d 83a7 6f3d 7f09 5fbd
00000330: 37cb 9b3d b51f 8c3d dbfb 003e 73d8 2d3c
00000340: 112f 0b3d f587 2b3d 1c89 9b3d c407 acbc
00000350: 18b9 b23c b1e9 94bd ced5 c5bd 209d 6dbd
00000360: 6ad8 e3bb 4536 4b3d 4b4c 09bd 3025 d5bc
00000370: 0a2b 3f3d 622e 583d 4d34 a6bd 44e6 33bc
00000380: 4c49 7dbd 24f9 f23d d91b 0e3e b72a 973d
00000390: 44d6 563c 205a 7f3c b9ce b33d 7289 063d
000003a0: d094 b8bc d4ca 6a3c 6d39 c93a d28a fb3c
000003b0: 5581 1d3d 9d7d dd3c ca02 993d d0b5 07bd
000003c0: 93a5 a63d 5022 7f3d 18d2 0c3e 7b22 0d3d
000003d0: 7cbc c0bc 2cd8 f43b 23dc 0a3d 0f33 343d
000003e0: 2d4b 533d 302c 8d3d 4d1a 33bb a13a b03c
000003f0: 6778 233d 80be b23d 8316 973d 084f f2bc

c3.bias f4 [64]
0.03157753 -0.025271667 -0.05055388 -0.003782217 -0.014044095 -0.00760134 -0.07379775 -0.048680693
-0.058946338 0.008826788 -0.045435715 -0.012123929 0.033898555 0.0316901 0.046020307 -0.047877327
-0.0009684196 0.032812305 0.025720349 0.015714757 0.028295264 -0.037133012 0.039787788 0.01997441
0.031883232 -0.05940239 -0.06117342 0.031675424 0.0021909964 -0.020310361 0.0008939748 0.07642406
0.02737801 0.03417335 -0.07599035 -0.0041472386 0.010351923 0.03352375 -0.032756284 0.010534199
-0.06646 0.04759515 -0.019192887 0.0053737797 0.0064132875 0.03202322 -0.00035795404 -0.028069088
-0.050616443 0.00042522314 0.00048927584 0.036450528 0.008486127 -0.013949829 -0.015071863 -0.02058659
-0.028431138 -0.020070408 0.015368858 -0.013844615 -0.07410488 0.018941917 -0.032629002 0.0052792006
00000000: 7157 013d 8706 cfbc 9611 4fbd 12df 77bb
00000010: 3419 66bc a914 f9bb 4623 97bd 6865 47bd
00000020: b771 71bd 3b9e 103c cd1a 3abd 72a3 46bc
00000030: 36d9 0a3d 7acd 013d ca7f 3c3d 041b 44bd
00000040: 8add 7dba 3266 063d 7bb3 d23c 3cbc 803c
00000050: 78cb e73c c918 18bd 85f8 223d 60a1 a33c
00000060: fe97 023d ec4f 73bd fb90 7abd 17be 013d
00000070: d296 0f3b ea61 a6bc a259 6a3a 3884 9c3d
00000080: d947 e03c 5bf9 0b3d d4a0 9bbd 8fe5 87bb
00000090: 1d9b 293c 3350 093d 742b 06bd a297 2c3c
000000a0: 2e1c 88bd 22f3 423d 673a 9dbc 8816 b03b
000000b0: 8e26 d23b c82a 033d c7ab bbb9 25f1 e5bc
000000c0: 3053 4fbd 7cf0 de39 bf42 003a 264d 153d
000000d0: 6509 0b3c d38d 64bc faef 76bc 35a5 a8bc
000000e0: 6be8 e8bc b26a a4bc aacd 7b3c 86d4 62bc
000000f0: 4dc4 97bd 142c 9b3c fda5 05bd 25fd ac3b

bn1.weight f4 [16]
0.92137116 0.95915896 0.9168038 1.0201383 1.1250845 1.06879 0.8872176 1.0288503
1.0001678 0.86973643 1.0451466 0.8745804 0.9693153 1.0261077 0.9185709 1.1247011
00000000: fbde 6b3f 718b 753f a7b3 6a3f e493 823f
00000010: c502 903f 1cce 883f b120 633f 5eb1 833f
00000020: 8005 803f 0ca7 5e3f 5dc7 853f 80e4 5f3f
00000030: 0c25 783f 7f57 833f 7627 6b3f 35f6 8f3f

bn1.bias f4 [16]
0.0059864097 -0.09452487 -0.027378825 0.04959089 0.03607063 -0.014572513 -0.11389893 0.014216058
-0.09019285 -0.09023719 -0.012381105 -0.10942207 -0.105113134 -0.05343572 0.017480716 0.0053007803
00000000: a529 c43b 4196 c1bd 8f49 e0bc d11f 4b3d
00000010: ccbe 133d 8dc1 6ebc d843 e9bd 78ea 683c
00000020: 07b7 b8bd 47ce b8bd 1eda 4abc ae18 e0bd
00000030: 8e45 d7bd 6adf 5abd b833 8f3c 2bb2 ad3b

bn1.running_mean f4 [16]
-0.15833499 -0.03648847 -0.0780489 -0.13675079 0.039697293 -0.04699302 0.09733925 -0.06350681
-0.059241436 -0.18277156 -0.016123762 -0.10417061 0.109475315 0.0038563795 -0.090403065 0.06059379
00000000: 9122 22be ef74 15bd 1ad8 9fbd 6608 0cbe
00000010: a199 223d c17b 40bd cd59 c73d dc0f 82bd
00000020: 26a7 72bd 7828 3bbe fb15 84bc 6757 d5bd
00000030: 9834 e03d 50bb 7c3b 3e25 b9bd 3231 783d

bn1.running_var f4 [16]
0.031161478 0.007936273 0.0092020845 0.029667802 0.0039955797 0.009947769 0.011580162 0.009873764
0.01000582 0.005658377 0.0054450985 0.021771127 0.009861959 0.011455063 0.039801467 0.008502677
00000000: 5b46 ff3c 2407 023c 57c4 163c e409 f33c
00000010: 5aed 823b f8fb 223c b8ba 3d3c 91c5 213c
00000020: 73ef 233c e869 b93b cc6c b23b 5d59 b23c
00000030: 0e94 213c 04ae 3b3c dd06 233d d04e 0b3c

bn2.weight f4 [32]
1.0765208 0.8662589 0.9458627 1.0018164 1.0212028 0.9238834 1.0112191 0.94254726
1.1329981 0.93025684 0.99526566 0.95262545 0.96438795 1.0288945 0.92390215 0.92228925
1.1352955 1.0396019 0.9768049 0.9590506 1.049467 0.9644541 1.0580653 0.9574042
0.93299377 0.9714964 0.9506024 1.0043303 1.031618 0.9958589 0.9574893 1.0621333
00000000: 6fcb 893f 25c3 5d3f 0f24 723f 853b 803f
00000010: c6b6 823f 9f83 6c3f a16f 813f c74a 713f
00000020: 1506 913f 5025 6e3f bbc9 7e3f 43df 733f
00000030: 21e2 763f d1b2 833f da84 6c3f 261b 6c3f
00000040: 5d51 913f ad11 853f e30f 7a3f 5784 753f
00000050: ef54 863f 77e6 763f af6e 873f 7118 753f
00000060: aed8 6e3f fdb3 783f ae5a 733f e58d 803f
00000070: 0f0c 843f 9cf0 7e3f 051e 753f fcf3 873f

bn2.bias f4 [32]
0.054414377 -0.087253675 -0.031039847 -0.011846321 -0.071533434 -0.04790796 0.020540772 -0.058012698
0.082272105 -0.06697491 -0.0107988715 -0.043362178 -0.07591818 -0.0152632715 -0.02437191 -0.07793436
-0.026273975 -0.027535511 -0.021524599 -0.029161433 0.042728562 -0.02534052 -0.03506966 0.044166308
-0.046605486 -0.031318963 -0.07056001 -0.054262437 -0.03737767 -0.05433442 -0.029552303 0.029503783
00000000: 9ce1 5e3d 0eb2 b2bd 4747 febc 1217 42bc
00000010: 1f80 92bd 233b 44bd 1f45 a83c b99e 6dbd
00000020: 477e a83d 242a 89bd c0ed 30bc 8a9c 31bd
00000030: fe7a 9bbd cd12 7abc 9aa7 c7bc 0d9c 9fbd
00000040: 853c d7bc 2792 e1bc 5b54 b0bc f5e3 eebc
00000050: 2504 2f3d ec96 cfbc 34a5 0fbd bbe7 343d
00000060: 65e5 3ebd 5048 00bd c481 90bd 4a42 5ebd
00000070: 5419 19bd c58d 5ebd ac17 f2bc ebb1 f13c

bn2.running_mean f4 [32]
0.5960914 0.35205713 0.27806598 0.383834 0.36830148 0.77534384 0.18983734 -0.56566614
0.31599703 -0.89839 0.037946206 -0.49935633 0.59932095 0.68368226 0.79586846 -0.5190289
0.5678187 0.6072596 -0.4214165 -0.37957987 0.52014315 0.7738692 0.69518375 0.107225046
0.007425388 0.27567795 0.68142265 0.8664842 0.5020863 0.5129193 0.64179015 0.31611001
00000000: 7299 183f d540 b43e aa5e 8e3e e485 c43e
00000010: 0392 bc3e ef7c 463f b864 423e 7fcf 10bf
00000020: 5dca a13e e3fc 65bf 7b6d 1b3d a2ab ffbe
00000030: 196d 193f cd05 2f3f 09be 4b3f 14df 04bf
00000040: 915c 113f 5d75 1b3f e7c3 d7be 4b58 c2be
00000050: 1a28 053f 4b1c 463f 90f7 313f ce98 db3d
00000060: ab50 f33b a925 8d3e b771 2e3f e9d1 5d3f
00000070: ba88 003f ae4e 033f 5c4c 243f 2cd9 a13e

bn2.running_var f4 [32]
3.2291424 0.5649752 2.1848068 3.2770283 0.7986132 2.8270817 2.9811413 0.9496215
1.1732982 0.9570205 0.5453606 1.1985717 2.4026654 2.6316404 2.3953035 1.329315
2.7692316 2.7826188 1.412479 1.8207858 3.3554437 2.8816423 1.2586154 1.4220958
1.2072228 1.5511004 2.1713448 3.0719452 1.6727161 1.4357426 4.4780874 2.1423771
00000000: 45aa 4e40 37a2 103f e0d3 0b40 d5ba 5140
00000010: ea71 4c3f e8ee 3440 05cb 3e40 651a 733f
00000020: a32e 963f 4cff 743f c19c 0b3f cc6a 993f
00000030: 45c5 1940 cc6c 2840 a74c 1940 fe26 aa3f
00000040: 173b 3140 6d16 3240 1dcc b43f 820f e93f
00000050: 97bf 5640 d46c 3840 4f1a a13f 3c07 b63f
00000060: 4786 9a3f 758a c63f 50f7 0a40 c09a 4440
00000070: 901b d63f 6ac6 b73f 7e4c 8f40 b51c 0940

bn3.weight f4 [64]
1.064143 1.0162011 0.89724976 0.9786042 0.9979368 1.0345715 1.0232606 0.9526274
0.9647088 1.0280635 1.0079814 1.0079019 0.9912792 0.99542636 0.944357 0.95240897
1.0090824 1.0541762 1.0061871 1.0071188 0.9936186 1.0138348 0.9729563 0.9701744
1.0059403 0.93193007 0.9831701 1.079544 0.94190574 0.96339506 0.94506973 1.0333978
1.0196409 0.90049726 0.99559027 1.0347365 0.9648926 0.9538204 0.94556427 1.041184
1.0571141 0.95462114 1.0264488 1.0149884 1.0242194 1.0897126 1.0178055 1.0087129
1.0158079 0.9985631 0.99396306 0.9787137 0.98533064 0.9485987 1.03813 0.98501146
1.0257481 1.0015846 1.0160675 1.0278797 0.96825045 0.9344594 0.94719183 1.0044916
00000000: d635 883f e112 823f 29b2 653f ce85 7a3f
00000010: c978 7f3f d76c 843f 34fa 823f 64df 733f
00000020: 28f7 763f 9697 833f 8905 813f ee02 813f
00000030: 79c4 7d3f 43d4 7e3f 61c1 713f 13d1 733f
00000040: 9d29 813f 3fef 863f bdca 803f 45e9 803f
00000050: ca5d 7e3f 57c5 813f aa13 793f 595d 783f
00000060: a7c2 803f f892 6e3f 09b1 7b3f 7f2e 8a3f
00000070: bc20 713f 0fa1 763f 17f0 713f 6146 843f
00000080: 9883 823f fd86 663f 01df 7e3f 3f72 843f
00000090: 3403 773f 932d 743f 8010 723f 8445 853f
000000a0: 844f 873f 0d62 743f ad62 833f 24eb 813f
000000b0: 9f19 833f b47b 8b3f 7347 823f 811d 813f
000000c0: fe05 823f d5a1 7f3f 5d74 7e3f fb8c 7a3f
000000d0: a13e 7c3f 5dd7 723f 72e1 843f b629 7c3f
000000e0: b74b 833f ed33 803f 800e 823f 9091 833f
000000f0: 43df 773f bb38 6f3f 2a7b 723f 2e93 803f

bn3.bias f4 [64]
0.07251467 0.027715623 -0.097258635 -0.010587438 0.007763432 0.04138838 0.03416034 -0.041606713
-0.042778965 0.046064265 0.014104446 0.013833088 -0.011638419 0.008761158 -0.05079064 -0.041199088
-0.0070570447 0.062413935 0.012251952 0.021933153 0.0061644944 0.020018589 -0.024136862 -0.0143185975
0.009319158 -0.06862792 -0.016834924 0.083479814 -0.0661227 -0.038240876 -0.0482453 0.032417126
0.031224523 -0.11448208 0.0007298285 0.036570534 -0.032309417 -0.03478685 -0.05252973 0.05471134
0.073814824 -0.053577323 0.036646213 0.030505655 0.045672625 0.10189875 0.0115624415 -0.005754958
0.02697205 0.0031740607 -0.00893572 -0.021399442 -0.01342274 -0.051190525 0.041901216 -0.0034159531
0.034881074 0.00738127 0.038885605 0.036442723 -0.02069408 -0.06611741 -0.045485396 0.015958205
00000000: 9282 943d e00b e33c 892f c7bd ef76 2dbc
00000010: 6364 fe3b dd86 293d b6eb 0b3d cd6b 2abd
00000020: ff38 2fbd e2ad 3c3d 5616 673c 2da4 623c
00000030: 11af 3ebc f68a 0f3c d909 50bd 60c0 28bd
00000040: c83e e7bb c1a5 7f3d 69bc 483c 28ad b33c
00000050: 87ff c93b 06fe a33c abba c5bc 8d98 6abc
00000060: 62af 183c cb8c 8cbd 65e9 89bc 77f7 aa3d
00000070: 576b 87bd 77a2 1cbd dd9c 45bd d2c7 043d
00000080: 92ca ff3c 9575 eabd f651 3f3a fcca 153d
00000090: e156 04bd a87c 0ebd 6a29 57bd 0019 603d
000000a0: 3a2c 973d e573 5bbd 571a 163d ffe6 f93c
000000b0: 3813 3b3d 4bb0 d03d 6570 3d3c 1694 bcbb
000000c0: 7df4 dc3c e703 503b 2067 12bc e24d afbc
000000d0: 0deb 5bbc 28ad 51bd 9ca0 2b3d 2fde 5fbb
000000e0: 75df 0e3d 95de f13b 8346 1f3d f744 153d
000000f0: a286 a9bc 9168 87bd e54e 3abd c8ba 823c

bn3.running_mean f4 [64]
0.70346504 -0.2526776 0.77281404 -0.07953087 -1.1716733 1.5655204 -0.8123737 -0.7515887
1.1557592 -1.2840793 -0.35487118 -0.9469841 -1.3577758 -1.6900485 -0.6869174 -0.59309727
1.6199846 0.54176605 -1.8845633 1.3494147 0.17513596 -0.3879848 -0.07130501 1.7325957
-0.9591152 0.2058081 1.2316191 -0.9776492 -0.5224976 -1.3276592 -0.7771403 -1.4339473
0.06806916 -1.0856647 -0.52730143 0.01890094 0.8037978 -1.4669585 -1.4696369 -0.11926488
0.16455701 -0.2691359 -0.21082373 1.001007 0.91363096 0.34967503 1.6705302 -1.2431152
0.92708015 -1.60274 1.6247649 -1.6656221 -0.59272563 -0.42890984 0.35465166 -1.5965909
-0.3306738 -1.760075 -0.7815522 1.0404854 -1.6193818 1.4070618 -0.3389381 -1.4835964
00000000: 4916 343f f55e 81be 24d7 453f 15e1 a2bd
00000010: 64f9 95bf f962 c83f b9f7 4fbf 1e68 40bf
00000020: ebef 933f b65c a4bf adb1 b5be 8d6d 72bf
00000030: 99cb adbf 8253 d8bf d2d9 2fbf 39d5 17bf
00000040: a85b cf3f 2eb1 0a3f 5f39 f1bf 9fb9 ac3f
00000050: d756 333e f2a5 c6be 5c08 92bd b2c5 dd3f
00000060: 9388 75bf 5cbf 523e b2a5 9d3f 3847 7abf
00000070: 67c2 05bf bdf0 a9bf abf2 46bf 968b b7bf
00000080: d867 8b3d 10f7 8abf 3afd 06bf 25d6 9a3c
00000090: b1c5 4d3f 4cc5 bbbf 101d bcbf 2541 f4bd
000000a0: a281 283e 2ecc 89be 2de2 57be ff20 803f
000000b0: b8e3 693f 9b08 b33e efd3 d53f 661e 9fbf
000000c0: 2055 6d3f 9626 cdbf 4cf8 cf3f 1b33 d5bf
000000d0: debc 17bf 129a dbbe e794 b53e 175d ccbf
000000e0: 144e a9be 234a e1bf ce13 48bf a02e 853f
000000f0: e747 cfbf 9a1a b43f 4b89 adbe 7de6 bdbf

bn3.running_var f4 [64]
8.814388 2.4155498 11.200084 4.083581 17.776743 35.20388 9.087319 7.852508
13.133522 28.329052 1.9866579 10.94653 21.643538 29.499779 6.736271 6.8294396
32.150005 6.7046466 44.44019 20.794537 3.2156305 3.0852919 5.577639 31.644403
16.87068 3.618045 26.291386 14.550151 3.620016 18.885588 8.143321 28.771338
0.9020873 14.76924 6.776791 1.4163845 10.823165 23.996532 26.689672 0.9301113
2.3228521 2.9100704 1.616219 11.527682 11.12848 6.0805387 34.611053 24.181782
10.131044 33.15462 38.12844 30.05039 5.8054175 1.5344459 2.7156773 28.485384
1.7226559 36.55617 8.323235 19.01534 22.914234 21.4929 4.7140937 36.052658
00000000: bc07 0d41 5e98 1a40 8b33 3341 b2ac 8240
00000010: c536 8e41 c6d0 0c42 a965 1141 bf47 fb40
00000020: e822 5241 e6a1 e241 ce4a fe3f fd24 2f41
00000030: f725 ad41 8cff eb41 888f d740 c58a da40
00000040: 9b99 0042 778c d640 c1c2 3142 365b a641
00000050: e4cc 4d40 6c75 4540 057c b240 bd27 fd41
00000060: 27f7 8641 0d8e 6740 c254 d241 6bcd 6841
00000070: 58ae 6740 af15 9741 0b4b 0241 b32b e641
00000080: 31ef 663f cf4e 6c41 79db d840 164c b53f
00000090: af2b 2d41 e6f8 bf41 7384 d541 c61b 6e3f
000000a0: 9ca9 1440 983e 3a40 44e0 ce3f 6371 3841
000000b0: 410e 3241 c693 c240 b871 0a42 4a74 c141
000000c0: c218 2241 559e 0442 8683 1842 3367 f041
000000d0: fbc5 b940 b968 c43f a8cd 2d40 11e2 e341
000000e0: fd7f dc3f 8539 1242 f82b 0541 6b1f 9841
000000f0: 5a50 b741 76f1 ab41 dbd9 9640 ec35 1042

fc1.weight f4 [32, 64]
0.0042126505 -0.18126273 -0.07207237 0.035577755 -0.10113014 -0.014784156 -0.08400993 -0.12339085
-0.15790422 -0.07424625 -0.08072753 -0.17836487 -0.12710565 -0.048119273 0.04106183 -0.0016282261
0.03031253 -0.11464272 -0.17427452 0.040821988 -0.02556604 -0.1796667 -0.1557207 0.03255252
-0.06046477 0.014048679 -0.16248721 -0.13930464 0.017331611 -0.1119621 -0.14322215 -0.15516104
0.0042264815 -0.09869694 -0.12601717 -0.04938953 -0.0863892 -0.04187787 -0.05115059 0.06373208
-0.05838922 -0.11302434 -0.1539298 0.0030709147 -0.08351248 -0.17218435 -0.15793656 -0.00094255636
0.017962752 -0.06841215 0.045912765 -0.17853151 0.026567532 -0.11819289 -0.034473687 -0.07269127
-0.04367238 -0.07245907 -0.033545688 0.055645205 -0.03290479 -0.04127827 -0.022304066 -0.094276585
-0.088935025 0.011190843 0.033594638 0.05816169 0.060031183 -0.1255877 0.0018161949 -0.059594344
-0.086246006 -0.17081907 0.0266977 -0.094329506 -0.06121678 -0.089135766 -0.06266735 -0.13278688
-0.0052444083 -0.066281185 -0.16139825 -0.036247123 0.047866553 -0.14459942 0.035623547 0.037304
-0.17415208 -0.1405382 -0.11882891 -0.026309868 -0.08928416 -0.03497423 -0.12198092 -0.173575
-0.13677773 -0.016689472 -0.022022774 -0.13802937 0.037048277 -0.06964127 -0.009342163 0.02465621
-0.037647203 0.055828024 0.02186322 -0.042880856 -0.17856188 -0.027865773 -0.10423652 -0.118958525
0.037676446 0.019423835 -0.10889562 -0.17606351 0.009783311 -0.10193574 -0.1391156 -0.15445028
-0.14942504 -0.093227096 0.006835088 -0.03069451 -0.16348524 0.022262843 -0.00034035006 -0.15178587
-0.034664877 0.20126209 -0.037775587 0.03576535 0.1187047 0.1134584 0.0842253 0.10516347
0.05130256 0.16569045 0.11692893 0.1641369 -0.005158285 0.044973 0.08189513 -0.055989534
0.07692235 -0.028396796 0.154595 0.10558255 -0.034216743 0.07917008 0.052645728 0.03960732
0.18314354 -0.017821772 -0.028745927 0.15305066 0.014529099 0.06300746 0.1202254 -0.033741698
0.06346132 0.11582041 0.07165036 0.18683553 0.06621434 -0.0219681 0.10253039 -0.04884425
0.15116517 -0.018910551 0.10328977 0.0450621 0.043428794 0.06569812 0.0071463743 0.048543997
0.14161637 0.04478667 0.15367854 0.08276612 0.1667538 0.17281307 -0.0011019111 0.13551867
0.086542845 0.026581008 0.12549363 0.09083191 0.07569495 0.17360123 0.056406673 0.08871742
0.028845392 0.07342663 0.04245361 0.049731996 -0.04751699 -0.11341317 -0.026018756 -0.007958265
-0.10360665 -0.10714357 0.093402915 -0.0670213 0.078301206 0.0019905798 -0.037257973 -0.059144296
-0.115933135 0.04453178 -0.08542401 0.08913761 -0.067221425 0.08117233 0.044097967 -0.07015602
0.027852139 0.030966306 -0.039827105 0.067035854 -0.05394505 -0.012379255 -0.08264512 0.10656658
0.06354593 0.041868616 0.10491209 -0.112869635 -0.1019506 0.0056237145 0.099094845 -0.049407005
0.08615889 0.023486637 -0.018697811 -0.07316968 -0.06796009 0.11608545 -0.013233074 0.12277095
-0.046787295 -0.0041920464 0.13110384 -0.050665434 -0.043087777 0.06636754 0.12164166 0.11380234
0.12191133 0.036447745 -0.04320056 -0.07474739 0.113349386 -0.016685147 0.08537675 -0.019490195
00000000: 460a 8a3b f09c 39be ae9a 93bd fbb9 113d
00000010: 521d cfbd 3f39 72bc 660d acbd 58b4 fcbd
00000020: a5b1 21be 6b0e 98bd 7a54 a5bd 48a5 36be
00000030: fc27 02be b718 45bd 7330 283d 346a d5ba
00000040: fc51 f83c cdc9 eabd 0575 32be f534 273d
00000050: df6f d1bc 8cfa 37be 3f75 1fbe cb55 053d
00000060: e8a9 77bd 6e2c 663c 0c63 26be e0a5 0ebe
00000070: 06fb 8d3c 634c e5bd d4a8 12be 89e2 1ebe
00000080: 4c7e 8a3b 9f21 cabd a50a 01be ad4c 4abd
00000090: d2ec b0bd 2188 2bbd 4883 51bd f785 823d
000000a0: 8929 6fbd 4e79 e7bd c69f 1dbe 6641 493b
000000b0: 9708 abbd 1851 30be 1fba 21be e315 77ba
000000c0: 9f26 933c ab1b 8cbd 060f 3c3d f7d0 36be
000000d0: 27a4 d93c 1d0f f2bd 4834 0dbd 29df 94bd
000000e0: cfe1 32bd 6c65 94bd 3467 09bd 3aec 633d
000000f0: 2cc7 06bd 6713 29bd 04b7 b6bc 1514 c1bd
00000100: 9123 b6bd cc59 373c 889a 093d f43a 6e3d
00000110: 42e3 753d 109a 00be 630d ee3a 3319 74bd
00000120: bfa1 b0bd 32eb 2ebe 23b5 da3c d42f c1bd
00000130: 72be 7abd d08c b6bd bd57 80bd 49f9 07be
00000140: 49d9 abbb 6ebe 87bd 9545 25be dd77 14bd
00000150: b80f 443d df11 14be ffe9 113d 14cc 183d
00000160: ec54 32be 3fe9 0fbe 925c f3bd cb87 d7bc
00000170: 9dda b6bd 2341 0fbd 22d1 f9bd a5bd 31be
00000180: 760f 0cbe 5cb8 88bc 1b69 b4bc 9257 0dbe
00000190: efbf 173d 15a0 8ebd df0f 19bc d2fb c93c
000001a0: f433 1abd edab 643d 7f1a b33c d6a3 2fbd
000001b0: edd8 36be c346 e4bc f579 d5bd 87a0 f3bd
000001c0: 9e52 1a3d bc1e 9f3c ab04 dfbd fe49 34be
000001d0: 2e4a 203c afc3 d0bd 5274 0ebe 3728 1ebe
000001e0: e102 19be d9ed bebd e0f8 df3b 0e73 fbbc
000001f0: ad68 27be 9160 b63c 0371 b2b9 c16d 1bbe
00000200: c2fc 0dbd a617 4e3e 93ba 1abd b07e 123d
00000210: 731b f33d e15c e83d 507e ac3d f25f d73d
00000220: a222 523d c2aa 293e 6f78 ef3d 8113 283e
00000230: d506 a9bb 9c35 383d a2b8 a73d 4855 65bd
00000240: 7789 9d3d 66a0 e8bc 274e 1e3e aa3b d83d
00000250: db26 0cbd ec23 a23d 0ca3 573d 493b 223d
00000260: fb89 3b3e f7fe 91bc 947c ebbc 50b9 1c3e
00000270: 750b 6e3c 0e0a 813d bc38 f63d bc34 0abd
00000280: 02f8 813d 4033 ed3d 6dbd 923d d051 3f3e
00000290: 629b 873d 72f6 b3bc 74fb d13d e910 48bd
000002a0: 0bcb 1a3e 4dea 9abc 9689 d33d 0993 383d
000002b0: 64e2 313d bc8c 863d 222c ea3b 12d6 463d
000002c0: e203 113e 3a72 373d e85d 1d3e 4981 a93d
000002d0: 82c1 2a3e e9f5 303e 006e 90ba 68c5 0a3e
000002e0: 603d b13d 6ac0 d93c 6781 003e 1506 ba3d
000002f0: f405 9b3d 85c4 313e af0a 673d 7bb1 b53d
00000300: 2c4d ec3c b360 963d d6e3 2d3d c7b3 4b3d
00000310: 2da1 42bd 2a45 e8bd 4925 d5bc 6263 02bc
00000320: b92f d4bd 176e dbbd 074a bf3d 7742 89bd
00000330: 625c a03d 6374 023b d19b 18bd 4a41 72bd
00000340: 5a6e edbd f566 363d c9f2 aebd c78d b63d
00000350: 63ab 89bd ae3d a63d 12a0 343d f6ad 8fbd
00000360: 2b2a e43c 0dad fd3c bf21 23bd 184a 893d
00000370: 7cf5 5cbd 5cd2 4abc d841 a9bd 943f da3d
00000380: 5e24 823d 6d7e 2b3d 26dc d63d 3228 e7bd
00000390: 7acb d0bd 2347 b83b 3df2 ca3d 005f 4abd
000003a0: 1274 b03d 0c67 c03c 272c 99bc fcd9 95bd
000003b0: a92e 8bbd 35be ed3d 89cf 58bc 566f fb3d
000003c0: 09a4 3fbd 6f5d 89bb 1640 063e 8f86 4fbd
000003d0: cf7c 30bd b4eb 873d 431f f93d 3411 e93d
000003e0: a6ac f93d 3b4a 153d 12f3 30bd 2915 99bd
000003f0: b923 e83d 4aaf 88bc 01da ae3d e7a9 9fbc

fc1.bias f4 [32]
0.05665829 -0.09270217 0.030377302 0.116946444 -0.0787179 0.090267405 -0.09670836 -0.15407272
0.05192462 0.04572237 -0.17682636 0.19549125 -0.06687354 -0.21800308 -0.12351796 0.01258015
0.052107755 -0.06617032 -0.107140824 0.02475498 -0.038990054 0.1303066 -0.015587162 -0.0054483553
0.13602963 -0.030028062 -0.06934728 -0.037600603 0.015156961 -0.16466632 0.07580604 -0.18690003
00000000: 8612 683d a3da bdbd d2d9 f83c 9e81 ef3d
00000010: da36 a1bd 1ede b83d 080f c6bd 3dc5 1dbe
00000020: e9ae 543d 6147 3b3d f811 35be dc2e 483e
00000030: fff4 88bd 333c 5fbe fcf6 fcbd f91c 4e3c
00000040: f16e 553d 4e84 87bd a66c dbbd f5ca ca3c
00000050: 09b4 1fbd 186f 053e 4c61 7fbc 1e88 b2bb
00000060: 5a4b 0b3e 69fd f5bc f205 8ebd 1703 1abd
00000070: e754 783c 4a9e 28be 3240 9b3d b962 3fbe

fc2.weight f4 [5, 32]
-0.0027985878 -0.056916688 -0.10608442 -0.05552716 0.0125048645 -0.040924504 -0.0008301003 0.09052137
0.17909715 -0.07285398 0.2553434 -0.12132872 0.038814843 0.053142834 0.035476673 -0.0979033
0.028459365 -0.05969508 0.21506691 -0.054540765 -0.10827275 -0.031202083 0.06778005 0.027634934
-0.059806563 -0.14379334 0.14804204 0.090523474 0.06331258 0.09935903 0.009158633 0.06970636
0.037970886 0.22962993 -0.18668436 0.061634246 -0.11904881 -0.1512103 0.040483896 0.11033384
-0.01198975 0.10721109 0.03435613 -0.10272446 0.17734101 0.118979566 0.19496197 -0.22512215
-0.15349218 0.047123842 0.089899555 0.26738164 0.008234262 -0.18908265 -0.19742948 -0.0053415797
0.026755104 -0.0394827 0.18362653 0.12208598 -0.21920416 -0.048214603 -0.12528248 -0.011034182
0.08315665 -0.016171869 -0.025371432 -0.096278 0.00924748 -0.158564 0.0297535 -0.034149352
-0.20825319 -0.003452164 0.07572112 -0.029633936 0.07364364 0.1600589 0.011292345 0.04359047
-0.019038683 0.09985533 0.0125648305 -0.07119197 -0.19918655 0.020116461 0.092100814 0.02182691
-0.041288044 0.02579888 0.03274506 0.016052792 0.0952105 0.062097535 -0.18358608 0.1727994
0.04624123 0.2639179 -0.01541901 -0.11083111 -0.16018339 -0.1523714 -0.1276003 0.19886337
-0.1529632 0.1837202 0.20684125 -0.12371488 0.13123709 0.27015483 0.19891876 0.110537566
-0.08971212 0.20645706 0.123604916 0.14566022 -0.20188248 -0.037059765 0.095897876 -0.023098288
-0.24436368 0.18852769 0.26701474 -0.015271213 -0.19118112 0.31402478 -0.16060558 0.1659915
0.042633113 0.14582862 -0.15011138 -0.0007932607 -0.07596629 -0.076270856 0.0007860913 0.20630567
-0.19602035 0.11367779 0.16200858 -0.22591463 -0.026355807 0.107742324 0.085398495 -0.1281348
-0.028747594 0.22011887 0.10569642 0.21596007 -0.033785153 -0.18536966 -0.10852628 0.180774
-0.1627292 -0.11791247 0.15737277 0.11382924 -0.13715474 0.04006766 -0.067705095 0.24184816
00000000: 8368 37bb 7921 69bd ca42 d9bd 7370 63bd
00000010: 34e1 4c3c 74a0 27bd 179b 59ba 4563 b93d
00000020: 3e65 373e 7834 95bd 5fbc 823e 317b f8bd
00000030: 50fc 1e3d 4dac 593d fd4f 113d 8681 c8bd
00000040: 9d23 e93c d482 74bd 803a 5c3e 2366 5fbd
00000050: 1bbe ddbd 839b ffbc 44d0 8a3d a862 e23c
00000060: baf7 74bd 903e 13be 5598 173e 5f64 b93d
00000070: 07aa 813d bf7c cb3d 170e 163c 35c2 8e3d
00000080: 5c87 1b3d 1c24 6b3e 2f2a 3fbe 3174 7c3d
00000090: ddcf f3bd dfd6 1abe 71d2 253d b5f6 e13d
000000a0: a870 44bc 7d91 db3d 03b9 0c3d 3461 d2bd
000000b0: e298 353e 8fab f33d 1ca4 473e 6c86 66be
000000c0: 0e2d 1dbe ee04 413d 421d b83d 3fe6 883e
000000d0: ffe8 063c e29e 41be f42a 4abe 6b08 afbb
000000e0: 852d db3c 9db8 21bd 9808 3c3e 3708 fa3d
000000f0: 0e77 60be ad7c 45bd 0d4a 00be b7c8 34bc
00000100: 094e aa3d de7a 84bc c0d7 cfbc 662d c5bd
00000110: be82 173c 9a5e 22be 9dbd f33c 31e0 0bbd
00000120: 5340 55be b33d 62bb ad13 9b3d dec2 f2bc
00000130: 7ad2 963d 7be6 233e 8703 393c ec8b 323d
00000140: 03f7 9bbc f480 cc3d b8dc 4d3c 18cd 91bd
00000150: 8ff7 4bbe 47cb a43c 5a9f bc3d 59ce b23c
00000160: a71d 29bd 2c58 d33c af1f 063d 2581 833c
00000170: b9fd c23d fc59 7e3d fdfd 3bbe 53f2 303e
00000180: 7267 3d3d 3f20 873e 04a0 7cbc 6cfb e2bd
00000190: 1d07 24be 4007 1cbe a7a9 02be d7a2 4b3e
000001a0: 63a2 1cbe 2621 3c3e 31ce 533e 3a5e fdbd
000001b0: 0463 063e bc51 8a3e 5cb1 4b3e 8561 e23d
000001c0: fdba b7bd 7b69 533e 9324 fd3d f427 153e
000001d0: 48ba 4ebe fbcb 17bd 1b66 c43d 9f38 bdbc
000001e0: 793a 7abe 670d 413e 28b6 883e 1c34 7abc
000001f0: fcc4 43be dbc7 a03e ca75 24be adf9 293e
00000200: 0fa0 2e3d 1954 153e ccb6 19be d3f2 4fba
00000210: 3794 9bbd e533 9cbd b211 4e3a cb41 533e
00000220: 8fb9 48be e7cf e83d 94e5 253e 2a56 67be
00000230: 22e8 d7bc 02a8 dc3d 68e5 ae3d c535 03be
00000240: 1380 ebbc d766 613e 5d77 d83d a324 5d3e
00000250: 4d62 0abd 8bd1 3dbe 0743 debd d21c 393e
00000260: 7ca2 26be 187c f1bd 5426 213e 4e1f e93d
00000270: 4b72 0cbe fd1d 243d f8a8 8abd 0ba7 773e

fc2.bias f4 [5]
-0.13485923 -0.11103628 -0.121647455 0.0040774513 0.07608625
00000000: 8a18 0abe fd66 e3bd 4d22 f9bd 249c 853b
00000010: 1cd3 9b3d
