IQL_CNN_tiny_new_rea/agent1_161.pth (torch, 745122 bytes, 10 tensors)

c1.weight f4 [32, 8, 3, 3]
0	0x3cd85c62	0.026411239
1	0x3d532044	0.051544443
2	0x3d4b3815	0.04961403
3	0xbd830ba8	-0.06398708
4	0x3daf55be	0.08561276
5	0xbdafa606	-0.08576588
6	0x3dc0043f	0.0937581
7	0xbe49840b	-0.19679277
8	0x3d68f286	0.056871913
9	0x3c002a69	0.007822611
10	0xbd67cb50	-0.05659038
11	0x3d4a2adc	0.04935728
12	0xbdfec169	-0.12439234
13	0xbddb89c0	-0.10719633
14	0xbdb8bdaf	-0.09020554
15	0xbc1fce6e	-0.0097538065
16	0xbdb10fd8	-0.086456
17	0xbdef2f0c	-0.11678895
18	0x3d0b9be3	0.034084212
19	0xbddfa593	-0.10920253
20	0x3dc60a85	0.09669975
21	0x3c330689	0.010926851
22	0x3c4f430e	0.012650264
23	0x3d023e44	0.031797662
24	0xbde19403	-0.11014559
25	0x3bd75b95	0.0065721967
26	0xbce6645e	-0.02812403
27	0xbca009db	-0.01953595
28	0x3cdb771c	0.026790194
29	0x3c211888	0.009832509
30	0x3c9f67de	0.019458707
31	0xbcc69a6c	-0.024243556
32	0x3d3e0540	0.046391726
33	0x3cfc41bc	0.030793063
34	0xbd61859b	-0.055059057
35	0xbd9985f2	-0.07496251
36	0x3db4c0fb	0.088258706
37	0xbdf82349	-0.12116105
38	0xbdc46147	-0.09588867
39	0x3d2da965	0.042397875
40	0xbdd6bf87	-0.1048575
41	0x3b8643a6	0.00409742
42	0xbda200ff	-0.07910346
43	0xbe14bbad	-0.14524718
44	0xbdc3aa8d	-0.09554014
45	0xbd0cb857	-0.034355488
46	0xbd444201	-0.04791451
47	0xbd840a58	-0.064472854
48	0xbe28d0c9	-0.16485895
49	0x3e01c8dc	0.12674278
50	0xbdea56e9	-0.11442358
51	0x3d4d4809	0.050117526
52	0xbe1f06c4	-0.15529925
53	0xbde15561	-0.11002613
54	0xbdf19bcb	-0.11797293
55	0xbe00c2ba	-0.12574282
56	0x3d7e2424	0.062046185
57	0xbe1e0a55	-0.15433629
58	0xbdff1e87	-0.124569945
59	0x3dbe67cb	0.09297141
60	0x3d54abe4	0.05192174
61	0xbe625605	-0.22103126
62	0x3e0b4444	0.1360026
63	0xbdaac31e	-0.08337997
64	0xbd815961	-0.06315876
65	0x3d8d0a20	0.06886697
66	0x3d1acd56	0.03779348
67	0xbe54483d	-0.20730682
68	0xbd4f455e	-0.050603263
69	0x3daa72b4	0.08322659
70	0x3c005b3c	0.007834252
71	0xbd1acce2	-0.037793048
72	0xbcdfcec1	-0.027320268
73	0x3dabea31	0.08394278
74	0xbc9ba83c	-0.019001119
75	0x3d577d33	0.052609634
76	0xbe076f86	-0.13226137
77	0x3d309196	0.04310759
78	0x3cb93365	0.022607515
79	0xbd46ac4e	-0.048504166
80	0x3c93177e	0.017955538
81	0xbceaff8f	-0.028686313
82	0xbdef37c9	-0.11680562
83	0xbd807805	-0.06272892
84	0xbda178bb	-0.07884356
85	0xbdc3afd7	-0.09555023
86	0xbd3329ff	-0.043741222
87	0x3c952f0a	0.018210907
88	0x3e162576	0.14662728
89	0xbde50e62	-0.11184384
90	0x3dbddc6e	0.09270559
91	0x39cec32f	0.00039436805
92	0xbdc90b59	-0.098166175
93	0xbcb56b46	-0.022145879
94	0xbdd8a557	-0.10578411
95	0x3d15b172	0.03654618
96	0xbdd719a5	-0.10502938
97	0x3ce9b302	0.02852774
98	0xbd6de3a5	-0.058078427
99	0x3ba0fec8	0.004913185
100	0xbdcbdf80	-0.099547386
101	0xbaa0032b	-0.0012207975
102	0x3de9ff4c	0.11425647
103	0x3de38231	0.111088164
104	0xbc32ebe7	-0.010920501
105	0x3db08ec8	0.08620983
106	0xbc5528f6	-0.013010254
107	0xbd90802e	-0.07055698
108	0x3dd59b37	0.104299955
109	0xbc811ea2	-0.015761677
110	0xbdd05e86	-0.10174279
111	0xbd4eda4d	-0.050501157
112	0xbdbfe508	-0.09369856
113	0xbd323891	-0.043510977
114	0x3e075197	0.13214718
115	0xbe223373	-0.15839939
116	0xbda46d61	-0.08028675
117	0xbc59323d	-0.013256607
118	0x3c5f7de0	0.013640851
119	0xbde3a324	-0.11115101
120	0xbe15f51d	-0.14644285
121	0xbd99a227	-0.07501631
122	0xbd9e04d9	-0.07715768
123	0xbc929c3f	-0.01789677
124	0xbdc036be	-0.09385441
125	0xbdc6c013	-0.09704604
126	0xbe07e99a	-0.13272706
127	0xbe245753	-0.16048937
128	0xbdda9b0a	-0.106741026
129	0xbcc69cb7	-0.02424465
130	0xbe66f546	-0.22554502
131	0x3dc4060c	0.09571466
132	0x39b87a8b	0.00035186516
133	0x3d04d906	0.032433532
134	0xbd7ca5e7	-0.061681654
135	0x3d09a757	0.033606853
136	0xbd8ad4ba	-0.067788556
137	0xbe05abd5	-0.1305383
138	0xbbba0fe9	-0.005678166
139	0x3db5feab	0.08886465
140	0x3cf0b5cb	0.02938356
141	0xbce3d646	-0.027812134
142	0xbd86fc22	-0.06591059
143	0xbe25e22c	-0.16199559
144	0xbdb83359	-0.08994169
145	0xbdb3c61f	-0.08778023
146	0xbe39ad59	-0.18132533
147	0x3d7e1ce6	0.06203928
148	0x3ccd8303	0.025086885
149	0xbda67e4e	-0.081295595
150	0x3d70ca1b	0.058786493
151	0xbdc29089	-0.09500224
152	0xbddbf41a	-0.10739918
153	0x3d3b2f01	0.045699123
154	0xbadaae2b	-0.0016683986
155	0xbe4df626	-0.2011343
156	0xbdc5308b	-0.096283995
157	0xbd89d649	-0.06730325
158	0xbdbce632	-0.09223594
159	0xbdb34f64	-0.08755377
160	0x3dc1c3e2	0.0946119
161	0xbe3a7314	-0.18207961
162	0xbc0a5a82	-0.00844443
163	0xbd6c99f9	-0.057764027
164	0xbd88318b	-0.066500746
165	0xbde46b20	-0.11153245
166	0x3be5737a	0.0070022913
167	0x3de383f5	0.11109153
168	0xbc30d317	-0.010792515
169	0xbde2cb87	-0.11073976
170	0xbd3128c1	-0.043251757
171	0x3d935984	0.07194808
172	0xbd32f6f7	-0.043692555
173	0x3d7a5091	0.06111199
174	0xbdbc55d5	-0.09196059
175	0xbdd0e571	-0.102000125
176	0xbdb539e3	-0.08848932
177	0xbdf09da0	-0.117488146
178	0x3df03f8b	0.1173087
179	0xbdd8aa2c	-0.10579333
180	0xbc4c44ed	-0.012467605
181	0xbde0fb2e	-0.10985409
182	0x3dcf2258	0.101139724
183	0x3e18edcf	0.14934467
184	0xbdd78860	-0.10524058
185	0xbd9fadc4	-0.07796815
186	0xbdbbecd2	-0.09176029
187	0xbdaa41f1	-0.083133586
188	0x3e0086a1	0.12551357
189	0xbdcd138e	-0.100134954
190	0xbd9d036a	-0.07666667
191	0xbe4351a8	-0.19074118
192	0xbde40353	-0.111334465
193	0xbd5630b7	-0.05229255
194	0xbd6ea2cf	-0.058260735
195	0x3e0ba4dc	0.13637108
196	0xbd21bb00	-0.039484978
197	0xbdaab0df	-0.08334517
198	0xbdbc6870	-0.09199607
199	0xbd32074e	-0.043463998
200	0xbe03eff4	-0.12884504
201	0xbd2d105a	-0.042251922
202	0x3c6ca0d2	0.014442639
203	0xbd292b5f	-0.041301128
204	0xbda17cbe	-0.07885121
205	0xbd9e024d	-0.077152826
206	0xbd8852eb	-0.0665644
207	0xbd35d914	-0.044396475
208	0x3d8fae1b	0.0701563
209	0xbe5c500e	-0.21514913
210	0x3d2f5424	0.042804852
211	0x3d680ea1	0.056654576
212	0xbd720d7e	-0.0590949
213	0x3de9b4e4	0.11411455
214	0xbe1ed29a	-0.15510026
215	0xbcd6f112	-0.026237998
216	0xbe54d618	-0.20784795
217	0xbd84adc0	-0.06478453
218	0xbd81e095	-0.06341664
219	0xbda9251b	-0.082590304
220	0x3d45728d	0.048204947
221	0xbdbc54a4	-0.091958314
222	0xbc7433c8	-0.014904924
223	0xbd2f46ea	-0.04279224
224	0xbb2e0d9e	-0.002655841
225	0x3dad2a21	0.08455301
226	0x3dcdd036	0.10049479
227	0xbd34a1b9	-0.044099543
228	0xbd30bce2	-0.043148883
229	0xbd97175e	-0.07377504
230	0xbde62f9c	-0.112395495
231	0xbdcd9171	-0.10037506
232	0xbe07ba7e	-0.13254735
233	0xbe0d89af	-0.13822053
234	0x3dd96371	0.1061467
235	0x3dd96a14	0.10615936
236	0x3cf3c7e4	0.029758401
237	0x3dd1ca7a	0.102436975
238	0xbd9b7676	-0.07590954
239	0x3d5319a3	0.05153812
240	0xbdbc1e82	-0.091855064
241	0x3bd75bd2	0.006572225
242	0xbd68d892	-0.056847163
243	0xbdd2352b	-0.10264047
244	0x3ddbd183	0.107333206
245	0x3c0542a9	0.008133569
246	0x3d3c2620	0.045934796
247	0xbbcb22a3	-0.0061991974
248	0xbcb57990	-0.022152692
249	0xbda84550	-0.08216345
250	0x3cf96788	0.030444875
251	0x3da8d563	0.08243825
252	0xbe293855	-0.16525395
253	0x3c931d70	0.017958373
254	0xbd383ced	-0.04497998
255	0x3cebcaab	0.028783163

c1.bias f4 [32]
0	0xbd94cf0d	-0.07266054
1	0xbdd66e21	-0.10470224
2	0xbc6c0e44	-0.014407698
3	0x3c9d5299	0.019204425
4	0xbd2cce9f	-0.042189237
5	0x3db3e82f	0.0878452
6	0x3cf292c5	0.029611
7	0xbd0cc4f0	-0.0343675
8	0xbdb4ad48	-0.08822113
9	0xbdd0c66e	-0.101940975
10	0xbd1dc242	-0.038515337
11	0xbdc18606	-0.09449391
12	0x3d9ff0d8	0.07809609
13	0xbde46ad1	-0.11153186
14	0xbc44f929	-0.012022295
15	0x3be16d58	0.00687949
16	0xbda6693d	-0.08125541
17	0xbe16cb59	-0.14726008
18	0xbdb56c80	-0.08858585
19	0xbd977004	-0.07394412
20	0x3d6c46cf	0.057684716
21	0xbd0245fc	-0.031805024
22	0xbd4fa4ba	-0.050694205
23	0xbd991dbc	-0.074763745
24	0x3c681e27	0.014167345
25	0xbd3af3a3	-0.045642506
26	0x3d4d302c	0.05009477
27	0xbde04992	-0.109515324
28	0xbd99daf2	-0.07512464
29	0x3cde7088	0.027153268
30	0x3d2d27fd	0.042274464
31	0x3db96959	0.090532966

c2.weight f4 [64, 32, 3, 3]
0	0x3dc507fa	0.09620662
1	0xbd9c144d	-0.076210596
2	0xbd058fba	-0.03260777
3	0x3c6b2822	0.01435283
4	0xbd592e6a	-0.05302278
5	0xbc1761a7	-0.009239591
6	0x3d702dae	0.058637314
7	0xbd0d9226	-0.034563206
8	0xbcd3125f	-0.025765596
9	0xbd270f4d	-0.040786076
10	0xbd303673	-0.043020677
11	0xbd14a012	-0.036285467
12	0x3dae0601	0.08497239
13	0x3cbb3201	0.022850992
14	0x3d8c719e	0.06857608
15	0x3d2aa39c	0.041659936
16	0xbca8197c	-0.020519964
17	0x3ba0f7cd	0.0049123527
18	0x3d71e796	0.05905875
19	0x3cfc0563	0.030764287
20	0x3ca41e2d	0.02003392
21	0x3de60621	0.11231638
22	0xbd23df4a	-0.040007867
23	0xbd0bf2ef	-0.034167226
24	0xbdc52364	-0.09625891
25	0x3d0a0bc1	0.033702616
26	0x3c704de1	0.014667005
27	0x3d166958	0.036721557
28	0x3da09c98	0.07842368
29	0x39a4f55d	0.00031463327
30	0xbd800720	-0.06251359
31	0x3d13e1f4	0.036104158
32	0xbd9277fb	-0.07151791
33	0x3c4561c4	0.012047235
34	0x3c1b1dd8	0.0094675645
35	0xbda05beb	-0.07830032
36	0x3d3b51af	0.045732196
37	0x3d752dc1	0.059858087
38	0xbd43c56a	-0.04779569
39	0x3d2221c0	0.039582968
40	0x3d4ce114	0.05001934
41	0xbcc8ccca	-0.024511714
42	0xbde20d4f	-0.11037695
43	0xbc783ad9	-0.015150749
44	0x3c8f734b	0.01751103
45	0xbd93a9f5	-0.07210151
46	0x3ca82de3	0.020529693
47	0xbd36da95	-0.04464205
48	0xbdc55261	-0.09634853
49	0x3d13c52c	0.03607671
50	0x3d456647	0.048193242
51	0xbdbee313	-0.09320655
52	0x3d8e8f98	0.06960982
53	0x3db30f1e	0.08743118
54	0xbab1f065	-0.0013575671
55	0xbce321d3	-0.02772609
56	0x3c4e9b27	0.012610233
57	0xbbf5c481	-0.0075002317
58	0xbd59e096	-0.053192697
59	0xbd75a146	-0.059968255
60	0xbd9e34d9	-0.07724924
61	0xbd5c7504	-0.053822532
62	0xbc9315c4	-0.017954715
63	0x3d0d9a23	0.034570824
64	0xbd465658	-0.048422188
65	0x3d7b705e	0.06138646
66	0xbd6498e9	-0.05580989
67	0xbb8cefa7	-0.0043010297
68	0x3d6ccbbc	0.057811484
69	0xbc808c77	-0.015691979
70	0xbdfb703f	-0.122772686
71	0xbdb551e0	-0.08853507
72	0x3e772733	0.24136047
73	0xbcda59f0	-0.026654214
74	0x3c3521c9	0.011055418
75	0x3dd2bf6e	0.102904186
76	0x3db3efde	0.087859854
77	0xbcaa3f4f	-0.020782141
78	0x3e4f7c8c	0.20262355
79	0x3daca57c	0.08430001
80	0xbc52b2d3	-0.012860018
81	0xbcd4c63b	-0.02597343
82	0xbd7b7d80	-0.061398983
83	0xbd86a8e8	-0.06575185
84	0xbdf1d2d8	-0.118077934
85	0xbd844777	-0.06458943
86	0xbd304fb2	-0.043044753
87	0xbd21fd70	-0.039548337
88	0x3c3ac22d	0.011398834
89	0xbd73856f	-0.059453424
90	0x3d0b7ba1	0.03405345
91	0x3ca904a4	0.020632096
92	0x3c3f4d4c	0.011676144
93	0xbd10e108	-0.035370857
94	0x3ca889f1	0.020573588
95	0x3cb04a87	0.021519912
96	0xbd702a9f	-0.058634397
97	0xbba31c73	-0.0049777566
98	0xbc785c29	-0.015158691
99	0xbb9bbcb6	-0.0047527207
100	0xbd867563	-0.065653585
101	0x3d0d8291	0.034548346
102	0x3cb46a4f	0.022023348
103	0x3d514e61	0.05110014
104	0x3c5ee3cf	0.0136041185
105	0xbc646c0b	-0.013941775
106	0xbd225f14	-0.039641455
107	0xbda6464c	-0.08118877
108	0xbda2e70d	-0.07954226
109	0x3d8df532	0.06931533
110	0x3d4f2669	0.05057374
111	0xbdb187e8	-0.086685
112	0x3d7822e9	0.060580168
113	0x3d5c8194	0.053834513
114	0x3caac5b4	0.020846225
115	0xbc17eda7	-0.009272969
116	0xbd721a72	-0.05910725
117	0xbd88b89a	-0.06675835
118	0xbd7daf6f	-0.061934885
119	0x3cbdcc71	0.023168774
120	0x3d6430cb	0.055710595
121	0x3dedc76d	0.11610303
122	0xbdb3b6a5	-0.08775071
123	0xbd73f7df	-0.05956256
124	0xbd85c5f3	-0.065318964
125	0x3cc2b109	0.023766058
126	0xbd962be4	-0.0733259
127	0xba72abf4	-0.00092571904
128	0xbe03c9bd	-0.12869926
129	0xbdb84483	-0.089974426
130	0xbc9fde17	-0.01951508
131	0xbd2aefc8	-0.04173258
132	0x3c8a5d5b	0.016890218
133	0x3d7d6b86	0.06187012
134	0xbbc32d33	-0.005956316
135	0xbc3eb5e6	-0.011640048
136	0xbcbad47d	-0.0228064
137	0x3b13a599	0.0022529124
138	0xbbd27e33	-0.0064237355
139	0xbc8dce1e	-0.017310198
140	0xbc71e40a	-0.014763841
141	0x3d93ada2	0.07210852
142	0xbd499a98	-0.049219698
143	0x3c6c1584	0.014409427
144	0x3c0e300f	0.00867845
145	0x3aeabd7b	0.0017909253
146	0x3cbaee7f	0.022818802
147	0xbcc16530	-0.02360782
148	0xbd2d83de	-0.042362086
149	0x3d03d2e5	0.032183547
150	0x3da6c289	0.081425734
151	0xbd94fb75	-0.07274524
152	0xbd126283	-0.03573848
153	0xbd20e320	-0.039279103
154	0xbb353399	-0.0027649163
155	0xbd87be29	-0.06628067
156	0x3db0b989	0.08629138
157	0xbccdf279	-0.025140034
158	0x3c7a3882	0.015272262
159	0xbe179616	-0.14803347
160	0xbadbf3e4	-0.0016781059
161	0xbd1bda0f	-0.038049754
162	0xbcfc5e00	-0.030806541
163	0x3db5137a	0.088416055
164	0xbd02f0cf	-0.031967934
165	0x3c64fb5d	0.013975945
166	0x3d2640f5	0.04058929
167	0x3e3eb8e3	0.18625216
168	0xbd13debf	-0.0361011
169	0x3da6c869	0.08143694
170	0x3de3fd8e	0.11132346
171	0xbbeabbf3	-0.0071635186
172	0x3de7ae51	0.11312545
173	0x3d333faa	0.043761887
174	0x3b4a2314	0.0030843662
175	0x3dac758c	0.08420858
176	0x3b8b083e	0.004242926
177	0xbcce8b4c	-0.025212906
178	0x3dd82d61	0.1055553
179	0x3d9757db	0.07389804
180	0xbe0e6d24	-0.13908821
181	0xbd623708	-0.055228263
182	0xbd84d16e	-0.06485258
183	0x3da7823d	0.08179138
184	0x3dc71869	0.09721453
185	0x3b8f3465	0.0043702596
186	0xbd88624c	-0.06659374
187	0xbca21b7c	-0.019788496
188	0xbc3f3b6b	-0.011671881
189	0xbccd29d2	-0.025044356
190	0xbdb2129c	-0.08694956
191	0xbceb5391	-0.028726371
192	0xbc9a6308	-0.01884605
193	0x3ca97a69	0.020688253
194	0xbc21c8ca	-0.009874532
195	0x3d51576c	0.051108763
196	0xbdaacf23	-0.083402894
197	0x3d7eb061	0.062179927
198	0xbd6c14bf	-0.057636973
199	0x3c16207a	0.009163016
200	0x3d6b7cd0	0.057492077
201	0xbc9a86de	-0.018863138
202	0x3d026800	0.031837463
203	0xbd5bb4ff	-0.05363941
204	0x3ce71303	0.028207308
205	0x3cc04115	0.023468534
206	0xbcee72e0	-0.029107511
207	0xbcb7d397	-0.022439761
208	0xbd567b3d	-0.052363623
209	0xbdb6b661	-0.08921505
210	0x3b560257	0.0032655203
211	0xbd771b4d	-0.06032877
212	0x3cd41e0f	0.02589324
213	0x3b9bf844	0.00475982
214	0x3c0baf85	0.008525734
215	0x3c387da5	0.011260425
216	0xbc66d8a3	-0.014089736
217	0xbd87c4ec	-0.06629357
218	0x3cd7d5df	0.026347099
219	0x3dc31225	0.09524945
220	0xbc8cb81d	-0.017177636
221	0xbd6fe770	-0.058570325
222	0xbbbec3ad	-0.005821666
223	0x3da2fcc4	0.079583675
224	0x3c3b762f	0.011441751
225	0x3d682733	0.05667801
226	0x3cca021f	0.024659215
227	0x3cca4d4e	0.024695065
228	0x3c0bce69	0.008533099
229	0xbc508db3	-0.012729096
230	0xbd196641	-0.037451033
231	0x3bb27617	0.0054462063
232	0xbcc1cf22	-0.023658339
233	0xbc006717	-0.0078370785
234	0x370f1786	8.528941e-06
235	0xbdb9b2e5	-0.090673245
236	0x3b9e9de3	0.004840599
237	0xbd9dbd79	-0.07702155
238	0x3cabf987	0.020993007
239	0xbca166cf	-0.019702343
240	0x3bf4e4cd	0.0074735642
241	0xbd5f7016	-0.054550253
242	0xbca3666e	-0.019946303
243	0xbc56fe39	-0.013122135
244	0x3ce1de63	0.027571863
245	0x3d378549	0.044804845
246	0xbd779f81	-0.06045485
247	0xbd0e080b	-0.03467564
248	0xbe01d6c1	-0.12679578
249	0xbdd64bc6	-0.104636714
250	0x3cae1cb2	0.021253917
251	0xbd08b41e	-0.033374898
252	0xbc083bc4	-0.0083150305
253	0x3c072c94	0.008250374
254	0xbcc4b25f	-0.024010835
255	0xbbad5a77	-0.0052903253

c2.bias f4 [64]
0	0x3cc2bf4f	0.023772864
1	0xbc404b5d	-0.011736718
2	0xbd788c55	-0.060680706
3	0xbd78c73e	-0.060736887
4	0x3c7ba664	0.015359495
5	0x3d00fc82	0.03149081
6	0xbbcfa58a	-0.0063368725
7	0x3c876b10	0.016530544
8	0x3aae9c3f	0.0013321711
9	0x3d010846	0.03150203
10	0x3c821cba	0.015882839
11	0x3b1f7823	0.0024333082
12	0x3bb30bd1	0.005464055
13	0x3d29f2ec	0.041491434
14	0xbd505bb3	-0.0508687
15	0xbd888331	-0.06665648
16	0xbcabecc0	-0.020986915
17	0xbd85b749	-0.065290995
18	0xbca8f5b2	-0.02062497
19	0x3b809747	0.0039242837
20	0xbd62fb75	-0.05541559
21	0xbd0dfc38	-0.034664363
22	0x3c3f5dd8	0.011680089
23	0xbc167fab	-0.009185712
24	0xbc8a8750	-0.016910225
25	0xbcb2789e	-0.02178603
26	0xbc0948ab	-0.008379142
27	0xbcef3a3f	-0.029202579
28	0x3c030ff6	0.007999411
29	0x3d00b3da	0.03142152
30	0x3d3971b2	0.045274444
31	0x3cc05f60	0.023482978
32	0xbd8e5c03	-0.069511436
33	0x3b13954b	0.0022519405
34	0xbd0618f5	-0.032738645
35	0x3c99529f	0.018716155
36	0x3c6ab868	0.014326192
37	0xbd61b416	-0.055103384
38	0xbce98621	-0.02850634
39	0x3be4ee08	0.0069863833
40	0x3cc4e901	0.024036886
41	0xbd1d424d	-0.038393307
42	0x3c1b30a8	0.00947205
43	0xbd0b8f27	-0.034072068
44	0x3cbe87dc	0.023258142
45	0xbc80d664	-0.01572723
46	0xbd343ae2	-0.044001468
47	0xbc87ad72	-0.016562197
48	0xb9cc8991	-0.00039012407
49	0x3cf7f065	0.030265996
50	0x3c9a4865	0.018833349
51	0x3c9fe5bc	0.019518726
52	0x3c90d7f3	0.017681098
53	0xbc54ae55	-0.012981017
54	0xbdac3ffb	-0.08410641
55	0xbd522a4b	-0.051309865
56	0x3cafb506	0.021448623
57	0xbd8c0773	-0.06837358
58	0xbd68c80c	-0.056831405
59	0xbc62147b	-0.013798828
60	0x3cff073f	0.031131385
61	0xbd929da2	-0.07158972
62	0xb9b4ed6d	-0.0003450917
63	0x3c211d0f	0.009833588

c3.weight f4 [256, 64, 3, 3]
0	0xbb8a5534	-0.004221583
1	0x3c0f19cd	0.008734179
2	0x3d2812e6	0.041033648
3	0x3d757613	0.059927057
4	0x3d12c362	0.035830863
5	0x3c561e6e	0.013068778
6	0xbbd45a89	-0.006480519
7	0x3d58efee	0.05296319
8	0xbd834b64	-0.06410864
9	0xbc89bb78	-0.016813025
10	0xbcf87a8a	-0.030331869
11	0xbd56c486	-0.052433513
12	0x3a3b8fa5	0.00071548886
13	0xbd6107e2	-0.05493916
14	0xbd0edf52	-0.034880944
15	0xbbc2fd5f	-0.0059506143
16	0xbd9ac23f	-0.07556581
17	0xbd44004d	-0.04785185
18	0x3c385b64	0.011252258
19	0x3d69f0b4	0.057114318
20	0xbc601bfd	-0.013678548
21	0x3bed0df7	0.0072343308
22	0x3d8ebdf1	0.06969822
23	0x3be993ca	0.0071282135
24	0x3d718eae	0.05897396
25	0x3c84d3a6	0.016214203
26	0xbc459090	-0.012058392
27	0x3e02dd7a	0.12779799
28	0x3db38220	0.08765054
29	0xbca17444	-0.01970876
30	0x3d371a94	0.04470308
31	0x3dae36c3	0.08506539
32	0x3d236acd	0.039896775
33	0x3d9cca11	0.076557286
34	0x3d82dbfd	0.06389616
35	0x3d4917d2	0.049094982
36	0xbcdae535	-0.026720623
37	0xbb534c2d	-0.003224145
38	0xbb3e4af4	-0.0029036375
39	0xbc8a2cab	-0.016867002
40	0x3b6104e8	0.00343352
41	0x3cd17d2e	0.025572386
42	0xbcefc43c	-0.029268377
43	0xbd6a9978	-0.057275265
44	0xbd4c1bd7	-0.049831238
45	0xbd8c1e3c	-0.06841704
46	0xbdd2f7f1	-0.10301197
47	0xbcc2d206	-0.023781788
48	0x3ca56c86	0.02019335
49	0x3c02a7a7	0.007974542
50	0x3bb0a732	0.005391025
51	0xbc322b20	-0.01087454
52	0x3c20364f	0.009778573
53	0xbda580f6	-0.08081238
54	0xba3a143e	-0.0007098353
55	0xbc1df535	-0.009640981
56	0x3c10087b	0.008791084
57	0xbc84f89e	-0.016231831
58	0xbd41bfec	-0.04730217
59	0xbd8c6d2a	-0.06856759
60	0xbb979d56	-0.00462691
61	0xbd76ca0d	-0.060251284
62	0xbd4d3a77	-0.050104585
63	0xbc639003	-0.013889316
64	0xbe0bc054	-0.13647586
65	0xbdc4ce52	-0.09609665
66	0xbce0278b	-0.027362606
67	0xbdee4641	-0.116344936
68	0xbda34745	-0.07972578
69	0xbd010fc9	-0.031509195
70	0xbd30542e	-0.04304903
71	0xbd8801f0	-0.066409945
72	0xbd26c79b	-0.040717702
73	0xbdc9725d	-0.09836266
74	0x3b68a063	0.0035495989
75	0x3d5ba9d2	0.05362875
76	0xbd8a12aa	-0.06741841
77	0xbd68f5a6	-0.056874894
78	0xbaf0ffa3	-0.0018386733
79	0xbd0679df	-0.03283107
80	0x3c9c57f4	0.019084908
81	0xbcde0479	-0.027101742
82	0xbcfed3ef	-0.031106917
83	0x3b9d26eb	0.004795899
84	0xbd14a3c6	-0.036289
85	0xbd0e16a3	-0.034689557
86	0xbd5cd594	-0.05391462
87	0xbd002065	-0.031280894
88	0xbd546349	-0.0518525
89	0xbd90a9b7	-0.070636205
90	0xbd3ecbf6	-0.04658123
91	0xbd02c078	-0.031921834
92	0xbd28647b	-0.04111145
93	0x3ce42b49	0.027852671
94	0xbdb362d5	-0.08759085
95	0xbcea537b	-0.02860426
96	0x3cdc8268	0.026917651
97	0xbca841f5	-0.020539263
98	0xbcd65e82	-0.026168112
99	0x3d887ea6	0.06664781
100	0x3d1be190	0.03805691
101	0x3c4f2b94	0.012644667
102	0x3bf84d71	0.007577591
103	0xbc49bcb8	-0.01231306
104	0x3beb0881	0.0071726446
105	0x3d962be1	0.07332588
106	0x3d629460	0.055317283
107	0x3c3be53f	0.011468231
108	0x3db090a2	0.086213365
109	0x3c6bef41	0.014400304
110	0xbccc0662	-0.024905387
111	0x3d89fa18	0.06737155
112	0x3bcf2de8	0.006322611
113	0x3d46d9a1	0.04854739
114	0x3d5a94e8	0.053364664
115	0x3c00df9e	0.0078658145
116	0xbd1b9d32	-0.03799171
117	0xbca6bd36	-0.020353895
118	0xbe0ff5c0	-0.1405859
119	0xbe163ddc	-0.14672035
120	0xbd395128	-0.045243412
121	0xbdebba86	-0.11510186
122	0xbde28ffc	-0.11062619
123	0xbcb649a2	-0.022251908
124	0xbd8a4979	-0.06752295
125	0xbd82ad8a	-0.06380756
126	0xbcdab8d6	-0.026699465
127	0x3c8f74b3	0.017511701
128	0xbce1005b	-0.02746599
129	0x3d57fda1	0.052732114
130	0x3c23e04d	0.010002208
131	0x3c62a9dc	0.013834443
132	0x3d0dcc34	0.03461857
133	0x3d21ac9b	0.03947125
134	0x3cc9403e	0.024566766
135	0x3dac00af	0.08398568
136	0x3d530422	0.051517613
137	0xbc5c35db	-0.0134405745
138	0x3d10b0a9	0.035324726
139	0x3ceb6a95	0.028737346
140	0x3ca1b556	0.019739788
141	0x3b939d98	0.0045048706
142	0x3d406ffc	0.046981797
143	0x3da45fae	0.08026062
144	0x3c238f9f	0.009982972
145	0xbdca88f4	-0.09889403
146	0xbd464da8	-0.048413903
147	0x3cdbb23b	0.026818385
148	0xbd0c3b1d	-0.034236062
149	0xbbeb1954	-0.00717465
150	0xbd76b03d	-0.060226668
151	0xbd328f0a	-0.043593444
152	0xbc1e7e3d	-0.009673652
153	0x3db187ac	0.086684555
154	0x3d843cb0	0.06456888
155	0x3c8f0379	0.01745771
156	0x3e030140	0.12793446
157	0x3d90a4ff	0.070627205
158	0x3d1380e1	0.03601158
159	0x3db69336	0.08914797
160	0x3e0e56b2	0.13900259
161	0x3ce4dfae	0.02793869
162	0xbcc3e073	-0.023910737
163	0xbd9234a8	-0.0713895
164	0xbd8bca65	-0.06825713
165	0xbc946945	-0.018116603
166	0xbb80cf88	-0.0039309897
167	0x3cbb6491	0.022875102
168	0xbd0f7436	-0.035022937
169	0xbccc2ec5	-0.024924645
170	0xbd039766	-0.032126807
171	0x3cc449ea	0.023961026
172	0x3c07242b	0.008248369
173	0xbbc1b966	-0.005911994
174	0x3d3e5eaf	0.046477016
175	0x3d199bda	0.037502147
176	0x3d3920d5	0.045197327
177	0x3dd4c24f	0.10388624
178	0x3cbee03c	0.023300283
179	0x3c9e5f5a	0.019332577
180	0x3d31fbd4	0.043453053
181	0xbd0ac244	-0.033876672
182	0xbd3a1cee	-0.045437746
183	0x3d415b63	0.047206294
184	0x3c5d8757	0.013521037
185	0xbd44c778	-0.04804179
186	0x3cc479c0	0.023983836
187	0xbd0820d4	-0.033234432
188	0xbc6765c1	-0.014123381
189	0x3da80a55	0.08205096
190	0x3dd3cf76	0.103423044
191	0x3d888c63	0.06667402
192	0x3dd8c0e7	0.10583668
193	0x3dedcc57	0.1161124
194	0x3dd58a17	0.10426729
195	0x3da39061	0.079865225
196	0x3dee5c06	0.11638646
197	0x3db2b207	0.08725362
198	0x3d66955c	0.056294784
199	0x3d1760ff	0.036957737
200	0x3cb25b1c	0.02177196
201	0x3da781d3	0.08179059
202	0x3c6db113	0.01450755
203	0xbb8865a7	-0.0041625085
204	0x3d5e9e21	0.054350022
205	0x3d0d9a4c	0.034570977
206	0x3d642dd8	0.055707783
207	0x3d05132d	0.03248899
208	0x3c905d60	0.01762265
209	0xbc17172f	-0.009221836
210	0xbc7869de	-0.015161959
211	0xbc44287b	-0.011972542
212	0xbc0966d2	-0.008386331
213	0x3d9de321	0.07709337
214	0x3d3e2643	0.046423208
215	0x3ca70a53	0.020390665
216	0x3dbc7dc0	0.092036724
217	0x3c8ccf61	0.01718873
218	0x3c37450a	0.011185894
219	0x3d3827ea	0.04495994
220	0x3da9bcdd	0.08287976
221	0x3d343e04	0.044004455
222	0x3dca5ddc	0.098811835
223	0x3d572516	0.052525602
224	0xbd553b6c	-0.052058622
225	0x3d130610	0.035894454
226	0xbc5d3751	-0.013501958
227	0x3c424505	0.011857276
228	0xbbfcf249	-0.0077193123
229	0xbcc625af	-0.02418789
230	0xbb53d9f5	-0.0032325957
231	0xbc048e52	-0.008090572
232	0xbc8f9133	-0.017525291
233	0xbb7a7c11	-0.0038220922
234	0xbc069ca0	-0.008216053
235	0xbe00dfb5	-0.12585337
236	0xbe12af10	-0.14324594
237	0xbb3d4074	-0.0028877528
238	0xbc911ce9	-0.01771398
239	0x3bc1f260	0.005918786
240	0xbd166ef3	-0.036726903
241	0xbd3dad87	-0.046308067
242	0x3c4da00d	0.012550366
243	0xbc2752ad	-0.010212583
244	0x3ca7f8c8	0.02050437
245	0xbd0200ad	-0.031738926
246	0xbc6349f9	-0.013872617
247	0xbc3fa447	-0.011696882
248	0xbcf7d357	-0.030252142
249	0xbcae56ec	-0.021281682
250	0xb8be5cab	-9.077167e-05
251	0xbd23a30d	-0.03995042
252	0x3cab7935	0.02093182
253	0x3cbe42c3	0.023225194
254	0xbcab7663	-0.020930475
255	0x3d74ccdd	0.059765685

c3.bias f4 [256]
0	0x3d56bc09	0.052425418
1	0x3d267d9f	0.040647145
2	0x3d3aca53	0.045603108
3	0x3c06c699	0.00822606
4	0xbce5d889	-0.028057354
5	0x3b1d9bc1	0.0024049135
6	0xbc74f83c	-0.014951762
7	0x3c6c3f40	0.014419377
8	0xbcfeef6f	-0.03112003
9	0xbcee7fed	-0.029113734
10	0x3c279356	0.010227999
11	0x3d442996	0.047891222
12	0xbd78f375	-0.060779054
13	0xbccf6f4b	-0.025321623
14	0x3cc0dcbf	0.02354276
15	0xbd6ae494	-0.057346895
16	0xbcedd99a	-0.029034425
17	0xbc3e19f1	-0.011602865
18	0xbbc7de19	-0.006099474
19	0xbd5bfeec	-0.05370991
20	0xbce79743	-0.02827037
21	0x3bd294ed	0.0064264447
22	0xbd5f616c	-0.054536268
23	0xbd313583	-0.043263923
24	0xbd95fd69	-0.07323725
25	0xbcbc7af5	-0.02300785
26	0xbc30dcaf	-0.010794803
27	0x3d069f64	0.03286685
28	0xbd105d7f	-0.035245415
29	0xbd81d838	-0.063400686
30	0x3bacf709	0.0052784723
31	0x3cbde7fd	0.02318191
32	0xbcc0d4b7	-0.02353893
33	0xbd8570a2	-0.06515624
34	0x3bab64fc	0.005230544
35	0x3c4fd077	0.012683979
36	0xbcc4c33e	-0.02401888
37	0xbd1a63f1	-0.037692968
38	0xbca8c382	-0.020601038
39	0xbd7c7fed	-0.061645437
40	0xbd0b1a09	-0.033960376
41	0xbc4aa21f	-0.012367754
42	0x3cb15c18	0.021650359
43	0xbcb38244	-0.021912701
44	0xbd422c4e	-0.047405533
45	0x3d141b3b	0.03615878
46	0xbd50e9bb	-0.051004153
47	0xbcf9e5e4	-0.030505128
48	0x3ca7fb91	0.020505698
49	0x3b954106	0.0045548705
50	0xbd9d26c4	-0.076734096
51	0xbc32cf18	-0.010913633
52	0xbcb9ed9c	-0.022696309
53	0xbd580f46	-0.05274894
54	0xbd01bb3d	-0.031672705
55	0x3d27ae64	0.040937796
56	0xbd3d7761	-0.046256427
57	0xbc8edba4	-0.017438717
58	0x3b7258a8	0.0036979113
59	0x3c95774b	0.01824536
60	0x3cc1814d	0.023621226
61	0xbd08f053	-0.033432316
62	0xbd10dab1	-0.03536481
63	0xbcbceeed	-0.023063147
64	0xbcd26e3b	-0.025687328
65	0xbd8addb1	-0.067805655
66	0x3cd07d4b	0.02545037
67	0x3cf656b2	0.030070636
68	0xbb5c0843	-0.003357426
69	0x3d52991a	0.05141554
70	0xbce47b09	-0.027890699
71	0x3c82c7b6	0.01596437
72	0x3c51c639	0.012803608
73	0xbbee5c11	-0.0072741588
74	0x3c4b1fb6	0.012397697
75	0x3d2cece2	0.042218097
76	0xbd7d7a8d	-0.06188445
77	0xbd6fdca2	-0.05856002
78	0x3c6419f9	0.013922208
79	0x3d0d6bfb	0.034526806
80	0xbc0def98	-0.008663081
81	0x3bcb0699	0.006195855
82	0xbd5d2e15	-0.053999025
83	0xbd36abfe	-0.04459762
84	0xbd8624f5	-0.06550018
85	0xbbcf5b6e	-0.006328038
86	0xbd2e6535	-0.042576987
87	0x3c21ba88	0.009871133
88	0xbd24a20f	-0.040193614
89	0x3c950f40	0.018195748
90	0xbc4a6b6c	-0.012354713
91	0x3c162fd2	0.009166675
92	0x3bb8780d	0.0056295455
93	0x3d119d77	0.03555056
94	0x3ca98ef8	0.020698056
95	0xbc9058da	-0.017620493
96	0xbd67d8d1	-0.056603257
97	0x3d0ee9c4	0.034890905
98	0xbb016c30	-0.0019748323
99	0x3bd76f1e	0.0065745255
100	0xbc911bd6	-0.017713469
101	0x3c5c11e9	0.0134320045
102	0xbd52634a	-0.05136422
103	0x3cbb4f12	0.022864852
104	0x3cb94972	0.02261803
105	0xbd5a8352	-0.053347893
106	0xbce5c368	-0.028047279
107	0x3c29a060	0.010353178
108	0x3bda0f91	0.0066546877
109	0xbd671773	-0.056418847
110	0x3c8b33ac	0.016992413
111	0xbc934918	-0.01797919
112	0xbc9c16f3	-0.019053912
113	0xbd9cf646	-0.076641604
114	0xbce90d87	-0.028448833
115	0x39ae83cf	0.0003328607
116	0x3d1ff739	0.03905413
117	0xbd1c96ab	-0.038229626
118	0x3c492b7d	0.012278435
119	0x3c02603e	0.007957516
120	0xbd886cd2	-0.06661381
121	0xbc908e22	-0.0176459
122	0xbc0eacf5	-0.008708228
123	0x3ca2abcd	0.019857312
124	0xba8a21e2	-0.0010538662
125	0xbcc4f946	-0.024044644
126	0xbc88e65a	-0.016711403
127	0xbd45a589	-0.04825357
128	0x3d3fa61d	0.046789277
129	0xbd64b0c7	-0.05583265
130	0x39b8954c	0.0003520645
131	0x3cf719fc	0.030163758
132	0xbd97674a	-0.07392748
133	0x3c790a30	0.015200183
134	0x3c22f292	0.009945529
135	0xbbdf858a	-0.006821339
136	0xbc636541	-0.013879121
137	0xbd439eeb	-0.047758978
138	0x3ca31ee7	0.019912196
139	0xbd18c2ce	-0.037295155
140	0x3c24fd84	0.010070208
141	0xbd3a5f3a	-0.04550097
142	0xbd0419ea	-0.032251276
143	0xbca09eb7	-0.019606931
144	0xbcd40a48	-0.025883809
145	0xbc1c40d8	-0.009536944
146	0xbc3ea882	-0.011636855
147	0x3cf7004f	0.030151514
148	0x3b4047f7	0.002933977
149	0xbd23045e	-0.039799087
150	0x3d1cb628	0.038259655
151	0x3cacf6da	0.021113802
152	0x3cd048d2	0.025425348
153	0x3c5a40b0	0.013321087
154	0xbbf76d7e	-0.0075508943
155	0xbd236fe1	-0.039901618
156	0xbcc909bf	-0.02454078
157	0x3d6b644a	0.05746869
158	0xbc59f8e0	-0.013303965
159	0x3c72a47d	0.014809725
160	0x3d1108aa	0.035408653
161	0x3c9fbcce	0.019499209
162	0x3cd085ce	0.025454428
163	0xbd87f60d	-0.06638727
164	0x3cdbc479	0.026827084
165	0xbc91759c	-0.017756276
166	0x3cd72d5c	0.026266746
167	0xba487bf9	-0.0007647868
168	0xbcb25362	-0.021768276
169	0x3cff164b	0.03113856
170	0xbc34f677	-0.01104509
171	0xb986fecb	-0.00025748307
172	0xbb93d056	-0.0045109196
173	0x3cbb0e1b	0.022833874
174	0xbd306ffb	-0.043075543
175	0xbc27bcbd	-0.01023787
176	0xbd655430	-0.05598849
177	0xbcd707f3	-0.026248908
178	0x3cba82a2	0.022767369
179	0x3d40708c	0.046982333
180	0xbc015248	-0.007893153
181	0x3c02c67b	0.007981892
182	0x3aff17df	0.001946207
183	0xbd18e649	-0.037328992
184	0xbd7fdae9	-0.06246463
185	0xbabfdf6c	-0.0014638728
186	0x3cba8da0	0.02277261
187	0xbd418026	-0.047241352
188	0xbcef3114	-0.029198207
189	0x3d07b43a	0.03313086
190	0xbd605923	-0.054772507
191	0xbd10f872	-0.035393186
192	0xbd6a35a9	-0.05718008
193	0x3cba02b0	0.02270636
194	0xbbd8b222	-0.006613032
195	0x3cc5789a	0.024105359
196	0xbdb997cb	-0.09062155
197	0xbc28323c	-0.010265883
198	0xbd43532d	-0.047686744
199	0x3ba1bbf8	0.0049357377
200	0xbc9b02ea	-0.018922288
201	0xbcb06000	-0.021530151
202	0x38c0e058	9.197061e-05
203	0x3cdffa61	0.02734107
204	0xbd4e90b0	-0.050430954
205	0xbc2023b6	-0.009774139
206	0xbd8203f5	-0.06348411
207	0x3c025865	0.007955645
208	0x3c94e937	0.018177612
209	0xbc52bd7d	-0.01286256
210	0xbd8c36df	-0.06846403
211	0xbd22793f	-0.03966641
212	0x3d3098ca	0.04311446
213	0xbd1f1230	-0.038835704
214	0x3d35e603	0.04440881
215	0x3d2ca047	0.04214504
216	0xbc347f84	-0.01101673
217	0xbcd16c52	-0.025564346
218	0xbd0e3352	-0.03471691
219	0xbd55af4b	-0.052169126
220	0x3c248269	0.010040858
221	0x3d71e9e9	0.059060965
222	0x3c1d3c13	0.009596842
223	0x3d500680	0.05078745
224	0x3acc9abb	0.0015610078
225	0x3b81d89b	0.003962589
226	0xbd4020f1	-0.046906415
227	0xbc7f5e99	-0.015586519
228	0xbd2bdeb4	-0.041960433
229	0xbd681d8f	-0.056668814
230	0xbd80495e	-0.06263994
231	0x3c35bf53	0.0110929785
232	0x3b398711	0.0028309266
233	0x3bb32415	0.005466948
234	0x3d5458cf	0.051842507
235	0xbd2de93a	-0.04245875
236	0xbc2e74cb	-0.010647963
237	0x3c3a19c5	0.011358683
238	0xbd19cde8	-0.037549883
239	0x3c166574	0.009179462
240	0x3c497949	0.012296983
241	0xbcb9f390	-0.022699147
242	0x3c2a4786	0.010393029
243	0xbd11828d	-0.035524894
244	0xbc2e7d05	-0.010649924
245	0xbcb239c2	-0.021756057
246	0xbd00c6c9	-0.031439576
247	0x3cec7b66	0.028867435
248	0xbd48b4bb	-0.049000483
249	0x3cd0b3fb	0.025476446
250	0x3cb92922	0.022602621
251	0x3d0b856a	0.03406278
252	0xbd65cc29	-0.056102905
253	0xbb87f3f1	-0.004148953
254	0xbd4ad925	-0.04952349
255	0x3d08986f	0.033348497

fc1.weight f4 [64, 256]
0	0xbcfcff75	-0.03088353
1	0x3b7838f7	0.003787575
2	0xbc71932e	-0.014744563
3	0x3ba2b76f	0.0049657146
4	0x3aa24a66	0.0012381792
5	0xbb6df6a5	-0.0036310342
6	0xbdb29b0f	-0.08720981
7	0x3b27f673	0.0025629073
8	0xbcac1f54	-0.021011032
9	0x3da36d30	0.0797981
10	0x3d2bb4ff	0.04192066
11	0xbc4ed093	-0.01262297
12	0x3c84dedc	0.016219549
13	0xbd40cfd8	-0.047073215
14	0xbd3268fb	-0.04355715
15	0x3da1f032	0.07907142
16	0xbcdc67ef	-0.026905028
17	0xbd58c17f	-0.052918907
18	0x3d55666b	0.052099627
19	0x3cb86698	0.022509858
20	0xbd2785cc	-0.040899083
21	0xbd741aa4	-0.05959572
22	0x3c8c2911	0.017109426
23	0xbc859749	-0.01630749
24	0x3cf6ec45	0.030141959
25	0x3d93e164	0.07220724
26	0x3d673604	0.056447998
27	0xbbacf335	-0.005278016
28	0xbdb8290e	-0.089922056
29	0x3da44d7c	0.080225915
30	0x3bc3b8a0	0.0059729367
31	0x3d48bee5	0.049010176
32	0x3c9f1c14	0.019422568
33	0x3afb521f	0.0019174254
34	0x3ced285a	0.028949905
35	0xbd1242fc	-0.035708413
36	0x3d1dda94	0.03853853
37	0xba9ee97d	-0.0012124028
38	0x3d485751	0.048911396
39	0x3cf73257	0.030175371
40	0xbbb000e5	-0.0053712004
41	0x3d1786b9	0.036993716
42	0x3c8c254c	0.017107628
43	0xbda80797	-0.08204573
44	0xbcb8eec5	-0.022574792
45	0x3cfbaad7	0.030721111
46	0x3d02b239	0.031908248
47	0xbdb23385	-0.08701233
48	0xbd88c64f	-0.06678449
49	0xbb59cf9a	-0.0033235312
50	0x3dc94bb7	0.098288946
51	0xbd551562	-0.052022345
52	0xbca03161	-0.019554796
53	0x3d4a9f73	0.04946847
54	0xbc652c04	-0.013987545
55	0x3d461551	0.048360173
56	0x3c6d775f	0.014493792
57	0xbcfc178d	-0.030772949
58	0x3d0aa718	0.03385076
59	0xbd11304b	-0.035446446
60	0xbbbf7192	-0.005842396
61	0x3ceecbb9	0.029149877
62	0x3d823652	0.06358017
63	0xbd795dcd	-0.06088047
64	0x3d74df6d	0.059783388
65	0x3d8e803e	0.06958054
66	0x3b35607f	0.0027675924
67	0xbd022eaf	-0.031782802
68	0xbbc70c99	-0.0060745
69	0x3ce8128c	0.028329156
70	0xbc1be0aa	-0.009514013
71	0xbd6d3798	-0.057914346
72	0xbc7f2b14	-0.0155742355
73	0xbd2acb3c	-0.041697726
74	0x3dc76288	0.0973559
75	0xbb3306d0	-0.0027317293
76	0x3dc88d5b	0.097925864
77	0x3c42ce66	0.01189003
78	0xbba40d66	-0.00500648
79	0x3c0caf21	0.008586676
80	0x3d076e20	0.033064008
81	0x3d60e340	0.054904222
82	0x3d9785fc	0.07398602
83	0x3dba0080	0.090821266
84	0xbc2ab6d6	-0.010419568
85	0xbb86091d	-0.004090442
86	0x3d1a686c	0.03769724
87	0x3c1e5ac7	0.009665198
88	0x3c34ab7c	0.011027213
89	0xbd13fd8b	-0.03613047
90	0x3d892517	0.066965275
91	0x3d5d955b	0.054097515
92	0x3b886f49	0.004163657
93	0xbd111862	-0.035423644
94	0xbc821bde	-0.015882429
95	0x3d165659	0.03670344
96	0x3dd485ec	0.10377106
97	0x3c4a9a76	0.012365928
98	0xbdaa43e3	-0.083137296
99	0xbcee536b	-0.029092511
100	0x3d19e387	0.037570503
101	0x3d1ea88d	0.03873496
102	0x3dc7b566	0.09751396
103	0xbba8016a	-0.0051271217
104	0x3d5de0d4	0.05416949
105	0x3cf6f280	0.03014493
106	0xbd74f952	-0.059808083
107	0x3c46a2af	0.012123748
108	0xbc4ad7c9	-0.012380549
109	0x3d59e9c4	0.053201452
110	0xbd1a1a99	-0.03762302
111	0xbcb75f04	-0.022384174
112	0xbcfdb32e	-0.030969229
113	0x3def81c5	0.116946734
114	0xbc15deef	-0.00914739
115	0xbdd5e99c	-0.10444948
116	0xbcb0bec5	-0.021575341
117	0x3ce35c87	0.027754081
118	0x3d07352d	0.033009697
119	0x3b4cbf8e	0.0031242105
120	0x3a8f28a7	0.001092215
121	0xbd7089b3	-0.05872507
122	0xbcf40e01	-0.029791834
123	0xbc7b3aad	-0.015333814
124	0xbcbdb486	-0.02315737
125	0x3ddceee4	0.10787752
126	0x3cea627b	0.028611412
127	0x3bd854c6	0.0066019027
128	0xbca3fbea	-0.020017583
129	0xbcae6844	-0.021289952
130	0x3d2902c7	0.041262414
131	0xbda60698	-0.081067264
132	0x3d94094c	0.07228336
133	0x3cb1d367	0.02170725
134	0x3daf5894	0.08561817
135	0x3d5005f8	0.050786942
136	0xbd3f8545	-0.046757955
137	0x3dccb64e	0.09995709
138	0xbd8c4922	-0.068498865
139	0xbd570bc6	-0.052501462
140	0x3a650347	0.0008736145
141	0xbd990a10	-0.074726224
142	0x3cd110ee	0.025520768
143	0xbd262e80	-0.04057169
144	0xbde94fd9	-0.11392183
145	0xbcb837ac	-0.022487484
146	0x3cfc73cc	0.030816935
147	0xbcae9d6c	-0.021315299
148	0x3ce640ed	0.02810713
149	0x3da5dbda	0.08098574
150	0x3c481c14	0.012213726
151	0x3d83244e	0.06403409
152	0x3d85dd96	0.06536405
153	0x3d82c5a1	0.06385351
154	0x3d392a94	0.04520662
155	0x3c93bafb	0.018033495
156	0x3d32af22	0.04362405
157	0x3c08f7e8	0.008359887
158	0x3cd54998	0.026036069
159	0x3cf8fa7c	0.030392878
160	0x3c89c9da	0.016819883
161	0xbd6a7288	-0.05723813
162	0xbbc0786a	-0.0058737295
163	0x3b4ca70f	0.0031227504
164	0xbd7172e3	-0.058947455
165	0x3a6d2eed	0.0009047825
166	0x3d9a68e2	0.07539536
167	0xbd3e0b5e	-0.04639756
168	0xbc3d6735	-0.011560251
169	0xbd83d227	-0.06436568
170	0x3d88a90a	0.06672867
171	0xbc335afa	-0.0109469835
172	0x3d6a05aa	0.057134308
173	0x3c15494f	0.009111716
174	0x3dc5531b	0.09634992
175	0xbcda8caa	-0.026678402
176	0x3d0ea70a	0.03482727
177	0x3da45f34	0.08025971
178	0x3c820ec6	0.015876185
179	0x3c7070a4	0.014675293
180	0xbcb1378a	-0.021632928
181	0xbd4019ac	-0.046899483
182	0x3da15afe	0.078786835
183	0xbd23738c	-0.039905116
184	0x3cd1f47b	0.025629273
185	0x3cfaf6fc	0.03063535
186	0xbdaaa633	-0.08332481
187	0x3dd107a5	0.10206536
188	0xbd1cae35	-0.038252074
189	0x3d2ae15c	0.041718826
190	0x3d26b868	0.040703207
191	0x3d8cd83b	0.0687718
192	0x3d43b031	0.04777545
193	0x3d1309e4	0.035898104
194	0x3d14357d	0.036183823
195	0xbc87c1f7	-0.016571982
196	0x39239b59	0.00015602763
197	0xbc65a62d	-0.01401667
198	0x3c593097	0.013256214
199	0xbd5a9d72	-0.053372808
200	0xbc3f9448	-0.011693068
201	0xbc2bc5af	-0.010484143
202	0xbbf39c35	-0.007434393
203	0x3d25afad	0.04045074
204	0x3d1dac4f	0.038494404
205	0x3c29d386	0.0103653725
206	0x3d6398d4	0.05556567
207	0xbd30de85	-0.04318096
208	0x3d14a674	0.036291555
209	0xbcfb354e	-0.030665066
210	0xbbadd053	-0.005304375
211	0x3d26b8fb	0.040703755
212	0x3c78f1c6	0.015194362
213	0x3cdd205d	0.026992971
214	0x3d5165ab	0.05112235
215	0x3d29e211	0.04147536
216	0x3d3194df	0.043354865
217	0x3c9819b0	0.018566936
218	0xbb0db753	-0.0021624162
219	0x3b4d8818	0.0031361636
220	0x3b3bfa7b	0.0028683234
221	0xbca961c4	-0.020676501
222	0x3c37f168	0.011226989
223	0xbc14c015	-0.009078999
224	0x3cb31995	0.021862784
225	0xbc75cc44	-0.015002314
226	0x3d9caf3c	0.07650611
227	0x3cac78df	0.02105373
228	0xbd42cdc4	-0.047559515
229	0x3835c7c0	4.3339795e-05
230	0x3d32ddc1	0.043668512
231	0xbd304959	-0.0430387
232	0xbd16fbef	-0.036861356
233	0x3c37e807	0.011224753
234	0xbcb79ea4	-0.022414513
235	0xbc871e96	-0.016494077
236	0x3bdaf1a1	0.0066816364
237	0x3d4c8249	0.049928937
238	0xbd9f6fcf	-0.07784998
239	0x3c8ffc0c	0.01757624
240	0x3c974237	0.01846419
241	0xbd30317e	-0.04301595
242	0x3cb5c9f0	0.022191018
243	0x3c0e475a	0.008684004
244	0xbd374cd0	-0.04475099
245	0x3d948b53	0.072531365
246	0xbcc6aadc	-0.024251394
247	0xbc79fabf	-0.015257536
248	0x3daba8b1	0.08381785
249	0x3b483c09	0.0030553362
250	0x3bedd397	0.0072578895
251	0x3cf118ff	0.029430864
252	0x3d889472	0.06668939
253	0xbce11197	-0.027474208
254	0x3cd9f238	0.026604757
255	0xbcb87504	-0.022516735

fc1.bias f4 [64]
0	0xbd897d93	-0.067134045
1	0xbc029eb2	-0.007972406
2	0x3da58296	0.08081548
3	0xbd68867c	-0.05676888
4	0x3c46d3c0	0.012135446
5	0x3ddf7e5a	0.109127715
6	0xbd4d6da4	-0.05015339
7	0x3d8cb6c2	0.06870796
8	0x3c22e30e	0.009941829
9	0xbcc4dd41	-0.024031283
10	0xbce062a0	-0.027390778
11	0xbd57066a	-0.05249635
12	0xbcf09cf4	-0.029371716
13	0xbaa68dd6	-0.0012707065
14	0xbcc42032	-0.023941133
15	0xbab3baad	-0.001371225
16	0x3ccc7710	0.024959117
17	0x3d9601bd	0.0732455
18	0x3baf49e3	0.005349384
19	0x3cb95505	0.022623548
20	0x3da7584d	0.08171139
21	0xbd19954c	-0.037495896
22	0x3ccc5083	0.024940735
23	0x3c4e6822	0.012598069
24	0x3d814147	0.06311279
25	0x3cb18b9a	0.021673013
26	0x3cb27f3b	0.021789184
27	0xbd11c502	-0.035588272
28	0x3d94f692	0.07273592
29	0x3d40ff41	0.04711843
30	0x3cb91e1b	0.022597363
31	0xba223556	-0.0006187757
32	0x3dba22fe	0.090887055
33	0x3c84ecc9	0.01622619
34	0xbd0a1929	-0.0337154
35	0x3cdfad5e	0.027304348
36	0x3d36a24d	0.044588376
37	0x3c33e9fa	0.010981077
38	0x3bd50580	0.0065009
39	0xbb9ab50e	-0.0047212904
40	0x3db3a7c2	0.08772232
41	0xbd073eab	-0.03301875
42	0x3db0a54c	0.08625278
43	0xbd6bf262	-0.0576042
44	0x3c239380	0.009983897
45	0xbd3c0f6a	-0.045913137
46	0xbd1e2ef1	-0.038618986
47	0x3c3f6af9	0.011683219
48	0xbd114e29	-0.03547493
49	0x3d69bbb5	0.057063777
50	0x3bc67ef5	0.006057615
51	0xbd64f0b9	-0.055893634
52	0xbd29370d	-0.041312266
53	0x3cc36ad1	0.023854645
54	0xbd4ec736	-0.05048295
55	0xbd4e5634	-0.05037518
56	0x3d686477	0.056736436
57	0xbc9f2443	-0.01942647
58	0xbd3495ea	-0.04408828
59	0x3d7ca56c	0.061681196
60	0xbd2da719	-0.042395685
61	0x3cbb36f0	0.022853345
62	0x3df2975b	0.11845275
63	0x3de566e4	0.112012655

fc2.weight f4 [5, 64]
0	0xbe22fb8f	-0.15916274
1	0xbd27cccf	-0.040966805
2	0x3e288c51	0.16459776
3	0x3daf616e	0.08563505
4	0xbcacc375	-0.021089295
5	0x3dfb5fa4	0.122741014
6	0x3ce221f0	0.027604073
7	0x3d673025	0.0564424
8	0xbd6e9482	-0.058247097
9	0xbcb700ca	-0.022339243
10	0xbe1e30be	-0.15448281
11	0x3d967156	0.07345836
12	0xbcd66a5e	-0.026173767
13	0xbd90be84	-0.07067588
14	0x3d36fe8b	0.044676345
15	0xbc675090	-0.014118329
16	0x3a0f1cbc	0.0005459299
17	0x3e51782a	0.20455995
18	0xbc941ee8	-0.018081143
19	0x3dcfc51c	0.101450175
20	0x3c5044d6	0.012711724
21	0x3cce84ee	0.02520987
22	0x3d7d5b48	0.06185463
23	0x3bb61b5c	0.0055574607
24	0x3cdd0018	0.026977584
25	0x3d853de6	0.06505947
26	0xbda4dfc3	-0.08050492
27	0xbdd4d4c8	-0.10392147
28	0x3e24b290	0.16083741
29	0x3b2f14a8	0.0026715193
30	0x3df87a14	0.121326596
31	0xbdcaff08	-0.099119246
32	0x3dc6b2b3	0.09702053
33	0xb938065f	-0.00017549981
34	0x3d9f018b	0.07763966
35	0x3df2bbcf	0.11852228
36	0xbb9f4afb	-0.0048612333
37	0xbd02f23c	-0.031969294
38	0x3e003ed2	0.12523964
39	0x3dae25f4	0.08503333
40	0x3e0528ea	0.13003889
41	0xbdf1f2ef	-0.11813914
42	0x3d32aa85	0.04361965
43	0xbd4c6354	-0.049899414
44	0x3e32a41b	0.17445414
45	0xbc955a88	-0.018231645
46	0xbcc4b5e6	-0.024012517
47	0xbc852d69	-0.016257005
48	0xbe2a717b	-0.16644852
49	0xbb6b5d9d	-0.0035913952
50	0x3d1a498f	0.037667807
51	0xbc96ba66	-0.018399429
52	0x3d19320f	0.037401255
53	0xbde46245	-0.11151556
54	0xbdeb29bd	-0.1148257
55	0x3cb62f1c	0.02223926
56	0x3cc9b294	0.024621285
57	0x3d4790d3	0.0487221
58	0x3cf78cf4	0.030218579
59	0x3dd5ca4e	0.10438977
60	0xbd6f6228	-0.05844322
61	0x3df8783e	0.121323094
62	0x3dfc1981	0.12309552
63	0xbd08f58c	-0.033437297
64	0xbce7f1af	-0.028313486
65	0x3bcec2f5	0.006309862
66	0x3c7760bd	0.015098748
67	0x3d8ec5b6	0.06971304
68	0xbd9ab66d	-0.07554326
69	0x3d270426	0.04077544
70	0x3d828859	0.063736625
71	0x3da1e726	0.07905416
72	0x3e46bc17	0.19407688
73	0xbdbb3fa2	-0.09142996
74	0xbe0bdb1b	-0.13657801
75	0x3e05eb7c	0.13078111
76	0x3e3897cb	0.18026654
77	0xbc1cf6dd	-0.009580341
78	0xbd82e25b	-0.0639083
79	0xbddb0cbf	-0.106957905
80	0x3e01f652	0.1269162
81	0xbcfaf828	-0.030635908
82	0xbdbd8009	-0.092529364
83	0x3e041d77	0.12901865
84	0x3e4373f1	0.19087197
85	0xbc1e98ed	-0.009680015
86	0x3dc76f67	0.09738045
87	0x3db0f280	0.08640003
88	0x3dc486fe	0.0959606
89	0x3de456eb	0.11149391
90	0x3b87466b	0.0041282675
91	0xbd1264d1	-0.035740677
92	0x3d906f6d	0.07052503
93	0x3e39903c	0.18121427
94	0xbd02e869	-0.031959925
95	0x3b8ce400	0.0042996407
96	0x3d8fcae3	0.070211194
97	0x3de85333	0.11343994
98	0x3dd9e4f6	0.10639374
99	0x3dc88893	0.097916745
100	0x3e3c5565	0.1839195
101	0x3cac600e	0.021041896
102	0x3b6a0f0d	0.0035714537
103	0xbd898729	-0.06715233
104	0xbd33a6cb	-0.043860238
105	0xbc80ac20	-0.015707076
106	0x3db23cac	0.087029785
107	0x3a0fc900	0.00054849684
108	0x3d362da9	0.04447714
109	0x3d123ea8	0.035704285
110	0xbba96724	-0.005169766
111	0x3e36f2a4	0.17865998
112	0xbccfd5cf	-0.025370507
113	0x3e1d08de	0.15335414
114	0xbd866da7	-0.06563883
115	0x3d07714e	0.03306704
116	0x3c72b501	0.0148136625
117	0xbd97b341	-0.07407237
118	0xbe0e70f4	-0.13910276
119	0x3d333fe7	0.043762114
120	0x3e13c51c	0.1443066
121	0xbd13742b	-0.03599946
122	0xbdd26fcf	-0.10275232
123	0x3d97cb4b	0.07411822
124	0xbe3275f7	-0.17427813
125	0x3da08f72	0.0783986
126	0x3d149e15	0.03628357
127	0x3eb0883e	0.34478945
128	0xbe0cab26	-0.13737163
129	0x3d85e3fe	0.06537627
130	0x3d7c9182	0.061662205
131	0x3dd5bb28	0.10436088
132	0x3d451363	0.04811419
133	0xbd541926	-0.051781796
134	0xbd9dafe5	-0.07699565
135	0x3e2d91c3	0.16950135
136	0x3de1c9f5	0.11024848
137	0xbd482e8d	-0.04887252
138	0x3d7deab4	0.06199141
139	0xbd42d35e	-0.047564857
140	0xbd0d98d1	-0.034569565
141	0xbab06bda	-0.0013459877
142	0x3d4c237a	0.04983852
143	0x3d9450cd	0.07241974
144	0xbd7f0f2d	-0.062270332
145	0xbceabc9d	-0.028654391
146	0xbda7fc50	-0.08202422
147	0x3d139b35	0.03603669
148	0x3d4e3ed9	0.050352905
149	0x3c98d944	0.018658288
150	0x3ccd1ac0	0.02503717
151	0x3e2dba06	0.16965494
152	0x3de112df	0.109899275
153	0x3df85b15	0.121267475
154	0xbdc9a650	-0.09846175
155	0x3de66ebd	0.112515904
156	0x3db76723	0.08955219
157	0xbc9e38f5	-0.019314269
158	0xbdacf573	-0.08445253
159	0xbdda8776	-0.106703684
160	0x3e149c90	0.14512849
161	0x3d509797	0.050925817
162	0x3d4f44e0	0.050602794
163	0x3c689cb0	0.014197513
164	0x3d17eaae	0.037089042
165	0xbc3338c1	-0.010938824
166	0x3e28d332	0.16486815
167	0xbdf36827	-0.118851
168	0x3ca86f4a	0.02056088
169	0x3dbd659c	0.09247896
170	0x3db3815c	0.08764908
171	0x3d1e87e0	0.0387038
172	0x3c958cdb	0.018255642
173	0xbca68848	-0.020328656
174	0x3d40acfe	0.04703998
175	0x3d810a4b	0.06300791
176	0xbc8903f0	-0.01672551
177	0x3de06102	0.10956003
178	0x3b93f9ee	0.004515878
179	0xbdb701cd	-0.0893589
180	0x3b9168c2	0.004437537
181	0x3dee294f	0.11628973
182	0xbdc0116f	-0.09378325
183	0xbc9e0a4e	-0.019292023
184	0x3d4a2321	0.049349908
185	0xbd9f46bf	-0.077771656
186	0xbd9b2f5b	-0.07577392
187	0xbd0bdf00	-0.034148216
188	0xbda364e8	-0.07978231
189	0x3e100375	0.14063819
190	0x3ced4080	0.02896142
191	0xbdc2a3b6	-0.09503882
192	0xbe25aa58	-0.16178262
193	0xbd389965	-0.045068163
194	0x3d850714	0.06495491
195	0x3dbc480c	0.09193429
196	0xbdcfaf5b	-0.10140868
197	0x3e10cd7d	0.14140888
198	0xbd9cf8ec	-0.076646656
199	0x3e2e79f4	0.17038709
200	0xbcf1d942	-0.029522542
201	0xbc967ea5	-0.018370936
202	0xbc39bced	-0.011336547
203	0xbdcc72f7	-0.09982865
204	0x3e24776f	0.16061185
205	0x3c8d45fd	0.017245287
206	0x3d3341cf	0.04376393
207	0x3d408a89	0.047007117
208	0x3df0ef0a	0.11764343
209	0x3dd3a97e	0.103350624
210	0xbcf6d99c	-0.030133061
211	0xbd8eb34c	-0.06967792
212	0x3d87ad99	0.06624908
213	0x3de1de90	0.110287786
214	0x3d257950	0.040398896
215	0x3d7346d3	0.059393715
216	0x3df9459c	0.1217148
217	0xbdd7b7bd	-0.10533092
218	0xbdbe1695	-0.09281651
219	0xbd941e84	-0.07232383
220	0xbc7c5551	-0.0154012
221	0x3dd78e4b	0.10525187
222	0xbdbe4c3d	-0.09291885
223	0xbc93fe70	-0.018065661
224	0x3d29d746	0.041465066
225	0x3e344a82	0.17606547
226	0xbd5ba946	-0.05362823
227	0xbd17d955	-0.0370725
228	0x3d36a60f	0.04459196
229	0x39944527	0.00028280282
230	0x3d00f5ee	0.031484537
231	0x3cb59efd	0.022170538
232	0x3e06c710	0.13161874
233	0x3d33a09c	0.04385434
234	0x3e5d652c	0.21620625
235	0x3dd16102	0.10223581
236	0xbb3ed2cc	-0.0029117344
237	0x3d22fec4	0.039793745
238	0x3daa04f4	0.08301726
239	0x3d875ec5	0.06609873
240	0xbdd0eb46	-0.10201125
241	0x3c37758a	0.011197457
242	0x3db6c8a3	0.08924987
243	0x3db8c1da	0.09021349
244	0x3d1951d2	0.037431546
245	0xbcf0dfc5	-0.029403577
246	0xbd7153f2	-0.058917947
247	0xbd502208	-0.050813705
248	0x3ca1dd6f	0.019758908
249	0x3d29e557	0.04147848
250	0xbd882312	-0.06647314
251	0xbaf739b5	-0.0018861803
252	0xbb23c8a3	-0.0024991415
253	0xbd9fe110	-0.07806599
254	0x3e01ff1a	0.1269497
255	0xbd392bd5	-0.045207817

fc2.bias f4 [5]
0	0x3bfa3af4	0.0076364223
1	0xbd564d87	-0.05232003
2	0x3d406fab	0.046981495
3	0x3d92714c	0.07150516
4	0x3e0218a4	0.12704712
