IQL_CNN_tiny_new_rea/agent1_1.pth (torch, 745094 bytes, 10 tensors)

c1.weight f4 [32, 8, 3, 3]
000000 9c 76 97 bd 5c 12 8f 3d 51 8e e1 bd c1 5c c0 bc
       -0.0739567 0.06985924 -0.11013473 -0.023481729
000010 32 a2 6c bd 33 11 ad 3c a0 69 74 3d 55 76 d1 3c
       -0.05777187 0.021126365 0.059671044 0.02556912
000020 f2 ba 72 bc bd 00 a1 3c 76 6d fa bb 5c c2 e3 bc
       -0.014815079 0.019653672 -0.0076424433 -0.027802639
000030 55 6e d0 bd 29 f6 2a bd fe 4a 8e 3d 44 13 b8 3d
       -0.10177294 -0.041738663 0.069478974 0.089880496
000040 4b 1e e5 3d 52 66 14 3d ba dd d9 3c 80 9a 97 3c
       0.111874186 0.036230393 0.026594985 0.018506289
000050 a4 30 98 bd da 33 41 3d 8f 78 41 bd 9f 40 c3 3d
       -0.074311525 0.04716859 -0.047234114 0.0953381
000060 40 e0 70 3d 8e f5 c9 3c 32 27 8d bd 21 04 9f 3d
       0.05880761 0.024653222 -0.068922415 0.077644594
000070 45 f6 eb bd dd 87 a1 3d 08 5a c7 3d d9 28 03 3c
       -0.115215816 0.07887242 0.09733969 0.008005344
000080 38 16 6f 3c a2 3a b6 3d 47 2a 41 bd ba a4 96 bd
       0.0145927 0.08897902 -0.04715946 -0.07355638
000090 73 8c ed bd b3 3c bd 3b 51 9e 20 3d f4 b6 87 3d
       -0.11599054 0.005775058 0.039213482 0.066266924
0000a0 0e 53 60 3d a9 cb cb 3c f0 38 5b 3d 52 a7 ce 3d
       0.054766707 0.024877386 0.053521097 0.100905076
0000b0 bb 37 a1 bb dd 27 d1 bd 5b b0 d0 bd bd 6c b2 bd
       -0.0049199737 -0.102126814 -0.10189887 -0.087121464
0000c0 95 50 90 3c 23 40 ac bc f3 20 f0 bd d6 eb ab 3c
       0.01761655 -0.021026677 -0.117250346 0.020986479
0000d0 96 b9 88 3d 23 f0 de bb 7a 8f 49 3d 85 e9 df 3d
       0.06676023 -0.006803529 0.049209096 0.10933212
0000e0 29 23 bc 3d 94 a7 a3 bc e8 7e 83 3d ed 6e 38 bd
       0.09186394 -0.019977368 0.0642069 -0.045027662
0000f0 d8 6a d8 bd db 54 a1 3c 72 e2 d2 bc 0d 03 ac 3d
       -0.10567254 0.019693783 -0.025742743 0.083990194
000100 9e ef d6 3d 94 a2 f4 3c e3 3e ed bd d7 50 df 3d
       0.10494922 0.02986268 -0.1158426 0.10904091
000110 db 0f e4 3d 0e 3c d3 bb 2e c6 9e 3d 34 d1 21 3c
       0.11135837 -0.006446368 0.077526435 0.009876538
000120 ef bf 1b 3d 87 2e dc bd d8 5c bc 3d c6 bb 03 bd
       0.03802484 -0.10751062 0.09197396 -0.032161497
000130 d1 bf 7d bd 01 ad 64 bd db 46 b0 bd 9a 7f e0 bd
       -0.06195051 -0.055829052 -0.086072646 -0.10961838
000140 68 d3 a7 3d 81 4c 82 3d bb 7b 02 3d bd c6 cf bc
       0.081946194 0.06362248 0.03185628 -0.02536332
000150 30 43 87 3d 1c 0f 61 3d fe 5f 3d 3d 4f dc e5 bd
       0.06604612 0.05494605 0.046234123 -0.11223661
000160 6d 90 d8 bd ef 26 56 3b d8 a6 ee 3d 54 00 6f bd
       -0.10574422 0.0032677015 0.11652917 -0.058349922
000170 5a e9 ca 3d 41 36 7a 3d a8 c7 2e bc c6 32 b9 3c
       0.099077895 0.061086897 -0.010667719 0.022607218
000180 85 c5 6c bd 8f 8c 37 3d b3 d2 c1 3d 9d d9 e9 bd
       -0.057805557 0.04481178 0.09464016 -0.114184596
000190 80 ef 50 bd 1d 39 26 3d 33 83 ed bc 23 56 bc bc
       -0.051009655 0.04058181 -0.028993225 -0.022990292
0001a0 de 3c 5e 3a cb c1 3c ba 12 6b 9e 3d 51 99 db 3c
       0.0008477698 -0.0007200508 0.07735266 0.026806505
0001b0 de 12 47 bd f9 65 5f bd 82 85 ad bd c8 bc a8 3d
       -0.048601978 -0.054540608 -0.0847273 0.08239132
0001c0 d3 5e 5d bd e7 50 87 3d a8 43 d6 3c 66 7f 19 3c
       -0.05404551 0.06607228 0.026155308 0.009368753
0001d0 0d 3c e4 3d 51 af 84 bd 11 04 7b 3d fc 36 2a 3d
       0.11144266 -0.064787515 0.061283175 0.041556343
0001e0 36 02 27 bc c4 9b ba bd 1a 23 dc 3c 0f 5d 7c 3d
       -0.010193398 -0.09111741 0.026872206 0.061612185
0001f0 4a d1 b4 3d 87 15 a5 3d 08 74 10 bd 54 96 16 3d
       0.08828981 0.08060747 -0.035266906 0.036764458
000200 a7 99 c6 3d 3c 92 e8 3d 53 ba 21 bd bc c4 88 bd
       0.096972756 0.11356017 -0.039484333 -0.06678149
000210 a3 cf 40 3c 77 ea a1 bd 69 36 83 3d 98 68 fb bc
       0.011768254 -0.07906049 0.06406862 -0.030689523
000220 fa c2 99 3d 2c 6d 42 bd 49 1c 85 3d d9 a3 53 bd
       0.07507892 -0.047467396 0.064995356 -0.05166993
000230 ce da 95 bd 6a 89 be 3c e0 bb 9d 3d 9b e6 51 bd
       -0.07317124 0.023258884 0.0770185 -0.051245313
000240 88 fb ed 3d 90 45 90 3d 94 62 2f bd 1e 5b b6 3d
       0.116202414 0.07044518 -0.04281862 0.08904098
000250 a0 11 96 bc 2a e3 df 3d f5 0b b4 bd 5b c3 34 bd
       -0.018318951 0.10932 -0.08791343 -0.044131618
000260 dd f9 fc bc cb 4f 13 bd 8a 30 18 bd 1a d0 9c bd
       -0.030880863 -0.03596477 -0.037155665 -0.0765688
000270 a1 97 e7 bd 9a f0 8e bd fd fd 0d bd bd 4e aa 3d
       -0.11308218 -0.06979485 -0.03466605 0.083157994
000280 78 46 70 bd 46 3a 1c 3c 1c 5f 0c bd c5 68 5e 3c
       -0.058660954 0.009535378 -0.03427039 0.013574784
000290 d2 64 83 bd 16 50 14 3d 8d 12 bb 3d 4d 24 7b 3d
       -0.06415714 0.03620919 0.09134398 0.061313916
0002a0 57 fa ce ba 17 06 be 3c 5c bc d2 bb 55 1e 2d 3d
       -0.001579116 0.023196263 -0.0064311456 0.042265255
0002b0 e9 d2 73 3d 90 8f da bc 47 2f a2 bc 2c cb 5c 3c
       0.05952731 -0.026679784 -0.019797934 0.013476174
0002c0 10 83 a5 bd 42 39 7f 3c 22 d9 a4 3c 97 f7 88 bd
       -0.08081639 0.015577616 0.020123068 -0.06687849
0002d0 54 93 38 3d 85 c7 ac bd 3b 24 d0 bd 4e ce d4 bd
       0.045062378 -0.08436493 -0.101631604 -0.10390912
0002e0 4f 63 bf 3d b8 cd 90 3d a9 8a 72 bd 1d 41 e1 3d
       0.093451135 0.07070488 -0.059214268 0.109987475
0002f0 5b 40 53 3d 56 3c 8d 3d 12 24 18 bd 1b 79 cd bd
       0.051575046 0.06896274 -0.037143774 -0.10032865
000300 c1 33 85 3c a6 c5 79 3c 4d e1 d7 bd 4c 53 02 bc
       0.01626003 0.015244877 -0.105410196 -0.00795443
000310 0c 95 d8 bd c5 bb e6 bb d3 ba 0d 3d 82 df e5 bd
       -0.105753034 -0.007041427 0.034601998 -0.11224271
000320 43 ed 1f bd 97 81 18 bd 65 db c8 3c c2 44 85 3d
       -0.03904463 -0.03723296 0.024518678 0.06507255
000330 69 d5 6b bd 3e f8 0c 3d 37 0b 65 3d 26 35 72 3d
       -0.05757657 0.03441643 0.0559189 0.059132718
000340 bd d4 a9 3d 5b 3b b0 bd 57 32 8c 3d b4 ee b1 3d
       0.0829253 -0.08605071 0.06845539 0.08688107
000350 1b 0c e5 bd ac 1d 32 3d e5 4b a6 3d 2c 53 b7 bd
       -0.111839496 0.04348533 0.081199445 -0.08951411
000360 a3 a6 f2 3d 4e a1 09 3d 5e d5 97 bd 50 c0 37 bc
       0.1184819 0.033601098 -0.074137434 -0.0112152845
000370 dc e5 08 bc 59 44 1c 3d 8f 58 d7 bc 64 9a b8 3d
       -0.008355584 0.03815112 -0.026287345 0.09013823
000380 62 bf 80 3d 40 52 78 3d ed 0a 33 3d 4c 23 31 bd
       0.062865034 0.060625315 0.04371159 -0.043246552
000390 23 e3 ea 3c b2 37 85 bd d6 23 2a bc cc 57 f6 bb
       0.02867276 -0.06504764 -0.0103845205 -0.0075177904
0003a0 4f 94 73 3d 8e 55 ac 3a 26 56 7a 3c 00 f2 00 bd
       0.05946761 0.0013148056 0.015279328 -0.03148079
0003b0 ae 1f 15 bd e3 a7 bf bd 3b cb 5c bc b6 97 1c bd
       -0.036407165 -0.09358194 -0.013476188 -0.03823062
0003c0 c9 e4 b8 3d 2d f5 4a 3d a7 28 38 bd e4 d0 66 bd
       0.09028012 0.049550224 -0.044960644 -0.056351557
0003d0 b1 07 b5 3c ce ff 63 bd c6 4e a2 bb a5 36 a3 3d
       0.022098394 -0.055663876 -0.004953238 0.07969407
0003e0 b6 6a 26 3a 8c da 24 3c 8c 9f 2a 3d c7 7d 0b bc
       0.00063482986 0.010061871 0.041656062 -0.008513874
0003f0 fa 21 8e bd bc c2 25 3c 8b 12 ae bd 8e fe a7 bd
       -0.06940074 0.010117229 -0.084996305 -0.08202849

c1.bias f4 [32]
000000 82 76 b5 3d 34 2f 16 bd 21 7d 6d 3d 5d bc 49 3d
       0.08860494 -0.03666611 0.05798066 0.049251903
000010 f6 a4 79 bd fd 15 c3 3d 4c bc 83 bc c8 b3 ea bd
       -0.060948335 0.09525678 -0.016080998 -0.11460072
000020 94 7b f2 3d cf 4a 60 3d da 17 9c bd 03 35 94 bd
       0.11839977 0.054758843 -0.07621737 -0.07236674
000030 d2 7c ec bc b6 f7 96 bd f1 b3 49 3d ca c0 73 bd
       -0.028868113 -0.07371466 0.04924387 -0.05951003
000040 b0 b0 aa bd a2 38 7f 3d 91 b9 ee 3d 73 5a 09 bd
       -0.08334482 0.06230987 0.11656488 -0.033533525
000050 87 9b 8c 3d 61 49 e2 bd 68 c5 d9 bd 75 64 3b bd
       0.06865602 -0.11049152 -0.106333554 -0.0457501
000060 b9 25 97 3d 07 f6 bb 3d d7 2a 4d bd ec 2a c4 bd
       0.07380242 0.09177785 -0.050089683 -0.09578499
000070 ef 16 b3 3d a2 72 9a bd db 87 66 bd 10 05 ae 3d
       0.087446086 -0.07541396 -0.056281906 0.08497059

c2.weight f4 [64, 32, 3, 3]
000000 79 27 4c 3d aa 79 1f 3d 75 99 e3 3c 32 aa 01 3d
       0.04984233 0.038934387 0.027783135 0.03165645
000010 8d 8f 7f bc c5 7c 19 bd 65 4a bc bc fb 7c 0a bd
       -0.01559819 -0.037472505 -0.022984693 -0.033810597
000020 38 18 9a bc 3b 2b 42 bd 2c 9d 72 3d 01 fa 05 bd
       -0.018810377 -0.04740451 0.059231922 -0.032709125
000030 28 af 3f 3d 26 42 11 bd 63 c5 6c bd c5 8a 39 bd
       0.0467979 -0.035463475 -0.05780543 -0.045298357
000040 7c da 2c bd 4e f8 0a 3c dc 9b 37 bd b4 77 33 3d
       -0.04220055 0.008482052 -0.044826373 0.04381533
000050 d7 f5 e9 bc 03 2a bc bc 91 02 7a ba 6f dd 73 3d
       -0.028559608 -0.022969251 -0.00095371256 0.059537347
000060 22 26 f2 bc 45 a1 2c 3d 7e 94 13 bd 69 a9 4c 3d
       -0.029559199 0.042145986 -0.036030285 0.04996625
000070 b4 7d 6b bd 24 2f 6a bd 1a d6 05 bc 4e b8 6e 3d
       -0.057492927 -0.057173863 -0.008168722 0.058281235
000080 05 aa 35 bc 31 d3 a6 3c 83 66 dc bc ba 32 57 bc
       -0.011087899 0.020364376 -0.02690435 -0.013134653
000090 94 09 70 bd 7b 9b 5b 3d 6d 89 57 bc 85 7f 8f bc
       -0.058602884 0.053615075 -0.013155323 -0.01751686
0000a0 d9 af ef bc 19 f5 12 ba 4c aa 1f bd 50 a1 cd 3c
       -0.029258655 -0.00056059804 -0.038980767 0.025101334
0000b0 98 30 5c bc 61 1d 68 bc d4 72 cc 3c 18 c9 27 bd
       -0.01343932 -0.014167161 0.024957098 -0.040963262
0000c0 9b 34 02 bd 3a 8e 5b 3c 91 7d f4 bc f7 03 36 3c
       -0.03178845 0.013400609 -0.029845031 0.011109344
0000d0 91 66 9d bc 50 7f fd 3c b6 3a 38 bd 4b 6b 22 bd
       -0.019213947 0.030944496 -0.044977866 -0.039653104
0000e0 d9 8a 2b 3d c0 4d 15 3c 46 c4 13 3c 50 7a 14 bd
       0.041880462 0.009112775 0.009018963 -0.03624946
0000f0 49 2e e6 bb 5b 1e 68 3d bb 65 13 3d ba 7c aa 3c
       -0.0070245606 0.056669574 0.03598569 0.020811427
000100 53 5b 05 bc 83 97 6a 3c 3f c6 33 3c 91 56 48 bd
       -0.008139449 0.01431835 0.0109725585 -0.04891068
000110 d4 b7 5f bd 15 22 45 bd ba 75 26 bd 7c 62 98 bb
       -0.05461867 -0.048128206 -0.040639617 -0.004650412
000120 44 4a 1d 3c 1d 7b 8d bc b0 7e 33 3d 6f 69 47 3c
       0.009600226 -0.017270619 0.04382199 0.012171133
000130 ac 74 0e 3d 5d ee 38 3d 9f 78 a8 3c 0c 01 03 3b
       0.034779236 0.045149196 0.02056533 0.0019989638
000140 e7 1d a9 bc 0a 13 3d bc 4a 34 94 3c 6d 91 14 bd
       -0.020644141 -0.011540184 0.01809134 -0.0362715
000150 6a c8 3c bd da f6 bf bc ef 4c 94 3a ef af 4a bd
       -0.046089567 -0.023433138 0.0011314432 -0.04948419
000160 3b 2f 31 bd ac 6e fc 3c 6b 01 b0 bc 7c 64 08 bd
       -0.043257933 0.030814491 -0.021485051 -0.033298954
000170 a4 4a 35 ba 2d d0 00 3d aa 5d 00 bd 0d 1d 88 3c
       -0.00069157244 0.031448532 -0.031339325 0.016615415
000180 a2 6d 53 3c 89 b0 48 bc ae 06 60 3c a5 76 33 3d
       0.0129045565 -0.0122491205 0.013673468 0.04381432
000190 63 e8 fe 3c 00 fc 71 bc f4 a0 57 bd 61 95 08 3d
       0.03111667 -0.014769554 -0.05264373 0.033345584
0001a0 00 1e 17 3c 81 c7 5a bc e5 4b 00 bd d4 79 3c bd
       0.009223461 -0.0133532295 -0.03132238 -0.04601462
0001b0 21 81 22 bd 6d aa 81 bc b7 e4 3e 3d 79 49 97 3c
       -0.03967393 -0.015828336 0.04660484 0.018467652
0001c0 dc b7 61 3d e7 f9 3c 3d 26 5d 1d bd 91 d1 40 bd
       0.055106983 0.046136763 -0.03841891 -0.047074858
0001d0 08 2a f7 3c 8e 62 ca bc 13 26 9b bc 4d f7 28 bd
       0.03017141 -0.024705198 -0.018939054 -0.04125147
0001e0 f5 1e 0e bd d5 a7 18 3d bb d4 5b 39 de c7 15 bd
       -0.03469749 0.037269432 0.00020964716 -0.03656756
0001f0 69 4f ce 3c c0 83 0a bc b9 6b 3c bd 2c 9c 34 bd
       0.02518435 -0.008454263 -0.04600117 -0.04409425
000200 e2 e3 19 3c 8a c5 0a 3c 01 61 4c bd e3 e7 5e 3d
       0.00939271 0.008469949 -0.049897198 0.054420363
000210 aa 1d b2 bc 67 a9 6a 3d 29 55 48 3d 5d 76 01 3d
       -0.02174266 0.05729046 0.04890934 0.03160702
000220 ce 8a 75 bc 1d c1 53 bd 9e 74 04 bc db ea 6e 3d
       -0.014986707 -0.05169784 -0.008084444 0.058329444
000230 55 09 6d 3d ad bd 56 bd ec c4 53 bd f3 65 d7 bc
       0.057870228 -0.052426983 -0.05170147 -0.02629373
000240 fc 87 2a bd ea 07 d9 bc 8c 04 47 3a 13 38 3f bd
       -0.04163359 -0.026493032 0.0007591925 -0.046684336
000250 8f eb 60 3c 1d fe e0 ba ad 05 47 bd 16 e5 d1 bc
       0.013728037 -0.0017165575 -0.048589397 -0.025621932
000260 d1 af ba bb 37 24 5d 3c 95 eb a0 bb 9a 50 13 bd
       -0.0056972285 0.013497404 -0.004910896 -0.03596554
000270 c0 a5 c6 bc f3 3d 45 bc de cf 65 bd 98 cf 53 3d
       -0.024248958 -0.012038696 -0.05610644 0.05171165
000280 e4 47 5d 3d 9e 5d 0b 3c 8b e6 0a bd d3 38 4d 3d
       0.05402364 0.008506207 -0.03391127 0.05010302
000290 85 da be bc fd fe 4c 3d da 0b ca 3c b2 32 5e 3d
       -0.023297558 0.050047863 0.024663854 0.054247566
0002a0 38 bb 3c 3d 26 b1 8c bc 48 2d 47 bd 0d 75 88 3c
       0.046076983 -0.017174315 -0.048627168 0.016657377
0002b0 4a f7 6f 3d 52 f1 a2 3b 1c 23 4c bd df cb ed 3c
       0.058585443 0.0049726153 -0.04983817 0.029027877
0002c0 6d c3 50 bd 14 2c 54 b7 e6 fa 0a bd 45 f8 5c 3d
       -0.050967623 -1.2646447e-05 -0.03393068 0.053947706
0002d0 11 72 86 3c a3 d1 83 3c 49 4c b9 3c 97 ce 72 3c
       0.016411813 0.016091174 0.022619383 0.014819763
0002e0 97 b8 3f bc e7 c9 db 3c d6 45 11 bc f6 ba d9 3c
       -0.0117017245 0.026829673 -0.008866748 0.026578408
0002f0 02 d8 35 bd 74 64 a4 bc ef e0 45 bd 0b 30 eb bc
       -0.044395454 -0.020067431 -0.048310217 -0.028709432
000300 9d 36 27 bd 3c a1 84 3c 6a 4a 5b bb 32 d0 fb bc
       -0.040823568 0.016190164 -0.0033461102 -0.030738924
000310 5a 9f f1 bc 10 7f 0b bc 20 a0 6b bd d9 a5 1a bc
       -0.02949493 -0.008514181 -0.057525754 -0.009438955
000320 91 69 6e bc cc c5 b5 bc 4c 80 59 3c bf 90 8f 3c
       -0.014551536 -0.022189043 0.013275217 0.017525075
000330 ec a4 36 bd d9 e9 08 ba bb 80 bd 39 3a 78 2b 3c
       -0.044590876 -0.00052228343 0.000361448 0.010465676
000340 fa 66 6d bd 54 b7 c2 bc 3f a7 c9 bc 20 2c 0e bd
       -0.057959534 -0.023769058 -0.024615882 -0.03471005
000350 b2 8f 36 bc 74 e8 09 bd 30 76 52 3d 2c e7 61 bd
       -0.011142658 -0.03366895 0.051382244 -0.055152103
000360 c7 2f 00 bc ea a2 1d bc 19 a5 5e bd be 33 ae bb
       -0.007823891 -0.009621361 -0.05435667 -0.0053162267
000370 70 5c 36 3d fe 34 03 bd c6 d2 08 bd d2 e8 73 3c
       0.04452175 -0.03203296 -0.033404134 0.014887052
000380 1c f6 a8 bc c5 db 64 3d d9 d2 17 bd 3e b6 01 bd
       -0.020625167 0.05587365 -0.037066314 -0.03166794
000390 35 59 1e bd dc 52 e3 3b 48 40 07 3a c7 08 1f 3d
       -0.038659293 0.006937368 0.000515942 0.03882673
0003a0 94 d2 a9 bc ac 49 31 3c 49 ee b9 bb 07 9e 04 bd
       -0.020730294 0.010820787 -0.0056741578 -0.03237727
0003b0 32 69 2e bd 5d 73 1d bd d1 e8 db bc 5c 88 a1 3c
       -0.04258079 -0.038440097 -0.026844414 0.019718342
0003c0 bc cc 04 bd 15 43 59 3d b7 1c f1 3c 49 bd 36 3d
       -0.032421812 0.05304249 0.029432638 0.04461411
0003d0 97 76 78 bc 07 74 f9 3a 2e 3c ed bc 7d b7 e2 bc
       -0.015164993 0.0019031771 -0.02895936 -0.027675385
0003e0 49 26 ca bc 51 fe 40 bd 25 83 27 bd 92 ba 2e bd
       -0.024676459 -0.047117535 -0.040896554 -0.042658396
0003f0 86 e3 d6 3b 4a dc f6 bc 3e 6d 5f 3d 39 11 49 bd
       0.0065578846 -0.030134339 0.05454754 -0.04908869

c2.bias f4 [64]
000000 7e 8f 2f 3c 47 f1 4c bd 2a 59 04 bd a0 df eb 3b
       0.010715364 -0.050034788 -0.032311596 0.007198289
000010 39 a2 50 bb 78 44 02 bd a1 e8 01 3a 5f fd 4b 3c
       -0.0031834973 -0.03180358 0.0004955624 0.012450545
000020 0b db 87 3c 20 b7 05 3c 95 8a e9 bc 73 0c 43 bd
       0.01658394 0.008161336 -0.028508464 -0.047619294
000030 16 ac 2a 3d d7 be b5 bc 63 49 42 bc ad 73 49 3d
       0.04166802 -0.022185726 -0.011858317 0.049182583
000040 32 4c 94 3c f5 9d bb bc 17 58 01 3d 54 6c 6a 3d
       0.018102739 -0.022902468 0.03157815 0.057232216
000050 6d 68 ba bc 45 e2 19 3d b2 fc 40 3d 91 07 57 3b
       -0.022754872 0.037569303 0.04711599 0.0032810906
000060 a6 0c 2b 3d 1e a8 46 bd c2 3b c1 3b 24 ed 59 3d
       0.04176011 -0.048500173 0.0058970163 0.05320467
000070 20 fe d6 3c d2 5b f1 b8 53 4e b2 bc ca cd ac bc
       0.026244223 -0.000115088784 -0.021765864 -0.021094222
000080 c2 4e 24 bc 84 e1 79 bc e4 8a 54 bd b8 ea 8b bb
       -0.010028543 -0.015251521 -0.05189027 -0.004269924
000090 78 73 31 3d a1 1b 4d bd a9 58 ab bc c0 50 af b9
       0.04332301 -0.050075177 -0.0209163 -0.00033438765
0000a0 93 64 08 3c 20 7d 5e 3c ad 02 10 3d ee 31 3d 3c
       0.00832476 0.013579637 0.0351588 0.011547549
0000b0 cd 4f 9b bc 03 e7 33 bd ab ba bd 3c 73 4a 66 3d
       -0.01895895 -0.04392148 0.0231603 0.056223344
0000c0 de cb 71 3d 21 ce cc 3b f6 85 2d 3d ed 6b 67 bd
       0.059032314 0.0062501584 0.042364083 -0.05649941
0000d0 6d f9 14 bd f5 d9 05 3d f0 1d ce 3c e7 51 1d bd
       -0.036370683 0.032678563 0.02516076 -0.038408186
0000e0 4a b5 23 bc 99 8e 35 bd 0e a5 09 bd 06 df 69 bd
       -0.009991953 -0.044325445 -0.033604674 -0.057097457
0000f0 4d 1e 84 3c 16 98 26 3d 5a 32 5d bd 1c 20 22 bd
       0.01612773 0.040672384 -0.054003097 -0.039581403

c3.weight f4 [256, 64, 3, 3]
000000 3f 95 10 bc d0 fa e2 bc d2 4a 69 3c 1c 34 17 3d
       -0.008824646 -0.027707487 0.01423903 0.03691493
000010 e4 d2 0c bd 44 16 61 3c b4 e4 eb bb 22 e9 1b 3c
       -0.03438081 0.013738219 -0.0071988944 0.009516032
000020 a2 61 91 bc 35 46 12 bd a9 02 12 3d 6b f2 10 bd
       -0.01774675 -0.035711486 0.03564707 -0.035387438
000030 ef 75 13 bd bf 0d 19 3d 5b b1 0b bc 56 1a 2f bd
       -0.036001142 0.037366625 -0.008526172 -0.042749725
000040 47 41 9e bb 80 ee a3 bc 2a 60 15 3c 09 2a 28 bd
       -0.004829559 -0.020011187 0.009117166 -0.041055713
000050 10 a7 bc 3c b0 85 c7 3c e7 44 d7 bc 33 4c ae 3c
       0.02302888 0.02435574 -0.026277972 0.021276569
000060 c0 29 2e 3c 5f 6d c6 bb 77 d6 89 bc 57 e5 b1 3c
       0.010630071 -0.0060555185 -0.016825898 0.021715803
000070 d1 67 16 3d 98 39 8d 3b c1 cf 07 bd b1 b0 16 bd
       0.0367201 0.004309844 -0.033157114 -0.0367896
000080 74 3b e2 bc 26 08 c0 3c c7 48 47 3c f2 6b fc bb
       -0.02761624 0.023441385 0.012163348 -0.007703298
000090 e3 9e 86 bc 1c f8 ee 3b 61 6a c8 ba 3d 2e 1f bc
       -0.016433185 0.0072927605 -0.0015290492 -0.009715614
0000a0 bd 0f dd bc 9d 6e db bc 80 40 71 3a 9d ec bf 3c
       -0.026985044 -0.026786143 0.00092030317 0.023428256
0000b0 21 24 01 3d 2b d7 93 bc a4 9d 36 bc 70 30 1c 3b
       0.031528596 -0.018046936 -0.011145983 0.0023832582
0000c0 85 da cb 3c 20 9c 57 bc d9 f6 fd 3a 9c 37 e2 bc
       0.024884472 -0.013159782 0.0019375934 -0.027614407
0000d0 10 07 b5 3c e3 22 95 3b c4 0e 50 bb f5 0e fe 3c
       0.022098094 0.004551278 -0.0031747082 0.031012991
0000e0 60 49 96 bc 58 d3 ba 3b b5 cb 1c 3d 0b d5 f3 3c
       -0.018345535 0.0057014637 0.038280208 0.029764673
0000f0 46 a4 93 bc d6 28 36 3c 63 26 e3 3c 6b 0e e8 bb
       -0.018022668 0.0111181345 0.027728265 -0.007081797
000100 22 b6 a5 3c 48 22 2d bd 76 54 a0 bc 07 e9 c0 bc
       0.02022845 -0.04226902 -0.019571524 -0.023548616
000110 2a 4e 84 3c 26 b9 98 bb e3 4f 41 3c 4a 3c 26 3d
       0.016150553 -0.0046607433 0.011798832 0.04058484
000120 39 0c 5c 3b 47 e2 11 bd ba 34 e7 bc 6f 9c d8 3c
       0.0033576621 -0.035616186 -0.028223384 0.02644178
000130 11 7a a4 3c 36 fc a2 3c 0f b0 a3 bc 64 b4 2b bd
       0.020077737 0.019895654 -0.019981412 -0.04192008
000140 7d 35 f9 bb c5 ea 81 bb 33 e4 00 3d 2c 93 49 3c
       -0.0076052533 -0.0039647543 0.031467628 0.012303155
000150 7f 7e ff bc 09 cf 1e 3d 72 e9 1e 3d e5 49 1a bc
       -0.031188248 0.038771663 0.03879685 -0.009417032
000160 2d 4b 0d 3d 07 ae 30 bd 38 4d e6 bc a7 69 8b 3a
       0.03449552 -0.043134715 -0.028112993 0.0010636345
000170 bd e3 c4 3c d1 32 0e 3d b9 a3 0c 3c 9d aa 54 bc
       0.024034375 0.03471643 0.008583956 -0.0129801305
000180 5e 64 12 3d 70 0a d4 bc 15 a0 b0 3c cc e5 bf 3b
       0.03574025 -0.025883883 0.021560708 0.0058562513
000190 99 f2 bf bc 12 5f 20 bd 78 b0 1b 3d 42 32 3f bc
       -0.02343111 -0.039153166 0.03801009 -0.011669697
0001a0 b6 ec bd 3c 9d ea 1a 3d 5d b7 17 bd ba 1f 05 bd
       0.023184162 0.0378214 -0.037040103 -0.03250096
0001b0 93 b6 8f bc ae 11 7b bb 72 13 0e 3c f8 b5 b7 3c
       -0.017543113 -0.0038310098 0.008671628 0.022425637
0001c0 0a ed b2 bc 58 b9 f6 3c 52 30 0c 3d 92 1b b6 3c
       -0.021841545 0.030117676 0.03422577 0.022229943
0001d0 b7 cb d1 bc 8d 84 e7 bc 53 11 20 bd 89 e4 d4 bc
       -0.025609834 -0.028261447 -0.03907902 -0.02598788
0001e0 62 ff da bb 25 48 22 3d f0 9d c0 bc 30 bf ba 3c
       -0.006683276 0.039619584 -0.02351281 0.022796243
0001f0 4b 4f 25 bc ee dd 1e bd 39 75 a4 bc 75 f1 2e bd
       -0.010089706 -0.038785867 -0.020075427 -0.04271074
000200 bd 0a 12 3d 2c 52 8c bc 57 51 27 3c a0 12 15 3d
       0.035654772 -0.017129026 0.010212264 0.036394715
000210 b6 1e 20 3d 62 8d 94 bc 16 3f ca 3c b8 6b 7d bb
       0.03909179 -0.018133823 0.024688285 -0.0038668942
000220 17 36 20 3c cb ba 0a bd 20 0b c4 3c 11 2f 15 3d
       0.009778521 -0.033869546 0.023931086 0.03642184
000230 46 a9 c4 bc f9 83 f2 3b 0c ec 31 bd d2 54 28 bd
       -0.024006497 0.0074009863 -0.043438002 -0.041096516
000240 ee 5b 22 3d 06 61 20 bc 08 a1 31 3c 3e 8c 2f bd
       0.039638452 -0.009788757 0.0108416155 -0.042858355
000250 8e 08 af 3c 4a a3 e6 3b 19 3b 8d bc d0 06 5f 3c
       0.021366384 0.0070385085 -0.017240094 0.013612464
000260 8e 1e b5 bc 76 17 ea bb e8 62 a1 ba 00 c3 8a 3c
       -0.022109296 -0.00714391 -0.0012312802 0.016938686
000270 1c 5d 7e bc 1c a1 d7 3c 73 f5 34 3c dc 00 a0 3c
       -0.015525129 0.02632194 0.011044848 0.01953166
000280 c6 bd 40 bc 99 e3 25 bd 4f ed 18 3c 4b 8a a8 3c
       -0.0117639955 -0.040500257 0.0093339225 0.020573756
000290 c8 4c 91 3c a2 f6 9b bc 69 71 c2 3a ca 60 01 3d
       0.017736807 -0.019038502 0.0014834824 0.031586446
0002a0 6d 7b bb bb 50 52 e3 bb 17 97 91 3c 05 7c b3 bc
       -0.0057215006 -0.0069373026 0.01777224 -0.021909723
0002b0 ab b5 65 3c 60 d4 3f 3c 7b 0d d1 3b b7 5f 0d bd
       0.014020364 0.011708349 0.006379781 -0.03451511
0002c0 e1 61 89 b9 14 ad c5 bc 94 cb 9c bc 6b ec bb 3a
       -0.00026203602 -0.024130382 -0.019140042 0.0014337426
0002d0 0b 14 d7 bb fb 5e 20 bd 40 a3 1d 3c 03 b4 d7 3c
       -0.0065636686 -0.03915308 0.009621441 0.026330953
0002e0 40 2e 8a 3b 47 f9 09 bd ab c2 38 ba f6 86 41 bc
       0.004216939 -0.033684995 -0.0007048051 -0.011811962
0002f0 46 49 b5 3c 7b b4 10 3c d2 4e 0c bd 83 46 03 3d
       0.022129666 0.008832092 -0.034254856 0.032049667
000300 2b 46 fc 3b cf 67 c7 3c 2f 48 d8 bb be d9 8c 3c
       0.0076987944 0.024341492 -0.006600402 0.017193671
000310 fe 94 35 bc 8b e6 f8 bc be 9d c0 bc 55 56 de 3c
       -0.011082886 -0.030383369 -0.023512717 0.027140776
000320 63 1a 18 3d dd ab 71 3a 85 70 20 3d a4 cf 4b bc
       0.03713454 0.000921903 0.039169807 -0.012439642
000330 89 90 fd 3c 44 4f 29 bd c2 a3 ba bb ee 9a a9 3c
       0.030952709 -0.04133536 -0.005695791 0.020703759
000340 3c 83 2f bc 23 2f e6 3c fd 63 68 bc d7 d6 f0 bb
       -0.010712441 0.028098648 -0.014183995 -0.0073498297
000350 7f 7d 2b bc b5 33 92 3c c7 5f ba 3c 58 ae 9b 3c
       -0.010466932 0.017846921 0.022750748 0.019004032
000360 f4 02 bc bb 63 b3 f4 3c e0 bc c4 3c d9 b5 cf 3c
       -0.0057376567 0.029870695 0.024015844 0.025355266
000370 a0 fa d2 bc b9 cf a7 3c 32 00 96 bc ea 4c 0d bc
       -0.025754273 0.020484792 -0.01831064 -0.008624295
000380 c7 9f 02 bd 0b b5 26 3d e3 3b d8 3b e7 44 fe bc
       -0.031890657 0.0407 0.006598936 -0.031038715
000390 dc 99 09 3d f4 95 30 3c c3 3e e6 3b 5e 4f 27 3d
       0.033593997 0.010777939 0.0070265247 0.040847175
0003a0 f4 f6 a5 bc 27 49 ae 3c d1 17 1a bd 9d 1a aa 3a
       -0.020259358 0.021275116 -0.03762037 0.0012977902
0003b0 dc 8a b4 3b e0 80 9d bc 09 ee 1d bc 90 87 50 bc
       0.0055097174 -0.019226491 -0.009639272 -0.012727633
0003c0 8f e8 83 bc 61 06 c8 bc 7f 04 1f 3c 4e 88 80 bc
       -0.016102104 -0.024417104 0.009705662 -0.015689995
0003d0 64 66 d4 3c a6 d1 02 3d 25 9d c1 3c b6 25 f6 bc
       0.02592773 0.031938218 0.023634503 -0.030047279
0003e0 c4 3b eb 3c 6d 7c 66 3c ac 24 e7 3c bd 41 78 3c
       0.028715022 0.014067751 0.028215729 0.015152392
0003f0 d4 fb 69 3c de 77 1a bd 44 c3 fb bb 40 c5 2f bd
       0.014281232 -0.03771197 -0.0076831896 -0.04291272

c3.bias f4 [256]
000000 43 84 82 3b fa 28 20 3d 84 89 12 3d f2 03 c4 bb
       0.003983052 0.03910158 0.035775676 -0.0059819156
000010 31 ba 47 bc a6 f9 49 3c 01 dd e7 3c 98 13 86 bc
       -0.012190388 0.012327587 0.028303625 -0.016366765
000020 bd ed 18 3d d0 81 f1 3c 5c c7 15 bd 07 88 e3 bc
       0.0373361 0.029480845 -0.036567077 -0.027774824
000030 34 a1 85 3c dc e2 86 3b fe 75 c4 bc 99 ca 02 bd
       0.01631222 0.004116399 -0.023982044 -0.031931493
000040 3f 18 8d 3c 80 84 93 bc 22 13 fc bc 0f 9c 07 3b
       0.017223476 -0.018007517 -0.030770842 0.0020692383
000050 5e d0 df 3c bb c5 ce bb 2d 8b ab bc 8b 32 c7 bc
       0.027321037 -0.0063101924 -0.020940388 -0.024316093
000060 d0 e0 d6 bc b7 97 05 bd 84 d1 6b bc 57 54 27 3c
       -0.026230246 -0.03261539 -0.014393214 0.010212979
000070 35 ae fd ba e2 83 3e 3c fb 93 29 3c 49 7f 4c 3c
       -0.0019354286 0.011628123 0.010350223 0.012481519
000080 82 66 40 bc 3b 20 08 bd ae 06 c2 3c 33 c7 30 3c
       -0.01174319 -0.033233862 0.023684826 0.01078968
000090 9e 22 be bc 3a 40 e6 3b e3 5d 9c 3c e2 72 a6 3b
       -0.023209866 0.0070266994 0.019087737 0.005079613
0000a0 ce c1 0a bc 45 0b de 3c 09 a6 e8 bb a8 14 25 3d
       -0.008469058 0.027104983 -0.007099871 0.040302902
0000b0 7c d1 9b 3c 54 55 fa 3c 3b f9 1b bc a2 1a 20 bd
       0.019020788 0.030558266 -0.00951987 -0.0390879
0000c0 94 97 d8 3c 7e 2e 21 3d 68 f5 42 bb 84 1c 12 3d
       0.026439466 0.03935098 -0.0029748324 0.035671726
0000d0 2e 46 e4 3c 4d f8 07 3d 9b 06 19 3d 80 42 a4 bc
       0.027865496 0.033195782 0.037359815 -0.02005124
0000e0 c7 9d 37 3c ee 96 89 bc 43 4b 8b bc c8 f9 ef bc
       0.011207051 -0.016795602 -0.017003661 -0.02929391
0000f0 84 63 08 bd 0b d4 35 bc 99 c9 6d 3b fb bf 1a 3d
       -0.03329803 -0.011097918 0.0036283492 0.037780743
000100 2b e9 f7 bb f6 0a ba bc 3c 90 99 3b e9 c9 0f bd
       -0.0075656376 -0.022710305 0.0046863835 -0.035104666
000110 1d bf 3a 3c dc 76 cc bb f3 4c e3 bc 53 d0 85 3c
       0.011398104 -0.006239755 -0.027746653 0.016334688
000120 2c 36 a4 3b bc d6 b5 3c 7e 03 14 bd 44 d5 a7 b9
       0.0050113406 0.02219712 -0.036136143 -0.00032011617
000130 85 cd 06 3d c0 fe 5b 3c 58 d7 5f bc 9f 4a 0a 3d
       0.032910842 0.013427436 -0.013662182 0.03376257
000140 01 01 ef bc ee 81 90 bc bd 20 bf 3c 2a d1 d7 3c
       -0.029175283 -0.01764008 0.02333104 0.026344854
000150 41 8f 30 bc ac d0 b1 ba b5 72 fc 3c 55 2f 41 bc
       -0.010776342 -0.0013566217 0.030816415 -0.01179107
000160 ba 38 4c bc 1c 10 de bc b8 da 20 bd 25 68 a5 b9
       -0.012464697 -0.02710729 -0.039271086 -0.00031548846
000170 b3 fe a8 bc 7e 71 fd bc 35 95 8a 3c 34 1e 22 bd
       -0.020629263 -0.030937906 0.01691685 -0.039579585
000180 08 97 c8 3c 6b 1d 55 bc 03 7b 1b 3d ff 1a 0c bd
       0.02448608 -0.013007502 0.03795911 -0.034205433
000190 a1 2a db 3b 1c 2c 10 3d bf d8 b6 ba 05 ad cc 3c
       0.0066884314 0.035198316 -0.0013950093 0.024984846
0001a0 c3 7f 52 3b 08 50 a7 3c 34 29 ad 3c 6e 08 dc bc
       0.003211961 0.020423904 0.021137811 -0.026859488
0001b0 37 16 af 3c 8a 3e 17 3d 55 36 fd bc 2a ea aa 3c
       0.021372898 0.036924876 -0.030909697 0.020863611
0001c0 a8 ac 82 3c 3e ae bb 3c 2a 97 18 bd bb 0b c1 bc
       0.01595147 0.022910234 -0.037253536 -0.023565164
0001d0 f1 26 11 bd cc 59 8a 3b 3e 07 09 3d 87 d0 ca bc
       -0.035437528 0.0042221304 0.033454172 -0.024757637
0001e0 68 fa 4a 39 a9 6e 14 3d 34 f5 be bb ac 0c 27 3d
       0.00019357505 0.036238346 -0.0058275703 0.04078357
0001f0 52 1c 11 bd 75 39 22 bd 77 b1 40 3c fa 1a 37 3c
       -0.0354274 -0.039605577 0.011761061 0.011175865
000200 4e 46 b0 bc 24 26 9d 3c 26 d2 28 b9 c4 2c e1 3b
       -0.021517899 0.019183226 -0.00016100015 0.0068717916
000210 f6 12 31 bc 57 4d 14 bd 39 e3 6a 3c 92 ce 6f 3b
       -0.010807743 -0.03620657 0.014336401 0.0036591631
000220 59 8d 08 3d 16 bc a8 bc c7 fa fb bc e9 7f 2f 3c
       0.033337925 -0.020597499 -0.030759228 0.0107116485
000230 e5 6c 16 bd 75 e8 15 bd 66 31 01 3d 8c e4 b7 3a
       -0.036724944 -0.03659864 0.03154125 0.0014029904
000240 f2 1b 05 bd be 9e 79 3c 97 db 1d 3d 98 44 d6 bc
       -0.032497354 0.015235601 0.038539495 -0.026155755
000250 0f 47 ca 3b 9c 4f f2 3c eb f5 04 bd 06 1f bb 3c
       0.0061730216 0.029578976 -0.03246109 0.022841942
000260 97 42 46 bc db 5a bd 3c 14 93 1d bd 7b a1 cd bc
       -0.012100837 0.023114612 -0.038470343 -0.025101414
000270 da fa e5 3a a8 19 11 bd 3c a8 f8 bc 41 1c 76 bc
       0.0017546073 -0.03542486 -0.030353658 -0.015021385
000280 4a 77 b1 3c 5a 02 36 3d cf 59 16 bd 69 12 c1 3b
       0.021663327 0.044435836 -0.036706742 0.0058920872
000290 53 b7 1a bd 22 b6 ed 3c 10 bc 82 3c 14 5e 09 3d
       -0.037772488 0.029017512 0.015958816 0.033536986
0002a0 1a 1d 46 3c 86 1a 00 bb 4d 0c 0e bc 03 cd 01 3c
       0.012091899 -0.001954706 -0.008669925 0.007922414
0002b0 4c 6f 12 3d 77 2c 17 bd 48 71 cd bc 86 1e 28 bd
       0.035750672 -0.03690764 -0.02507843 -0.041044734
0002c0 e5 29 b5 3c b4 c3 fb bc 04 77 01 3d 38 cd 95 bc
       0.022114703 -0.030732967 0.031607643 -0.018286332
0002d0 57 f5 65 3c 4a 30 c6 3c 0a 5e 4c bc bf f5 f2 3c
       0.014035544 0.024192948 -0.012473593 0.029658196
0002e0 cf dd 93 3c 01 95 28 3d 2c 2e 16 bd ba ea 82 3b
       0.018050103 0.041157726 -0.036665127 0.0039952667
0002f0 60 57 18 bd 32 f4 28 3b 53 36 21 bc 94 0d 72 bc
       -0.037192702 0.0025780317 -0.009839612 -0.014773745
000300 fd ad cc bc dc e1 0a bd 21 d2 a8 3c 3f 8c ad bc
       -0.024985308 -0.033906803 0.02060801 -0.021185039
000310 05 8f c4 3c 10 8d 1b bd ee b5 55 3c 74 2c ff 3b
       0.023993978 -0.037976325 0.013043864 0.0077872816
000320 9b 1d 33 bc 2c 39 63 3b 8e 4c 06 bd 6a 86 e9 3c
       -0.010932351 0.0034671528 -0.032787852 0.028506476
000330 e8 ea 9b 3c e8 78 fd 3c 43 c3 0e 3d 56 16 0f bd
       0.01903291 0.030941442 0.034854185 -0.03493341
000340 bc 2f 16 bc 54 40 11 bd de 75 92 3c b8 c8 8c bc
       -0.009166654 -0.03546174 0.01787847 -0.017185554
000350 b3 80 11 3d 36 9a b7 3c f6 f6 20 bb 50 1a 92 3b
       0.035523128 0.0224124 -0.0024561263 0.004458703
000360 4f ac 1f 3a 49 2e e1 ba 05 cd 17 3d 8a e8 df bb
       0.00060910446 -0.0017179932 0.037060756 -0.0068331407
000370 b6 be 18 bd 73 fe 21 3d 7a 36 d5 3c 03 0c de bc
       -0.03729125 0.039549302 0.026026953 -0.027105337
000380 e2 6c 28 3d 5c 11 55 bc 3f 4c 32 3c 76 e2 1a bd
       0.041119464 -0.013004627 0.010882436 -0.037813626
000390 75 59 6e 3c fa ba b6 bc b8 7f 4b 3c 7f e2 1c bd
       0.014547695 -0.022305954 0.012420587 -0.03830194
0003a0 e3 64 1a 3d 0f e8 b5 3c c8 70 48 bc fa 89 57 bc
       0.03769387 0.02220538 -0.01223392 -0.013155455
0003b0 29 ee c6 3c 3d b7 fb 3c 4d 82 80 bb c3 4d a5 bb
       0.024283485 0.030727023 -0.003921783 -0.0050446703
0003c0 49 b4 26 3d 62 f1 15 3d b7 0b e5 3c 5d 26 d0 3b
       0.040699277 0.036607154 0.027959688 0.0063522295
0003d0 3b c4 d2 3c 00 33 2f 3c d4 ad 80 bc 50 fa 1a bb
       0.025728336 0.010693312 -0.015707888 -0.0023647733
0003e0 16 35 8e 3c 29 6a f8 bc 19 cb 4a 3c 63 ef 92 3c
       0.017359298 -0.030324059 0.012377524 0.017936414
0003f0 84 d2 2b bd 14 8c 31 3c 73 3d d5 39 03 0d f4 3c
       -0.04194881 0.01083662 0.0004067231 0.02979136

fc1.weight f4 [64, 256]
000000 1c 23 6f bd d0 d7 c8 bc 38 ba 0b bc 08 39 5b bd
       -0.058383092 -0.02451697 -0.008528285 -0.053521186
000010 88 90 08 3c ec 7f 4a bd d0 20 e2 bb 00 0e 00 3a
       0.00833524 -0.049438402 -0.006900884 0.00048848987
000020 e0 a5 6a bc 40 98 53 3b 2e db 14 bd 2a 22 12 3d
       -0.014321774 0.0032286793 -0.03634184 0.035677113
000030 e6 95 5c bd 80 bd b6 ba 88 d1 f3 bc d8 25 88 bc
       -0.05385389 -0.0013941973 -0.029762998 -0.016619608
000040 58 9d 50 3d 7c 6c 75 3d fc 89 cc 3c 00 e9 63 bb
       0.050931305 0.059917912 0.02496814 -0.003477633
000050 10 73 8a bb d6 9c 7b bd d8 92 52 bc 74 65 4a bd
       -0.0042251423 -0.061428867 -0.012852393 -0.04941316
000060 10 8f 29 bd 10 a3 7e 3c 50 ca 55 bd fe e6 2c 3d
       -0.0413962 0.015541807 -0.052194893 0.04221248
000070 e8 3b c7 bc 40 e8 f5 ba 34 f1 97 bc be 75 00 3d
       -0.024320558 -0.0018761232 -0.018547632 0.031362288
000080 7c 16 aa bc 5e 31 51 3d c6 d6 0b 3d 28 45 7c 3d
       -0.020762675 0.05107247 0.03414037 0.06158939
000090 40 9b 51 3d 80 e7 95 ba 28 65 62 bc 4c 7d dc bc
       0.05117345 -0.001143679 -0.013818063 -0.026915215
0000a0 08 ca 3e bc 98 59 95 3c 52 b3 06 bd 9c ed e8 3c
       -0.011644848 0.018231198 -0.032885857 0.028433613
0000b0 32 a8 1c 3d 2e 2e 1b bd d0 76 f8 3b b8 6e 00 bd
       0.03824634 -0.037885837 0.007582523 -0.03135559
0000c0 9e b5 50 3d cc f2 d0 bc 38 f9 69 3d 00 18 8a 38
       0.050954454 -0.0255064 0.05712244 6.584823e-05
0000d0 32 f7 11 3d a0 7e 49 bc 80 a3 37 3a fa cc 1d 3d
       0.035636134 -0.012298256 0.00070052594 0.03852556
0000e0 70 4e 3c bc 4a e0 31 3d 06 e2 7e 3d 70 0f 35 bc
       -0.01149331 0.04342679 0.06222727 -0.011051044
0000f0 e8 06 e7 3c 5e de 21 3d 98 b2 0e bd 48 e7 ec bc
       0.028201535 0.039518707 -0.03483829 -0.028918877
000100 cc 43 93 3c d4 bc 8e 3c e0 cf 41 3b 60 83 80 bb
       0.017976664 0.017424025 0.0029573366 -0.003921911
000110 20 21 d8 bc 3e 9b 35 3d f2 bb 0b 3d 8c 6a 25 bd
       -0.026382983 0.044337504 0.034114785 -0.040384814
000120 18 97 42 3c 6e aa 5f bd c8 ea 36 bd 3e 40 19 bd
       0.011876844 -0.054605894 -0.0446575 -0.03741478
000130 40 83 3e bb 10 28 63 3d 60 bc 62 3b a0 ad 99 3c
       -0.002906993 0.05545813 0.0034597144 0.018759549
000140 50 e6 03 bd 9c da d5 bc f8 46 3b bc e8 aa 79 bc
       -0.032202065 -0.026105218 -0.0114304945 -0.015238501
000150 28 2f 63 3d 38 f8 21 3c b0 a6 fe 3c d8 33 08 3d
       0.055464894 0.00988584 0.031085342 0.033252567
000160 bc 49 0c 3d 68 e1 23 bc 2c a1 f6 bc 56 0b 58 bd
       0.034250006 -0.0100024715 -0.03010615 -0.052745186
000170 6a f8 73 bd 88 ac 79 bd 5c 1c 28 bd 30 fb 2c 3c
       -0.059563078 -0.060955554 -0.04104267 0.010557935
000180 88 f1 4c 3c 3c dd e1 3c 80 81 54 bc a0 9e 44 bd
       0.012508757 0.027571313 -0.012970328 -0.04800284
000190 02 67 2d bd 38 bf 06 3d 18 76 68 3c 40 27 f1 3c
       -0.042334564 0.032897204 0.014188312 0.029437661
0001a0 b0 ae 28 3d 68 a3 47 3c a4 e9 75 bd 78 ef 6c bc
       0.04118222 0.012184955 -0.06003727 -0.014461391
0001b0 f4 6f 47 bd e4 ac 2a bd 40 7b 68 3d b0 da 9e bb
       -0.04869075 -0.041668788 0.056758165 -0.004847847
0001c0 b8 6d 1a 3d 60 ff 78 bc b0 a2 aa bc aa 74 38 bd
       0.037702292 -0.015197605 -0.020829529 -0.045033135
0001d0 7c 7f a4 bc 28 47 50 bd 80 c8 29 3a 24 74 8d 3c
       -0.02008032 -0.05084911 0.0006476715 0.017267294
0001e0 58 33 ef 3c e0 f0 4c bd 70 51 79 bc 00 8c 1f 39
       0.029199287 -0.050034404 -0.01521717 0.00015215576
0001f0 d2 54 47 3d fe 54 24 bd 92 3f 5b bd b0 67 a5 bc
       0.048664875 -0.040120117 -0.053527422 -0.020191044
000200 b2 27 32 bd cc 42 a8 bc f2 f9 00 bd 56 3c 40 3d
       -0.043494888 -0.020539664 -0.031488366 0.04693254
000210 c0 b8 f5 3a e8 17 09 3c 64 1e 8a 3c 48 2e 69 3d
       0.0018747076 0.008367516 0.016860195 0.056928903
000220 82 be 6b 3d de 05 66 3d 00 2a 66 bc 84 10 9f bc
       0.05755473 0.05615794 -0.0140480995 -0.019417055
000230 54 ac 71 3d 1a fb 0b 3d 72 25 4b 3d e0 92 c8 3c
       0.059002236 0.034175016 0.049596258 0.024484098
000240 40 64 04 3b 00 6f f6 b9 d4 95 f0 3c ea 85 00 bd
       0.0020201355 -0.00047003478 0.029368319 -0.03137771
000250 2e 35 57 bd f8 3b af 3c 80 57 cf 3c 38 4a be bc
       -0.05254095 0.0213909 0.025310278 -0.02322875
000260 00 20 0d bc f0 77 00 bc 90 03 8c bc f2 12 3a bd
       -0.008613586 -0.007841095 -0.017091542 -0.045428224
000270 5e 57 5a bd 40 42 81 ba 4c 88 25 3d 98 31 9e 3c
       -0.053305976 -0.0009861663 0.040413186 0.019310758
000280 e0 96 28 3c 66 e8 5d 3d c8 b2 1a 3d 5a 3d 61 bd
       0.010289878 0.05417671 0.037768155 -0.05499015
000290 a0 26 f8 bc 24 92 5e 3d 58 9d 25 bc 70 08 24 3c
       -0.030291855 0.05433859 -0.010108314 0.010011777
0002a0 54 75 3f 3d 28 2c 3b 3d 04 d6 38 bd 4c d3 88 3c
       0.046742752 0.045696408 -0.045125976 0.016702317
0002b0 70 be 4b bd ec 6f 36 3d a2 e1 15 bd f8 1a 63 3c
       -0.049742162 0.04454033 -0.036592133 0.01386141
0002c0 f0 51 90 bc d0 bf 62 bd ee 82 0f 3d 8c 93 f1 3c
       -0.017617196 -0.055358708 0.035036974 0.029489301
0002d0 90 30 c6 3c 8c be 5a bd 20 1b e2 bc f4 92 a3 3c
       0.024193078 -0.053404376 -0.027600825 0.019967534
0002e0 a0 7d 03 3d 16 61 06 3d 5a f3 0e bd 82 7b 62 3d
       0.032102227 0.032807432 -0.034900047 0.055293567
0002f0 90 e4 8f bc 00 2c 4e 3b 3c de 7e bd e8 45 80 bc
       -0.017565042 0.0031459332 -0.062223658 -0.015658334
000300 8c 52 69 3d 8a 6d 26 bd 28 1d c4 bc e0 ea 7e bb
       0.05696349 -0.04063181 -0.023939684 -0.003889732
000310 a8 fb 67 bc 04 33 37 bd 3c 76 91 3c 88 42 98 bc
       -0.014159121 -0.044726387 0.017756574 -0.018586412
000320 00 1a 39 39 9e c8 04 3d 10 ce c4 3c 26 7b 72 bd
       0.0001765266 0.032417886 0.02402404 -0.059199475
000330 78 72 18 bc 80 18 b5 3c d2 5e 67 bd b8 a8 39 bc
       -0.009304635 0.02210641 -0.056486912 -0.01133173
000340 cc 86 e8 3c 00 7d aa 39 30 b5 6f 3d cc a5 17 3d
       0.028384589 0.0003251806 0.058522403 0.03702335
000350 8e 6d 0a 3d 9e 73 36 bd 04 11 4b 3d c4 2f 61 3d
       0.033795886 -0.044543855 0.049576774 0.054977193
000360 cc 3a 4f 3d 64 c8 5f 3d d4 46 7b bd 94 8f 6e 3d
       0.050593182 0.054634467 -0.061346844 0.058242396
000370 b2 ee 0f bd 54 3a 50 bd f8 87 89 3c 66 fc 7b bd
       -0.035139747 -0.050836876 0.016788468 -0.061520003
000380 f6 e6 73 bd 5a 3b 59 bd e0 51 33 bd 46 82 50 bd
       -0.059546433 -0.053035118 -0.043779254 -0.05090549
000390 c0 5d 08 bc f2 a8 27 3d 90 ec be bb c0 3a 28 bb
       -0.008323133 0.040932603 -0.0058265403 -0.0025669783
0003a0 72 ca 12 3d 70 45 00 bc 0c 91 ec 3c 12 96 00 bd
       0.0358376 -0.007829055 0.028877757 -0.03139312
0003b0 38 98 02 3d 10 0b 15 3d 88 2e 07 bd 7e 32 6b 3d
       0.03188345 0.036387503 -0.03300336 0.0574212
0003c0 f8 85 ee bc be 28 2c 3d 66 58 22 3d 00 15 a2 3a
       -0.029116616 0.042031042 0.039635085 0.0012365878
0003d0 d2 3e 5e 3d 08 e1 bf bc 84 4a fb 3c a0 9f a8 bc
       0.05425913 -0.023422733 0.03067518 -0.020583928
0003e0 a6 8d 02 3d fc 12 a9 bc 58 e5 42 bd 54 0b 10 3d
       0.031873368 -0.020638935 -0.047582 0.035167053
0003f0 90 37 67 bd 1a 01 05 bd d2 3c 32 bd 10 20 40 3c
       -0.056449473 -0.032471754 -0.043515034 0.011726394

fc1.bias f4 [64]
000000 6e e6 01 bd f0 55 9b 3b ca 6c 3c 3d dd 21 95 3b
       -0.031713895 0.004740469 0.046002187 0.004551156
000010 76 25 13 bd b2 43 12 3d 59 b5 40 3b 7e 0e 80 3d
       -0.035924397 0.03570909 0.0029404967 0.06252764
000020 95 57 f6 3c 9a 10 06 3d 34 5d 55 3d f8 6a 77 bd
       0.03007106 0.032730676 0.05209084 -0.060404748
000030 7c 87 1a bc 32 17 60 bd 1c 31 23 bd 17 fa 39 3d
       -0.009431716 -0.05470962 -0.039841756 0.04540452
000040 10 f2 7f 3d bc a6 b0 bc ef cd 87 3b b0 54 c0 bb
       0.06248671 -0.02156388 0.0041444222 -0.0058694705
000050 b8 6c 0f bd 71 ee 2e 3b c4 c8 40 bd 8f 63 72 bc
       -0.03501579 0.0026692415 -0.047066465 -0.014794244
000060 35 42 78 3d 1a 50 67 bd c0 ca 58 bc f0 b2 4a bd
       0.060610015 -0.056472875 -0.013231933 -0.049487054
000070 69 3b 4f 3c e7 e3 c9 3c 10 44 4e 3d 22 59 35 bd
       0.012648442 0.024644805 0.05035788 -0.044274457
000080 a8 88 91 3c 34 de 9f bc dc ee 42 bd 9e 35 3b 3d
       0.017765358 -0.019515134 -0.047591075 0.04570543
000090 80 81 da ba 93 0b 30 3d fe 1a 04 bd 98 39 53 bd
       -0.0016670674 0.042979788 -0.032252304 -0.051568598
0000a0 8f 91 a7 bb 76 de 3f 3d a7 da 2d 3d f4 a4 ca 3c
       -0.0051137875 0.046843015 0.04244485 0.024736859
0000b0 56 47 28 3d e8 42 68 3d c8 7a 0b bd 04 d9 03 3d
       0.041083656 0.05670443 -0.03405264 0.032189384
0000c0 ee c5 4d bd f8 78 39 bc 2d 45 2a bd 16 bd 69 bd
       -0.05023759 -0.011320345 -0.041569877 -0.057065092
0000d0 a2 cb 66 bd 74 c6 65 3d c0 8a 4f bd 12 86 f2 3b
       -0.056346543 0.056097463 -0.05066943 0.0074012363
0000e0 1c ca 50 3d 48 6c 0c 3a 68 91 c4 bc 04 c1 95 3c
       0.050973997 0.00053567113 -0.023995116 0.018280514
0000f0 a0 a7 35 bc 3e 28 19 bd 28 f1 32 3d bc 71 4e 3d
       -0.011087328 -0.037391894 0.043687016 0.050401434

fc2.weight f4 [5, 64]
000000 8c 68 84 3d bc 3d d1 bd 8d f9 9a bb 53 0a f1 bc
       0.06465253 -0.10216853 -0.004729456 -0.029423868
000010 80 b5 a7 bd 3d 3c 80 bd 8c df b4 3c 0a 81 84 3d
       -0.08188915 -0.062614895 0.022079252 0.06469925
000020 a7 16 21 3d f6 61 95 bd e2 b4 a0 bd 70 bd 69 3d
       0.039328244 -0.07294075 -0.07847001 0.057065427
000030 fb ec b9 bd 10 63 83 bc f6 e9 92 3d 32 fb 00 3e
       -0.090784036 -0.016038448 0.07173531 0.12595823
000040 74 cb 7a 3d 8c 6c 3b 3d b6 64 ec bc 40 f9 75 bd
       0.061229184 0.045757815 -0.028856616 -0.060052156
000050 0c a8 d8 3d ed ad 59 bd 28 4b 8c 3d 26 6e ad 3d
       0.105789274 -0.053144384 0.068502724 0.08468275
000060 93 e9 b1 3d 76 00 da 3d 2c 6f 0a 3d d6 23 d6 bd
       0.08687129 0.10644619 0.033797428 -0.10456054
000070 bb 70 31 bd f7 6d 89 3c 6a f7 34 3d 18 cc 60 3d
       -0.0433204 0.016776068 0.044181265 0.05488214
000080 56 fb db 3c 0d 2f 26 3d 40 22 c8 3b fd 18 c1 bd
       0.026853245 0.040572215 0.0061075985 -0.09428594
000090 c8 7d f5 bd 6d bb ad bd 08 d9 cc 3c 28 4e 98 bd
       -0.119868815 -0.08483014 0.025005832 -0.07436782
0000a0 71 10 48 bb d4 1f c7 3d 0e f3 73 3d 4c 62 ea 3d
       -0.0030527378 0.097228676 0.059557967 0.1144453
0000b0 49 50 cc 3d bd f3 e2 3d 6c c2 56 bd fe dc f8 bd
       0.09976251 0.11081646 -0.05243151 -0.12151526
0000c0 ca 86 82 3d a0 8b b7 bb 11 ac 72 3d f8 e7 ae bc
       0.06373365 -0.0056013614 0.059246127 -0.021350846
0000d0 30 79 18 3d 67 c3 23 bd a6 ac b8 bd 87 d9 4f bd
       0.03722495 -0.039981272 -0.09017305 -0.05074456
0000e0 95 02 fb bd d1 c2 95 3b b0 cd 49 3d 07 8d 00 bd
       -0.12256352 0.004570343 0.049268425 -0.031384494
0000f0 14 80 23 bd c8 2d 00 3c 5a e7 c0 3d 91 04 9b 3d
       -0.039917067 0.007823415 0.09419127 0.0756923
000100 ba f3 e4 bd d0 52 c1 bd cb 7c c4 3d a6 85 e6 3d
       -0.111793 -0.09439623 0.09594115 0.1125596
000110 bc 99 0e bd 85 4d da bb 06 cc fe 3c 18 4f db 3d
       -0.03481458 -0.006662073 0.031103145 0.10708445
000120 96 37 8a 3d 28 46 c4 3d 67 68 96 bb 68 3c f7 bd
       0.067488834 0.09583694 -0.0045900824 -0.120720685
000130 8c 60 fb bd 40 ea d8 3c 34 78 9e bd 10 d0 10 3d
       -0.12274274 0.026478887 -0.07737771 0.035354674
000140 b5 f9 82 3d 48 e8 1b bd 40 23 b8 3d bc 82 52 3d
       0.06395284 -0.038063318 0.089910984 0.05139421
000150 da cf 4b bd 51 f6 d1 3d 62 53 d9 3d db 70 e6 3d
       -0.04975877 0.10252059 0.10611607 0.11251994
000160 54 15 3f 3d e8 f5 28 3d 88 72 9a bc 14 93 5f bd
       0.0466512 0.04125014 -0.01885344 -0.054583624
000170 0b 82 c4 3d 2c f6 ed 3d b6 1e 8b bd 00 cd c2 3c
       0.09595116 0.11619219 -0.06792967 0.023779392
000180 59 a4 f9 3c 23 74 de bd d4 05 f1 3d 29 8b 32 3d
       0.030473875 -0.10861995 0.1176869 0.043589745
000190 b0 6c 09 3c 02 05 ba 3c 60 a6 5c bd 34 5b c9 bd
       0.0083877295 0.022707466 -0.053869605 -0.09831849
0001a0 ee b9 ab 3d c4 8d 2d bd ee 63 d3 bd 16 6c d7 3d
       0.08385073 -0.042371526 -0.103217945 0.10518663
0001b0 d7 90 05 bd c7 69 d7 3d 10 2c 40 3d 0d f8 d2 bd
       -0.032608833 0.10518222 0.04691702 -0.10301218
0001c0 60 65 73 bd 08 dc a5 3c 96 60 2c bd ba 81 ec bd
       -0.05942285 0.02024652 -0.0420843 -0.11548181
0001d0 4e 7b ad 3d ce 8e 9a bc d4 4d 27 3d d4 88 ba 3d
       0.08470784 -0.018866923 0.040845707 0.09108129
0001e0 37 f2 c8 bd c9 d1 83 bc 50 27 25 3c 2a f4 7e 3c
       -0.09811824 -0.016091244 0.010080174 0.015561143
0001f0 ea 9e df 3d 11 be 85 3d b1 c3 a1 3d bb 40 eb 3d
       0.10918982 0.06530393 0.07898653 0.11486956
000200 d4 c5 5d bd 32 d2 f0 3d 16 f4 68 3d be 21 52 bd
       -0.05414374 0.117588416 0.056873403 -0.05130171
000210 34 db b8 3d 66 e6 b8 3d dc 2e 85 3d c9 4f 7e 3c
       0.09026185 0.0902832 0.06503078 0.015521952
000220 da 62 20 bb 6a 5e 78 bd 49 eb f8 bd 24 a7 3d bd
       -0.0024472983 -0.060636915 -0.12154252 -0.046301976
000230 59 45 af bd 38 67 dc 3d 8e c0 d6 bd 55 d4 3d bd
       -0.08558149 0.10761875 -0.10485946 -0.046345074
000240 13 0f 90 3d f4 ad 99 bd 3a 9e 8b 3d 60 66 d3 bb
       0.07034125 -0.07503882 0.06817289 -0.006451413
000250 25 88 81 bd d7 45 e8 bd e8 09 e5 bc 6c 7e 87 bc
       -0.06324796 -0.11341446 -0.027958825 -0.016539775
000260 5a 42 9b bd fa 6e d5 3d c8 c8 17 3d a0 69 d2 3d
       -0.07581015 0.10421558 0.037056714 0.102740526
000270 8b f2 21 3d 06 aa af 3d 6f 35 8a bd 4c 7e 6d bd
       0.039537948 0.08577351 -0.06748473 -0.057981774
000280 01 d3 2f 3d d2 ed 22 bc 04 31 cc 3d 95 34 5a bd
       0.04292584 -0.009944396 0.099702865 -0.053272802
000290 82 43 c4 bd 07 6b 85 3d 6a 47 d1 3d 90 3d b6 3d
       -0.095831886 0.065145545 0.10218699 0.08898461
0002a0 67 30 ed 3d 88 10 52 bc 74 e6 9c bb 9d d9 7d bd
       0.11581498 -0.012821324 -0.0047882143 -0.06197511
0002b0 60 c2 a2 3c 0b 0e 63 bd f8 00 b7 3c 02 09 6b bd
       0.019868076 -0.055433314 0.02233933 -0.057381637
0002c0 c0 10 b4 bd 40 9a b6 3d 79 2d 35 3d 00 d5 62 bd
       -0.08792257 0.089161396 0.04423282 -0.055378914
0002d0 72 1b 86 bd 2e 22 03 3e a0 0b a2 3c bb 61 fb bd
       -0.065482035 0.12806007 0.019780934 -0.122745
0002e0 47 55 9b 3d e2 f9 ba 3d c0 64 12 3d 51 f2 fa bc
       0.07584625 0.091296926 0.035740614 -0.030633124
0002f0 48 93 a1 3c 66 3c 50 3d fc f6 02 3e ab a2 15 3d
       0.01972355 0.05083885 0.1278953 0.036532085
000300 10 92 94 bd 20 7a 95 bd bf d2 06 3d 4a 52 2c bc
       -0.07254422 -0.07298684 0.032915827 -0.010517666
000310 d4 35 69 3d 93 f4 d3 3c 3a f9 9a 3d 72 29 e0 bc
       0.0569361 0.025873458 0.075670674 -0.027363513
000320 68 5b 80 3c a1 2b 06 bc 99 14 2f 3d a0 b5 26 bc
       0.015668586 -0.008189113 0.042744253 -0.010175139
000330 16 01 1f 3d a4 4c d2 3d f0 56 86 bd 9c 0a a1 3d
       0.038819395 0.10268524 -0.06559551 0.07863352
000340 2c 21 7c 3d f6 11 b3 bd 9a 6a 24 3d 00 84 15 ba
       0.061555073 -0.0874366 0.040140726 -0.00057035685
000350 b5 51 10 bd 75 81 6b 3d 5c a9 6d bd 13 60 db 3d
       -0.035234172 0.057496507 -0.05802284 0.10711684
000360 73 4c c3 bd 8e c6 84 bd 6c 1f c5 3d a0 14 84 3c
       -0.09536066 -0.06483184 0.09625134 0.016123116
000370 88 8b d4 bc d5 3d 8c 3d 98 0b a4 3d f8 8c 38 bd
       -0.02594544 0.06847731 0.08010024 -0.045056313
000380 bd 4e 23 bd 11 bd 5c 3d 4a e4 d5 bd ad 4b ce bd
       -0.039870013 0.053891245 -0.10443933 -0.10073028
000390 c0 cd 24 bd 89 24 d6 bd 24 96 80 bd b0 b1 7c 3c
       -0.04023528 -0.10456187 -0.06278637 0.015423223
0003a0 b5 d4 ad bc 1a 13 7e bd 41 93 13 3c e0 3c ff 3d
       -0.02121959 -0.062029935 0.009007276 0.12462783
0003b0 fb e3 14 bd 63 95 d8 bc 30 74 4a 3c f2 49 88 3d
       -0.03635023 -0.02643842 0.012356803 0.06654729
0003c0 06 50 ec 3d 96 07 b4 bd a8 d7 e8 bd 50 b6 78 bc
       0.11538701 -0.087905094 -0.11369258 -0.015180185
0003d0 48 b2 c5 bc d5 3e fe bc 86 a3 ac bd 15 8a 0d 3d
       -0.024132863 -0.03103582 -0.08429627 0.034555513
0003e0 a5 6c 84 bc 84 32 8b bd 50 70 fa 3d 76 46 ba bd
       -0.016165087 -0.067967445 0.12228453 -0.090954706
0003f0 a0 a6 f0 3c 3d 29 67 bd 65 df 79 3b ff 1c 91 3d
       0.029376328 -0.056435812 0.0038127538 0.07085609

fc2.bias f4 [5]
000000 e0 48 e5 bd 3c 09 2b bc 2f 75 5e bd 40 0f f6 bb
       -0.111955404 -0.010439213 -0.054310974 -0.007509142
000010 1d 84 34 3d
       0.044071306
