LSTM_hidden_tournament2_tiny/agent1_25.pth (torch, 509331 bytes, 14 tensors)

shared_encoder.0.weight f4 [16, 8, 3, 3]
0.060864054 -0.105061896 -0.014083134 -0.064612664 -0.11793953 -0.1266635 0.047946896 0.0011476435
0.010554958 0.039329987 -0.09022563 -0.050842628 -0.014308877 -0.05039448 0.03034364 0.049201626
-0.018183785 -0.113085985 -0.0457872 -0.09135062 0.002523981 -0.09137958 -0.10377799 0.068092026
0.025421433 0.06631597 0.10026843 -0.116164066 -0.048957936 -0.009273037 -0.08901468 0.021733351
-0.05295348 0.085046194 0.013490014 -0.0016193837 -0.17261544 -0.09073577 -0.023851767 -0.05858141
-0.009678069 -0.05088385 -0.09753858 -0.13465527 -0.050203595 -0.11275486 0.02392474 -0.11116177
-0.013788902 0.025119064 -0.096271716 -0.023372494 0.01868928 -0.047382917 -0.075581744 -0.016435761
0.08143275 0.046931956 -0.04597244 0.06916855 0.06576925 0.061076004 -0.099580966 -0.045008156
-0.115537174 -0.013475947 -0.0898229 0.03578274 -0.064834245 0.05762823 0.066653825 -0.021162339
-0.073088706 -0.0002224215 0.036549892 -0.058854368 -0.15249135 0.030395845 0.020336434 -0.13085209
0.032724727 -0.0018971259 0.07725831 -0.11052164 0.067934275 -0.15602216 -0.099711366 -0.025015866
0.08688058 -0.002172624 0.04720866 -0.0038382262 -0.017077886 0.033262365 0.06518792 -0.10292048
0.008413799 -0.10649026 0.04291997 -0.07592045 -0.059499606 0.024153568 -0.08559969 0.016019963
-0.11221133 0.02241864 -0.016481765 -0.096991576 -0.015780281 0.0676873 0.043810394 0.059093505
0.06359583 -0.06879031 -0.13229524 -0.0871037 -0.12749587 -0.08025264 -0.07826086 -0.01592158
0.012917115 -0.06524201 -0.14544629 -0.01487667 0.062831566 0.14893429 -0.12929644 0.054799017
0.0438351 -0.0062336335 -0.05422717 0.004983101 -0.05476281 -0.06216029 0.05488502 0.044458356
-0.113084726 -0.11629702 -0.08398713 0.043866236 0.06804657 -0.04723691 0.025776666 -0.075733125
-0.01616004 -0.114383094 -0.12692834 -0.11005839 -0.023080144 -0.0241106 0.066036455 -0.11183801
0.06597872 -0.026278159 -0.118991435 -0.14740673 -0.059406 0.05048315 0.020413013 -0.018140558
0.025439592 -0.06750488 -0.041327104 -0.11414989 0.04217454 -0.09549299 0.03388477 -0.102791145
-0.06979272 0.019972332 -0.02500806 -0.029565498 0.0012706295 0.074222274 -0.055750165 -0.090838246
-0.041731685 0.022426777 0.107690506 -0.018370263 -0.059852067 0.069289975 0.07615489 -0.09672551
-0.011762447 -0.03356629 -0.011392822 -0.026846047 -0.070582114 -0.10088877 0.044240247 -0.022883225
-0.09127996 0.07787351 -0.1301449 0.052859467 -0.10056572 -0.061489508 -0.103378974 -0.014333465
-0.11910199 0.032873567 0.0016876587 -0.031421233 -0.030550847 0.06302912 -0.061154198 -0.057981584
-0.14036813 0.024180079 0.048926067 0.011594142 0.057747714 -0.102354184 0.078748316 0.048036393
0.01949684 -0.074726716 -0.033606756 0.05322327 0.020246085 -0.060491752 0.013287636 0.11241473
0.0033316861 -0.07459907 -0.0021771453 0.0822038 0.08849085 -0.07831199 0.015710756 0.08133111
-0.038543336 0.03094426 -0.050139576 0.06146183 0.0643182 0.09821493 0.052120052 0.095833726
0.116361864 0.0959798 -0.02132108 -0.036526226 0.0931531 -0.086586274 -0.00045806915 0.024583943
-0.10515709 -0.10018119 -0.11687137 0.07940159 -0.062310945 0.09388548 -0.030275794 -0.007893567
00000000: 964c 793d b12a d7bd f2bc 66bc a553 84bd
00000010: 488a f1bd 14b4 01be f763 443d 876c 963a
00000020: b4ee 2c3c 7b18 213d 37c8 b8bd 5c40 50bd
00000030: c86f 6abc 716a 4ebd 3a93 f83c a587 493d
00000040: 29f6 94bc a099 e7bd 5c8b 3bbd 0916 bbbd
00000050: 6069 253b 3825 bbbd 8e89 d4bd d573 8b3d
00000060: 9c40 d03c abd0 873d 8959 cd3d 6de7 edbd
00000070: 1e88 48bd f0ed 17bc 544d b6bd 240a b23c
00000080: c0e5 58bd b32c ae3d 3805 5d3c 8041 d4ba
00000090: 1ac2 30be add3 b9bd c864 c3bc 10f3 6fbd
000000a0: c390 1ebc 956b 50bd 4fc2 c7bd 12e3 09be
000000b0: 49a2 4dbd 05ec e6bd d1fd c33c c8a8 e3bd
000000c0: d9ea 61bc 7fc6 cd3c 1b2a c5bd ac77 bfbc
000000d0: 431a 993c 9714 42bd 9aca 9abd 4aa4 86bc
000000e0: 37c6 a63d b93b 403d 994d 3cbd 3ea8 8d3d
000000f0: 07b2 863d d52a 7a3d 1bf1 cbbd 795a 38bd
00000100: c19e ecbd 38ca 5cbc 12f5 b7bd ec90 123d
00000110: d1c7 84bd 940b 6c3d cd81 883d a45c adbc
00000120: 88af 95bd d139 69b9 57b5 153d 4711 71bd
00000130: b126 1cbe b500 f93c 9898 a63c 17fe 05be
00000140: 5d0a 063d fba8 f8ba 9b39 9e3d 2b59 e2bd
00000150: 2021 8b3d 46c4 1fbe 7935 ccbd 13ee ccbc
00000160: 72ee b13d 9562 0ebb de5d 413d c08a 7bbb
00000170: ece6 8bbc 1e3e 083d 3f81 853d f9c7 d2bd
00000180: 08da 093c 9117 dabd dacc 2f3d 2e7c 9bbd
00000190: dcb5 73bd b4dd c53c e44e afbd 4c3c 833c
000001a0: 0ecf e5bd 4ca7 b73c c404 87bc 85a3 c6bd
000001b0: a645 81bc a49f 8a3d 8772 333d 080c 723d
000001c0: 883e 823d efe1 8cbd 6778 07be 6d63 b2bd
000001d0: 478e 02be 7f5b a4bd 3b47 a0bd f96d 82bc
000001e0: 4fa2 533c 9a9d 85bd dfef 14be 47bd 73bc
000001f0: d6ad 803d 3b82 183e 4966 04be ef74 603d
00000200: 6f8c 333d 8243 ccbb 4f1d 5ebd 4849 a33b
00000210: f84e 60bd ca9b 7ebd 1dcf 603d f719 363d
00000220: f798 e7bd 222d eebd 7201 acbd 15ad 333d
00000230: 005c 8b3d 7d7b 41bd 9629 d33c f819 9bbd
00000240: 0f62 84bc af41 eabd 81f9 01be 4b66 e1bd
00000250: 9212 bdbc 9883 c5bc 1f3e 873d 540b e5bd
00000260: da1f 873d 4b45 d7bc c8b1 f3bd caf1 16be
00000270: b553 73bd 6bc7 4e3d 3139 a73c 829b 94bc
00000280: b166 d03c 0040 8abd 9c46 29bd 6bc7 e9bd
00000290: 36bf 2c3d d491 c3bd c2ca 0a3d 2a84 d2bd
000002a0: 7cef 8ebd 049d a33c b4dd ccbc 5833 f2bc
000002b0: 408b a63a d901 983d 495a 64bd 6709 babd
000002c0: d8ee 2abd 5cb8 b73c d78c dc3d 3c7d 96bc
000002d0: 7127 75bd e7e7 8d3d 18f7 9b3d 0618 c6bd
000002e0: 47b7 40bc ce7c 09bd f5a8 3abc 3eec dbbc
000002f0: 5b8d 90bd c59e cebd 4335 353d 9a75 bbbc
00000300: fdf0 babd 267c 9f3d b444 05be 2b83 583d
00000310: 66f5 cdbd 6cdc 7bbd 5bb8 d3bd e9d6 6abc
00000320: beeb f3bd 6fa6 063d 6e34 dd3a 8db3 00bd
00000330: c545 fabc 6915 813d d37c 7abd 197e 6dbd
00000340: aabc 0fbe 4d15 c63c b366 483d 5bf5 3d3c
00000350: de88 6c3d 129f d1bd cc46 a13d cfc1 443d
00000360: d6b7 9f3c 520a 99bd 3da7 09bd a500 5a3d
00000370: 1edb a53c 33c6 77bd 63b4 593c b239 e63d
00000380: 6b58 5a3b 66c7 98bd 70ae 0ebb 775a a83d
00000390: b13a b53d 0962 a0bd d8b3 803c ed90 a63d
000003a0: 9edf 1dbd d17e fd3c 285f 4dbd 66bf 7b3d
000003b0: 43b9 833d e924 c93d d67b 553d 7944 c43d
000003c0: 214f ee3d 0f91 c43d 8ca9 aebc 869c 15bd
000003d0: 0dc7 be3d 2554 b1bd 0029 f0b9 4464 c93c
000003e0: 9a5c d7bd cc2b cdbd 425a efbd 4d9d a23d
000003f0: c339 7fbd 0847 c03d f104 f8bc 0554 01bc

shared_encoder.0.bias f4 [16]
-0.10585295 -0.07413393 0.030836 0.012359597 0.07094061 -0.14677763 -0.015801603 -0.0032990668
0.00146332 -0.031440943 -0.042041644 0.061899394 0.031882767 -0.0830176 0.055548906 0.011570825
00000000: 6ec9 d8bd 88d3 97bd c79b fc3c e87f 4a3c
00000010: 4f49 913d e04c 16be 5d72 81bc 2835 58bb
00000020: dfcc bf3a 38c8 00bd dc33 2cbd 388a 7d3d
00000030: 8197 023d 2205 aabd 4087 633d 8f93 3d3c

shared_encoder.2.weight f4 [64, 16, 3, 3]
-0.039700814 0.006823119 2.0203412e-05 0.029116228 -0.071955 -0.01605106 -0.011561709 0.017067714
-0.08748888 -0.037241157 -0.041112207 0.0012242267 -0.02187713 -0.075668275 -0.06874163 -0.045323636
-0.008766219 -0.10023752 -0.058869075 -0.095078655 0.04858758 0.04132735 -0.014514364 0.030392706
-0.027837195 0.024725348 -0.017400462 -0.017529232 0.029948503 -0.05677073 -0.029225111 -0.05676744
-0.05425002 -0.07502522 -0.0144978715 -0.0011760221 -0.09655064 -0.028546732 -0.100630015 -0.06937884
-0.08079234 0.032162867 0.037278388 0.026852217 -0.07847485 -0.012681317 0.008140263 0.047983382
-0.041172806 -0.022066485 -0.08830272 -0.049631584 -0.033253096 -0.025915409 -0.09355671 -0.040442877
-0.020595629 0.026768865 0.0153486375 -0.011835839 0.0151335 -0.034858577 -0.09213687 0.049060065
-0.0124710165 -0.071203075 -0.037834343 -0.0904276 0.0317474 -0.06280166 -0.09867367 0.0381736
0.0060304254 0.027897904 0.05439583 -0.002783158 -0.030643336 -0.030078208 0.05754769 0.05971748
0.012261266 -0.102718726 0.012594399 -0.0023649875 -0.020285055 -0.0024867167 -0.066458546 -0.05736066
-0.08292301 -0.029390708 -0.07339233 0.0465881 -0.060087554 -0.085802205 -0.0343298 0.047022473
-0.049751975 -0.022754146 -0.034277037 -0.06517705 -0.07441725 -0.057662267 -0.074258626 -0.09524102
-0.047279008 0.015410594 -0.01889862 -0.013880577 -0.09012286 -0.08171055 0.05463676 -0.0956968
-0.08111043 0.0114645865 0.022435037 0.011729969 0.053933542 0.026760515 -0.055259846 -0.0925425
0.032176007 0.03644922 -0.0017602888 -0.0586775 -0.09535383 -0.04138306 -0.029969536 0.029335197
-0.104699925 -0.10637548 0.048858166 -0.047812276 -0.03894813 -0.10915322 0.015543074 0.002085732
0.040498547 -0.089787625 0.041315712 -0.09886305 0.027367186 0.017457629 0.028723862 -0.06840228
-0.0062105968 -0.06315147 -0.10238086 -0.018063834 -0.0389674 0.03863151 0.042186398 0.0036311524
0.029931702 -0.0071734586 -0.0119835045 -0.09561195 -0.024356302 -0.022554299 -0.021293245 -0.047447063
-0.07074913 -0.055453833 -0.018604733 -0.07088809 0.013188553 -0.06235623 -0.10598212 -0.11711263
-0.01633549 -0.076388665 -0.00073920144 -0.063316345 -0.092921115 -0.06859382 -0.053907182 -0.027813427
-0.034458894 -0.042787302 -0.11544798 -0.076697536 0.016929658 -0.053621836 0.001771598 -0.026312953
-0.059156895 0.020913526 -0.07127888 0.034209467 -0.05347616 0.02292553 -0.008081649 -0.09481495
-0.050386243 -0.043042757 0.02452926 -0.08838807 0.020984998 -0.05992575 -0.07578697 -0.034970377
0.020335224 -0.08064371 0.023542635 -0.1005294 -0.06345022 0.03921093 -0.026698349 -0.027066246
0.016028225 -0.038584996 -0.040479142 0.031916946 -0.026995737 -0.001037539 -0.028393095 -0.10803618
-0.03604051 -0.06630266 -0.085740566 0.014417438 -0.10848579 0.015632994 -0.04425153 0.018220268
0.011153278 0.009290705 -0.0867856 -0.041458774 0.017892256 0.024607418 -0.0155269755 0.015201919
-0.09785979 -0.07846109 0.035594396 -0.0019294814 -0.0020839316 -0.107315324 -0.111768976 -0.048394546
-0.08139614 -0.022021659 0.027115304 -0.09296176 -0.028942853 -0.061352823 -0.10772421 -0.017095236
-0.08962605 -0.026824119 0.019602388 -0.060603466 -0.0027987026 -0.08156163 -0.07031948 -0.08319535
00000000: 529d 22bd 7894 df3b 7f7a a937 2885 ee3c
00000010: 255d 93bd 837d 83bc 536d 3dbc 97d1 8b3c
00000020: 5f2d b3bd 2f8a 18bd 4665 28bd 3b76 a03a
00000030: ab37 b3bc f8f7 9abd 69c8 8cbd 47a5 39bd
00000040: 30a0 0fbc 5449 cdbd b320 71bd 99b8 c2bd
00000050: c503 473d de46 293d a8cd 6dbc 20fa f83c
00000060: d40a e4bc d08c ca3c 6a8b 8ebc 7799 8fbc
00000070: 9056 f53c 6d88 68bd 8069 efbc fa84 68bd
00000080: 4535 5ebd d3a6 99bd 7b88 6dbc c124 9aba
00000090: 58bc c5bd d6da e9bc 1c17 cebd 7e16 8ebd
000000a0: 7476 a5bd 36bd 033d 39b1 183d 2ef9 db3c
000000b0: 6cb7 a0bd 4cc5 4fbc bd5e 053c 398a 443d
000000c0: d1a4 28bd c6c4 b4bc 0ed8 b4bd 7d4a 4bbd
000000d0: 6634 08bd 8d4c d4bc a99a bfbd 6ea7 25bd
000000e0: 2ab8 a8bc 614a db3c da78 7b3c 1beb 41bc
000000f0: 80f2 773c dec7 0ebd 41b2 bcbd 35f3 483d
00000100: 3c53 4cbc ebd2 91bd 2ff8 1abd 1b32 b9bd
00000110: 9009 023d 289e 80bd 6c15 cabd ec5b 1c3d
00000120: e09a c53b 258a e43c 29ce 5e3d a565 36bb
00000130: bc07 fbbc 9366 f6bc 20b7 6b3d 519a 743d
00000140: 7ae3 483c 325e d2bd bd58 4e3c e8fd 1abb
00000150: d82c a6bc 2ff8 22bb 6b1b 88bd 03f3 6abd
00000160: 8ad3 a9bd c8c4 f0bc b84e 96bd 2ad3 3e3d
00000170: 5e1e 76bd 11b9 afbd 689d 0cbd a39a 403d
00000180: bac8 4bbd e766 babc 1466 0cbd 8c7b 85bd
00000190: 1268 98bd 452f 6cbd e814 98bd b90d c3bd
000001a0: a2a7 41bd b77c 7c3c 47d1 9abc 5c6b 63bc
000001b0: 5692 b8bd dc57 a7bd ccca 5f3d affc c3bd
000001c0: 3a1d a6bd f6d5 3b3c afc9 b73c 0e2f 403c
000001d0: 6be9 5c3d de38 db3c 2658 62bd ec86 bdbd
000001e0: fdca 033d c74b 153d 7eb9 e6ba d157 70bd
000001f0: de48 c3bd 4981 29bd ac82 f5bc 5e50 f03c
00000200: ea6c d6bd 63db d9bd 801f 483d ced6 43bd
00000210: 1388 1fbd b98b dfbd 61a8 7e3c c7b0 083b
00000220: cee1 253d 93e2 b7bd aa3a 293d b678 cabd
00000230: 2631 e03c 4d03 8f3c 4e4e eb3c 7f16 8cbd
00000240: 4382 cbbb 8f55 81bd 0ead d1bd 9bfa 93bc
00000250: 489c 1fbd 133c 1e3d a5cb 2c3d a1f8 6d3b
00000260: 5433 f53c 550f ebbb 7656 44bc 33d0 c3bd
00000270: de86 c7bc cbc3 b8bc 2c6f aebc da57 42bd
00000280: ebe4 90bd 8f23 63bd f468 98bc c62d 91bd
00000290: cd14 583c 3f69 7fbd 270d d9bd bfd8 efbd
000002a0: 01d2 85bc a971 9cbd f8c6 41ba 00ac 81bd
000002b0: 6d4d bebd eb7a 8cbd c7cd 5cbd fcd8 e3bc
000002c0: c524 0dbd bd41 2fbd fe6f ecbd 9913 9dbd
000002d0: 11b0 8a3c 92a2 5bbd f734 e83a 438e d7bc
000002e0: 804e 72bd d852 ab3c a9fa 91bd 3a1f 0c3d
000002f0: d109 5bbd 52ce bb3c e568 04bc 572e c2bd
00000300: ce61 4ebd 9a4d 30bd 96f1 c83c ce04 b5bd
00000310: bbe8 ab3c b474 75bd 3336 9bbd 193d 0fbd
00000320: 0e96 a63c 8828 a5bd 7cdc c03c 5ce2 cdbd
00000330: 30f2 81bd a49b 203d 7fb6 dabc 08ba ddbc
00000340: a04d 833c 4d0b 1ebd 75cd 25bd 58bb 023d
00000350: 2a26 ddbc 08fe 87ba a398 e8bc 1342 ddbd
00000360: 379f 13bd b0c9 87bd c098 afbd 1e37 6c3c
00000370: cc2d debd c410 803c 1841 35bd ac42 953c
00000380: 3dbc 363c 0b38 183c a6bc b1bd add0 29bd
00000390: c892 923c 7f95 c93c db64 7ebc 7811 793c
000003a0: b76a c8bd 35b0 a0bd 6ecb 113d a7e6 fcba
000003b0: 9292 08bb 23c8 dbbd 22e7 e4bd 5c39 46bd
000003c0: 05b3 a6bd c466 b4bc ea20 de3c bc62 bebd
000003d0: 9019 edbc 194d 7bbd 839e dcbd 4f0b 8cbc
000003e0: dd8d b7bd 41be dbbc 3095 a03c 573b 78bd
000003f0: 706a 37bb c909 a7bd a903 90bd 5362 aabd

shared_encoder.2.bias f4 [64]
0.03408583 -0.050686844 -0.079287425 0.021472389 -0.01831325 -0.016558377 0.045007784 0.029573066
-0.0015692436 -0.053639606 0.0012189222 -0.041624043 0.035355918 -0.045434196 0.04670672 -0.0626672
-0.05423344 0.00058549363 0.002501643 0.018676605 0.046424437 -0.01105954 -0.008621987 0.013780614
-0.09303158 -0.047223654 0.04332052 -0.033291377 0.028427567 -0.0128498105 -0.07332403 -0.10530127
-0.008751731 0.025216004 -0.076247714 0.0031575193 -0.079059064 0.03007008 -0.02517076 0.020865047
-0.07828534 -0.032844875 -0.056185674 -0.02868546 0.032426666 -0.020721558 -0.04138166 -0.10609594
-0.025373414 -0.06865367 -0.07428858 -0.007169027 -0.03674417 -0.0007132109 -0.057123166 -0.031147212
-0.07460908 0.043345444 -0.092215315 0.022035098 -0.048263647 -0.054726887 0.009210682 -0.019832231
00000000: 959d 0b3d 029d 4fbd 7261 a2bd dde6 af3c
00000010: ab05 96bc 6fa5 87bc 155a 383d 3743 f23c
00000020: 14af cdba 34b5 5bbd 3ec4 9f3a f97d 2abd
00000030: 5ed1 103d 3519 3abd 8c4f 3f3d a957 80bd
00000040: e223 5ebd d07b 193a 9bf2 233b aeff 983c
00000050: 8d27 3e3d 1333 35bc 3c43 0dbc 16c8 613c
00000060: 5787 bebd 976d 41bd dc70 313d 8a5c 08bd
00000070: eee0 e83c 0388 52bc e92a 96bd 31a8 d7bd
00000080: 6c63 0fbc cb91 ce3c c327 9cbd 62ee 4e3b
00000090: b8e9 a1bd 8755 f63c e932 cebc 2ded aa3c
000000a0: 1054 a0bd 5988 06bd f322 66bd c5fd eabc
000000b0: d3d1 043d 42c0 a9bc d17f 29bd d448 d9bd
000000c0: e8db cfbc 4c9a 8cbd 9c24 98bd 28ea eabb
000000d0: 0e81 16bd c6f6 3aba fbf9 69bd 7028 ffbc
000000e0: a5cc 98bd fe8a 313d 62db bcbd f382 b43c
000000f0: 1ab0 45bd 4d29 60bd 66e8 163c 3477 a2bc

shared_encoder.4.weight f4 [128, 64, 3, 3]
0.0021958612 -0.013154408 0.041037757 -0.030307343 -0.004189875 0.017026078 0.029429395 0.035016667
0.04004063 -0.02803216 -0.0075543933 -0.009147733 -0.023109665 -0.018715605 0.026536245 -0.024926877
0.016492855 0.039666165 -0.02969198 0.019307747 0.040685106 -0.00058682635 0.0022579841 0.011897635
0.015298117 -0.03035973 0.0031574816 0.033292126 0.035988484 -0.033767574 -0.025508028 -0.0041731447
0.019467473 -0.027817985 0.036591727 0.035325263 0.0015180074 0.023719516 -0.01995564 0.00015638396
-0.023195907 0.01167402 0.024142135 0.002337668 -0.014318561 0.029628139 -0.007021498 0.030694727
-0.027018439 0.039508674 0.025311578 -0.014309388 0.030595202 0.02950282 0.011163872 -0.02180038
-0.002023533 -0.0023133308 -0.014089551 -0.015182978 -0.020382106 -0.027221154 -0.0049940348 -0.01940549
-0.018784827 -0.03612883 -0.033249006 0.0083778165 0.039146263 0.0060094483 -0.03135339 0.031113002
0.0035575218 0.015807007 0.027468141 0.019302115 0.03283442 -0.011568164 -0.02705988 0.02126966
0.009751361 -0.021560093 -0.025024056 -0.0076277144 -0.033135604 0.02461313 -0.041171245 0.0017490797
0.015848164 0.0014692582 -0.00473113 0.02142356 0.019058581 0.0058139674 -0.03335557 0.0008452721
-0.025989112 0.03929772 0.041159797 0.001368802 0.03977141 -0.02768763 -0.040458273 -0.04125863
-0.0103121735 0.013609201 0.016853515 -0.004887607 -0.0072924383 0.026784454 0.036030296 0.034818154
-0.03775267 0.0040323697 0.034714404 0.025931988 -0.03366416 0.009958491 -0.022418743 0.0014908351
0.027847286 -0.037315063 -0.017116055 0.040612612 0.034704063 -0.017159944 -0.005146306 0.040285844
0.036861468 -0.03623555 -0.018806588 -0.03263788 0.025611643 -0.018628474 0.02895419 0.003118243
-0.019056445 -0.02778246 0.0042903125 0.004209608 0.034985024 -0.0029322952 -0.024767008 -0.03785157
0.031835478 -0.0012881197 -0.019015333 -0.023866361 -0.032875024 -0.024277668 -0.03515939 0.0034676157
-0.0076183192 -0.03198289 -0.06450216 0.011219667 -0.046995323 -0.0012434192 -0.011553877 -0.04924611
-0.02090522 -0.069652885 0.023271244 -0.039714396 -0.00030095875 -0.018367033 0.040508714 -0.010284122
-0.031077266 -0.0035110116 0.033188242 0.03766224 -0.033343192 -0.007336635 0.023229945 -0.02483049
-0.03174485 -0.024001902 -0.0031638108 -0.032488085 0.023654606 -0.0007675141 -0.0328461 0.026600692
-0.0034610368 -0.024368381 -0.005235553 0.011711698 0.039772812 -0.032376073 -0.020695131 -0.016332295
0.0181734 0.0346498 -0.012259653 0.007484928 -0.020333182 0.0016813762 0.007081732 -0.026390811
0.013395652 0.0049105994 0.03429545 -0.029513385 0.020402119 0.026146088 0.024414305 -0.022690758
0.0032861717 0.009281237 -0.013882425 -0.023227056 0.0075683706 0.0052674524 0.036670152 -0.0170535
0.024373014 0.019910727 -0.03536723 -0.0317558 -0.02141363 0.008557484 -0.021826565 -0.033584356
-0.00801678 0.022725109 -0.0075651743 -0.0018790402 0.010379437 0.015153129 -0.019698298 0.02972344
0.03792006 0.0328918 -0.0044276156 -0.02502279 -0.03012227 0.037882973 0.019243497 -0.0015294589
-0.009865165 -0.015186628 -0.01617938 -0.032592144 -0.013165146 -0.02625916 -0.024567967 -0.0041486807
0.016184136 -0.008814618 0.023133975 -0.037869416 0.012797426 -0.007076163 -0.031331252 0.033303384
00000000: 70e8 0f3b 9685 57bc 3517 283d 1b47 f8bc
00000010: 384b 89bb 467a 8b3c ea15 f13c a36d 0f3d
00000020: a501 243d b3a3 e5bc d88a f7bb 60e0 15bc
00000030: 7b50 bdbc 7851 99bc 8a62 d93c 7333 ccbc
00000040: 061c 873c fd78 223d 983c f3bc 482b 9e3c
00000050: 6da5 263d 40d5 19ba b0fa 133b 4cee 423c
00000060: f4a4 7a3c f8b4 f8bc c0ed 4e3b 535d 083d
00000070: a968 133d de4f 0abd 36f6 d0bc e0be 88bb
00000080: 407a 9f3c 8be2 e3bc 35e1 153d 39b1 103d
00000090: e0f7 c63a 6e4f c23c 037a a3bc 00fb 2339
000000a0: 5805 bebc 6444 3f3c bac5 c53c 9033 193b
000000b0: 6698 6abc b6b6 f23c 9814 e6bb 8273 fb3c
000000c0: c655 ddbc d9d3 213d 3a5a cf3c ec71 6abc
000000d0: caa2 fa3c e6af f13c ace8 363c b696 b2bc
000000e0: 409d 04bb 409b 17bb dcd7 66bc 06c2 78bc
000000f0: 60f8 a6bc e6fe debc 00a5 a3bb 43f8 9ebc
00000100: a3e2 99bc d3fb 13bd 1c30 08bd 1c43 093c
00000110: d557 203d e8ea c43b 6a6c 00bd b2e0 fe3c
00000120: 5025 693b b27d 813c de04 e13c 781f 9e3c
00000130: 637d 063d 6688 3dbc aeac ddbc b63d ae3c
00000140: 2cc4 1f3c cb9e b0bc 40ff ccbc e8f1 f9bb
00000150: 33b9 07bd 7aa1 c93c 2ea3 28bd 6041 e53a
00000160: 02d4 813c 2094 c03a 9807 9bbb 7680 af3c
00000170: be20 9c3c 1883 be3b da9f 08bd 4095 5d3a
00000180: 1ee7 d4bc a5f6 203d 2d97 283d 6069 b33a
00000190: 59e7 223d 2bd1 e2bc 93b7 25bd cffe 28bd
000001a0: 64f4 28bc 20f9 5e3c 6210 8a3c 3828 a0bb
000001b0: 68f5 eebb 126b db3c 8194 133d 7b9d 0e3d
000001c0: 8ba2 1abd f821 843b b130 0e3d 526f d43c
000001d0: 6ee3 09bd f028 233c 83a7 b7bc 2068 c33a
000001e0: fe1f e43c aed7 18bd f836 8cbc 6959 263d
000001f0: d925 0e3d 0393 8cbc 58a2 a8bb c502 253d
00000200: 0dfc 163d ba6b 14bd 4610 9abc 4caf 05bd
00000210: 82cf d13c be9a 98bc 5631 ed3c 705b 4c3b
00000220: 431c 9cbc 0b98 e3bc c095 8c3b c0f0 893b
00000230: 754c 0f3d c02b 40bb 2ee4 cabc 3f0a 1bbd
00000240: eb65 023d 20d6 a8ba 0bc6 9bbc 6383 c3bc
00000250: f6a7 06bd f6e1 c6bc 4b03 10bd f040 633b
00000260: 18a3 f9bb 7e00 03bd b519 84bd b2d2 373c
00000270: 2b7e 40bd 3afa a2ba 794c 3dbc 4ab6 49bd
00000280: 6d41 abbc 2ca6 8ebd 56a3 be3c 90ab 22bd
00000290: 00ca 9db9 7676 96bc 77ec 253d bc7e 28bc
000002a0: c095 febc 0019 66bb 65f0 073d b943 1a3d
000002b0: df92 08bd 2868 f0bb ba4c be3c 5069 cbbc
000002c0: e306 02bd a39f c4bc f057 4fbb 3a12 05bd
000002d0: 4ec7 c13c 0033 49ba a289 06bd b2e9 d93c
000002e0: 90d2 62bb 33a0 c7bc 008f abbb 6ce2 3f3c
000002f0: d1e8 223d c69c 04bd d688 a9bc 4ecb 85bc
00000300: 62e0 943c f3ec 0d3d b6dc 48bc 2044 f53b
00000310: c691 a6bc a061 dc3a e00d e83b 8b31 d8bc
00000320: 7079 5b3c 18e9 a03b 6379 0c3d 0ec6 f1bc
00000330: 5822 a73c 5230 d63c 8200 c83c f8e1 b9bc
00000340: d05c 573b 5410 183c 1c73 63bc ab46 bebc
00000350: 1800 f83b 989a ac3b 7133 163d c8b3 8bbc
00000360: eaa9 c73c d21b a33c 3bdd 10bd 5f12 02bd
00000370: a36b afbc b034 0c3c a0cd b2bc c08f 09bd
00000380: d058 03bc 022a ba3c 48e5 f7bb 204a f6ba
00000390: 840e 2a3c d444 783c 535e a1bc 927e f33c
000003a0: 1152 1b3d 8db9 063d 8815 91bb 98fc ccbc
000003b0: fbc2 f6bc 2d2b 1b3d 8aa4 9d3c 2078 c8ba
000003c0: 80a1 21bc 56d1 78bc 9e8a 84bc 577f 05bd
000003d0: a0b2 57bc 731d d7bc c342 c9bc a8f1 87bb
000003e0: 9894 843c 306b 10bc 7683 bd3c f61c 1bbd
000003f0: 4cac 513c 28df e7bb 3355 00bd 2169 083d

shared_encoder.4.bias f4 [128]
-0.050057035 -0.034292087 -0.04378523 -0.01844503 -0.0451892 -0.0023582196 -0.029894952 -0.014970139
-0.050876405 -0.010318382 -0.032579344 -0.021573935 -0.045231175 -0.009932176 -0.055260945 -0.04370643
-0.02244235 -0.0440457 -0.029310893 -0.059497133 0.0046147034 -0.024347618 -0.03970903 -0.008424449
-0.03508785 -0.061563995 -0.006936882 -0.006247611 -0.028198078 -0.016766632 -0.015254973 -0.0337392
-0.025903631 -0.065214284 -0.028461425 -0.019821249 -0.017643375 -0.007173318 -0.059873655 -0.047624975
-0.014523165 -0.041119337 -0.015671406 -0.044514026 -0.021591602 -0.057133883 -0.011143465 -0.012670481
-0.018333592 -0.03233657 0.0011322683 0.010866398 -0.011567225 -0.021929806 0.0196351 -0.045873158
-0.044680152 -0.014153092 -0.009171561 -0.009717347 -0.022114845 -0.017393064 -0.0032406666 -0.018225016
-0.005445915 -0.01795664 -0.037612144 -0.047606748 0.0026687048 -0.018394493 -0.051212776 -0.038095757
-0.021831384 -0.031463735 -0.015133072 -0.004786377 -0.025501348 -0.017184343 0.015575038 -0.013793562
-0.042317122 -0.050573733 -0.04596456 -0.06388897 -0.012690904 -0.05387755 -0.056529187 -0.044115305
-0.046522874 -0.05318099 -0.06277489 -0.0060422197 -0.029798053 -0.025406403 -0.010718745 -0.031125506
-0.057688206 -0.01816937 0.020013027 -0.041524094 -0.040810466 0.012243161 -0.010113324 -0.02553072
0.003112025 -0.0071310066 -0.017011223 -0.012507786 -0.009294769 -0.024344632 -0.033137254 -0.019271202
-0.009857203 -0.03530841 0.006464056 -0.032959547 -0.00022889262 -0.06766992 -0.06881083 -0.021944832
-0.033353195 -0.005816949 -0.0051605804 -0.019549374 -0.018010551 -0.021954944 -0.053416524 -0.015355228
00000000: 9b08 4dbd dc75 0cbd 2458 33bd 081a 97bc
00000010: 5018 39bd 5c8c 1abb 42e6 f4bc 5045 75bc
00000020: c763 50bd 6e0e 29bc eb71 05bd d2bb b0bc
00000030: 5344 39bd 91ba 22bc 4d59 62bd 8305 33bd
00000040: 05d9 b7bc 4469 34bd 661d f0bc 44b3 73bd
00000050: f036 973b a874 c7bc f0a5 22bd b306 0abc
00000060: 47b8 0fbd 872a 7cbd c94e e3bb c2b8 ccbb
00000070: a8ff e6bc 2d5a 89bc ffef 79bc 1e32 0abd
00000080: da33 d4bc 118f 85bd ef27 e9bc 2c60 a2bc
00000090: d788 90bc 270e ebbb 143e 75bd 6812 43bd
000000a0: 92f2 6dbc c06c 28bd 5261 80bc 5754 36bd
000000b0: dfe0 b0bc 3805 6abd 1493 36bc d997 4fbc
000000c0: 5430 96bc 5a73 04bd 9f68 943a fa08 323c
000000d0: 7584 3dbc 23a6 b3bc cad9 a03c 7ee5 3bbd
000000e0: 8902 37bd 5fe2 67bc 5144 16bc 8235 1fbc
000000f0: 312a b5bc e67b 8ebc 5d61 54bb a14c 95bc
00000100: a573 b2bb ce19 93bc 310f 1abd 4bff 42bd
00000110: 70e5 2e3b 0cb0 96bc 7dc4 51bd 4c0a 1cbd
00000120: bbd7 b2bc 1ee0 00bd b4f0 77bc 0ad7 9cbb
00000130: 34e8 d0bc 2ec6 8cbc 722e 7f3c 64fe 61bc
00000140: b854 2dbd 6726 4fbd 5645 3cbd 38d8 82bd
00000150: 82ed 4fbc b5ae 5cbd 268b 67bd 40b2 34bd
00000160: c58e 3ebd 4fd4 59bd 1f90 80bd d0fd c5bb
00000170: 0c1b f4bc 1721 d0bc ad9d 2fbc ebfa febc
00000180: 784a 6cbd eed7 94bc 5cf2 a33c 2b15 2abd
00000190: e028 27bd 8a97 483c 5bb2 25bc cd25 d1bc
000001a0: 1ef3 4b3b 38ab e9bb 1f5b 8bbc 75ed 4cbc
000001b0: 1649 18bc 656e c7bc eeba 07bd a4de 9dbc
000001c0: 1b80 21bc 8d9f 10bd 6fd0 d33b 9700 07bd
000001d0: e502 70b9 8796 8abd b1ec 8cbd a6c5 b3bc
000001e0: 5c9d 08bd 1b9c bebb 161a a9bb 0226 a0bc
000001f0: dd8a 93bc dbda b3bc 49cb 5abd 7f94 7bbc

fc.weight f4 [64, 128]
-0.07539469 0.09192169 0.0034984609 -0.019774854 0.023883801 0.09173369 -0.07124625 -0.0134277325
-0.019100554 -0.054301128 0.081212975 -0.041188307 -0.013410809 0.0027032823 -0.017242989 0.03935905
-0.009601888 -0.097944126 -0.04406667 0.07458567 -0.042054113 -0.06445497 -0.052981935 -0.016739491
-0.028025003 0.071741164 0.049273532 -0.024790538 0.0073188543 0.1074805 -0.000712024 -0.065760046
-0.01630109 -0.0045496784 0.009538574 0.00017695154 -0.04164997 -0.016698822 0.08531818 -0.040996097
-0.07700299 -0.14710063 -0.054485984 -0.041316696 -0.013338932 -0.039007027 0.064759456 -0.012647524
-0.025911856 -0.11076765 -0.022710668 0.048938 0.0002127081 -0.021145169 0.04540527 0.09624051
-0.04314019 -0.016313206 -0.079528645 0.0798262 -0.04745199 0.0047593876 -0.030417368 0.02332557
-0.017724628 -0.010526572 -0.04365703 0.0599587 0.0061840815 0.030379198 -0.06941111 0.0038610369
-0.042734038 -0.07963533 0.00853392 0.026454424 0.03981828 -0.14962405 0.11674603 -0.015506325
-0.044037577 0.060296305 -0.00712603 0.0712152 -0.046757333 -0.0041096588 -0.049525954 -0.051223356
-0.07363917 -0.037971035 -0.07199984 0.02940798 -0.02684379 0.05702552 0.06407592 -0.024498524
0.038332194 -0.036576163 0.07389931 -0.022034982 -0.06475553 -0.030037131 -0.10166954 -0.08965117
0.05797179 0.043873437 -0.0026912547 -0.018532248 -0.02862433 0.055047486 0.059621707 0.056976486
-0.07375503 -0.040041015 0.09775521 0.11370976 0.018346103 0.08342635 0.10236921 -0.1398701
0.025502281 0.08035614 0.06362226 -0.07039491 0.111337125 0.027575985 -0.032740105 0.05491121
-0.028333973 0.0057134833 0.0133994175 -0.106585674 -0.09933683 0.010995639 -0.10043139 -0.04113438
-0.055936582 -0.044430852 -0.033804055 -0.011998002 -0.109728165 -0.08877825 0.018902464 -0.02514032
0.0008571863 -0.05825648 -0.075740054 -0.11308878 -0.07297959 -0.006596148 -0.016988184 -0.017289406
-0.017321192 0.017027225 0.012074605 -0.038292095 0.047047056 -0.046076134 -0.017274853 -0.12186695
-0.09183637 -0.10930233 -0.041827757 -0.104221344 -0.060419906 -0.11563382 -0.052257303 -0.07129947
0.042582013 -0.055520345 -0.060768116 0.016667113 -0.007423218 -0.043420713 0.043367058 0.029656569
-0.090949535 -0.041488603 0.054573018 0.0011667758 0.03452346 0.034304924 -0.08417416 -0.09241468
0.042430352 -0.102175586 -0.05966666 0.027814265 0.0019639772 -0.037554182 -0.09795718 0.020382801
0.054437675 0.0378024 -0.04567291 -0.07546711 -0.03290885 -0.06413202 0.0139858555 0.05769111
-0.010455445 0.062274538 -0.10856807 0.0029872945 -0.11066577 0.047001988 -0.09847286 -0.028620305
-0.0078109214 -0.059785582 -0.016564537 0.013200386 -0.030811828 0.022114519 -0.10662636 -0.079199135
-0.001369404 -0.07858234 -0.031223197 -0.09243487 -0.08008539 -0.10777418 -0.007374217 -0.03138918
-0.0050156247 -0.01195067 -0.048702426 -0.06994302 -0.028849956 0.02019577 -0.032788835 0.071122006
0.02614917 -0.019268379 -0.12572008 0.013978403 -0.018397665 0.005418611 0.003612288 0.048184488
0.007556677 -0.0051351977 0.033251844 -0.06896869 -0.09641294 0.07852195 0.028342078 -0.052683778
-0.08354199 -0.06862466 -0.10986458 -0.03971685 0.05803715 0.02684297 0.015983282 -0.03153976
00000000: 8868 9abd 7041 bc3d 6f46 653b e0fe a1bc
00000010: f6a7 c33c dfde bb3d 8ee9 91bd feff 5bbc
00000020: c478 9cbc dc6a 5ebd fd52 a63d 12b5 28bd
00000030: 03b9 5bbc 8d29 313b 2b41 8dbc f536 213d
00000040: 3d51 1dbc ee96 c8bd 417f 34bd 5fc0 983d
00000050: ef40 2cbd f800 84bd 9603 59bd 4221 89bc
00000060: b194 e5bc 08ed 923d 0bd3 493d 8715 cbbc
00000070: 00d3 ef3b bd1e dc3d 1fa7 3aba 34ad 86bd
00000080: dd89 85bc 7815 95bb ae47 1c3c 118c 3939
00000090: 2999 2abd f8cb 88bc 4cbb ae3d 86eb 27bd
000000a0: beb3 9dbd 8ca1 16be b22c 5fbd b23b 29bd
000000b0: 898b 5abc d5c5 1fbd 9ba0 843d 8f37 4fbc
000000c0: 1a45 d4bc 26da e2bd b90b babc 3673 483d
000000d0: 650a 5f39 a238 adbc e0fa 393d bf19 c53d
000000e0: c5b3 30bd 46a3 85bc eadf a2bd eb7b a33d
000000f0: 055d 42bd a3f4 9b3b d82d f9bc 4415 bf3c
00000100: 3d33 91bc a577 2cbc b7d1 32bd 4197 753d
00000110: d6a3 ca3b ccdd f83c 6927 8ebd 7309 7d3b
00000120: e309 2fbd d917 a3bd dbd1 0b3c f3b6 d83c
00000130: 7e18 233d 0c37 19be 8b18 ef3d 3e0e 7ebc
00000140: bf60 34bd 42f9 763d 7981 e9bb 46d9 913d
00000150: 9e84 3fbd 51aa 86bb badb 4abd 95cf 51bd
00000160: 22d0 96bd 8487 1bbd a774 93bd 01e9 f03c
00000170: 82e7 dbbc 9793 693d 3c3a 833d 21b1 c8bc
00000180: 3802 1d3d e3d0 15bd 8558 973d b582 b4bc
00000190: 8c9e 84bd 6e10 f6bc 1f38 d0bd 089b b7bd
000001a0: d473 6d3d a2b4 333d c35f 30bb f1d0 97bc
000001b0: 927d eabc 7979 613d e435 743d 2d60 693d
000001c0: e10c 97bd 0c02 24bd e233 c83d aae0 e83d
000001d0: 914a 963c 6fdb aa3d f3a6 d13d 1c3a 0fbe
000001e0: 29ea d03c c391 a43d 634c 823d 352b 90bd
000001f0: b804 e43d 08e7 e13c 7d1a 06bd 94ea 603d
00000200: a61c e8bc 2c38 bb3b 3b89 5b3c 9749 dabd
00000210: 1c71 cbbd 0d27 343c f9ae cdbd 867c 28bd
00000220: c21d 65bd 20fd 35bd 1f76 0abd 4593 44bc
00000230: 29b9 e0bd 5fd1 b5bd 57d9 9a3c 13f3 cdbc
00000240: cdb4 603a 599e 6ebd 9a1d 9bbd 179b e7bd
00000250: 5376 95bd 8024 d8bb ce2a 8bbc 83a2 8dbc
00000260: 2ce5 8dbc ae7c 8b3c 90d4 453c 2cd8 1cbd
00000270: 6ab4 403d 54ba 3cbd fe83 8dbc 6195 f9bd
00000280: b514 bcbd e6d9 dfbd 9553 2bbd 0072 d5bd
00000290: dd7a 77bd 6dd1 ecbd c10b 56bd 7505 92bd
000002a0: 7a6a 2e3d 4d69 63bd fde7 78bd 7889 883c
000002b0: 773e f3bb ebd9 31bd a8a1 313d 55f2 f23c
000002c0: c043 babd f4ef 29bd f587 5f3d 80ee 983a
000002d0: 7968 0d3d 5283 0c3d 8163 acbd e843 bdbd
000002e0: 73cb 2d3d 6f41 d1bd 0765 74bd beda e33c
000002f0: 12b6 003b 6ad2 19bd c69d c8bd d5f9 a63c
00000300: 0afa 5e3d b0d6 1a3d 8413 3bbd 808e 9abd
00000310: 6ecb 06bd a657 83bd ee24 653c 834d 6c3d
00000320: 514d 2bbc 9613 7f3d f058 debd 7cc6 433b
00000330: bca4 e2bd 2885 403d 24ac c9bd 2175 eabc
00000340: c2f2 ffbb bae1 74bd 5ab2 87bc 6f46 583c
00000350: 1669 fcbc 8229 b53c ec5e dabd 2833 a2bd
00000360: 937d b3ba c7ef a0bd cac7 ffbc 7e4e bdbd
00000370: cf03 a4bd b6b8 dcbd 6aa3 f1bb f191 00bd
00000380: 1c5a a4bb becc 43bc 327c 47bd 493e 8fbd
00000390: be56 ecbc 9971 a53c 964d 06bd 6aa8 913d
000003a0: c936 d63c b8d8 9dbc c4bc 00be ac05 653c
000003b0: b3b6 96bc 9b8e b13b 23bc 6c3b 195d 453d
000003c0: 009e f73b 2945 a8bb 1633 083d 753f 8dbd
000003d0: 2674 c5bd 1ed0 a03d a52d e83c f2ca 57bd
000003e0: 1018 abbd 168b 8cbd ae00 e1bd 23ae 22bd
000003f0: 5db8 6d3d cae5 db3c 5fef 823c d62f 01bd

fc.bias f4 [64]
0.035030197 0.013522976 -0.041140128 0.062655486 -0.014449555 0.02680757 -0.036288038 0.0029947492
-0.011939554 0.0052598524 -0.0368963 0.027368896 -0.0052150283 -0.015697684 -0.04565645 0.019243099
0.048893742 0.027234579 0.020781536 0.04849898 -0.010770988 -0.04085397 -0.005689558 -0.029479679
-0.00508152 -0.0037711035 -0.028163558 0.03360359 0.004230439 -0.014032023 -0.03653825 0.031996842
-0.018806554 0.010542537 0.022764483 0.016628247 -0.008335762 -0.0045797643 -0.042094033 0.029086987
0.046305515 0.005530744 -0.030375509 -0.010109975 -0.0009750286 -0.00063177716 -0.05717066 0.012729449
-0.0042467564 -0.03443896 0.0543664 -0.012580538 0.023306545 -0.02934607 -0.055363256 -0.007624093
0.017233202 0.0006769665 -0.007815379 -0.008462277 0.012708603 0.02459345 -0.05727941 0.003784832
00000000: d37b 0f3d 798f 5d3c 8d82 28bd 8551 803d
00000010: d4bd 6cbc 8d9b db3c c4a2 14bd 8e43 443b
00000020: 1e9e 43bc d75a ac3b 9320 17bd bc34 e03c
00000030: d4e2 aabb 6e98 80bc 4202 3bbd b4a3 9d3c
00000040: ce44 483d 0d1b df3c 0a3e aa3c dea6 463d
00000050: cc78 30bc 7e56 27bd 796f babb 5e7f f1bc
00000060: e182 a6bb 9e24 77bb 43b7 e6bc eba3 093d
00000070: 7f9f 8a3b 92e6 65bc 22a9 15bd 1f0f 033d
00000080: 3410 9abc 9bba 2c3c 957c ba3c f637 883c
00000090: b892 08bc d911 96bb cb6a 2cbd d547 ee3c
000000a0: daaa 3d3d 3e3b b53b 0fd6 f8bc 4fa4 25bc
000000b0: 1099 7fba d99d 25ba c82b 6abd 2e8f 503c
000000c0: 6028 8bbb de0f 0dbd 4daf 5e3d 9a1e 4ebc
000000d0: 5eed be3c 2b67 f0bc 95c4 62bd 87d3 f9bb
000000e0: a52c 8d3c 7476 313a 130c 00bc 5da5 0abc
000000f0: bf37 503c 3478 c93c d19d 6abd f20a 783b

lstm.weight_ih_l0 f4 [256, 64]
-0.15098016 -0.01867541 -0.039274447 0.0013585489 -0.14978501 -0.008213334 0.062895864 0.06100606
-0.006180751 0.20632467 0.03859525 -0.041203264 -0.044842266 -0.042366885 0.005647811 -0.014159575
-0.019716332 -0.0848014 -0.1687482 -0.0809189 0.14733198 -0.11669682 0.17969263 0.15137266
0.04009823 0.09136397 0.11460841 -0.08034702 -0.11995125 -0.04552727 0.028713483 -0.08810262
-0.17187953 0.057356644 -0.015671553 0.19548865 -0.0788992 0.000997572 0.15545323 -0.07178017
-0.05855449 -0.024701409 -0.0238876 -0.022075431 -0.1887716 0.08206715 -0.0115570985 -0.023180317
-0.139125 -0.16520679 0.10673729 0.18076833 -0.04496278 -0.015373409 0.061291687 -0.085043296
-0.060429532 -0.08243721 -0.15611432 0.042194493 -0.12864809 -0.13601083 -0.1289174 0.022766495
0.021712095 -0.17317839 0.12111095 -0.031378146 -0.06039938 -0.09010501 0.007543806 -0.07295064
-0.13214009 -0.02658952 0.012178429 0.11206511 0.14987375 0.06261107 0.081162035 0.06420087
0.029966205 -0.07935239 -0.067214616 -0.102087766 0.028673375 0.07384173 0.045758706 0.04626046
0.1615344 0.12806647 -0.054351006 -0.087500654 -0.053939063 0.0036087036 0.089733064 -0.08839089
0.02559648 0.07060025 0.023190891 0.027883606 0.12549926 -0.02133948 0.051380035 -0.048475906
-0.119738676 0.13358073 0.059750374 -0.1165866 0.041997056 0.025278255 -0.0802071 0.1759733
0.11960563 -0.005554624 -0.1318974 0.021361234 -0.047364786 0.0045971065 0.08570374 -0.016188791
-0.10694543 0.058665495 0.052584115 -0.04046725 -0.010942451 -0.07433221 -0.07771377 -0.08671749
-0.01393874 -0.051820207 0.036784172 0.030766694 -0.03849252 -0.022023499 -0.040826727 -0.03223287
-0.073021 0.024532624 0.06457457 0.06925948 0.102397665 0.058269795 -0.14013548 -0.014299757
-0.06196431 0.021132836 -0.1625667 0.012561925 -0.046760034 -0.1092134 -0.06008828 -0.08089524
0.13530509 0.030351216 -0.041065928 0.0689324 -0.14110252 -0.049413368 -0.055629663 -0.013828161
-0.14586906 -0.02743505 0.059976816 -0.048304148 -0.117929615 -0.10573435 -0.057186686 -0.06961831
0.027458882 -0.001663292 -0.007840521 -0.0152027905 -0.12220241 0.09946981 -0.08799799 -0.060299024
0.07790078 -0.014916368 0.10646366 0.12421517 -0.12546381 -0.041190878 -0.09629268 0.040395226
0.11661428 -0.04356862 0.043890584 -0.069941886 0.027239807 -0.12422818 0.02788 0.03357637
-0.029820971 -0.088764586 -0.055444147 -0.083513916 -0.08162892 -0.028663957 0.07940785 0.031792454
-0.07888333 0.093321174 -0.09586352 0.0872528 0.12415905 -0.07848295 0.024417792 -0.04326658
-0.111432336 -0.008301267 -0.09659894 -0.084913805 0.04057615 0.06908924 0.13509127 0.019247063
0.038639642 0.0026118525 0.11526952 0.016978828 -0.0064816577 -0.030827893 0.08267543 -0.04515492
-0.1711463 -0.051567774 -0.10996025 -0.050506182 0.06653591 -0.03578577 0.1614243 -0.016718162
-0.100415275 -0.042794373 -0.13337639 -0.088131644 -0.048812665 0.052401565 0.115442835 -0.011720224
0.050273266 -0.035476733 -0.10315653 0.04220412 0.07287521 -0.066405 -0.09349824 -0.14549586
0.124272265 -0.17899875 0.0612644 0.032294165 -0.1500488 0.117331855 0.12086892 0.036109865
00000000: 8b9a 1abe 2cfd 98bc 3ede 20bd 5611 b23a
00000010: 3e61 19be 3891 06bc 8ccf 803d 7ee1 793d
00000020: e687 cabb c646 533e 0e16 1e3d c1c4 28bd
00000030: 86ac 37bd e688 2dbd 4611 b93b 90fd 67bc
00000040: 2584 a1bc 5bac adbd 54cc 2cbe cfb8 a5bd
00000050: 32de 163e befe eebd 5801 383e 6f01 1b3e
00000060: 0b3e 243d 081d bb3d d0b7 ea3d fa8c a4bd
00000070: 00a9 f5bd cd7a 3abd 8a38 eb3c 256f b4bd
00000080: 3001 30be cdee 6a3d a161 80bc 2d2e 483e
00000090: e795 a1bd f6c0 823a 222f 1f3e 7b01 93bd
000000a0: d5d6 6fbd 9c5a cabc eeaf c3bc 89d7 b4bc
000000b0: 584d 41be d212 a83d fc59 3dbc a6e4 bdbc
000000c0: c976 0ebe f82b 29be 1599 da3d 551b 393e
000000d0: e42a 38bd c0e0 7bbc fe0c 7b3d 2e2b aebd
000000e0: f584 77bd d7d4 a8bd 6fdc 1fbe 22d4 2c3d
000000f0: 53bc 03be 6c46 0bbe ec02 04be cd80 ba3c
00000100: 90dd b13c ad55 31be 0509 f83d 5f86 00bd
00000110: 5765 77bd fa88 b8bd 0832 f73b 2567 95bd
00000120: bb4f 07be 44d2 d9bc 0988 473c 6482 e53d
00000130: 8178 193e 3c3a 803d 4838 a63d bf7b 833d
00000140: b07b f53c 8183 a2bd d1a7 89bd 6413 d1bd
00000150: 6de4 ea3c 553a 973d 7b6d 3b3d 9c7b 3d3d
00000160: 4669 253e db23 033e 299f 5ebd 8b33 b3bd
00000170: 35ef 5cbd 0080 6c3b f8c5 b73d 4806 b5bd
00000180: b6af d13c dd96 903d d3fa bd3c 296c e43c
00000190: e182 003e 22d0 aebc df73 523d ac8e 46bd
000001a0: 8d39 f5bd 63c9 083e cfbc 743d f5c4 eebd
000001b0: 1b05 2c3d 5814 cf3c 9f43 a4bd 5832 343e
000001c0: ccf3 f43d 9003 b6bb 1d10 07be c1fd ae3c
000001d0: 9401 42bd 53a3 963b 7185 af3d 5b9e 84bc
000001e0: 3506 dbbd 3b4b 703d 7162 573d fdc0 25bd
000001f0: f747 33bc 7c3b 98bd 6628 9fbd f098 b1bd
00000200: 505f 64bc 6d41 54bd 00ab 163d 6f0a fc3c
00000210: 55aa 1dbd a06a b4bc ed39 27bd 9d06 04bd
00000220: 098c 95bd a4f8 c83c ac3f 843d ead7 8d3d
00000230: deb5 d13d 4fac 6e3d ad7f 0fbe 8749 6abc
00000240: 4ace 7dbd c51e ad3c e377 26be 88d0 4d3c
00000250: 7387 3fbd 46ab dfbd 211f 76bd 67ac a5bd
00000260: 6b8d 0a3e 1da3 f83c bf34 28bd 6e2c 8d3d
00000270: 2e7d 10be ac65 4abd eedb 63bd 838f 62bc
00000280: b35e 15be 78bf e0bc 40aa 753d 92da 45bd
00000290: 1585 f1bd 408b d8bd 963c 6abd 0b94 8ebd
000002a0: 73f1 e03c d102 daba 8775 00bc 2015 79bc
000002b0: 4245 fabd d4b6 cb3d 4a38 b4bd 1cfc 76bd
000002c0: 728a 9f3d c863 74bc 9f09 da3d 8664 fe3d
000002d0: 9679 00be c4b7 28bd 1935 c5bd 7775 253d
000002e0: 78d3 ee3d 0275 32bd 9dc6 333d b13d 8fbd
000002f0: 0426 df3c 586b febd 9964 e43c 6087 093d
00000300: 1c4b f4bc 35ca b5bd 6719 63bd 5809 abbd
00000310: 102d a7bd add0 eabc 95a0 a23d ce38 023d
00000320: 958d a1bd 2c1f bf3d 1854 c4bd 99b1 b23d
00000330: 1a47 fe3d abbb a0bd d207 c83c 4c38 31bd
00000340: a336 e4bd 0a02 08bc aad5 c5bd 4ae7 adbd
00000350: 2d33 263d a97e 8d3d 5e55 0a3e 04ac 9d3c
00000360: 9a44 1e3d 9d2b 2b3b 6d12 ec3d 2f17 8b3c
00000370: 1664 d4bb c78a fcbc bc51 a93d 5ef4 38bd
00000380: fa40 2fbe bb38 53bd d732 e1bd 92df 4ebd
00000390: fb43 883d 1994 12bd 694c 253e 87f4 88bc
000003a0: 86a6 cdbd 2749 2fbd d293 08be 5d7e b4bd
000003b0: caef 47bd 06a3 563d 4b6d ec3d 2f06 40bc
000003c0: 57eb 4d3d 0d50 11bd bb43 d3bd 3ade 2c3d
000003d0: 993f 953d 58ff 87bd 017c bfbd defc 14be
000003e0: 7582 fe3d 734b 37be 61f0 7a3d e346 043d
000003f0: 65a6 19be af4b f03d 208a f73d f0e7 133d

lstm.weight_hh_l0 f4 [256, 64]
0.078951195 0.09183354 0.17294939 0.083949685 0.16945079 0.12613666 0.13457166 0.04103475
-0.10802131 -0.011839923 -0.07095466 0.16296728 -0.10880454 -0.076239526 0.026651904 -0.065052666
-0.09148446 -0.18117794 0.16446626 -0.042374417 -0.06382174 -0.13545252 0.011723458 0.035459425
0.096553534 -0.03164796 0.10966811 -0.0272126 0.08171535 0.07732977 0.06934759 -0.054452904
0.0058334717 -0.16543594 0.004998795 -0.08300854 0.12285996 -0.03718766 0.039006457 0.016805938
-0.042855296 0.083259515 -0.1054206 0.11037429 0.005114187 0.17419225 0.0379208 0.07098713
-0.011823346 -0.13798788 0.020414166 -0.13079692 0.04518012 0.06614844 -0.024009714 0.023765761
-0.1402864 -0.102437116 0.10316605 -0.0703923 0.036475424 -0.15237205 0.15798655 0.18804988
-0.031356573 -0.054456126 0.08146711 -0.13523106 -0.11045137 -0.08939005 0.09625826 -0.06991616
0.059339777 0.11051715 -0.014569734 -0.049897585 0.051613446 -0.048706032 0.15904361 -0.029432237
-0.02655777 -0.1318533 0.0084286025 -0.081590824 0.13175863 0.0025723965 -0.09883761 0.033695314
0.013704697 0.014672569 0.08822133 -0.11895791 0.12962474 -0.03258676 0.0393822 -0.09616238
-0.14709242 0.016848825 0.07157058 0.007747542 -0.105774246 -0.045057423 0.015370546 0.13176201
0.10477488 0.18929377 0.05094158 0.09866062 0.14628507 0.038387965 -0.04183365 0.016760612
-0.13206737 -0.17898463 -0.04806423 0.018452343 0.012811351 -0.056142002 0.124295734 -0.041772243
-0.10631741 0.030214475 -0.07966259 -0.010519966 -0.112938166 -0.060762193 0.14704883 0.05783231
0.014236151 -0.07820226 0.11205524 0.022562396 0.120260715 0.071403794 0.16459867 -0.0544651
-0.016811673 0.07951667 -0.03897748 0.05080201 -0.018318817 0.11480177 -0.09992961 -0.018921549
-0.023572069 -0.05386624 0.02550524 0.04400346 0.07539211 0.01837239 0.10835531 0.1006531
-0.12483941 0.16507809 -0.027442697 -0.02294253 -0.07553353 -0.049822405 -0.01886928 -0.036316495
0.1279128 -0.04145266 -0.10546935 0.034644302 -0.0975877 -0.102673374 0.040516738 0.07064714
-0.05058354 0.028059542 -0.13996641 0.15063798 0.06878406 0.10084642 0.06979257 -0.037168946
0.02183894 0.05911647 0.08170367 -0.033002954 -0.045479685 0.024981236 0.1081662 -0.14961202
-0.11557702 0.0261043 -0.032171078 -0.13727613 -0.031646516 0.032366335 -0.07112173 0.070776284
-0.072403625 -0.002420037 0.15466721 -0.08080349 0.16317645 -0.086999364 -0.0579725 -0.093855
-0.008626934 0.1364589 -0.13222784 -0.052373797 -0.009230426 0.10522097 0.00798735 -0.0020783362
0.024880143 -0.0747191 0.045942508 0.043133084 -0.06972202 -0.01796822 0.06514595 -0.12937243
-0.116895534 -0.029526908 -0.012166511 0.060534555 -0.09600129 0.1384378 -0.039425828 -0.020327397
0.03363312 -0.060838718 0.016442645 -0.09789862 -0.0060463953 -0.033197388 0.0049893046 -0.02453416
-0.0039675543 0.13849837 -0.0665447 0.13226397 -0.014175273 -0.038856454 0.111162476 0.17145635
-0.03975815 -0.09576394 -0.06981528 0.084145166 0.025349822 0.14067861 0.1146069 -0.059494037
-0.09323197 0.101116784 -0.066289544 0.011165314 0.012222188 0.0049897633 0.08882397 0.1023612
00000000: 2ab1 a13d 3913 bc3d a519 313e d0ed ab3d
00000010: 8284 2d3e f829 013e 27cd 093e 0e14 283d
00000020: 473a ddbd 3dfc 41bc ad50 91bd e5e0 263e
00000030: ead4 debd 7823 9cbd 1855 da3c 553a 85bd
00000040: 345c bbbd b686 39be d869 283e cc90 2dbd
00000050: f9b4 82bd 11b4 0abe bf13 403c e73d 113d
00000060: dcbd c53d 4ba1 01bd ad99 e03d f5ec debc
00000070: 615a a73d 125f 9e3d 1c06 8e3d 020a 5fbd
00000080: b526 bf3b 0a68 29be efcc a33b 6200 aabd
00000090: 019e fb3d 1652 18bd 3cc5 1f3d 9bac 893c
000000a0: 0989 2fbd f783 aa3d c1e6 d7bd ea0b e23d
000000b0: e994 a73b 745f 323e d752 1b3d b361 913d
000000c0: b5b6 41bc b24c 0dbe 9c3b a73c a1ef 05be
000000d0: ca0e 393d d578 873d 05b0 c4bc 6ab0 c23c
000000e0: 3da7 0fbe 8dca d1bd b948 d33d d729 90bd
000000f0: 4167 153d 6b07 1cbe 3ac7 213e 2690 403e
00000100: c06f 00bd 630d 5fbd 3ad8 a63d 037a 0abe
00000110: 5434 e2bd 2112 b7bd 0d23 c53d 3430 8fbd
00000120: 440e 733d d156 e23d e5b5 6ebc 6961 4cbd
00000130: 9f68 533d fa7f 47bd 54dc 223e e01b f1bc
00000140: ae8f d9bc 8d04 07be 1f18 0a3c 1719 a7bd
00000150: bceb 063e a795 283b 5f6b cabd 1904 0a3d
00000160: aa89 603c 3765 703c 62ad b43d 34a0 f3bd
00000170: 59bc 043e b279 05bd 3b4f 213d c8f0 c4bd
00000180: 659f 16be 8c06 8a3c 9993 923d 18df fd3b
00000190: 2ba0 d8bd 228e 38bd bed4 7b3c 9fec 063e
000001a0: 3694 d63d 3ad6 413e 1ea8 503d 940e ca3d
000001b0: c1cb 153e b33c 1d3d c359 2bbd 8d4d 893c
000001c0: ab3c 07be bf47 37be ffde 44bd 5e29 973c
000001d0: b3e6 513c 28f5 65bd c38e fe3d 5f19 2bbd
000001e0: f1bc d9bd 5984 f73c 2426 a3bd ef5b 2cbc
000001f0: 204c e7bd c7e1 78bd f893 163e 93e1 6c3d
00000200: bf3e 693c 8228 a0bd 387d e53d c6d4 b83c
00000210: 404b f63d 273c 923d 8e8c 283e cc16 5fbd
00000220: a2b8 89bc a3d9 a23d daa6 1fbd c515 503d
00000230: 5811 96bc 311d eb3d e5a7 ccbd 5d01 9bbc
00000240: 361a c1bc d9a2 5cbd 5df0 d03c f93c 343d
00000250: 2e67 9a3d b281 963c 64e9 dd3d 3623 ce3d
00000260: ceab ffbd 3b0a 293e 82cf e0bc f9f1 bbbc
00000270: 53b1 9abd 9412 4cbd c093 9abc 9bc0 14bd
00000280: 93fb 023e 44ca 29bd 5100 d8bd 2fe7 0d3d
00000290: 0fdc c7bd 6b46 d2bd e1f4 253d 73af 903d
000002a0: b030 4fbd 20dd e53c 5b53 0fbe d840 1a3e
000002b0: a8de 8c3d 9188 ce3d 68ef 8e3d 773e 18bd
000002c0: 94e7 b23c 1d24 723d 4154 a73d 1b2e 07bd
000002d0: e848 3abd 73a5 cc3c 3e86 dd3d e533 19be
000002e0: a5b3 ecbd afd8 d53c d2c5 03bd 1d92 0cbe
000002f0: c79f 01bd 9092 043d 45a8 91bd 28f3 903d
00000300: 5a48 94bd 7c99 1ebb 1561 1e3e 4d7c a5bd
00000310: ba17 273e b92c b2bd 9274 6dbd 0d37 c0bd
00000320: fc57 0dbc e2bb 0b3e bc66 07be e885 56bd
00000330: 363b 17bc 187e d73d 60dd 023c b234 08bb
00000340: 71d1 cb3c 5406 99bd 362e 3c3d 51ac 303d
00000350: 6bca 8ebd 1732 93bc 3d6b 853d 357a 04be
00000360: ed66 efbd 6ae2 f1bc 0c56 47bc 15f3 773d
00000370: 539c c4bd a3c2 0d3e fa7c 21bd a485 a6bc
00000380: e2c2 093d 0532 79bd bab2 863c 127f c8bd
00000390: d720 c6bb fcf9 07bd 527d a33b ddfb c8bc
000003a0: 4202 82bb 84d2 0d3e 9648 88bd 3570 073e
000003b0: 673f 68bc f227 1fbd 27a9 e33d 4192 2f3e
000003c0: 71d9 22bd e21f c4bd 50fb 8ebd 4d54 ac3d
000003d0: 6eaa cf3c 0e0e 103e 06b7 ea3d 05b0 73bd
000003e0: 67f0 bebd 5116 cf3d d0c2 87bd b9ee 363c
000003f0: 923f 483c 2b81 a33b 57e9 b53d c0a2 d13d
