SimpleQMIX_CNN_random_blox_later_exploration/agent3_121.pth (torch, 745122 bytes, 10 tensors)

c1.weight f4 [32, 8, 3, 3]
00000000: c76f 573d a7aa 8bbd 4b96 e439 c44d acbd
00000010: d55b bfbd 8f8a b4bc 6a20 11be 5b17 77be
00000020: 815f 033e 0791 fd3d b607 08be 69d2 b13c
00000030: 7fb3 f53c e914 aabd f4e2 673d 7d89 893e
00000040: 660b 873e ba5c 8c3e 4dac edbd d0ca 3ebd
00000050: 553e dabd aeb4 91bd 2473 c23c cd8f b83d
00000060: 9d60 e63d 0a1c 313d 3e07 333d 32f4 56bd
00000070: 482e 683c f3dd debd ec1d 4bbd 0e3e 0a3d
00000080: 68c7 793c 949d f13c 22b4 a5bd 1563 a93d
00000090: 7967 79bd eb59 fe3d d6c5 ad3d 676a 3bbd
000000a0: 46a5 d33d 02c2 1d3c f879 a23d ef1b 8f3d
000000b0: a23e 56bd eb64 323e a270 19ba ff15 e33c
000000c0: 5736 99bc c736 c13d d4ff 25be 10d4 453d
000000d0: e6ab 61bd 8774 99bd 2c9c 893c e683 a6bc
000000e0: 187e 8fbd 9f43 0dbe aec7 2d3e 7ca9 c43d
000000f0: 134c c83d 581b f63d 16cd d63d 2573 1abe
00000100: 43ba 8c3c ee94 c23b 767e cabb 7423 d33d
00000110: d44f 2f3d 02f4 7b3d 6f03 53bd 8bbf 4e3d
00000120: acb0 d93d 4008 9fbd 8a24 323d 5224 813d
00000130: ddb9 d23d f2b3 cbbd 0cf1 c7bd d0a9 b93d
00000140: c2ca ccbc f0ba 8eba 6555 49be de8d 7c3e
00000150: a44d 983e fb18 c63d 482f 8b3e 7325 b53d
00000160: 7ab1 2c3d e935 123e 79f9 a9bd 149f 45bd
00000170: 2ee6 663d acd2 34bd d85d 1a3c 7ffc 823d
00000180: 98ee 473c 581f c3bc f20b 303d 481c eebd
00000190: 9964 ca3d 32ab 89bd fc4e f93c c08c e4bd
000001a0: b7d7 c73d 9165 bfbd 5851 edbc 2eb0 dbbd
000001b0: 3dd2 1abd 6bba bd3b 2989 fcbc b926 ba3c
000001c0: 7381 f33d c391 90bc 6d16 e1bc 3124 b6bd
000001d0: bc84 193e e0f9 febd 1759 b0bd 98b7 8fbd
000001e0: 995b 9fbd 1df4 4c3d bc27 e4bc 0a03 17be
000001f0: 0db0 0abe 8860 1cbe 4971 393d 3b7c 6abd
00000200: e254 44bd dab2 1a3c 181a acbd 0980 ff3c
00000210: a607 c03d 1db8 543d a3d6 9a3d 317e 3ebd
00000220: 5a49 c7bb 3569 16be fbdd b13b cf9c b7bd
00000230: db06 e4bd ba54 bebd 66e2 6bbe 56ef 8cbd
00000240: 2254 3ebe 5613 3bbe 232b d33d 835c 213d
00000250: f560 a13d 4a85 e1bd d3d7 cbbc b5d0 323d
00000260: 2a48 83bd cb47 083d 6a35 f73b 122a dcbd
00000270: 889d c33d bc5a 2dbe 9780 7ebe 6635 83bc
00000280: bb11 15be a2ea 73bc a0ae f6bb becb 1c3d
00000290: e7c6 d73d ee5b efbd ac0c c23c c2cb 10bd
000002a0: 5468 d83c bee6 723d 97a2 ad3d 1174 ec3d
000002b0: bd67 f0bd a33d 7abd 9068 8e3b b528 dd3d
000002c0: e148 b33d ee1d d9bd fc64 f53c 776d 893d
000002d0: 5fc8 fd3d 3889 083e a116 d93d f5a4 abbd
000002e0: 8c13 093e 50c8 0a3e e860 773d b8b2 54bc
000002f0: 77fb 8d3d 2613 ac3c 732d 86bd ee27 d63b
00000300: 06a3 003e 2b26 d23c 67f0 b7bd 1bcc 6e3d
00000310: 29db aebd 0f67 56bd 98e7 bd3d f64b 353e
00000320: c247 e73d 1378 b53c 4290 083e 7def dd3d
00000330: 85e7 35bd de29 14bd 08ca ff3d 97e1 f9b9
00000340: 5936 343d b177 57bc 0f16 12be ea5e 923d
00000350: d8ff c4bd 8b7c b73c eec9 713c cecd 03be
00000360: e174 04bc b5f7 19bd 8194 b23d 92c7 afbc
00000370: 694c 803d b5e3 ea3d 6ce6 223d 9a49 e23d
00000380: 63c5 9b3d 5c6f edbd 3798 abbd 2ede 00be
00000390: 5804 abbd 5e56 adbd adb6 b5bd b111 a2bd
000003a0: a0b6 353d 29ad 443c 82bf 013d 52d7 133d
000003b0: aa44 37bd c8fd 9fbc c939 dcbd c33d 7ebd
000003c0: ca6a 5d3d c2cb 7ebd c815 06bc a54c 933d
000003d0: 09d2 ca3d 68ee 47bc 6986 aebd 0e79 1c3d
000003e0: bade a7bd b83a a7bd 2949 bc3d 40e6 343b
000003f0: 62a1 f7bd f0d8 223d 2411 083d 931f 433d
0.052596834 -0.06819659 0.00043599526 -0.0841327 -0.093436874 -0.022038726 -0.14172521 -0.24130003
0.128294 0.123811774 -0.13284191 0.021706777 0.029992817 -0.083047695 0.056612924 0.26862708
0.26375884 0.27414495 -0.116051294 -0.046580136 -0.1065642 -0.0711454 0.023736544 0.09011803
0.11248896 0.04323963 0.04370808 -0.052478977 0.014171191 -0.10882177 -0.049589083 0.033750586
0.015245296 0.029494084 -0.08090998 0.082708515 -0.060889695 0.12419494 0.08485 -0.04575577
0.10334258 0.009628775 0.0793342 0.0698775 -0.052305825 0.1742131 -0.00058532704 0.02772045
-0.01870267 0.09434276 -0.16210872 0.04829794 -0.055095576 -0.07492929 0.016798101 -0.020326566
-0.07006472 -0.13795327 0.16970703 0.09602639 0.09780135 0.12016934 0.10488336 -0.15082987
0.01717866 0.005938164 -0.006179626 0.103094965 0.04280074 0.061512 -0.051516946 0.05047564
0.106294006 -0.077652454 0.043491878 0.06305756 0.10289357 -0.09946431 -0.09762773 0.09065592
-0.024999026 -0.0010889452 -0.19661482 0.24663493 0.29746735 0.096727334 0.2718451 0.088450335
0.042161442 0.14278378 -0.08299536 -0.04824741 0.05637186 -0.044146225 0.009421788 0.06395816
0.012202881 -0.023818657 0.042980142 -0.11626488 0.09882469 -0.06722106 0.03043317 -0.111596584
0.09757941 -0.09345544 -0.028969452 -0.10726963 -0.037798155 0.005790045 -0.030827122 0.022723543
0.11889925 -0.01764763 -0.027476514 -0.08893622 0.1499204 -0.124500036 -0.086107425 -0.070174396
-0.07781143 0.050037492 -0.027850978 -0.14747253 -0.1354372 -0.15271199 0.045274053 -0.05724738
-0.047932513 0.009442056 -0.084034145 0.031188982 0.09376459 0.051933397 0.0756047 -0.046507064
-0.0060817422 -0.14688571 0.0054280735 -0.08965456 -0.1113412 -0.09293504 -0.23035583 -0.06881587
-0.18586782 -0.18269095 0.10310962 0.039394867 0.07879821 -0.11011751 -0.024883186 0.04365607
-0.064102486 0.033271592 0.0075442092 -0.10750212 0.09551531 -0.16929144 -0.2485374 -0.016016673
-0.14557545 -0.014887484 -0.007528141 0.03828024 0.105359845 -0.11687456 0.023687683 -0.03535057
0.026416935 0.059302084 0.08478277 0.115455754 -0.117385365 -0.061093938 0.004345961 0.1079878
0.08754135 -0.10601412 0.02995538 0.06710332 0.123917334 0.13333595 0.10600019 -0.083810724
0.13386363 0.13552976 0.06039515 -0.012982063 0.06932729 0.021005224 -0.065516375 0.0065355217
0.12562189 0.025652966 -0.089814 0.05830012 -0.08537895 -0.052344378 0.092726886 0.17704758
0.112929836 0.022151982 0.1333628 0.108366944 -0.044410247 -0.03617274 0.12489706 -0.00047661058
0.043997142 -0.013151095 -0.14266227 0.0714701 -0.09619111 0.022398254 0.014757616 -0.12871477
-0.008084507 -0.037589747 0.08719731 -0.021457467 0.06264574 0.11469213 0.03977053 0.11049195
0.07606008 -0.11593506 -0.08378642 -0.12584755 -0.08350438 -0.08463739 -0.08872733 -0.079135306
0.044363618 0.012004175 0.031676777 0.036094017 -0.044743218 -0.019530192 -0.10753209 -0.06207062
0.05405692 -0.062206037 -0.008183904 0.07192353 0.09903342 -0.012202837 -0.085217305 0.038201384
-0.081967786 -0.081654966 0.09193642 0.002760306 -0.12091328 0.03975767 0.03321947 0.047637533

c1.bias f4 [32]
00000000: 9792 48bd 6d08 dbbd d0b3 2cbb 536a 893d
00000010: b4cd d03d d17f e0bc bb93 0f3d 551c 713c
00000020: 0f41 4bbd d7e2 8abc 268d 693d 6ba6 183d
00000030: 2069 c5bc ef90 89bc 8098 0bbd b616 34bd
00000040: 55bc e6bd b56f 7fbd bf2f 1f3d 0d15 c03d
00000050: 0ae6 883c 9838 bb3d 93cd 18bd e742 8bbd
00000060: ec1b f2bb b98a b33c 69ae 673d f0ff d23b
00000070: bb4a 93bd 7e06 00bc 9686 e0bd ae21 9f3d
-0.048967924 -0.106949665 -0.0026352294 0.06709733 0.10195485 -0.027404698 0.035052996 0.014716228
-0.04962259 -0.016953869 0.057019375 0.037268084 -0.02409798 -0.016792743 -0.034080982 -0.04396697
-0.1126639 -0.06236239 0.038863894 0.09379015 0.016711254 0.09141654 -0.037305426 -0.0679987
-0.0073885825 0.021916734 0.056562815 0.0064392015 -0.07191988 -0.007814048 -0.1096317 0.07770096

c2.weight f4 [64, 32, 3, 3]
00000000: 1de7 b6bd a020 70bd e6f3 e8bd 152c 8fbb
00000010: 467e 58bd 1736 7ebd 9281 56bd 55f7 31bd
00000020: 2b50 90bd dd67 213d 9441 7e3d 77fd 1e3c
00000030: 2670 fd3c cd74 29bd 3a53 89bd 8a35 26bd
00000040: f1c1 9ebc be17 1dbd b6fe 23bd f607 ed3c
00000050: 74d2 6c3d 91d6 a43c fcae 183d db33 88ba
00000060: 8833 05bd 85a5 8a3c 95d8 3ebc 7c61 0d3d
00000070: d9a0 113d 9e26 acbd 569a dabc 0a6d 0c3d
00000080: 7743 fabc 9177 3fbc ebc7 933c 2ba1 9fbc
00000090: 9dfe 0f3c 0acf 0d3c 3ba4 51bc da0f a73b
000000a0: 8335 a8bd a16e dabc b85b 83bd e482 e2bc
000000b0: bce3 eaba e4cb 49bd d605 293d ff3c 283d
000000c0: b029 34bd 03d0 9e3c effa 693d 501c f73b
000000d0: 11c0 f2bc 6459 1d3d 64df 753c 9141 213d
000000e0: fe2d babb c91f ccbc 3724 aabd 34dc d13b
000000f0: 7e17 9cbd 674f babb f452 433d 24fd 043a
00000100: 1490 95bd 4375 c03c 8dbe 3dbd 3b33 8f3c
00000110: 3d48 873d 341c fb3c 4748 94bd a0e0 4cbd
00000120: 5222 443d 42bd 223d c9f2 6dbc 66bd 69bc
00000130: f1a9 d03c ad55 d13c 2a0e 353d 6c34 c8bb
00000140: 3576 0f3d f6c5 97bd 44b5 91bd 6dfc ae3c
00000150: 0248 2ebc ec14 57bd a4e3 6a3b 4660 0bbc
00000160: d658 a8bc 109d f53c 0fae a2bd 7b37 39bd
00000170: a388 c3bc 9059 2e3d 745d a8bc 9e81 493d
00000180: f0b2 80bd 8d87 5e3d 2822 9f3c 5830 6dbb
00000190: a303 363d 550b 473d 302c 133c 4f0d 1dbb
000001a0: 2b76 04bd 38f0 45bd 3fb7 56bd dc5e 99bd
000001b0: 2d89 afbd 6100 51bd 1145 6cbd c282 61bd
000001c0: b814 90bd 01ed 19bd a285 3abd 4388 093d
000001d0: ca68 e23c af54 d33b da5f 903c 7926 3fbd
000001e0: 7693 723c 512b 3ebc 70e9 2bba a96d afbd
000001f0: da84 59bc bf5d a23c e2d6 18bd 8bba 78bd
00000200: fdd3 adbc b641 82bd 5e41 65bd 54b9 6fbd
00000210: e241 a9bc 54b6 4ebd 8e78 ccbd 510f a4bc
00000220: 883a ccbc ac10 3d3d a82b 623d c673 643d
00000230: 6996 44ba 2328 72bd d983 4f3c e31f 11bd
00000240: f215 0fbe 0c0e c8bd f891 43bd ecb2 24be
00000250: 930a f7bd ffe4 14be 02e9 d4bd a5b1 cfbd
00000260: e88c 48be bd49 88bc b921 19bd 64da 2c3d
00000270: 3c7b 6a3c c38c b83c fb68 9fbc 0d34 423d
00000280: 587b 56bb fa6e 84bd ce08 1bbd 5aae 12bc
00000290: 6161 b8bc 5ace 07bc 7593 32bc 6ab8 19bd
000002a0: ffd5 743d 958a ff3c c172 64bd d4f9 213b
000002b0: ba2d 51bc a0fe ae3c 13c2 a3bc 91f9 a7bc
000002c0: d127 1d3d cc18 67bc 67f5 32bd d27e 573c
000002d0: 2b5f d9bc 69d9 29bd a514 793d bd76 0ebc
000002e0: 3cc9 60bd 34ff 16bd dc56 67bd 2cf8 31bb
000002f0: 3fba a4bc 1df1 58bd 4e88 63bd c1fb 2e3d
00000300: cd05 e5bb 97c4 0d3c df25 853b f9b6 efbc
00000310: 54aa 053d ff9c 883c a01f 78bc ebe3 003d
00000320: a1dc 1bbd ae17 0b3d c3bc d53c 27cf 9dbc
00000330: bb33 06bc 7bbd e9bd 04f7 8cbd 286c 6ebd
00000340: 9cf8 8e3c 8934 88bd aa07 233d ba98 2cbd
00000350: 51fb 3fbd d265 89bc 5fc3 2bbd 4816 92bd
00000360: b190 83bc 520b 033d 5f44 503c 7574 103d
00000370: d127 a63c fddf c43c 7671 19bd 997b 39bd
00000380: 4f8a acbd 607c dbbd 9732 b73c a593 cfbb
00000390: 0b87 88bd d525 38bd d27b 55bd 0721 38bd
000003a0: b63e 08bd 61d5 173d 3357 d73c dbcf a4bd
000003b0: 48eb 143d cddc 0e3d 1c9e da3c f298 0a3d
000003c0: 3c9c ad3c 3f29 993c b840 693b 26f5 78bd
000003d0: 1ee4 4c3c 3deb 68bd 06ab ad3c f5c0 5bbc
000003e0: dcdc 80bd 822f d23c 390d cebc 3f50 92bd
000003f0: 913e 98bd f0a8 28bd 5272 4abd 634a 53bd
-0.089308 -0.058624864 -0.11374645 -0.0043692687 -0.0528548 -0.062063303 -0.05236966 -0.043448765
-0.07046541 0.039405692 0.06207426 0.009703985 0.030937266 -0.041371156 -0.06705327 -0.040578403
-0.019379588 -0.03835272 -0.040037833 0.02893446 0.05781789 0.020121844 0.037276253 -0.0010391431
-0.032519847 0.016924629 -0.011648317 0.034516796 0.035553787 -0.08405803 -0.026684921 0.034283675
-0.030549748 -0.011686222 0.018039664 -0.01948603 0.008788732 0.008655319 -0.012795503 0.005098325
-0.082133316 -0.02666408 -0.06413978 -0.027650304 -0.0017920653 -0.04926671 0.04126533 0.041073795
-0.04398507 0.019386297 0.057124075 0.007541217 -0.0296326 0.038415328 0.015006874 0.03936917
-0.005681752 -0.0249175 -0.08307689 0.006404424 -0.07621668 -0.005685735 0.047686532 0.0005073121
-0.07302871 0.023493415 -0.0463243 0.017480483 0.06605575 0.030653097 -0.07240348 -0.050018907
0.047884293 0.03973127 -0.0145232165 -0.0142663475 0.02547166 0.025553549 0.04420296 -0.006109765
0.03502484 -0.07410805 -0.07114652 0.0213606 -0.010637285 -0.052510187 0.003584125 -0.00850684
-0.020550173 0.02998212 -0.07943355 -0.045218926 -0.023868864 0.042565882 -0.020552374 0.04919588
-0.062841296 0.05432849 0.019425467 -0.0036192145 0.044437062 0.04859479 0.008982703 -0.0023964231
-0.032339256 -0.048324794 -0.05242085 -0.07488796 -0.08571086 -0.051025752 -0.057683054 -0.05505634
-0.07035202 -0.03757954 -0.0455376 0.033577215 0.027637858 0.006449304 0.01762383 -0.04666755
0.014805665 -0.011607007 -0.0006557917 -0.08565838 -0.013276303 0.019820092 -0.037314303 -0.060724776
-0.021219248 -0.063601896 -0.055970542 -0.058526352 -0.020661298 -0.05046685 -0.099839315 -0.020026835
-0.024930254 0.046158478 0.055217415 0.055774473 -0.00074992195 -0.05912031 0.012665712 -0.0354308
-0.13973215 -0.09768304 -0.04774663 -0.16083878 -0.12062564 -0.1454048 -0.10396005 -0.10141305
-0.19585001 -0.016636724 -0.037385676 0.04220046 0.014311608 0.022528058 -0.019459238 0.04741292
-0.0032727327 -0.064664796 -0.037850194 -0.008952701 -0.022507371 -0.008288944 -0.010899414 -0.037529387
0.059774395 0.03119401 -0.0557735 0.002471556 -0.01276725 0.021361649 -0.019990003 -0.020504745
0.03836805 -0.014105033 -0.043691065 0.013152795 -0.026534637 -0.041467104 0.060810704 -0.008695302
-0.054879412 -0.036864474 -0.05647932 -0.0027155979 -0.02010834 -0.05296432 -0.055549912 0.04272056
-0.006989217 0.008652828 0.0040633525 -0.029262053 0.03263314 0.016676424 -0.015144259 0.03146736
-0.038052205 0.03395813 0.026090985 -0.019263817 -0.008191044 -0.11413094 -0.06883052 -0.058208615
0.01745253 -0.06650645 0.03980223 -0.04213784 -0.046870533 -0.016772185 -0.041934367 -0.07133156
-0.016060205 0.031993218 0.012711613 0.035267312 0.020282658 0.024032587 -0.03746172 -0.045283888
-0.08424818 -0.10717082 0.02236299 -0.0063347393 -0.066663824 -0.044957954 -0.052120037 -0.044953372
-0.03326293 0.03706873 0.026286697 -0.08047458 0.036357194 0.03487854 0.02668672 0.033837266
0.021192662 0.018696425 0.0035591554 -0.060780667 0.012505559 -0.056864966 0.021199714 -0.013412704
-0.062921256 0.02565742 -0.02515279 -0.07144212 -0.074338086 -0.041176736 -0.04942543 -0.051584613

c2.bias f4 [64]
00000000: aa9c a43c 18be c1bc c0aa bebc cf82 773b
00000010: 83b8 82bd 09ae 7b3c d1a6 db3c b26e 9dbb
00000020: 135c 45bc 7cb5 3a3b bc90 053d ac7d 2a3d
00000030: 534c 59bc 3cf2 50bd fd1a e2bc 5c51 28ba
00000040: 5cd4 6ebd f6c6 3d3d 4d52 90bd cc7a 1abc
00000050: f97f 0abd 2f37 f13c 9f17 053d 1d0a 34bc
00000060: 7805 e4bb 98a9 fbbc 6a5c 403d bc76 4cbd
00000070: e3f3 40bd ceb8 303c 72b9 04bc d7fc 9dbc
00000080: 8037 8bbc b89b 0f39 0f8e 883c 739d 13bd
00000090: 73b2 233d 90b1 81bc b7be 253b 627e 6dbd
000000a0: db01 57bd 92df 87bd e484 213b ebe8 95bc
000000b0: b86c e73c f101 6abd 173b a3bd 8d27 9dbd
000000c0: 950e 303d d0d0 77bd 1653 213c 19cb 053c
000000d0: 3704 19bb fba3 debb f559 63bd 4608 28bd
000000e0: d47b 973c ee2b c53c bdea ab3c 0b3f 16bd
000000f0: a6a4 703d 21f3 f2bb cc13 39bc 2459 f93c
0.020094234 -0.023650214 -0.02327478 0.0037767177 -0.06382849 0.015361317 0.026812943 -0.0048044557
-0.012045878 0.002848952 0.032608733 0.041623756 -0.013262826 -0.051012263 -0.02760076 -0.0006420815
-0.05830799 0.046332322 -0.07046948 -0.009428691 -0.03381345 0.029445259 0.03249323 -0.010988739
-0.0069586597 -0.030720517 0.046963133 -0.04991792 -0.04710759 0.010786248 -0.008100854 -0.019285602
-0.016994238 0.00013695552 0.016669301 -0.036038827 0.039965104 -0.015831739 0.0025290677 -0.057981856
-0.052492004 -0.066344395 0.002464586 -0.01829954 0.028250083 -0.057130758 -0.07970255 -0.07673559
0.042982657 -0.060501873 0.009846469 0.008166098 -0.002334846 -0.0067944503 -0.05550571 -0.041023515
0.018491663 0.024068799 0.020985955 -0.036681216 0.05875077 -0.007414237 -0.011296224 0.030438013

c3.weight f4 [256, 64, 3, 3]
00000000: 83c6 7dbd 4d72 bbbd 3098 25bd 4471 d9bd
00000010: ae87 cbbd a165 9cbd 0d40 febd cdb6 b9bd
00000020: f7bc 27be da54 5a3a b436 2b3d 7724 a33d
00000030: 98a6 e73c 2555 26bc af97 803d 48d0 9d3d
00000040: cb60 5e3c ef74 203d 5886 743d 3a82 d43d
00000050: 0271 873d aa7b 053d aef3 103d 6dd2 863d
00000060: b119 923c d05d 21bc 3d1d 283d a4f1 f23c
00000070: 231b 42bd 72d3 aabd bca6 843c 91c5 efbd
00000080: 033d 21be 0907 b33c 1e73 6ebd 132c c5bd
00000090: 3441 b53c bc92 41bd 639f dbbd 8352 ee3c
000000a0: a5ff dc3c b5a4 2abd f8ea b53c 58f1 a93b
000000b0: 0d82 55bd 82d3 b53c f61f d0bc af35 dfbc
000000c0: a94d 00be 5ea6 bbbd 0b4b c4bd d345 c5bd
000000d0: e174 91bd 93f2 98bd 3718 90bd 0ee0 96bd
000000e0: b767 25bd 8cb4 7bbd 9f74 e9bd 9074 02be
000000f0: c274 1cbe 6f9b 26be b3cc 21be b25b cdbc
00000100: c750 b4bc 3635 6abd 9967 83bc f96d 68bd
00000110: d4c9 dfbc c179 7abb cbb6 8fbc dd6b a7bc
00000120: fd8f 31bc a875 cebc 6995 083d 785b b3bc
00000130: 1506 74bc 6124 7e3c cedb 06bd 2a4d 743c
00000140: 2ace 073c a3fa b9bc f70b 05bd 3ec3 3ebd
00000150: c391 bebd 1d45 88bd 9297 8bbd 3516 18be
00000160: d52e b8bd 3294 82bd e8b5 e2bc 3c73 0c3c
00000170: d53f 83bd 837e 8c3d b00f 453d c4b0 71bd
00000180: c57a 7f3d 7a28 0dbd e0a3 d1bd b17f b53d
00000190: 6bfa 723d 299f 1b3c 7646 d43d 71a6 463d
000001a0: 8566 15bc 4785 e53d f2e5 5d3d e667 7b3d
000001b0: 026d 103d 5a68 863c 5906 f1bc 2efa 363c
000001c0: 8e90 c33b 5511 b53c 3440 003c 4805 8a3c
000001d0: 149b 80bc 2d03 233d 6a98 323d 5790 f53c
000001e0: 6988 9d3d 092f 91bc de16 47bb 28ae b33c
000001f0: 8e2d 263d 3976 4b3d fb1d 0e3d b68e a3bd
00000200: 5ba5 84bd 4e8f da3c 9fd7 0bbd 606e 86bb
00000210: 4005 84bc 1e51 fdbc a213 fdbc 48a9 1abc
00000220: 5e33 d6bc 576b 7cbb 3219 b6bd 23fe e8bd
00000230: c713 e3bd cef9 efbb 9e00 92bc f23e 65bd
00000240: 6793 903d c5d8 ed3d 4824 bb3d 8d12 763d
00000250: 8d07 b43d 896c 2c3d afb2 953d b89f df3d
00000260: 4b4e 233d 6800 0f3e 2ec1 133e cd67 0a3e
00000270: 4683 b43d 8054 a03d 728a c93d 902f 093d
00000280: 4251 3f3d abad c03d 2d09 193d ebe0 adbd
00000290: 33a3 b5bd 09b7 573d 577c 97bd cee9 73bd
000002a0: 1bc3 ac3c 5a1d ac3a 9c2a 70bd 4800 2a3d
000002b0: eeaa 69bd 0af5 4bbd d066 0ebd 7b29 96bd
000002c0: 0a27 abbd fc4f 19bd 15d0 a5bc 376b d1bd
000002d0: 0b9b 0cbd 82a5 a7bd 5bd3 00be cd66 a0bd
000002e0: 0852 8dbd 0734 c6bd 8cd1 04be ad00 81bd
000002f0: 0667 45bc aaaf a7bd da56 dbbd e67f 14be
00000300: 359d 1abe af05 48be 0d28 2abe 9219 0dbe
00000310: e847 0cbe fd0f 38be 60ae 47bd b8d5 54bd
00000320: e758 50bc c805 aebd 40dd e4bd 485c febd
00000330: dd25 5bbd 6106 12be d2cf 14be 948a 27be
00000340: 8ac8 9cbd c16c c4bd 4de7 a4bd b162 7fbd
00000350: 7250 b6bd 5343 94bd 0b23 89bd 8be5 70bd
00000360: e01a 7ebd fafa acbd c3fb b8bd c033 80bd
00000370: c16e a0bd c4f6 d0bd 6ac2 3fbc 7f8e bdbc
00000380: 1072 45bd 0985 8fbc 2f4d bfbc 6345 b0bd
00000390: 0c0f 39bd 6502 92bc 4d65 09bd 3490 9bbd
000003a0: d4f2 e5bc 22e3 9cbd 8ad3 9ebd c0f1 8ebd
000003b0: 1f26 77bd 2cbf dfbc eb26 2ebd 60c6 9dbc
000003c0: f318 ebbb 5bfd c7bc 8f29 d7ba 17a3 793d
000003d0: a466 463b 8e9c b13d 94b4 a23d 63c2 cb3c
000003e0: 5a1c 9d3d 1e22 913d 95ac 283c 02d3 be3c
000003f0: 37ed 853d dd79 ae3c e662 dc3c 6f0f 1e3c
-0.061956894 -0.091526605 -0.04042834 -0.10617307 -0.09937988 -0.07636572 -0.124145605 -0.090680696
-0.16380678 0.0008328684 0.041800216 0.079659395 0.02827768 -0.010152136 0.06278931 0.07705742
0.013572882 0.039174017 0.059698433 0.10376401 0.066133514 0.03258864 0.03538864 0.06583104
0.017834516 -0.009849027 0.04104351 0.029656239 -0.04738916 -0.08341111 0.016192786 -0.11707605
-0.1574593 0.02185394 -0.058215253 -0.09627547 0.022125818 -0.047259077 -0.1072376 0.029092079
0.02697737 -0.041660983 0.022206768 0.005186241 -0.05212598 0.022195581 -0.025405865 -0.027247278
-0.12529625 -0.091625914 -0.09584626 -0.096324585 -0.07102371 -0.07468142 -0.070358686 -0.07366954
-0.040382113 -0.06145148 -0.11399197 -0.12739778 -0.15278915 -0.1627023 -0.15800743 -0.025068138
-0.022011174 -0.057179652 -0.01604061 -0.056745503 -0.027317919 -0.0038219544 -0.017543217 -0.020437175
-0.010837552 -0.025202587 0.033345614 -0.021894202 -0.014894028 0.015511603 -0.032924466 0.0149109755
0.008288899 -0.02270252 -0.032482114 -0.046572916 -0.093051456 -0.06653807 -0.06816019 -0.14852221
-0.089933075 -0.06375922 -0.02767463 0.008572396 -0.06408659 0.06860068 0.048110664 -0.059006467
0.06237294 -0.03446243 -0.10236335 0.08862246 0.05932085 0.009498396 0.10365002 0.048498575
-0.009118681 0.11207061 0.05417437 0.061378382 0.035260208 0.01640718 -0.029421972 0.011168046
0.00596816 0.022102991 0.007827807 0.016848221 -0.015698947 0.03979795 0.043602385 0.029976053
0.07692034 -0.017722623 -0.003037862 0.02193363 0.040570788 0.049673293 0.03469656 -0.07986204
-0.064768516 0.026679661 -0.03414118 -0.004102513 -0.016115785 -0.030922469 -0.03089315 -0.009439774
-0.02614754 -0.0038516128 -0.088915244 -0.11376598 -0.110877566 -0.00732348 -0.01782256 -0.055968232
0.07059365 0.11613611 0.091377795 0.060076285 0.08790503 0.042095695 0.07309472 0.10919136
0.039869588 0.13964999 0.14429161 0.1351616 0.08814101 0.07828617 0.098408595 0.033492625
0.046708353 0.094081245 0.037362266 -0.08490165 -0.088690184 0.05266479 -0.07396763 -0.059549145
0.021089127 0.0013131306 -0.058634385 0.041504174 -0.057047777 -0.049794234 -0.03476602 -0.073321305
-0.083570555 -0.037429795 -0.020240823 -0.10225528 -0.034327548 -0.08185865 -0.12580626 -0.07832108
-0.06900412 -0.09677892 -0.12970561 -0.06298957 -0.0120484885 -0.08187802 -0.10709925 -0.14501914
-0.15099032 -0.19533418 -0.1661684 -0.13779286 -0.13699305 -0.17974849 -0.04875028 -0.05196163
-0.0127165085 -0.084971964 -0.111750126 -0.12419945 -0.053502906 -0.14260246 -0.14532402 -0.16361457
-0.07655437 -0.09591056 -0.080519296 -0.06234998 -0.089020625 -0.072394036 -0.06696137 -0.05881266
-0.06203735 -0.084463075 -0.09032395 -0.062598705 -0.07833625 -0.10203317 -0.011704067 -0.023139236
-0.04820448 -0.01751949 -0.023352234 -0.086069845 -0.045180365 -0.017823407 -0.033543874 -0.07595864
-0.028069891 -0.0766051 -0.077551916 -0.06979704 -0.06033909 -0.027312838 -0.042517584 -0.019259632
-0.007174605 -0.024412801 -0.0016415584 0.06094655 0.003027358 0.086724386 0.07944599 0.024872964
0.07671423 0.070865855 0.010295053 0.023293976 0.06539386 0.021298343 0.026902627 0.009647234

c3.bias f4 [256]
00000000: d27f f1bb ebaf 593c 1481 f43c 5f67 cfbb
00000010: 89bf e9bb 9387 95bd 9987 9d3b 17fc 24bc
00000020: 44b3 e3b9 df7e 76bd 7075 1bbd a2d6 43bc
00000030: 08cd 28ba b7fb 363d 4fd4 34bc c9b8 48bc
00000040: dccd 9dbd aa5f 1abd 5966 0bbd b4f3 52bd
00000050: 4b9d 62bb 18af 1dbb 66ef 03bc 9986 54bd
00000060: 4c25 10bd 6541 64bc 6d9c efba 2653 d03c
00000070: e742 90bd cedf b2bb 170b b6ba 0339 65bd
00000080: d547 85bc b23e 9ebc 71fa 173d 47b1 823c
00000090: ba68 1f3d 74e0 66bc 880b 223d 7337 9b3a
000000a0: 7c86 bebc 458b 79bd 0e31 c8bc 0a32 6d3d
000000b0: 95f5 1abd 8870 893c e51e 2a3d e375 1abd
000000c0: ed05 e8bb d050 c73c 0673 60bc 0160 1fbc
000000d0: fc4c 2abc 86a1 31bc 028b 23bd fdbb f43c
000000e0: 0083 3b3d 917a 53bd e172 063d 663d 90bb
000000f0: ae96 33bd ec83 3bba c176 d2b9 6766 4abd
00000100: e945 82bd 6d6b 60bd 9533 a6bc 765b 03bb
00000110: 7ad3 1d3d b905 74bb a95b 57bd 1110 adbb
00000120: 8bd1 74bd 0b47 31bc 6c6f 3dbb 5fdb 80bc
00000130: 0e54 efba 685b 24bb d0e8 1abb df84 693d
00000140: b705 90bc 4738 c6bc 7ff9 9abd e638 a3bd
00000150: 5c6e 2dbc f42f 6ebc 2abd 77bd c44c 03bc
00000160: 2c95 9a3c 749d ed3c b2ae dcbb bfbd 0b3d
00000170: 57b3 27bc 4c33 2abd 0f5f 5bbc 6a22 273d
00000180: b057 abbb e0a5 3ebd 4fd4 cfbb a0eb 2ebb
00000190: 57f7 a9bc 14dc 11bd 50e7 85bc f03e b3bb
000001a0: 0913 38bc 1633 11bb ef4e 15bb 5459 0d3d
000001b0: c9de 733c fea3 13bd dad1 d2bc 5d4d 5bbd
000001c0: aa14 4fbb 45dc 153d 9772 03bd 28b3 883d
000001d0: 6514 cebb 2b5e 20bc eb49 eabc a49a 60bb
000001e0: cc71 71ba 6bcf 0b3d 6d25 babb 973b 3dbc
000001f0: 49d3 05bd d83d 173c fb01 7e3c 9f99 24bb
00000200: aabe 8abc d031 53ba 0849 d63c 4f41 ef3c
00000210: 2dce cdba 2b59 48bb 6739 b9bb 946b 5f3d
00000220: d17b 34bb 5f5f 44bb c480 99bb c6d7 08bd
00000230: 94e1 3ebd 7295 2a3d c2ba 98ba b4c4 03bc
00000240: 11f2 5eba 5c8a 7cbc 563f 83bd 8f12 a8bb
00000250: 0bae 8bbd 3fcf 63bb 1902 f6bc 597d 70bc
00000260: 45cc 93bb 7b63 e8bb 6d2e 4aba 2c86 1cbd
00000270: 4e1b 3bbd fe9e 023d 5bb9 41bc 07f7 1dbd
00000280: a444 a23b e171 7c39 8841 313d e9f6 73bb
00000290: ba81 3c3d 5462 aabc 0fb5 84bb 0c86 22ba
000002a0: aeb5 04bd 6f30 7d3c aa67 34bd 4c0d 02bd
000002b0: c9bc 3a3d cc49 dbbc 1414 9d3c 2c9c 47bd
000002c0: b021 5ebc 13e0 993c 0017 ecb9 0d66 7ebc
000002d0: 744f 12bc 5080 1f3d 7a0a 203c 96fb 84bd
000002e0: b751 38bb 0650 673c 2ed5 83bd bebe 16bc
000002f0: 598d 5fbb 5b6e 23bd 87d5 09bd f2e9 35bd
00000300: a779 0abb 64cb 1dbc 8193 663b 0f75 8ebb
00000310: 2d82 35ba 78ae ccba 5cff 2ebb d533 d93c
00000320: 2fd6 a0b9 402c 4cbc d8e6 9b3c 4f99 62bd
00000330: c3b8 90bc c238 2e3c 4be6 713c f9cc 00bb
00000340: 8d5b c53c a484 6cbc 5ba9 32bc 9efa 04bb
00000350: 4789 f4ba 569b 303d d1d9 a1bc 77ff 0cbc
00000360: bb98 41bd d259 2abd 5447 7abc 28a6 863b
00000370: 1945 8fba e08a 7abb 6319 063d 7d7d 5bbd
00000380: 379d 55bc 7f19 0abb 8f28 b9bd 3a3a 25bb
00000390: ae7d 10bd 276f 93bc 27da 4a3d 675d 58bd
000003a0: d7d4 03bb 6f90 2abd e234 06bb 469d e9bc
000003b0: 0e4d 4ebd 8796 f9b9 c5c6 ea3c 5b4f 71bd
000003c0: 8b59 7bbc bd07 6eba bba2 00bd 012a 28bb
000003d0: ce27 99bc 8d0e a33c 0e7e 263d 2fc9 8dbd
000003e0: 110c 50ba dd2d 0fbd 4fe0 5d3d f9fb ed3b
000003f0: 15c7 2fbb 46d1 6bbd 2179 cbbb c278 12bc
-0.0073699737 0.013286571 0.029846705 -0.0063294615 -0.0071334285 -0.07301249 0.0048074243 -0.0100698685
-0.00043430377 -0.060179587 -0.037953794 -0.011953028 -0.00064392434 0.044673648 -0.011036946 -0.012251087
-0.0770528 -0.03768889 -0.034033153 -0.051501945 -0.0034578617 -0.0024060663 -0.0080526825 -0.051886175
-0.03519182 -0.013931607 -0.0018280871 0.025430273 -0.070440106 -0.0054588085 -0.0013888803 -0.055962574
-0.016269604 -0.019317005 0.037104074 0.015953673 0.038918234 -0.0140916 0.03956178 0.0011842087
-0.023257487 -0.060923833 -0.024437454 0.05790905 -0.03783186 0.016777292 0.04153337 -0.03771008
-0.0070807845 0.024330527 -0.013699299 -0.009727479 -0.010394331 -0.010841733 -0.03992749 0.029874796
0.04577923 -0.05163056 0.0328244 -0.0044018505 -0.04384487 -0.0007153142 -0.000401428 -0.049414065
-0.063609906 -0.05478995 -0.020288268 -0.0020043529 0.038531758 -0.0037234856 -0.05257765 -0.0052814563
-0.05977015 -0.010820161 -0.0028905524 -0.015729604 -0.0018259303 -0.0025078896 -0.0023637302 0.05701148
-0.01758085 -0.024196757 -0.07567119 -0.07969837 -0.010585394 -0.0145378 -0.060483135 -0.008013908
0.018869959 0.029005744 -0.0067346925 0.034116503 -0.010235629 -0.041552827 -0.013389363 0.040804304
-0.005228959 -0.04654491 -0.006342448 -0.0026690736 -0.020747824 -0.035610273 -0.01634565 -0.005470149
-0.011235007 -0.0022155694 -0.0022782644 0.034509018 0.014884659 -0.036045067 -0.02573483 -0.053540576
-0.003159801 0.03658702 -0.032091703 0.06674796 -0.0062890523 -0.009788076 -0.0285997 -0.003427186
-0.00092103775 0.034133356 -0.005680731 -0.011549852 -0.0326722 0.009231053 0.015503402 -0.002511598
-0.016936619 -0.0008056434 0.02615787 0.029205946 -0.0015701704 -0.0030570726 -0.005652595 0.054545954
-0.002753962 -0.0029964072 -0.0046845395 -0.033408903 -0.046601847 0.04164643 -0.0011652338 -0.008042503
-0.00085046986 -0.015413847 -0.06408565 -0.0051291655 -0.068203054 -0.003476098 -0.030030297 -0.014678323
-0.004510435 -0.007091937 -0.00077126065 -0.038213894 -0.045680337 0.031889908 -0.011823977 -0.03856566
0.0049520303 0.00024075016 0.043275386 -0.0037226027 0.046022154 -0.02079884 -0.004049904 -0.0006199784
-0.032399826 0.015453442 -0.044044174 -0.031750962 0.045590196 -0.026768588 0.019174613 -0.04873292
-0.013557836 0.018783605 -0.00045030564 -0.0155272605 -0.008930076 0.038940728 0.009768123 -0.06493299
-0.0028124878 0.0141182 -0.06437145 -0.00920075 -0.003411135 -0.039900165 -0.0336509 -0.04441256
-0.002112964 -0.009631012 0.0035183134 -0.0043474506 -0.0006924 -0.0015615961 -0.00267025 0.026513973
-0.00030677157 -0.012461722 0.019030973 -0.055321988 -0.017666226 0.010633649 0.014764379 -0.0019653423
0.024091506 -0.014435921 -0.010904635 -0.002029098 -0.0018656634 0.04311689 -0.019757183 -0.008605829
-0.047264796 -0.041589566 -0.015275795 0.004109163 -0.0010930627 -0.0038229749 0.032739054 -0.05358647
-0.013037971 -0.0021072326 -0.09040939 -0.0025211708 -0.035276107 -0.017997338 0.049524453 -0.05282345
-0.0020115876 -0.04164165 -0.0020478298 -0.028517377 -0.050366454 -0.00047605133 0.028659234 -0.05891357
-0.015341173 -0.00090801326 -0.031405192 -0.0025659802 -0.018695738 0.0199044 0.04064756 -0.06923138
-0.00079363683 -0.034955848 0.054168995 0.0072627035 -0.0026821543 -0.057572626 -0.006209508 -0.008939924

fc1.weight f4 [64, 256]
00000000: 0ed9 423d 8076 60bb bc41 23bd c23c 34bd
00000010: cccb 34bd 743a 913c 0097 c33b b429 573d
00000020: a085 e13b 608a 073b a63c 20bd fae7 67bd
00000030: 9a64 66bd 30d7 4cbd f0f5 e03c b4cc fbbc
00000040: f02f 87bb 00c0 3db9 88de 3bbd 68a6 7abc
00000050: 70a1 78bc d059 f1bc b0f1 00bc c0f8 423b
00000060: bc33 3a3d 4027 683d 7034 6d3d 2262 2d3d
00000070: 66dd 52bd ec85 7b3d 00e8 953b 5e85 16bd
00000080: d4d6 563d 00a8 0cbb 1e4f 38bd 1eb6 5ebd
00000090: 9c1f a4bc 08aa c93c a6b4 133d 24ae 13bd
000000a0: 00d4 3fbc fecf 0dbd 8a1c 083d 08ea 09bd
000000b0: a816 c3bc fa48 5dbd 74aa a9bc 926b 69bd
000000c0: 002b 22bc 8ebd 19bd e23a 2b3d d885 6fbd
000000d0: 74a2 d93c f023 18bd f0a6 cdbc 8035 713b
000000e0: 3027 743d 2c54 203d d42b 59bd 48ba a5bc
000000f0: 8c46 f03c 5849 0f3c ca7c 783d c089 8bbc
00000100: 90d8 c33b 406c 14bc 00ed 32ba 4c79 953c
00000110: 30e9 f9bc 06ae 263d 48c6 e0bc d0e1 37bd
00000120: b0f7 183c d871 70bd 6a01 0c3d 40d4 433b
00000130: 70ae 52bd 063b 243d 1076 19bd 9000 eabc
00000140: dc90 3b3d 98d0 c63c 940a ad3c 5281 733d
00000150: 30fc 4f3d 9607 71bd 0439 50bd b0bc 413c
00000160: f22f 323d 68b0 34bd 7674 393d 9491 cabc
00000170: 0092 46bc 0026 cebc b29e 713d b83b b13c
00000180: 98d8 adbc 1604 363d 20bf 9abc 300b 3e3c
00000190: c0be 91bc 5848 353c dcc3 53bd 442c c23c
000001a0: a668 6bbd 3cbc 483d 2ac0 353d 6ce0 493d
000001b0: a0b4 16bc 9ea7 4b3d 607a d53b a6aa 293d
000001c0: 96c8 7ebd 1efb 24bd 223a 17bd 905a 8fbb
000001d0: 5040 53bd 48a8 3d3c 8232 293d 1a78 01bd
000001e0: b685 4f3d d2b5 64bd f078 e1bc 087f 943c
000001f0: 047d 953c 78ba be3c c4c3 71bd a28d 4fbd
00000200: 683e ce3c 54f0 9d3c 26b4 02bd a82f 88bc
00000210: 8c5f a3bc ecc5 38bd 129e 3cbd a825 e83c
00000220: 2854 fa3c e807 ce3c 98af 7abc 007e b2b9
00000230: e0f7 433d 0c2f 423d c265 4abd 4848 c53c
00000240: 4098 b43b f62f 3ebd 0ca8 93bc 1c22 16bd
00000250: 3e56 14bd fa56 19bd 18ad fbbc a016 49bc
00000260: 7eff 0c3d 8858 283c f4e1 da3c 801c 53ba
00000270: 201d c33c 6e9e 453d 008c b2b8 f0cc 45bc
00000280: 90ab 533c 6059 133b a057 52bc 787e e53c
00000290: 5cde 53bd 466a 3b3d c479 19bd d4f0 383d
000002a0: 4020 ddbb 7c4e ad3c f02b 0e3d 5e5f 55bd
000002b0: c88c a7bc 84ba b13c 4c29 69bd 80fb bd3c
000002c0: 480c 3bbc 5013 dc3c 4416 2a3d 3e31 723d
000002d0: 34e3 5f3d 38ef 173d d2db 313d 2cfb 03bd
000002e0: 8085 aaba 0815 7a3d 1425 6e3d 1886 f3bc
000002f0: 7c98 69bd a05d 473b 4404 08bd 50a1 34bd
00000300: dcce dabc 7cb9 e8bc d40f 84bc 2c4b 4ebd
00000310: 9ee5 3a3d 482d 7a3d eef3 4cbd 0c95 d5bc
00000320: 6e89 363d 9e02 6dbd 60ac 393b e8b4 e7bc
00000330: 289d 8b3c 8483 4bbd 7612 473d 62f3 74bd
00000340: 00b0 11ba ec02 a6bc 8204 0fbd 307e debc
00000350: 002f 55ba 5248 31bd 78c4 2e3c 70b6 173c
00000360: b801 7d3d c0cb 3b3c 7a24 273d 7a42 1fbd
00000370: 00af 0f3b 003d e9b9 6ece 3a3d 48ae 34bd
00000380: 4c53 6b3d 34ae b7bc 2c92 a63c 5ca1 bdbc
00000390: b03f 853b 0a70 74bd d80a 713c 6833 df3c
000003a0: 487b 10bd da27 193d 00aa 3139 c61d 41bd
000003b0: 1ea2 173d 8066 f43a 6c01 f2bc 30d8 d9bb
000003c0: e083 42bb 203e 23bb 02bb 51bd 3871 143c
000003d0: 205a 2f3d 5427 163d 20eb 823b 6caa e13c
000003e0: 7c12 67bd ceee 3b3d c206 2fbd 3660 07bd
000003f0: 48ed 94bc 18f3 1d3c c819 10bc aeb3 733d
0.04757028 -0.003425032 -0.03985761 -0.044003256 -0.04413967 0.017728068 0.0059689283 0.052530006
0.0068823844 0.0020681843 -0.03912034 -0.056617714 -0.056248285 -0.050009906 0.027461022 -0.030737258
-0.0041255876 -0.0001809597 -0.04586652 -0.015298463 -0.015175208 -0.029461771 -0.007870123 0.0029750317
0.045459494 0.056678057 0.057911336 0.042329915 -0.051480673 0.061407015 0.0045747757 -0.036748283
0.05245097 -0.002146244 -0.044997327 -0.0543729 -0.020034604 0.02461721 0.03606095 -0.036054745
-0.01170826 -0.034622185 0.033230342 -0.033670455 -0.023814514 -0.054024674 -0.020711161 -0.056987353
-0.009897947 -0.03753429 0.041804202 -0.058477253 0.026566721 -0.037143648 -0.025104016 0.003680557
0.059607685 0.039142773 -0.053020313 -0.020230427 0.029330514 0.008745514 0.060665883 -0.017033458
0.005976744 -0.009059012 -0.0006825477 0.018246315 -0.0305067 0.040693305 -0.027438298 -0.044893086
0.009336397 -0.05870232 0.034181036 0.002988115 -0.051435888 0.04009535 -0.03746611 -0.028564721
0.045792446 0.024269387 0.021123208 0.0594495 0.050777614 -0.058845125 -0.050835624 0.011824772
0.043502755 -0.044113547 0.04527708 -0.02472762 -0.01211977 -0.025164604 0.058989234 0.021634921
-0.021221444 0.04443749 -0.018889964 0.011599347 -0.017791152 0.011064611 -0.051700458 0.023702748
-0.057472847 0.04900764 0.044372715 0.04928629 -0.009198338 0.0497204 0.0065148324 0.04142251
-0.062203012 -0.040278547 -0.036920674 -0.0043748096 -0.051575005 0.011575766 0.041307934 -0.03160868
0.050664626 -0.05583746 -0.027523488 0.01812698 0.018248089 0.023282275 -0.059024587 -0.05067218
0.025176242 0.019279636 -0.031910084 -0.016624287 -0.019943021 -0.045110628 -0.046049185 0.028338268
0.030557707 0.025150254 -0.015300654 -0.00034044683 0.047843814 0.04740815 -0.04941345 0.024082318
0.0055113137 -0.046432458 -0.018024467 -0.036653623 -0.03621506 -0.037436463 -0.030722186 -0.012273461
0.034423344 0.010275014 0.026719071 -0.0008053258 0.023817599 0.048246793 -8.5137784e-05 -0.012072787
0.012919322 0.0022483692 -0.012838274 0.028014407 -0.05172573 0.045755647 -0.03746964 0.045151547
-0.0067482293 0.021155588 0.03470987 -0.052092902 -0.020452872 0.021695383 -0.05692415 0.023191214
-0.011416502 0.026864678 0.04152514 0.059128992 0.054660037 0.03709337 0.043422528 -0.032221958
-0.0013009757 0.061055213 0.05814083 -0.029727027 -0.057030186 0.0030420795 -0.033207193 -0.044099152
-0.026709966 -0.028408758 -0.016120829 -0.05036466 0.045629136 0.06107834 -0.050037317 -0.026072048
0.044564657 -0.057863824 0.0028331503 -0.028284505 0.017042711 -0.04968597 0.04860159 -0.05980242
-0.0005557537 -0.020265065 -0.03491641 -0.02715978 -0.0008132309 -0.04328186 0.010666959 0.009259805
0.061769217 0.011462152 0.04080627 -0.038881756 0.0021924376 -0.00044486672 0.045607023 -0.04411152
0.057452485 -0.022421934 0.020333372 -0.023148231 0.00406643 -0.05967716 0.014712058 0.027246192
-0.03527382 0.03739152 0.00016943365 -0.047147535 0.03701984 0.001864627 -0.029541694 -0.006648086
-0.0029680654 -0.0024908856 -0.051203735 0.009060197 0.04281056 0.0366586 0.0039953142 0.027547084
-0.056414112 0.04588204 -0.042731054 -0.03305074 -0.01817955 0.009640478 -0.008795209 0.059497528

fc1.bias f4 [64]
00000000: d018 d5bb a663 493c 048c d93c c360 ce3c
00000010: 7cc4 f73b a682 2ebd 1ffd 543c 22c3 77bd
00000020: d01e 73bd 76cc 0dbd f0c8 58bd 90e0 c53c
00000030: 7b3a 203d a2b0 c03b 8a56 0c3d fa96 20bd
00000040: 8d95 0e3d 97ae c23c 3ffc 813b 78a4 24bd
00000050: 46ed 63bd 4120 07bc 540f 66bd 86c8 29bd
00000060: f84e 0f3a edbd 4d3d 873b 063c 9286 73bd
00000070: 1271 6dbd ab0f 02bd 4434 b53d 80b2 34bb
00000080: f4da 963c eccd 02bd fc5d 08bd edd3 1c3d
00000090: b12c 6c3c 7954 5c3d 5043 783b a280 a83c
000000a0: 1793 31bd 7ac3 96ba 7d3a d0bb 44a5 63bd
000000b0: 1811 19bd f359 2f3d a1cf ff3c d6a5 363d
000000c0: 82a6 3f3d 589a 0a3c a5fb 13bd b817 6dbc
000000d0: ffb9 3d3d 6034 443c 13ae 4abc f0a5 e0bc
000000e0: 5457 03bd 6004 d23c f7e0 053d cff5 4a3b
000000f0: 9182 70bd 92b0 e73c f86c f8bc d3c5 bcbb
-0.006503202 0.012291824 0.026556022 0.025192624 0.0075612646 -0.042605065 0.012999802 -0.060488828
-0.059355557 -0.034618817 -0.052926004 0.024154931 0.03911827 0.0058804313 0.034262218 -0.039206482
0.03481059 0.023764892 0.0039668377 -0.040195912 -0.055646203 -0.008247436 -0.05616696 -0.041451
0.00054667844 0.050229955 0.008192903 -0.059454508 -0.05796916 -0.031753223 0.088478595 -0.0027572215
0.018414952 -0.031934664 -0.033292755 0.038288046 0.014414952 0.053791497 0.0037881918 0.02056915
-0.043353166 -0.0011502348 -0.0063546286 -0.05557753 -0.037369817 0.04281039 0.031226935 0.044591747
0.046789654 0.00845965 -0.03612866 -0.014470987 0.046319958 0.011975378 -0.012370604 -0.027422875
-0.032065704 0.025636852 0.032685246 0.0030969267 -0.058718268 0.028282437 -0.030325398 -0.005760887

fc2.weight f4 [5, 64]
00000000: e6f7 c53d 39ed 7a3d c2da 973d 4760 a23c
00000010: 5c30 5bbd fc99 04bd 8b64 bc3d 94c5 803d
00000020: 684c ad3c c84a 88bd 9f0e bd3d 535b e23d
00000030: 4f88 abbd 34c2 3e3c 9d66 933d 520b cf3d
00000040: 4787 c33d bfa8 c0bd ba03 d2bd d8a0 dabd
00000050: f08f 7fbd cc07 8fbd c806 843d 1ad0 ed3d
00000060: ed75 2a3e a6cb 073d a5e7 5fbc 127d dabd
00000070: 18c3 ae3c dbe7 03be 29cc 133e f675 60bd
00000080: 335a 88bd fec5 c13d d3b7 21bd b98e 94bb
00000090: 5c95 eebd 232b 9d3d 09a1 32bd ffec 623c
000000a0: c80d 48bc 1737 ae3d 4837 fd3c c048 30bc
000000b0: dad3 31bc 2732 ea3b 1114 e53d 0377 d33d
000000c0: 3ea9 063e eb76 d33d 6e12 0d3d 3add abbc
000000d0: 4e74 cb3d 47da bd3d 5676 dcbc 3400 bd3d
000000e0: 08fa 96bc 7fb6 f63c 95c8 76bc fbd9 1cbd
000000f0: e9e2 033c 968a 40bd 447e 9abd 7802 e5bd
00000100: cce4 0dbd 1ed4 09bd 4cf2 debd 47f2 c13c
00000110: 9d35 cfbd eeb8 bf3d a53c 993d 0817 343d
00000120: 98c6 2abd f0f3 77bd 7dac 873d 0489 d8bd
00000130: 2daf 83bd ae3d 7e3c f2e3 183e 3866 f63c
00000140: 44f7 4fbd fb52 eebd 5edd b03d fcfc 963d
00000150: 2448 bcbd 9c44 863d b44e 003d 0403 103d
00000160: 3dbc de3c 4bdd 91bc 748b 2e3c 2633 bc3d
00000170: 0017 76bb 1da0 b33c 8a00 c9bd aa19 2bbd
00000180: 8ca5 9a3c dc98 c5bd 7423 b03d 5a2d 013d
00000190: fa05 f93d a4ad b7bd c70d 6c3c ae8c 94bd
000001a0: 640d 8d3d 79cb efbd fd49 87bd 302c e1bd
000001b0: 4d17 75bd 885e b6bd c665 903d aa9a 3ebc
000001c0: ad4c ecbd 3948 3a3e d4d5 c0bd 289f 723d
000001d0: 2843 9a3c b4b2 f8bc 2f0d 053e 2ad1 a3bd
000001e0: 0876 42bd 4fcd 233c dcd9 233d 548c 81bd
000001f0: 723d 6ebd 29a0 87bd edf9 013d bfb0 133e
00000200: f01f 333c 9229 ec3a 05d1 6c3a 5a5f 1dbc
00000210: b964 613d a49b 353d b6c9 e03c c683 fabd
00000220: 0e1e d5bd 94c0 9cbd 1ce2 84bd 65b3 873d
00000230: a8d9 b5bd c80b 1a3d c3d9 f33d c014 0abd
00000240: 3109 3dbd 49ff 853d 9959 19bc 8a1e e2bd
00000250: aca2 98bd f516 4cbd f272 8a3d 08ef ddbd
00000260: 9238 79bd 95e2 bcbc f012 7f3c 34af f9bd
00000270: 7c0f 15bd 342b bbbd 0bc3 71bc 7bb7 f33d
00000280: 6d71 a6ba c7dc 81bc 5909 e3bd d84c a9bd
00000290: c4fb 92bd 6e90 ce3c 66d1 e53d 3d94 b2bb
000002a0: 92a1 143c bb27 c8bd 6033 f4bd 88af ccbc
000002b0: 2070 ef3c ac47 70bd 5c8d 46bd 1ea1 583d
000002c0: 0dcf a2bc a9f4 9e3d 2c08 3fbd 72cb 66bd
000002d0: 8a78 86bd 9315 d03d 3c28 fe3d b879 033d
000002e0: 6867 503d d023 b53d cc8f bcbd 741d 9bbd
000002f0: f703 943d d84b cfbc b394 ebbd 1e45 883d
00000300: c06b c63c 261d b5bd f3d9 94bd b412 03bd
00000310: 6505 8d3d 2692 ae3d 2885 963d a87b 40bd
00000320: f283 f8bd 1edd 99bd c21d c0bc 6466 43bd
00000330: 4de0 9dbd 736d 5fbc 5840 3d3d 4ac0 b0bd
00000340: 9903 1e3d 7649 a33d aa92 523d e646 90bd
00000350: fcef 22bd 92f0 efbd a850 ccbc b026 8b3c
00000360: e515 243d da2a 08bd 667d 13bd 2446 8ebd
00000370: 1caa bc3d f620 5f3d 9925 0a3d 1893 a6bd
00000380: c6a2 e43d 6ca0 633d 63b7 00bd 87ad e53d
00000390: d7f4 f8bb fd92 54bd 67fe c2bd 95a2 003d
000003a0: 2f73 83bd e1be b73c 436e 393d 90e2 cd3c
000003b0: 1537 c23d bf6a d5bc 65ba 93bd 1a17 febd
000003c0: 9340 60bd 4f3b bbbd 1394 f33d 8406 afbd
000003d0: 04b4 db3c d04a e4bc 1c02 a2bc f06b fa3c
000003e0: d49b d1bd 2100 ebbd 2cb0 00bd bee8 a1bd
000003f0: 7913 04bd 2e31 3b3d 613b eb3d ecf1 dc3d
0.096664235 0.06126139 0.074147716 0.0198213 -0.053512916 -0.032373413 0.091988645 0.06287685
0.021154597 -0.066548884 0.092313044 0.11052575 -0.08375608 0.011642981 0.07197306 0.10109581
0.095472865 -0.09407186 -0.10254617 -0.1067521 -0.06239313 -0.06983909 0.06446606 0.11611958
0.16646548 0.0331532 -0.013666068 -0.106683865 0.021333262 -0.12881415 0.1443335 -0.054799996
-0.06657829 0.09461592 -0.03948195 -0.0045336154 -0.11649582 0.07674243 -0.043610606 0.01385045
-0.012210317 0.08506601 0.03091015 -0.010759532 -0.010853732 0.007147092 0.11185468 0.10325434
0.13150498 0.10325416 0.034441404 -0.020979512 0.09934293 0.09270149 -0.026911896 0.09228554
-0.018429771 0.030116318 -0.015062471 -0.03829382 0.008049705 -0.047007166 -0.075436145 -0.111821115
-0.034642026 -0.033649556 -0.10886058 0.023675097 -0.10117648 0.093614444 0.0748227 0.043967277
-0.0416933 -0.06053537 0.066246964 -0.10573009 -0.064298965 0.015517635 0.14930704 0.030078039
-0.05077292 -0.11636921 0.086359724 0.07372472 -0.09193447 0.06556055 0.031325057 0.035159126
0.027189368 -0.017805716 0.010653365 0.09189443 -0.003755033 0.021926934 -0.09814556 -0.041772522
0.018877767 -0.09648296 0.08600512 0.03153739 0.12159343 -0.08968666 0.014407582 -0.07253395
0.0688732 -0.11708731 -0.06605909 -0.10994756 -0.059836674 -0.08904749 0.07050662 -0.0116335545
-0.11538062 0.18191613 -0.094157845 0.059233814 0.01883085 -0.03035865 0.1299331 -0.07998879
-0.047475845 0.00999768 0.04000269 -0.063255936 -0.058164068 -0.06622345 0.03173249 0.14422892
0.010932907 0.001801776 0.0009033832 -0.009605253 0.055027697 0.044337884 0.027439933 -0.12232165
-0.10406123 -0.07653919 -0.064884394 0.06626014 -0.08879405 0.03760889 0.11906769 -0.033711195
-0.046151344 0.065428324 -0.009359741 -0.11040981 -0.07452902 -0.04982658 0.06760205 -0.10836607
-0.060844965 -0.023057261 0.01556848 -0.121916205 -0.03639172 -0.091391 -0.0147559745 0.119002305
-0.0012698598 -0.015852345 -0.11085767 -0.0826661 -0.07176927 0.025215354 0.1122158 -0.0054498003
0.0090717245 -0.09773203 -0.119238615 -0.024986044 0.02922827 -0.0586621 -0.048474655 0.05288803
-0.01987412 0.07761509 -0.046638653 -0.056346364 -0.0656596 0.10160365 0.12410018 0.032098502
0.050879866 0.08844721 -0.092071146 -0.07573977 0.07227319 -0.02530472 -0.115029715 0.06653808
0.024221301 -0.0884345 -0.07268133 -0.03200026 0.068857946 0.08523969 0.07349616 -0.046992928
-0.121345416 -0.07512878 -0.02345169 -0.04770507 -0.077087976 -0.013636935 0.04620394 -0.08630426
0.03857765 0.07972996 0.0514094 -0.07044773 -0.03977965 -0.11715807 -0.024940804 0.016986221
0.040059943 -0.03324399 -0.03600826 -0.06946972 0.09212133 0.054474793 0.033727262 -0.08133525
0.11163859 0.055572912 -0.03142489 0.11214738 -0.0075975466 -0.05189799 -0.0952118 0.03140505
-0.06418454 0.022429885 0.04527117 0.025132447 0.09483162 -0.026051877 -0.07213286 -0.1240675
-0.054749083 -0.091421716 0.11893477 -0.08546165 0.026819237 -0.027867705 -0.019776396 0.030569047
-0.102348 -0.11474634 -0.03141801 -0.0790572 -0.032245133 0.0457012 0.11485935 0.107883304

fc2.bias f4 [5]
00000000: 8078 a3bd b46e 823d 0580 823c 2d5c 2b3d
00000010: e841 6e3d
-0.07981968 0.06368771 0.015930185 0.041835953 0.05816832
