Self_play_Qmix/agent3_21.pth (torch, 745108 bytes, 10 tensors)

c1.weight f4 [32, 8, 3, 3]
0	0xbc4a55c5	-0.012349551
1	0xbc84f983	-0.016232258
2	0xba9be720	-0.0011894442
3	0x3d1f45ef	0.038885053
4	0xbcacb577	-0.021082623
5	0xbc819de2	-0.015822355
6	0x3c4009de	0.0117211025
7	0x3daf2e0a	0.08553703
8	0x3bd21c9e	0.006412103
9	0xbdc499f7	-0.09599679
10	0xbd97bf1e	-0.074094996
11	0xbdcf92c2	-0.10135414
12	0x3caa4b39	0.020787822
13	0xbd170776	-0.03687235
14	0x3d9d13a7	0.07669764
15	0xbd8dbd71	-0.06920899
16	0x3dc4e3f8	0.09613794
17	0x3d4e9618	0.05043611
18	0x3d8371b3	0.06418171
19	0xbda64b02	-0.08119775
20	0x3dd34add	0.103170134
21	0x3d73cd0a	0.059521712
22	0xbd12a052	-0.035797425
23	0x3c506618	0.012719654
24	0xbca0db14	-0.019635715
25	0xbde6d26b	-0.11270603
26	0xbd69da66	-0.057093047
27	0xbc6cd458	-0.014454924
28	0xbd4ec872	-0.05048413
29	0x3dadb7a7	0.084822945
30	0xbcf6394c	-0.030056618
31	0xbd22372c	-0.039603397
32	0x3d5035ce	0.050832562
33	0x3cb25b84	0.021772154
34	0x3dd348c9	0.10316617
35	0xbd8b7f95	-0.06811444
36	0xbca53b22	-0.020169798
37	0xbdbf9506	-0.09354596
38	0x3d6b36a4	0.057425156
39	0x3d05c6cd	0.032660294
40	0x3dc282f1	0.09497631
41	0x3e087643	0.13326363
42	0xbdaaaa1c	-0.08333227
43	0x3c1c6a36	0.009546807
44	0x3d75f3bb	0.060046893
45	0xbd875c7f	-0.06609439
46	0xbd4ff052	-0.050766297
47	0x3cb9e8c1	0.022693994
48	0x3c82e599	0.015978621
49	0xbd787e51	-0.06066734
50	0xbdcc18d2	-0.099656716
51	0x3c2a812c	0.010406774
52	0xbc987c2b	-0.018613895
53	0xbd4d9ae7	-0.050196555
54	0xbda904af	-0.082528464
55	0x3d0cb98e	0.034356646
56	0x3d578a35	0.05262204
57	0xbdfe9dc8	-0.12432438
58	0xbd47d1d4	-0.048784092
59	0xbd69b294	-0.05705507
60	0x3d893692	0.066998616
61	0xbd86e5aa	-0.06586774
62	0x3b6294a1	0.0034573453
63	0xbdc2e580	-0.0951643
64	0xbd887b84	-0.06664184
65	0x3da97aa3	0.08275344
66	0x3cd20b7b	0.02564024
67	0x3c6c3262	0.014416309
68	0xbbdaa2f0	-0.0066722557
69	0x3d218f03	0.039443027
70	0x3d23bf0e	0.039977126
71	0x3d06b313	0.032885622
72	0xbd9f8cd0	-0.0779053
73	0x3dc61709	0.09672362
74	0xbd4163f5	-0.047214467
75	0x3d6f3b54	0.05840619
76	0xbc0fd8f6	-0.008779755
77	0xbdff7118	-0.12472743
78	0xbd4038d7	-0.046929207
79	0x3d0b42e2	0.03399933
80	0xbd8440e3	-0.06457689
81	0x3ccd00a1	0.025024714
82	0x3c1f1239	0.009708934
83	0xbdcfd30c	-0.10147676
84	0xbce4a106	-0.027908813
85	0xbd92d58c	-0.07169637
86	0x3decca75	0.11562053
87	0x3db97606	0.09055714
88	0xbb12e4fd	-0.002241432
89	0xbdfd5a0e	-0.12370692
90	0xbd4decaa	-0.05027453
91	0xbdd0d303	-0.10196497
92	0x3d002a46	0.031290315
93	0xbcb28b44	-0.021794923
94	0x3dea828b	0.1145068
95	0x3dda9e31	0.10674704
96	0x3ba083c0	0.0048985183
97	0x3d319e3a	0.043363787
98	0xbd0a9344	-0.03383185
99	0xbdd550fd	-0.10415838
100	0x3d098932	0.033578105
101	0xbd913fa2	-0.07092215
102	0x3b84e100	0.0040551424
103	0xbba90650	-0.005158223
104	0x3dede2bb	0.11615511
105	0x3b3a6500	0.0028441548
106	0xbd01a3de	-0.031650417
107	0xbd82b9f0	-0.06383121
108	0x3dde25c7	0.10847049
109	0xbc14d629	-0.009084263
110	0xbd55d42b	-0.052204292
111	0x3d37f6ba	0.04491303
112	0xbdb0e535	-0.08637468
113	0xbdead6eb	-0.114667736
114	0x3e304778	0.17214763
115	0x3d031542	0.032002695
116	0x3e1e1249	0.15436663
117	0xbd6f47de	-0.058418147
118	0xbd419d0c	-0.047268912
119	0x3d40f7b8	0.047111243
120	0x3b8d74b8	0.0043168925
121	0xbbe9770a	-0.0071247863
122	0x3d82afb8	0.06381172
123	0xbd805284	-0.062657386
124	0x3d154789	0.036445174
125	0xbda93688	-0.08262354
126	0xbdf7cc46	-0.12099509
127	0xbcaf46ac	-0.021396004
128	0x3d40406f	0.04693645
129	0x3ce3ff5b	0.027831724
130	0x3d2c2f3a	0.042037226
131	0x3d915286	0.07095818
132	0x3dafd496	0.085854694
133	0x3d868730	0.06568754
134	0xbdabc56c	-0.083872646
135	0x3dda79a4	0.10667732
136	0xbd8ce42b	-0.06879457
137	0xbd7566ee	-0.059912615
138	0x3c9bc5c2	0.019015197
139	0x3dbfe6be	0.093701825
140	0xbd7d59a0	-0.06185305
141	0xbda054d4	-0.0782868
142	0xbcd5e51c	-0.026110224
143	0x3dac9681	0.08427144
144	0x3d41efef	0.04734796
145	0xbd170f61	-0.0368799
146	0x3d29bb23	0.041438233
147	0x3d451780	0.048118114
148	0xbd215a12	-0.03939254
149	0x3d523f32	0.0513298
150	0x3d859507	0.06522565
151	0xbcae17cb	-0.02125158
152	0xbdd4bdaa	-0.10387738
153	0x3d827bca	0.06371267
154	0x3d2c222d	0.04202478
155	0xbc3f0474	-0.011658777
156	0xbd349f2d	-0.044097114
157	0xbc8dbd72	-0.017302249
158	0x3cb33727	0.021876885
159	0x3c92c2fa	0.017915238
160	0xbd05df73	-0.0326838
161	0xbcc9a5ed	-0.024615252
162	0xbded6412	-0.115913525
163	0x3da7185d	0.08158944
164	0xbd21f2fc	-0.03953837
165	0xbde54f07	-0.11196714
166	0xbdb12c59	-0.08651037
167	0x3d4c6fee	0.049911432
168	0xbdae153e	-0.085001454
169	0x3c3c2d78	0.01148545
170	0x3d7c511e	0.061600797
171	0xbda0b7f2	-0.07847585
172	0x3de57907	0.11204725
173	0xbdc55662	-0.09635617
174	0x3d4b7e66	0.04968109
175	0xbd60238c	-0.0547214
176	0x3d7dd286	0.06196835
177	0xbd5bc6fc	-0.053656563
178	0x3db27d8d	0.08715353
179	0x3c072aa8	0.008249916
180	0xbe21923a	-0.15778437
181	0xbc0bcaa0	-0.008532196
182	0xbdc10fda	-0.094268516
183	0xbd299b37	-0.04140779
184	0x3cf3cd9f	0.029761134
185	0xbdf4f5d6	-0.11960952
186	0x3d7fe016	0.062469564
187	0xbe0b1f4a	-0.13586155
188	0xbd493c37	-0.04912969
189	0xbcb0ec8e	-0.021597173
190	0xbcbff857	-0.023433847
191	0xbdb84358	-0.0899722
192	0xbd9784f8	-0.07398409
193	0x3d97d869	0.07414324
194	0xbe03c07c	-0.12866396
195	0xbc6b73ab	-0.014370839
196	0x3dc3443f	0.09534501
197	0x3d7c03d7	0.0615271
198	0xbd2ff0e9	-0.04295436
199	0x3db6258f	0.088938825
200	0x3db8323e	0.08993958
201	0xbcf2d96d	-0.029644692
202	0x3dd00241	0.1015668
203	0x3d84aeaf	0.06478631
204	0xbd53379d	-0.05156671
205	0xbd7c0fbd	-0.061538447
206	0x3dc12214	0.09430328
207	0x3dd2f9a1	0.10301519
208	0x3de394df	0.11112379
209	0xbced310d	-0.028954053
210	0x3da96382	0.08270933
211	0xbc9f886a	-0.019474227
212	0x3d183604	0.03716089
213	0xbcbbac78	-0.022909388
214	0xbdbb7ea7	-0.091550164
215	0x3d2d4bfa	0.042308785
216	0x3d87a09a	0.06622429
217	0xbdc91a98	-0.098195255
218	0x3d6aace7	0.0572938
219	0xbbb123eb	-0.005405893
220	0xbd85106d	-0.064972736
221	0x3d0fd869	0.035118494
222	0x3bd96cd0	0.006635286
223	0x3d65b426	0.056080006
224	0xbd1c781e	-0.03820049
225	0xbdbeba17	-0.093128376
226	0xbdc27980	-0.094958305
227	0x3d3c61ca	0.045991696
228	0x3c0790a7	0.008274234
229	0xbcf42849	-0.029804366
230	0x3d8150b2	0.063142195
231	0xbdf16746	-0.11787276
232	0x3da6bdfe	0.08141707
233	0xbdc26051	-0.09491027
234	0x3bd1bca0	0.0064006597
235	0x3db6d24f	0.08926832
236	0x3d5ab15a	0.053391792
237	0x3d4cf932	0.05004234
238	0x3d0df40a	0.034656562
239	0xbd4ad666	-0.049520873
240	0x3d0e154e	0.034688286
241	0x3c99dc24	0.018781729
242	0x3df0f2bb	0.11765047
243	0x3d9eb38b	0.07749089
244	0x3d092776	0.0334849
245	0xbd378636	-0.044805728
246	0x3d1fce76	0.039015256
247	0x3da04f6b	0.07827648
248	0x3c21f9a8	0.009886183
249	0x3caa6d5c	0.0208041
250	0x3d73640a	0.059421577
251	0x3dee76eb	0.116437756
252	0xbdf202e6	-0.11816959
253	0x3e071148	0.13190186
254	0xbd178063	-0.036987673
255	0x3c3e4daa	0.011615196

c1.bias f4 [32]
0	0xbc66debf	-0.014091193
1	0xbdcd842d	-0.10034976
2	0xbda41061	-0.080109365
3	0xbd880f9f	-0.066436045
4	0x3c940dd0	0.018072993
5	0x38810d6b	6.1536986e-05
6	0xbde4ddca	-0.111751154
7	0x3d3b7a21	0.045770768
8	0xbdeb5dc3	-0.11492493
9	0xbd23b7df	-0.039970275
10	0x3bd02999	0.006352615
11	0x3d54a096	0.05191096
12	0xbda0f28c	-0.07858762
13	0xbdc94c3e	-0.09828995
14	0xbdfcd41f	-0.123451464
15	0x3d885b50	0.066580415
16	0xbd88954b	-0.066691004
17	0xbdc7c6f2	-0.09754743
18	0xbd3ed504	-0.046589866
19	0xbdbe842d	-0.09302554
20	0xbdb0f737	-0.086409025
21	0x3de42fe5	0.11141948
22	0x3bd3812a	0.0064546065
23	0xbd9a1303	-0.075231574
24	0xbd835400	-0.06412506
25	0xbcf968b7	-0.03044544
26	0xbdbc71c5	-0.09201387
27	0xbdff1e9c	-0.1245701
28	0x3c979a8a	0.018506307
29	0xbd9af355	-0.07565943
30	0xbd75a20e	-0.059969
31	0x3db37a94	0.08763614

c2.weight f4 [64, 32, 3, 3]
0	0x3cdd94c1	0.02704847
1	0xba1ccace	-0.0005981148
2	0xbc57003d	-0.013122615
3	0x3d541453	0.051777195
4	0xbd4087ee	-0.047004633
5	0x3c940cb9	0.018072473
6	0x3ced1478	0.028940424
7	0xbb60e981	-0.0034318867
8	0xbd3c4179	-0.045960877
9	0xba0d30dc	-0.0005386004
10	0xbcfef9ac	-0.031124912
11	0x3d4fc83c	0.050728068
12	0xbcb97eef	-0.022643534
13	0xbd590c40	-0.052990198
14	0x3d0d31de	0.034471385
15	0x3d43f5f5	0.047841985
16	0x3ca0c5f1	0.019625636
17	0xbb397b22	-0.0028302153
18	0xbc467ef5	-0.01211523
19	0xbca2615a	-0.019821811
20	0x3d0eb0eb	0.03483669
21	0xbd64b54a	-0.055836953
22	0xbd55e42f	-0.052219566
23	0xbce4657e	-0.027880426
24	0x3bb698b7	0.0055724042
25	0xbd172e99	-0.036909673
26	0x3d2f9e7b	0.042875748
27	0xbd34c93c	-0.044137225
28	0xbba9a615	-0.005177269
29	0x3ceb8aef	0.028752772
30	0xbd211917	-0.03933057
31	0xbc84de3b	-0.016219249
32	0xbd1eecbb	-0.038799983
33	0x3d518dd6	0.051160656
34	0x3d5f1168	0.05445996
35	0x3bf18b33	0.00737133
36	0xbd618044	-0.055053964
37	0x3bb9fded	0.0056760223
38	0xbcb473a4	-0.022027798
39	0x3be7ee95	0.0070780017
40	0xbcae70f1	-0.021294089
41	0x3b64d0fc	0.0034914603
42	0x3ceac2da	0.028657366
43	0x3d6b1e7f	0.05740213
44	0xbd34870d	-0.044074107
45	0x3d1a3695	0.03764971
46	0x3cbeb9e5	0.023282
47	0x3ce860d3	0.028366482
48	0x3d559215	0.052141268
49	0x3cfbc9eb	0.03073593
50	0xbc9cf9e1	-0.01916212
51	0xbcfd1b2c	-0.030896746
52	0xbb9a4b74	-0.0047087017
53	0x3d04f6f2	0.032462068
54	0xbd58b38e	-0.05290561
55	0x3d350bd8	0.04420075
56	0x3d438ff6	0.047744714
57	0xbbfd57ab	-0.007731398
58	0x3d12ded5	0.03585704
59	0xbd39aadf	-0.04532897
60	0xbd24285a	-0.040077545
61	0x3d583872	0.052788205
62	0xbd14f639	-0.03636763
63	0xbd3ff0a9	-0.04686037
64	0xbd1b1083	-0.037857544
65	0x3d56ded1	0.052458588
66	0xbbdc5249	-0.0067236763
67	0xbccc8376	-0.02496503
68	0x3cdaa73f	0.026691077
69	0xbbcb56f0	-0.006205432
70	0x3c786e32	0.015162991
71	0xbd0e22d6	-0.03470119
72	0xb9fd25dd	-0.0004828413
73	0x3b57833a	0.0032884614
74	0x3d6f921b	0.058488946
75	0x3c036b1d	0.008021143
76	0x3bd98d09	0.006639127
77	0xbc0b434b	-0.008499931
78	0x3d6fc9bf	0.05854201
79	0xbc327fc8	-0.010894723
80	0x3d7d0419	0.061771486
81	0xbcd3c268	-0.025849536
82	0x3d34538a	0.04402498
83	0x3d53df52	0.051726647
84	0x3d6202d5	0.055178482
85	0x3d0a3654	0.033743218
86	0xbcc5d02e	-0.02414712
87	0x3ca9055b	0.020632436
88	0xbc803477	-0.015650017
89	0x3ceb3fe2	0.028716985
90	0xbccdeb27	-0.025136543
91	0xbc156445	-0.009118144
92	0x3cf28d5b	0.02960842
93	0x3d41d300	0.047320366
94	0xbc967df6	-0.01837061
95	0x3c3cdbbd	0.011526999
96	0xbd2fbe1a	-0.042905904
97	0x3d0122cf	0.031527337
98	0x3cf945a0	0.030428708
99	0xbc90e0f4	-0.017685391
100	0x3cf4bdaf	0.029875604
101	0xbcb9550d	-0.022623563
102	0xbcea94d9	-0.02863543
103	0x3d180fc5	0.037124414
104	0xbd7cf46f	-0.061756548
105	0x3d1d5a08	0.03841594
106	0x3d07f3c1	0.033191446
107	0xbd0ca510	-0.034337103
108	0x3ca21d08	0.019789234
109	0xbd11d4d8	-0.035603374
110	0xbce6a568	-0.028155044
111	0xbd207207	-0.039171245
112	0x3d5b9e3f	0.053617712
113	0xbcf588fc	-0.029972546
114	0x3c937999	0.018002318
115	0x3d54120e	0.05177503
116	0xbd3fdf87	-0.04684403
117	0x3d5263fa	0.051364876
118	0xbd69cbca	-0.057079114
119	0x3cce02df	0.025147853
120	0xbcfdc2c4	-0.03097666
121	0xbcdf448a	-0.027254362
122	0x3bbad370	0.005701475
123	0xbcc06b7d	-0.023488754
124	0xbcd5f5a4	-0.026118107
125	0xbd74ed39	-0.059796546
126	0x3cec4d03	0.028845316
127	0x3d64f7c7	0.05590036
128	0x3d484e2c	0.048902676
129	0x3d436c44	0.047710672
130	0x3d5a9cc6	0.053372167
131	0xbca59438	-0.020212278
132	0x3ca25dc9	0.01982011
133	0x3cb41971	0.021984788
134	0x3d4d6b04	0.050150886
135	0xbd23f4de	-0.040028445
136	0xbd00f4a0	-0.031483293
137	0xbc6c33a5	-0.01441661
138	0x3d251902	0.040307052
139	0x3d5ae3ec	0.05344002
140	0xbc1a9e46	-0.009437149
141	0xbd64bd7a	-0.05584476
142	0xbc1ddf02	-0.009635689
143	0xbc3a277e	-0.011361955
144	0xbcee6ee2	-0.029105607
145	0x3ca1c9e0	0.019749582
146	0x3cb02e9c	0.0215066
147	0xbd13d4c1	-0.03609157
148	0xbd2f7112	-0.04283244
149	0xbd3964c1	-0.045262102
150	0x3be3c667	0.0069511416
151	0x3d11042a	0.03540436
152	0xbb20ac6d	-0.0024516836
153	0xbd251b4c	-0.040309235
154	0x3c8fa72b	0.017535767
155	0xbd1aea05	-0.037820835
156	0xbceff282	-0.029290441
157	0xbccd83d4	-0.025087275
158	0xbc9eb083	-0.019371277
159	0x3d33a3d4	0.04385741
160	0xbd3fadd4	-0.046796635
161	0xbccdebd4	-0.025136866
162	0x3d420d87	0.047376182
163	0x3cd78cc7	0.026312245
164	0xbd0a0269	-0.033693705
165	0xbbbc21e2	-0.005741344
166	0xbc45caac	-0.0120722465
167	0xbc032dde	-0.008006541
168	0x3d4e8952	0.050423928
169	0xbd1c591d	-0.038170923
170	0xbb9b0a65	-0.0047314637
171	0xbce3d301	-0.027810575
172	0xbcde2aa5	-0.027119944
173	0xbcf32338	-0.02967988
174	0xbc5dda9d	-0.013540891
175	0x3d3456c4	0.04402806
176	0xbc9d19ea	-0.019177396
177	0x3d0a069a	0.033697702
178	0xbd0e2b36	-0.034709178
179	0x3cc2687a	0.023731459
180	0x3bf5ff3f	0.0075072343
181	0xbcbf52f0	-0.023354977
182	0x3da78de1	0.08181358
183	0x3d0df54a	0.034657754
184	0xbc3d9a90	-0.011572495
185	0xbc518278	-0.012787454
186	0xbabe357a	-0.0014511787
187	0x3c70259b	0.014657403
188	0x3d9e8cc2	0.07741691
189	0xbd6a1670	-0.057150304
190	0xbc1d8070	-0.009613141
191	0xbd4b917d	-0.049699295
192	0x3af22891	0.0018475224
193	0xbcd69d58	-0.026198074
194	0xbd318dbd	-0.043348063
195	0x3cc2ca8d	0.023778224
196	0xbc852e07	-0.0162573
197	0xba8fc9d4	-0.0010970184
198	0xbd0eb265	-0.0348381
199	0xbc44f41a	-0.012021089
200	0x3c7dfd95	0.015502353
201	0xbb65e2db	-0.0035077843
202	0xbd605e65	-0.05477752
203	0x3d3b9e5b	0.045805316
204	0x3cfc2ead	0.030783975
205	0x3d0a730b	0.03380112
206	0xbcd37068	-0.025810435
207	0x3d5857a4	0.052817956
208	0x3d34c39e	0.044131868
209	0xbbdb1e54	-0.006686965
210	0xbd1cb262	-0.038256057
211	0x3cdf997d	0.027294869
212	0x3c311631	0.0108085135
213	0xbd5c6132	-0.05380363
214	0x3caf24b9	0.021379815
215	0xbc292282	-0.010323169
216	0x3c74ca2e	0.0149407815
217	0x3d56e5b6	0.052465163
218	0xbccef655	-0.025263945
219	0x3c959eb8	0.01826416
220	0xbc4f181a	-0.012640024
221	0xbd202038	-0.039093226
222	0x3cbde020	0.02317816
223	0x3d2cea32	0.042215534
224	0x3d573313	0.052538943
225	0xbd33ba92	-0.0438791
226	0x3b38ace8	0.0028179232
227	0x3c11c49a	0.008896971
228	0x3b5f1806	0.0034041419
229	0xbd58ac4f	-0.0528987
230	0xbccf8277	-0.025330765
231	0x3b31faa0	0.002715744
232	0x3d122808	0.035682708
233	0xbd0ff8c4	-0.03514935
234	0xbb793362	-0.0038025011
235	0x3d17ae6e	0.037031583
236	0xbd7b47b5	-0.061347682
237	0x3d48b359	0.048999164
238	0xbd15900d	-0.03651433
239	0xbd03b50f	-0.032155093
240	0x3cfc8bc1	0.030828359
241	0x3c8cb34f	0.017175345
242	0x3ce2ea40	0.02769959
243	0x3c24e5a8	0.01006452
244	0x3c6a0082	0.014282348
245	0x3c6c0e45	0.014407699
246	0xbd442660	-0.04788816
247	0x3d3cd5d8	0.046102375
248	0xbd00ef76	-0.031478368
249	0x3d113715	0.03545292
250	0xbd4ecb64	-0.050486937
251	0x3baf5033	0.0053501367
252	0xbd7c5c18	-0.061611265
253	0xbd792db9	-0.06083462
254	0x3ce4154a	0.027842183
255	0xbc7731df	-0.015087574

c2.bias f4 [64]
0	0x3d4f52a7	0.050615933
1	0x3bf0b884	0.0073462147
2	0xbd0b4c37	-0.03400823
3	0x3c4c29fa	0.01246118
4	0xbc0a4369	-0.008438923
5	0x3cd14ad4	0.025548376
6	0xbbabfa03	-0.0052483096
7	0xbcaba035	-0.020950416
8	0xbd5d2973	-0.053994607
9	0x3ca28c5f	0.019842325
10	0xbb7cd80c	-0.0038580922
11	0xbca8cd3c	-0.020605676
12	0x3d380d06	0.044934295
13	0x3c911eb4	0.017714836
14	0x3d2379f5	0.03991123
15	0x3d37ae8f	0.044844206
16	0xbd2fedbf	-0.04295134
17	0xbcdb071a	-0.026736785
18	0x3d248e74	0.040174916
19	0xbabccd30	-0.0014404412
20	0xbd5f65d0	-0.054540455
21	0x3b4d5b92	0.0031335098
22	0x3c2eaaa9	0.010660806
23	0xbd5f14c1	-0.05446315
24	0x3cc4823d	0.023987884
25	0xbd255be3	-0.040370833
26	0xbd0f09f2	-0.034921594
27	0xbd695847	-0.056968953
28	0xbd5965c3	-0.053075563
29	0x3cb71b28	0.022351816
30	0xbd099df1	-0.03359789
31	0x3d6bbc1b	0.05755244
32	0x3d3f351f	0.04668152
33	0x3d4d0ec8	0.050062925
34	0x3d184c23	0.037181985
35	0x3d490b92	0.0490833
36	0x3b609b65	0.003427231
37	0x3cb1000c	0.021606468
38	0x3d5280c5	0.051392335
39	0xbc633f95	-0.01387014
40	0xbc6a850f	-0.01431395
41	0xbc257e27	-0.010100878
42	0xbd39f164	-0.045396224
43	0xbcbfd86c	-0.023418628
44	0x3b9f0351	0.0048526903
45	0xbd4df8e5	-0.050286192
46	0xba38784c	-0.00070369686
47	0x3d40c200	0.047060013
48	0x3d3df9f5	0.046380956
49	0xbc53c15f	-0.012924521
50	0xbd61049c	-0.054936036
51	0x3ccee584	0.025255926
52	0x3d774de7	0.060377028
53	0x3b4397ac	0.0029845042
54	0x3c41d8ee	0.011831505
55	0xb98d11b5	-0.00026906808
56	0x3d06d4e3	0.03291787
57	0xbd6918c3	-0.05690838
58	0x3c279dca	0.010230491
59	0x3d697ba8	0.057002693
60	0x3c99fa09	0.018795984
61	0x3c3aa247	0.011391229
62	0x3d450f8f	0.04811054
63	0x3d21927f	0.03944635

c3.weight f4 [256, 64, 3, 3]
0	0xbd26f076	-0.040756665
1	0xbd0cd60a	-0.03438381
2	0xbc8dd37d	-0.01731276
3	0x3c4060fa	0.011741871
4	0x3bbc89e2	0.0057537416
5	0xbb464a10	-0.0030256547
6	0x3c18554c	0.00929768
7	0x3cf78ee1	0.030219497
8	0x3d197f17	0.037474718
9	0x3cfda31a	0.030961562
10	0xbbd15721	-0.0063885604
11	0x3d1104d9	0.035405014
12	0x3bb01163	0.0053731664
13	0xbd1cfbfb	-0.038326245
14	0xbcfc6715	-0.030810872
15	0xbbe1ab5c	-0.0068868827
16	0xbd099826	-0.033592366
17	0x3cc9c416	0.024629634
18	0xbd179fa0	-0.037017465
19	0x3bdc8cd3	0.0067306547
20	0xbc3cf069	-0.011531928
21	0x3ce36f1d	0.027762944
22	0xbd02e3eb	-0.03195564
23	0xbb1bbf75	-0.002376524
24	0x3cc1e630	0.023669332
25	0xbd2e0e4b	-0.0424941
26	0xbbe5e1e4	-0.0070154537
27	0x3bf1005f	0.0073547806
28	0x3ce1a2b9	0.027543413
29	0xbd1cd03d	-0.03828453
30	0x3cfbc0f1	0.03073165
31	0x3c4d865e	0.012544243
32	0x3cff3f2e	0.031158056
33	0x3b280139	0.0025635494
34	0x3b585878	0.0033011716
35	0x3c3f1b71	0.011664257
36	0x3cd0a992	0.025471482
37	0xbcd5c854	-0.0260965
38	0xbc80fc9e	-0.015745457
39	0xbce040d6	-0.027374666
40	0x3c153537	0.009106926
41	0xbc641ab6	-0.013922384
42	0x3cde3193	0.027123248
43	0x3d04d00f	0.032424983
44	0xbc03221c	-0.008003738
45	0xbd2ccc71	-0.042187158
46	0xbc5afa09	-0.013365277
47	0x3cead3be	0.02866542
48	0x3c5390b0	0.012912914
49	0x3d0742ac	0.033022568
50	0xbc21f84a	-0.009885857
51	0x3ca54269	0.020173268
52	0xbd0090fd	-0.03138827
53	0x3ccdaef7	0.025107844
54	0xbbff42f7	-0.0077899653
55	0x3abf04cc	0.0014573573
56	0x3c7eab39	0.015543752
57	0x3d17e0b0	0.037079513
58	0x3c7c2906	0.01539064
59	0x3caaba5c	0.020840816
60	0xbd1fcf55	-0.039016087
61	0x3cb05bc0	0.021528125
62	0xbc2f6cf4	-0.010707129
63	0x3ccea862	0.025226776
64	0xbcdbc398	-0.026826665
65	0x3c555e19	0.013022923
66	0x3c29e419	0.010369324
67	0x3d1891d5	0.03724845
68	0xbd01813d	-0.03161739
69	0x3d200f9b	0.039077383
70	0xbd02b5ec	-0.031911775
71	0xbcd625f5	-0.026141146
72	0x3b8703c8	0.004120324
73	0xbd09513d	-0.03352474
74	0x3c6091d7	0.013706646
75	0xbd32f664	-0.043692008
76	0x3c390a19	0.011293911
77	0x3caae5cf	0.020861534
78	0x3d1cac0f	0.038250025
79	0xbc46c685	-0.012132292
80	0xbcd29c24	-0.02570922
81	0xbd24f584	-0.040273204
82	0xbcd3cf04	-0.025855549
83	0xbcc1e802	-0.0236702
84	0x3d15103e	0.036392443
85	0x3cc4f562	0.024042789
86	0x3c04580b	0.008077632
87	0x3a91bafb	0.0011118347
88	0x3d00d13a	0.031449534
89	0xbc6b294d	-0.014353109
90	0x3c2b1c37	0.010443739
91	0xbc3a88c1	-0.011385144
92	0xbcf3bc84	-0.029752977
93	0x3cc190bd	0.023628587
94	0xbd2a4dbe	-0.041578047
95	0xbc3abd20	-0.01139763
96	0xbcc2931b	-0.023751786
97	0xbcdf29e1	-0.02724165
98	0xbcff41d0	-0.031159312
99	0xbd00c1bf	-0.03143477
100	0x3c8d4135	0.017243007
101	0x3cc43132	0.02394924
102	0x3cf0d551	0.029398592
103	0x3d0e5049	0.034744535
104	0xba600eb6	-0.0008547114
105	0xbd123336	-0.03569337
106	0xbc49e86f	-0.012323483
107	0xbb91a169	-0.0044442904
108	0xbd120a8f	-0.0356546
109	0x3bf97688	0.007613007
110	0x3c13b0d1	0.009014324
111	0xbd20c10b	-0.0392466
112	0x3d1b4165	0.037904162
113	0x3cb7c086	0.02243067
114	0xbcb5d7d6	-0.022197645
115	0xbc610af4	-0.013735522
116	0xbc7befbf	-0.015376984
117	0x3c4ebae8	0.012617804
118	0x3d0ec175	0.034852464
119	0x39a4973c	0.00031393196
120	0x3cfffa84	0.031247385
121	0x3d0b9d3b	0.034085494
122	0xbac52121	-0.001503978
123	0x3c271947	0.010198898
124	0xbb3bfdaf	-0.0028685143
125	0x3c091cce	0.008368684
126	0x3cfba9bc	0.030720584
127	0x3cac244c	0.021013401
128	0xbcb8f83e	-0.022579309
129	0x3b6d5307	0.0036212818
130	0xbd278646	-0.040899538
131	0xbb9deffa	-0.004819867
132	0xbd069356	-0.032855354
133	0xbc2ca648	-0.010537691
134	0x3c353ddd	0.011062113
135	0x3d1607b6	0.036628447
136	0xbc89378f	-0.016750125
137	0x3cf5df92	0.030013833
138	0x3c97d16d	0.01853248
139	0xbd31fce6	-0.043454073
140	0x3cc9d048	0.024635449
141	0xbc9d8c15	-0.019231835
142	0x3d16d765	0.03682651
143	0x3b2ec9ef	0.0026670655
144	0xbcb9e5ab	-0.022692522
145	0xbc30dc2b	-0.01079468
146	0xbc17e536	-0.009270957
147	0xbd0a9af5	-0.033839185
148	0x3cca0bd3	0.024663841
149	0x3c320307	0.01086498
150	0x3c801eb9	0.01563965
151	0xbcbacf45	-0.022803912
152	0x3cd8c7e1	0.026462497
153	0xbc2c9d3d	-0.010535535
154	0x3c8e835b	0.01739662
155	0x3cce2de6	0.02516837
156	0x3d0a8992	0.033822604
157	0x3cc6c851	0.02426544
158	0xbd13fc79	-0.03612945
159	0xbd214dbf	-0.039380785
160	0x3cad2ffa	0.021141041
161	0xbba3c6fe	-0.004998087
162	0x3c5d4f1f	0.0135076335
163	0x3c98f5d3	0.018671906
164	0xbcdac5a9	-0.02670558
165	0x3a59210f	0.0008282819
166	0x3ce22556	0.027605694
167	0xbd26f0e7	-0.040757086
168	0xbcf6f557	-0.030146284
169	0x3c6007de	0.013673751
170	0xbaf378cf	-0.0018575432
171	0xbcbb3d97	-0.022856517
172	0xbc17ee13	-0.00927307
173	0x3c368e1c	0.01114228
174	0xbd00c0b3	-0.031433772
175	0xbc308a5d	-0.010775176
176	0xbce2d47b	-0.02768921
177	0xbccf8e69	-0.025336461
178	0x3cddfac7	0.027097119
179	0xbc3290cf	-0.010898783
180	0x3cbce250	0.023057133
181	0xbd0a1791	-0.03371388
182	0xbd15a2ab	-0.036532085
183	0xbc90effa	-0.017692555
184	0x3cb4170d	0.021983648
185	0x3bbdb901	0.0057898764
186	0xbbec53aa	-0.007212122
187	0xbcc28dfa	-0.02374934
188	0x3c8ef55b	0.017450979
189	0x3d1d5ab9	0.038416598
190	0x3c752d04	0.014964346
191	0x3d01e73e	0.03171467
192	0xbc74e63d	-0.014947471
193	0x3c9c1f90	0.019058019
194	0xbaac37fc	-0.0013139243
195	0x3cf44fae	0.02982315
196	0xbd11d249	-0.035600934
197	0x3c490ec7	0.01227159
198	0x3b307b01	0.0026928785
199	0xbcd7f467	-0.026361657
200	0xbd04dc95	-0.032436926
201	0x3c08de24	0.008353744
202	0xbccde228	-0.025132254
203	0xbd10dcde	-0.035366885
204	0xbd1bb73c	-0.038016543
205	0xbcbd9b49	-0.023145335
206	0xbd1609a9	-0.036630306
207	0x3c76aa0a	0.015055189
208	0xbc3acda6	-0.0114015695
209	0xbbe66462	-0.0070310095
210	0xbc3a39ca	-0.011366317
211	0xbc6e75ff	-0.0145545
212	0xbd30a269	-0.043123636
213	0xbc08af8d	-0.008342636
214	0xbcd68020	-0.026184142
215	0x3cdc5e26	0.026900362
216	0xbca14703	-0.019687181
217	0xbc9c690b	-0.019093057
218	0xbd0d15e2	-0.034444697
219	0x3c95aebc	0.018271796
220	0x3ce54d26	0.027990889
221	0xbd296acb	-0.04136161
222	0xbd0cee0f	-0.034406718
223	0xbb9b71ef	-0.0047438066
224	0xbd1713d8	-0.03688416
225	0xbb803dfb	-0.0039136386
226	0x3ca6b491	0.020349773
227	0x3d01194c	0.031518266
228	0xbd27fae3	-0.04101075
229	0xbcfdb847	-0.03097166
230	0xba5d8d69	-0.0008451553
231	0xbc735a90	-0.014853135
232	0xbbe77dde	-0.007064565
233	0xbcd67cf6	-0.026182633
234	0x3b1f708b	0.0024328555
235	0x3cb8026f	0.022462098
236	0x3b757ae6	0.0037457286
237	0xbd173460	-0.036915183
238	0xbc8c4543	-0.01712287
239	0x3c80b043	0.015709048
240	0x3c5b8daa	0.013400475
241	0x3afc30c6	0.001924061
242	0xbc94faa8	-0.018185928
243	0xbc8faea0	-0.017539322
244	0xbc9b4db1	-0.018957945
245	0xba6d397c	-0.00090493984
246	0x3c179688	0.009252198
247	0x3cd40eee	0.025886025
248	0x3d13902c	0.036026165
249	0xbd149e64	-0.036283866
250	0xbc5de1ac	-0.013542574
251	0x3d11925d	0.035539974
252	0x3d0facc0	0.035076857
253	0x3cc37a40	0.023862004
254	0x3d2029cd	0.039102364
255	0xbaf43fe0	-0.0018634759

c3.bias f4 [256]
0	0xbaf6117a	-0.0018773519
1	0xbca38af4	-0.019963719
2	0xbb9f0c61	-0.0048537706
3	0xbd085df7	-0.033292737
4	0x3ca43233	0.020043468
5	0xbc685c7c	-0.014182206
6	0xbc181f14	-0.009284753
7	0x3c80a5cb	0.015704056
8	0xbcd460dc	-0.025925092
9	0x3d2c4ba9	0.042064343
10	0x3d28b480	0.041187763
11	0x3c5edcb8	0.013602428
12	0x3b30a230	0.002695214
13	0x3cb21b10	0.02174142
14	0xbcae4cc4	-0.02127684
15	0x3bd51832	0.0065031284
16	0xbc918512	-0.017763648
17	0xbbbd9b73	-0.0057863533
18	0x3d10e585	0.035375137
19	0x3cdf506e	0.027260032
20	0xbce41c06	-0.027845394
21	0x3b760d42	0.0037544523
22	0x3c178651	0.009248332
23	0x3c5487e2	0.01297185
24	0xbc7fec2b	-0.015620272
25	0x3ce0a23e	0.027421113
26	0xba86f6d5	-0.001029695
27	0x3c8d3633	0.017237758
28	0xbc783b2d	-0.015150827
29	0x3d137d22	0.036008008
30	0xbd11916c	-0.035539076
31	0xbd259b05	-0.04043104
32	0xbc7801d4	-0.015137155
33	0x3a9035d0	0.0011002365
34	0x3d1558f4	0.036461785
35	0xbcfa8f66	-0.030585956
36	0xbc271932	-0.010198878
37	0x3d39ed3d	0.045392264
38	0xbd1982e2	-0.037478335
39	0x3bdc2691	0.0067184647
40	0x3d09d5e5	0.03365125
41	0xbb0a0f20	-0.0021066144
42	0xbd2a4eeb	-0.04157917
43	0x3d180095	0.03710993
44	0xbcb0387d	-0.02151131
45	0xbcbb89be	-0.022892829
46	0x3d2044de	0.039128177
47	0xbba8885d	-0.005143209
48	0x3cb0e984	0.021595724
49	0xbc0a3791	-0.0084361
50	0xbb9b7268	-0.004743863
51	0x3c7c4dcf	0.01539941
52	0x3d14a2e5	0.03628816
53	0xbd1d1665	-0.038351435
54	0x3d0c5f6a	0.03427068
55	0x3c9f9464	0.019479938
56	0x3c987e87	0.01861502
57	0xbc847401	-0.016168596
58	0xbcfa182c	-0.030529104
59	0xbd133005	-0.035934467
60	0x3a2555a3	0.00063070114
61	0x3cd9fb86	0.026609194
62	0x3ca94430	0.020662397
63	0xbd2afa8f	-0.041742858
64	0xbb064321	-0.002048679
65	0xbcecd1a7	-0.028908564
66	0xbd2189d3	-0.03943808
67	0xbc3bb60d	-0.0114569785
68	0xbcf77b43	-0.030210143
69	0x3d269341	0.040667776
70	0x3cbb34e2	0.022852365
71	0x3c313434	0.010815669
72	0x3bf17937	0.0073691863
73	0xbb9e6532	-0.0048338408
74	0xbadfd03b	-0.0017075607
75	0x3cddd82b	0.027080616
76	0xbce994da	-0.02851336
77	0x3bdcd6f4	0.0067394916
78	0xbcc118d2	-0.023571406
79	0x3c030258	0.007996164
80	0x3cfb2524	0.030657358
81	0x3c727594	0.014798541
82	0xbaced278	-0.0015779277
83	0xbcf3cb7b	-0.029760113
84	0xbc8843b1	-0.01663384
85	0x3cfd7c34	0.030943014
86	0x3c5af0fd	0.01336312
87	0xbc0f2cc6	-0.008738702
88	0x3c1cc9e8	0.009569623
89	0xbba06590	-0.0048949197
90	0xbc520f29	-0.012820997
91	0x3d4c1ad1	0.04983026
92	0xbc8c7fe7	-0.017150832
93	0x3c33d2cc	0.010975551
94	0x3c072fdc	0.008251157
95	0xbbc79128	-0.006090302
96	0x3cda4998	0.02664642
97	0x3bfc03f6	0.007690902
98	0xbd1f7090	-0.038925707
99	0x3c38deb5	0.011283566
100	0x3d02f752	0.031974144
101	0x3ce6c517	0.028170152
102	0x3ac19c88	0.0014771381
103	0x3cc69889	0.024242656
104	0xbd202547	-0.03909805
105	0x3d239a3f	0.039942022
106	0x3ba083dc	0.0048985314
107	0xbc7f71d4	-0.015591104
108	0x3b2eca7c	0.0026670983
109	0xbc49e988	-0.012323745
110	0xbcb04449	-0.021516936
111	0x3cf77aa5	0.030209849
112	0x3c389e1f	0.011268168
113	0xbd0accf2	-0.033886857
114	0x3c1cb39d	0.0095643075
115	0xbb025b4a	-0.0019890838
116	0x3cf371cd	0.02971735
117	0xbb7349a2	-0.0037122746
118	0xbc5a5896	-0.013326785
119	0x3d262d49	0.04057053
120	0x3c20aae9	0.009806373
121	0x3c44e796	0.012018105
122	0x3d39f5a5	0.04540028
123	0x3cccf6c6	0.025020014
124	0xbd2277a9	-0.039664898
125	0xbc29cad3	-0.0103632985
126	0xbcf8526c	-0.03031274
127	0x3af2918e	0.0018506513
128	0xbabec9a1	-0.001455594
129	0xbb9e476d	-0.004830292
130	0x3d1c128b	0.03810362
131	0x3a99f8f7	0.0011747171
132	0xbd11d066	-0.035599135
133	0x3cfedc6f	0.03111097
134	0xbc613fa5	-0.013748084
135	0x3cc78273	0.024354195
136	0xbc39243e	-0.011300145
137	0xbbfbf95e	-0.007689639
138	0xbd2c3b91	-0.042048994
139	0xbcc78d42	-0.02435935
140	0xba08ebbc	-0.00052231154
141	0xbd0deba0	-0.034648538
142	0x3cbacdf2	0.02280328
143	0xbd11234d	-0.035434056
144	0x3c4a6fcd	0.012355757
145	0xbcde4e31	-0.027136894
146	0xbc9c3acc	-0.019071005
147	0xbcad79f8	-0.021176323
148	0x3c9645e1	0.018343868
149	0x3c91a3bf	0.017778276
150	0xbc907384	-0.017633207
151	0xb9c677d1	-0.00037854773
152	0x3d048b80	0.0323596
153	0xbd1be198	-0.03805694
154	0xbd2715fc	-0.04079245
155	0x3b578de9	0.0032890982
156	0xbd24192c	-0.04006307
157	0x3c6db497	0.014508388
158	0xbc8eb74c	-0.017421387
159	0x3a822519	0.0009929269
160	0xbd13e9f2	-0.03611178
161	0x3c94d3c3	0.018167382
162	0x3d1fc41b	0.03900538
163	0x3c747c8b	0.0149222715
164	0xbb6c200d	-0.0036029846
165	0x3d147a4a	0.036249436
166	0x3c07e353	0.008293944
167	0xbcb74bb3	-0.022374963
168	0x3d23dcd4	0.04000552
169	0x3d1b0b8e	0.037852816
170	0x3c4a1425	0.012333904
171	0x3c14c064	0.009079073
172	0xbcbeac23	-0.02327544
173	0xbd2ba93a	-0.041909434
174	0x3d388c52	0.045055695
175	0x3cb67a79	0.022275196
176	0x3d1a9aa9	0.03774515
177	0x3b8391e4	0.0040151943
178	0xbcd77e7f	-0.026305435
179	0x3d1e6712	0.038672514
180	0xbc439b74	-0.011938918
181	0xbd255db3	-0.04037256
182	0x3d0f7710	0.035025656
183	0x3a22f71e	0.0006216633
184	0x3d2874e8	0.041127115
185	0xbc9f4447	-0.019441737
186	0x3c8439bc	0.016140811
187	0xbb5a7eb8	-0.003333969
188	0xbcc76040	-0.024337888
189	0x3c6cd5be	0.014455257
190	0xbca30928	-0.019901827
191	0xbc1867ea	-0.009302119
192	0xbcde64c7	-0.027147664
193	0x3c636678	0.013879411
194	0xbcfa06f7	-0.0305209
195	0x3cc0a2e4	0.023515172
196	0x3cec7347	0.028863562
197	0xbd0e0ccb	-0.03468017
198	0xbc135cb9	-0.008994275
199	0x3ca44c3d	0.020055884
200	0xbcdca166	-0.02693243
201	0x3bc1bdd1	0.0059125205
202	0x3c2817c4	0.010259572
203	0xbc8aa213	-0.016922986
204	0xbce0217f	-0.027359722
205	0xbd0b6b79	-0.03403804
206	0x3d1fb857	0.03899416
207	0x3bc456b8	0.005991783
208	0x3b49bf9d	0.0030784376
209	0xbd0cd515	-0.0343829
210	0xbcb3d897	-0.021953864
211	0x3be1abdb	0.006886942
212	0x3be63016	0.0070247753
213	0x3cb2f6e3	0.02184624
214	0xbd23e0d4	-0.040009335
215	0x3d137f9f	0.03601038
216	0x3c00a12e	0.007850928
217	0xbce1e6f6	-0.027575951
218	0x3cfbebfa	0.03075217
219	0xbd2d5da8	-0.042325646
220	0xbca149fe	-0.019688603
221	0xbd1f4b5c	-0.038890228
222	0x3cdf4743	0.02725566
223	0x3cb5ca26	0.022191118
224	0xbd04e609	-0.03244594
225	0x3d0a0153	0.03369267
226	0x399de0d1	0.00030112875
227	0xbc7cd0c1	-0.01543063
228	0xbcd5339d	-0.026025588
229	0xbb146c44	-0.002264754
230	0xb846f480	-4.7434587e-05
231	0x3d1d266c	0.03836672
232	0xbc9606df	-0.018313823
233	0xbcb9aa80	-0.022664309
234	0x3ca87120	0.020561755
235	0xbd22d01a	-0.039749242
236	0xbd0ed944	-0.03487517
237	0x3a43d51e	0.00074704166
238	0xbc90c3cc	-0.017671488
239	0xbd04cf2c	-0.032424137
240	0xbd130158	-0.035889953
241	0xbd188d30	-0.037244022
242	0xbd1645f5	-0.03668781
243	0x3ce4a902	0.02791262
244	0xbcff6bb3	-0.031179285
245	0xbb6c1dcb	-0.00360285
246	0xbd071dd0	-0.032987416
247	0x3d022aab	0.031778973
248	0xbd0a9e09	-0.03384212
249	0xbc7d90f0	-0.01547645
250	0x3d272cf0	0.04081434
251	0xbb1d61e2	-0.0024014642
252	0xbca00eb8	-0.019538268
253	0x3cf2e800	0.029651642
254	0xbcd65f70	-0.026168555
255	0xbc5e7724	-0.01357821

fc1.weight f4 [64, 256]
0	0x3c9dfc03	0.019285208
1	0xbd6a2c93	-0.057171416
2	0x3d557250	0.05211097
3	0x3c0c6df8	0.0085711405
4	0xbd63de4a	-0.055631913
5	0xba342200	-0.00068715215
6	0xbd0ed2a4	-0.03486885
7	0xbcf2b896	-0.029629033
8	0x3d171956	0.036889397
9	0x3c834ef4	0.016028859
10	0x3c1ddc6c	0.009635072
11	0x3d7c5fd2	0.06161482
12	0xbd0986b0	-0.033575714
13	0x3d1c20ff	0.038117405
14	0xbd51b232	-0.05119533
15	0x3d8201ed	0.063480236
16	0xbc5154e6	-0.012776589
17	0x3d457671	0.048208658
18	0x3d589acb	0.052881997
19	0xbd46a14a	-0.04849366
20	0xbc2583de	-0.01010224
21	0x3d2c127b	0.04200981
22	0x3d798ac6	0.06092336
23	0x3d031077	0.031998124
24	0xbd4299e7	-0.047510054
25	0x3ce8b1c6	0.028405081
26	0x3b919b6f	0.004443578
27	0x3c917158	0.017754242
28	0x3cd25825	0.025676796
29	0x3d03188f	0.032005843
30	0x3d11e80a	0.03562168
31	0x3d385018	0.04499826
32	0x3d74a956	0.059731804
33	0xbc734824	-0.014848743
34	0x3d5e3164	0.05424632
35	0xbd4af5ea	-0.04955093
36	0x3cb7d317	0.022439523
37	0x3c64e87f	0.013971447
38	0x3cd83909	0.026394384
39	0x3ced2864	0.028949924
40	0x3cecd5ec	0.0289106
41	0xbcd716b8	-0.02625595
42	0xbd0c24c2	-0.034214742
43	0x3caa5617	0.020793004
44	0xbb7fcca7	-0.0039031894
45	0x3d73aafa	0.059489228
46	0x3c9d012b	0.019165596
47	0x3d770af5	0.060313184
48	0xbca5a653	-0.020220911
49	0x3ce852b5	0.02835975
50	0x3d0f18c2	0.03493572
51	0x3cc06c6e	0.023489203
52	0xbbb1fb4e	-0.005431569
53	0x3d6be720	0.057593465
54	0xbbb6fc7c	-0.0055842977
55	0xbd285cb3	-0.04110403
56	0x3d0d26d5	0.03446086
57	0xbcb5777b	-0.0221517
58	0xbd00487f	-0.031319138
59	0x3d0bb5bc	0.034108862
60	0x3cf10c47	0.0294248
61	0xbd13fac3	-0.036127817
62	0x3d3bc837	0.045845237
63	0xbce0ebba	-0.027456153
64	0x3d821d4f	0.063532464
65	0xbd2780d5	-0.04089435
66	0xbd8656af	-0.06559502
67	0xbc8c780b	-0.017147085
68	0x3ca6d957	0.020367308
69	0x3d75716e	0.059922628
70	0xbc5ab03d	-0.013347683
71	0x3d11437c	0.03546475
72	0x3bab2ecd	0.005224085
73	0x3d2d6d52	0.042340584
74	0x3d2e5c7d	0.042568672
75	0x3d522f99	0.051314924
76	0xbb0313d7	-0.002000084
77	0xbd22dedd	-0.03976332
78	0x399f1b31	0.00030347102
79	0x3cf1ece4	0.029531904
80	0xbaddc63c	-0.001692004
81	0x3d08b306	0.033373855
82	0x3d2268b6	0.03965064
83	0x3d7f1ead	0.062285114
84	0x3d621da7	0.05520406
85	0xbb133fe7	-0.0022468509
86	0xbc1a37c9	-0.009412714
87	0x3d49692a	0.049172558
88	0xbd4ff63d	-0.05077194
89	0x3cf9e87e	0.030506369
90	0x3c986c4c	0.018606327
91	0x3d762853	0.06009705
92	0xbd414428	-0.04718414
93	0x3d40da65	0.047083277
94	0xbcd3da14	-0.025860824
95	0x3d0bcd2d	0.034131218
96	0xbce53cf3	-0.027983164
97	0xbc57fa84	-0.013182286
98	0xbd0550b9	-0.032547686
99	0xbcc62b4e	-0.024190571
100	0xbd5aba48	-0.053400308
101	0x3c3f87b4	0.011690069
102	0xbd1bbd4b	-0.03802232
103	0x3d628699	0.055304144
104	0x3ce67a14	0.028134383
105	0x3d0b6fb9	0.034042094
106	0xbd2c68d1	-0.04209215
107	0x3cdf22f5	0.027238348
108	0x3d0e5853	0.0347522
109	0x3cc088a5	0.023502657
110	0x3d417171	0.047227327
111	0xbc86718e	-0.016411569
112	0xbc1798bf	-0.009252726
113	0xbc376a60	-0.011194795
114	0x3bbf8faa	0.0058459835
115	0x3bb7221e	0.005588784
116	0xbd20cacd	-0.039255906
117	0x3c38c4ff	0.011277436
118	0x3cb4ddbf	0.022078393
119	0x3c1627be	0.009164749
120	0xbd393495	-0.04521616
121	0x3d31211d	0.04324447
122	0x3c9370c8	0.017998114
123	0x3cb04bd8	0.02152054
124	0x3cf293fb	0.029611578
125	0x3cb34b87	0.0218866
126	0x3d5529b3	0.05204172
127	0x3ca003ba	0.019533027
128	0xbbda649c	-0.0066648256
129	0xbd5202b8	-0.051272124
130	0xbd4eb7b5	-0.050468165
131	0xbc1f24f1	-0.009713397
132	0x3abddddd	0.0014485676
133	0xbcd9b1f2	-0.026574109
134	0xbc73d002	-0.014881136
135	0x3d4c075f	0.049811717
136	0xbd20ef13	-0.0392905
137	0x3d778305	0.060427684
138	0xbc977f04	-0.018493183
139	0xbc81949e	-0.015817937
140	0xbb736215	-0.003713732
141	0xbcfbbeab	-0.030730566
142	0x3d72b402	0.0592537
143	0xbd085200	-0.033281326
144	0xbc2ec86b	-0.010667901
145	0x3c9d24b6	0.019182544
146	0x3d2b536e	0.04182761
147	0x3d6c5483	0.057697784
148	0xbd3ec5e3	-0.04657544
149	0x3d144f19	0.036208246
150	0xbd0e65a4	-0.0347649
151	0x3d48e1f1	0.0490436
152	0xbc3719f3	-0.01117562
153	0xbd5ccd06	-0.053906463
154	0xbcc307d4	-0.023807444
155	0xbd6cbd7c	-0.057797894
156	0x3c954171	0.018219681
157	0xbd1741d9	-0.03692803
158	0xbd160d04	-0.036633506
159	0x3c21fb87	0.009886629
160	0xbcb8ca0c	-0.022557281
161	0x3d1c3a03	0.03814126
162	0xbcf0cd4f	-0.029394774
163	0x3b7dbbe9	0.003871674
164	0x3c2232ef	0.009899839
165	0x3d26e56e	0.040746145
166	0x3cb75ca6	0.022383045
167	0x3d6820ef	0.056672033
168	0x3c7618b9	0.015020543
169	0xbd1b90f5	-0.03798004
170	0xbd35011c	-0.04419051
171	0xbd4563d7	-0.048190918
172	0x3c3ccf21	0.011523993
173	0x3d138f9d	0.036025632
174	0xbc425b5e	-0.011862604
175	0x3cb5cb48	0.022191659
176	0xbd612120	-0.05496323
177	0x3c2dcc7c	0.010607835
178	0xbc88deaa	-0.016707737
179	0x3d64bc9b	0.05584393
180	0x3d221b8f	0.039577063
181	0x3d25352b	0.040333908
182	0xbcb070b3	-0.021538114
183	0xbd03abe7	-0.03214636
184	0x3ccd4df3	0.025061583
185	0x3ce8d709	0.02842285
186	0x3d1beb0f	0.038065966
187	0xbd2eed8e	-0.04270702
188	0xbd4bf0e6	-0.049790286
189	0x3d51dd73	0.05123658
190	0x3d060a86	0.03272488
191	0x3c2aa583	0.010415438
192	0x3bbd8bbf	0.0057844813
193	0xbb90f436	-0.0044236435
194	0xb9c699a1	-0.00037879965
195	0x3ca1dde8	0.019759133
196	0xbcbe617a	-0.02323984
197	0xbcd338c5	-0.025783906
198	0x3d229e14	0.039701536
199	0x3d7e862e	0.062139682
200	0x3d486a0a	0.04892925
201	0x3c9a3a5b	0.018826654
202	0x3d24122a	0.040056385
203	0x3d798c57	0.060924854
204	0xbd2e1b88	-0.042506725
205	0xbbfba52c	-0.007679602
206	0x3d57e1fe	0.052705757
207	0x3cdc1cd4	0.026869215
208	0xbd3c53f0	-0.045978487
209	0xbd020f3d	-0.031752814
210	0xbd6f690d	-0.058449794
211	0x3c25cc07	0.010119445
212	0xbd1477a2	-0.036246903
213	0xbd1762a0	-0.03695929
214	0xbd5635bf	-0.05229735
215	0xbb6976a8	-0.0035623703
216	0x3ce03f3b	0.0273739
217	0x3bf48d00	0.0074630976
218	0xbc84d7c0	-0.016216159
219	0xbcedbfe1	-0.029022159
220	0xbd26431b	-0.04059134
221	0xbce5264f	-0.027972369
222	0x3d38cc65	0.0451168
223	0x3d3d23f4	0.046176866
224	0xbd154cc3	-0.03645016
225	0xbce29ac8	-0.027661696
226	0xbcb507d4	-0.02209846
227	0x3cbe2035	0.023208717
228	0x3c199240	0.009373248
229	0xbd732b94	-0.05936773
230	0xbb8bd051	-0.0042667766
231	0x3c8ceb4c	0.017202042
232	0x3d620b9e	0.05518686
233	0x3b9a7568	0.004713703
234	0xba127351	-0.00055866415
235	0x3d01bdfe	0.03167533
236	0xbbb72e0f	-0.0055902074
237	0xbd77e7c4	-0.060523763
238	0x3c8b7864	0.01702518
239	0x3d398890	0.04529625
240	0xbd40a7b8	-0.04703495
241	0xbd4afe1a	-0.049558736
242	0x3d739228	0.059465557
243	0xbc8585fc	-0.01629924
244	0x3c4a4a56	0.012346825
245	0x3d58ded3	0.052946877
246	0x3ca57957	0.02019946
247	0xbd06d181	-0.032914642
248	0x3d2c41f0	0.04205507
249	0xbd33452c	-0.04376714
250	0x3c529837	0.012853674
251	0x3cc74571	0.024325104
252	0x3c75d97c	0.015005466
253	0xbca4e2b7	-0.020127637
254	0x3c8ca8e4	0.017170377
255	0xbc48b6d1	-0.012250618

fc1.bias f4 [64]
0	0x3d77c9f1	0.06049532
1	0xbc80f037	-0.015739543
2	0xbd3d36a0	-0.046194673
3	0x3d236f2c	0.039900944
4	0xbbda93fb	-0.0066704727
5	0xbcb78e5a	-0.022406746
6	0x3c613831	0.013746307
7	0xbb822a38	-0.003972318
8	0xbd499a2a	-0.049219288
9	0x3cc35a6d	0.02384683
10	0xbc7f9cd1	-0.015601353
11	0xbd0e638c	-0.034762904
12	0xbd7cbd28	-0.06170383
13	0x39a33798	0.00031131203
14	0xbd5b7e94	-0.05358751
15	0x3d1823cb	0.03714351
16	0x3c839a11	0.016064676
17	0xbaec18f0	-0.0018012803
18	0xbd2a23aa	-0.04153792
19	0xbc19c3d1	-0.009385065
20	0xbd807fa7	-0.06274348
21	0xbd16fe52	-0.036863633
22	0x3d0caa97	0.034342375
23	0x3d267904	0.040642753
24	0x3caae9cb	0.020863434
25	0xbc83bab8	-0.016080245
26	0x3be84d5e	0.007089301
27	0x3aa00921	0.0012209752
28	0xbcceb8b4	-0.025234558
29	0x3cd2874c	0.02569928
30	0x3bfa78e3	0.0076438054
31	0xba9c3592	-0.0011917821
32	0x3d143399	0.03618202
33	0xbc362089	-0.011116155
34	0x3d685800	0.05672455
35	0x3cabeaa2	0.020985905
36	0xbd2cfd9e	-0.042234056
37	0x3cd53f0a	0.026031036
38	0x3c602998	0.013681792
39	0x3c3c8ab8	0.0115076825
40	0xbcb48898	-0.02203779
41	0xbd478234	-0.048708156
42	0xbb5d540a	-0.0033772015
43	0x3d41cb3f	0.04731297
44	0xbcd1c864	-0.025608249
45	0x3bbe25d4	0.0058028493
46	0xbc84fdcc	-0.016234301
47	0x3d7e888c	0.06214194
48	0x3ca754ec	0.020426236
49	0xbc41bcc0	-0.011824787
50	0xbd6ea606	-0.0582638
51	0xbd760a9c	-0.06006871
52	0x3bb65b71	0.0055651
53	0x3d1b620a	0.037935294
54	0x3d2c4e34	0.042066768
55	0x3d37e915	0.04490002
56	0xbd4645ec	-0.048406526
57	0xbcbeba56	-0.023282211
58	0x3d292e07	0.04130366
59	0xbd6be9be	-0.05759596
60	0xbc2d1f16	-0.0105664935
61	0xbb85d2cb	-0.0040839664
62	0xbd2a5ce8	-0.04159251
63	0x3d25426f	0.04034656

fc2.weight f4 [5, 64]
0	0x3d9852d2	0.07437672
1	0x3db00a04	0.0859566
2	0x3ddb7cde	0.10717176
3	0x3bd28302	0.0064243088
4	0xbd17a78b	-0.037025016
5	0xbd86b7fb	-0.0657806
6	0x3d5ec779	0.05438945
7	0xbd22b490	-0.03972298
8	0xbd86571a	-0.06559582
9	0xbdb9dbc9	-0.09075124
10	0x3d5c7061	0.05381811
11	0x3db70858	0.08937138
12	0xbc996080	-0.018722773
13	0x3dff5f76	0.124693796
14	0x3dbee04a	0.093201235
15	0xbda05697	-0.07829016
16	0xbd6f4e81	-0.058424477
17	0x3d5aa42c	0.053379223
18	0x3bbe2480	0.005802691
19	0xbc3af1fe	-0.0114102345
20	0xbc9ddee3	-0.01927132
21	0x3dbe14f2	0.09281339
22	0xbcb406e4	-0.021975942
23	0xbdd9902e	-0.10623203
24	0xbd21078b	-0.039313834
25	0x3dcd3e72	0.10021676
26	0x3d3c7863	0.046013247
27	0xbd8596d9	-0.065229125
28	0xbdf7f60a	-0.12107475
29	0x3d112a8f	0.035440978
30	0xbc5cbdbf	-0.013472973
31	0xbd80a517	-0.062814884
32	0x3e02cbc7	0.12773047
33	0x3dfd8226	0.123783395
34	0x3db6a27a	0.08917709
35	0x3d829ad4	0.06377187
36	0xbddbd00c	-0.10733041
37	0x3d0d7e36	0.034544192
38	0x3d16b551	0.03679401
39	0x3de3eef8	0.11129564
40	0xbda7d7aa	-0.081954315
41	0xbde3c487	-0.11121469
42	0xbc1c6940	-0.009546578
43	0xbb83c0f4	-0.0040208045
44	0x3dfbdd74	0.12298098
45	0x3dd4e8c6	0.103959605
46	0xbd6d429c	-0.05792485
47	0x3de5b8c4	0.11216882
48	0x3d1fb593	0.038991522
49	0x3d9770a0	0.073945284
50	0x3d605338	0.054766864
51	0x3dbcdd4c	0.092218965
52	0x3dd90284	0.10596183
53	0x3c915ca4	0.01774437
54	0xbdf32a58	-0.11873311
55	0x3d80d8db	0.06291362
56	0xbccc2fd0	-0.024925143
57	0x3d873466	0.06601791
58	0x3e04aaa3	0.12955718
59	0x3cb69278	0.022286639
60	0xbd48e2cf	-0.049044427
61	0xbd85f3fa	-0.065406755
62	0xbce1b048	-0.027549878
63	0x3d26de5b	0.0407394
64	0x3dd7bb1c	0.10533735
65	0xbd1ae1a8	-0.03781286
66	0x3df4977a	0.11942954
67	0x3d9ca1d0	0.07648051
68	0xbdc1033c	-0.09424445
69	0x3d51de49	0.05123738
70	0xbdb81677	-0.0898866
71	0x3b5b0b99	0.003342366
72	0xbdbbac60	-0.09163737
73	0xbdbcdf6b	-0.09222301
74	0x3dc8e54f	0.09809362
75	0xbd9e6a2c	-0.077350944
76	0x3d8383a2	0.06421591
77	0x3d4868f3	0.048928212
78	0xbd386d4c	-0.04502611
79	0x3d89c055	0.067261375
80	0xbd9e5bc4	-0.07732347
81	0x3da5d3a3	0.08097007
82	0xbde2ff68	-0.11083871
83	0x3c106b4e	0.008814646
84	0xbd5592ff	-0.05214214
85	0x3de8c802	0.113662735
86	0x3debf9f1	0.11522282
87	0xbd36b260	-0.044603705
88	0x3d252ce1	0.040326003
89	0xbc89f378	-0.016839728
90	0xbd747c8d	-0.059689093
91	0x3c6324ba	0.013863737
92	0xbd237788	-0.039908916
93	0xbcc932c4	-0.02456034
94	0xbd774724	-0.06037058
95	0x3de61761	0.11234928
96	0x3cad44c7	0.02115096
97	0xbde9d313	-0.11417212
98	0xbde46bfb	-0.11153408
99	0x3da14d5f	0.078760855
100	0xbd59f00c	-0.053207442
101	0xbdc20322	-0.09473254
102	0x3d4d851c	0.05017577
103	0xbd594464	-0.053043738
104	0x3debb1c8	0.115085185
105	0xbd820ca4	-0.06350067
106	0xbc5f569e	-0.013631491
107	0xbded88ec	-0.115983814
108	0x3cf36660	0.029711902
109	0xbd5eca0f	-0.054391917
110	0x3d8946f6	0.06702988
111	0xbc8f8a36	-0.017521959
112	0xbdf473a3	-0.119361185
113	0xbd42cf98	-0.047561258
114	0x3d1b53e8	0.037921816
115	0xbd8c32d0	-0.06845629
116	0x3c98c881	0.018650295
117	0x3df9cd57	0.121973686
118	0xbdaeb504	-0.0853062
119	0xbcf9cbf4	-0.03049276
120	0xbddc8042	-0.10766651
121	0xbca73474	-0.020410754
122	0xbdd0dac3	-0.101979755
123	0x3cd9d560	0.026591003
124	0x3d4f2471	0.050571863
125	0xbd571942	-0.052514322
126	0x3aa96100	0.0012922585
127	0xbde1ee07	-0.11031728
128	0x3c13b57d	0.009015438
129	0x3df8a368	0.12140542
130	0xbb00d800	-0.0019659996
131	0x3d38d3f1	0.045123998
132	0xbd1243f9	-0.035709355
133	0xbd3f351a	-0.0466815
134	0x3d944697	0.072400264
135	0x3dd7c3f2	0.105354205
136	0x3ddada5e	0.106861815
137	0x3dfb9497	0.12284201
138	0xbcc3369b	-0.023829749
139	0x3d573f38	0.052550524
140	0x3d85e1ea	0.0653723
141	0x3bfd8543	0.0077368333
142	0xbbe05e00	-0.006847143
143	0xbdd5b1ed	-0.10434327
144	0xbdd1efbd	-0.102508046
145	0x3dd658ea	0.10466178
146	0xbbfaf180	-0.0076581836
147	0x3da8b405	0.08237461
148	0x3d0530d9	0.032517288
149	0x3dde7af8	0.10863298
150	0xbdbdd0f5	-0.09268371
151	0x3b484888	0.003056081
152	0xbcbe6d55	-0.023245493
153	0x3d9b3510	0.0757848
154	0x3d50f2eb	0.051012915
155	0x3d710455	0.058842022
156	0x3d9eef84	0.07760528
157	0x3de2b6af	0.110700004
158	0xbdf47716	-0.11936776
159	0x3d0e4a0d	0.03473859
160	0x3d873cd3	0.06603398
161	0xbcb2a6f7	-0.02180813
162	0x3c897dd8	0.01678364
163	0xbd1c1230	-0.038103282
164	0x3d51753c	0.051137194
165	0xbd64157b	-0.055684548
166	0xbdaeabb1	-0.08528841
167	0xbdbaae3a	-0.09115262
168	0x3d3eeacc	0.04661064
169	0xbdc4d250	-0.096104264
170	0x3ded2639	0.11579556
171	0xbca05b7b	-0.019574871
172	0xbd68ff94	-0.056884363
173	0x3dfc92e2	0.12332703
174	0x3b4cc400	0.0031244755
175	0x3da2ce9b	0.07949563
176	0xbd6d947d	-0.058002938
177	0xbde200f8	-0.11035341
178	0x3d463ff8	0.04840085
179	0xbdcd53e8	-0.100257695
180	0xbdca74a2	-0.09885527
181	0x3d9b2372	0.0757512
182	0x3ccf7676	0.025325041
183	0xbcb83e9d	-0.022490794
184	0xbd565c80	-0.05233431
185	0xbd8c6a65	-0.06856231
186	0xbd2f4c60	-0.042797446
187	0xbcb3f840	-0.02196896
188	0xbcd455ea	-0.025919873
189	0xbb2fcfd9	-0.0026826768
190	0x3cae5c78	0.021284327
191	0x3d48c3e1	0.04901493
192	0x3d505564	0.050862685
193	0xbcf469d4	-0.029835619
194	0xbd4b7820	-0.049675107
195	0xbda20ba3	-0.07912376
196	0xbdb91a85	-0.09038261
197	0xbd46c127	-0.04852405
198	0x3a441bfe	0.0007480978
199	0x3d443370	0.047900617
200	0x3c4a22d0	0.0123374015
201	0x3d26fea1	0.040770177
202	0xbd95bbb0	-0.07311189
203	0x3ded5fcc	0.115905374
204	0xbd3a12ec	-0.0454282
205	0x3daa27c3	0.08308365
206	0xbdf089e2	-0.11745049
207	0xbdca8af6	-0.09889786
208	0xbcae9048	-0.021309033
209	0x3dcc8e95	0.09988133
210	0x3ced1530	0.028940767
211	0xbcbabe94	-0.022795953
212	0x3d1ad92d	0.03780477
213	0xbdeee172	-0.11664094
214	0xbdebb743	-0.11509564
215	0xbcaa5a04	-0.020794876
216	0xbcfd5fd0	-0.030929476
217	0xbd1200b8	-0.035645217
218	0x3de2392d	0.11046062
219	0x3de50849	0.11183221
220	0xbde177ce	-0.11009179
221	0xbc383ad2	-0.011244493
222	0xbd563a85	-0.052301902
223	0x3dba618b	0.09100636
224	0x3da1b778	0.07896322
225	0xbce3bdfa	-0.027800549
226	0xbd693b9e	-0.05694162
227	0x3d52b65b	0.05144344
228	0x3df718e4	0.120652944
229	0xbdf5fe0e	-0.12011348
230	0x3c4a7ff8	0.012359612
231	0x3c1bef20	0.009517461
232	0x3dd61424	0.1045306
233	0xbcb3bcc0	-0.021940589
234	0xbdf8ce3d	-0.12148712
235	0x3da41e36	0.08013575
236	0x3d3257f8	0.043540925
237	0x3dc2ed35	0.095179
238	0xbc36a510	-0.011147752
239	0xbcf6f284	-0.030144937
240	0x3ad0520a	0.001589359
241	0xbccb4a60	-0.024815738
242	0x3dfb0726	0.12257223
243	0x3be69d80	0.0070378184
244	0x3dfd8e91	0.12380708
245	0x3dcf7897	0.101304226
246	0x3dc0a2a1	0.09406019
247	0x3dd39f1b	0.10333081
248	0x3d976514	0.07392326
249	0xbdfb2d1e	-0.12264465
250	0xbded44f3	-0.11585417
251	0x3c8efd58	0.017454788
252	0xbdc85786	-0.09782319
253	0xbdb1f7b7	-0.08689826
254	0xbdff37a4	-0.124617845
255	0xbbd584be	-0.0065160682

fc2.bias f4 [5]
0	0xbcb8eae8	-0.02257295
1	0xbd73908b	-0.05946402
2	0xbd470c93	-0.048595976
3	0x3caf98a4	0.02143509
4	0x3de03431	0.10947455
