SimpleQMIX_CNN_blox_VaryingEnemies/agent3_181.pth (torch, 745122 bytes, 10 tensors)

c1.weight f4 [32, 8, 3, 3]
000000 ed 27 ed bc 1b da b8 3d 84 37 df bd 63 f5 ea bc
       -0.028949702 0.09025975 -0.10899261 -0.028681463
000010 eb 78 be bd e4 fe a7 bd 88 a7 03 be be 92 bf bd
       -0.09300407 -0.082029134 -0.12856877 -0.09354161
000020 bc b2 01 3d f1 b4 ce 3d 8e 30 98 3d f1 37 08 be
       0.031664595 0.100931056 0.07431136 -0.1330259
000030 87 c1 c0 bd 4d 0f 14 be ec d2 4f 3e 2c cd 19 3d
       -0.094119124 -0.14458962 0.20295304 0.037549183
000040 1f ab be bd a2 d3 30 3e ae e3 0c 3d 3a 68 70 3d
       -0.093099825 0.17268232 0.03439682 0.05869315
000050 74 fd 80 3c 86 c3 4a 3d 48 b2 d2 bc 2c d6 bd 3c
       0.015745856 0.049502872 -0.025719777 0.023173414
000060 06 48 5f 3d 29 2c b1 3d 4a fb 96 bd 0f 26 ba 3d
       0.054512046 0.08651001 -0.07372148 0.0908929
000070 4d dc 90 3d f0 01 22 bc 39 58 b6 3d 70 98 32 bd
       0.07073269 -0.009888157 0.08903546 -0.043602407
000080 b0 8e 17 bd a8 c5 3f bc 58 c5 f8 bc 77 f8 b2 3d
       -0.03700131 -0.01170484 -0.030367538 0.08738797
000090 f1 f1 b3 3c 41 73 30 ba 36 2a 77 bd 31 51 d9 3c
       0.021965953 -0.00067310414 -0.06034299 0.026527973
0000a0 48 28 f0 3d fc 76 8a bd 1e 30 99 bd 5f e8 c4 3d
       0.11726433 -0.06760976 -0.07479881 0.09614634
0000b0 88 4c ed 3d 2a 07 31 3e 58 d5 96 bd 3d 7b 08 3e
       0.11586863 0.17287889 -0.07364911 0.13328262
0000c0 07 05 d4 3d 72 2a af 3d e6 96 55 3e 5f a8 72 3e
       0.103525214 0.08553018 0.20858344 0.23697041
0000d0 74 a6 2c bd b9 bb 6e 3d 4d be eb 3d ee c7 93 bd
       -0.04215093 0.058284495 0.11510906 -0.07215868
0000e0 b0 d4 de 3c a8 a7 7d bd e5 34 b9 3d 2f ba 44 bd
       0.027201027 -0.061927468 0.09043292 -0.04802912
0000f0 ca 84 db 3d 67 78 8a 3b f7 6b 1d 3d a4 25 04 3e
       0.10718687 0.004225779 0.03843304 0.12904984
000100 68 33 30 3e 12 13 30 bd d9 8b b3 bd 23 66 3a be
       0.1720711 -0.042986937 -0.08766908 -0.18203025
000110 08 3c 42 be fd 41 5e 3d 77 82 9b bd b5 7f 00 be
       -0.18968213 0.05426215 -0.075932436 -0.12548716
000120 75 79 90 3d 0d 53 4a 3d 2d e7 0a 3d f8 33 c3 bc
       0.07054416 0.04939561 0.033911873 -0.023828492
000130 ff a8 08 be ee 77 49 bd e6 2d 9b bd 24 ac 63 3d
       -0.13345717 -0.04918664 -0.07577114 0.055584088
000140 3a 5f b2 3d ac cc 5a 3e 83 f0 98 3e 38 ce 50 3e
       0.08709569 0.21367139 0.29870996 0.20391166
000150 2b 60 86 be d4 90 18 3e f5 bb 3e be 6b 5a 24 3e
       -0.26245245 0.14898998 -0.18626387 0.16050117
000160 95 17 bd 3e 8d 1a c0 3b 84 0d 08 bd 7e 48 1c 3d
       0.36932054 0.00586254 -0.033216015 0.03815507
000170 ea 3b 06 3d a7 8f 8d 3d 1c f8 a9 3c 0a 70 70 3d
       0.032771982 0.06912165 0.02074819 0.0587006
000180 58 e4 7d 3c e4 2d c0 bd 94 38 d6 bc 38 8b 77 bc
       0.015496336 -0.09383753 -0.026150025 -0.015108876
000190 d0 7a d6 bc 58 4c 96 bd bf bb ac 3d 0e 1b 20 3d
       -0.026181608 -0.0733878 0.08434247 0.0390883
0001a0 32 3b 25 3d cd f6 9e 3d 2e 2e cf bd 69 8c e6 3d
       0.040339656 0.07761917 -0.1011623 0.1125725
0001b0 1e b8 26 bd 42 4d bd b9 bd 60 1e bd e1 e6 9b 3d
       -0.04070293 -0.0003610645 -0.038666476 0.07612396
0001c0 4f fb 8c 3c 9c 2d e9 3d 84 99 02 be 72 a3 a7 3d
       0.017209677 0.113856524 -0.12753874 0.081854716
0001d0 f2 4d 07 3d 93 18 87 be b2 21 eb bd f0 9f 2c 3e
       0.03303332 -0.26385936 -0.11481036 0.16857886
0001e0 63 18 5f 3e 65 e2 fa 3d 33 6e 65 bd 59 1b 06 be
       0.21786647 0.122502126 -0.056013297 -0.1309637
0001f0 28 5d ea 3d 76 03 d1 bd 26 87 52 bd 7d 8c 09 3e
       0.114435494 -0.10205738 -0.05139842 0.13432498
000200 d1 c7 5d bd 1c 16 f6 bd 93 95 30 bd 30 2b be 3c
       -0.054145638 -0.12015936 -0.043111395 0.023213953
000210 d1 2e c7 bd c6 b2 cc 3c 94 74 5f be a2 f1 34 be
       -0.097257264 0.02498759 -0.21821815 -0.176703
000220 44 fa 12 3d ee 2e c8 bd 95 f4 8f bd 8d 56 53 bd
       0.035883203 -0.09774576 -0.07029072 -0.051596213
000230 ad dc 03 bb 72 fb 1f be d5 26 dc 3d 3f e9 b4 bb
       -0.0020120547 -0.15623263 0.10749594 -0.005520969
000240 f9 ea 6d 3d 66 3c ee bb 5d c2 c9 bc cb 95 33 3d
       0.058085416 -0.0072703836 -0.024628812 0.043844026
000250 e3 8d 2f 3d 1d 14 05 be b3 00 85 3d 38 4c 16 bb
       0.042859923 -0.12995954 0.06494274 -0.0022933614
000260 2b 7d 58 bc 0e 48 1a 3e 60 8e e0 3c c2 75 a7 be
       -0.013213436 0.15066549 0.02741164 -0.3270703
000270 d2 74 43 3e 51 01 a8 3d 84 3c 29 3d ee f5 f1 3d
       0.19087532 0.08203376 0.041317478 0.118144855
000280 63 70 34 3d 16 ba fd bd 04 5b be 3c 32 0b c3 bd
       0.044052493 -0.12389009 0.023236759 -0.0952362
000290 ee 7f 08 3d d6 f0 6b 3d 20 0a 23 bd 09 95 9d 3d
       0.03332513 0.057602726 -0.039804578 0.07694442
0002a0 93 79 cd 3d b8 f0 37 bd 4e 58 83 bd 0e 74 12 bd
       0.10032954 -0.0449073 -0.06413327 -0.03575521
0002b0 00 3a 57 3a a5 4a b0 3d a4 e4 e3 bc b1 af 86 bd
       0.0008210242 0.08607987 -0.027818985 -0.06576479
0002c0 cc 1a 9f 3c 42 50 49 3d 0f 4d d8 3d 1b 86 d4 bd
       0.019421957 0.049148805 0.10561573 -0.10377141
0002d0 83 16 6b bd c4 ec de 3d 81 a1 2e 3e 65 23 3f bd
       -0.057394516 0.10885003 0.17053796 -0.046664614
0002e0 e8 87 1a 3e 3d ab 12 3d ac 0f d5 bd 4d 70 ae bd
       0.15090907 0.035807837 -0.1040338 -0.085175134
0002f0 86 75 9a bc a5 0e bf bd c9 cc a3 bc 46 91 22 bc
       -0.018854868 -0.09328965 -0.01999511 -0.009922331
000300 aa ba 94 3d 90 bf 17 3e 58 d9 28 3e a8 05 eb bd
       0.07262166 0.14819169 0.1648916 -0.11475688
000310 e1 7c 6c bd 47 1f bd bd b7 2e ad bb 3f ec 6b bd
       -0.05773628 -0.09234481 -0.00528511 -0.05759835
000320 ee 82 ce bd 6c 83 c7 3d b7 83 07 3d 7c ec 36 3c
       -0.100835666 0.097418636 0.033084597 0.011164781
000330 f5 57 01 3d 49 ea b1 3b b0 0a bb 3d 32 8f a7 3d
       0.031578023 0.0054295403 0.09132898 0.08181609
000340 62 2a e9 3c c2 31 9e bd 54 06 80 3d 20 56 2a 3d
       0.028462593 -0.07724334 0.06251207 0.04158604
000350 aa 26 ce bd b5 88 07 be 48 5e 1b be 50 d5 10 be
       -0.10065968 -0.13235743 -0.15172684 -0.14143872
000360 75 2c 9f bd e7 28 07 be e6 62 bb 3d 8b 25 7c bd
       -0.077721514 -0.13199197 0.09149723 -0.06155924
000370 05 64 4e bb 41 35 26 3d 08 cb 86 3c 91 06 33 bd
       -0.0031492722 0.04057813 0.016454235 -0.043707434
000380 a2 e3 a5 3a fb 88 58 be 5d f1 5b 3e 36 c4 81 3e
       0.0012656341 -0.21146004 0.21478792 0.2534501
000390 cb 40 85 be 9c b2 34 3e b2 c6 bc 3d 8e 8b 4c be
       -0.26025996 0.17646259 0.092175856 -0.19975111
0003a0 c8 8d 93 3e b3 d5 2b be 46 00 44 3d 57 93 eb 3d
       0.28819108 -0.16780739 0.047851823 0.11502712
0003b0 60 fe 46 3b bf 76 85 3d 35 c9 c3 3d 2c 10 e2 3c
       0.0030364022 0.0651679 0.095598616 0.027595602
0003c0 cf de c1 3d 50 7b ab bd f0 c8 f1 3b 13 29 82 3d
       0.094663255 -0.08373129 0.00737869 0.063554905
0003d0 64 ed b7 3c 94 c2 bc bd 90 ed a1 bd 6e a3 df bd
       0.022452064 -0.092168 -0.079066396 -0.109198436
0003e0 7b 99 ed bd 8b 3a 99 bd 55 4e b2 3d 9a 41 4b 3d
       -0.1160154 -0.07481869 0.08706347 0.04962311
0003f0 e2 e5 df bb 7a 29 d8 3c bb cd 2a 3e 84 40 7a 3d
       -0.006832824 0.026386965 0.16680042 0.061096683

c1.bias f4 [32]
000000 11 2d b5 bd 7d ed 81 bd 98 5e bd bd 37 e3 86 3d
       -0.08846486 -0.063441254 -0.09246558 0.065863065
000010 7d e1 3c bd f1 9c 66 bc 16 d7 61 bd d2 49 9a 3d
       -0.04611348 -0.014075504 -0.055136763 0.07533611
000020 41 bd 72 3d 82 84 63 3b db e1 40 bd 6c 60 01 3d
       0.059262518 0.0034716432 -0.047090393 0.031586096
000030 fa 29 85 3d 3e 71 a9 bd bb 5c d3 bb 57 62 2b 3d
       0.06502147 -0.08273552 -0.0064502633 0.04184183
000040 5d 9c ff 3c 31 8a d4 bd cb e6 42 3c fb fd 8f bd
       0.03120249 -0.103779204 0.011895846 -0.07030865
000050 a0 a2 a5 3d 7c f8 5e bd 08 ec b8 3d 6f 0a f5 bd
       0.08087659 -0.054436192 0.090293944 -0.11964881
000060 f4 12 1d 3d 53 18 7d 3d e9 c4 fc bc 1f 70 64 3d
       0.038348153 0.061790776 -0.030855613 0.05577099
000070 be 33 9e 3c f1 03 16 3d f2 8b c2 bd 96 6f 05 bd
       0.019311782 0.036624853 -0.09499349 -0.03257712

c2.weight f4 [64, 32, 3, 3]
000000 9c 96 c0 bc 3f 88 e0 bc f2 c7 0c bb cc b5 77 bd
       -0.023509316 -0.027408717 -0.0021481481 -0.06047611
000010 8f d0 cb bc 1a 3d 9c bc 16 f2 b3 bd bd cd a6 bd
       -0.024879722 -0.019072104 -0.087864086 -0.0814471
000020 19 56 51 bd 92 92 04 3e 9b 35 ae 3d 17 1b 2d 3d
       -0.0511075 0.12946537 0.08506318 0.042262163
000030 ad 07 09 3e 89 32 f8 3d ec b9 d9 3d b4 39 ec 3d
       0.13381834 0.12119014 0.10631165 0.115344435
000040 4e 1e d8 3c 2f 91 9a 3d c4 cf c6 bd e8 ac a1 bc
       0.026381638 0.07547223 -0.09707597 -0.019735768
000050 19 29 27 bd f4 04 a3 bd 6f 28 cc 3c 42 60 c2 bd
       -0.04081068 -0.07959929 0.024921624 -0.09491016
000060 90 76 ce bd ba 57 4f 3c a6 2e ab bd ac 0c 22 3d
       -0.10081208 0.012655193 -0.08358507 0.039562866
000070 b5 b9 31 be dc 42 35 3d cc 8f f7 3b 90 eb 9a bd
       -0.17355998 0.044253215 0.0075549837 -0.07564461
000080 c6 b8 d1 bc f9 72 8b 3d ed 15 07 be e6 98 b7 bc
       -0.025600802 0.06809039 -0.13191958 -0.022411775
000090 5c 6c 25 bd 6e 59 d4 bd d8 9a 44 bd e2 0e fb bd
       -0.040386543 -0.1036862 -0.047999233 -0.12258698
0000a0 3b 65 a6 bd f8 66 41 bd cc 44 db bd fe e1 89 bd
       -0.08124777 -0.04721734 -0.10706481 -0.06732558
0000b0 b3 20 5c bd 69 60 b8 bd e3 24 e8 bd 3c 38 e1 bd
       -0.053742122 -0.09002764 -0.113351606 -0.10997054
0000c0 1a 2e 9c bd 2b 64 e7 bd 08 f9 64 bd 3b e7 08 be
       -0.07625981 -0.112984024 -0.055901557 -0.13369457
0000d0 17 50 14 be b6 6f f1 bd 6e 04 2c 3c 49 52 7e 3d
       -0.14483677 -0.11788885 0.010499103 0.062090192
0000e0 d3 1f 5a bd 69 80 fc bc bd b0 76 3d 81 b5 b6 bd
       -0.053253006 -0.03082295 0.060227145 -0.08921338
0000f0 95 48 8a bd f5 48 f0 3d b8 f4 c5 bd 6e 0d e7 bd
       -0.06752125 0.117326654 -0.09665817 -0.112818584
000100 52 53 88 bc 69 55 d8 bd b5 6f 79 bd e6 e1 50 bd
       -0.016641293 -0.10563166 -0.060897548 -0.050996684
000110 fe eb 12 be d9 57 66 bd 62 a0 08 bd bb a5 40 bd
       -0.14347836 -0.05623612 -0.033356078 -0.047033053
000120 0f 3e 06 bd aa d2 c6 bc 5b 33 51 bc c6 62 7a bc
       -0.032774027 -0.024270374 -0.012768592 -0.0152823385
000130 1b 2e 96 3d 5c e0 a9 bd a4 d7 50 3d b5 46 84 3b
       0.07333013 -0.08294746 0.0509869 0.0040367492
000140 4c 36 5f bd 81 c0 03 be 32 c3 ea 3c 25 24 46 3a
       -0.05449514 -0.12866403 0.02865753 0.00075584865
000150 01 62 3f bd 8d a1 44 3d fc b5 02 bd c7 c0 f9 3b
       -0.046724323 0.04800563 -0.031911835 0.007621858
000160 00 df ae 3c b6 bb 1a 3e ed e6 b5 3c 3c bc fd 3d
       0.021346569 0.15110669 0.02220484 0.123894185
000170 c5 95 98 3d 3f fb 2a 3b 0e 9e 8b 3d 8a 89 f0 3d
       0.07450441 0.0026089696 0.06817256 0.117449835
000180 c4 43 1e bc 4f 57 63 3d 9f 3f 6e 3d 96 24 e1 bc
       -0.009659711 0.055503186 0.058166143 -0.027483266
000190 08 07 e7 bd 62 9f 3f bd 14 00 d2 bb 0c d2 24 be
       -0.11280638 -0.04678286 -0.0064087007 -0.16095752
0001a0 a8 91 d0 bd 25 8a 0e bc 2f 5a a6 bd b7 9e ac bd
       -0.10184032 -0.008699928 -0.0812267 -0.0842871
0001b0 2a 7b 3d bd f7 ae fe 39 c7 f0 d0 bc 93 9b 1d 3c
       -0.046260037 0.00048577014 -0.025505437 0.009619611
0001c0 5a c8 94 bd 78 8f 0a bd 79 cb 79 bc 79 61 e7 bc
       -0.072647765 -0.03382823 -0.015246266 -0.02824472
0001d0 74 99 cf bd ee 1c c5 3d 17 fc a1 3b 20 9c b7 3d
       -0.10136691 0.096246585 0.0049433815 0.08965325
0001e0 1f 38 80 3d 5c d1 08 be 3c 72 b5 3c 31 d1 e3 3d
       0.06260704 -0.13361114 0.022149198 0.111238845
0001f0 85 c3 84 bd bc f3 5b 3d a2 39 d3 bd 81 5c c9 bd
       -0.06482605 0.05369924 -0.10313727 -0.09832097
000200 8e e1 0e bd aa 35 19 bb e5 b5 02 be df 24 c7 bc
       -0.034883074 -0.0023377934 -0.127647 -0.024309574
000210 2f fa 0e 3c 63 d2 a0 bd 3b 98 8a 3b 72 bb 7a bd
       0.008726641 -0.07852628 0.004229573 -0.061213918
000220 fd 6a 09 3c 2c bd 72 bd 93 0b 5d bd 1d 46 03 3d
       0.008387324 -0.05926244 -0.053966116 0.032049287
000230 92 10 83 bd 6f 43 b8 bc 1e e2 3a 3d 5d 3c cc bc
       -0.06399645 -0.022493092 0.0456258 -0.024931127
000240 60 cf 50 3d 55 99 f1 3c 4f f3 4d 3d d7 74 e2 bb
       0.05097902 0.02949206 0.050280865 -0.006910901
000250 0c 1d 9c 3d ae 3d a8 3c ad 0e 8f 3d fb 65 5a 3d
       0.07622728 0.020537224 0.06985221 0.053319912
000260 39 12 b2 3c 0e 62 a6 bd 3b 2e 44 3c 44 f2 2c bc
       0.021737205 -0.08124171 0.011973913 -0.0105558075
000270 9c 6d 94 bd 0f 3d 87 3d 2c 63 cd 3c a4 46 56 3d
       -0.07247469 0.06603443 0.025071703 0.052313462
000280 b8 20 07 3e c1 e8 0b bd 80 ed fc bc 65 19 82 3d
       0.13196075 -0.03415752 -0.030874968 0.063525
000290 d2 24 89 bd c5 7b a7 bd 31 d9 f4 3d 47 65 e7 bd
       -0.06696476 -0.08177904 0.119554885 -0.11298614
0002a0 67 b9 23 be bc 0e 06 3e 3d bc 74 bd 2a 68 cf 3d
       -0.15988694 0.13091558 -0.05974983 0.101272896
0002b0 18 8e 01 be fe 90 fb 3c c6 f2 14 3d b0 4a f8 bd
       -0.1265186 0.030708786 0.03636434 -0.121236205
0002c0 53 bf 1f 3d ab 3f 0a 3e eb 27 04 be 05 7d 1a 3d
       0.03900082 0.1350085 -0.12905852 0.037716884
0002d0 45 04 c4 bc 29 87 2a 3e db 0a a1 3c 08 bf 97 3d
       -0.023927817 0.16653122 0.019658497 0.07409483
0002e0 1d 3f 56 3e c5 d6 ed ba 98 bf bc 3c 64 8d 51 3e
       0.20922513 -0.0018145671 0.023040578 0.20464092
0002f0 fa a3 05 bd 18 68 cf 3d 24 f1 2a 3c f0 cc ad 3d
       -0.032627083 0.10127276 0.010433469 0.08486354
000300 d4 e1 b1 bc 2d d8 a3 3d 0d 4f 73 3d a2 7b c1 3d
       -0.021714129 0.08000217 0.05940156 0.09447409
000310 67 27 ba 3c a2 fe d4 3d df e7 ef 3d 82 f9 a4 3d
       0.022723867 0.1040013 0.11714148 0.08055402
000320 7a e2 c4 3d d7 ec 8a 3d 8e 94 8e 3d 16 86 e7 3d
       0.096135095 0.06783455 0.06961928 0.11304872
000330 82 46 be 3d 46 d0 aa 3c 57 c0 bc 3d c6 af 34 be
       0.09290792 0.020851266 0.092163734 -0.17645177
000340 47 31 6d bd 01 bf c3 bd 3e 8f ea bd 37 40 b9 3b
       -0.057908323 -0.095579155 -0.114531025 0.005653407
000350 5e f2 a2 bd d9 4e 03 be e8 aa be bd c4 c6 01 be
       -0.07956384 -0.12823047 -0.093099415 -0.1267348
000360 59 08 03 be dd b9 d5 3d f8 4f 03 be 8e d9 34 bd
       -0.12796153 0.10435841 -0.12823474 -0.04415279
000370 ec d4 90 3b 84 d3 0e be 29 fd d2 bc 82 df d5 3d
       0.0044199135 -0.13947874 -0.025755482 0.10443021
000380 f3 c8 9e bd de c6 17 bd 2b 69 0f 3d 38 4b 27 bd
       -0.07753172 -0.03705489 0.035012405 -0.04084322
000390 07 5d 95 bc 86 bb 49 3d cf a6 7b bd af 42 8d bc
       -0.018232835 0.049251102 -0.061438378 -0.017243711
0003a0 01 1e 21 bd 34 d0 ab bc be 76 33 be 15 ee 13 3e
       -0.039335255 -0.020973302 -0.17525765 0.1444629
0003b0 7e cb ea bb 8e ce 87 bd f2 31 e8 3d 45 17 9b bc
       -0.0071653714 -0.06631194 0.11337651 -0.018931994
0003c0 7e c7 d5 bd 96 4d f1 3d d4 6f e9 bd b8 67 88 3d
       -0.10438441 0.117823765 -0.11398283 0.06660408
0003d0 b8 29 45 be 78 59 95 3d 03 e0 7f 3a db 2b 2e be
       -0.19254196 0.072924554 0.00097608584 -0.17008917
0003e0 b5 17 83 3c 83 14 48 3d d5 d8 ad bd 83 1f 45 bc
       0.016002515 0.048847686 -0.08488623 -0.012031439
0003f0 ec d6 01 3e 19 2a 2a be 20 19 00 3e 03 a5 4e 3d
       0.12679642 -0.16617621 0.12509584 0.050450336

c2.bias f4 [64]
000000 42 92 2b bc 47 db be 3c 96 29 45 bd 2a eb b1 3a
       -0.010471882 0.023297919 -0.048135363 0.0013574113
000010 54 29 be bc 44 f2 68 bc a2 10 9e 3a e0 e2 cd 3c
       -0.023213066 -0.014217917 0.00120594 0.025132596
000020 0a 81 f2 bc c5 63 63 bd 04 5a 5b 3b 42 36 03 bd
       -0.029602546 -0.05551507 0.0033470402 -0.032034166
000030 74 41 f5 bc a3 03 a4 bd 74 bb 20 3c 5d c9 25 bd
       -0.029938437 -0.08008506 0.009810317 -0.040475238
000040 84 00 50 bc b0 ad fe 3b 03 1a 72 3d 17 3f 05 3d
       -0.012695435 0.00777217 0.059106838 0.03253087
000050 56 14 12 3c f0 f5 4f 3c e7 9e c8 ba af a3 ac bc
       0.008915981 0.012692913 -0.0015306146 -0.021074144
000060 22 1f 13 bd c3 4f f3 3c 0b 4f 00 bd c2 8c 57 bc
       -0.035918362 0.02970112 -0.03132538 -0.013156118
000070 43 70 3c 3d 41 fb 6b 3d a9 c2 82 3c 07 5d 08 bd
       0.0460055 0.05761266 0.015961962 -0.033291843
000080 c9 af af 3c a1 3f 81 3c b6 e2 0c bd cd 76 91 39
       0.021446126 0.015777411 -0.034395896 0.0002774507
000090 53 62 a1 bd 94 14 bc ba d5 35 4a 3c b7 49 43 bc
       -0.07880082 -0.0014349394 0.012341936 -0.01191943
0000a0 a7 77 5f bd e9 a8 9a bc d7 cd 8d 3d 01 00 95 bc
       -0.05455747 -0.01887937 0.069240265 -0.018188478
0000b0 32 36 ac 3c de 97 0b 3c 93 d8 2b bd d6 65 95 bc
       0.021021936 0.008520095 -0.04195459 -0.018237036
0000c0 c6 37 1e 3c ba 27 8f 3b 6b 8f 9e 3c 00 b1 e5 bc
       0.009656852 0.0043687494 0.019355496 -0.028038502
0000d0 be 57 ae bd 97 f0 08 3d db 16 2b bc 80 45 66 bd
       -0.08512829 0.03343257 -0.010442461 -0.056218624
0000e0 a7 9f b0 bd 5a c9 39 bd 76 13 1b 3d 14 b4 88 3c
       -0.08624201 -0.04535804 0.037860356 0.01668743
0000f0 be 82 cc bb 03 41 c4 bc 99 b3 1d bd b3 ec 88 3b
       -0.0062411716 -0.023956781 -0.038501356 0.0041786074

c3.weight f4 [256, 64, 3, 3]
000000 eb 16 50 3c 1c 79 1b bc f8 67 4f 3b ae 23 2b 3d
       0.012700777 -0.009489324 0.0031647664 0.041782074
000010 9b f0 98 bd ca ef 9c 3d 04 f5 34 3c 8b c2 ae bd
       -0.07467767 0.07662924 0.011044744 -0.085332
000020 53 3b 61 3d 42 12 82 3c a7 96 ab bb 7e 67 8a ba
       0.054988217 0.015877847 -0.005236465 -0.0010559408
000030 25 92 8c bc 40 9a c7 bb 72 64 21 bd b0 a8 65 bc
       -0.01715953 -0.006091386 -0.039402433 -0.014017269
000040 e4 73 67 bb 27 67 2e bd 6d 23 c1 3b c4 a1 b6 3c
       -0.003531688 -0.042578842 0.0058941157 0.022293933
000050 66 04 96 3c 86 b4 94 3d cd 7b e4 3c 41 7a b6 3d
       0.018312644 0.072609946 0.027891064 0.08910037
000060 72 28 dd bb a1 25 71 3d f2 83 53 3d b0 d0 94 bd
       -0.006749206 0.058873776 0.051639505 -0.072663665
000070 e7 22 2b 3a 74 7a 0e 39 1a 80 f7 bb 7f 3b 5a bd
       0.0006528333 0.00013587793 -0.0075531127 -0.053279396
000080 02 30 32 bc 8f cc 67 bd 68 a6 dd bc d0 8b 2b 3d
       -0.010875704 -0.056591567 -0.027056888 0.041881382
000090 3d 55 ca bc 32 92 ae bc a8 51 0d 3b fc 73 84 bd
       -0.024698848 -0.021309946 0.0021563563 -0.06467435
0000a0 de 6f 66 bd 6d 13 d0 3c fa 0a ef 3b 8d ea 4a bd
       -0.05625903 0.025399888 0.0072950097 -0.04954009
0000b0 64 ef 32 3d 81 ce 7b 3d df 66 57 3c b8 bc 1b 3d
       0.043685332 0.061476234 0.013147085 0.038021773
0000c0 32 2d 54 3c 48 74 3c 3c ad 9b f5 3c 95 87 10 3d
       0.0129502285 0.011502333 0.029981459 0.03528555
0000d0 10 22 cf bc de b9 44 3d e1 cd da bc 37 bb b1 bc
       -0.025284797 0.04802882 -0.026709499 -0.021695716
0000e0 aa c2 bd 3a 0b 8b fe bc 72 80 78 3d bb 36 41 3d
       0.001447757 -0.03107216 0.06066937 0.047171336
0000f0 d4 57 cb bc 3a 1f c7 3c 0e 63 56 3c b5 c7 06 bd
       -0.024822153 0.024306882 0.01308514 -0.0329053
000100 57 ef 16 3d e9 2d 4a 3d ab ac 9f 3c fa 86 b8 3c
       0.036849346 0.04936019 0.019491514 0.0225253
000110 e4 27 47 3d 86 a0 d1 3c b7 c7 fc 3c 3c fa 92 3d
       0.048622027 0.025589239 0.03085695 0.07176635
000120 72 55 cb bc c0 9f 11 bd f4 32 8f 3d dd b2 29 bd
       -0.024821017 -0.03555274 0.069921404 -0.041430343
000130 5f cd 42 bc 36 68 12 3b 04 27 ea 3c f7 9d 1e 3c
       -0.011889785 0.0022339947 0.028583057 0.009681216
000140 61 b7 a5 3c 3b 0c a5 bd f4 b4 08 bd 4b 1c c1 bc
       0.020229043 -0.080589734 -0.033375695 -0.023573061
000150 32 cb 83 bd fb a1 59 bc 6c f2 79 3b 54 99 2f bd
       -0.06435241 -0.013283248 0.003813888 -0.042870834
000160 ce 1f a8 bd dc 8f 13 3d 53 c4 22 3d 17 3c 18 3d
       -0.08209191 0.036025867 0.03973801 0.03716668
000170 14 4a 16 3d 6a d1 4b 3d 6a 16 5d bc bd 4f c7 3c
       0.03669174 0.04976026 -0.013494113 0.024330014
000180 81 71 48 3c c8 1b 8d 3c 4e 05 22 3d 16 b3 d6 bb
       0.012234093 0.017225161 0.03955584 -0.0065521104
000190 d5 13 da bb 67 fc 98 3b 95 ec 33 3c 19 6e c9 bb
       -0.006655196 0.0046687606 0.0109816985 -0.006147158
0001a0 e8 30 38 3d af 68 6d bd ab 45 60 bd 27 4f fe 3b
       0.044968516 -0.057961162 -0.05475394 0.0077609005
0001b0 eb e7 e7 bc 88 0d 5a bb 3a 1b 25 bb a1 4d fa 3b
       -0.02830883 -0.0033272225 -0.002519323 0.0076386486
0001c0 6e 0f eb 3c c3 42 31 bd 33 b2 dc 3c fc 39 d5 bc
       0.02869388 -0.04327656 0.02694044 -0.026028626
0001d0 1a e7 2a 3d 13 28 90 bc 6f 36 4d bc 7f b9 0f bc
       0.041724302 -0.017597234 -0.012525185 -0.008772253
0001e0 8f 12 70 3c e2 b1 ec 3b 5f d2 cd 3c eb eb 15 bc
       0.014652862 0.0072233537 0.025124727 -0.0091504855
0001f0 2e d6 44 bd 0c 68 7b b9 d5 1f 93 3c da d6 88 bd
       -0.04805582 -0.00023975986 0.017959515 -0.06681605
000200 e5 52 b9 bb 24 b9 e8 bb 9c bc e0 bc 5c 9d 78 bd
       -0.0056556338 -0.0071021486 -0.027433686 -0.060696945
000210 b7 fc 0d bd cf 51 97 3b 79 e7 7b bd 42 d6 37 3c
       -0.034664836 0.0046179066 -0.061500046 0.011220517
000220 3a 08 ab 3b 5e 36 f0 3c b5 b9 99 3c 65 f9 0a 3d
       0.0052194865 0.0293228 0.01876531 0.033929247
000230 55 f6 e1 3c 13 07 c1 3c f8 81 cc 3b c2 4a 53 bd
       0.02758328 0.023562944 0.0062410794 -0.051584966
000240 4a 2a d0 bc 2d 5c 27 bd e3 81 03 3d 81 a4 dc bc
       -0.02541079 -0.04085939 0.03210629 -0.02693391
000250 df 1d 0a bd 2a 85 11 3d 7d 72 cc bc 92 29 d7 3c
       -0.033719894 0.035527386 -0.024956936 0.02626494
000260 9d fb 2a bd 5a 20 b1 bd 97 a8 55 bc d7 01 1f 3d
       -0.041743863 -0.08648749 -0.013040683 0.038820114
000270 7b 0f b1 bd 6d e8 80 bd 7f 26 1c 3c ad c8 14 3c
       -0.08645531 -0.06294332 0.009530663 0.009081048
000280 fe 78 52 3d 16 17 5a 3d f1 ae 33 bc 04 1f e5 3c
       0.05138492 0.053244673 -0.010967002 0.027968891
000290 71 dd 87 bc 00 26 19 bc 6b d0 96 3b 8b 08 3d bc
       -0.016585084 -0.009347439 0.004602482 -0.011537681
0002a0 fa 2d da 3c a8 1d 73 bd e1 c7 81 bc 0b b9 83 3c
       0.026633251 -0.059354454 -0.01584238 0.016079446
0002b0 31 3d 23 bd 0d 8d 1f 3d aa ac 40 bd da 68 a0 bc
       -0.03985328 0.038952876 -0.047039665 -0.019581247
0002c0 d0 4f 6d 3c 30 5f ca bc d9 22 80 3c 01 7c 22 3d
       0.014484361 -0.024703592 0.015641617 0.03966904
0002d0 ac db 1e 3c 43 b6 c3 bc bf 90 63 bd 13 39 ff ba
       0.009695929 -0.02389062 -0.055557963 -0.0019471965
0002e0 9f 34 4c bd a9 31 5a bc b4 29 31 bc db 90 87 bd
       -0.04985487 -0.013317504 -0.010813165 -0.06619426
0002f0 67 a6 b6 bc 8d 2c 25 bc a7 61 82 bc 6a 43 32 3a
       -0.022296144 -0.0100814225 -0.015915705 0.00068002066
000300 42 f1 4a bd 34 f5 ec bc cc 9f 45 3d 34 9e d6 bc
       -0.049546488 -0.028925516 0.048248097 -0.026198484
000310 9a 04 04 bd 5e e0 e2 3c 2d a7 4b bd 37 bd 03 bc
       -0.03223095 0.027694877 -0.049719978 -0.008040718
000320 cc e1 2e bd c3 00 29 bd c4 78 b4 3b 6e ea 0e bc
       -0.042695805 -0.041260492 0.0055075604 -0.008722885
000330 4b 02 d5 3c 7e d2 46 bd c1 04 24 3d ad 59 1b 3d
       0.02600207 -0.048540585 0.040043596 0.03792732
000340 f8 e6 4e 3d d6 6b 16 3d e5 b3 49 3c 67 fb 60 3c
       0.050513238 0.036723934 0.012310957 0.013731814
000350 27 95 31 3d e6 c0 8d 3d 92 3b 8a 3d 02 64 f1 bb
       0.043355133 0.06921558 0.067496434 -0.007366658
000360 b3 92 1e bd a7 4b bf bd 10 7b dc 3b 2c fc cc bc
       -0.038714122 -0.093406014 0.0067285374 -0.025022589
000370 c4 fe 02 bc b1 bf fe 3b 67 64 9b bd 14 3d 57 bd
       -0.007995311 0.0077743162 -0.075875096 -0.052548483
000380 43 9d 46 3c 76 5b ef 3c 1f b4 2b 3c f1 24 75 3d
       0.012122455 0.029218417 0.010479956 0.059849683
000390 54 c9 80 3d 79 a8 13 bb 83 54 65 3d 81 6d 32 bc
       0.062884 -0.0022530837 0.0559888 -0.010890366
0003a0 44 40 99 3d 6e 68 6d 3d ea 91 91 bc 8f 95 81 bc
       0.07482961 0.05796092 -0.017769773 -0.015818385
0003b0 b0 1b 84 bc bc f3 a0 3c a6 a1 a6 bd 50 4c 89 3c
       -0.016126484 0.019647472 -0.08136301 0.016760021
0003c0 7a 94 f8 bb 1f d7 b4 bd ce e1 7f 3c d7 61 8f bd
       -0.007586059 -0.088300936 0.015617801 -0.07001083
0003d0 8a 78 b6 bc eb 48 1e 3d 51 6a a9 bc b6 96 e5 bb
       -0.022274274 0.03864376 -0.020680578 -0.0070064915
0003e0 91 a6 9c 3b c7 97 8c bd b7 dc e4 bc ad 64 0d bd
       0.0047805985 -0.06864887 -0.027937276 -0.03451984
0003f0 ab 03 10 bc 1d 6c 3a bd a3 b5 0f bd e7 cd 81 bd
       -0.008789937 -0.04551326 -0.03508533 -0.06338101

c3.bias f4 [256]
000000 82 13 ea 3c de 83 f1 3b 9a 87 13 bd 64 d4 e2 3b
       0.028573755 0.007370456 -0.03601799 0.0069222916
000010 02 c2 c5 bd 3a cc 7c bb 0d 62 bb bb ff 3d ad bc
       -0.09656145 -0.0038573877 -0.0057184757 -0.021147726
000020 1b cc 01 3c 36 71 0d bd ac 29 ce bc 72 12 08 bc
       0.007922198 -0.034531794 -0.025166355 -0.008305179
000030 f0 ef ad bb 97 02 b8 bc 9a 7f a1 bc fd 77 f9 bc
       -0.005308144 -0.022462172 -0.019714165 -0.030452723
000040 05 e9 85 bd 1a 31 a8 bc c1 4c 42 bd 50 2d 61 bc
       -0.065385856 -0.020531226 -0.04743648 -0.0137437135
000050 1b a2 9d bb 23 73 e6 bc ca 96 50 3d ca 9c 8b bc
       -0.0048105842 -0.028131073 0.050925054 -0.017042536
000060 28 15 38 3c 96 50 35 3d 2e 40 c8 3c 17 c0 78 bd
       0.011235513 0.044266306 0.024444666 -0.060730066
000070 93 9b b3 bb 9d 3f f7 bc 70 b4 a9 3a a3 f1 23 3d
       -0.0054811924 -0.0301817 0.0012947451 0.040025365
000080 38 f3 a0 bc 30 8d ca bc 1e 40 22 bc df 38 6f 3d
       -0.019647226 -0.024725527 -0.009902982 0.058403846
000090 7c 52 89 bd c7 5f 66 bd e6 7a 3b bc af c0 8e 3d
       -0.06705186 -0.056243684 -0.0114428755 0.06970345
0000a0 d3 b1 2c bd 7b d4 b2 bc a7 42 00 bd 50 e3 0b 3c
       -0.042161774 -0.021829834 -0.031313565 0.008538082
0000b0 a2 b8 0a 3d b4 fc 75 b9 b0 e9 07 3c 09 5f 76 bd
       0.033867486 -0.0002345916 0.008295462 -0.060149226
0000c0 2b 28 98 bc 59 41 a4 bd a8 42 04 bc 33 df f0 bd
       -0.018573841 -0.080202766 -0.008072533 -0.11761322
0000d0 60 f0 46 3d d4 57 d9 bc 71 ea 9f bc df cc 12 3c
       0.048569083 -0.026531138 -0.01952097 0.008959978
0000e0 72 cc 00 bc c7 c9 8b bd c6 01 65 bc 6b 05 9c bd
       -0.007861244 -0.06825595 -0.013977474 -0.07618221
0000f0 ef ef b7 bd 17 10 25 3c 39 60 10 3d 4a f7 b9 bc
       -0.089813106 0.010074637 0.035248015 -0.022700924
000100 31 35 a7 bc 58 5d a7 bc 0a 6e 21 bc 70 8c 5a 3d
       -0.020411106 -0.020430252 -0.0098528955 0.053356588
000110 7b 94 6b bd 91 c0 a2 bc 82 ee 8a 3c 54 6a 6a bb
       -0.05751465 -0.019867213 0.016959433 -0.0035768943
000120 db ac da bc 43 bf 28 bd b5 a8 4e 3d 1e e3 b1 bd
       -0.026693752 -0.041198026 0.05045386 -0.08685897
000130 7e f2 1a 3d fe de 6d bd 97 ec ce 3c 88 ba d0 bc
       0.037828915 -0.05807399 0.0252593 -0.02547957
000140 3b f7 85 bb af 17 13 bd a1 c9 85 3b 48 83 c1 bc
       -0.00408831 -0.03591126 0.004082874 -0.02362217
000150 ae 4c 08 bc 33 e4 7a bd 26 52 2a 3b 80 a5 4e bd
       -0.008319063 -0.061252784 0.0025988906 -0.0504508
000160 55 e5 af bd fd 09 9f bc 4c 48 29 bc c4 ac 81 bc
       -0.085886635 -0.019413942 -0.010332178 -0.015829451
000170 82 92 1d bd 07 2d cf bc 47 3b fc 3c 57 ba 70 bd
       -0.0384698 -0.025290025 0.030789984 -0.058771458
000180 d9 f9 2b bd dc 51 50 3d 1f 13 01 bd 36 7f 9f bc
       -0.04198632 0.050859317 -0.031512376 -0.019469839
000190 cc 5a 37 bd d0 d8 e3 bc 6a c2 01 bd e1 e8 a0 bc
       -0.044764325 -0.027813345 -0.03167955 -0.019642295
0001a0 bc 27 11 bd 4d d7 59 3d d0 b0 d2 bd a6 75 8c bc
       -0.035438284 0.053183842 -0.102876306 -0.017145943
0001b0 0c 60 91 bb 28 c5 f0 b9 37 b8 78 bd af b2 23 3c
       -0.0044364985 -0.0004592326 -0.060722556 0.009991332
0001c0 80 dc 42 bb 9f cb 81 bc fe 16 08 bc d9 de de 3c
       -0.002973348 -0.015844164 -0.008306263 0.027205871
0001d0 33 27 b3 bc ac 65 5a 3c 68 b7 5c 3d d4 22 b2 bc
       -0.021869278 0.0133299045 0.053885847 -0.021745123
0001e0 59 e4 c4 bc 13 53 d9 3b 52 dc cf bc ac fb a2 39
       -0.024034666 0.0066322177 -0.025373612 0.00031086558
0001f0 00 53 7c 3c 30 a7 83 bc 36 ac 5c 3d c3 06 12 3d
       0.015400648 -0.016070932 0.05387517 0.03565098
000200 f3 b0 97 3d c7 1a c6 bc 03 31 44 bd 7c d9 4e 3d
       0.07406797 -0.02418269 -0.047898304 0.050500378
000210 c3 58 09 3d b7 bb fb bc 9f f7 41 3d 6b 5e 12 bd
       0.033531915 -0.030729158 0.04735529 -0.035734575
000220 68 1e dd 3c 48 5c 92 bd b2 4c 4b 3d 74 85 37 bb
       0.026992038 -0.071465075 0.04963369 -0.0028003128
000230 5b 52 0f bc ca 00 40 bd 12 f5 78 3c 3a b0 de bb
       -0.008747662 -0.046875753 0.015195148 -0.00679591
000240 5e fd d7 3c 58 cd 49 bc b6 2c 5e 3c de f5 6e 3d
       0.026365932 -0.012317024 0.013560465 0.058339946
000250 89 b6 50 bd 66 6d 14 3d 2f 97 6e 3d 0e e7 b6 bc
       -0.05095533 0.036237143 0.05824965 -0.022326972
000260 95 0c e5 bc 7c e3 e8 ba 58 69 0e 3c d9 9f 72 bc
       -0.027960101 -0.0017767991 0.008692108 -0.014808618
000270 67 91 6e 3d 94 f7 9e 3c 0f 67 6f 3d f6 90 01 bd
       0.058244135 0.019405164 0.058447894 -0.031632386
000280 8f 0c d1 bb 46 d2 c6 3b 6b 60 99 bc 6b 90 06 3d
       -0.006379671 0.006067547 -0.018722733 0.03285257
000290 74 4e ac bc a8 d5 87 bd 93 0a 72 bc ca 70 c8 3c
       -0.021033503 -0.066325486 -0.014773029 0.024467845
0002a0 75 c3 70 3d a8 09 b1 3c b8 b8 81 bc 56 9e b8 bc
       0.058780152 0.02161105 -0.015835151 -0.022536438
0002b0 7e ca 2f bd 21 2a b5 3c 6d 1c 48 3d 1f 37 38 bb
       -0.04291772 0.022114815 0.048855234 -0.0028109027
0002c0 1c 8d 53 bd c5 6b 91 bd e4 47 16 3c 81 c3 5f bd
       -0.051648244 -0.071006335 0.0091724135 -0.054629806
0002d0 d1 52 ea bc 5d 9a 30 bc 7e 01 73 3d 43 fe b4 bc
       -0.028603943 -0.010778991 0.059327595 -0.022093898
0002e0 0a 31 c0 bd 49 01 d4 ba c6 bc a9 3c 85 9a 1d 3a
       -0.093843535 -0.0016174699 0.020719897 0.00060121
0002f0 de 77 11 3d ed 6f 6b 3d ce ca 1c 3d d2 02 b7 3c
       0.035514705 0.057479788 0.038279347 0.022340212
000300 59 24 85 bc f6 91 1c bd f6 34 32 3c bd d9 cd 3c
       -0.016252683 -0.038225137 0.010876885 0.02512824
000310 83 f4 13 3d 7d b8 c3 bc 8d 19 d9 bc c1 f0 c5 bb
       0.036121856 -0.023891682 -0.026501441 -0.006040663
000320 e6 87 62 3d 70 48 4a bd e9 e2 5c bc a4 6e 25 3d
       0.055305384 -0.049385488 -0.013481834 0.04038872
000330 71 24 01 bc 0c 9c 7f 3c d2 ca c7 bc f9 47 e9 bc
       -0.007882223 0.015601169 -0.024388704 -0.028476702
000340 4b 95 4f bc 86 bc 04 bb a2 e6 2e bd ae ee 04 bd
       -0.012669872 -0.002025397 -0.042700417 -0.032454185
000350 bd ea 80 3b a8 21 24 3d b8 11 6e 3d 15 ab 23 bd
       0.003934233 0.04007116 0.058122367 -0.03995808
000360 08 e8 e9 3c 73 26 fc bc 1f 77 08 3d 3b f3 c9 3c
       0.028553024 -0.030780053 0.033316728 0.024652114
000370 38 29 ef 3c 42 82 31 bd 9e 25 5c 3d ed 8e e7 bc
       0.02919446 -0.043337114 0.053746812 -0.028266395
000380 83 bf fa 3b b0 22 25 3d 28 45 ce bd e2 90 aa bc
       0.0076522245 0.040316284 -0.10071784 -0.020821039
000390 59 46 1d bc 2c 4f 2c 3d 9b f6 84 3d 68 e5 12 3c
       -0.009599292 0.04206769 0.06492349 0.0089658275
0003a0 87 2a 03 bc 28 e2 ae 3d 1a b4 8f bb 61 22 86 bd
       -0.008005745 0.0853923 -0.0043854835 -0.06549526
0003b0 0f 82 73 bc 69 4f a6 3c 36 a1 94 3b b5 56 3f bd
       -0.014862551 0.020301538 0.0045358194 -0.04671355
0003c0 3b e1 22 bd 53 7d 5a bc 98 5d 1c bc cf 45 ec bc
       -0.039765578 -0.013335544 -0.009543799 -0.028841881
0003d0 42 78 c4 3b 29 38 17 bb 2c 55 36 3d df 55 74 bb
       0.005995781 -0.0023074246 0.04451482 -0.0037282628
0003e0 fb 8b ee bc 42 02 a6 bb a8 ca 91 bd e6 6d c9 bc
       -0.029119482 -0.005066187 -0.07118732 -0.024588536
0003f0 26 cd a3 3b 9a 9a a9 3c e0 84 b4 3b 90 ea 75 bc
       0.004998821 0.020703603 0.005509004 -0.015009537

fc1.weight f4 [64, 256]
000000 36 67 ed bc 30 7a 00 3d ff e1 5c bc da 48 73 bd
       -0.028979879 0.031366527 -0.013481616 -0.05939565
000010 6c 56 17 bc 40 3d 06 bc fc 3d f4 b8 69 09 62 bd
       -0.009236913 -0.008193314 -0.00011646372 -0.055184755
000020 03 81 41 bc 86 cf 1a 3d 15 28 fa 3c 82 56 29 bd
       -0.011810544 0.037795566 0.03053669 -0.041342266
000030 63 24 5c 3d 6b ae 7f bd 3a ef 2a 3d 9d 77 82 bd
       0.05374564 -0.062422197 0.04173205 -0.06370471
000040 fc 26 86 bb 8c b3 ed bc 11 92 fa bc d5 7b 14 bc
       -0.004094003 -0.029016279 -0.030587228 -0.009062727
000050 97 00 11 bd 22 b1 5d bc 8f 9e 64 3d 92 90 79 bc
       -0.035400953 -0.013531001 0.055815276 -0.015232222
000060 b7 ee 03 3d dc b2 3e 3c 87 f7 32 bd fe 9f 10 3d
       0.032210078 0.011639323 -0.04369309 0.03530883
000070 b9 b6 6a 3d e6 fc 08 3d 51 fc 3f 3d e5 3e 55 3d
       0.057303164 0.033444308 0.046871487 0.052061934
000080 ac 70 fd bc f6 cc 67 bd 3c b3 41 3c 74 26 3d bd
       -0.030937515 -0.05659195 0.011822518 -0.04617925
000090 b9 31 1b 3c f0 82 67 3d da e5 2f bd 6f a9 5a bd
       0.009472304 0.056521356 -0.042943813 -0.05338424
0000a0 ba 47 05 bd c3 e8 8c 3c 51 76 51 bd e3 4f 7b 3a
       -0.032539107 0.017200833 -0.051138226 0.0009586794
0000b0 3a 17 41 3c 61 e7 bb 3b 4b e4 c6 bc 6a a1 92 3b
       0.011785323 0.0057343696 -0.02427878 0.0044748085
0000c0 81 99 7c 3a 5b 63 c6 3c 91 7c 61 3d 21 b1 2e bd
       0.0009635911 0.024217298 0.055050436 -0.042649392
0000d0 8e 39 32 bd 0e d5 f3 ba 0d 63 1a 3d d1 2c f6 bc
       -0.04351192 -0.0018602924 0.03769212 -0.030050667
0000e0 63 e7 30 3b 33 06 68 bc ea b8 4d 3d c5 3e 91 3c
       0.0026993386 -0.014161634 0.050225176 0.017730126
0000f0 7f 3b f2 3c 77 39 72 bd 18 0b 6d 3a eb e6 16 3c
       0.029569386 -0.059136834 0.00090424856 0.009210329
000100 a5 f3 f9 bc 08 9c 7b bd 0c fd bc 3c 5b 91 75 bc
       -0.030511687 -0.0614281 0.02306988 -0.014988269
000110 70 7b 10 3d 7d c9 18 3c 7d a1 2b 3c d3 5d 40 3d
       0.03527397 0.009325382 0.0104755135 0.046964478
000120 e1 c3 d1 bb 2e 0f 88 3c 03 8a b3 bc 96 1c 1f 3d
       -0.0064015244 0.0166088 -0.021916395 0.03884562
000130 bf d0 ef 3c 98 cc f7 3c 99 70 1e 3d 63 37 4b 3d
       0.029274343 0.030248925 0.0386816 0.049613368
000140 ab 62 ae 3c e1 ca 15 bd cb 9f ba 3c be 8c 70 3d
       0.021287283 -0.036570434 0.022781273 0.058727972
000150 1a 98 57 3d 11 c4 a6 3c 3d 2a 41 bd 33 9c 66 bd
       0.05263529 0.020357164 -0.047159422 -0.056301307
000160 b5 bc 2b bd b5 ca 4d bd 9c 5d 84 bb c3 15 a0 3b
       -0.041928012 -0.050242145 -0.0040394794 0.0048854067
000170 bb f5 25 3d 37 a5 bf bc 2b bd 67 bd e1 ca 5c bc
       0.04051755 -0.02339421 -0.05657689 -0.0134761045
000180 9e b2 b4 3c 6a a0 ae 3c 83 49 65 3d c8 32 a6 3c
       0.022057828 0.021316726 0.05597831 0.020287886
000190 bd 46 04 bd 94 17 0d 3d 14 ba 73 bd a0 6a de 3b
       -0.032294024 0.034446314 -0.05950363 0.006787613
0001a0 c7 4d 5f bd e9 9e 60 3d c5 dc 7a bb 37 e0 89 bd
       -0.054517534 0.05483905 -0.0038278562 -0.06732219
0001b0 85 13 27 bd e1 7d 1a bd fe 9f cf 3a 42 82 ea 3c
       -0.0407901 -0.037717704 0.0015840528 0.028626565
0001c0 01 dd 4f 3d 6b 8f b4 bc ed 09 24 bc d5 5b 5f bc
       0.050747875 -0.022041043 -0.010012132 -0.013632734
0001d0 56 e5 87 bd a1 a9 cc bc 7a 8f c9 3c c8 7e d4 3c
       -0.06635539 -0.02498323 0.024604548 0.02593936
0001e0 1b 21 91 3a c2 80 57 bd 51 75 21 3c 30 fb 4d 3d
       0.0011072488 -0.052613027 0.009854631 0.05028838
0001f0 77 95 ad bc 8e 22 52 bd fd 46 cd 3b 44 1a 72 bc
       -0.021189434 -0.051302485 0.006264566 -0.01477677
000200 d6 5c ff bc 62 21 5a bd e7 44 b3 3b 66 78 2e 3c
       -0.031172197 -0.053254493 0.0054708603 0.010648822
000210 ce c6 fc 3a 21 78 80 3c ce 36 b5 3c d7 d9 5b 3d
       0.0019285323 0.015682282 0.02212086 0.053674545
000220 1c 16 ec 3b 3b c2 31 3d b8 da 64 bd bc 5c e9 ba
       0.007204784 0.043398123 -0.05587265 -0.0017804126
000230 a9 bc 31 3d 34 78 45 3d 44 84 13 bd 27 69 a0 3c
       0.04339281 0.048210338 -0.03601481 0.01958139
000240 e6 90 21 3d 2a 94 bb bc 45 76 95 bc ef b0 45 bd
       0.039444827 -0.022897799 -0.018244872 -0.04826444
000250 d0 10 6c bc 66 28 ca 3c 82 1a 95 3c cb a8 78 bb
       -0.014408305 0.024677467 0.018201116 -0.0037942405
000260 9d 8e 1b 3d 61 86 f9 bb 9c 3f a9 bc 00 cf e8 3c
       0.037977803 -0.007614896 -0.020660214 0.028419018
000270 37 7e 60 3d e6 70 1b 3d 0c 5e 2f bd c9 2a 2a 3d
       0.054807868 0.037949465 -0.0428143 0.04154471
000280 d1 e0 d9 bc 47 3a 3d bc 38 37 4d bd b8 e8 f0 3b
       -0.026596459 -0.011549539 -0.05010149 0.007351961
000290 0b 8a aa b9 3e 27 6a bc 91 c8 d5 bb b4 b7 b3 bc
       -0.00032527777 -0.014291583 -0.0065241535 -0.021938182
0002a0 78 30 03 3d 03 db ec 3c 4f be 06 3d 9f 97 3e bd
       0.032028645 0.028913027 0.032896336 -0.046531316
0002b0 4b f1 78 bd c2 ef 2d bc bc 52 4a bd 7e bf 3a bd
       -0.06077699 -0.010616245 -0.049395308 -0.045592777
0002c0 c6 04 f2 bb 10 13 53 3d c2 1c bb bc 74 7b 69 bd
       -0.007385823 0.05153185 -0.022840861 -0.0570025
0002d0 bd 91 19 3d 26 e8 1b 3c c3 63 36 3d 6c 4b ca 3c
       0.037492502 0.009515798 0.044528734 0.024694167
0002e0 9a f3 cb 3c e0 0a 62 bd d8 98 64 3b 5d b1 16 bc
       0.024896432 -0.055186152 0.003488114 -0.00919756
0002f0 10 85 9a 3b 6e e7 83 bd 84 8b f7 bc 57 d5 06 bd
       0.0047155693 -0.06440626 -0.030217893 -0.0329183
000300 e4 1d 5a bd 02 58 53 bc 6b a3 74 3c 58 e7 47 bd
       -0.053251162 -0.012899401 0.01493154 -0.04880461
000310 a8 6c 24 bd 0a 6b 33 3d 98 8c 5f bd dc 0e 2c bd
       -0.040142685 0.043803252 -0.05457744 -0.04200636
000320 59 37 4f 3d cf 34 36 bd 31 16 d8 3c 70 68 d4 3c
       0.050589893 -0.044483956 0.02637777 0.025928706
000330 b2 17 b1 ba 2c 00 ba 3c 76 89 08 bd 72 59 d6 bc
       -0.001351109 0.02270516 -0.033334218 -0.026165698
000340 92 16 38 3d 99 a4 d2 bc ca 46 3b 3d 46 80 c1 bc
       0.0449434 -0.025713252 0.045721807 -0.023620736
000350 db 79 2e bd 0c e1 d2 bb f7 dc 5d bb e0 c1 f0 ba
       -0.04259668 -0.006435519 -0.003385363 -0.0018368326
000360 32 2a c6 3b e0 2d f3 bb 7b 24 0f 3d 01 f3 46 bd
       0.0060475105 -0.00742124 0.0349469 -0.04857159
000370 12 e9 0a bc d0 e5 50 bd 6c 21 33 3b e4 28 97 bc
       -0.00847842 -0.051000416 0.0027333153 -0.018452115
000380 6e 3b 64 3d 83 86 1e 3d 05 fb 16 bd 54 2b 70 bd
       0.05572074 0.0387025 -0.036860485 -0.05863507
000390 dd 42 1e 3d ec 3e 2a 3b 7d f7 1d 3c 25 7e 72 3c
       0.038637985 0.0025977446 0.009641525 0.014800583
0003a0 5c 8a be 3c a4 24 c2 bc df 22 1a bd a0 b2 88 bc
       0.023259334 -0.023699112 -0.037630912 -0.016686738
0003b0 0d c9 aa 3c 98 35 90 bc 90 c7 6b bd 86 c1 35 ba
       0.020847822 -0.01760368 -0.057563365 -0.0006933439
0003c0 89 65 f3 bc c1 43 56 bd 3d d1 86 bd 05 f8 2c ba
       -0.029711502 -0.05231071 -0.06582878 -0.0006598237
0003d0 5e ce c4 3c 26 27 42 3d cf 5e 2f 3c ee 08 e4 bc
       0.024024185 0.047400616 0.0107037565 -0.02783629
0003e0 c2 b5 03 3d f7 b2 17 bc e4 34 bf bc 61 38 55 3c
       0.03215576 -0.009258977 -0.02334065 0.01301393
0003f0 dc 38 ad bc e7 3e 0f bd 6f b0 7a bc 23 0e 58 bd
       -0.021145277 -0.034972098 -0.015300854 -0.052747857

fc1.bias f4 [64]
000000 bd 43 97 3c 0e da dd 3c 0a b5 31 3d 5a b7 00 3d
       0.018464917 0.027081516 0.043385543 0.031424858
000010 28 dd 13 3c 71 9a 1f 3c 1c 36 69 bd 95 48 2f bd
       0.009024896 0.009741412 -0.05693637 -0.04279383
000020 9c 58 41 bc 7c 9f 34 bd 20 56 82 3c 62 c3 76 3d
       -0.011800911 -0.04409741 0.015910208 0.060244925
000030 69 ff 63 bd d5 9c 82 3d bb fc f9 3c db bb 11 bd
       -0.0556635 0.063775696 0.03051602 -0.035579544
000040 96 a9 80 3c 89 35 bc 3c 1a ff 39 bc 82 82 31 bc
       0.015705865 0.022974746 -0.011352325 -0.010834338
000050 d2 8a ac 3c 19 51 f2 3c 72 06 33 bd 0f 23 c9 bc
       0.021062288 0.029579686 -0.04370732 -0.02455285
000060 a6 6b a5 bc 5c 60 b5 3d ee ee 3e bd d1 24 76 bd
       -0.020192932 0.0885627 -0.04661458 -0.060093705
000070 59 65 f2 3b e5 36 dc 3c 18 57 a4 3d 66 93 94 3d
       0.0073973355 0.026881645 0.08024424 0.072546765
000080 80 6f df 3a 6a 63 80 bc d9 91 65 bc 4a cb b1 3d
       0.0017046779 -0.015672404 -0.014011824 0.086813524
000090 6b d4 34 bd be 1f f0 bc 75 e7 3b 3d 7a f3 78 bd
       -0.04414789 -0.02931201 0.04587503 -0.060779072
0000a0 ce 72 17 bd b8 05 ec bc 1b 11 60 3d 17 dc 8b 3c
       -0.03697472 -0.02881132 0.054703813 0.01707272
0000b0 dd 0a 05 3d 20 ac 7b bd 74 2a 2f bb 99 ba 96 3d
       0.032481063 -0.061443448 -0.0026728185 0.073598094
0000c0 ee 17 57 bd e0 41 4e 3d 6a d1 9b ba 76 21 6a 3c
       -0.052513056 0.050355792 -0.0011887972 0.014290204
0000d0 e4 b9 3e bd 5a 5f d6 3c 61 6c 03 bd 6f e3 41 bd
       -0.046563998 0.026168514 -0.03208578 -0.04733604
0000e0 d6 fe 04 bc 30 a3 db bd 10 66 cb 3b 24 c0 05 bd
       -0.008117398 -0.10724485 0.006207235 -0.032653943
0000f0 f6 5e 48 bd f8 7e 65 3d 7f 71 9b 3c 4d 27 50 3d
       -0.048918687 0.05602929 0.018975018 0.05081873

fc2.weight f4 [5, 64]
000000 ac 6a 8d bd 47 9b 3a 3e 41 e0 f5 bd 65 a6 13 bd
       -0.06905112 0.18223296 -0.12005664 -0.036047358
000010 36 b4 a4 bc 04 9f 16 be 00 5e e7 b9 70 c9 05 be
       -0.020105463 -0.14709097 -0.0004412979 -0.13065124
000020 c2 22 9f bd 94 db b5 bd 58 87 a8 3d 91 ad f7 3d
       -0.077703014 -0.08879772 0.0822894 0.12093652
000030 22 d0 c5 3d 8c be fb 3d 5e 4a 26 3e e9 53 24 bc
       0.09658839 0.12292203 0.16239306 -0.010029771
000040 f4 c6 1e 3d 15 b2 79 3e 53 55 40 3e 7a 8b f9 bc
       0.038763955 0.24384339 0.18782549 -0.030462015
000050 4a 3f b8 bc 70 6b db bd 6b 94 dc 3d 13 3b b9 3d
       -0.022491116 -0.107138515 0.10770496 0.09044471
000060 ab 75 28 3d 91 76 23 bd 7f ac ba 3d 4b 8c b9 3c
       0.041127842 -0.039907996 0.09114932 0.022649905
000070 0f b6 14 be 53 1a ba bd a2 6b ab 3d 7e fe f6 bd
       -0.14522575 -0.09087052 0.08370139 -0.12060259
000080 2c 47 2c 3d 86 86 d2 3d 71 97 77 bc 2a b6 0c 3e
       0.042060062 0.102795646 -0.01511179 0.13741365
000090 48 10 49 3d 84 32 70 bd f6 1e 8a 3d 00 78 c7 b9
       0.049087793 -0.058641925 0.067441866 -0.00038045645
0000a0 33 4f bb bd 75 09 34 3c 5c 0f be 3d 68 8c 6f bd
       -0.091459654 0.010988583 0.09280273 -0.05848351
0000b0 ce 3e 0c be e8 62 27 3d 18 bb f7 bd ac a8 1d 3e
       -0.13695833 0.04086581 -0.12096232 0.15396374
0000c0 bc fd b2 bd 6a 2f f0 3d 67 a8 a0 3d d8 0f bc bd
       -0.08739802 0.117277935 0.0784462 -0.091827095
0000d0 2f 38 d3 3d 31 5e 93 3d 31 2b ce 3d 0c 41 0f bd
       0.103134505 0.071957 0.10066832 -0.034974143
0000e0 3f 97 58 3d e4 21 2a bd 54 c5 54 bc 70 ce fd 3c
       0.052878615 -0.041536227 -0.0129865 0.030982226
0000f0 7c a9 a9 bd 13 4d 33 3d ff a6 ea 3d ec a4 29 3e
       -0.0828428 0.043774676 0.11457633 0.16566819
000100 7d 40 b5 3c 1c ce 8f 3e 59 e9 ea bd 27 90 f2 3d
       0.022125477 0.28086936 -0.11470289 0.11843901
000110 a2 89 ab bd 92 fa 83 bc 38 c7 d1 3d 9c 44 94 3d
       -0.08375861 -0.016110692 0.10243076 0.07239649
000120 d5 99 59 3d 8a cf a4 bd 15 c1 54 3d 01 77 4d 3e
       0.05312522 -0.080473974 0.05194195 0.20064928
000130 e2 7d cd bd a8 42 68 bd d8 24 9e bb b4 7b d3 bd
       -0.10033776 -0.056704193 -0.0048261695 -0.10326329
000140 ae a0 b3 3c 98 31 a4 3c ad 13 24 bd 7a 25 f3 bc
       0.021927204 0.02004318 -0.040057827 -0.029680956
000150 05 05 04 3d ad 8b 84 bd 3d 24 df bd 28 98 7f bd
       0.03223135 -0.064719535 -0.10895584 -0.062400967
000160 91 fc ac bd 72 41 6c 3c f4 43 9e 3d 23 1b 17 bd
       -0.08446611 0.0144199 0.07727805 -0.036891114
000170 3c 41 bb bd 71 52 ea 3c 36 14 8e 3d 7b ba 67 bc
       -0.09143302 0.028603764 0.06937449 -0.0141435815
000180 12 cc 97 bd 4a 2f 8c 3d a8 1c c5 bd cb 84 cd 3d
       -0.0741197 0.06844957 -0.09624606 0.10035094
000190 fd bf 73 bc 1e fe 3b bd b4 78 3d 3c ac 4b 3a 3d
       -0.014877317 -0.045896642 0.011564422 0.045482323
0001a0 30 5f 70 3c 68 3f a8 bc ce d5 bf 39 4f e4 7a 3d
       0.014671132 -0.020538047 0.00036589656 0.06125289
0001b0 70 1a 03 3e 96 0a 88 3d 04 b1 b2 3d f1 59 59 3d
       0.12803054 0.06642644 0.08725169 0.05306429
0001c0 10 c5 3e 3d 84 16 69 3d 65 cf 93 bd 41 90 a5 3d
       0.046574652 0.05690624 -0.07217292 0.08084155
0001d0 8a 45 1d 3d 4c 33 1c 3d da fe 09 3d 80 c8 59 3b
       0.038396396 0.038134858 0.03369031 0.003323108
0001e0 49 ef 54 bc 16 5f c1 3d 9d 27 f2 3d 24 bf 84 bd
       -0.012996503 0.09441964 0.11823962 -0.0648177
0001f0 a0 32 ed bc 28 50 9b 3e 2c f5 c4 3d ee fb 09 3d
       -0.028954804 0.30334592 0.09617075 0.033687524
000200 7f ef 71 bd 8b 02 7f bb c7 8c 5d bd 06 53 99 3d
       -0.059066292 -0.0038911428 -0.054089334 0.074865386
000210 a7 43 12 be 90 1e 06 3d 40 7e 9e bc 95 29 91 3d
       -0.1428362 0.03274399 -0.01934731 0.07088009
000220 d2 59 53 bd 0a e6 94 3d 2b 11 d3 bd b7 d0 c5 3d
       -0.05159933 0.07270439 -0.10306009 0.0965895
000230 3c 53 db 3c 3f 62 97 3d 43 11 0d 3e b0 c3 a2 bd
       0.026773088 0.07391786 0.13776116 -0.07947481
000240 07 b8 f2 3c f3 68 dc bd 4a 35 4a be 69 0d 5f 3d
       0.029628767 -0.10762205 -0.1974689 0.05445615
000250 53 a1 b7 3d 5c be 84 bc 33 b1 8d 3c 33 c6 72 3d
       0.08966317 -0.016204052 0.01729641 0.05927105
000260 93 43 93 bd 6f 1e 63 3d ac c4 20 3d 27 44 f5 bd
       -0.07190623 0.055448946 0.03925006 -0.1197589
000270 c1 eb be 3d 41 62 e6 3d 81 e7 12 3e c6 2e 96 3b
       0.0932231 0.11249209 0.14346124 0.0045832125
000280 5c 83 86 3d ed f2 4c 3d 6a dd a6 3d 5f 0f 16 3e
       0.065680236 0.05003636 0.081477 0.14654301
000290 7c a1 3a bd a8 80 69 3d 8a b7 e2 3d b2 d3 ed 3d
       -0.04556416 0.05700746 0.110701635 0.11612643
0002a0 2d 86 9a bd 89 30 2d bd 3b ce 9a be fa 8f d7 3c
       -0.07545123 -0.042282615 -0.30235466 0.02631377
0002b0 2b a2 53 3d 68 4d 92 3c bf 08 ca bd 25 da 09 bd
       0.051668327 0.017859176 -0.098649494 -0.033655304
0002c0 b6 9a ad bd 58 7a 44 3e de b7 9b bd 95 10 92 bd
       -0.084767744 0.19187295 -0.07603429 -0.07132069
0002d0 83 ab d3 bc 6b a9 a8 bd 8e 46 48 3d a8 6a f3 bc
       -0.02583862 -0.08235439 0.04889541 -0.029713944
0002e0 f7 eb d4 bb bc 3b c2 bd 8a 7c 84 bd 30 be 07 bd
       -0.0064978558 -0.0948405 -0.064690664 -0.03314036
0002f0 f3 34 5e bd 5e 0e 7c 3d 88 ee 11 3c a4 45 04 3e
       -0.054249715 0.06153714 0.008906968 0.12917191
000300 40 26 f0 3d cd 64 2c 3d c2 66 15 be a5 25 ac bc
       0.117260456 0.04208832 -0.1458998 -0.021014044
000310 15 e2 8c 3d 10 8a f3 bd 84 52 c9 3d 69 2b d7 bd
       0.06879059 -0.11891568 0.09830192 -0.10506327
000320 a7 80 9a bd 18 bb 5b bd 2e d7 19 3d ad 71 6a 3e
       -0.0754407 -0.053645223 0.037558727 0.22894926
000330 34 08 61 3d 49 6b 8a 3d 18 20 af 3b 23 bd 85 3d
       0.054939464 0.06758744 0.005344402 0.065302156
000340 d6 b1 a4 bd 8a f1 90 bd b6 61 ea bd de 26 0c be
       -0.08041732 -0.0707732 -0.11444418 -0.13686702
000350 a5 48 c2 3c e2 58 81 bd 09 82 24 3d 2f ae ed 3c
       0.02371628 -0.06315781 0.040163074 0.029013721
000360 49 a0 99 bd ea e1 33 3e fc f8 54 bd bb fd b0 bb
       -0.07501275 0.17566648 -0.051995263 -0.005401341
000370 b1 d4 78 3d 8f c4 59 bd df 18 84 3e 8d 1c 96 bd
       0.060749713 -0.05316597 0.25800225 -0.073296644
000380 20 5c b7 3d fa 4f 3a 3d a7 a7 ef 3d 6f 86 e9 3d
       0.08953118 0.045486428 0.11701899 0.11402594
000390 69 39 8b bd 8c 6b 8d bd 81 e5 3c bd 24 f2 cb bd
       -0.067980595 -0.069052786 -0.04611731 -0.09958294
0003a0 08 68 f7 3b b0 0c 5e bc 3b 9e d0 bc 04 3a d3 3c
       0.0075502433 -0.01355283 -0.025466075 0.0257845
0003b0 c4 72 e4 3d de 37 d8 3d 02 f2 d6 3c be 73 ac 3d
       0.11154702 0.10557531 0.026238445 0.084205136
0003c0 58 b3 da bc 3d 9a cc 3b d0 9e 26 be aa d8 12 3e
       -0.026696846 0.0062439726 -0.1627152 0.14340463
0003d0 30 a8 91 bd 65 b1 f3 3d 91 2a 13 3d 65 fb a4 3d
       -0.07112157 0.1189907 0.035929266 0.08055762
0003e0 f2 16 ed bc cf 18 31 be f3 33 d8 3d d8 37 ce 3c
       -0.028941605 -0.1729462 0.105567835 0.025173113
0003f0 40 0c 0f bd a3 23 9d 3d 0a bd f9 bd 3e 11 8d 3c
       -0.034923792 0.07672813 -0.121942595 0.017220136

fc2.bias f4 [5]
000000 80 e3 f7 bc 62 ea 0f 3d 4c 2d c8 bb ff 7f 9b bd
       -0.030259848 0.035135634 -0.0061089154 -0.07592773
000010 d8 1a 15 3d
       0.036402553
