SimpleQMIX_CNN_blox_VaryingEnemies/agent3_81.pth (torch, 745108 bytes, 10 tensors)

c1.weight f4 [32, 8, 3, 3]
000000 58 98 3d 3d 16 4d a1 3d 01 7c fa bc 92 55 2b bc
       0.046287864 0.07876031 -0.030576708 -0.010457413
000010 30 c3 b2 bd 17 4d 3d bd 4f ce 97 bd 39 74 a5 bd
       -0.08728635 -0.046216097 -0.07412397 -0.08078808
000020 15 c8 3d bd 5a 3c 60 3d 37 0e 82 3d 66 11 61 bc
       -0.04633339 0.054745056 0.063503675 -0.013737058
000030 5e 52 ec bd 2c 37 e2 bd b8 c7 25 3e cb 16 c3 bd
       -0.11539148 -0.110456795 0.16189468 -0.09525832
000040 43 94 d7 bd a5 e0 05 3e ae e3 0c 3d 3a 68 70 3d
       -0.105263256 0.13073976 0.03439682 0.05869315
000050 74 fd 80 3c 86 c3 4a 3d 48 b2 d2 bc 2c d6 bd 3c
       0.015745856 0.049502872 -0.025719777 0.023173414
000060 06 48 5f 3d 29 2c b1 3d 4a fb 96 bd 0f 26 ba 3d
       0.054512046 0.08651001 -0.07372148 0.0908929
000070 4d dc 90 3d f0 01 22 bc 39 58 b6 3d 70 98 32 bd
       0.07073269 -0.009888157 0.08903546 -0.043602407
000080 b0 8e 17 bd a8 c5 3f bc 58 c5 f8 bc 77 f8 b2 3d
       -0.03700131 -0.01170484 -0.030367538 0.08738797
000090 dc 23 b1 3c 63 be 15 bd 5c 36 b0 bc 66 6e e5 bc
       0.021623544 -0.03655852 -0.021510296 -0.028006744
0000a0 37 a0 2b 3e e6 57 02 bd 1f b4 ff bb 65 68 b9 3d
       0.16760336 -0.031822108 -0.0078034545 0.09053115
0000b0 1d 24 ea 3d 06 11 81 3d 3a a9 81 bd bc 3d 4e bd
       0.11432669 0.06302075 -0.063311055 -0.050351843
0000c0 f6 02 00 3e ac ae ba 3d f2 0a 11 3e 73 8e a6 bd
       0.1250113 0.09115347 0.14164332 -0.08132639
0000d0 48 36 83 bd 83 08 f2 3d a2 d8 09 3e bc 18 d0 bd
       -0.06406838 0.1181803 0.13461545 -0.10160968
0000e0 a6 7e 82 3d 64 a1 1e bd d2 c4 58 bd 57 ee d8 bd
       0.063718125 -0.038728133 -0.052922077 -0.10592335
0000f0 a3 da f9 3c 27 d4 89 bd 8c 29 39 3d b4 ff 97 3d
       0.030499762 -0.06729918 0.045205638 0.074218184
000100 18 a3 b5 3d ae a7 4c 3d 4a d9 c9 bc ec a3 d6 bd
       0.08868998 0.0499646 -0.024639744 -0.10480484
000110 7d b5 58 bd 3d 8e e2 3c 38 98 f1 ba 92 44 5d 3c
       -0.052907456 0.027655715 -0.0018432206 0.013505118
000120 3b 9b ac 3d fa cf 9c 3d f6 78 23 3d 14 19 8f bc
       0.08428045 0.07656856 0.03991028 -0.017468013
000130 47 01 c5 bd 4e d7 5f bd 37 82 6f bd 34 12 81 3d
       -0.09619384 -0.05464869 -0.058473792 0.063023
000140 7d 23 a0 3d 2b 77 48 3e 44 a6 93 3e 8b 2b 6b 3e
       0.07819269 0.19576709 0.28837788 0.22965829
000150 bf cf 7d be cf 53 07 3e 23 72 4a be 25 21 2c 3e
       -0.2478628 0.13215564 -0.19770102 0.16809519
000160 83 7b c1 3e 5b 1f 91 3d 84 0d 08 bd 7e 48 1c 3d
       0.37789544 0.07086059 -0.033216015 0.03815507
000170 ea 3b 06 3d a7 8f 8d 3d 1c f8 a9 3c 0a 70 70 3d
       0.032771982 0.06912165 0.02074819 0.0587006
000180 58 e4 7d 3c e4 2d c0 bd 94 38 d6 bc 38 8b 77 bc
       0.015496336 -0.09383753 -0.026150025 -0.015108876
000190 d0 7a d6 bc 58 4c 96 bd bf bb ac 3d 0e 1b 20 3d
       -0.026181608 -0.0733878 0.08434247 0.0390883
0001a0 32 3b 25 3d cd f6 9e 3d 2e 2e cf bd 69 8c e6 3d
       0.040339656 0.07761917 -0.1011623 0.1125725
0001b0 fd 51 a9 bd e4 4f 94 3c 49 c6 22 3d 47 79 dc 3d
       -0.08267591 0.018104501 0.03973988 0.10765319
0001c0 98 38 1d bd 36 c8 c5 3d 38 32 b1 bd 57 16 1e 3d
       -0.03838405 0.09657328 -0.086521566 0.038595524
0001d0 b7 2b 9e 3d 57 d0 2a be 47 da 0b be 51 ba c7 3c
       0.07723182 -0.16681038 -0.13657485 0.024380835
0001e0 a0 0d b0 3d de 3d 36 3c e4 32 a7 bd 80 f5 d0 bd
       0.08596349 0.011123149 -0.081640035 -0.102030754
0001f0 af 98 82 bc 03 ee 55 3d 36 ee 2b be 8e 12 75 3d
       -0.015941946 0.05222894 -0.16790089 0.05983215
000200 41 f0 20 be 47 8d 27 bd 7c f6 83 bd 56 6d c7 3b
       -0.1571665 -0.040906217 -0.064434975 0.006086032
000210 8d 1f 39 bc da ea b2 3c 3f b0 24 be d0 5f bd bd
       -0.011299026 0.021840502 -0.16082858 -0.092467904
000220 26 c6 d4 3c d5 5b 46 bd e7 42 a2 bc 2d 69 04 be
       0.02597339 -0.04842742 -0.019807292 -0.12930746
000230 67 cf 8a bc 3a b8 ce bd be 26 1f 3d b7 e3 41 bd
       -0.0169446 -0.10093732 0.038855307 -0.047336306
000240 27 7b 48 3d 12 96 b2 3b a9 75 8a bc 88 63 0e 3d
       0.048945572 0.0054500187 -0.016901808 0.03476289
000250 81 39 84 3d 32 48 d5 bd c9 02 78 3d 06 c6 be 3c
       0.064562805 -0.10414161 0.06054953 0.023287784
000260 0e 1f 64 bc 0e 1a 04 3e 71 1a 52 3d 6b cf 81 be
       -0.01392342 0.12900564 0.051294748 -0.2535356
000270 2d 7e 31 3e 7e f4 5c 3d 34 c9 49 bc 0d b1 ec 3d
       0.17333288 0.053944103 -0.012316037 0.11557207
000280 7e e1 57 bc 20 ba 35 be 04 5b be 3c 32 0b c3 bd
       -0.01317632 -0.17746782 0.023236759 -0.0952362
000290 ee 7f 08 3d d6 f0 6b 3d 20 0a 23 bd 09 95 9d 3d
       0.03332513 0.057602726 -0.039804578 0.07694442
0002a0 93 79 cd 3d b8 f0 37 bd 4e 58 83 bd 0e 74 12 bd
       0.10032954 -0.0449073 -0.06413327 -0.03575521
0002b0 00 3a 57 3a a5 4a b0 3d a4 e4 e3 bc b1 af 86 bd
       0.0008210242 0.08607987 -0.027818985 -0.06576479
0002c0 cc 1a 9f 3c 42 50 49 3d 0f 4d d8 3d 1b 86 d4 bd
       0.019421957 0.049148805 0.10561573 -0.10377141
0002d0 7a 81 90 bd cc 9e 61 3d ad 53 23 3e 61 53 7f bd
       -0.07055946 0.05508308 0.15949889 -0.062335376
0002e0 26 a6 d2 3d 8c b9 e4 3d cb 96 2d bd 0e c3 8e bd
       0.102855965 0.11168203 -0.042380136 -0.069707975
0002f0 af 60 6b bd 72 03 0d be 4f a2 1b 39 9b b0 a6 bb
       -0.05746525 -0.13770846 0.00014842417 -0.005086971
000300 64 fb 18 3e 51 b7 14 3e 03 67 6a 3d 3a 61 9e bd
       0.14939648 0.14523055 0.057227146 -0.07733388
000310 f8 64 07 be 91 f5 9c bd 00 eb bf ba a3 25 b7 bd
       -0.1322211 -0.076640256 -0.0014642179 -0.089427255
000320 12 1e b2 bd ce 16 92 3d ca 82 0c 3d 36 4a 1b 3d
       -0.08697142 0.07133256 0.034304418 0.03791257
000330 59 98 00 3d f0 a2 34 3b b1 81 cb 3d 2b 34 c1 3d
       0.03139529 0.0027562939 0.09936846 0.094337784
000340 a1 12 d4 3d 1d e6 97 bc 97 d2 c3 3d 52 58 c7 3d
       0.10355116 -0.018542344 0.09561651 0.09733643
000350 24 6b a1 bd 05 f0 c2 bd 92 9e 09 bc 39 a0 00 be
       -0.078817636 -0.09518436 -0.0083996225 -0.1256112
000360 ac 23 a0 bd 52 06 0d be e6 f4 c5 3d 22 b5 b9 bc
       -0.07819304 -0.13771942 0.09665851 -0.022669379
000370 98 8a b0 bd cf 93 10 3d b8 57 96 3d 60 3c 7c bd
       -0.08620185 0.03529721 0.0734095 -0.061581016
000380 08 d8 bb 3c 93 f4 dc bd 4b 28 48 3e d6 69 5d 3e
       0.02293016 -0.10788836 0.1954662 0.21622404
000390 54 fc 77 be c5 1b 18 3e ae b1 73 3d 39 d3 20 be
       -0.2421735 0.14854343 0.05949562 -0.15705575
0003a0 14 51 81 3e 90 f3 f8 bd 46 00 44 3d 57 93 eb 3d
       0.2525717 -0.12155831 0.047851823 0.11502712
0003b0 60 fe 46 3b bf 76 85 3d 35 c9 c3 3d 2c 10 e2 3c
       0.0030364022 0.0651679 0.095598616 0.027595602
0003c0 cf de c1 3d 50 7b ab bd f0 c8 f1 3b 13 29 82 3d
       0.094663255 -0.08373129 0.00737869 0.063554905
0003d0 64 ed b7 3c 94 c2 bc bd 90 ed a1 bd 6e a3 df bd
       0.022452064 -0.092168 -0.079066396 -0.109198436
0003e0 7b 99 ed bd 8b 3a 99 bd 55 4e b2 3d 9a 41 4b 3d
       -0.1160154 -0.07481869 0.08706347 0.04962311
0003f0 23 de a4 bc 58 33 4d 3d ef e4 0c 3e 84 bf 9c bc
       -0.020125454 0.050097793 0.13759206 -0.01913429

c1.bias f4 [32]
000000 e9 61 a0 bd 00 77 83 bd a9 df 8f bd d9 7b 93 3d
       -0.07831175 -0.06419182 -0.07025082 0.072013564
000010 ea e1 3c bd 13 10 2f bc 02 de 44 bd a3 09 b5 3d
       -0.046113886 -0.010684985 -0.048063286 0.08839729
000020 11 60 35 3d b8 07 f4 3c ff 7f 6a bd 1b 59 8d 3d
       0.04428107 0.029788837 -0.057250973 0.06901761
000030 5c 89 98 3d a4 b5 a0 bd ce 35 f0 3c 03 31 0b 3d
       0.07448074 -0.07847145 0.029322531 0.033982288
000040 fd 7b f1 3c cc ee d1 bd 3d ad 7e 3c c8 e7 32 bd
       0.029478068 -0.10250625 0.015544233 -0.043678075
000050 b8 02 95 3d 26 8c 84 bd c7 d6 98 3d 4e da ef bd
       0.07275909 -0.06472044 0.074628405 -0.1171156
000060 5d 9c 1c 3d 03 c6 63 3d b5 7d 25 bd ce ce 82 3d
       0.038235057 0.05560876 -0.040403087 0.06387101
000070 f0 07 27 bc 15 63 d2 3c f6 3c b2 bd 6d 53 85 bb
       -0.010194764 0.025682012 -0.087030336 -0.004068783

c2.weight f4 [64, 32, 3, 3]
000000 0b 77 26 3b e8 64 bf 3c 8c bd 2c 3d 8e 1f 0a bd
       0.0025400545 0.023363546 0.042172953 -0.0337215
000010 5d 57 ee 3c 98 71 06 3d cc 84 41 bd f1 a6 03 bd
       0.029094392 0.032823175 -0.047245786 -0.03214163
000020 1c 2e 66 3c 6f 97 eb 3d 36 96 b2 3d 7d f3 db 3c
       0.014049079 0.11503493 0.08720057 0.026849503
000030 3c c2 f0 3d cb e6 d8 3d 90 ad be 3d 6d a4 c7 3d
       0.11755797 0.10590895 0.09310448 0.097481586
000040 71 ae b0 3c 4a 9c 96 3d f9 c2 54 bd fd a6 d9 bc
       0.021567555 0.073540285 -0.051943753 -0.026568884
000050 c5 60 6a bd b3 ee e1 bc c4 ce 13 3d 0b f3 e5 bd
       -0.057221193 -0.027579641 0.03608586 -0.112279974
000060 32 c6 3f bd 82 3b d4 3c 20 65 bd bd 31 d8 1c 3d
       -0.046819873 0.025907282 -0.09247804 0.038292114
000070 18 43 bb bd 66 0f 62 3d d4 63 05 bc 74 d3 11 bb
       -0.091436565 0.055190466 -0.008141477 -0.002225128
000080 0c b0 08 bc de c7 5e 3d b4 83 a0 bd a3 61 57 3b
       -0.008342754 0.054389827 -0.078376204 0.0032864593
000090 80 37 1a bd bf 25 be bd e1 82 a8 bc 38 71 ba bd
       -0.037650585 -0.09284543 -0.02057022 -0.09103626
0000a0 0a 75 81 bd 22 92 e6 bc de 96 93 bd ab c5 39 bd
       -0.063211516 -0.028145853 -0.0720651 -0.045354526
0000b0 30 de 04 bd 7f 2d 4b bd 3a 9f c1 bd 44 e3 bc bd
       -0.032438457 -0.049603935 -0.09454198 -0.09223035
0000c0 ac 9d 38 bd 4a 4c 7f bd ea d0 32 bd 30 fb d9 bd
       -0.045072243 -0.062328614 -0.043656267 -0.10643613
0000d0 86 29 bd bd 5a 6b dd bd f2 85 be 39 fa bd 05 3d
       -0.092364356 -0.10811491 0.0003633942 0.03265188
0000e0 33 a3 02 bd 87 29 0a bc fc b2 12 3d 83 e0 ad bd
       -0.03189392 -0.008432752 0.035815224 -0.08490088
0000f0 c2 e4 0c bd 38 ff c0 3d 8c af 8c bd 2d d2 73 bd
       -0.034397848 0.09423679 -0.068694204 -0.05952661
000100 32 08 72 3c f5 b5 34 bd e0 30 a9 bc 66 e7 93 bc
       0.014772462 -0.04411884 -0.020653188 -0.018054675
000110 59 a2 9d bd 2e 09 bf bc 38 16 56 3b ab 53 d8 3c
       -0.07696981 -0.023319807 0.0032667052 0.026407083
000120 e6 98 c8 bc 13 57 4c bd 01 b1 9e 3c 50 3e a9 bb
       -0.02448697 -0.049887728 0.019371511 -0.005164899
000130 4d 80 1e 3d 3e 0c 39 bd ca ff 4c 3d 47 6f 1b bd
       0.038696576 -0.04517769 0.050048627 -0.03794792
000140 6d a5 da bc 49 14 57 bd 19 e0 7f 3d 62 c2 be bc
       -0.02669021 -0.05250958 0.062469576 -0.023286048
000150 52 31 9b bd dd 3f a4 3d e2 11 69 bd c3 9f 22 bd
       -0.075777665 0.080199935 -0.05690182 -0.039703142
000160 ce 5c 58 3d fd 97 68 3d b5 08 59 bd 47 70 ec 3d
       0.05282288 0.056785572 -0.05298682 0.11544853
000170 b9 89 7e 3c f2 5e 33 bd 87 d4 7f 3d 20 9a 0b bc
       0.015535765 -0.04379172 0.06245854 -0.008520633
000180 71 68 3f bd ab f2 53 3d 70 92 0c bd 45 66 81 3c
       -0.046730462 0.051745098 -0.03431934 0.015795836
000190 3a 47 14 bd 12 96 68 3c 81 30 05 3d 57 93 af bd
       -0.03620074 0.014195936 0.03251696 -0.08573025
0001a0 b3 74 e9 bc 6b f8 a9 3c e0 d2 de bc 5f 1e 89 bc
       -0.02849803 0.020748338 -0.027200162 -0.016738115
0001b0 31 be 91 bd 66 f4 1f 3c a5 dc dc bc bf 9b 82 3c
       -0.07116354 0.009762859 -0.02696068 0.015943406
0001c0 55 84 7c bd 66 72 11 bd 09 52 fa bc c9 7b c2 bb
       -0.06164964 -0.03550949 -0.030556696 -0.0059351665
0001d0 96 c3 d4 bd fd a0 ac 3d 5c ce 66 3d d4 52 8e 3d
       -0.103888676 0.084291436 0.056349143 0.06949392
0001e0 b7 83 3b 3d 2f fa ae bd 6f ca b3 3b d1 93 c8 3d
       0.04577991 -0.085438125 0.0054867784 0.09793819
0001f0 42 cc 17 bd 8e 07 19 3d 44 36 6c bd c5 08 fe bc
       -0.03706003 0.03736072 -0.05766894 -0.031010041
000200 47 f1 91 bb 20 1e d0 3c b2 60 7c bd e9 62 87 3c
       -0.0044538113 0.02540499 -0.061615653 0.016526656
000210 1d a3 88 3d d2 f3 bf bb a7 9a 23 3d d7 eb 95 bd
       0.066717364 -0.005857923 0.03994241 -0.073203735
000220 39 28 35 bc a2 10 37 bd 36 1b 82 bd 86 e6 96 3a
       -0.011056953 -0.044693597 -0.06352846 0.0011512793
000230 78 7c a2 bd 4b 43 e2 bc a6 e9 1c 3c 2b 1a 27 bd
       -0.07933897 -0.027619978 0.0095771905 -0.04079644
000240 b8 af 09 3d a9 8c 19 bd 05 cc 39 3d 7f 5f b0 bc
       0.033614844 -0.03748766 0.045360584 -0.021529911
000250 f7 07 8a bc 13 4c 7a 3c 9e f3 6e 3d 19 cf 4d bd
       -0.016849501 0.015276927 0.0583378 -0.05024633
000260 75 dc ef 3c 4a 6a a2 bc 01 0e 8f 3c e9 91 9c bc
       0.029279927 -0.019826073 0.017462732 -0.019112544
000270 f2 bf b5 bd 0b 02 82 3d e8 ec c3 bc 74 59 da bc
       -0.08874501 0.06348046 -0.023916677 -0.026653983
000280 27 66 02 3e 9c a5 96 bd be 43 cb bc bc 4e cf 3b
       0.1273428 -0.07355806 -0.024812575 0.0063265245
000290 e7 50 5d bd 12 bb 3f bd 73 fe 89 3d 58 98 a5 bd
       -0.054032233 -0.046809264 0.067379855 -0.08085698
0002a0 a4 7d cd bd 19 8e a2 3d 56 93 41 bc 44 c0 a1 3d
       -0.1003373 0.07937259 -0.011814913 0.07898
0002b0 55 d5 93 bd b1 06 50 3c 9d 1b b3 3b 97 d1 85 bd
       -0.07218424 0.012696908 0.0054659382 -0.06534117
0002c0 bf 0f 65 3c 6a 30 d7 3d 1b bb a3 bd 31 0c 8e 3c
       0.013980805 0.10507281 -0.07994672 0.017339798
0002d0 69 97 36 bd 38 52 22 3e 94 85 06 3d 17 27 32 3d
       -0.04457799 0.15851676 0.032842234 0.04349431
0002e0 fa ea 47 3e d6 37 9e bc 36 f3 54 38 c1 26 47 3e
       0.1952323 -0.019313734 5.0771247e-05 0.19448377
0002f0 95 bb 08 bd e7 ab d5 3d 8f 57 0a bc c7 f6 d0 3d
       -0.033382017 0.104331784 -0.008443727 0.10203319
000300 99 8c c9 bc 03 a5 57 3c 0f 8a 97 3d 9a 07 bb 3d
       -0.024603175 0.0131619 0.073993795 0.09132309
000310 ec a4 8b bd 43 01 04 3e 19 4a 34 bc 15 8a ad 3d
       -0.06818566 0.12891106 -0.011003994 0.08473603
000320 76 89 54 bd bd 77 15 bd 9a 1b 98 3d b0 33 07 bd
       -0.051888905 -0.036491144 0.074271396 -0.033008277
000330 31 3b ef 3b 28 85 de 3c 5b c7 0a bc c0 5a c6 bd
       0.0073007573 0.027163103 -0.008470382 -0.09685278
000340 7b 08 38 bd b3 c6 62 bd 92 62 82 bc 46 f7 4b bb
       -0.044929963 -0.055365276 -0.015916143 -0.0031122728
000350 21 5a 0f bc 25 ae af bc 3d 32 ba bd 75 b0 85 bd
       -0.008749516 -0.021445343 -0.090916134 -0.06527797
000360 fa b0 7e bd 78 40 b2 3d 58 eb 55 bc 17 fd 82 bc
       -0.062180497 0.08703703 -0.013056599 -0.015989823
000370 c4 36 9a bc 42 e3 80 bd 78 3b 16 3c 9c 0d ba 3d
       -0.018824942 -0.06293346 0.009169452 0.09084627
000380 07 84 84 39 88 a8 22 bd 0b 84 ab 3c c4 9f 28 bd
       0.0002527537 -0.039711505 0.020936986 -0.04116799
000390 14 e0 79 bc 61 2b df 3c 8c 60 af bd 1d 69 fd bc
       -0.015251178 0.027242364 -0.08563337 -0.030933911
0003a0 cc 90 81 bd 04 cd 98 bd 5e c4 e9 bd f7 19 d9 3d
       -0.06326446 -0.074609786 -0.11414407 0.106006555
0003b0 d5 b2 22 3c d3 ba 66 bc 14 d6 93 3d 58 5c 20 3c
       0.009930332 -0.014082628 0.072185665 0.0097876415
0003c0 49 ea 4a bd 3d da 98 3d 6b 69 95 bd ab 5e 58 3d
       -0.049539838 0.07463501 -0.072954975 0.052824657
0003d0 f2 62 ea bd 40 5a 9f 3d 5f 30 35 bc 35 b4 ad bd
       -0.114446536 0.07780886 -0.011058896 -0.084816374
0003e0 2f e0 a2 3c 00 14 59 3d 81 22 2c bd 6f f1 00 3d
       0.01988229 0.05299759 -0.042025093 0.03148025
0003f0 a8 b2 f3 3d 28 08 ab bd f6 37 dd 3d 17 9d 33 3d
       0.1189931 -0.08351165 0.10801689 0.043850984

c2.bias f4 [64]
000000 e4 9a c5 bc 6d 94 e2 3c dc 98 43 bd 9a f3 a9 3c
       -0.02412171 0.027658666 -0.0477532 0.020746041
000010 b7 8c 94 3b 60 3e c5 bb ce c2 5d bb 51 61 f6 3c
       0.004533376 -0.0060193986 -0.0033838036 0.030075701
000020 2e 67 d9 bb 26 b4 95 bc 8c cb 71 bb 14 dd 68 ba
       -0.0066346144 -0.018274378 -0.0036895005 -0.0008883041
000030 84 dd 3a bd 1f 6c 1a bd 93 18 24 3d c8 35 c9 bc
       -0.04562141 -0.03770077 0.0400625 -0.024561778
000040 0e 22 9c bc d8 5c 41 3b d1 4f 65 3d ed 10 e4 3c
       -0.019059207 0.0029504802 0.055984322 0.027840102
000050 00 8c 39 bb 53 59 c1 3c 75 73 a0 bc 79 aa f0 bc
       -0.0028312206 0.023602163 -0.019586304 -0.029378163
000060 83 8b b1 3b 64 79 45 3d 85 6c 2f bd 8f 13 c3 3b
       0.0054182424 0.04821147 -0.0428281 0.0059532593
000070 8c d9 c8 3c ec ca 78 3d 5a 91 53 3c 99 9e 8f bc
       0.024517797 0.060740396 0.0129130725 -0.01753168
000080 af 7f 41 3c 34 f9 49 3c d2 b9 40 bd 59 ef 93 39
       0.011810227 0.012327481 -0.047052212 0.00028216353
000090 b7 40 32 bd f7 8a d5 3c 74 17 17 3d cc 6a 8b bb
       -0.043518748 0.02606724 0.0368876 -0.0042546745
0000a0 65 93 95 bc d3 62 8d 3c 3f 35 74 3d 0e 9e d9 bc
       -0.01825876 0.017259037 0.059621092 -0.026564624
0000b0 22 12 3a 3d c6 3a ee 3c 91 f1 29 bd b7 fe 55 bd
       0.04542745 0.02908076 -0.04149014 -0.052244868
0000c0 7f ad 63 3c 9b 95 6a b9 74 b7 f3 3c 9b 49 42 bd
       0.013896345 -0.00022371711 0.029750563 -0.047433477
0000d0 4f 5b 44 bd 8c 71 1c 3d 9a 12 10 3a b7 8e 03 bd
       -0.04793864 0.038194224 0.0005495936 -0.032118525
0000e0 6e be 2e bd 6c 8c 44 bd 90 bf 32 3d 03 d0 59 3a
       -0.042662077 -0.04798548 0.04363972 0.0008308889
0000f0 61 2c ef 3c 0e 0a 0c bd 40 e8 e6 bc d1 93 9b 3a
       0.029195966 -0.034189276 -0.028186917 0.0011869614

c3.weight f4 [256, 64, 3, 3]
000000 8a 0b 5d 3c 0c c7 92 3c 07 bf 65 3c f7 44 16 3d
       0.013491521 0.017917179 0.014022595 0.036686864
000010 72 ac 79 bc e4 da 1e 3d fc 01 ab 3c 50 fc 1e bd
       -0.015238868 0.03878297 0.02087497 -0.038814843
000020 3f a6 0f 3d 27 a7 9e 3c 9c 50 5b 3c 82 bd 9d bb
       0.035070654 0.019366814 0.013385918 -0.004813851
000030 c6 a2 11 bc 50 05 91 3c ae de 09 bd 17 49 69 3a
       -0.008888906 0.017702729 -0.03365963 0.0008899136
000040 fc a1 1c 3d 4e 26 00 bd 92 fc 1b bd a7 6b 4d 3c
       0.038240418 -0.03128653 -0.038082667 0.012537873
000050 c2 36 38 bd 12 38 07 3d f4 4b c4 bc 5b 92 f7 3c
       -0.044974096 0.033012457 -0.023961999 0.030221155
000060 1a 1b 1b bd 80 e6 c6 3c c7 df 26 3c 26 c5 08 bd
       -0.037867643 0.024279833 0.010185189 -0.03339114
000070 0d 50 f5 3c fa 9d 25 bc 42 00 dc 3c 00 86 09 bd
       0.029945398 -0.010108465 0.026855592 -0.033575058
000080 fd d8 f6 bc e8 7a 59 bc 5e 92 65 bc c3 48 0c 3d
       -0.030132765 -0.013273932 -0.014011947 0.03424908
000090 20 68 9f bb d7 15 cd 39 79 d4 01 bd 11 a9 0f bd
       -0.0048647076 0.0003911692 -0.03169677 -0.035073344
0000a0 d9 3f 32 bd ff a9 48 bb cf 6f 13 3d f6 f3 35 bd
       -0.04351792 -0.0030618904 0.0359953 -0.044422112
0000b0 90 38 82 3c bb 4c 17 3d 80 d3 88 3c c5 2d 17 bc
       0.015896112 0.03693841 0.016702414 -0.009227221
0000c0 4f 3e a2 bb d8 11 54 bb 30 c2 2c bc cc 1b 94 3c
       -0.0049512754 -0.0032359269 -0.010544345 0.01807966
0000d0 66 cb f9 bc b0 5f 27 3c 6f 6f 08 bd 18 1b 80 bc
       -0.030492496 0.010215685 -0.033309396 -0.01563792
0000e0 9b 21 3e bd 27 a8 15 bd 33 cf f7 3c 5b 7f 52 3c
       -0.046418767 -0.036537316 0.030250167 0.012847747
0000f0 01 9c d4 bc 64 2e d2 bb 3e 92 e1 bb 0c 03 28 bd
       -0.025953295 -0.0064142216 -0.0068838885 -0.04101853
000100 e8 42 6a 3c 46 49 8d 3c 01 22 6e 3c d8 ff 92 3c
       0.014298178 0.017246854 0.014534474 0.017944261
000110 f5 0f 06 3c 8a d5 a5 3c 7e 97 2d bc 01 78 1c 3d
       0.008182515 0.020243425 -0.010595201 0.038200382
000120 aa 4d 0b bd ef 7a 00 bd 9b a1 81 3c 5b 29 38 bd
       -0.034009613 -0.03136724 0.01582413 -0.044961315
000130 9b 22 1d bd 6c 60 1c bd 3a ef e6 3c 91 77 02 bc
       -0.03836308 -0.038177893 0.028190244 -0.007963077
000140 ad f0 df bc a4 dc 29 bd 1a 5f d4 ba 27 1b 28 bd
       -0.027336443 -0.041470185 -0.0016202659 -0.04104152
000150 64 4e 21 bc 5b 64 75 3c d6 ab 8b bb 71 8d 0b bd
       -0.00984535 0.01497754 -0.004262428 -0.034070436
000160 67 76 12 bd 7f 6a 96 bb f7 3d 30 3c 43 15 da 3c
       -0.03575745 -0.004590332 0.010756961 0.026621467
000170 d9 8a 20 bc 7a 1a b3 3c e9 58 09 bd c6 71 88 bc
       -0.009798729 0.021863211 -0.033532057 -0.016655814
000180 68 74 bf bc 80 6e e1 bc e1 0b b5 ba 97 68 dc 3c
       -0.023370937 -0.02751851 -0.0013812744 0.026905341
000190 9c c1 81 3c 12 d5 c1 bb e5 82 e2 3c b3 2a 97 3c
       0.01583939 -0.0059152925 0.027650306 0.018452978
0001a0 f0 b9 9f 3c 41 45 c4 bc 03 52 0a bd 4c c4 4b bb
       0.019497842 -0.023958804 -0.03376962 -0.0031092344
0001b0 ef 69 24 bc f3 de cf bc 3c bc b0 bc bd 0b 1a 3d
       -0.010035022 -0.025374865 -0.021574132 0.03760885
0001c0 fc 43 3e 3c 8f af 19 bd 00 1e 03 3c 16 bf 02 3c
       0.011612888 -0.03752094 0.008002758 0.007980129
0001d0 c3 f0 a9 ba 47 ab 36 bc 13 c6 4b 3c 84 59 24 bd
       -0.0012965429 -0.011149234 0.012437361 -0.04012443
0001e0 23 cc fc 3c dc 70 b3 3c ed a1 b7 bb 3f 86 83 3c
       0.030859059 0.021904401 -0.00560402 0.016055224
0001f0 dc 96 a9 bc d5 a5 f4 bc 7a 30 9b 3c df 2a ca bc
       -0.020701818 -0.029864231 0.018944014 -0.024678646
000200 ae 11 e3 3a c9 6a bc 3c 02 05 71 3c 3b db be bc
       0.0017323995 0.023000138 0.014710667 -0.023297897
000210 39 43 dc 3c 2d 49 88 3c f2 f8 20 bd bd 40 37 3c
       0.026887523 0.016636455 -0.039299913 0.011184868
000220 f0 10 ac 3b 9f ff f5 3c f8 43 99 3c 46 33 0c 3d
       0.0052510425 0.030029116 0.018709168 0.034228586
000230 af 88 d1 3c 44 46 ac 3c 3d 79 0c b9 d4 55 d7 bc
       0.025577871 0.021029599 -0.00013396605 -0.026286043
000240 2c 82 98 bc 41 d5 dd bc 4b a7 8a 3c 1b cd ab bc
       -0.018616758 -0.027079226 0.016925475 -0.020971825
000250 4d 0f 9e bb a6 14 bf 3c f5 2f f0 bc 4c 1d 95 ba
       -0.0048236013 0.023325276 -0.029319743 -0.0011376529
000260 d2 b6 0d bd b9 5e 16 bd f5 22 45 bb f2 d5 40 3c
       -0.03459818 -0.03671143 -0.003008065 0.011769759
000270 8f ad 63 bc ca a6 04 bd c9 8f 17 3c 4e 27 a0 3c
       -0.01389636 -0.032385625 0.00925059 0.019549992
000280 23 5e 1e 3d 7b b6 da 3c 07 b8 c3 bc 56 3c 1b 3d
       0.038663995 0.026698342 -0.023891462 0.037899338
000290 7d b9 15 bd 36 87 bf 39 7c 14 90 3c fb d6 a1 bc
       -0.03655385 0.000365311 0.017587893 -0.019755831
0002a0 1e 8d 08 3d b1 9e 2a bd 4c a3 03 bd 37 4f 5c 3c
       0.033337705 -0.041655246 -0.032138154 0.013446621
0002b0 27 f5 20 bd b1 f6 e2 bb 4f 30 05 bd b7 e7 e6 bc
       -0.039296295 -0.0069263806 -0.032516774 -0.028186662
0002c0 ca cb 78 3c 3e a0 13 bd 10 ba f7 bb 5e f9 8a 3b
       0.015185306 -0.03604149 -0.007560022 0.0042411527
0002d0 06 bc 4c 3c ba 94 d4 3b de 3c c7 bc e7 ba c9 3a
       0.012496 0.006487456 -0.024321016 0.0015390784
0002e0 93 df b2 3b eb 50 a9 bc 4c f0 24 3c 92 13 81 bc
       0.005458781 -0.020668468 0.010067057 -0.015756402
0002f0 20 de 5d bc b7 e2 90 3b 3e de 2d bc 4e 9b 69 bc
       -0.013541728 0.0044215578 -0.010612069 -0.014258219
000300 af 3d f4 bc 4c 06 d2 bc 6d 92 06 3d 17 1a 81 bb
       -0.02981457 -0.025637768 0.032854486 -0.0039398777
000310 4b 88 1a bd 07 23 72 3a 59 b0 eb bc 1d 1e 89 3c
       -0.037727635 0.0009236787 -0.028770613 0.016737992
000320 77 68 b2 bc ef 2f b5 bc b0 58 ca 3c c0 9a 1a 3c
       -0.021778328 -0.022117583 0.024700493 0.009436309
000330 14 2f ff 3c 79 db 47 3c f8 30 be 3c 4e 5b 48 3b
       0.031150378 0.012198322 0.02321671 0.0030572
000340 82 88 08 3d 45 73 d9 bb 44 50 94 bc 80 d0 e9 bc
       0.03333331 -0.0066360557 -0.01810468 -0.028541803
000350 23 5b a9 3c 5d d4 12 3d 2e 4e 97 3c 4f 18 b3 bc
       0.02067334 0.035847057 0.018469896 -0.021862177
000360 72 b2 bf bb e0 15 0e bd ae ee 43 bb e2 2f c5 3a
       -0.0058501298 -0.03468883 -0.0029896903 0.0015044177
000370 5b 4f 11 3d 92 83 59 3c dd c6 e1 bc e4 ee 98 bc
       0.03547607 0.013275998 -0.027560646 -0.0186686
000380 ba b7 91 3c fb 3c 03 3a fa 6d 8b bc 61 d7 62 bc
       0.017787803 0.000500634 -0.017020214 -0.013845296
000390 f3 15 08 3d 83 f3 41 bd b1 ac 10 bc be db 10 bd
       0.033224057 -0.04735137 -0.008830235 -0.035365812
0003a0 ff 0c b2 3c 90 d3 bc bc 0e 80 6c bc 3d 70 f4 3b
       0.021734713 -0.0230501 -0.0144348275 0.007459669
0003b0 19 f5 4b bc 6f b8 36 39 8a b9 82 bc 9d da fa bc
       -0.012448573 0.0001742558 -0.015957613 -0.030621821
0003c0 82 11 e2 39 73 42 19 bd 2b 8b 67 bc 49 7b 44 bd
       0.00043119123 -0.037416887 -0.014132301 -0.047969136
0003d0 bc 69 45 bc 04 c0 50 3c 3a 38 f5 39 cd 74 3e bb
       -0.012049135 0.012741093 0.00046771934 -0.0029061318
0003e0 17 f3 9e bc 01 fa 04 bd 40 8a cb bc 80 0a 02 bd
       -0.019403024 -0.032464985 -0.024846196 -0.031748295
0003f0 a4 c2 83 ba 17 b4 29 bd 6a ef a6 bc 44 dd 29 bd
       -0.0010052514 -0.041431513 -0.020377833 -0.04147078

c3.bias f4 [256]
000000 8b 0c 07 3d 2c f8 14 3c ad d8 25 bd b0 26 ab 3c
       0.032970946 0.009092372 -0.04048984 0.020892471
000010 aa 08 a9 bc 02 0a 9f bb 88 b8 a7 3c 19 38 b8 bc
       -0.020634014 -0.004853488 0.020473734 -0.022487687
000020 4e bc 3d 3c b7 62 12 bd 57 e5 ea bc b7 3c 62 bc
       0.01158054 -0.035738673 -0.02867381 -0.013808421
000030 02 c1 73 bc 29 c5 67 bc 51 54 5a 3b 72 39 b9 bc
       -0.01487756 -0.014146128 0.0033314417 -0.0226104
000040 e9 04 10 bd fd 79 d8 bc 4e 7c 5d bc 47 ae 81 3c
       -0.035160933 -0.026425356 -0.013518406 0.015830172
000050 d2 e5 82 bc 34 c7 dd bc c2 7c 0c 3d 9d a3 5a bb
       -0.015978727 -0.027072527 0.034298666 -0.0033361681
000060 50 89 93 bc 63 f5 0d 3d ec 2f f1 3c ef 2b 0a bd
       -0.018009812 0.034657847 0.029441796 -0.033733305
000070 42 e1 3f 3d e8 f5 5c 3b 57 10 7c 3b dd f6 ca 3c
       0.046845682 0.0033715907 0.0038461888 0.024775917
000080 be 97 4f bc 7a 98 fe bc ea b2 69 bc 03 f1 ea 3c
       -0.0126704555 -0.031078566 -0.014263848 0.028679376
000090 8a 25 08 bd c5 9d 05 bd 38 12 d6 bb 84 91 34 3d
       -0.033238925 -0.032621164 -0.0065329336 0.044084087
0000a0 9d 50 bc bc 4f 21 25 3c 34 ba 0e 3c 4a 39 ba 3c
       -0.022987658 0.010078742 0.0087113865 0.022732396
0000b0 16 55 72 3c 41 91 9f bb 6e 8d ea 3c 12 2a 38 bd
       0.014790794 -0.0048696105 0.028631892 -0.044961996
0000c0 13 8b 3b bc f7 01 2f bd c9 04 95 ba ad 54 6f bd
       -0.011446732 -0.042726483 -0.0011369224 -0.058430362
0000d0 9d c1 59 3d 4e 44 9e bc 76 d3 4d bc a4 02 7c bc
       0.05316316 -0.01931968 -0.012562623 -0.015381489
0000e0 0a 7e 5a 3c 1a e1 63 bd 74 0d ca bc 68 a1 ae bc
       0.013335714 -0.055634595 -0.024664618 -0.021317199
0000f0 30 f6 d2 bc 7e d6 8c bc 82 e4 34 3d e0 71 35 3b
       -0.025752157 -0.017192122 0.044163235 0.0027686283
000100 e2 a6 1f bc cc 84 93 bc fc d0 a2 3b a7 71 35 3d
       -0.009744378 -0.018007658 0.0049687605 0.04429784
000110 7d da 3e bc ab df 47 bc 7a 5c 0e 3d 50 de 3e bc
       -0.011648771 -0.012199323 0.03475616 -0.011649683
000120 d1 8e 95 bc 5e 2e 26 bc 7d 90 1b 3d 47 a6 a7 bc
       -0.018256577 -0.010142891 0.03797959 -0.02046503
000130 97 c4 42 3d ec 6b 91 bc 16 f7 06 3d 54 b0 ae bc
       0.047550764 -0.017751656 0.032950483 -0.021324314
000140 99 ac 69 3b ae e0 29 bc 2e f4 a1 3c 5e 83 a2 3b
       0.0035655855 -0.010368509 0.019769754 0.004959508
000150 8a 58 12 bc 5d 04 fa bc 14 57 8a 3c 29 71 5a bc
       -0.008932242 -0.030519659 0.016887225 -0.013332644
000160 f1 b9 0c bd 76 b7 9c bc 57 9b ea 3c 4d 6a be 3c
       -0.034357015 -0.01913045 0.028638525 0.023244048
000170 35 e0 12 bd 6c 85 9c bc a5 ae 97 3c fc bd a1 bc
       -0.03585835 -0.01910659 0.018515894 -0.019743912
000180 6a f7 04 bd c6 e2 63 3d c6 d9 34 bd 7d 85 9f 3c
       -0.032462515 0.05563619 -0.044152997 0.019472832
000190 b6 df 61 bb 45 0a 0f bd fd 73 77 bc e3 31 9c bc
       -0.0034465618 -0.034921903 -0.015103337 -0.019066757
0001a0 f0 12 0b bd 75 d0 4f 3d 3f f6 58 bc 75 c6 e0 bc
       -0.033953607 0.05073591 -0.013242303 -0.027438382
0001b0 77 5c 72 3c 70 26 5c bc dd de 44 bd 7f f8 1a 3a
       0.014792553 -0.013436899 -0.0480641 0.00059116626
0001c0 ce 76 21 3d 72 b1 0e bb 0f 8a 22 bc d6 ee 9c 3c
       0.03941994 -0.0021773246 -0.009920611 0.019156855
0001d0 e0 6c 42 3b 14 24 c0 3a 2d f8 5e 3d da b6 14 bd
       0.0029666945 0.001465919 0.054435898 -0.036307193
0001e0 22 17 cd bc 4d 29 52 3b f1 58 0b bd b9 b1 26 3b
       -0.025035445 0.0032068074 -0.034020368 0.002543552
0001f0 56 f9 95 3c f6 88 ab bb f2 13 9b 3c b3 82 94 3c
       0.01830737 -0.005234833 0.01893041 0.018128728
000200 24 d1 45 3d ee a2 ca bc 31 27 65 3c 78 50 60 3d
       0.048295155 -0.024735894 0.013986395 0.05476424
000210 c9 9c 54 3d 9e 58 2c bc b6 8e 35 3d ef 8c 1f bd
       0.051907334 -0.010519175 0.044325553 -0.038952764
000220 29 46 5c 3c cd 5e 17 bd 48 6b 50 3d 32 dc f8 bb
       0.013444462 -0.036955643 0.05088356 -0.0075946087
000230 be 4b 04 bb 25 84 19 bd 47 da 62 3c 80 17 bc 3b
       -0.0020186747 -0.03747954 0.013845987 0.005740106
000240 4b d3 4b 3d 89 14 9e bb 63 e7 e5 3c c6 df 6a 3d
       0.04976205 -0.0048242253 0.028064435 0.057342313
000250 a1 77 cf bc b3 e1 f7 3c b0 f0 ba 3c 01 f9 b4 bc
       -0.025325598 0.030258989 0.022819847 -0.02209139
000260 a4 d5 36 bd b7 27 97 3c ca c7 f6 bb b0 c3 ff bc
       -0.044637337 0.018451555 -0.007531141 -0.03122124
000270 bb b7 0c 3d 03 a7 d4 3c dd c9 87 3d 1c 24 80 bc
       0.034354907 0.025958544 0.06630299 -0.015642218
000280 03 21 8b bb 8d 4e c4 bb 2b 65 3a 3c 30 c6 da 3c
       -0.0042458787 -0.0059908093 0.011376659 0.026705831
000290 22 e1 dc bc 6b d6 f5 bc e4 f9 26 b9 42 e8 1b 3b
       -0.02696282 -0.030009469 -0.00015924085 0.002378956
0002a0 eb 63 49 3d 8d 67 2c 3d 36 5d 0f 3c 61 4b cf bc
       0.049167555 0.04209094 0.008750251 -0.025304498
0002b0 62 a6 fd bc c3 d1 ba 3c fd 83 5c 3d 80 ee 0f 3c
       -0.030963127 0.0228051 0.05383681 0.00878489
0002c0 ff b0 6d bc 76 84 92 3b f2 d7 30 3c 2b d6 9a bc
       -0.014507531 0.004471357 0.010793673 -0.018900951
0002d0 1a 27 b2 bc 2c d2 08 3c 41 33 fe 3c e8 46 22 3b
       -0.02174716 0.00835089 0.0310303 0.0024761502
0002e0 d6 96 2b bd b3 59 ac ba 8b a5 0b 3d 5b a3 b1 3c
       -0.041891895 -0.0013149291 0.03409342 0.02168434
0002f0 f5 29 fb 3c c5 ec 41 3d b4 1a 26 3d f3 c2 18 3c
       0.030659655 0.04734494 0.04055281 0.009323823
000300 e6 b6 5b bc 78 77 19 bd bf 60 45 bb c8 1a 71 3c
       -0.013410306 -0.03746745 -0.003011748 0.014715858
000310 0c 91 c0 3c 58 b5 fa bc 8b 52 fa b8 61 f4 04 3b
       0.023506664 -0.03060405 -0.00011936304 0.0020287263
000320 d0 f9 6d 3d 62 37 07 bd 2a 78 f5 bb 1a 08 eb 3c
       0.058099568 -0.0330118 -0.0074911313 0.028690387
000330 fa 15 85 3c 9e a3 dc 3c 78 c6 e9 bc 97 d0 0d bd
       0.01624583 0.026933488 -0.02853702 -0.034622755
000340 0a 17 7a 3b 0a 54 f5 3b bb 47 f9 bb 4b 09 99 bb
       0.0038160705 0.007486825 -0.007607428 -0.0046702973
000350 f3 a2 e2 3b ab 85 b5 3c c5 af 27 3d e6 2b 12 bc
       0.0069163977 0.022158464 0.04093911 -0.008921599
000360 1c 8e ab 3c 2c 89 01 bd 8c 33 8c 3b 8a a1 68 b9
       0.020941786 -0.031624958 0.004278606 -0.00022185422
000370 a2 33 ca 3c d9 73 30 bd f7 f7 68 3d d5 5a 8f bc
       0.024682824 -0.04307923 0.056877103 -0.017499367
000380 84 17 7a bb 24 c9 fb 3c 5c 92 49 bd 49 c5 ad bc
       -0.003816099 0.03073556 -0.049211845 -0.021212237
000390 06 ad ab bc 6d b5 38 3d a0 33 61 3d 02 bd b1 3c
       -0.020956527 0.045094896 0.054980874 0.021696571
0003a0 a8 45 20 bc 5a 77 82 3d a9 c3 04 3b 19 f8 19 bd
       -0.009782232 0.06370421 0.0020258224 -0.03759012
0003b0 e1 43 98 bb cf d2 74 3d 5b 84 ee 39 1d 5c 86 bb
       -0.0046467637 0.059771355 0.0004549351 -0.004100336
0003c0 11 88 c9 bc 4b b5 d7 bc 2c 0f 5c bb ab 13 02 bd
       -0.024601014 -0.026331564 -0.003357838 -0.031757038
0003d0 f9 b7 0f 3d 8c 52 18 3c fc 1e 05 3d 80 1b a8 bc
       0.03508756 0.009297024 0.032500252 -0.020520926
0003e0 0d b5 08 bd 53 04 96 ba 01 a3 55 bc 34 74 c4 bc
       -0.03337579 -0.001144538 -0.013039351 -0.023981191
0003f0 57 7e 9e bb ac d0 df 3b 59 04 95 bb 2a 84 10 bd
       -0.004836838 0.0068302955 -0.0045476374 -0.03528229

fc1.weight f4 [64, 256]
000000 8e 60 ec bc 30 7a 00 3d ff e1 5c bc 27 47 73 bd
       -0.028854635 0.031366527 -0.013481616 -0.059394028
000010 a6 50 17 bc 40 3d 06 bc a2 9a b3 b8 69 09 62 bd
       -0.009235537 -0.008193314 -8.564188e-05 -0.055184755
000020 03 81 41 bc 86 cf 1a 3d 15 28 fa 3c 82 56 29 bd
       -0.011810544 0.037795566 0.03053669 -0.041342266
000030 a7 2c 5c 3d 6b ae 7f bd 3a ef 2a 3d 9d 77 82 bd
       0.05375352 -0.062422197 0.04173205 -0.06370471
000040 fc 26 86 bb 8c b3 ed bc 59 91 fa bc d5 7b 14 bc
       -0.004094003 -0.029016279 -0.030586885 -0.009062727
000050 97 00 11 bd d6 92 5d bc 85 86 66 3d 92 90 79 bc
       -0.035400953 -0.013523778 0.05628063 -0.015232222
000060 b7 ee 03 3d b5 02 3f 3c 87 f7 32 bd fe 9f 10 3d
       0.032210078 0.01165836 -0.04369309 0.03530883
000070 b9 b6 6a 3d e6 fc 08 3d 6d 01 40 3d 03 3f 55 3d
       0.057303164 0.033444308 0.04687636 0.052062046
000080 ac 70 fd bc f6 cc 67 bd 3c b3 41 3c 9e bb 3c bd
       -0.030937515 -0.05659195 0.011822518 -0.046077363
000090 b9 31 1b 3c f0 82 67 3d da e5 2f bd 71 95 58 bd
       0.009472304 0.056521356 -0.042943813 -0.052876893
0000a0 ba 47 05 bd c3 e8 8c 3c 51 76 51 bd e3 4f 7b 3a
       -0.032539107 0.017200833 -0.051138226 0.0009586794
0000b0 96 a1 48 3c 44 40 bf 3b 87 d4 c6 bc 6a a1 92 3b
       0.012245556 0.0058365185 -0.024271263 0.0044748085
0000c0 81 99 7c 3a 5b 63 c6 3c 91 7c 61 3d 21 b1 2e bd
       0.0009635911 0.024217298 0.055050436 -0.042649392
0000d0 b0 d8 30 bd 0e d5 f3 ba 0d 63 1a 3d d1 2c f6 bc
       -0.0431754 -0.0018602924 0.03769212 -0.030050667
0000e0 63 e7 30 3b 33 06 68 bc ea b8 4d 3d f2 4a 91 3c
       0.0026993386 -0.014161634 0.050225176 0.017735932
0000f0 7f 3b f2 3c 77 39 72 bd 37 97 b7 3a eb e6 16 3c
       0.029569386 -0.059136834 0.0014006858 0.009210329
000100 07 e3 f9 bc 08 9c 7b bd 0c fd bc 3c a4 7e 6e bc
       -0.030503763 -0.0614281 0.02306988 -0.014556561
000110 70 7b 10 3d 7d c9 18 3c 49 b4 2c 3c d3 5d 40 3d
       0.03527397 0.009325382 0.01054103 0.046964478
000120 e1 c3 d1 bb fb 24 8c 3c 83 13 b0 bc 96 1c 1f 3d
       -0.0064015244 0.017107477 -0.021493679 0.03884562
000130 c2 5b f4 3c 98 cc f7 3c 99 70 1e 3d 63 37 4b 3d
       0.02982891 0.030248925 0.0386816 0.049613368
000140 ab 62 ae 3c e1 ca 15 bd cb 9f ba 3c be 8c 70 3d
       0.021287283 -0.036570434 0.022781273 0.058727972
000150 19 9b 57 3d 11 c4 a6 3c 3d 2a 41 bd 33 9c 66 bd
       0.052638147 0.020357164 -0.047159422 -0.056301307
000160 b5 bc 2b bd b5 ca 4d bd 5a 51 84 bb c3 15 a0 3b
       -0.041928012 -0.050242145 -0.004038018 0.0048854067
000170 bb f5 25 3d 32 3f bd bc 2b bd 67 bd e1 ca 5c bc
       0.04051755 -0.023101423 -0.05657689 -0.0134761045
000180 9e b2 b4 3c b4 5f b1 3c 30 56 65 3d c8 32 a6 3c
       0.022057828 0.02165208 0.055990398 0.020287886
000190 bd 46 04 bd 94 17 0d 3d 14 ba 73 bd a0 6a de 3b
       -0.032294024 0.034446314 -0.05950363 0.006787613
0001a0 c7 4d 5f bd 86 fb 62 3d c5 dc 7a bb 37 e0 89 bd
       -0.054517534 0.055415653 -0.0038278562 -0.06732219
0001b0 9f bd 24 bd 62 65 1a bd fe 9f cf 3a 16 84 ea 3c
       -0.0402199 -0.037694342 0.0015840528 0.028627437
0001c0 91 09 50 3d 6b 8f b4 bc ed 09 24 bc d5 5b 5f bc
       0.050790373 -0.022041043 -0.010012132 -0.013632734
0001d0 56 e5 87 bd a1 a9 cc bc ca 14 cd 3c c8 7e d4 3c
       -0.06635539 -0.02498323 0.025034327 0.02593936
0001e0 7a 4d 91 3a c2 80 57 bd 51 75 21 3c 16 0e 4e 3d
       0.0011085712 -0.052613027 0.009854631 0.050306402
0001f0 77 95 ad bc 8e 22 52 bd 5b 47 e0 3b e7 34 6d bc
       -0.021189434 -0.051302485 0.0068444437 -0.014477945
000200 25 fc fa bc 62 21 5a bd 52 49 b3 3b 70 71 37 3c
       -0.03063781 -0.053254493 0.005471387 0.011196479
000210 83 ee 13 3b 21 78 80 3c d7 ec b8 3c d7 d9 5b 3d
       0.0022572584 0.015682282 0.022573872 0.053674545
000220 a6 ab f9 3b 3b c2 31 3d b5 24 63 bd bc 5c e9 ba
       0.007619339 0.043398123 -0.05545493 -0.0017804126
000230 a9 bc 31 3d 34 78 45 3d 44 84 13 bd 27 69 a0 3c
       0.04339281 0.048210338 -0.03601481 0.01958139
000240 28 aa 21 3d 2a 94 bb bc 45 76 95 bc 03 51 43 bd
       0.039468914 -0.022897799 -0.018244872 -0.04768468
000250 2f c2 6b bc 50 29 ca 3c 2a b2 9a 3c cb a8 78 bb
       -0.014389559 0.024677902 0.018883783 -0.0037942405
000260 9d 8e 1b 3d 61 86 f9 bb 9c 3f a9 bc 00 cf e8 3c
       0.037977803 -0.007614896 -0.020660214 0.028419018
000270 88 29 61 3d e6 70 1b 3d 37 25 2d bd c9 2a 2a 3d
       0.054971248 0.037949465 -0.04227182 0.04154471
000280 d1 e0 d9 bc 18 b5 3c bc 4a 35 4d bd df de f8 3b
       -0.026596459 -0.0115177855 -0.05009965 0.0075949277
000290 0b 8a aa b9 3e 27 6a bc 91 c8 d5 bb ad 64 af bc
       -0.00032527777 -0.014291583 -0.0065241535 -0.02141031
0002a0 81 7d 05 3d 44 e2 ec 3c 4f be 06 3d 9f 97 3e bd
       0.032590393 0.028916486 0.032896336 -0.046531316
0002b0 4b f1 78 bd 2b 2b 2d bc 8a 45 48 bd 59 0b 33 bd
       -0.06077699 -0.010569374 -0.048894443 -0.043711994
0002c0 c6 04 f2 bb 10 13 53 3d cc 05 bb bc 74 7b 69 bd
       -0.007385823 0.05153185 -0.022829913 -0.0570025
0002d0 bd 91 19 3d 26 e8 1b 3c 40 5c 38 3d a0 4b ca 3c
       0.037492502 0.009515798 0.04500985 0.024694264
0002e0 9a f3 cb 3c e0 0a 62 bd 02 8c 7b 3b 5d b1 16 bc
       0.024896432 -0.055186152 0.0038383012 -0.00919756
0002f0 7b be 9a 3b 28 f1 82 bd f8 f2 f5 bc 57 d5 06 bd
       0.004722414 -0.06393653 -0.030023083 -0.0329183
000300 e4 1d 5a bd 02 58 53 bc 53 ec 7a 3c 1a ca 47 bd
       -0.053251162 -0.012899401 0.015315133 -0.048776723
000310 64 89 23 bd 0a 6b 33 3d 7e fa 5e bd dc 0e 2c bd
       -0.039925948 0.043803252 -0.054438107 -0.04200636
000320 00 a9 51 3d cf 34 36 bd 31 16 d8 3c 12 b3 d8 3c
       0.05118656 -0.044483956 0.02637777 0.026452575
000330 74 ef a5 ba 2c 00 ba 3c 76 89 08 bd 72 59 d6 bc
       -0.0012659864 0.02270516 -0.033334218 -0.026165698
000340 92 16 38 3d 99 a4 d2 bc eb 46 3b 3d 25 34 c1 bc
       0.0449434 -0.025713252 0.04572193 -0.023584435
000350 db 79 2e bd a9 19 c7 bb 1c 0b 43 bb e0 c1 f0 ba
       -0.04259668 -0.006076057 -0.002976126 -0.0018368326
000360 d6 37 c6 3b e0 2d f3 bb b9 26 0f 3d 01 f3 46 bd
       0.0060491366 -0.00742124 0.03494904 -0.04857159
000370 d4 d1 0a bc d0 e5 50 bd 0b 09 54 3b e4 28 97 bc
       -0.0084728785 -0.051000416 0.0032354023 -0.018452115
000380 45 3d 64 3d 5e 0e 21 3d 35 db 16 bd 54 2b 70 bd
       0.055722494 0.039320342 -0.036830146 -0.05863507
000390 25 45 1e 3d b8 3b 43 3b ac 0e 24 3c 25 7e 72 3c
       0.03864016 0.0029790234 0.010013264 0.014800583
0003a0 4e b4 be 3c c1 e3 bd bc df 22 1a bd a0 b2 88 bc
       0.023279335 -0.02317989 -0.037630912 -0.016686738
0003b0 0d c9 aa 3c 6e 4e 8d bc c0 b5 6b bd 86 c1 35 ba
       0.020847822 -0.017249312 -0.057546377 -0.0006933439
0003c0 df 2b f1 bc d2 1a 55 bd 3d d1 86 bd 05 f8 2c ba
       -0.029439865 -0.05202753 -0.06582878 -0.0006598237
0003d0 5e ce c4 3c 26 27 42 3d cf 5e 2f 3c ee 08 e4 bc
       0.024024185 0.047400616 0.0107037565 -0.02783629
0003e0 c2 b5 03 3d f7 b2 17 bc e4 34 bf bc 61 38 55 3c
       0.03215576 -0.009258977 -0.02334065 0.01301393
0003f0 51 07 a8 bc ce 28 0d bd ec 62 7a bc 07 0b 58 bd
       -0.020511301 -0.034462743 -0.015282374 -0.05274489

fc1.bias f4 [64]
000000 46 71 9b 3c 08 a3 39 3d 79 b9 d4 3c 96 e9 19 3d
       0.018974911 0.045321494 0.025967347 0.03757628
000010 49 3a 6c 3b c0 19 1b bc 1c 36 69 bd ca c5 21 bd
       0.0036045483 -0.0094665885 -0.05693637 -0.039495267
000020 9c 58 41 bc 7c 9f 34 bd 20 56 82 3c 0f 44 3a 3d
       -0.011800911 -0.04409741 0.015910208 0.045475062
000030 f8 fa 4e bd 58 8a 34 3d bf ca 93 3c 4c 5a 3d bd
       -0.05053231 0.044077247 0.018041013 -0.046228692
000040 92 63 98 3c 01 ed 60 3d ad b6 81 bc 19 49 26 3d
       0.018602166 0.054913525 -0.015834177 0.040597055
000050 d2 8a ac 3c d5 9b 0c 3d d6 85 27 bd 6c 4d 98 bc
       0.021062288 0.0343283 -0.04089912 -0.018591605
000060 8c d9 66 bc 8d 7d a0 3d 14 9a 25 bd 31 f8 6e bd
       -0.014089953 0.07836447 -0.040430143 -0.058342163
000070 cf 2d 38 bc e5 36 dc 3c 61 5a 6f 3d a4 d9 0d 3d
       -0.01124139 0.026881645 0.0584358 0.034631386
000080 80 6f df 3a e4 a4 b3 bc 20 81 38 bc cf de 83 3d
       0.0017046779 -0.021929212 -0.011261255 0.06438982
000090 31 19 1d bd be 1f f0 bc d0 04 42 3d 7a f3 78 bd
       -0.038354103 -0.02931201 0.04736787 -0.060779072
0000a0 c6 00 0d bd a4 2c b6 bc 43 dc 45 3d 17 dc 8b 3c
       -0.034424566 -0.022238083 0.04830576 0.01707272
0000b0 45 f1 94 3c 20 ac 7b bd 74 2a 2f bb 47 10 8a 3d
       0.018181453 -0.061443448 -0.0026728185 0.06741386
0000c0 ee 17 57 bd e2 32 16 3d 19 c0 20 3c 19 cd d4 3b
       -0.052513056 0.03666962 0.009811425 0.006494176
0000d0 7e 90 1e bd 4a e8 bd 3c 50 16 f1 bc ea 18 35 bd
       -0.038712017 0.023182053 -0.029429585 -0.044213213
0000e0 d6 fe 04 bc da d1 77 bd 10 66 cb 3b 24 c0 05 bd
       -0.008117398 -0.060502864 0.006207235 -0.032653943
0000f0 68 c9 3c bd 18 90 27 3d d3 13 b4 3c c7 bd 1e 3d
       -0.046090513 0.040908903 0.02198211 0.038755205

fc2.weight f4 [5, 64]
000000 ac 6a 8d bd a7 1a 8f 3d 31 ba d8 bd 1b 05 1f bd
       -0.06905112 0.069875054 -0.10582388 -0.03882323
000010 28 c8 64 3b fa 6b f3 bd 00 5e e7 b9 67 ba ff bd
       0.0034909341 -0.11885829 -0.0004412979 -0.12486725
000020 c2 22 9f bd 94 db b5 bd 58 87 a8 3d de 2c 44 3d
       -0.077703014 -0.08879772 0.0822894 0.04789435
000030 0a 7a cb 3d 33 2b 43 3d 8f 9f c0 3d 8f 11 df bc
       0.099353865 0.04764862 0.094054334 -0.027230052
000040 f4 c6 1e 3d 3d a2 d2 3d 37 c7 a2 3d e9 d8 01 bd
       0.038763955 0.10284851 0.079481535 -0.031701002
000050 4a 3f b8 bc 25 fb d6 bd ee 22 e2 3d cc 7d c4 3d
       -0.022491116 -0.10497121 0.110418186 0.09594306
000060 ab 75 28 3d e4 ce a3 3c 0a c0 c0 3d 73 b2 8e 3c
       0.041127842 0.019996114 0.094116285 0.017419076
000070 0d cd e3 bd 53 1a ba bd af 43 3e 3c 8d 0b 7d bd
       -0.11123095 -0.09087052 0.011612817 -0.061778594
000080 2c 47 2c 3d ee fc f3 3d d7 e2 39 bc 2f 45 e8 3d
       0.042060062 0.11913477 -0.011345587 0.11341321
000090 8c e6 53 3d 84 32 70 bd f6 1e 8a 3d 00 78 c7 b9
       0.05173354 -0.058641925 0.067441866 -0.00038045645
0000a0 20 db 9d bd d0 c4 6b 3c 4a a5 3a bd 68 8c 6f bd
       -0.077078104 0.0143901855 -0.04556779 -0.05848351
0000b0 33 e5 83 bd e8 62 27 3d 18 bb f7 bd a3 91 d1 3d
       -0.06440201 0.04086581 -0.12096232 0.10232856
0000c0 bc fd b2 bd 93 6e 4a 3d ad 0d a6 bc f0 4e 97 bd
       -0.08739802 0.049421858 -0.020270193 -0.07388103
0000d0 58 3e d6 3d 40 cc 63 3d e4 55 d0 3d 0c 41 0f bd
       0.1046111 0.05561471 0.10172632 -0.034974143
0000e0 3f 97 58 3d d4 8e 85 bd 54 c5 54 bc 70 ce fd 3c
       0.052878615 -0.06521383 -0.0129865 0.030982226
0000f0 7c a9 a9 bd b3 e2 0f bd ff a6 ea 3d c9 d4 b6 3d
       -0.0828428 -0.035128307 0.11457633 0.08927304
000100 7d 40 b5 3c c7 54 9b 3d ca 82 ca bd 65 d7 f8 3d
       0.022125477 0.07584529 -0.09888227 0.12150458
000110 37 1f 5e bd 90 bb 50 bc 38 c7 d1 3d 1e 47 6c 3d
       -0.054228988 -0.012740031 0.10243076 0.05768501
000120 d5 99 59 3d 8a cf a4 bd 15 c1 54 3d bf 43 12 3e
       0.05312522 -0.080473974 0.05194195 0.14283656
000130 e2 7d cd bd 20 90 14 be 77 fd f1 bd 32 ae b6 bd
       -0.10033776 -0.14508104 -0.11815923 -0.08919944
000140 7c 1f c6 3c 42 31 fc bc d6 6c f3 bd 17 0f 84 ba
       0.024184935 -0.030785207 -0.11885993 -0.0010075298
000150 05 05 04 3d f9 73 89 bd 86 7b d9 bd 8c 17 7f bd
       0.03223135 -0.06711573 -0.10619263 -0.062278315
000160 91 fc ac bd 02 ee ac bb f4 43 9e 3d 23 1b 17 bd
       -0.08446611 -0.005277396 0.07727805 -0.036891114
000170 9d a5 00 be 71 52 ea 3c 74 98 41 3d 43 fd 8d 3c
       -0.12563176 0.028603764 0.04726453 0.017332679
000180 12 cc 97 bd 8c b6 86 3d a8 1c c5 bd db 96 7b 3c
       -0.0741197 0.06577787 -0.09624606 0.015355791
000190 fd bf 73 bc 1e fe 3b bd 12 9d 3d 3c ac 4b 3a 3d
       -0.014877317 -0.045896642 0.011573093 0.045482323
0001a0 30 5f 70 3c 68 3f a8 bc 4b 5f 8f 3c 4f e4 7a 3d
       0.014671132 -0.020538047 0.017501494 0.06125289
0001b0 ea ff da 3d 96 0a 88 3d 04 b1 b2 3d 60 e9 81 bc
       0.10693343 0.06642644 0.08725169 -0.015858352
0001c0 10 c5 3e 3d 2c 6c 78 bd e1 0f 9b bd a9 24 40 3d
       0.046574652 -0.060650036 -0.07571388 0.04690996
0001d0 30 e2 29 3d 1f 5a 8c 3c c6 fc fc 3c 80 c8 59 3b
       0.041475475 0.017132817 0.03088225 0.003323108
0001e0 49 ef 54 bc 94 7c fe 3d 9d 27 f2 3d 24 bf 84 bd
       -0.012996503 0.12426105 0.11823962 -0.0648177
0001f0 a0 32 ed bc 4d 92 40 3e 2c f5 c4 3d 16 67 ba bd
       -0.028954804 0.1880581 0.09617075 -0.09101693
000200 7f ef 71 bd e1 83 79 bd 70 76 cd bc 6b 02 91 3d
       -0.059066292 -0.060916785 -0.02508089 0.07080539
000210 b9 97 ce bd 52 58 8a 3d 40 7e 9e bc 82 bd 6f 3d
       -0.100875326 0.06755127 -0.01934731 0.058530338
000220 d2 59 53 bd 0a e6 94 3d 2b 11 d3 bd 13 07 04 bd
       -0.05159933 0.07270439 -0.10306009 -0.03223331
000230 86 08 e1 3c a7 be c7 3c 59 6b c3 3d d1 77 78 bd
       0.027469885 0.024382902 0.09541959 -0.06066114
000240 07 b8 f2 3c 0e 7b e9 bd 22 f8 0b be 32 db 64 3d
       0.029628767 -0.11400424 -0.13668874 0.055873103
000250 53 a1 b7 3d fd 64 83 bc b0 be bd 3c 0e bc 80 3d
       0.08966317 -0.016039366 0.023162216 0.062858686
000260 93 43 93 bd 88 f3 48 3d ac c4 20 3d d4 b2 fb bd
       -0.07190623 0.049060374 0.03925006 -0.12289968
000270 f3 9b ad 3d 41 62 e6 3d 35 70 dd 3b 6c 90 cf ba
       0.084770106 0.11249209 0.006757761 -0.0015835888
000280 5c 83 86 3d 44 55 6d 3d 6a dd a6 3d 96 ca f5 3d
       0.065680236 0.057942644 0.081477 0.12001531
000290 7c a1 3a bd a8 80 69 3d 8a b7 e2 3d b2 d3 ed 3d
       -0.04556416 0.05700746 0.110701635 0.11612643
0002a0 70 01 a8 bd b4 32 38 bd 71 bd c2 bd fa 8f d7 3c
       -0.08203399 -0.04497023 -0.09508789 0.02631377
0002b0 a4 b1 b6 3d 68 4d 92 3c bf 08 ca bd 74 11 60 bd
       0.08920601 0.017859176 -0.098649494 -0.054704145
0002c0 b6 9a ad bd e9 30 fb 3d 9a 20 ac bd d3 36 73 bd
       -0.084767744 0.12265188 -0.08404656 -0.059378456
0002d0 d0 68 eb bc 8f 40 5a bd 4a ce 62 3d a8 6a f3 bc
       -0.028736502 -0.053284224 0.055372514 -0.029713944
0002e0 f7 eb d4 bb 76 82 b2 bd 8a 7c 84 bd 30 be 07 bd
       -0.0064978558 -0.0871629 -0.064690664 -0.03314036
0002f0 90 4f 65 bd e8 9a b2 bd 3d 0b 3d 3c ee 0c 88 3d
       -0.05598408 -0.08720952 0.011538324 0.06643091
000300 40 26 f0 3d d8 75 cc bd cb a0 e9 bd b8 6d c9 bc
       0.117260456 -0.099834144 -0.11407622 -0.02458845
000310 29 ac d3 3d 24 5f c1 bd 84 52 c9 3d 80 35 df bd
       0.10335571 -0.09441975 0.09830192 -0.10898876
000320 a7 80 9a bd 18 bb 5b bd 2e d7 19 3d 6e 3d 06 3e
       -0.0754407 -0.053645223 0.037558727 0.13109371
000330 fc a5 6c 3d 72 e9 a7 3b 4e 03 96 bd 9f f8 c9 3d
       0.057775483 0.0051242644 -0.07324849 0.09861874
000340 d6 b1 a4 bd 5f 55 ca bd 9b f0 fd bd 62 d1 92 bd
       -0.08041732 -0.098795645 -0.123994075 -0.07168843
000350 a5 48 c2 3c 36 84 8b bd 08 4f 31 3d d0 b6 f9 3c
       0.02371628 -0.068123266 0.04328826 0.03048268
000360 95 ec a1 bd 9f cf 17 3e fc f8 54 bd 20 a9 08 bc
       -0.079064526 0.14825295 -0.051995263 -0.008341104
000370 66 ca 0b 3d 8f c4 59 bd 0b 79 19 3e 92 1f 01 bd
       0.03412857 -0.05316597 0.1498758 -0.03152425
000380 20 5c b7 3d 28 7e 1a 3d 78 41 f8 3d c1 4c 1f 3d
       0.08953118 0.03771797 0.12121862 0.038891558
000390 81 f7 8d bd 8c 6b 8d bd e3 e7 3c bd 24 f2 cb bd
       -0.06931973 -0.069052786 -0.046119582 -0.09958294
0003a0 40 54 4e 3b b0 0c 5e bc 03 5f d0 bb 04 3a d3 3c
       0.0031483322 -0.01355283 -0.0063589825 0.0257845
0003b0 04 2c cf 3d de 37 d8 3d 02 f2 d6 3c f4 92 32 3d
       0.10115817 0.10557531 0.026238445 0.043597177
0003c0 58 b3 da bc 04 04 c9 bd 5b 6d 05 be 2b 5f ec 3d
       -0.026696846 -0.09815219 -0.13029997 0.11541589
0003d0 88 25 95 bd 90 f5 fa 3d 6f 32 0a 3d 44 64 a6 3d
       -0.07282549 0.122538686 0.033739503 0.08124593
0003e0 f2 16 ed bc d4 15 d6 bd f3 33 d8 3d d8 37 ce 3c
       -0.028941605 -0.10453382 0.105567835 0.025173113
0003f0 40 0c 0f bd 04 6a 7b 3c 0a bd f9 bd 41 28 9d bd
       -0.034923792 0.0153451 -0.121942595 -0.076736934

fc2.bias f4 [5]
000000 00 59 0e bd 01 b1 ea 3c 67 2f 68 bc a2 b3 bc bd
       -0.034752846 0.028648855 -0.014171458 -0.0921395
000010 61 2d 06 3d
       0.03275812
