SimpleQMIX_CNN_random_blox_basic/agent1_21.pth (torch, 745108 bytes, 10 tensors)

c1.weight f4 [32, 8, 3, 3]
0	0x3d708d23	0.05872835
1	0xbda43ee0	-0.08019805
2	0x3d82b9a4	0.063830644
3	0x3dda9b73	0.10674181
4	0xbda2ed5b	-0.07955428
5	0x3d0bdd26	0.03414645
6	0xbd7aad0d	-0.06120019
7	0x3db99432	0.09061469
8	0x3cb3df8f	0.021957187
9	0x3de11e5e	0.1099212
10	0x3d577cc3	0.052609216
11	0xbcf57bd0	-0.029966265
12	0xbd5ad517	-0.053425875
13	0xbd3e6c7d	-0.04649018
14	0xbd314ab2	-0.043284126
15	0x3ddf8607	0.109142356
16	0xbd8ce750	-0.06880057
17	0x3c859b8a	0.016309518
18	0xbdae8bd6	-0.08522765
19	0x3dec181d	0.11528037
20	0xbd8d5ea7	-0.06902819
21	0x3c80dfac	0.015731655
22	0xbcf7ffc8	-0.030273333
23	0x3ce0662c	0.02739247
24	0xbd00840c	-0.03137593
25	0x3d73a9e2	0.059488185
26	0xbc885514	-0.01664213
27	0x3d4a93ea	0.049457468
28	0x3be0afc0	0.0068568885
29	0xbd709c31	-0.058742706
30	0x3da5d3e7	0.08097058
31	0x3da20fcb	0.079131685
32	0x3da53fd1	0.08068813
33	0x3caf18d4	0.021374144
34	0xbcbf8650	-0.023379475
35	0xbdad5d8e	-0.0846511
36	0x3c75f0c5	0.015011017
37	0x3de345e3	0.11097314
38	0xbd7286f9	-0.05921075
39	0xbdd0c524	-0.101938516
40	0x3c932adb	0.017964771
41	0xbc240e99	-0.010013246
42	0x3d6707ec	0.05640404
43	0xbce1d2d2	-0.027566347
44	0xbbf2507d	-0.007394849
45	0x3d4d0316	0.05005177
46	0xbd9c8a83	-0.076436065
47	0x3c86f750	0.01647535
48	0xbc72262f	-0.0147796115
49	0x3d2a46ce	0.04157143
50	0x3d92f5b7	0.07175773
51	0x3dd2c21f	0.10290932
52	0x3cc9684e	0.02458587
53	0x3d64cc8f	0.055859145
54	0x3d916074	0.07098475
55	0xbca66da6	-0.020315956
56	0xbde9fdc3	-0.11425354
57	0x3ddfa661	0.10920406
58	0x3c85c145	0.01632751
59	0xbd82a31e	-0.063787684
60	0x3de8a8f3	0.113603495
61	0x3d066996	0.03281554
62	0x3dc52c37	0.09627574
63	0x3b9c45d7	0.0047690677
64	0xbdb81030	-0.089874625
65	0xbb968642	-0.0045936415
66	0x3c5dba1d	0.013533142
67	0x3ce63d52	0.028105412
68	0xbde5bc1c	-0.1121752
69	0x3ba2d0a1	0.004968718
70	0xbd48357c	-0.04887913
71	0xbd7b3f5d	-0.061339725
72	0x3cd5a873	0.0260813
73	0x3d8b174f	0.06791555
74	0x3ddc59e4	0.10759333
75	0x3d7327e5	0.05936422
76	0xbd9730b5	-0.07382337
77	0xbda53105	-0.0806599
78	0xbd84a963	-0.064776205
79	0xbde0c24e	-0.10974561
80	0xbdb57dca	-0.08861883
81	0xbdb7e542	-0.08979274
82	0x3c9cad0f	0.01912549
83	0xbd748f18	-0.059706777
84	0x3de21415	0.110389866
85	0x3b0bb438	0.0021317136
86	0x3d1e7212	0.038683005
87	0x3cfb30be	0.03066289
88	0x3d9431f4	0.0723609
89	0x3cd92c5b	0.026510408
90	0xbd4103b6	-0.04712268
91	0xbc63e640	-0.013909876
92	0xbcfc5598	-0.030802533
93	0xbd4a3d66	-0.04937496
94	0x3d82dbeb	0.06389602
95	0xbc8b6524	-0.017016001
96	0x3d89fde7	0.06737881
97	0xbd4b25ba	-0.049596526
98	0xbca4d1dc	-0.0201196
99	0x3dd4f269	0.103977986
100	0xbdcb82d5	-0.099370636
101	0x3b1de700	0.0024093986
102	0x3d98a4f5	0.07453338
103	0x3d346902	0.044045456
104	0x3d1e2c62	0.038616545
105	0x3d84903b	0.06472822
106	0xbcf72388	-0.03016831
107	0xbc9df814	-0.019283332
108	0x3d391554	0.045186356
109	0xbcc24dbc	-0.023718707
110	0xbc1fa360	-0.0097435415
111	0xbd8d7e85	-0.06908897
112	0x3d913a87	0.07091241
113	0x3d5e3026	0.054245137
114	0xbdc6767c	-0.09690568
115	0x3cab0b37	0.020879371
116	0x3dc1c84b	0.09462031
117	0x3dcda677	0.10041516
118	0xbd52b393	-0.051440787
119	0x3d988485	0.07447151
120	0x3cb572b0	0.022149414
121	0xbde678c4	-0.11253503
122	0x3dbbc5c6	0.09168582
123	0xbdbf4c5f	-0.093407385
124	0x3d5f2946	0.05448272
125	0x3d986310	0.0744077
126	0xbdd7acd0	-0.10531008
127	0xbdc85444	-0.097816974
128	0xbbbc1903	-0.0057402863
129	0x3cfc04ec	0.030764066
130	0x3dcda1da	0.10040636
131	0xbc0277f3	-0.007963168
132	0xbd2d9763	-0.0423807
133	0xbc5530a8	-0.013012089
134	0xba0e550b	-0.00054295425
135	0xbd26aa47	-0.040689733
136	0x3ac2e752	0.0014869964
137	0x3db3537f	0.0875616
138	0xbd40487c	-0.046944126
139	0x3d495c0e	0.049160056
140	0x3cabdee9	0.020980315
141	0x3da48e82	0.08034994
142	0x3c0f6d4f	0.008754089
143	0x3dde66d5	0.108594574
144	0x3d411d5c	0.04714714
145	0xbc81bb48	-0.015836373
146	0xbd80cb02	-0.06288721
147	0xbdb32917	-0.08748072
148	0xbd24ae54	-0.040205315
149	0x3dafd358	0.085852325
150	0xbd22b877	-0.0397267
151	0xbd6db45a	-0.058033325
152	0x3d1190fb	0.035538655
153	0xbd95add0	-0.07308543
154	0x3da32c21	0.07967401
155	0x3cc2358e	0.023707177
156	0xbdd8cdf2	-0.10586156
157	0xbcef1549	-0.029184954
158	0xbde1e4fa	-0.11030002
159	0x3d27ea46	0.040994905
160	0x3d6f5877	0.058433976
161	0x3d46965b	0.048483234
162	0x3d1bb6ca	0.038016118
163	0xbd400f08	-0.046889335
164	0x3de7d6bb	0.113202535
165	0xbde7f87e	-0.11326693
166	0x3d38b11a	0.045090772
167	0x3d839ba5	0.06426171
168	0x3d1cebda	0.038310863
169	0xbd3dbd4a	-0.0463231
170	0xbd3c4d58	-0.0459722
171	0xbc4e89e8	-0.012606122
172	0x3d6492a6	0.055803917
173	0x3d49f0ea	0.04930202
174	0x3d1a0b5e	0.037608497
175	0xbdbab622	-0.0911677
176	0x3b2630c0	0.0025358647
177	0xbd460e32	-0.04835338
178	0xbd618e48	-0.05506733
179	0x3bf31830	0.007418655
180	0xbc209814	-0.009801883
181	0xbd13852e	-0.036015682
182	0xbd8602e2	-0.065435186
183	0xbd930658	-0.07178944
184	0x3de8c95a	0.1136653
185	0xbd3f7eab	-0.04675166
186	0x3c1f8e32	0.009738492
187	0x3d905df8	0.07049173
188	0xbddde5c7	-0.10834842
189	0x3dd4f61c	0.10398504
190	0xba8082ca	-0.0009804603
191	0x3c0f781a	0.008756662
192	0xbd87895c	-0.06617996
193	0x3d00cb47	0.03144386
194	0x3c7d19d2	0.015448051
195	0x3d0c118a	0.034196414
196	0xbdccf8f2	-0.1000842
197	0xbd3f713c	-0.046738848
198	0xbd0892f1	-0.03334326
199	0xbdc45cad	-0.09587989
200	0x3b973921	0.0046149646
201	0x3d826474	0.06366816
202	0x3c1e9f55	0.009681542
203	0xbd55d266	-0.052202605
204	0xbdb0189e	-0.08598445
205	0x3b85af65	0.0040797465
206	0xbca9f793	-0.020747935
207	0x3d8c6072	0.06854333
208	0xbdc3cbf5	-0.09560386
209	0x3b5fb79d	0.0034136542
210	0xbdf3099a	-0.11867066
211	0x3ca322ab	0.019913992
212	0x3dc6a5f6	0.09699623
213	0x3dc683ae	0.09693085
214	0x3d34b2e4	0.044115916
215	0x3dbbc924	0.09169224
216	0x3d6d34cf	0.05791169
217	0x3dd2bba6	0.10289697
218	0xbd96131d	-0.07327864
219	0xbde1ef1f	-0.11031937
220	0x3d222d93	0.039594244
221	0x3cdb2c03	0.026754385
222	0x3db2370d	0.08701906
223	0xbd90fce5	-0.07079486
224	0x3dd98101	0.10620309
225	0xbcbd0a12	-0.023076091
226	0x3db91a61	0.090382345
227	0x3bd002a3	0.0063479706
228	0x3ba1d5b4	0.0049388055
229	0x3c024cfa	0.007952923
230	0xbdf0c858	-0.117569625
231	0xbd34fa44	-0.044183984
232	0xbb507e11	-0.0031813423
233	0x3cf0b731	0.029384227
234	0xbdb14eea	-0.0865763
235	0xbda1b74a	-0.07896288
236	0xbdc4572b	-0.095869385
237	0x3c45e7d8	0.012079202
238	0x3d8c9b27	0.068655305
239	0x3c787668	0.015164949
240	0x3d24928e	0.040178828
241	0x3d32d716	0.043662153
242	0xbd7870b4	-0.060654357
243	0xbde2d51e	-0.11075805
244	0x3d86c953	0.06581368
245	0xbd9f1b7c	-0.07768914
246	0x3dbf33c9	0.09336049
247	0x3c45fce8	0.012084223
248	0x3ce87704	0.028377064
249	0x3db0b817	0.08628862
250	0xbd4a867c	-0.04944466
251	0xbdbca8a3	-0.092118524
252	0xbd6561d1	-0.056001488
253	0xbdc98058	-0.09838933
254	0xbdf2f8e7	-0.118638806
255	0xbd58ca90	-0.052927554

c1.bias f4 [32]
0	0x3d6ed68f	0.058310088
1	0xbc9dd224	-0.019265242
2	0xbd8799d4	-0.06621137
3	0x3db242c3	0.0870414
4	0x3d65e154	0.056123093
5	0xbc9d809d	-0.019226367
6	0xbd6f34f1	-0.0584001
7	0x3d285777	0.041099038
8	0xbdb2e466	-0.0873497
9	0xbde517d0	-0.111861825
10	0xbda0ad00	-0.07845497
11	0xbd85088c	-0.06495771
12	0xbd874ea4	-0.066067964
13	0xbc9d27e5	-0.019184062
14	0xbd611cc7	-0.054959085
15	0xbcb52bc5	-0.022115598
16	0x3d95b202	0.07309343
17	0x3da58baf	0.08083283
18	0x3d556fcf	0.052108582
19	0xbdb18219	-0.08667392
20	0x3d4cfff2	0.050048776
21	0x3c521c76	0.012824168
22	0x3d5a455b	0.0532888
23	0x3c3fd6b3	0.011708903
24	0xbd21d32b	-0.039508026
25	0xbd86d5ee	-0.065837726
26	0xbcdcb33e	-0.026940938
27	0xbd3b6d78	-0.045758694
28	0xbbbefc84	-0.005828442
29	0x3dd2cc5d	0.102928855
30	0x3c6f834e	0.014618708
31	0x3d7cf5a9	0.061757717

c2.weight f4 [64, 32, 3, 3]
0	0x3ceea786	0.029132616
1	0x3cf3a10e	0.029739883
2	0xbd2b1ce5	-0.041775603
3	0x3c9f6ae1	0.019460144
4	0xbd515ae7	-0.05111208
5	0x3d2066ca	0.039160527
6	0x3d2b2391	0.041781966
7	0x3c9f0731	0.019412609
8	0xbc7905d0	-0.01519914
9	0x3c8cc93c	0.0171858
10	0xbd1156de	-0.035483234
11	0x3d1dc402	0.038517006
12	0xbce1aba4	-0.027547665
13	0xbad50f56	-0.0016255181
14	0xbd7eb026	-0.062179707
15	0x3cbd7121	0.023125233
16	0xbb93691d	-0.0044986145
17	0x3d4637c1	0.048393015
18	0xbd1c67a8	-0.03818479
19	0x3d54beba	0.051939704
20	0xbd14e931	-0.0363552
21	0x3d10b9b4	0.03533335
22	0xbcfbe8d7	-0.030750675
23	0x3d3a5fb8	0.04550144
24	0x3a65f8ac	0.0008772712
25	0xbbb89ed2	-0.005634167
26	0x3cce4cd8	0.025183126
27	0xbd5a91b9	-0.05336163
28	0x3a7f39da	0.00097360986
29	0xbd815d11	-0.06316579
30	0xbd7c1d7d	-0.06155156
31	0x3c3f7dcb	0.011687706
32	0xbd02ddd4	-0.031949833
33	0xbd1d4548	-0.03839615
34	0xbcc1db68	-0.023664191
35	0x3d50a543	0.050938856
36	0x3d360489	0.04443792
37	0xbcf5f3dc	-0.030023508
38	0xbccf0a6b	-0.025273522
39	0x3d2ab003	0.041671764
40	0xbcbc33e3	-0.02297396
41	0x3d59598c	0.053063914
42	0xb9ca46cd	-0.00038581193
43	0xbd41e596	-0.04733809
44	0x3b4422bd	0.0029927932
45	0x3d4e74b9	0.050404284
46	0xbcf995c3	-0.03046692
47	0xbd0c3a4b	-0.03423528
48	0x3d1efbe0	0.038814425
49	0x3d167190	0.036729395
50	0xbd352a10	-0.044229567
51	0xbd2eb370	-0.042651594
52	0xbd753976	-0.059869252
53	0xbd2500d6	-0.040284
54	0xbd2caea9	-0.042158756
55	0x3d251194	0.040299967
56	0xbbc2fe94	-0.0059507582
57	0xbd2ba77d	-0.041907776
58	0x3d269616	0.040670477
59	0x3d578744	0.052619234
60	0xbbec681c	-0.0072145592
61	0x3cfe2bb1	0.031026693
62	0x3cb9b7ad	0.022670591
63	0xbd2e98d1	-0.042626206
64	0xbd056bb9	-0.032573435
65	0xbb0b6449	-0.0021269491
66	0xbc9d430a	-0.019197006
67	0xbd4014e2	-0.046894915
68	0x3a95332b	0.0011383047
69	0x3d0b5085	0.034012336
70	0x3d1995ca	0.037496366
71	0x3cac51c8	0.02103509
72	0xbc496901	-0.012293101
73	0xbb185477	-0.0023243704
74	0xbd578048	-0.052612573
75	0x3c48986b	0.0122433705
76	0xbcd30b18	-0.025762126
77	0x3c6a5086	0.014301425
78	0xbd0821ae	-0.033235244
79	0xbd16aea6	-0.03678765
80	0x3b1fc2ce	0.0024377587
81	0xbd4ba6c5	-0.04971959
82	0xbd44c8a5	-0.048042912
83	0xbd107300	-0.035265923
84	0x3d5a7b99	0.05334053
85	0x3c5d398b	0.013502489
86	0xbd73f410	-0.059558928
87	0xbc96759d	-0.01836663
88	0x3b725725	0.0036978212
89	0xbc753588	-0.014966376
90	0x3cb862a1	0.022507967
91	0xbcba341c	-0.022729926
92	0xbc84032b	-0.016114792
93	0xbd23b056	-0.03996309
94	0xbcf01d6a	-0.0293109
95	0xbd823d78	-0.063593805
96	0xbd80728d	-0.06271849
97	0x3b9c7f45	0.004775914
98	0x3bd8f056	0.006620447
99	0x3c88ee36	0.01671515
100	0x3c927823	0.017879551
101	0x3cabdb48	0.020978585
102	0x3d134b0c	0.035960242
103	0xbd147467	-0.036243822
104	0xbb9759c5	-0.0046188557
105	0x3cca1cd6	0.024671953
106	0xbd1025b4	-0.035192207
107	0x3d4cbf18	0.04998693
108	0x3c3d7b71	0.011565075
109	0xbc90dc30	-0.017683119
110	0x3c93705b	0.017997911
111	0x3b5b1f3c	0.0033435365
112	0xbd4356bb	-0.047690134
113	0x3d0872a5	0.03331246
114	0x3d0d2fb6	0.03446933
115	0xbce0788b	-0.02740123
116	0xbd54415d	-0.051820148
117	0x3d192682	0.03739024
118	0xbd3f6ac6	-0.046732686
119	0x3c09ee47	0.008418626
120	0xbd6c00c0	-0.057617903
121	0x3ca8c493	0.020601546
122	0x3c977875	0.018490056
123	0x3d05ac35	0.032634933
124	0x3d36935c	0.044574127
125	0x3aea1d1b	0.0017861457
126	0x3d501d1e	0.05080902
127	0xbcb8520d	-0.022500062
128	0xbd822a9a	-0.06355782
129	0x3c894a34	0.016759016
130	0xbcd66a17	-0.026173634
131	0x3cc7d774	0.024394728
132	0x39a87040	0.0003212709
133	0x3d099bb1	0.033595745
134	0x3d088dd7	0.033338394
135	0x3cdd199e	0.026989754
136	0xb761af0c	-1.3451801e-05
137	0xbc9d77b4	-0.019222118
138	0x3d57c09c	0.05267392
139	0x3d432000	0.04763794
140	0xbd421aa5	-0.04738869
141	0x3cfab68f	0.030604629
142	0x3a43d30c	0.0007470108
143	0xbd50abae	-0.050944977
144	0x3d1936e3	0.03740586
145	0x3bfbdbd2	0.0076861167
146	0x3c6bffbc	0.014404234
147	0xbb944bc7	-0.004525635
148	0x3bd2c2e0	0.0064319223
149	0x3c39357e	0.011304257
150	0xbd26271d	-0.040564645
151	0xbca31de4	-0.019911714
152	0x3c87f972	0.016598437
153	0xbccf2cc1	-0.025289895
154	0xbd04950c	-0.032368705
155	0xbcef2df7	-0.029196722
156	0x3d215e79	0.039396737
157	0xbd1cca4f	-0.038278874
158	0xbd0391f6	-0.03212162
159	0x3c330602	0.010926725
160	0x3bf63730	0.007513903
161	0xbcc01475	-0.023447255
162	0x3d02ad31	0.03190345
163	0xbc45e8a4	-0.012079392
164	0x3d421bde	0.047389857
165	0xbc4c513a	-0.012470538
166	0xbd584607	-0.05280116
167	0x3b8844a4	0.004158573
168	0xbd060ca3	-0.032726895
169	0x3d0f6771	0.03501076
170	0x3c9430fb	0.018089762
171	0x3d4970f5	0.04917999
172	0x3d586209	0.05282787
173	0xbd6cc3c5	-0.057803888
174	0x3d016ace	0.031595998
175	0x3d1b5c02	0.037929542
176	0x3d349ed6	0.04409679
177	0xbb1d3210	-0.0023986138
178	0xbcab6e81	-0.020926716
179	0xbd61508a	-0.05500845
180	0xbcec1c09	-0.028821962
181	0x3d3d3af3	0.046198796
182	0xbd475e2d	-0.048673797
183	0xbd7c83b5	-0.061649043
184	0xbb599625	-0.0033201065
185	0xbd1180ad	-0.035523105
186	0x3af732a6	0.0018859699
187	0x3d58b454	0.05290635
188	0x3c4e0bc6	0.012576049
189	0x3c9983fc	0.018739693
190	0x3d3f2478	0.04666564
191	0x3cd913e5	0.026498744
192	0x3919984f	0.00014647956
193	0xbd7ab884	-0.061211124
194	0x3d03087c	0.031990513
195	0x3cbb8a52	0.022893105
196	0x3cb2d5f0	0.021830529
197	0x3c87c55e	0.016573604
198	0xbcc080d7	-0.023498936
199	0xbc19088d	-0.009340418
200	0xbcd7ccd7	-0.026342792
201	0xbc24ba89	-0.010054239
202	0x3c142634	0.009042311
203	0xbc53c956	-0.01292642
204	0xbc22e3dd	-0.009942022
205	0x3bd170b4	0.006391609
206	0xbce45e34	-0.02787695
207	0x3c8f0d23	0.017462319
208	0x3d02cbfa	0.03193281
209	0xbd739655	-0.05946954
210	0x3d2b1d41	0.041775946
211	0xbca83e48	-0.02053751
212	0xbc10b164	-0.008831356
213	0xba20b488	-0.0006130417
214	0xbb7dd0aa	-0.003872911
215	0xbc906c36	-0.017629724
216	0xbd7c666d	-0.06162112
217	0xbd6a1def	-0.057157453
218	0xbd1e5553	-0.03865559
219	0xbd33ba6d	-0.04387896
220	0xbce37109	-0.02776386
221	0x3b94bfb1	0.004539453
222	0x3d3a88ae	0.045540504
223	0x3b93587a	0.004496631
224	0x3d21f105	0.039536495
225	0x3c31fb7d	0.010863182
226	0xbd46a4a1	-0.048496846
227	0xbd236b2d	-0.039897133
228	0x3d2347c1	0.03986335
229	0x3cba9b9d	0.02277928
230	0x3ccbd607	0.02488233
231	0xbd10d9d5	-0.03536399
232	0xbcb16017	-0.021652265
233	0x3d048561	0.032353763
234	0xbc5a383f	-0.013319074
235	0x3ca30fb4	0.019904949
236	0xbd2fe40b	-0.042942088
237	0xbca2f956	-0.019894283
238	0xbc8b20b8	-0.016983375
239	0x3ce8da60	0.028424442
240	0xbd764d36	-0.060132228
241	0xbcb2e95e	-0.021839794
242	0xbd19f3bf	-0.03758597
243	0x3cc6d446	0.024271142
244	0xbc7262b9	-0.014794045
245	0xbd25d001	-0.04048157
246	0x3d1881b8	0.037233084
247	0x3cc44232	0.023957346
248	0x3c3a4f47	0.01137144
249	0xbd768b04	-0.06019117
250	0x3c1095a0	0.008824736
251	0x3bd2ac7f	0.0064292545
252	0x3d00b241	0.031419996
253	0xbcb67d66	-0.022276592
254	0x3bd1e0f7	0.0064049917
255	0x3d3f72ab	0.046740215

c2.bias f4 [64]
0	0xbcfb2744	-0.030658372
1	0x3cc6463b	0.02420341
2	0x3d1e9580	0.038716793
3	0x3c7c843c	0.0154123865
4	0x3d264b0b	0.04059891
5	0xbc5e88db	-0.013582434
6	0x3b58fe0e	0.0033110413
7	0x3c0c88ff	0.008577584
8	0x3cd1a05a	0.025589157
9	0x3d5d9c9f	0.054104444
10	0xbd18f400	-0.03734207
11	0xbd4c4e3b	-0.049879294
12	0x3b93a5dc	0.004505856
13	0xbd70f7a7	-0.05882993
14	0x3cc3f1d6	0.023919027
15	0x3d0ce694	0.034399584
16	0xbd6902c2	-0.056887396
17	0xbc873fcf	-0.016509918
18	0xbcf3bd09	-0.029753225
19	0x3b863e0d	0.0040967525
20	0xbd17a0e1	-0.03701866
21	0xbd47bf75	-0.048766572
22	0xbb32a910	-0.0027261414
23	0xbc07c79f	-0.0082873395
24	0x3cefe066	0.029281806
25	0x3cc5db64	0.024152465
26	0xbd082e36	-0.033247195
27	0x3c93827c	0.018006556
28	0x3c427c8b	0.011870514
29	0x3be82b5f	0.0070852484
30	0xbc4eebd5	-0.012629469
31	0xbb956bea	-0.0045599835
32	0x3d1021a9	0.03518835
33	0x3c8be2ee	0.017075982
34	0xbca52166	-0.020157527
35	0x3cf24348	0.029573098
36	0xbd71cb4e	-0.059031777
37	0xbcc70f6c	-0.024299346
38	0xbd76da5a	-0.06026683
39	0x3bc5985b	0.006030125
40	0xbd066518	-0.032811254
41	0xbcbbeece	-0.02294102
42	0xbcfeb3a7	-0.031091524
43	0x3d30ac20	0.0431329
44	0x3cf06977	0.029347165
45	0x3d1c7e4e	0.03820639
46	0xbd4da5e4	-0.050207034
47	0xbd5398ae	-0.05165928
48	0xbd174d80	-0.036939144
49	0x3c4541ac	0.012039583
50	0x3ccc13a3	0.024911707
51	0x3d41a38f	0.047275122
52	0xbcc441f3	-0.023957228
53	0x3cf63976	0.030056696
54	0xbd4f100c	-0.050552413
55	0x3c84412f	0.016144363
56	0x3c193ecb	0.00935335
57	0xbd3f103e	-0.04664635
58	0xbce43551	-0.027857454
59	0x3be4b8b5	0.0069800266
60	0xbd28ef96	-0.041244112
61	0xbbf3ccb0	-0.007440172
62	0x3d6447e1	0.05573261
63	0xbd2f9729	-0.042868767

c3.weight f4 [256, 64, 3, 3]
0	0xba9ec635	-0.0012113514
1	0x3c953013	0.0182114
2	0x3d17ff61	0.037108783
3	0xbcb94a4e	-0.022618439
4	0x3c175cd5	0.0092384415
5	0xbc91ee56	-0.017813843
6	0xbc2cbcc2	-0.01054305
7	0xbc472163	-0.012153956
8	0xbb7a58c2	-0.0038199876
9	0x3c8c9bb2	0.017164085
10	0xbcca3032	-0.024681184
11	0xbba6d878	-0.005091723
12	0xbc730f01	-0.01483512
13	0xbc5c32bb	-0.013439829
14	0xb9f120a2	-0.00045991415
15	0xbcf7eb44	-0.03026355
16	0xbca367bf	-0.01994693
17	0xbd0777ae	-0.03307312
18	0xbd2d813c	-0.042359576
19	0x3cbeff57	0.023315115
20	0xbd3c1676	-0.045919858
21	0x3d074360	0.03302324
22	0xbd3e9cb5	-0.046536166
23	0x3cd97e0a	0.026549358
24	0xbd12df82	-0.035857685
25	0xbc21a226	-0.009865319
26	0xbc61210b	-0.013740788
27	0x3d16cf57	0.03681883
28	0x3d0a7109	0.033799205
29	0x3d1a9305	0.037737865
30	0x3cd99b99	0.026563453
31	0x3b02c943	0.0019956387
32	0x3cd10890	0.025516778
33	0x3ccb2908	0.024799839
34	0x3b9245ee	0.0044639027
35	0x3c15ae6d	0.009135825
36	0xbb498e9e	-0.0030755172
37	0xbc18c45a	-0.009324158
38	0x3bfb3fb6	0.007667507
39	0xbd14720c	-0.036241576
40	0xbd0b5bcc	-0.03402309
41	0x3c92cfa1	0.01792127
42	0x3b2d78c3	0.0026469685
43	0xbd07c945	-0.03315093
44	0xbcea983e	-0.028637048
45	0xbbda1e15	-0.006656418
46	0xbba9b4a4	-0.0051790047
47	0xba612d61	-0.0008589831
48	0x3cea5101	0.028603079
49	0xbd265ee3	-0.040617835
50	0xbd34d8f0	-0.0441522
51	0x3b155e5a	0.0022791834
52	0x3ccbcbf5	0.024877528
53	0xb98c193e	-0.00026721688
54	0xbbfce554	-0.0077177677
55	0x3d08d4ee	0.03340619
56	0xbcd90494	-0.02649144
57	0xbcece182	-0.028916124
58	0xbd2d4dd4	-0.04231055
59	0x3ce72442	0.028215531
60	0x3b198ce1	0.0023429918
61	0xbd444543	-0.047917616
62	0x3d01a64a	0.031652726
63	0x3c8e7367	0.017389013
64	0x3d01caae	0.03168743
65	0xbbbc2eed	-0.0057428987
66	0x3c02f240	0.007992327
67	0x3cf5539e	0.029947098
68	0xbb9bf36b	-0.0047592423
69	0xbc69c9ab	-0.014269273
70	0xbd0760cd	-0.0330513
71	0x3c9f629b	0.019456198
72	0xbb8b1470	-0.0042443797
73	0xbd3231f6	-0.043504678
74	0xbcd0e4e5	-0.02549977
75	0x3d119835	0.035545547
76	0x3d049302	0.03236676
77	0xbcd86aae	-0.026418056
78	0xbc182bc5	-0.009287779
79	0x3b853556	0.004065196
80	0xbc9e9022	-0.019355837
81	0x3cfa8d1a	0.03058486
82	0xbc985cbb	-0.018598905
83	0xbd3c6e4d	-0.04600363
84	0xbd4ee814	-0.050514296
85	0x3cc900e5	0.02453656
86	0xbc662dc1	-0.0140489945
87	0x3cfcc4cc	0.030855559
88	0x3c833f52	0.016021404
89	0xbd0d2f42	-0.034468897
90	0xbcf50bdf	-0.029912887
91	0xbc5abd2b	-0.013350765
92	0xbbb12405	-0.005405905
93	0xbc882bd7	-0.016622467
94	0x3c1dd7de	0.009633986
95	0xbce7bcbc	-0.028288238
96	0xb9f9be19	-0.00047634615
97	0xbd29699e	-0.04136049
98	0xbc8b696d	-0.017018044
99	0xbb9bdbba	-0.004756418
100	0x3c140102	0.009033443
101	0x3c61b4df	0.013776033
102	0xbc97c44e	-0.018526223
103	0x3cca1ffb	0.024673453
104	0xbd05a213	-0.03262527
105	0x3ce6c4d2	0.028170023
106	0x3c51dc1d	0.012808827
107	0x3cc6509a	0.024208356
108	0x3c1ae185	0.009453182
109	0x3c0a834c	0.008454155
110	0xbcf3b874	-0.02975104
111	0x3ad65443	0.0016352016
112	0xbcb1c1a7	-0.021698786
113	0x3c8b2fe1	0.016990604
114	0x3ca65866	0.020305824
115	0x3c31acdb	0.010844435
116	0xbd133f21	-0.035948876
117	0xbbee6ad0	-0.0072759166
118	0x3bbba1f0	0.0057260916
119	0x3c8d3da6	0.01724131
120	0x3c8db9ab	0.017300447
121	0x3ccb58eb	0.024822673
122	0x3c884f00	0.016639233
123	0xbc346a30	-0.011011645
124	0xbc6f606a	-0.014610389
125	0xbcf5285e	-0.029926475
126	0x3c8391d7	0.016060753
127	0x3d035930	0.032067478
128	0x3d0cf876	0.03441664
129	0x3b61063e	0.0034335996
130	0x3c87b1f5	0.016564349
131	0x3d12cdba	0.035840727
132	0xbd037ee4	-0.032103434
133	0xbd0fda41	-0.035120253
134	0xbc92c24b	-0.017914912
135	0x3cc315c7	0.023814095
136	0xbcacfb39	-0.021115886
137	0x3c24a653	0.01004942
138	0xbcd5240b	-0.026018163
139	0xbb0972e4	-0.0020973021
140	0x3ce51a36	0.0279666
141	0x3ceb044e	0.028688576
142	0xbd1c6489	-0.038181815
143	0xbb2df17a	-0.0026541636
144	0x3d0525a5	0.032506604
145	0x3d0b04fb	0.033940297
146	0xbd20b776	-0.039237462
147	0xbbffeb4d	-0.0078100325
148	0x3b3eeb93	0.0029132112
149	0x3cb73532	0.022364233
150	0xbd04ffdd	-0.032470573
151	0x3c81efb3	0.015861368
152	0x3cb6537d	0.022256607
153	0x3cd1fcae	0.025633182
154	0x3d030a7f	0.03199243
155	0x3c83255c	0.016009025
156	0x3ca8217c	0.02052378
157	0xbb76668f	-0.003759775
158	0xbc833355	-0.016015688
159	0x3c8bb51d	0.017054135
160	0xbc11e9f2	-0.008905875
161	0x3c66e2b6	0.014092138
162	0x3c848480	0.016176462
163	0xbcdd82cf	-0.027039913
164	0xbc89d888	-0.016826883
165	0x3c0a7c16	0.008452436
166	0x3bf1e438	0.007381942
167	0xbc9f2ce5	-0.019430587
168	0x3d1ea4d7	0.038731422
169	0xbd034951	-0.03205234
170	0xbcb34d16	-0.021887343
171	0x3c4eb6d8	0.012616836
172	0xbd33c539	-0.043889258
173	0xbcec5777	-0.0288503
174	0xbc13bd4c	-0.0090173
175	0x3c97997d	0.018505806
176	0x3b837e52	0.0040128613
177	0xbb5fc57f	-0.0034144816
178	0x3cdd1aec	0.026990376
179	0xbb8087e1	-0.003922448
180	0x3cc045f6	0.02347086
181	0xbcecb4ed	-0.028894866
182	0xbc2f09e9	-0.010683515
183	0x3ca1b0f3	0.019737696
184	0xbc313601	-0.010816098
185	0xbb016d3d	-0.001974895
186	0xbd277646	-0.04088428
187	0xbc528570	-0.012849197
188	0x3cb0b45e	0.02157038
189	0xbd1ae35a	-0.037814476
190	0xbcebeeb2	-0.028800342
191	0x3c43eb66	0.011957979
192	0xbc7b7a05	-0.015348916
193	0x3cbbe722	0.022937361
194	0xbc5c1b14	-0.01343419
195	0x3a5c17ce	0.0008395881
196	0x3cc61a07	0.024182333
197	0xbc12a257	-0.008949838
198	0xbcb1059e	-0.021609124
199	0xbcfc9961	-0.030834856
200	0xbc01de78	-0.007926576
201	0xbd2bf1f4	-0.04197879
202	0xbc785a51	-0.015158252
203	0xbd07b859	-0.033134792
204	0xbc3a3c4f	-0.011366918
205	0x3d0bd85c	0.034141883
206	0xbd18d5e9	-0.037313376
207	0x3cbde008	0.023178115
208	0xbbf9fa85	-0.007628741
209	0xbce3c5e1	-0.027804317
210	0x3d0fa2b1	0.035067264
211	0xbcc9d65d	-0.02463835
212	0x3c741aeb	0.014898996
213	0x3c5db049	0.013530799
214	0x3be58c99	0.007005286
215	0x3c84dc07	0.016218198
216	0x3b4c53a3	0.003117778
217	0xbd0f8649	-0.035040174
218	0xbccdae05	-0.025107393
219	0xbc397502	-0.011319401
220	0x3c4d35fd	0.012525079
221	0xbc930d7a	-0.017950762
222	0x3bed7225	0.007246273
223	0xbd38b995	-0.04509886
224	0xbbe71952	-0.007052579
225	0xbbea0272	-0.007141405
226	0xbd05b652	-0.032644577
227	0x398636ac	0.00025599205
228	0xbcd7a9c4	-0.026326068
229	0xbb8cc186	-0.0042955307
230	0xbd290ed1	-0.041273896
231	0xbc910631	-0.017703148
232	0xba64d812	-0.0008729707
233	0x3c7ed843	0.0155544905
234	0x3ceab043	0.028648501
235	0xbc99c7fc	-0.018772118
236	0xbc40ebdd	-0.011774984
237	0x3d13d46e	0.03609126
238	0xbc356067	-0.011070347
239	0x3ce66d63	0.028128332
240	0x3ce90a25	0.02844722
241	0x3c63205f	0.013862698
242	0x3c95e4a4	0.0182975
243	0xbc025557	-0.007954917
244	0xbc84bb10	-0.01620248
245	0xbccde560	-0.025133789
246	0xbd3b2b2c	-0.04569547
247	0x3b6e3652	0.0036348295
248	0x3c57e997	0.013178251
249	0x3bd66d57	0.006543796
250	0xbd36962f	-0.04457682
251	0x3c67fe88	0.014159806
252	0x3c5d8ccd	0.013522339
253	0x3b947bc3	0.004531355
254	0x3ccc84c7	0.024965657
255	0x3bf8b2b6	0.0075896634

c3.bias f4 [256]
0	0x3cf679e2	0.030087415
1	0x3c285a77	0.010275475
2	0x3d407dc6	0.046994947
3	0x3c2f479a	0.0106982235
4	0xbbe41311	-0.0069602807
5	0x3ce7ec46	0.028310906
6	0xbc87cf4c	-0.016578339
7	0xbc54a58b	-0.012978922
8	0xbc6d742b	-0.014493029
9	0x3d1b7b24	0.037959233
10	0x399a9d88	0.0002949054
11	0xbcf313b1	-0.029672476
12	0x3c2aa3b7	0.010415009
13	0xbcf40911	-0.02978948
14	0x3ce517b1	0.027965399
15	0xbb446695	-0.002996837
16	0x3cecd161	0.028908433
17	0xbaedcf82	-0.0018143507
18	0x3d001f8f	0.031280097
19	0x3ccdec8c	0.025137208
20	0x3b8a2bdc	0.004216654
21	0x3ce9db7e	0.028547045
22	0x3cbc3cff	0.022978304
23	0x3cd82566	0.02638502
24	0xbca32cde	-0.019918855
25	0x3d084f31	0.033278648
26	0x3d204dc7	0.039136674
27	0xbba7444b	-0.0051045767
28	0x3c60cc5e	0.0137206
29	0x3c8716cc	0.016490363
30	0xbd24aa51	-0.04020149
31	0xbbce2ebf	-0.0062921937
32	0x3af15d5e	0.0018414666
33	0xbb853c54	-0.0040660296
34	0xbd1472dc	-0.03624235
35	0xbc49242c	-0.01227669
36	0xbc0bdf7f	-0.008537172
37	0x3c2583f2	0.010102259
38	0xbbc2e78e	-0.0059480136
39	0x3ca87354	0.020562805
40	0x3c43960e	0.011937631
41	0x3c0ecd86	0.008715993
42	0xbc644464	-0.013932321
43	0x3cd29bce	0.02570906
44	0xbc3e5301	-0.011616469
45	0xbc506251	-0.012718753
46	0x3bef5a66	0.0073044775
47	0xbd29a5be	-0.04141783
48	0x3cb0d0ae	0.021583881
49	0x3c962912	0.01833013
50	0x3cca893f	0.024723647
51	0xbb149862	-0.0022673835
52	0x3ccfc34f	0.025361685
53	0xbd027015	-0.03184517
54	0x3b9ecdf0	0.004846327
55	0xbccf2403	-0.025285726
56	0xbaa44462	-0.0012532587
57	0xbcf5f39c	-0.030023389
58	0x3ca0e517	0.019640489
59	0x3cba5b52	0.022748623
60	0x3c23e7c0	0.010003984
61	0xbc8d877a	-0.017276514
62	0x3cf2096a	0.029545505
63	0x3c91e2dc	0.01780837
64	0xbc0fcc9c	-0.00877681
65	0x3b97baf8	0.0046304427
66	0x3c63006f	0.013855084
67	0x3d215a95	0.039393026
68	0x3d0c3192	0.03422696
69	0x3b97c132	0.004631185
70	0xbc9b4fe3	-0.018958991
71	0x3c19fc81	0.0093985805
72	0xbc97b610	-0.018519431
73	0x3ba65811	0.0050764163
74	0x3d18d2ca	0.0373104
75	0x3c9ea92f	0.019367782
76	0x3d06e9a9	0.03293768
77	0xbd07b741	-0.03313375
78	0xbd2afce9	-0.0417451
79	0x3cb4b58f	0.02205923
80	0x3c68de53	0.0142131625
81	0xbd1a3b35	-0.03765412
82	0xbcd74c31	-0.026281448
83	0x3ba458a8	0.0050154515
84	0x3cae9750	0.021312386
85	0x3b90a6ec	0.00441443
86	0xbd311d36	-0.04324075
87	0x3b33e276	0.0027448214
88	0x3d2e6fe6	0.042587183
89	0x3c2fbc5a	0.010726059
90	0xbc6fb8d4	-0.014631469
91	0x3ce3af8b	0.027793666
92	0x3cf69735	0.030101398
93	0x3cab5313	0.020913636
94	0xbc2a5c67	-0.010398007
95	0xbce98ba8	-0.028508976
96	0x3cf7be17	0.03024201
97	0xbc6c763b	-0.014432485
98	0xbcfcc98c	-0.030857824
99	0xbcaf7dab	-0.021422228
100	0xbd0a382e	-0.033744983
101	0x3a6bd6aa	0.0008996526
102	0x3d31ba8b	0.043390792
103	0x3cec8c0c	0.028875373
104	0x3c1395c9	0.0090078795
105	0x3b37769f	0.0027994288
106	0x3cff27e8	0.031146958
107	0xbcb4c868	-0.022068217
108	0xbcb6b042	-0.022300843
109	0xbc6a8954	-0.014314968
110	0xbc304423	-0.010758433
111	0xbb373b9e	-0.0027959119
112	0xbd2dc783	-0.042426597
113	0x3cdbd761	0.0268361
114	0xba8041ee	-0.0009785274
115	0x3bf2bf6b	0.0074080727
116	0xba8c85e1	-0.0010721051
117	0xbc814239	-0.015778648
118	0x3bd50341	0.006500632
119	0xbc8c6fb4	-0.017143108
120	0x3b61ee0c	0.0034474162
121	0xbc730ece	-0.014835073
122	0xbc85d92d	-0.016338909
123	0xbcb20a3c	-0.021733396
124	0x3d2862c0	0.0411098
125	0xbcd01e49	-0.025405066
126	0x3b8429d2	0.0040333057
127	0x3c946fbc	0.018119685
128	0x3d0cad4d	0.03434496
129	0xbd22b659	-0.03972468
130	0xbc9aa390	-0.01887682
131	0x3d0fca45	0.03510501
132	0x3c1189a9	0.008882918
133	0x3d09a343	0.033602964
134	0xbbc1bf19	-0.005912673
135	0x3c8c70dc	0.01714366
136	0xbbc8cc70	-0.0061278865
137	0x3acdbcea	0.001569656
138	0xbc733cf3	-0.014846074
139	0x3c98ced8	0.018653318
140	0xbc17dc9c	-0.009268906
141	0x3cf10210	0.029419929
142	0xbc92c6c5	-0.017917046
143	0x3c8e7b99	0.01739292
144	0xbc60619f	-0.01369515
145	0xbc072138	-0.008247666
146	0x3d08802b	0.033325355
147	0x3d0107e8	0.03150168
148	0xbb91702b	-0.0044384203
149	0x3c9feaaa	0.019521076
150	0xbcc8f1cf	-0.024529366
151	0x3d2d7e08	0.04235652
152	0xbd238463	-0.039921176
153	0xbd045974	-0.03231187
154	0x3d18ea28	0.037332684
155	0x3c81b9b1	0.015835615
156	0x3c21b072	0.009868728
157	0xbc953374	-0.018213011
158	0xbcc86331	-0.02446136
159	0x3ba0f2f3	0.0049117743
160	0x3c48fe9e	0.012267737
161	0xbd2db99a	-0.04241333
162	0x3be5bc39	0.0070109633
163	0xbc5033a7	-0.012707627
164	0x3c731728	0.014837064
165	0xbccbdd0e	-0.02488568
166	0xbcd9f5c1	-0.026606442
167	0xbb8e0cde	-0.00433503
168	0x3c5cd5b0	0.013478681
169	0x3d0e3f41	0.034728292
170	0x3d3c027e	0.045900814
171	0x3c6d4cbb	0.014483626
172	0xbc54834a	-0.012970755
173	0x3d32ce27	0.043653633
174	0x3cd7fe05	0.026366243
175	0x3cd841d9	0.026398586
176	0xbd1275be	-0.03575682
177	0x3d10a3c0	0.035312414
178	0xbba8e325	-0.005154031
179	0x3cfbd6e2	0.030742113
180	0xbc92a8b2	-0.017902706
181	0x3ca21993	0.019787585
182	0x3d0db6ee	0.034598283
183	0x3d34cce0	0.044140697
184	0xbc994df5	-0.01871393
185	0xbd2176f7	-0.039420094
186	0x3bca38ec	0.0061713364
187	0xbd1f665c	-0.038915977
188	0x3cf5aa1a	0.029988337
189	0x3b416b2a	0.0029513338
190	0x3cd9f11d	0.02660423
191	0xbd0ff300	-0.035143852
192	0x3b1493a5	0.002267101
193	0xbd265a6e	-0.040613584
194	0xbd009f0c	-0.03140168
195	0xbd2fde7a	-0.04293678
196	0x3bf8641c	0.0075802933
197	0x3ca59ede	0.020217355
198	0xbd1e48f0	-0.038643777
199	0xbc838cb5	-0.016058305
200	0x3cbd55ea	0.023112256
201	0x3c17fbfe	0.009276388
202	0xbcec75c4	-0.028864749
203	0xbadda4c9	-0.0016910072
204	0x3cd1b66d	0.025599683
205	0xbccd301f	-0.02504736
206	0x3cbfcbde	0.023412641
207	0x3d525a59	0.051355693
208	0xbc0020a6	-0.007820284
209	0x3d487eb3	0.048948955
210	0x3cc097de	0.023509916
211	0xbc810333	-0.015748596
212	0x3cfbdd4a	0.030745167
213	0xbcc3c4e6	-0.0238976
214	0x3cc05691	0.023478778
215	0xbaeb20dc	-0.001793887
216	0xbd2b6484	-0.041843906
217	0x3ca71b29	0.020398693
218	0x3c0a16b2	0.008428263
219	0xbcbc261d	-0.022967393
220	0xbd263484	-0.040577427
221	0x3cacd097	0.021095557
222	0xbd1dc929	-0.03852192
223	0xbc8872da	-0.016656328
224	0xba0bdd70	-0.0005335426
225	0xbce7c7f5	-0.02829359
226	0xbd1d9ee9	-0.038481627
227	0x3a6e09d6	0.0009080445
228	0x3c9fee35	0.019522766
229	0xbd0e6e4d	-0.03477316
230	0x3d09049d	0.033451665
231	0x3d0d4f05	0.034499187
232	0xbcc27839	-0.023738967
233	0x3c553995	0.013014217
234	0xbd1d9696	-0.038473688
235	0x3cb402c4	0.021973975
236	0xbc9ad2d2	-0.018899355
237	0x3cc35079	0.023842083
238	0xbcfbfed5	-0.030761162
239	0xbcc3266b	-0.02382203
240	0xbd04818b	-0.032350104
241	0xbd2c722f	-0.04210108
242	0xb9c31f2a	-0.00037216517
243	0x3c6ed81f	0.0145778945
244	0x3cbd4256	0.02310292
245	0xbbb954ef	-0.005655877
246	0x3c3530e9	0.011059024
247	0xbbb63296	-0.0055602295
248	0x3ca42c8e	0.020040777
249	0x3d498059	0.049194667
250	0xbb80829c	-0.00392182
251	0x3b63a333	0.0034734725
252	0xbb0c5385	-0.0021412086
253	0x3c03e7f8	0.008050911
254	0xbc45a837	-0.012064031
255	0x3d01efd6	0.031722866

fc1.weight f4 [64, 256]
0	0xbd0c2b84	-0.034221187
1	0x3d7cb4f2	0.061696
2	0xbd210696	-0.03931292
3	0x3cd102c0	0.025514007
4	0xbbe75ae0	-0.0070603937
5	0xbd73e95a	-0.059548713
6	0x3d2f1d7a	0.04275272
7	0xbd7ea396	-0.062167726
8	0xbd04688a	-0.03232626
9	0xbd42e496	-0.047581278
10	0x3c0535a8	0.008130468
11	0xbbee6900	-0.0072757006
12	0x3ca099f4	0.01960466
13	0xbc9f0230	-0.019410223
14	0xbcd276a8	-0.025691345
15	0xbd3e8f00	-0.046523094
16	0x3b8a89b0	0.0042278394
17	0xbd7e3064	-0.062057868
18	0x3cad34ac	0.02114328
19	0xbd13362c	-0.035940334
20	0xbba2c6d0	-0.004967548
21	0x3d742680	0.05960703
22	0x3b4a5220	0.0030871704
23	0xbd0f374a	-0.034964837
24	0xbd0ce452	-0.03439743
25	0xbd3adec8	-0.045622617
26	0x3cd2a6ec	0.02571436
27	0x3cfe0710	0.031009227
28	0x3cb7c728	0.022433832
29	0x3c341860	0.01099214
30	0xbd1f4358	-0.038882583
31	0x3c2e25a8	0.010629095
32	0xbd1edfb6	-0.038787566
33	0xbcef62a4	-0.02922184
34	0xbd3bfda6	-0.045896195
35	0x39f21600	0.00046174228
36	0xbcca1b0c	-0.0246711
37	0xbc0e3710	-0.00868012
38	0x3cfdcfd4	0.03098289
39	0x3d0c32da	0.034228183
40	0x3cdb4d78	0.026770338
41	0x3d63cd6e	0.055615835
42	0xbc7cef10	-0.015437856
43	0xbd558562	-0.052129157
44	0xb96ebe00	-0.00022768229
45	0x3bebea10	0.0071995333
46	0xbd62c4e0	-0.055363536
47	0xbd7bac9c	-0.06144391
48	0xbd6835f4	-0.05669208
49	0xbbb0af30	-0.0053919777
50	0xbd7906f2	-0.06079764
51	0xbd1e07b2	-0.038581558
52	0xbcf15e7c	-0.029463999
53	0xbd65cd0c	-0.05610375
54	0x3d4a5124	0.049393788
55	0xbc229800	-0.009923935
56	0xbd5cca7c	-0.05390404
57	0x3c582370	0.013192043
58	0x3cb7b25c	0.022423916
59	0x3c28d5e0	0.010304898
60	0x3d4b0416	0.049564444
61	0x3d1d5970	0.038415372
62	0xbd0e5bfa	-0.034755684
63	0x3d430108	0.047608405
64	0x3d69781a	0.056999303
65	0xbd722624	-0.059118405
66	0xbd74f77e	-0.05980634
67	0xbcd71c00	-0.026258469
68	0xbc416168	-0.011803009
69	0x3c92f7d8	0.017940447
70	0x3d33c57e	0.043889515
71	0xbd574fb2	-0.052566238
72	0x3cc023cc	0.02345457
73	0x3d6341a6	0.05548253
74	0xbc2a13e0	-0.010380715
75	0x3d73b79a	0.059501268
76	0x3d4face4	0.05070199
77	0x3d6e9d9a	0.05825577
78	0x3d0266e0	0.03183639
79	0xbd5c979e	-0.05385553
80	0xbd4d7b0a	-0.050166167
81	0xbb4db9e0	-0.0031391308
82	0x3bea1980	0.007144153
83	0x3d142fe4	0.036178485
84	0x3ccbc888	0.024875894
85	0x3d116f0a	0.035506286
86	0xbcf0bd38	-0.029387102
87	0xbc95d004	-0.018287666
88	0x3d3f2fea	0.046676554
89	0x3cbbc570	0.022921294
90	0xbc543e60	-0.0129543245
91	0xbd6c7e64	-0.057737723
92	0xbd1d1cf2	-0.038357683
93	0xbd52cc4a	-0.051464356
94	0x3d4fb1d4	0.0507067
95	0xbc3c7b18	-0.011503957
96	0xbca7e710	-0.020495921
97	0x3c6c2be8	0.014414765
98	0x3d081e22	0.033231862
99	0xbd318486	-0.043339275
100	0xbcb80a20	-0.022465765
101	0x3d0bc264	0.034120932
102	0x3c5f2fe8	0.013622262
103	0xbc9a5fb0	-0.018844455
104	0xbd547ebe	-0.051878683
105	0x3d30d80a	0.04317478
106	0x3cffd018	0.031227157
107	0xbd797a2a	-0.06090752
108	0x3ce7b8ec	0.02828642
109	0xbc29db08	-0.0103671625
110	0xbc8e8e34	-0.017401792
111	0xbc59b9e0	-0.013288945
112	0x3ce75084	0.028236635
113	0x3bb39280	0.0054801106
114	0x3c8b0d34	0.01697407
115	0x3d47b2a2	0.048754342
116	0xbbfefbc0	-0.007781476
117	0x3ceeae44	0.02913583
118	0xbb831bc0	-0.004001111
119	0xbd3a56d2	-0.045492955
120	0xbcaba370	-0.020951957
121	0xbd6a52d8	-0.057207912
122	0xbd01e61e	-0.031713597
123	0xbd0a5218	-0.033769697
124	0xbcc4fd48	-0.024046555
125	0x3d181252	0.037126847
126	0x3d714a26	0.058908604
127	0xbbf99420	-0.007616535
128	0xbaea9780	-0.0017897934
129	0xbd1c22b0	-0.038119018
130	0x3d4e8e3a	0.050428607
131	0xbccc4fbc	-0.024940364
132	0x3d6c73c2	0.057727583
133	0x3b846f70	0.0040416047
134	0x3d46769e	0.048452966
135	0xbd40ff8a	-0.0471187
136	0x3c06e5b8	0.00823348
137	0xbc860ecc	-0.016364478
138	0x3d302a00	0.043008804
139	0x3c99d5f8	0.018778786
140	0xbd0bee82	-0.034163006
141	0x3d2f92f8	0.04286477
142	0xbccf9e30	-0.025343984
143	0xbd4f05ae	-0.050542526
144	0xbc8a1068	-0.016853526
145	0xbc805628	-0.015666083
146	0x3d259cae	0.040432625
147	0x3cd292bc	0.025704734
148	0xbc807a7c	-0.015683405
149	0xbd306b9c	-0.043071374
150	0x3cedffcc	0.029052638
151	0xbd3a21e0	-0.045442462
152	0xb9ef3a00	-0.00045628846
153	0xbd6e0ebe	-0.058119528
154	0xbc3bed40	-0.011470139
155	0x3d2524d6	0.040318333
156	0xbd1ac78a	-0.03778795
157	0x3d6a627e	0.057222836
158	0xbcc94e60	-0.024573505
159	0xbcd44d34	-0.02591572
160	0xbc3b9288	-0.01144851
161	0x3c951d28	0.01820238
162	0x3baf7320	0.0053543
163	0x3ca5ab6c	0.020223342
164	0x3bd2e4e0	0.0064359754
165	0xbcea2a1c	-0.028584532
166	0x3cd8c91c	0.026463084
167	0xbc4c4560	-0.012467712
168	0xbcb2bca4	-0.021818466
169	0xbd6484cc	-0.055790707
170	0x3c44d7e0	0.012014359
171	0xbd1fc6e8	-0.03900805
172	0x3b5f1080	0.0034036934
173	0x3d3859fc	0.04500769
174	0xbd085f3a	-0.03329394
175	0xbd7495e0	-0.059713244
176	0x3c61ce20	0.013782054
177	0x3d46336c	0.048388883
178	0x3d27c308	0.04095748
179	0x3d68f170	0.056870878
180	0xbd4862b6	-0.048922263
181	0xbcc4c168	-0.024018005
182	0x3c3a6b80	0.011378169
183	0xbd24de1e	-0.04025089
184	0x3d4da7c8	0.050208837
185	0xbd6ef2ce	-0.058337025
186	0xbcde3a64	-0.027127452
187	0x3d4b1540	0.049580812
188	0xbd79afc0	-0.060958624
189	0x3a6c9480	0.0009024814
190	0xbd134d08	-0.035962135
191	0xbc083f50	-0.008315876
192	0xbcf6381c	-0.030056052
193	0x3d36db38	0.044642657
194	0xbb9f8bb0	-0.004868947
195	0xbd3666f8	-0.044531792
196	0xbc19bbb0	-0.009383127
197	0x3c84d710	0.016215831
198	0xbd5e0142	-0.05420042
199	0xbb1a6140	-0.00235565
200	0x3bbe0720	0.005799189
201	0xbce18abc	-0.027531974
202	0xbd5b2f72	-0.053512044
203	0x3d57dec0	0.052702665
204	0x3d10bb48	0.035334855
205	0xbd3e0fea	-0.046401896
206	0x3cedc23c	0.029023282
207	0x3bca89b0	0.0061809644
208	0xb94d8800	-0.00019600987
209	0xbd1beee2	-0.038069613
210	0x3d74ae5e	0.059736602
211	0x3ce63ae4	0.028104253
212	0xbc466500	-0.012109041
213	0xbd7ae7d6	-0.061256252
214	0xbd660948	-0.056161195
215	0xbc35d3e8	-0.011097886
216	0x3d5664cc	0.05234222
217	0x3d259fe6	0.040435694
218	0xbcbdef40	-0.023185372
219	0x3c9567b8	0.018237934
220	0x3d745998	0.059655756
221	0xbd2c37ae	-0.042045288
222	0xbcf25eec	-0.029586278
223	0x3d77975a	0.060447074
224	0xbbb3f230	-0.0054915175
225	0xbbdb21d0	-0.0066873804
226	0x3a0f6080	0.0005469397
227	0xbc1894b8	-0.009312801
228	0xbc9dbac8	-0.019254103
229	0xbd598cc6	-0.053112768
230	0x3d436df4	0.04771228
231	0x3d3a5bce	0.045497708
232	0x3cd04828	0.025425032
233	0xb9e4b400	-0.0004362166
234	0xbd70ac94	-0.058758333
235	0xbd785c6c	-0.060635015
236	0x3bcd7cf0	0.006270997
237	0x3cf1d1a8	0.029518917
238	0xbd66687c	-0.056251988
239	0x3d6558ca	0.05599288
240	0xbc417b90	-0.011809245
241	0xbd78d72e	-0.060752086
242	0xbcdfe758	-0.027331993
243	0xbd59f506	-0.05321219
244	0x3cf49bb8	0.029859409
245	0x3d75b246	0.059984468
246	0xbd16d308	-0.03682235
247	0xbcc419e4	-0.023938127
248	0xbd47e8c8	-0.048805982
249	0x3c20f288	0.009823449
250	0xbd6704a2	-0.056400903
251	0xbc9d8044	-0.0192262
252	0xbc65f3b0	-0.01403515
253	0xbcb5c54c	-0.022188805
254	0xbcb6736c	-0.022271834
255	0x3d33674a	0.043799676

fc1.bias f4 [64]
0	0xbcb45298	-0.02201204
1	0xbbbc1348	-0.005739603
2	0xbcb7db28	-0.022443369
3	0x3cb6806c	0.022278033
4	0xbd15bd80	-0.036557674
5	0xbd61348e	-0.05498176
6	0xbce02549	-0.027361529
7	0x3d297b25	0.041377205
8	0x3cd0d8f3	0.025494074
9	0xbd1d140d	-0.0383492
10	0xbcea9338	-0.028634652
11	0x3ccd4fa9	0.025062399
12	0xbd22e617	-0.039770212
13	0xbc3e1636	-0.011601975
14	0x3cc638be	0.024196979
15	0xbcfdad8a	-0.030966539
16	0xbd3d2b82	-0.04618407
17	0x3d12a3f2	0.03580088
18	0x3c79ed83	0.015254381
19	0x3b0be34c	0.0021345196
20	0xbc5a3a50	-0.013319567
21	0xbce9a0a0	-0.028518975
22	0xbb46a7c4	-0.0030312398
23	0xb9f181b8	-0.0004606375
24	0xbd2da072	-0.04238934
25	0x3b418cf6	0.0029533482
26	0x3d37e5f4	0.044897035
27	0xbcb0fdf8	-0.021605477
28	0xbd1db080	-0.0384984
29	0xbbfbc2e0	-0.007683143
30	0x3d34e8fa	0.044167496
31	0x3cfbfc92	0.030760083
32	0x3ce2b80b	0.02767565
33	0xbcd16660	-0.025561512
34	0x3d2eee98	0.04270801
35	0x3d705354	0.058673218
36	0x3cf76044	0.03019727
37	0xbc4438b0	-0.011976406
38	0x3d31dd62	0.043424018
39	0x3ce7f9ae	0.028317299
40	0xbbba6353	-0.00568811
41	0x3d2be7eb	0.04196922
42	0x3c1b8890	0.009493008
43	0xbc5e27d2	-0.013559299
44	0xbd5644a4	-0.052311555
45	0x3bfb6303	0.007671715
46	0x3b863f7f	0.004096925
47	0x3d53a913	0.051674914
48	0x3d16c558	0.036809295
49	0xbcd190f8	-0.025581822
50	0xbc825b2d	-0.015912617
51	0xbce64ad5	-0.028111855
52	0xbbd654a8	-0.0065408535
53	0x3d14aa26	0.03629508
54	0xbd2704d2	-0.04077608
55	0xbcdf69bf	-0.027272103
56	0xbd87bb9e	-0.06627582
57	0x3d4f1e8c	0.05056624
58	0xbd1e445c	-0.03863941
59	0x3d105766	0.0352396
60	0xbd5f69d6	-0.054544292
61	0xbd702c9e	-0.0586363
62	0x3c28aa26	0.010294473
63	0xbcd2e933	-0.025745964

fc2.weight f4 [5, 64]
0	0x3d88beac	0.06676993
1	0xbc711a4e	-0.014715744
2	0xbcb73148	-0.022362366
3	0xbd88544d	-0.06656704
4	0x3d63a7dc	0.055580005
5	0xbd5d6bf0	-0.054058015
6	0x3e04407d	0.12915225
7	0x3d36819f	0.04455721
8	0x3c93596d	0.017986977
9	0x3db408bf	0.08790731
10	0xbbecfba0	-0.0072321445
11	0xbda240a9	-0.07922489
12	0xbd445693	-0.047934126
13	0x3dec9591	0.11551965
14	0xbb9191de	-0.0044424376
15	0xbdf7b371	-0.120947726
16	0xbdaae9de	-0.08345388
17	0xbd9c1cfd	-0.076227166
18	0xbcadcf8f	-0.021217136
19	0x3cc1b1e8	0.023644403
20	0x3d894f7e	0.06704615
21	0x3dc083c0	0.09400129
22	0xbcaea78e	-0.02132013
23	0x3dd152bf	0.10220861
24	0xbdd27298	-0.10275763
25	0xbdfdb458	-0.123879135
26	0xbce5b895	-0.028042117
27	0xbdc0e142	-0.094179645
28	0xbb89e240	-0.0042078793
29	0x3d230d04	0.039807335
30	0x3c94cd38	0.018164262
31	0xbd966510	-0.07343495
32	0xbde48e27	-0.11159926
33	0xbcd3ce40	-0.025855184
34	0xbd40ad80	-0.047040462
35	0xbc7e1347	-0.015507526
36	0xbd5fbecc	-0.054625317
37	0xbd876bee	-0.06612383
38	0x3d529131	0.051407997
39	0x3d753011	0.059860293
40	0xbdfb32ee	-0.122655734
41	0xbdb11b60	-0.086477995
42	0xbc83c8d0	-0.016086966
43	0xbc6602bd	-0.014038739
44	0xbdf2e476	-0.11859982
45	0xbcf1b53d	-0.029505366
46	0xbd16b016	-0.036789022
47	0x3cd805ba	0.026369918
48	0xbcec8286	-0.028870832
49	0xbdafe756	-0.08589046
50	0xbdb6ea8b	-0.08931454
51	0xbbdd761b	-0.006758464
52	0xbd9751e2	-0.07388665
53	0x3a56b51a	0.00081904384
54	0x3dc514f6	0.096231386
55	0x3c2ee2ad	0.010674161
56	0x3d1db6dd	0.03850447
57	0xbd61b314	-0.055102423
58	0x3de6834f	0.11255514
59	0xbd4a96ae	-0.049460106
60	0xbcd15108	-0.025551334
61	0xbcafef90	-0.021476537
62	0xbd6cad7e	-0.057782643
63	0x3cd56ac4	0.026051886
64	0x3d434194	0.047669962
65	0x3d73a804	0.059486404
66	0xbdb119d6	-0.08647506
67	0x3e0408ba	0.12893954
68	0xbdb03570	-0.086039424
69	0x3c0834f0	0.0083134025
70	0xbc37e57f	-0.01122415
71	0xbd8b7c7a	-0.068108514
72	0xbd1998a0	-0.03749907
73	0xbc26163d	-0.010137138
74	0x3d76c5ec	0.060247347
75	0x3d744244	0.05963351
76	0xbbbcb5a1	-0.0057589565
77	0xbdc42da9	-0.095790215
78	0xbdece419	-0.11566944
79	0x3d03ada7	0.03214803
80	0x3d559330	0.052142322
81	0xbd549b70	-0.05190605
82	0x3d2249a1	0.039621
83	0xbcd95226	-0.02652843
84	0xbd52afc4	-0.051437154
85	0x3de9e220	0.11420083
86	0x3d8941e2	0.06702019
87	0xbd171f9f	-0.03689539
88	0xbdf5fca4	-0.12011078
89	0xbdc624d0	-0.0967499
90	0xbd502cdd	-0.050824035
91	0xbd2e312f	-0.042527374
92	0x3df96df2	0.121791735
93	0xbd8828be	-0.06648396
94	0x3dbe4618	0.09290713
95	0xbb307778	-0.0026926678
96	0xbde0bde2	-0.10973717
97	0xbd82ce6e	-0.063870296
98	0x3c2d10e9	0.010563114
99	0xbd657b3f	-0.05602574
100	0x3cf76e5e	0.030203994
101	0x3d230df4	0.03980823
102	0x3d42fb45	0.04760291
103	0xbd17a7aa	-0.03702513
104	0x3d4067cc	0.04697399
105	0x3dde4639	0.10853238
106	0x3da42345	0.0801454
107	0x3deb5f71	0.114928134
108	0x3c5dcf40	0.013538182
109	0xbc875d24	-0.016523905
110	0xbd3b8714	-0.045783117
111	0x3ddf2e35	0.10897485
112	0xbc9ddd8c	-0.01927068
113	0x3cf36bf8	0.02971457
114	0x39a929ec	0.00032265426
115	0x3cc0f744	0.023555405
116	0x3df91232	0.121616736
117	0x3dd33ed9	0.103147216
118	0xbde64ef6	-0.11245529
119	0xbcb45950	-0.022015244
120	0xbb10d904	-0.0022102008
121	0x3d72a9fe	0.05924415
122	0x3d2d68bb	0.042336207
123	0x3d4ff36b	0.05076925
124	0x3bd8c0c0	0.0066147745
125	0x3dde143e	0.10843705
126	0xbdd17810	-0.10227978
127	0x3cd6df27	0.026229454
128	0xbd7f782c	-0.062370464
129	0x3c92bcdb	0.017912319
130	0xbcca7088	-0.024711862
131	0xbc4a97e5	-0.012365316
132	0x3c1c9300	0.009556532
133	0xbdc9e4f2	-0.09858121
134	0x3d47f0d2	0.04881365
135	0x3db3dd44	0.087824374
136	0x3d0362c7	0.032076623
137	0x3de7697b	0.11299416
138	0x3d13eda0	0.03611529
139	0xbc0fb8bd	-0.008772072
140	0xbdb4c279	-0.08826155
141	0xbd55c350	-0.052188218
142	0xbdb23723	-0.08701923
143	0xbdb83485	-0.08994392
144	0xbd88b800	-0.0667572
145	0x3bfc4120	0.007698193
146	0x3d63b9a1	0.05559695
147	0x3c856794	0.016284741
148	0x3dc6be58	0.09704274
149	0x3dce575a	0.10075255
150	0xbd4cc89c	-0.049996004
151	0x3df97505	0.12180523
152	0x3dcd9584	0.100382835
153	0xbd8baa24	-0.06819561
154	0x3dc4c324	0.096075326
155	0x3c929e48	0.01789774
156	0xbc5f3b70	-0.013625011
157	0xbdc17862	-0.09446789
158	0x3d83de49	0.06438882
159	0xbd9fdb26	-0.07805471
160	0xbdb86437	-0.090034895
161	0x3ddeff74	0.108885676
162	0xbd400af6	-0.046885453
163	0x3d9cc1f5	0.07654182
164	0x3e042fdb	0.1290888
165	0x3d80d174	0.0628995
166	0xbd380548	-0.04492691
167	0xbc8fb317	-0.017541451
168	0xbd73e7b8	-0.059547156
169	0x3d2e0574	0.04248567
170	0xbd1a7f98	-0.03771934
171	0x3cbe49ab	0.023228487
172	0x3c876388	0.016526952
173	0xbdd29dc8	-0.10284001
174	0x3da2f91c	0.0795767
175	0xbd4b53fa	-0.049640633
176	0x3ddf0527	0.108896546
177	0x3ce18e60	0.02753371
178	0x3c5c6f7c	0.013454314
179	0x3c817ea1	0.015807452
180	0xbdd8e7d0	-0.1059109
181	0xbd208f0d	-0.039198924
182	0xbcc9db18	-0.024640605
183	0x3d553778	0.052054852
184	0xbc5496ee	-0.012975438
185	0xbdeb9cb5	-0.11504499
186	0xbdd594cb	-0.10428771
187	0x3d9e8967	0.07741051
188	0xbd800b1a	-0.062521175
189	0xbdceadb4	-0.10091725
190	0x3d9726a7	0.07380419
191	0x3de5613e	0.11200188
192	0xbc724150	-0.0147860795
193	0x3d71b927	0.059014466
194	0x3dfce0a6	0.12347536
195	0xbaf9d5ec	-0.0019060946
196	0x3b918f60	0.0044421405
197	0xbbbb0b40	-0.005708128
198	0xbce29fcc	-0.027664088
199	0xbd4cb8b9	-0.049980853
200	0x3c986637	0.018603427
201	0x3c851097	0.016243262
202	0x3d0b5c14	0.03402336
203	0x3ddcb351	0.107763894
204	0xbcbc8ccd	-0.023016358
205	0x3b96f330	0.004606627
206	0x3dd1bd25	0.102411546
207	0x3dcdc677	0.1004762
208	0x3c4a0460	0.012330145
209	0xbbce0686	-0.0062873987
210	0x3df66564	0.120310575
211	0xbdd900cc	-0.10595855
212	0x3aaad900	0.0013034642
213	0x3c33b860	0.010969251
214	0x3cf295b3	0.029612398
215	0x3ca3c575	0.019991616
216	0xbda3de9c	-0.08001444
217	0x3cc672a1	0.024224581
218	0x3d04dfab	0.03243987
219	0x3dc989cd	0.098407365
220	0x3d5dd070	0.05415386
221	0xbdd6e6d2	-0.10493244
222	0xbcd59a09	-0.026074426
223	0xbccf4b17	-0.02530436
224	0xbd2054da	-0.03914342
225	0x3d47f438	0.04881689
226	0x3d0532a1	0.032518987
227	0x3d68b653	0.056814503
228	0x3d7a9976	0.061181508
229	0xbd000e98	-0.031263918
230	0x3a16e7ab	0.0005756567
231	0xbda5f18f	-0.08102714
232	0x3db6a25b	0.089176856
233	0x3deb9c14	0.11504379
234	0x3dc1e422	0.09467341
235	0xbd2dbd17	-0.04241666
236	0xbda9ef96	-0.082976505
237	0xbde07cfe	-0.1096134
238	0xbde91536	-0.11380999
239	0xbdbedf43	-0.093199275
240	0x3d4ae6c4	0.04953648
241	0x3c5379c0	0.012907445
242	0x3dbfc06e	0.09362875
243	0xbd594491	-0.053043906
244	0x3d2208c2	0.039559133
245	0x3d2d6a0c	0.042337462
246	0xbd97e6e6	-0.07417087
247	0x3d0cd5ba	0.034383513
248	0xbddffad0	-0.109365106
249	0x3b8ed4ac	0.0043588486
250	0x3cedf914	0.029049434
251	0x3d4d2f30	0.05009383
252	0xbd5e6bf4	-0.05430217
253	0xbdb1a204	-0.0867348
254	0xbd0791da	-0.03309808
255	0x3d1bc2fe	0.038027756

fc2.bias f4 [5]
0	0x3d66cd0d	0.056347895
1	0xbc85cac8	-0.016332045
2	0x3d1dd0fa	0.038529374
3	0x3d2921b3	0.041291904
4	0x3dc56b20	0.09639573
