SimpleQMIX_CNN_random_blox_basic/agent1_281.pth (torch, 745122 bytes, 10 tensors)

c1.weight f4 [32, 8, 3, 3]
00000000: 47fe 68bc 8f11 963d 27e7 013e 4755 1dbe
00000010: fc85 7e3c d407 3c3d fc4d 9f3d c243 aabc
00000020: fd74 1d3e 8486 40be 2af8 22bd 9ec4 033c
00000030: c91c 71be a6db 5f3e deea 3b3c 29c4 e1ba
00000040: 773c c9be f18e 953d 48af 153d 1b9a 51bd
00000050: 4d88 533c 7b68 d0bd a359 833b 4a32 c83d
00000060: 0fdb 29bd 2f3e 97bd 2584 cf3d ec8c 97bd
00000070: dad4 bebd 459b b83d a4ed 883d 9804 cf3d
00000080: 2a86 a5bd d109 d6bd 26c0 813d 1b20 833d
00000090: 8993 6bbd ce72 49be d997 d73d 3ca5 13be
000000a0: 24cd c2bd e0d6 413c df98 c33d d6c1 053e
000000b0: 837f d9bd a016 f43c b82a 63be 10dc 2e3d
000000c0: 6eb6 d0bd f76a 873e 8ed5 9a3d 2f4a 3b3c
000000d0: 64eb cd3e fe06 2b3c 7fd8 87be 9cf1 a7bd
000000e0: 465a dbbd 45b3 5a3d b5c9 503e 1e01 303c
000000f0: 54a9 1c3e 0405 c23d 91f2 d9bd a613 6dbc
00000100: b598 a9bd f124 febd 65c5 dbbd d724 62be
00000110: 1d40 ebbc 6e2d 7cbd 5413 0dbe 4de3 32be
00000120: afa5 873d 8141 6e3d c574 5e3c 58b7 693c
00000130: 5b62 48be c486 3bbe bea8 a2bd cc0f b73c
00000140: 3495 0d3e b2f0 b7ba f521 62bd 8f23 383d
00000150: 224f c8be 52a6 7f3e 201e 923b 04ff 49be
00000160: cfdc 6f3e 6a0d bdbe 4c5c e83d 582e d43d
00000170: 3b66 c13d e490 e5bd 63db a63d c2c2 90bb
00000180: c875 d53d c69d 8e3d 1cf2 e2bd 59d1 653d
00000190: c65a de3d eb79 9abd e873 873d 0da9 8fbd
000001a0: e7aa 9a3d eaa2 e63c de89 e1bd edba 923d
000001b0: b342 87bd b67e b1bd 0b95 ddbd 9c4c 273d
000001c0: 3082 f1bc d256 54be 4105 9f3d d91c 52bd
000001d0: df2f 783d 3651 843d 6ff2 2ebd 317a 34bd
000001e0: 4400 65bb 5649 6ebe 3863 79be e876 9b3c
000001f0: 2f12 debd c201 e9bd 4acf 8abe 8f33 ee3d
00000200: 7265 173e 9f77 34be e9b1 b9bc 6cb8 073e
00000210: 4030 ab3c 6740 f2bd ce73 d13d 4bba 413e
00000220: 4456 893e ac1a 303d 9e8a 763e e579 0c3e
00000230: c8de 7c3e 7a58 8e3d f265 c4bd 5ef0 943e
00000240: 679e 413b 0a08 63bd 8d50 4d3d 4b06 02be
00000250: e98a 99bd e5db fb3c 4855 813c f0db 763d
00000260: 47c1 e13d 8806 f33e 6fbf 0a3e 6516 ce3e
00000270: 6548 cb3e 7c87 8cbe f025 463e 3919 133c
00000280: cdca cc3d 3f1a a63e b66c 2a3d 3e0e 7f3b
00000290: 6ba1 c9bd 7575 6f3d 516d cf3d 4103 bb3b
000002a0: 8574 d93d d177 693d 6ac2 86bc a4de 23bc
000002b0: 3364 f9bb 07a8 43bc 7451 213d 06c6 80bb
000002c0: dd95 73bd 0813 da3d 66c3 193d 15cf 30bd
000002d0: 8547 243c 8828 29be 7a1b 0c3e 2924 8d3d
000002e0: a441 79be 17f8 f53d 90ad c13d 0a21 6ebc
000002f0: b985 663d e903 2cbe c44a 42be c92e 283c
00000300: 988c 66bd dffd 55be a3ab 54bc 9a13 143e
00000310: e7cc ddbd 9e35 b5bd 1b66 cabd f73d a8bd
00000320: ab6b 743d 9b27 74bb 2948 a93d f3ed a83d
00000330: 0f7e dfbd 6d02 b53d cfd5 293e 8284 c33d
00000340: 76fc 183e c70b f7bd 1f17 813e 3c0a 993e
00000350: 54c1 423d 6cb2 213e 2fe9 4e3d e795 f33d
00000360: e96b 09bd a9e8 843d 2820 923b 26cb 703d
00000370: c460 eabd c1e0 d53c 58d7 b9bd dad4 963d
00000380: 9a72 573d 9dd8 9f3e c249 22be 4363 733e
00000390: 5cfb 4e3e 33e4 1fbe 9fdc ec3e 6e2b f43e
000003a0: b89e 153b bf35 273e f367 c9bd da80 4ebd
000003b0: 9722 dbbd 8b98 983d 72ba ebbd b4bc 2b3d
000003c0: 3118 dcbd 831a eabd d243 a53d 3b28 be3d
000003d0: 2a52 c23d d42b a43d 3e21 c6bd f278 28bd
000003e0: 8bf9 f83b 7ae3 dbbc 4b13 c13d debf 293d
000003f0: bc5a 243c f61e d53d eff6 a43d 93d4 0cbc
-0.014220781 0.07327568 0.12685834 -0.15364562 0.015534874 0.045905903 0.07778546 -0.020784263
0.15376659 -0.18801314 -0.03978745 0.008042483 -0.23546137 0.21861133 0.011469571 -0.0017224598
-0.39303944 0.073026545 0.036544114 -0.051172357 0.012910915 -0.10176178 0.0040084883 0.09775217
-0.041468676 -0.073849075 0.101326264 -0.073999256 -0.09317942 0.0901399 0.06685951 0.10108298
-0.080822304 -0.10451091 0.063354775 0.06402608 -0.057513747 -0.19672701 0.105270095 -0.144185
-0.09511784 0.011831015 0.09550642 0.13062224 -0.10620024 0.029795945 -0.22184265 0.042690337
-0.10191046 0.26448795 0.075602636 0.011431261 0.4021865 0.010438679 -0.2653236 -0.0820038
-0.10710578 0.05339362 0.20389445 0.010742454 0.15298969 0.09473613 -0.10641969 -0.014470017
-0.0828108 -0.1240939 -0.107310094 -0.22084366 -0.028717095 -0.061566763 -0.13776904 -0.17469521
0.066233985 0.05816794 0.013577645 0.014264904 -0.1956877 -0.18313128 -0.07942341 0.0223464
0.13826448 -0.0014033525 -0.055208165 0.044955786 -0.39122874 0.2496579 0.0044591576 -0.19726187
0.23424076 -0.36924297 0.11345729 0.10360402 0.09443327 -0.11209276 0.081473134 -0.004417748
0.104228556 0.06963687 -0.11081335 0.056107853 0.108571574 -0.07542785 0.06613904 -0.07014666
0.07552128 0.028153855 -0.11012624 0.071645595 -0.06604519 -0.08666746 -0.10819443 0.040844545
-0.029481024 -0.20736244 0.07764674 -0.051297043 0.06059253 0.06460802 -0.04271167 -0.044061843
-0.0034942785 -0.23270163 -0.24354255 0.018977597 -0.10843312 -0.113772884 -0.27111274 0.11630928
0.14784792 -0.17623757 -0.022667842 0.13253945 0.02089703 -0.1182869 0.10227166 0.18918721
0.26823628 0.042994186 0.24076316 0.13718374 0.2469436 0.06950469 -0.09589757 0.29089636
0.0029543878 -0.05542759 0.050125647 -0.12697713 -0.07497198 0.030744502 0.015787736 0.060268342
0.11023193 0.4746592 0.13549589 0.4025146 0.3970367 -0.27447116 0.1935041 0.0089781815
0.09999619 0.324419 0.04160758 0.00389184 -0.09845241 0.058461625 0.10128272 0.005707175
0.106179275 0.05699903 -0.016450126 -0.010001812 -0.0076108216 -0.011941916 0.03938432 -0.0039298562
-0.059469093 0.10648161 0.037539862 -0.04316624 0.010026817 -0.16519368 0.13682356 0.068916626
-0.24341446 0.1201021 0.094569325 -0.014534244 0.05627987 -0.16798367 -0.18973833 0.010265061
-0.056286424 -0.20897625 -0.0129803745 0.14460602 -0.10830098 -0.08848117 -0.09882756 -0.08214944
0.059672993 -0.0037255052 0.082657166 0.0824851 -0.10912716 0.08838353 0.16585468 0.09546758
0.14940056 -0.12062793 0.25212952 0.2989062 0.047547653 0.15790719 0.05051535 0.11893826
-0.033550177 0.06489689 0.0044593997 0.058787487 -0.11444238 0.026108148 -0.09074277 0.07364817
0.052599527 0.3121995 -0.15848449 0.23768334 0.20213073 -0.15614395 0.4626207 0.47689384
0.00228302 0.16329096 -0.0983428 -0.05041585 -0.10699957 0.0745097 -0.11510171 0.04192801
-0.10746802 -0.11430838 0.08069576 0.09285017 0.09488328 0.08016172 -0.09674309 -0.041130967
0.007598107 -0.026841868 0.09427508 0.041442744 0.010031398 0.10406296 0.08054911 -0.0085956035

c1.bias f4 [32]
00000000: 3ae6 e9bc 214f 59bd 61e3 0dbe 995a c3bc
00000010: f12d 713d 3e4b 9dbb 1cc7 05bd e24d 333d
00000020: 51a2 263d b07b ca39 cb96 c4bd 3b72 963d
00000030: 655f 443b d8f9 87bd 2fa2 eb3c e041 cabd
00000040: abb4 323d 6c39 c6bc 24b7 91bd 5c19 863b
00000050: 7ebd 0fbe 507f 603d 8aee ae3c d2dc d1bd
00000060: 9113 7ebd 99d0 823d 83df bebd 0e64 5ebd
00000070: 058e aebd 445b c83d 9a30 343d d53c c3bd
-0.028552163 -0.05305398 -0.1385627 -0.023846911 0.058881704 -0.0048002293 -0.03266059 0.043775447
0.04068214 0.00038620597 -0.09599074 0.073460065 0.0029964086 -0.06639451 0.028763859 -0.09875846
0.04362933 -0.024197303 -0.071150094 0.0040923785 -0.1403713 0.054808915 0.021353979 -0.10247196
-0.06203038 0.06387443 -0.09319975 -0.05429464 -0.08523182 0.097830325 0.043991663 -0.09533087

c2.weight f4 [64, 32, 3, 3]
00000000: a6cf f0bc 9d35 a93d a478 6bbd 0c08 adbc
00000010: 9b40 4f3d b6b7 7dbd 1329 dabd 330f 0c3d
00000020: 4eb9 99bd 4667 0b3e 475c 523d 5b3a 2bbd
00000030: 9365 3d3e fab2 943d 5398 b63d 7aa6 cc3c
00000040: c35e 0e3a 23f0 04bd 06c7 893d 35f9 59bc
00000050: 4680 5a3d f38f 2e3d ca6e 2dbd bf15 ac3d
00000060: 4bef 833d 4daf 16be a3de 9a3d e9fa 563d
00000070: bf34 89bd b5b8 673b 873e 8e3d b1ef a13c
00000080: cc47 9bbb a55c 543d 6476 d83b f498 233d
00000090: ea29 2abd d467 8ebd 008f 503d 4048 14bc
000000a0: 046b d0bd 6a3a 073d 2d76 fbbc 152a 56bd
000000b0: c62c a43d 6e75 603d f9a7 c4bd bce7 913d
000000c0: b07a a0bc 8d67 28bd 2d87 babc e101 ca3c
000000d0: ada5 d4bd a267 34bc 0a87 2e3d 7ce9 453d
000000e0: a7e8 043d 20bd 06bc 9d09 273d b282 ea3c
000000f0: f53c 2b3d a43b 0c3d 2c61 4c3d 2b3b 83bd
00000100: 2ebd b6bd 3562 193d 375a 96bd ec54 a9bd
00000110: 6541 12bb ce0d f4bc e3eb 15be d17b f8bc
00000120: 858d 7a3d 5bae 923b 0c7a 633d 4b97 b43d
00000130: aef5 19bd ae93 2e3d 8e57 453d 64ae 7b3c
00000140: 6cce 193d 0ccb 7cbd 4d5b 92bc eadd b4bd
00000150: ff95 37bd 3b88 723d 62b5 0abe 003a a6bd
00000160: f18d 1f3c 8749 62bd 0218 ca3d aea2 d83d
00000170: 2bbc ab3d f4ad eb3d 80b5 a03c 63db 963d
00000180: e060 d23d 5b71 5f3d 53c4 123d 4a74 81bd
00000190: 0a99 893c 3300 2abe a387 03be 71b7 62bd
000001a0: 91af a4bd 3dfe d3bd 1a92 393c 9a29 c8bc
000001b0: 93a8 a9bc 1e21 a0bb bfb1 3ebc 88a5 45bd
000001c0: 817d 55bd 8a76 2a3d 1d12 d1bc 7b70 0abd
000001d0: a3c8 a7bc 2c7d 4a3d 51d3 37bc 9deb 59bd
000001e0: 2550 cd3c b8fd 9bbd d1e3 20bd 33f5 053d
000001f0: 118e bebc 727e a2bc f0a6 75bd cd14 2fbb
00000200: 6910 febd a8a9 8cbc de09 35bd 28eb 4fbe
00000210: defc 56bd a2c5 8c3c a43f 3ebd cfa5 bc3c
00000220: a0ec d63d ec5f 28bd cbe0 8c3b 58b9 803d
00000230: c185 64bc 92f8 623b aff0 be3d c776 553d
00000240: f5e7 bebc b5f8 afbc 3615 bdbc affa 213d
00000250: 28ee d03c 0f83 cfbb 0b5e 623d 1f7d 8c3d
00000260: 3f08 e13c bc3d fa3d 96a1 f93c d12f 1c3e
00000270: cdac c73d e6de acbb a630 003e 2b33 4a3d
00000280: e314 d13c 3744 053e 82ad 393d 7a1b 123e
00000290: 1942 46bd 47b9 b63d 25ff b83d 21ea 1dbd
000002a0: db41 d53d f440 a03d fa0b 6ebd 2ed1 963c
000002b0: 502a fb3c 0592 27bd c774 a63d 3840 953c
000002c0: 9866 66bd 6ed9 36bc ad46 803d 0646 e7bc
000002d0: c982 0abd 790a 38bd ea46 96bc db43 c6bc
000002e0: 6aae b9bd 3878 54bd 99f1 523d 2f04 2bbd
000002f0: 6b66 1cbc 48c3 a1bc 92c2 9d3d 51c8 10be
00000300: 9fc2 103c b8a6 a83c d212 55be 6821 41bd
00000310: 8513 bdba 69bb 35be 085c 4c3d 453a 7dbc
00000320: 08ec 5bbe 133a fcbc 509b 47bb 2e7f 23be
00000330: 2583 bdbd 620e 2cbd ab60 c9bd 4bb3 b8bc
00000340: f566 20be 657e 4ebd 8645 c2bc 4300 0abd
00000350: 8d92 4dbd 2f7a 84bd 731a 82bd 9995 713c
00000360: 96fb c03c e4a0 413d d4b0 87bd ada5 9a3c
00000370: 75fe bdbc bca9 0fbe 388d 97bc f3d5 ad3c
00000380: 0d36 cebd e99b e7bb ccc8 a5bc 202d 16be
00000390: 19b2 123d 99c7 3cbb 64c9 3cbe fc45 dabc
000003a0: 7a7c 1a3d c4a3 41be c48b 0bbe 5001 193d
000003b0: ee48 b2bd bc08 a8bd 0a9d 0c3d 9eef e4bd
000003c0: b299 03be 26f3 bc3d 9650 36be 5752 593c
000003d0: 052e 253d edd5 17bd 0fee f8bc 15f8 1c3d
000003e0: 5719 4cbd bb29 bcbc a5a9 2c3d 62ee 53bd
000003f0: fa0d a23d f3d3 23bc f3db 1f3d 9639 ce3d
-0.02939589 0.08262179 -0.0574881 -0.021122001 0.050598722 -0.06194278 -0.106523655 0.034194183
-0.07506047 0.13613614 0.051357534 -0.0418037 0.18495779 0.072606996 0.08915772 0.024981726
0.0005430991 -0.032455575 0.06727414 -0.0133040445 0.053344987 0.04261775 -0.042341985 0.08402585
0.06442126 -0.1471531 0.07561996 0.05248538 -0.06699514 0.0035357897 0.0694552 0.019767614
-0.0047387835 0.051846165 0.00660591 0.03994079 -0.04154388 -0.069533974 0.050917625 -0.009050429
-0.101766616 0.033014692 -0.030695999 -0.052286226 0.08016352 0.05479949 -0.09602351 0.07124278
-0.019589752 -0.04111438 -0.022769535 0.024659099 -0.10383163 -0.011011036 0.042609252 0.04831837
0.032448437 -0.008223802 0.040780652 0.028626774 0.04180618 0.034236565 0.049897358 -0.0640777
-0.08922802 0.037447173 -0.07341426 -0.08268151 -0.002231681 -0.029791739 -0.14640765 -0.030332478
0.06117012 0.004476351 0.055536315 0.08817919 -0.037587814 0.042621307 0.0481792 0.015361402
0.037550375 -0.061717078 -0.017865801 -0.08831389 -0.04482078 0.05921195 -0.13545755 -0.08116531
0.009738431 -0.055245902 0.098678604 0.10577904 0.083854996 0.11507788 0.019617796 0.073660634
0.10272384 0.054551464 0.03583176 -0.063210085 0.016796608 -0.16601638 -0.1284471 -0.055350725
-0.08041299 -0.103512265 0.011326337 -0.0244339 -0.020710265 -0.0048867604 -0.011639058 -0.048253566
-0.052121643 0.041616954 -0.025521332 -0.033798676 -0.020481413 0.04943578 -0.011219815 -0.053203214
0.02506263 -0.076167524 -0.039279763 0.032704543 -0.023261102 -0.019835684 -0.059973657 -0.002671528
-0.12405474 -0.017170742 -0.044198863 -0.20304549 -0.052487247 0.017184082 -0.04644741 0.023028282
0.104943514 -0.041107103 0.0042992583 0.062853515 -0.013947905 0.0034633023 0.093232505 0.052115228
-0.023303965 -0.021480897 -0.023081403 0.03954571 0.025504187 -0.006332762 0.055265468 0.068598025
0.027469752 0.12218806 0.030472558 0.15252616 0.09749756 -0.005275595 0.12518558 0.049365204
0.025522655 0.13014303 0.045331486 0.14268294 -0.04840288 0.089220576 0.0903304 -0.03855336
0.104129516 0.07824889 -0.05811689 0.018410292 0.030659825 -0.04091074 0.08127742 0.018219098
-0.056250185 -0.011160238 0.0626348 -0.028231632 -0.033816133 -0.044931863 -0.018344361 -0.024202278
-0.0906647 -0.051872462 0.051499937 -0.041752037 -0.009545903 -0.019746438 0.07703127 -0.14138915
0.008835464 0.02058731 -0.2080796 -0.047151 -0.0014425373 -0.17747273 0.049892455 -0.015455787
-0.21476758 -0.03078941 -0.0030457564 -0.15966484 -0.092535295 -0.042005904 -0.09832891 -0.022546431
-0.15664275 -0.050413508 -0.023714792 -0.033691656 -0.05018859 -0.06468617 -0.06352701 0.0147451395
0.023557466 0.047272578 -0.06625524 0.018877828 -0.023192624 -0.14029592 -0.018499956 0.021220183
-0.10068903 -0.0070681465 -0.020237349 -0.14665651 0.03581438 -0.0028805493 -0.184362 -0.0266447
0.037716366 -0.18910128 -0.13627535 0.037354767 -0.087053165 -0.08204791 0.03432945 -0.11178516
-0.12851599 0.092260644 -0.17804179 0.01326426 0.04032709 -0.03706925 -0.030386953 0.038322527
-0.049828853 -0.022969117 0.042153973 -0.05174101 0.07912822 -0.009999263 0.03902812 0.100695774

c2.bias f4 [64]
00000000: af8a 8cbd 2b80 81bd 60c4 87bc 681f 79bd
00000010: e25a dbbc 999f e3bc 85ad 1ebd 937a 743b
00000020: 162b 8d3b c03c 45bc 28e5 bc3b 9238 c23c
00000030: e9a6 7dbd 1438 a3bd dee5 cf3c 5c81 293d
00000040: ad62 063d d505 5a3c fcbd d5bb 3ccc 85bd
00000050: 991e fc3c 3423 74bd 7dd6 c5bd 559a 72bd
00000060: df02 39ba 5ba9 1a3b 1404 4bbd 93cd 1bbd
00000070: b70b a7bc efde 353d 9b11 8fbd bc91 723d
00000080: dbbe b4bb c004 143c 99d8 84bd 4a20 a2bc
00000090: b33e 10bd 873c 0cbd 4257 c83c 675a 92bd
000000a0: c24e 5d3d 5076 013d 94dc 27bc d703 963d
000000b0: 2b96 c23b 411d a13c 39c6 4dbc e75b 34bd
000000c0: 8af8 34bd e328 2b3d b005 6fbd c314 38ba
000000d0: 3a3d f6bb d2a4 a73c f576 37bd 4756 7abd
000000e0: 2b43 fbbc dee8 9a3c efee d73b 3e07 cdbc
000000f0: 41fe 2ebd 5746 053d b9d1 b63c 1a48 873d
-0.06862389 -0.06323274 -0.016573131 -0.060820967 -0.026776735 -0.027786063 -0.0387397 0.0037304505
0.0043081148 -0.01203841 0.0057646222 0.023708615 -0.061926756 -0.079696804 0.025378164 0.041383132
0.03280895 0.0133070545 -0.006522892 -0.06533095 0.030776309 -0.059603885 -0.09660051 -0.059229214
-0.0007057618 0.002359948 -0.049564436 -0.038037848 -0.020391328 0.04440206 -0.0698578 0.059221014
-0.005515916 0.009034336 -0.06486625 -0.019790787 -0.035216045 -0.03423741 0.02445567 -0.07146149
0.054030187 0.031606972 -0.010245461 0.07324951 0.0059383116 0.01966727 -0.012559467 -0.044032957
-0.044182338 0.04178704 -0.058355033 -0.00070221367 -0.007514623 0.020464335 -0.04479118 -0.061117437
-0.030671677 0.018909868 0.0065897624 -0.025027867 -0.042722944 0.032537784 0.0223168 0.06605549

c3.weight f4 [256, 64, 3, 3]
00000000: 64bf 743d 51d1 c9bc 1fc9 9e3d 4c47 aeba
00000010: f8b3 b43c 678e 6a3d f79b 34bc 249c 9cbb
00000020: 4ab4 bb3b 99b1 2e3d d01e 6b3d 5d99 1c3d
00000030: 6a41 883d 2e5f 803d d803 093d 128e ad3d
00000040: fc0a 843d a3bd 4d3c ad1a 1e3d f358 fcbc
00000050: e678 df3c 5077 2b3d af6e 36ba 551c 753c
00000060: 9420 d93c 7c5c eb3c c6cb b33c e636 c93d
00000070: e587 a13d ddf3 073d 28ad dc3d de40 623d
00000080: d7db d43d a28b 5c3d 20b0 8c3d 7f6c a63d
00000090: cb61 80bd 0399 bc3d 60af 9e3c c4d5 1abd
000000a0: f1e5 b43c edb4 473d 0a46 a3bc 087f e53c
000000b0: 73dc 093c 449c aebb cc39 7e3d b12d 8fba
000000c0: 125c d5bc e1e7 963d 64c0 2cbd 6f37 99bd
000000d0: d952 0e3d a83c 803b 364c aa3d fe65 2bbd
000000e0: 516d 3a3b cde7 013c 350b e6bc 2fe0 a73b
000000f0: 20a9 4f3d 1dd1 78bd e8a8 333d 2d44 453d
00000100: 1887 273d 079c 4a3d 370e 953b f2e9 653d
00000110: 8e80 833d 1934 243d 6977 8f3d 78dc 213c
00000120: d58b 743c 630b f43c 15cc 9c3d 0794 203d
00000130: 0c23 9b3d c0ef f83c 56b9 113d d86f 6a3d
00000140: 41ed e03b 9dbc 653d 5cfc 713d cf22 813d
00000150: 14d3 7e3d ab9f 253d f376 ce3d fc70 2a3d
00000160: a8ae cf3d 4d02 473d 5624 a23c 86ef 7c3d
00000170: fec6 ad3b d4c4 0a3c 5d35 bc3d d45c 41bb
00000180: db7a 723c ae26 793d fa64 063a c543 563d
00000190: cf1c 6bbd 03e2 bbbb d4b0 1c3d 260b 11bd
000001a0: 93a1 573d 094e b03d b668 893c 82c7 143d
000001b0: 78d2 a83c 856a 893d 420f 143c 62eb 4a3c
000001c0: 7293 6d3d b1e1 643d e3f3 93bb c1af 833d
000001d0: 2662 c1bb ce02 8b39 f471 893c f50e 99bc
000001e0: ce08 ddbb 96eb 093d b93d 9c3c 2826 4d3d
000001f0: fad4 0e3d 06ef 3ebc 3984 56bd 1e0b b1bd
00000200: 9cf5 53bd ddf1 30bd 80a2 7cbd dd2a 1e3d
00000210: 606c d0bc 8d61 e5bb 4ee3 253d 7a9d 37bb
00000220: fcc1 2dbd 6b46 b13c fcf0 9c3c a72b be3b
00000230: cd0a 3c3d d976 343d 9923 36bc 5bd4 d83c
00000240: 49e0 91bc 2a5f 21bd ebae dabc d385 b9bc
00000250: bf91 7abd 6647 4bbd 7332 42bd 3ac1 43bd
00000260: d23c 23bd 8783 003e de56 0d3d 7e34 b63d
00000270: 2b56 903d 9e5d a53d de8e 903d 8a44 c33d
00000280: d77d c03d 5d86 053e 149b b6bc d6c8 703c
00000290: 80ff 4fbd 6f3b 63bd e41a 973d b6c9 9ebb
000002a0: f7e5 5bbd 7606 513d 6d6f 60bd fb06 723c
000002b0: ab98 abbc ebdd 443d 8623 e53c b81a 573d
000002c0: 1ab5 0a3d 7159 2b3d 962d 493d d60d b73c
000002d0: bd1e e23c 0c8f 5c3c 9afb 443d 2c20 123d
000002e0: 46b2 8c3c d6b4 6ebb 153f 183d e243 483d
000002f0: 52ba 9f3c 7df1 f13c 1eb5 343d 9de9 193c
00000300: dfd3 863c fd05 bf3b 74e6 30bd 5e3e 5a3c
00000310: 38c9 87bb 75d5 663c 644b 8f3c 46fc c5bc
00000320: 31ba b93c b457 923d e7ea a93c 0b4d 1a3c
00000330: 02d7 e33c d31e e1bb 76c3 193d 52ec da3b
00000340: faef eebb 8cbe 463c 93d4 243c c687 3ebc
00000350: aa42 183d 76ee 513d 5500 6dbc 2940 e33a
00000360: fcfc 5cbb c33d 81bd 8a05 51bc b228 85bd
00000370: 8e4a 9bbd a200 f6bb 41db 16bd e3e5 80bd
00000380: 18d1 abbc 5e49 9d3d c94b a93c fbf4 c73c
00000390: 18a8 9fba b920 ebbc 402f 7d3d a11e ae3c
000003a0: 5add 433c 7cfb 263d 565f 813d 0187 293d
000003b0: f04f 003a a219 913d e8a4 9b3b 63bd 833d
000003c0: acf4 203d ec8e 02bc ff8e e43c 2e1f 813d
000003d0: fe2a c03b afcd b43b d502 bfbb 5cd7 f53c
000003e0: c56e fabb 6ff7 543d 042c 983b 7563 d83c
000003f0: 78ec 6f3c 6446 063d f766 503a ac37 aebc
0.059752837 -0.024635943 0.077532046 -0.0013296395 0.022058472 0.05726471 -0.011023513 -0.0047793556
0.0057282792 0.04264984 0.057402432 0.038232196 0.06653102 0.06268154 0.03345093 0.084743634
0.064474076 0.01255742 0.03859966 -0.030804133 0.027279329 0.041861832 -0.0006959242 0.014960368
0.026504792 0.028730623 0.021947753 0.09824924 0.07887248 0.03319155 0.107752144 0.055237643
0.103934936 0.0538441 0.06869531 0.08126163 -0.062686525 0.09208872 0.019370735 -0.03780152
0.0220823 0.04875653 -0.019930858 0.028014675 0.008414376 -0.005328687 0.06206684 -0.0010923651
-0.02604488 0.07368446 -0.042175665 -0.07481276 0.03474698 0.003913481 0.08315317 -0.041845314
0.0028446505 0.007928801 -0.028081516 0.0051231603 0.0506984 -0.0607463 0.043862253 0.04816072
0.04090032 0.049465206 0.0045488137 0.05613131 0.06421004 0.040088747 0.070051976 0.009879224
0.014925917 0.029790586 0.07656113 0.03920367 0.07575044 0.03038776 0.03557714 0.05723557
0.0068642204 0.05608808 0.05907856 0.06305467 0.06221302 0.040435474 0.100812815 0.041611657
0.10140735 0.04858618 0.019792717 0.061751865 0.0053032627 0.008469779 0.09189866 -0.0029504793
0.014799799 0.060827903 0.0005126741 0.052310724 -0.05740052 -0.00573373 0.038254574 -0.035411023
0.052644324 0.08608634 0.016773563 0.036323078 0.020608172 0.0670977 0.009036841 0.012385221
0.058001943 0.0558793 -0.0045151575 0.06430007 -0.005901593 0.00026514236 0.01677797 -0.01868389
-0.0067454344 0.033671938 0.0190724 0.050085217 0.03487108 -0.011653667 -0.05237219 -0.086446986
-0.051747903 -0.04319941 -0.06167841 0.038615096 -0.025442302 -0.0070001543 0.040499978 -0.0028017447
-0.042421326 0.021640023 0.019157879 0.0058035436 0.045908738 0.044058654 -0.011116886 0.026468446
-0.017807143 -0.039397396 -0.026694736 -0.02264682 -0.06117415 -0.049628638 -0.047411393 -0.047791697
-0.039852925 0.12550174 0.03450667 0.08896731 0.07047685 0.08074497 0.070585 0.09534557
0.09399002 0.13039537 -0.022290744 0.0146963205 -0.050780773 -0.055476602 0.07378176 -0.004845823
-0.05368611 0.051031552 -0.054793764 0.014772172 -0.020946821 0.0480632 0.02797104 0.052515715
0.03386412 0.041833345 0.04911574 0.022345465 0.027602548 0.013461839 0.04809151 0.035675213
0.017174851 -0.0036423705 0.037169535 0.048892863 0.019498024 0.029534096 0.04411804 0.009394077
0.01645845 0.0058295713 -0.043188527 0.013320534 -0.00414386 0.014088978 0.017492004 -0.024168145
0.02267179 0.07145634 0.020741893 0.009417783 0.027812485 -0.0068701296 0.03753992 0.0066810036
-0.007291791 0.012130391 0.010060447 -0.011629051 0.03717295 0.051252805 -0.014465411 0.0017337847
-0.0033720126 -0.06310608 -0.012757668 -0.06501903 -0.075825796 -0.0075073997 -0.03683019 -0.062938474
-0.020973727 0.07680009 0.02066602 0.024408808 -0.0012180833 -0.028702127 0.06181264 0.02125484
0.01195463 0.040767178 0.06317012 0.041388515 0.0004894724 0.07084967 0.004749883 0.06432607
0.039295837 -0.007968646 0.027900217 0.06304775 0.0058645 0.0055176835 -0.005829195 0.030009918
-0.0076425993 0.051993784 0.004643919 0.026414612 0.014643781 0.032781973 0.0007949913 -0.02126678

c3.bias f4 [256]
00000000: 56fe 34bd 7e79 8c3c 0adc 633d 62aa 52bd
00000010: 6c85 70bb 020c ccbd d468 42bd a508 ee3d
00000020: b2cd ea3b 9350 fdbc fe1d 88bd 96f2 eabc
00000030: 074f 3bbc e20d b8bd 2e16 b3bc 6c43 ccbb
00000040: abb7 26bd 5f29 9cbd 1715 67bd c915 10bd
00000050: f936 6cbd 77e2 bebc 4816 03bd 1aa7 223d
00000060: f395 5ebd a874 9ebd 2381 2abc b9cd 19bd
00000070: 2085 703b 678c 503c 1001 aabc f020 00bb
00000080: 347c 75bc b817 41bc 9ba3 6f3c a03c 1fbd
00000090: 41bd 24bd 84d2 9abd de5b 30bd 1c43 41bd
000000a0: 0457 dcbc b53f f83b 3337 9dbd 5ef5 1dbc
000000b0: 3345 56bd 6a24 773c 0ab5 493c 71f8 18bc
000000c0: 0af3 cfbd 248c a3bc 7ecd 6dbd 589a 80bc
000000d0: 7a06 5abd 31c2 2dbc 58ec 963d fe2b 263d
000000e0: 261f 23bc af94 b63d 31da 50bc 719b 3bbc
000000f0: ce86 f3bc a919 04bd e183 eb3b 0b29 43bd
00000100: 8068 773b 4865 543d 204c 913d 7dd3 8a3b
00000110: d84b 40bc a810 553b b4b7 a1bc 0019 efbc
00000120: d8f1 7dbc ae7b 3fbd e2bc bd3d d00b 97bd
00000130: 7668 12bd 77fd 87bc 7c8a b23d e648 5bbc
00000140: bd79 b03d e396 e63c af81 73bd 9f5c d93d
00000150: dc80 b03d aa4d 9cbc 0ed9 1dbc 2eea 743c
00000160: eef5 3d3d 42d8 df3b 7595 5bbd e65a 36bd
00000170: 9bdf 513d 9fca 61bd d54b 76bc 16e3 2d3d
00000180: fa3e a0bd f2d1 1c3d 02b8 bfbc 4a10 80bb
00000190: 1754 33bd c10a f03c e49e 0bbd 9c00 b5bc
000001a0: dd69 26bd 7cef 81bd 72a7 19bd dd72 d03d
000001b0: 5f9d 053a 9c3f e8bb 69eb cd3d 77cc 2fbb
000001c0: 5a5d 38bd 2100 d1b9 ff87 333c 2662 12bc
000001d0: f6fa bb3b b80a 6bbd b10d 66bd db7e 84bc
000001e0: 4e50 933c 40cc 1dbc 1f9e 433d 59a6 8d3d
000001f0: 4694 e7bc 72dc 4abd 22f8 e1bb acb7 02bd
00000200: 6b78 b53c 917a 973c 6e02 0ebc daf0 62bc
00000210: c3c8 0dbd 2e1c 8abb cebc 85bd b753 a23c
00000220: 56c3 61bc 7f5b 96bd 65bd 69bd ca39 d3bc
00000230: ffad 60bd f337 3abd bcc7 c3bc 0c28 8c3c
00000240: fe33 323d 2cec fbbc b861 0cbc 96b1 fa3c
00000250: b3a7 46bd 02d6 303d 63fe 81bc e209 a53d
00000260: 9f4f 96bd 6cae c03d 1136 60bd e4dd 3cbc
00000270: 5814 f6bd 0ee7 babb 2af8 cbbb 5b9a 883d
00000280: fe75 ca3c 9380 a33c c967 a8bd d874 c93c
00000290: 0060 06bc 60cf 3abd 4890 bc3c 2ad7 813c
000002a0: 7fe6 11bc ab5b 693d 15e3 36bd 170b e73b
000002b0: eb5a adbc f294 b6bd c951 64bc 88ea 2dbd
000002c0: c94c 8cbd 1e35 aabd 4939 fdbc a4bd eebc
000002d0: c6fa c23c 7625 bc3c db8e 0dbd b20f f0bb
000002e0: 9916 4e3d a3cd 31bd 7901 edbc 9a79 0c3d
000002f0: a182 92bc 2dc2 31bd 3565 89bc 435c f2bc
00000300: 93ed e63c 8ba8 47bd 15b0 97bc 67f9 163d
00000310: c4cd 3fbc ff90 c8bc dd64 d7bc 60ff 89bd
00000320: 22cf f03c a4e4 42bc 8091 1bbd de2a 8d3b
00000330: 1c6a b8bb 95f8 063d b897 953c 248a 11bc
00000340: efee a73c 6f4a 01bd cf2d 2dbc dae1 6bbd
00000350: 9214 3dbc 1bfc 80bd 1e74 3abd ccc0 bdbb
00000360: e64a f5bb b3a9 1e3d 8df2 ad3d 5fd4 0dbd
00000370: bcc9 48bc ce2d 963d 4884 6bbd 383a 37bd
00000380: 39e7 4fbd 7372 e73c 9c8c 5dbc 7026 15bd
00000390: 3096 a83b f3bd 95bc 6ca6 3bbc cc81 58bd
000003a0: eb2b b8bb 1ae2 88bc 5adc b63c e770 edbc
000003b0: 49ff f03d 5288 edbc 084d d73d 1eb6 aabc
000003c0: 13b9 21bd 671a 63bd 30d8 11bc f85c 10bc
000003d0: b840 4dbd a198 b2bc 2e55 bf3b a563 2dbd
000003e0: 1abf 3cbd 81b9 1cbd 9279 1f3d 94e8 a73b
000003f0: ddeb d33d 2823 e4bc 52ba 55bd 7f0f 86bc
-0.044187866 0.017147776 0.055629767 -0.05143202 -0.003670062 -0.09963228 -0.047463253 0.116227426
0.007165634 -0.03092221 -0.066463456 -0.028680127 -0.011432416 -0.08987023 -0.021861162 -0.0062336233
-0.040702503 -0.076250784 -0.056416597 -0.035177026 -0.057669614 -0.023301346 -0.03200367 0.03971014
-0.05434222 -0.07737094 -0.010406765 -0.037549708 0.0036700442 0.012728787 -0.02075246 -0.0019550882
-0.014983226 -0.01178544 0.014626409 -0.038876176 -0.04021955 -0.07559684 -0.04305636 -0.04718314
-0.026896961 0.007575954 -0.07676544 -0.00964102 -0.052312087 0.015084365 0.0123112295 -0.009336577
-0.10153778 -0.019964285 -0.0580573 -0.015698597 -0.053228833 -0.010605381 0.07369298 0.040569298
-0.009956157 0.08915078 -0.012747333 -0.011450634 -0.029727366 -0.032251034 0.007187352 -0.047646564
0.0037751496 0.0518544 0.07094598 0.004236637 -0.011736833 0.0032511149 -0.019740917 -0.029186726
-0.015499555 -0.04674881 0.09264542 -0.073753 -0.035744153 -0.016600354 0.0871782 -0.01338408
0.0861697 0.02814812 -0.059449848 0.10613369 0.08618328 -0.019080002 -0.009634269 0.014948411
0.046377115 0.0068312 -0.05360933 -0.04452028 0.051238637 -0.055124875 -0.015032728 0.042452894
-0.07824512 0.038286157 -0.023403171 -0.003908192 -0.043781366 0.029302003 -0.034087077 -0.022095017
-0.040628303 -0.06344506 -0.037513204 0.101781584 0.00050969975 -0.007087661 0.100546665 -0.0026824751
-0.045010902 -0.00039863682 0.010957717 -0.008934533 0.005736704 -0.05738327 -0.0561654 -0.01617377
0.017982628 -0.0096312165 0.047758218 0.06916494 -0.028268944 -0.04952664 -0.006896035 -0.031913444
0.022152146 0.018491061 -0.0086675715 -0.013851369 -0.03461529 -0.004214785 -0.06530152 0.019815309
-0.013779482 -0.0734167 -0.057065386 -0.025784392 -0.054853436 -0.045463514 -0.023898952 0.01710894
0.043506615 -0.030752264 -0.00856822 0.030602258 -0.048499774 0.043172844 -0.015868371 0.080585256
-0.07339405 0.09408268 -0.05473906 -0.011527512 -0.12015599 -0.0057038134 -0.006224652 0.06670066
0.024714466 0.01995877 -0.082229204 0.024591848 -0.008201599 -0.045607924 0.023018017 0.015849669
-0.008905052 0.056972187 -0.044650156 0.0070508826 -0.021161517 -0.08915128 -0.013935515 -0.042459995
-0.06850583 -0.083109125 -0.030911105 -0.029143162 0.023801219 0.022967082 -0.034560066 -0.00732609
0.05031452 -0.043409 -0.028931366 0.034295656 -0.017884554 -0.04339807 -0.016771892 -0.02958501
0.028189456 -0.04874472 -0.01851658 0.036858942 -0.011706773 -0.024483202 -0.026293213 -0.06738162
0.029395644 -0.0118953325 -0.037980556 0.0043080887 -0.0056278836 0.03295191 0.018260822 -0.008883033
0.020499675 -0.031565126 -0.010570004 -0.057588436 -0.011540549 -0.06298085 -0.045520894 -0.0057908054
-0.007485735 0.038736057 0.084935285 -0.03462636 -0.0122551285 0.07332955 -0.0574992 -0.044733256
-0.05075762 0.028252816 -0.013522293 -0.03641361 0.005144857 -0.018279051 -0.011453252 -0.05285816
-0.00562047 -0.016709376 0.022321869 -0.0289845 0.11767442 -0.028995667 0.105127394 -0.020838793
-0.03948314 -0.0554451 -0.008901641 -0.008811228 -0.05011055 -0.021801295 0.0058390116 -0.042331357
-0.046080686 -0.038262848 0.038934298 0.005124161 0.10347722 -0.027848795 -0.052179642 -0.016364811

fc1.weight f4 [64, 256]
00000000: 0782 333d 3b86 b43c 0f52 a1bc b592 5dbd
00000010: 39b4 6ebd 1403 5e3d 67d9 7dbd 9f19 6f3d
00000020: 8f14 82bd 7698 e73b 3bf7 72bd 72b9 603d
00000030: 955e a13c 1366 abb8 3650 1c3c 4f96 523d
00000040: d67f c9bc 8071 8b3c b504 93bc 3c5d 80bd
00000050: af2d 493d 6ab7 263b 5e7e 1ebd 72b0 143d
00000060: 6c56 81bd deb6 16bd f5f8 223d a790 31bd
00000070: e300 3fbb 88f7 953c e36d b63b 1bca 47bd
00000080: ca4d ef3c 4e97 bc3c ffac d4bc 545e 37bc
00000090: b298 69bd 2939 053d 49e6 6bbb 7698 f93c
000000a0: 4770 083d 9466 60bd 28bc 613c b69d 76bd
000000b0: 6d75 bfbc 550b 47bb 65cd 883c e280 94bb
000000c0: 9df0 3d3d 4a62 33bd 8d4e 583d 69ea 11bd
000000d0: 9b43 133d 07b7 9eba 846e 2bbc da5c 34bb
000000e0: 19b8 233d 6407 183c f04a 1dbd e967 32bd
000000f0: e498 993b f81b 243c bc36 0fbd 7b68 5d3d
00000100: 8ecf 213d 0d71 8a3c 833f 203d 1289 0bbd
00000110: 9ffb 5c3d efd5 01bd 9eb1 313d 405e 3e3d
00000120: f937 49bd 9501 5fbd 998f b3bc 167e e93c
00000130: 627b dc3b a014 37bc c1bb 46bd 657d e33c
00000140: fa1f 25bd 569e e0bc 345e 3c3d c943 173d
00000150: 5b0a 90bb c537 093c 0ab5 013d e01a 403c
00000160: 7d48 13bd cc42 53bd 7542 63bb fa7e 6cbd
00000170: 3e3e 85bc bd49 34bc eb2c 66bd 5a88 ef3c
00000180: ebad d7bc 5655 1d3d 6c0d 3e3d 1d2a 61bd
00000190: f79d abbb 8462 a63c c96a 06bd 5a6d 69bd
000001a0: ee68 67bd 406d 3ebd fac1 36bd 5095 273d
000001b0: 5051 0c3d 4309 ffbc aa0d 5a3d 4996 b03c
000001c0: 6cbb 8dbc b4cc a13c 430f 68bc c24a 4ebd
000001d0: 5d76 04bd 4d53 34bd f5a5 433d c98f 56bd
000001e0: 57e5 0abd deb0 0f3d d826 a63c f8d1 3a3c
000001f0: ade9 76bd d0f4 2ebd 54f8 6f3c 7738 ca3c
00000200: b436 46bb 11a9 84bb 3094 133d ef41 c7bc
00000210: de1a 89bc 0853 9c3c 857a 2b3d 71dd 523d
00000220: daa1 24bd 997b ab3c 222e 10bd 0137 8a3c
00000230: e6af e4bc b942 f5bc 8d36 8a3c 92da f0bc
00000240: a6b3 27bd 12b0 523d d810 623d f57b 1b3d
00000250: 2695 e63c 9912 eabc 064f 29bc d9e3 c7bc
00000260: c668 643d 3594 aa3c 5326 22bd 3c2d 5bbd
00000270: ef2f 433c b4b5 babc cb38 8dbc 5dd9 413d
00000280: a522 1b3d 4804 04bc 3a59 72bd 8719 443d
00000290: bf84 023d a54a 153c a4a0 a83c bdb9 6c3d
000002a0: f084 dcba bade 0cbc 0d51 213d 2372 ddbb
000002b0: 228e e6ba 5755 e73c e1c2 6c3d c844 db3c
000002c0: 508d 553d 763d 23bd aca6 6dbc dc3f 6c3b
000002d0: f6b9 323d 136f eebb 4e62 2cbb 9e1a 163d
000002e0: dae8 083d 96f6 e8bc 293c 6fbd 48c9 463a
000002f0: c4a7 79bc a5fb 6cbd 6e79 c839 fa77 1abc
00000300: 886c ebbc a199 2dbd a59c df3c 0a9f 3c3c
00000310: 2611 30bd e7f7 053a ca95 c6bb 64e4 243d
00000320: f2d7 0abd e71c 6abd a564 c53c b8d5 193c
00000330: 1989 993b f28a 3abd a778 a93b 8dff 3bbd
00000340: e356 733d 9983 923c dc72 7dbd dda7 3cbd
00000350: 821b 39bc dc57 623c f132 44bd cb74 6a3d
00000360: 9d81 7bba b17b 153c 3db8 80bd 20d2 ff3c
00000370: dda9 693d e7cb 84bd 2be7 f33c 6f90 3a3d
00000380: 3795 4abc 3dee 3939 c903 42bd 7b49 013d
00000390: 31f2 233b e296 ec3c 69c6 573d 2c29 0dbd
000003a0: 3f43 4f3c fbc5 25bc 545d ddbc 59cc ea3c
000003b0: d50b 16bd 122b 8fbc 4b53 a23c ee4d 1dbd
000003c0: 2b6b afbc accc 113d e538 0f3b b015 1dbd
000003d0: e499 62bc 66a2 9c3b 2091 863c 5cac af3c
000003e0: e143 b8bc ccc9 82bd 857d 463b a461 553c
000003f0: ffed 84bc 0064 763d 1e32 313c 36c7 03bd
0.043825176 0.022036662 -0.019692449 -0.05409499 -0.058277342 0.054202154 -0.06197491 0.058374044
-0.063515775 0.0070677353 -0.05931781 0.054864354 0.01969842 -8.172928e-05 0.009540608 0.051412877
-0.02459709 0.017021894 -0.01794658 -0.06267783 0.049115833 0.0025438913 -0.038694732 0.036301084
-0.06315312 -0.03679549 0.039788205 -0.04335084 -0.0029144816 0.018306509 0.0055672987 -0.048776727
0.029211897 0.023021366 -0.025961397 -0.011191923 -0.057030387 0.032525215 -0.0035995415 0.030468207
0.0333102 -0.054785326 0.01377777 -0.060209 -0.023371423 -0.0030371745 0.016699502 -0.0045319656
0.046372045 -0.043794908 0.052809287 -0.03562394 0.035953145 -0.001210899 -0.010463361 -0.0027521164
0.03997049 0.009279106 -0.038401544 -0.043556128 0.0046874154 0.010016434 -0.03496431 0.05405472
0.03950458 0.01689961 0.03912307 -0.034066267 0.053950902 -0.031698164 0.04338228 0.046476603
-0.049125645 -0.054444868 -0.021919059 0.028502505 0.0067285756 -0.011174351 -0.0485189 0.027769754
-0.0403137 -0.02741925 0.045988277 0.03692988 -0.0043957657 0.008375113 0.031666793 0.0117251575
-0.035957802 -0.051577374 -0.0034677063 -0.05773828 -0.016265031 -0.011003909 -0.05619518 0.029239822
-0.026328048 0.03841146 0.04639952 -0.054971803 -0.0052373367 0.020310648 -0.032816682 -0.05698905
-0.056496553 -0.046490908 -0.044618584 0.04091388 0.034257233 -0.031132346 0.053235687 0.021556037
-0.017301284 0.01975093 -0.014163795 -0.050364263 -0.032339443 -0.044024754 0.04776569 -0.052383218
-0.03391012 0.035080783 0.020282194 0.0114025995 -0.060281444 -0.04271394 0.014646608 0.024685128
-0.0030245008 -0.0040484746 0.036029994 -0.024323432 -0.016736444 0.019082561 0.04186489 0.051480714
-0.040193416 0.02093296 -0.035200246 0.016871931 -0.027915906 -0.029939042 0.016871715 -0.029401097
-0.04094281 0.051437445 0.055191845 0.03796001 0.028147291 -0.028573321 -0.010333782 -0.024400638
0.055763982 0.020822624 -0.03958733 -0.053509936 0.011913284 -0.02279172 -0.017238995 0.047326434
0.037874836 -0.008057661 -0.059167124 0.047875907 0.031864878 0.009112035 0.020584412 0.05779432
-0.0016824286 -0.008598024 0.039383937 -0.006757991 -0.0017589966 0.028238935 0.05780304 0.026766196
0.05213672 -0.039853536 -0.01450507 0.0036048805 0.043634377 -0.0072764247 -0.0026303711 0.036646478
0.03342519 -0.028437894 -0.058406983 0.0007583094 -0.015237752 -0.057857174 0.00038237445 -0.009428019
-0.028738275 -0.04238284 0.027296374 0.011512527 -0.042985104 0.00051104877 -0.0060603367 0.040256873
-0.033897348 -0.05715647 0.024095843 0.009389333 0.004685533 -0.045542665 0.0051718536 -0.04589801
0.059409034 0.017885016 -0.061877117 -0.046058524 -0.011298062 0.013814893 -0.047900144 0.05724029
-0.0009594204 0.009123729 -0.06285141 0.031228125 0.05704676 -0.06484204 0.029773315 0.0455479
-0.012364677 0.00017731726 -0.04736689 0.031564217 0.0025016183 0.02888054 0.052679453 -0.034463093
0.01265031 -0.010118003 -0.027022041 0.028661894 -0.036632378 -0.017476592 0.019815108 -0.038404398
-0.021413406 0.03559558 0.002185398 -0.03835076 -0.013830636 0.0047801016 0.016426623 0.021444492
-0.022493305 -0.06386146 0.0030287218 0.013023768 -0.016226767 0.06015396 0.0108151715 -0.032172404

fc1.bias f4 [64]
00000000: f43b dfbc 0e64 8b3d 9260 af3d 3c75 cdbd
00000010: 5099 54bd b80b 5e3d 5b90 1e3c e584 7fbd
00000020: 22a4 1ebd f6ab b53d 0f07 4c3d 02bc 69bd
00000030: 5a10 a83b c351 a33d 9adc 31bd bba7 f83c
00000040: 866a b23d 9ccb b63d 1f27 6bbc fba1 79bd
00000050: 8844 993d 7ba8 4f3d b53c 86bc 989d 55bc
00000060: 955d 583d c1c4 893a 95b4 91bc 6b30 8d3c
00000070: 3760 19bd b038 24bd e2cf 82bc 3ce0 6a3c
00000080: 63e4 bebc a1c6 9f3d 350f d33c 19e8 4d3d
00000090: 8ce1 a33c 1583 56bd 9fde 443d 47ec a7bc
000000a0: 055c 1fbd f76c 74bd fbe2 803d 547f d03d
000000b0: 8543 43bd ef6e 6d3d eac1 14bd 715b c53d
000000c0: 5c4e efbc acb5 d4bc 4c61 00bb 8758 1c3e
000000d0: 8a3e 39bd 0131 e03b 3710 27bd 59f8 003a
000000e0: 6c46 c63a dba1 403d 3d6e 84bb b597 0c3e
000000f0: fe3f 40bd de53 003e 3e15 08bd 7420 e2bc
-0.027250268 0.06806193 0.08563341 -0.10032126 -0.051904023 0.054210395 0.009677972 -0.062382597
-0.038730748 0.088706896 0.04981142 -0.057064064 0.0051289024 0.07974579 -0.043423273 0.030353418
0.08711724 0.08925554 -0.014352589 -0.060945492 0.074837744 0.050697785 -0.01638637 -0.013038062
0.05282362 0.0010510908 -0.017786304 0.017235002 -0.037445273 -0.040093124 -0.015968267 0.014335688
-0.023302263 0.07801557 0.025764087 0.050270174 0.02000501 -0.052371103 0.04806387 -0.020498408
-0.038906116 -0.05967423 0.06293293 0.10180536 -0.047671814 0.057967123 -0.036317743 0.09636582
-0.02921217 -0.025965534 -0.0019589243 0.15268146 -0.045225658 0.006841779 -0.040786948 0.0004919819
0.0015127189 0.047029357 -0.0040414617 0.13729747 -0.046936028 0.12531993 -0.033223383 -0.027603365

fc2.weight f4 [5, 64]
00000000: fc90 7a3c 0986 adbb 8cf8 fcbd 4f9d 18be
00000010: e077 433c 5bee d5bd 880f 9ebd 5ae8 b6bd
00000020: 3064 b13d 92d2 38bd ec20 01be fe86 a8bd
00000030: 65db 02bc 3b18 cebc 73d7 aa3d eda2 c63c
00000040: 185b 943e cffb 8e3d 1d9d 50bd 5917 b33c
00000050: 91fa 85bc 9c35 253e d3db cfbd 6293 e8bd
00000060: 8b81 f63d 823f 89bd cb11 99bc 2fec ed3d
00000070: a3ea 5c3d 3813 99bc 0322 2bbd d509 3abb
00000080: 3823 983c d0bb ec3c 9308 13bd 1998 053e
00000090: a350 aa3d bc2d babd c29a b73d bdba e3bd
000000a0: 49a5 2cbd cc12 3ebd 6a43 1b3e 4427 2cbe
000000b0: f537 613c 91db e13d 0005 1e3a 3724 0fbd
000000c0: 4210 c4bd a0b1 023d 0960 973d 9f1b 29be
000000d0: 4687 cebd 1a2f d7bd c9de 9abd 1ec2 71bd
000000e0: eb64 883d b7b2 be3d e647 693d d80a 3fbe
000000f0: 22da 26bd 5ad5 ec3d 629c 59bd debf f3bd
00000100: 720d a3bc b73b d5bd 4420 00be 9f5f 15be
00000110: 6029 00bc ca9c 933d 4c88 c03d 6e79 cd3d
00000120: c8e3 edbc 6c75 b63d 47b3 ecbd 0e2c 823d
00000130: 4674 c8bd 2e07 093e 29d5 49bd 6749 533d
00000140: 1c11 27bd 9691 cebd d7f6 153d 3607 8bbc
00000150: 449e 923d f298 5a3e 0b8b ecba 9c93 763d
00000160: 57ba 983e fb59 cfbc 826e 1dbe 35af ccbd
00000170: decd c43d 20a8 d33c 2224 73bd 9fb6 95bc
00000180: 6ae8 fdba 7303 6f3d 6359 c73d 19c8 dc3d
00000190: 0f13 e0bd a90b abbd 4403 f7bc 125b 18be
000001a0: aeaa 2e3e f865 d6bd e901 c6bd 78b1 05be
000001b0: 9185 e4bd 2d50 1c3d c84d ecbd d461 0c3e
000001c0: b878 2b3d d444 953d 2b79 b63d 8f70 febc
000001d0: 4e19 aa3d ce52 a43d 7860 b13d 4ab2 863d
000001e0: 71b9 913d e035 973c 238e af3d 7fac 42be
000001f0: c8ac bebc b1ce d53d a81b d73d c042 35bd
00000200: 4f3a b8bd 3538 c5bd e7b5 1fbd acbe 5b3d
00000210: 14e7 35bd aab5 babd ae05 ec3d a081 bd3b
00000220: c00d 84bb 4181 973e 8df5 c33d 6e46 8abd
00000230: 1867 ca3d c3df 71bd 87a4 153d d111 863d
00000240: d46a ac3c d835 093d b349 663c d2d7 a23d
00000250: 48ef cc3d 35c5 173e 4bc7 f8bc 40ca ccbb
00000260: 1738 0d3e d515 b3bd 9393 eebb 2f83 073e
00000270: 1c63 233d 4c80 223d df1e 7fbd 13c5 27be
00000280: 9d60 113e 3d97 0abd 58ac aabc 919c ba3d
00000290: 89f7 f53d 60df 5fbc 6f40 8dbd 69f2 be3d
000002a0: 0b29 b13d 2cfd e03d ff00 6bbd 6620 17be
000002b0: 8459 d73c e2e8 843d 2ecf e0bd ea6d 3d3d
000002c0: b4d1 333d c61f dc3a 2287 e43d 06de 77be
000002d0: b041 2dbc f336 283c bded b33b a69b 3d3d
000002e0: 0031 f03c 0510 593e 78e1 f63d 0cca 2dbe
000002f0: 51c4 293d 0a4b 263d abdb 2bbc a4cc a2bd
00000300: d57d 5f3c dc26 01be ca2e 27be e6a4 74bd
00000310: 006d 35bc 4b7f 28bd 2a59 eb3d 0087 4f3d
00000320: f47a c0bd 059f 17be 1607 5fbe 6897 a9bd
00000330: 1551 043d baf1 0d3d 6b6d 8dbd dbfd e6bd
00000340: f28c c53e ce99 a93d 4f5a f73d ad7b 6cbc
00000350: c81a f83d 6b2a 2d3e 6242 ce3d 40d5 173c
00000360: 8e7c 743d b92a b1bd 5b14 10be e730 043e
00000370: dbf2 e9bc 8c60 123d 72ce 253e bcb1 56be
00000380: e4a7 92bb ab9b d33d 67a1 493d 7c2b 323b
00000390: ff3a b63d 3aef 8abd cc29 cc3e 26bb a53d
000003a0: c389 123d dbfe bb3d 2a80 f53b 018b 573e
000003b0: d2ba 833d cd54 99ba 4871 c0bc 0c2c 193e
000003c0: 00d4 c53c 2034 c8bd d6f9 f1bd 5d35 8dbe
000003d0: 7a1e a93d 6fb6 4ebc fbb9 82bd 6111 7fbd
000003e0: 121b 94bd 627b c73d 84e8 f03d 28d9 32be
000003f0: 17f9 383d 5f32 f43d 982c 23bd 6044 18bd
0.015293356 -0.0052955193 -0.12352094 -0.14903758 0.011930436 -0.10445853 -0.07717806 -0.08931036
0.086616874 -0.04512269 -0.12610215 -0.08228873 -0.007986878 -0.025158038 0.08341875 0.024247611
0.2897575 0.069816224 -0.050931085 0.021861719 -0.016354831 0.16133732 -0.1014935 -0.11356236
0.12036427 -0.06701566 -0.018685242 0.11617314 0.053934705 -0.018685922 -0.041780483 -0.0028387208
0.018571481 0.02889815 -0.03589685 0.13046302 0.083161615 -0.090907544 0.089650646 -0.11119602
-0.042149816 -0.046404645 0.15162435 -0.16811854 0.013746251 0.11028207 0.0006027967 -0.034946647
-0.095734134 0.031907678 0.07391364 -0.16514443 -0.10084395 -0.10507031 -0.07562024 -0.059023015
0.066598736 0.09311431 0.056953333 -0.1865648 -0.04073537 0.11564131 -0.053127654 -0.1190183
-0.019903872 -0.1041178 -0.12512308 -0.14587258 -0.007822365 0.072076395 0.094009966 0.100329265
-0.029039279 0.08909115 -0.11557632 0.06356059 -0.097878024 0.13381645 -0.04927555 0.051583674
-0.0407878 -0.10086362 0.036612358 -0.016971212 0.07159093 0.21347407 -0.0018046809 0.060199365
0.29829666 -0.02531146 -0.15374187 -0.099943556 0.096095785 0.025837004 -0.05936063 -0.018275557
-0.0019371633 0.0583529 0.09733846 0.10780353 -0.10941135 -0.083518334 -0.030152924 -0.1487849
0.17057297 -0.10468668 -0.09668333 -0.1305598 -0.11158288 0.0381624 -0.11538273 0.13709193
0.041863173 0.072885185 0.0890983 -0.031059531 0.08305608 0.08023606 0.08660978 0.06576975
0.07115448 0.018458307 0.08572032 -0.19011115 -0.023275748 0.10439814 0.10503322 -0.04425311
-0.089954965 -0.09629861 -0.038991835 0.053648636 -0.044409826 -0.09116681 0.11524521 0.005783275
-0.0040299594 0.295908 0.095683195 -0.06751715 0.09882945 -0.059051286 0.03653386 0.06546367
0.021047033 0.033498615 0.014055657 0.07951321 0.10006577 0.14821322 -0.030368468 -0.006249696
0.13790928 -0.087443985 -0.007280776 0.13233636 0.03988944 0.039673135 -0.0622853 -0.16383772
0.14197011 -0.03383564 -0.020834133 0.09111894 0.12010104 -0.013664097 -0.06897055 0.0932358
0.086504065 0.10985789 -0.057373997 -0.14758453 0.026287802 0.06489731 -0.109770164 0.0462474
0.04390116 0.0016794137 0.11158587 -0.24205789 -0.010574743 0.010267007 0.005490987 0.046291016
0.02932024 0.21197517 0.120547235 -0.16971606 0.041446988 0.040598907 -0.010489385 -0.07949188
0.013640841 -0.1261248 -0.16326442 -0.059727572 -0.011073351 -0.04113702 0.11491616 0.050665855
-0.093984514 -0.14806755 -0.21780047 -0.082808316 0.03230389 0.034654357 -0.069056354 -0.11278888
0.38584095 0.08281289 0.12077772 -0.0144337835 0.12114483 0.16910712 0.10071255 0.009267151
0.059689097 -0.08650727 -0.14070265 0.1290928 -0.028558185 0.035736606 0.16192034 -0.20966238
-0.0044755805 0.10332426 0.04922619 0.0027186563 0.08897971 -0.0678391 0.39875638 0.08092336
0.03577591 0.09179469 0.007492085 0.2104912 0.064321175 -0.0011698246 -0.023491517 0.14958209
0.024148941 -0.09775567 -0.118152305 -0.27579775 0.08257766 -0.012616738 -0.06383129 -0.062272433
-0.07231726 0.0974033 0.11763099 -0.17465651 0.045159426 0.1192367 -0.03983745 -0.037174582

fc2.bias f4 [5]
00000000: 823c 0b3d d7aa abbb 9cb0 e73c b45f 4cbd
00000010: 9551 993d
0.03399325 -0.0052388716 0.028282456 -0.049895957 0.07486264
