SimpleQMIX_CNN_random_blox_basic/agent3_101.pth (torch, 745122 bytes, 10 tensors)

c1.weight f4 [32, 8, 3, 3]
-0.07637003 0.015301834 0.06328071 -0.016837569 0.05252121 -0.005313369 0.018636674 -0.09903614
-0.011698529 0.19560736 0.10075856 0.07723157 0.17837234 -0.15404452 0.17122526 0.0564029
-0.13112059 0.10773059 0.054506242 0.103628665 0.02727803 -0.10061412 0.078315206 -0.010245407
-0.063942544 0.065808214 -0.042089615 -0.09320366 0.051046338 -0.078686014 -0.09620202 -0.010096404
0.095631175 0.05027765 0.0015964243 -0.057993248 0.066144794 0.14415601 -0.061728835 -0.06359
0.10312127 -0.10771669 -0.18166737 0.04033665 -0.049905047 -0.12612553 -0.011556751 -0.04339056
-0.04303183 -0.21128306 0.0059718424 -0.16997987 -0.22758043 -0.013019938 0.036984734 0.026839728
0.014808828 0.04839224 -0.07576598 -0.13800704 0.02122583 -0.171904 -0.009398241 -0.032210678
-0.13699922 0.03676912 -0.3007108 -0.18331027 -0.12581176 -0.019306371 -0.29543415 -0.10409423
-0.022099346 0.092397496 0.0035820983 -0.012226894 -0.050184205 -0.048672725 -0.06163276 0.013421321
0.06889861 0.27374145 -0.14254908 0.17075095 0.1084744 -0.14919809 0.14924973 0.12105436
-0.19610155 0.21956277 0.03334594 0.053646617 -0.11388324 -0.0037936098 0.10650465 -0.0020693822
0.050956383 0.08619251 0.05239113 0.00383674 -0.06722423 0.05646759 -0.096915945 0.05840487
0.013034236 0.092805184 0.09829564 0.06267198 0.06771412 0.104555465 -0.05898298 -0.06575319
-0.057243805 -0.12230483 0.047972508 -0.003984948 -0.09079975 -0.04576561 -0.076230705 -0.12301629
-0.117563084 -0.028617509 -0.079551265 -0.03768912 -0.027676689 -0.22691207 0.018481264 -0.036634196
0.117276 -0.058822893 -0.15893947 0.07937512 -0.04583857 0.047957003 -0.25811705 -0.06929753
-0.048457153 0.04167021 -0.039320223 -0.0036129754 0.0152217485 -0.03431142 0.02616529 0.029092131
0.035513707 -0.07759063 -0.015867606 -0.002407637 0.056444228 0.00586683 0.062685564 -0.15869156
-0.15115008 0.24616241 0.10575042 -0.09183938 -0.013764468 0.06701845 -0.051803496 -0.10458643
0.12675464 0.15491927 0.06093427 0.087643504 0.02669788 -0.06660621 -0.108120926 0.11522911
0.1067778 -0.07331811 -0.07383768 0.0682173 -0.07958317 0.028455263 0.019584881 0.10428086
0.08554991 0.019257598 0.012371702 0.03206063 -0.08472798 -0.11672943 -0.11776524 -0.09602383
0.1245184 0.059332952 0.06166628 -0.061389495 -0.08888262 -0.107094325 -0.15861107 -0.1432056
-0.20161058 -0.16810937 0.03847219 -0.06863085 -0.21295139 0.017645074 -0.046318445 -0.18578193
-0.17772783 -0.035083584 -0.06523287 -0.014126286 -0.010093921 -0.08927661 -0.29654324 0.048164833
0.03240986 -0.032456882 -0.16325842 -0.083061576 -0.070399664 -0.22047144 -0.29243088 -0.05383041
-0.056793008 0.0733067 0.06427558 -0.0028051022 -0.0058974274 0.051213633 0.049044862 -0.10121853
0.013904893 -0.12319836 -0.04389195 -0.008473054 0.20563929 0.124112405 -0.091644354 -0.08429419
-0.008603819 -0.32063717 -0.045568246 -0.11034142 0.042724796 0.096072815 -0.033365343 -0.042166434
0.09187752 -0.041123368 0.054108392 -0.09386702 -0.018163241 -0.06412654 -0.05856778 0.04190092
-0.10958707 -0.04065357 0.021387896 0.10666023 0.029724987 0.000101096884 -0.17475711 0.14498281
00000000: e467 9cbd 8bb4 7a3c 5199 813d f1ee 89bc
00000010: 7b20 573d c51b aebb f0ab 983c 76d3 cabd
00000020: 30ab 3fbc 4c4d 483e 815a ce3d 962b 9e3d
00000030: 3da7 363e d9bd 1dbe ad55 2f3e ba06 673d
00000040: 7a44 06be dba1 dc3d f041 5f3d 443b d43d
00000050: 2d76 df3c c70e cebd b963 a03d 5adc 27bc
00000060: 4ff4 82bd 75c6 863d 2966 2cbd 8fe1 bebd
00000070: f715 513d 2226 a1bd 9105 c5bd 636b 25bc
00000080: 47da c33d f0ef 4d3d 1c3f d13a 548a 6dbd
00000090: ec76 873d a29d 133e 60d7 7cbd 793b 82bd
000000a0: 3f31 d33d 919a dcbd 0307 3abe 0b38 253d
000000b0: 3c69 4cbd 0d27 01be 8758 3dbc 4dba 31bd
000000c0: 2542 30bd 965a 58be 72af c33b 340f 2ebe
000000d0: d80a 69be 9451 55bc 4e7d 173d fdde db3c
000000e0: baa0 723c f136 463d 322b 9bbd b851 0dbe
000000f0: cbe1 ad3c 9a07 30be 14fb 19bc 58ef 03bd
00000100: 8649 0cbe 379b 163d c4f6 99be b0b5 3bbe
00000110: ccd4 00be 6528 9ebc 2543 97be 5b2f d5bd
00000120: b009 b5bc e63a bd3d a3c1 6a3b 4f53 48bc
00000130: f48d 4dbd 0d5d 47bd a272 7cbd 1ae5 5b3c
00000140: b71a 8d3d d727 8c3e 63f8 11be 56d9 2e3e
00000150: d427 de3d 62c7 18be ecd4 183e 59eb f73d
00000160: d8ce 48be 10d5 603e c195 083d 8ebc 5b3d
00000170: 9e3b e9bd 369e 78bb 1c1f da3d 799e 07bb
00000180: a4b7 503d b385 b03d 1598 563d d171 7b3b
00000190: dbac 89bd 8f4a 673d de7b c6bd f239 6f3d
000001a0: 8c8d 553c a510 be3d 394f c93d 2b5a 803d
000001b0: b3ad 8a3d 2d21 d63d 2398 71bd 9ca9 86bd
000001c0: 7b78 6abd f47a fabd d27e 443d 2b94 82bb
000001d0: 38f5 b9bd b874 3bbd d81e 9cbd f7ef fbbd
000001e0: eac4 f0bd 446f eabc c6eb a2bd e85f 1abd
000001f0: 39ba e2bc a35b 68be 0566 973c bd0d 16bd
00000200: 662e f03d 46f0 70bd 07c1 22be 6c8f a23d
00000210: 39c1 3bbd 906e 443d eb27 84be ddeb 8dbd
00000220: 027b 46bd 62ae 2a3d 3e0e 21bd abc7 6cbb
00000230: a464 793c 228a 0cbd 9758 d63c 9f52 ee3c
00000240: d276 113d d6e7 9ebd c8fc 81bc 72c9 1dbb
00000250: 1032 673d 893e c03b 4a61 803d 0a80 22be
00000260: 16c7 1abe 0012 7c3e ad93 d83d 4916 bcbd
00000270: 5d84 61bc f840 893d e72f 54bd 6931 d6bd
00000280: f8cb 013e 28a3 1e3e 3796 793d 707e b33d
00000290: 83b5 da3c d668 88bd 816e ddbd 3dfd eb3d
000002a0: 52ae da3d ce27 96bd 3638 97bd 83b5 8b3d
000002b0: 80fc a2bd 031b e93c 7970 a03c 3491 d53d
000002c0: cb34 af3d 1cc2 9d3c aeb2 4a3c 0252 033d
000002d0: dd85 adbd d70f efbd e72e f1bd 24a8 c4bd
000002e0: 8103 ff3d 1c07 733d c895 7c3d 8d73 7bbd
000002f0: 1708 b6bd 4554 dbbd f16a 22be 7da4 12be
00000300: 0173 4ebe dd24 2cbe 0495 1d3d 558e 8cbd
00000310: ee0f 5abe 678c 903c 69b8 3dbd 9e3d 3ebe
00000320: 49fe 35be ceb3 0fbd d098 85bd f071 67bc
00000330: f960 25bc a8d6 b6bd 84d4 97be 7d48 453d
00000340: 34c0 043d 82f1 04bd 372d 27be 301c aabd
00000350: b32d 90bd 44c3 61be 80b9 95be 477d 5cbd
00000360: c99f 68bd d321 963d eaa2 833d ced5 37bb
00000370: 353f c1bb 63c5 513d 44e3 483d a94b cfbd
00000380: 59d1 633c 6c4f fcbd 0cc8 33bd 90d2 0abc
00000390: 1b93 523e a52e fe3d 09b0 bbbd 6fa2 acbd
000003a0: 08f7 0cbc 8e2a a4be c5a5 3abd affa e1bd
000003b0: 3200 2f3d d3c1 c43d 19aa 08bd b6b6 2cbd
000003c0: 482a bc3d fa70 28bd c3a0 5d3d 5a3d c0bd
000003d0: 14cb 94bc c754 83bd c5e4 6fbd 4da0 2b3d
000003e0: 306f e0bd 5c84 26bd ab35 af3c ae70 da3d
000003f0: d181 f33c fa03 d438 87f3 32be 6076 143e

c1.bias f4 [32]
0.0022786162 -0.008277254 -0.00921769 -0.046964224 -0.048372675 0.005113144 0.09602812 -0.07648391
0.124132685 -0.01334602 -0.01733718 0.028839374 0.089428164 -0.09400467 0.10747665 0.06884631
-0.0048722015 -3.0581195e-05 0.030843783 -0.036850054 0.06266193 -0.017900297 0.06337359 -0.07009474
0.018702574 -0.04085563 -0.013530582 0.085983634 0.10739979 0.074475154 -0.08270886 -0.022226386
00000000: d654 153b 529d 07bc cb05 17bc 8f5d 40bd
00000010: 6d22 46bd 298c a73b 64aa c43d 99a3 9cbd
00000020: 4739 fe3d 44a9 5abc b406 8ebc 8d40 ec3c
00000030: 1d26 b73d 8585 c0bd b81c dc3d 4bff 8c3d
00000040: fda6 9fbb 4f44 00b8 1aac fc3c 15f0 16bd
00000050: e654 803d a5a3 92bc 03ca 813d d58d 8fbd
00000060: 2436 993c 3c58 27bd 60af 5dbc 3018 b03d
00000070: 6cf4 db3d 6e86 983d 4363 a9bd 1c14 b6bc

c2.weight f4 [64, 32, 3, 3]
0.0034366995 0.031187428 0.008665759 0.08604477 0.034520544 0.022632333 0.032085113 -0.039588638
-0.011882654 0.00596029 -0.00053694175 0.003528306 -0.018067854 -0.042445008 -0.0029674666 -0.026517332
-0.07070128 -0.025408648 0.066491425 0.072272524 -0.05010778 0.05981901 0.033492763 -0.02598277
-0.017368888 -0.04512934 -0.01970443 -0.06254753 -0.029465785 -0.0814781 0.007448561 0.015024258
-0.014114093 0.036847465 0.036029384 -0.024341369 -0.010661363 0.0016865084 -0.066437654 0.036083113
-0.079689555 0.00043741675 -0.07394324 0.010994329 -0.008731743 0.031084938 0.08190204 0.11660965
0.08885203 0.039879806 0.10802578 0.09480753 0.06052009 0.062423017 -0.007771936 0.034630645
0.05022021 0.023489343 0.09401642 0.10262168 0.023933437 -0.001099556 0.038456224 -0.011168314
0.009351928 -0.014395248 -0.031742766 -0.085810624 -0.017512811 -0.048342492 -0.04536165 -0.05537887
-0.0054674535 -0.012886735 0.015253912 -0.03195502 0.05700671 0.010879038 0.087933905 0.015875213
-0.0044820397 0.027125852 -0.052818242 -0.026455501 0.06255026 0.000379554 0.022334384 0.043259535
0.052930634 -0.0383547 -0.07704966 0.027244769 -0.021771077 0.0025730382 -0.07040802 0.007410075
-0.023838047 -0.06792667 -0.062452678 0.0059245476 0.002726174 -0.008096544 -0.025228648 -0.0027111182
-0.019404912 0.039579537 0.030634364 0.021105709 0.09926961 0.066255495 0.024722489 0.08366058
0.04867412 -0.028965307 -0.0047154683 0.027023727 0.09537724 -0.09205421 -0.091433644 -0.087648876
-0.020077655 0.021857496 -0.0013668092 -0.06557371 -0.05176374 -0.06919216 0.020581914 -0.05167535
-0.012978698 0.07812403 0.00468616 0.024279414 -0.016469933 0.022868752 -0.00017387744 0.027968705
0.01825642 0.005910235 0.065396704 0.038649004 0.008872589 0.006432222 -0.06399938 0.058151003
0.05613281 -0.021831725 0.0409653 -0.037048787 0.059934158 0.002733784 0.036215402 0.02750626
-0.013541884 0.012353378 -0.057187434 -0.00046531082 -0.014062582 0.012553458 0.0280976 -0.004275645
-0.0021146962 0.018920155 0.033399858 0.09747978 0.10505653 -0.026666714 0.10553105 0.03208291
0.1393589 0.11330279 0.02926177 -0.054306064 -0.047337856 -0.11139926 -0.035160057 -0.016262062
-0.03350474 -0.031223372 -0.037914757 -0.05308907 0.025356224 0.092768475 0.059787896 0.021920262
-0.0012390804 -0.01826441 0.016938621 0.0017293317 -0.0048981393 0.07476274 0.016188445 0.05879077
-0.0078013144 0.000929923 0.054653164 0.022599319 0.023202512 0.027608564 -0.07514771 -0.07554333
-0.068977706 -0.08057725 -0.07502335 -0.05904078 -0.052894246 -0.060585365 0.021562116 0.0056126076
0.03212963 0.05673693 0.035695486 0.07163227 0.08665499 0.032774653 0.030401945 0.054248273
0.06743757 0.029714132 -0.0023742095 0.008994556 0.023764692 -0.011896349 0.06437035 0.021756994
0.060712382 -0.004322141 0.05233817 0.017817212 -0.04938718 0.01848985 0.027095094 0.013981884
0.026829615 0.09565306 -0.08478016 -0.0637662 -0.05836985 -0.12317146 -0.038213324 -0.12518881
-0.15453503 -0.11073989 -0.07529295 -0.037061594 0.026327968 -0.050090786 0.010720129 0.005840586
0.06347412 -0.028103946 0.054298434 -0.009582351 0.05311422 0.050397858 0.014730058 -0.0023015225
00000000: 403a 613b c77c ff3c d4fa 0d3c 3e38 b03d
00000010: 6a65 0d3d 7167 b93c ae6b 033d b227 22bd
00000020: 77af 42bc 894e c33b 8dc1 0cba 273b 673b
00000030: 0903 94bc d1da 2dbd d479 42bb e03a d9bc
00000040: d5cb 90bd cc25 d0bc a82c 883d 9e03 943d
00000050: d13d 4dbd c704 753d b52f 093d d1d9 d4bc
00000060: 3349 8ebc 8bd9 38bd 2f6b a1bc eb18 80bd
00000070: 3b62 f1bc fddd a6bd 0f13 f43b 4e28 763c
00000080: cc3e 67bc 5eed 163d 8c93 133d 8d67 c7bc
00000090: ffac 2ebc d50d dd3a 7710 88bd e3cb 133d
000000a0: 4734 a3bd 1555 e539 8e6f 97bd 8f21 343c
000000b0: 960f 0fbc d7a5 fe3c 42bc a73d 0ad1 ee3d
000000c0: 0ef8 b53d 0259 233d 9f3c dd3d 732a c23d
000000d0: eae3 773d 47af 7f3d b9ab febb ddd8 0d3d
000000e0: b5b3 4d3d b96c c03c ae8b c03d 512b d23d
000000f0: 0e10 c43c fa1e 90ba 4684 1d3d 4efb 36bc
00000100: d438 193c 0cda 6bbc b404 02bd 7bbd afbd
00000110: 0777 8fbc c702 46bd 23cd 39bd f4d4 62bd
00000120: 5328 b3bb e222 53bc 8beb 793c 44e3 02bd
00000130: de7f 693d fe3d 323c b116 b43d bc0c 823c
00000140: 13de 92bb 0937 de3c f157 58bd 35b9 d8bc
00000150: 5a1a 803d e0fe c639 99f6 b63c e930 313d
00000160: cbcd 583d d119 1dbd 36cc 9dbd 6c30 df3c
00000170: 4259 b2bc 6ba0 283b 1432 90bd 37d0 f23b
00000180: 0248 c3bc 231d 8bbd 61ce 7fbd b522 c23b
00000190: 9ca9 323b 5ea7 04bc 4fac cebc 04ad 31bb
000001a0: 0df7 9ebc 271e 223d ebf4 fa3c e1e5 ac3c
000001b0: de4d cb3d f6b0 873d d186 ca3c 3d56 ab3d
000001c0: 845e 473d a748 edbc 3784 9abb dd60 dd3c
000001d0: 2455 c33d eb86 bcbd 9041 bbbd 4181 b3bd
000001e0: e579 a4bc 7e0e b33c 8226 b3ba 824b 86bd
000001f0: 3706 54bd 9fb4 8dbd 679b a83c 88a9 53bd
00000200: 9ba4 54bc 7eff 9f3d 5c8e 993b 9fe5 c63c
00000210: f4eb 86bc 4057 bb3c df52 36b9 a01e e53c
00000220: 7d8e 953c a5aa c13b b5ee 853d 6b4e 1e3d
00000230: 565e 113c 64c5 d23b 1b12 83bd bf2f 6e3d
00000240: 84eb 653d 72d8 b2bc 3bcb 273d 78c0 17bd
00000250: 857d 753d 4929 333b 9a56 143d cf54 e13c
00000260: c7de 5dbc d365 4a3c 5f3d 6abd f6f4 f3b9
00000270: be66 66bc 05ad 4d3c f02c e63c b61a 8cbb
00000280: b796 0abb 71fe 9a3c 4ace 083d 7ba3 c73d
00000290: e127 d73d 2774 dabc aa20 d83d 5f69 033d
000002a0: 19b4 0e3e 4b0b e83d 61b6 ef3c 0970 5ebd
000002b0: 57e5 41bd 4c25 e4bd fe03 10bd 0438 85bc
000002c0: 443c 09bd 28c8 ffbc 814c 1bbd ed73 59bd
000002d0: dbb7 cf3c 66fd bd3d 27e4 743d 1f92 b33c
000002e0: a468 a2ba 3e9f 95bc ddc2 8a3c beaa e23a
000002f0: 9280 a0bb 351d 993d a19d 843c 97ce 703d
00000300: 2ba2 ffbb 13c6 733a ffdb 5f3d 3522 b93c
00000310: 3213 be3c 5b2b e23c 0be7 99bd 76b6 9abd
00000320: 2f44 8dbd af05 a5bd d8a5 99bd bfd4 71bd
00000330: a3a7 58bd 5c28 78bd 09a3 b03c f7e9 b73b
00000340: 5c9a 033d fc64 683d 6e35 123d f1b3 923d
00000350: 2c78 b13d b73e 063d 800d f93c 7033 5e3d
00000360: b51c 8a3d 0d6b f33c a098 1bbb e75d 133c
00000370: 2cae c23c e7e8 42bc 9ad4 833d b93b b23c
00000380: 8cad 783d bfa0 8dbb 8d60 563d 67f5 913c
00000390: 364a 4abd 0778 973c 88f6 dd3c 4614 653c
000003a0: c8c9 db3c c0e5 c33d 38a1 adbd da97 82bd
000003b0: 3915 6fbd 5241 fcbd 9385 1cbd 7f31 00be
000003c0: 6e3e 1ebe 98cb e2bd 3133 9abd e6cd 17bd
000003d0: c0ad d73c ff2b 4dbd 7ba3 2f3c 6362 bf3b
000003e0: b8fe 813d 3f3a e6bc 0968 5e3d 4bff 1cbc
000003f0: 4c8e 593d fc6d 4e3d 5756 713c 24d5 16bb

c2.bias f4 [64]
0.06188538 -0.062909864 -0.021185162 0.012050402 0.051005065 -0.015773922 0.05762526 -0.018719375
-0.06650707 -0.0035066125 -0.065206066 0.08647873 -0.03214711 0.074813955 -0.016122848 0.07709018
0.050098747 -0.040011343 -0.026513966 0.08840809 0.08869526 -0.017311249 0.038679298 0.023401238
0.029962324 0.061468355 -0.026741635 -0.04290719 0.013861486 0.0031892261 -0.017628994 -0.096248396
0.092068546 0.005395239 -0.034987155 0.031339187 -0.044573016 0.028131874 -0.0044436976 0.08805283
0.03681901 -0.064287305 0.088674 0.009462535 0.054311268 0.055059277 0.036692597 0.08942365
0.082559064 -0.036838524 -0.07247641 -0.009016815 -0.034814417 -0.0031983822 -0.046844862 0.020727031
0.0023116353 0.031912837 -0.041001707 -0.006586484 -0.005541854 0.04621205 0.027494485 0.017126929
00000000: 867b 7d3d e3d6 80bd 818c adbc 0d6f 453c
00000010: b0ea 503d 5038 81bc 7708 6c3d 6059 99bc
00000020: dc34 88bd 32cf 65bb c28a 85bd c31b b13d
00000030: b0ac 03bd 0f38 993d 1014 84bc 75e1 9d3d
00000040: 5834 4d3d efe2 23bd d133 d9bc 4d0f b53d
00000050: dca5 b53d 52d0 8dbc 2f6e 1e3d f4b3 bf3c
00000060: 8c73 f53c 3ec6 7b3d 4611 dbbc 73bf 2fbd
00000070: 491b 633c 5602 513b ae6a 90bc e11d c5bd
00000080: 6f8e bc3d 8cca b03b b14e 0fbd 855d 003d
00000090: 3292 36bd d174 e63c 709c 91bb 0b55 b43d
000000a0: 88cf 163d 10a9 83bd b79a b53d c008 1b3c
000000b0: 7e75 5e3d d685 613d fa4a 163d bf23 b73d
000000c0: ba14 a93d fee3 16bd 836e 94bd 43bb 13bc
000000d0: 9099 0ebd f39b 51bb 66e0 3fbd bccb a93c
000000e0: ce7e 173b 09b7 023d 68f1 27bd 6fd3 d7bb
000000f0: 7198 b5bb d948 3d3d 1d3c e13c c64d 8c3c

c3.weight f4 [256, 64, 3, 3]
0.01704039 -0.03456869 0.030898742 -0.0010807642 0.01777403 0.044700086 0.04583591 0.001438092
0.04548588 0.022236777 -0.008448825 -0.016803317 0.0008583813 0.010044402 -0.026380751 -0.056211114
-0.031652026 -0.013738596 0.010217347 -0.012877889 0.008163905 0.005680239 -0.014822716 -0.070395604
-0.043636903 0.014301422 -0.058654357 0.01167863 0.0024525372 -0.0073010316 -0.0029532623 0.046262577
-0.0118389195 0.029707914 0.016898472 -0.0345571 0.048752446 0.022515554 0.023932608 0.053240612
0.01716437 -0.002223921 0.018100487 0.04038089 0.05863639 0.0076811453 0.02654848 0.008162166
0.043838084 0.0076871403 -0.024377173 0.029400107 0.031805504 -0.028432349 0.055113997 -0.01337395
0.0011559991 0.05505387 -0.013787013 0.028896997 0.009029335 0.010392698 0.051114812 -0.013728099
0.06308277 0.0005122391 0.022965409 0.028602593 -0.0141758965 0.05357355 0.0476028 -0.006006812
-0.0053832703 0.041518603 0.015018674 -0.0057687233 0.02047479 -0.029210845 -0.025161017 -0.04561637
0.013210341 0.022099921 -0.005815874 0.03446553 -0.0015708244 0.007700218 -0.027034482 0.0144178
-0.007946121 0.0078548435 -0.039254252 -0.014237224 -0.009442257 -0.05414983 -0.03988116 0.011561101
-0.022741 -0.024571976 -0.03019197 0.03398127 -0.0012013771 0.0019572296 -0.016600622 0.032643996
-0.002610565 0.0034062902 0.0008694527 0.022397801 0.0025328095 -0.0027281572 0.030088736 0.046910513
-0.0049759313 0.025069794 -0.021755314 0.030136501 0.008053776 0.0016927847 -0.014102368 0.03038936
-0.01866794 -0.019935444 0.0546646 -0.009823684 0.0027022609 0.037157256 0.0056042536 0.015706582
0.063279726 0.04166754 -0.008517946 0.0049907174 -0.013698312 0.032494258 0.009034223 0.0335723
0.0005873611 0.029716607 0.03495359 0.01405961 0.0063517275 0.040362068 -0.009466297 -0.007096574
-0.007869078 -0.0019142019 -0.0031423578 0.00021028025 -0.009295717 0.050635833 0.00771847 -0.013396579
0.019184463 0.021426503 0.048205763 0.052549522 0.03189031 -0.009436975 0.032516826 -0.004392135
0.03904491 0.03594059 -0.01889574 -0.013811756 -0.0067496267 -0.004569397 -0.022868741 -0.0642102
0.008466604 -0.017025251 -0.074564666 -0.019800207 0.032717288 -0.00987046 -0.009340091 0.018523255
-0.0037907676 0.019543288 -0.004155502 0.03530228 0.03998068 0.03671156 -0.028537257 0.0024202997
-0.007205641 0.02921093 0.02365734 0.06024041 0.01719175 0.04166833 -0.014073578 -0.02934879
-0.021589987 -0.0033051244 0.00032862814 -0.002655576 -0.054651022 -0.022438122 0.0390327 -0.029128375
-0.024306258 -0.026152693 -0.007072443 -0.05320665 -0.03333033 0.03067469 0.011125082 0.009011987
0.044898495 0.01835795 -0.00015866326 -0.015139871 -0.011354439 0.000270903 0.028498448 0.011228406
0.036820076 0.009878879 0.008304714 0.02339939 0.027426062 0.062761486 0.0022636212 -0.00816462
-0.017380023 0.028850086 0.025120335 0.04429984 0.012093436 0.019179152 0.056808524 0.051861115
0.054194055 0.06566557 0.03260754 -0.0015494331 0.022466024 0.025666757 0.012848917 -0.017010143
-0.019511031 -0.025171295 -0.05772326 -0.0004064426 -0.025471114 -0.0269111 -0.030451028 -0.03538509
-0.057146493 -0.023802191 0.00257562 -0.04598538 -0.019108234 0.0342653 -0.030895248 0.039929055
00000000: 4a98 8b3c e697 0dbd 5c1f fd3c 6ea8 8dba
00000010: d89a 913c 7017 373d 6fbe 3b3d 5c7e bc3a
00000020: 674f 3a3d e729 b63c f16c 0abc 1ca7 89bc
00000030: fe04 613a 4791 243c 721c d8bc a03d 66bd
00000040: 8ea5 01bd d917 61bc a966 273c c8fd 52bc
00000050: e6c1 053c 4c21 ba3b fada 72bc 922b 90bd
00000060: 9cbc 32bd 8350 6a3c 8d3f 70bd b957 3f3c
00000070: bfba 203b 7e3d efbb 858b 41bb d47d 3d3d
00000080: 07f8 41bc 035e f33c aa6e 8a3c bf8b 0dbd
00000090: a5b0 473d 8a72 b83c 510e c43c d412 5a3d
000000a0: 4b9c 8c3c 34bf 11bb 7947 943c 6f66 253d
000000b0: b62c 703d 1eb2 fb3b 337c d93c 9bba 053c
000000c0: 908f 333d 68e4 fb3b a3b2 c7bc 7ed8 f03c
000000d0: 7d46 023d f5ea e8bc 37bf 613d 691e 5bbc
000000e0: e584 973a 2b80 613d ece2 61bc 65b9 ec3c
000000f0: c7ef 133c 2346 2a3c c45d 513d d2eb 60bc
00000100: 8a31 813d c947 063a f421 bc3c fc4f ea3c
00000110: 0542 68bc f06f 5b3d 27fb 423d cbd4 c4bb
00000120: 2566 b0bb 690f 2a3d e210 763c 8f07 bdbb
00000130: bfba a73c 954b efbc 7a1e cebc 3bd8 3abd
00000140: 3070 583c e50a b53c 1693 bebb ba2b 0d3d
00000150: 1fe4 cdba 1c52 fc3b 6b77 ddbc a338 6c3c
00000160: 7230 02bc 9ab1 003c 11c9 20bd 3f43 69bc
00000170: b2b3 1abc 36cc 5dbd 6d5a 23bd c66a 3d3c
00000180: 554b babc 2b4b c9bc 2655 f7bc f22f 0b3d
00000190: 8777 9dba dd44 003b 07fe 87bc b6b5 053d
000001a0: 0316 2bbb 113c 5f3b fceb 633a 987b b73c
000001b0: 7efd 253b e2ca 32bb a77c f63c 3d25 403d
000001c0: 230d a3bb 2b5f cd3c 3338 b2bc d3e0 f63c
000001d0: fcf3 033c 6ee0 dd3a 9e0d 67bc 1bf3 f83c
000001e0: 82ed 98bc a84f a3bc fde7 5f3d 84f3 20bc
000001f0: 6a18 313b 3532 183d e3a3 b73b 17ab 803c
00000200: cd98 813d 95ab 2a3d db8e 0bbc 2c89 a33b
00000210: e36e 60bc b318 053d 4704 143c 1c83 093d
00000220: 23f9 193a 3e70 f33c 7f2b 0f3d 475a 663c
00000230: 2722 d03b b252 253d 8718 1bbc 618a e8bb
00000240: 4eed 00bc f5e5 faba 04f0 4dbb ad7e 5c39
00000250: 104d 18bc 8567 4f3d 38eb fc3b 537d 5bbc
00000260: bc28 9d3c a286 af3c 6873 453d 2b3e 573d
00000270: 6a9f 023d 8b9d 1abc 5d30 053d e6eb 8fbb
00000280: 8eed 1f3d 7136 133d 3dcb 9abc b44a 62bc
00000290: f92b ddbb e1ba 95bb 3a57 bbbc a380 83bd
000002a0: 83b7 0a3c 8a78 8bbc 5cb5 98bd 0b34 a2bc
000002b0: 9002 063d b6b7 21bc 2e07 19bc 15be 973c
000002c0: 876e 78bb 3f19 a03c e12a 88bb 2099 103d
000002d0: c8c2 233d dc5e 163d f7c6 e9bc e49d 1e3b
000002e0: 4c1d ecbb c34b ef3c 0acd c13c a6be 763d
000002f0: b7d5 8c3c 69ac 2a3d dd94 66bc e06c f0bc
00000300: 7cdd b0bc c99a 58bb b94b ac39 2c09 2ebb
00000310: c0d9 5fbd 27d0 b7bc c1e0 1f3d a19e eebc
00000320: eb1d c7bc 2c3e d6bc f4bf e7bb 37ef 59bd
00000330: 6285 08bd 7d49 fb3c fa45 363c 03a7 133c
00000340: 7ce7 373d 6963 963c d85e 26b9 390d 78bc
00000350: f807 3abc fc07 8e39 9475 e93c 59f7 373c
00000360: a6d0 163d 06db 213c 7f10 083c 14b0 bf3c
00000370: 9fac e03c 1889 803d 4359 143b e6c4 05bc
00000380: 8d60 8ebc 0457 ec3c 29c9 cd3c c073 353d
00000390: 8c23 463c 991d 9d3c 0eb0 683d 526c 543d
000003a0: 96fa 5d3d ac7b 863d 7c8f 053d 5916 cbba
000003b0: ab0a b83c 1743 d23c 4484 523c db58 8bbc
000003c0: 99d5 9fbc 0834 cebc 3a6f 6cbd cd17 d5b9
000003d0: cca8 d0bc ab74 dcbc 6f74 f9bc f5ef 10bd
000003e0: 7112 6abd d0fc c2bc bccb 283b 2a5b 3cbd
000003f0: df88 9cbc c559 0c3d 0818 fdbc a68c 233d

c3.bias f4 [256]
0.04559409 0.048539322 0.036717854 -0.037019122 -0.03713814 -0.0069173337 -0.046209566 -0.02181366
-0.017228615 -0.0111164795 -0.020055274 0.059963513 0.014771095 -0.03185829 -0.056440342 -0.020744318
-0.039943613 0.026839482 0.072256945 0.030249262 0.0011044935 0.032281287 -0.023050087 -0.042718537
0.06393815 -0.054084416 0.05830641 -0.059460703 -0.021684894 -0.017522786 0.09257149 -0.044642095
-0.029002657 0.005185455 -0.045958374 -0.04334202 -0.012577808 -0.06273569 -0.03843525 -0.054006368
-0.05357294 -0.030916883 -0.014109185 0.030572794 0.02362753 -0.005908052 0.004523362 -0.033654217
0.07933563 -0.0041911476 -0.024414344 0.078520514 -0.021448042 -0.045537572 -0.038106848 0.046046656
0.026528828 -0.03853003 -0.057811115 -0.0053188684 -0.021170853 0.10307551 -0.017581731 -0.049279526
-0.044014156 -0.055173967 0.11475033 0.027160123 -0.015769823 -0.021608336 -0.040752616 -0.047075834
0.04114457 0.07133937 -0.04295736 -0.008064761 0.0001329604 -0.01593396 0.08450709 -0.05082831
-0.02429973 -0.032755487 0.05121225 0.09438875 -0.0004230403 -0.027429637 -0.044622734 0.027195407
0.031997144 -0.03426784 -0.028149918 0.041256003 0.06676704 -0.019836918 -0.044559307 0.011654784
0.07416127 -0.020275949 -0.00024388751 -0.04201921 -0.032508533 -0.013527724 0.009317982 0.046440106
-0.02324556 0.019597579 -0.04656552 0.063036 -0.054194063 0.00049279997 -0.044371556 -0.053864334
-0.057041146 -0.0347186 -0.06689249 -0.027254997 -0.03186926 0.056575846 0.00385844 -0.02245692
-0.023282388 0.031850766 -0.011806932 -0.05689717 -0.015237461 -0.043726895 -0.04663023 -0.027422482
-0.030575233 -0.03525308 -0.024579186 0.04749164 0.06047564 -0.008389613 0.023720456 0.01779213
-0.027382217 -0.001656608 -0.010968438 -0.055452157 0.04002734 0.0118224295 -0.02673852 -0.05662731
0.08410235 -0.04667757 0.02438851 -0.045776647 0.017505167 -0.032686003 -0.035999093 -0.019987706
0.008287212 0.07678641 -0.029654855 -0.03706584 0.025224442 -0.04893424 -0.07419994 -0.05475286
0.009439283 0.09830332 -0.049197007 -0.051383067 -0.0064662388 0.06387314 -0.04185695 0.06995065
-0.006933645 0.017155299 -0.05806817 -0.020142918 -0.0105655 0.020989005 -0.000253564 -0.013810679
-0.045319706 0.08713275 -0.022847569 -0.04586372 0.057155777 -0.043884028 -0.007350076 0.04059748
0.021285024 0.00432533 -0.017805116 -0.04222456 0.055593424 -0.025913509 0.083803035 0.006634349
0.029401526 0.0037736741 -0.003858956 -0.019247923 -0.01704534 0.027626947 0.0092870565 -0.0378357
-0.0048158406 -0.025355622 -0.06605919 -0.051567733 0.008475878 -0.06092149 0.01398534 0.035780888
-0.022693584 -0.042551145 0.008864519 0.0059091635 0.051113475 -0.036977153 -0.06003372 -0.07781043
-0.043354306 -0.03321681 0.03979009 -0.024467783 -0.0384966 0.064524114 0.060506843 0.046672832
-0.0670206 -0.0006828474 0.00012515135 -0.017271176 -0.044310957 -0.012200566 0.071918555 -0.013830967
-0.027844148 -0.018037625 0.074296094 -0.022731207 -0.010662101 -0.01498644 -0.037974577 -0.0017001681
-0.03343854 0.048003938 -0.036473334 -0.019638032 0.0859098 -0.030871212 0.049128793 -0.018758155
-0.028960982 -0.051462855 0.054336596 0.026058158 -0.0049321847 -0.003788993 -0.06073364 0.0015588483
00000000: dec0 3a3d 2bd1 463d 7665 163d 5da1 17bd
00000010: 2a1e 18bd cdaa e2bb 3e46 3dbd 90b2 b2bc
00000020: 0623 8dbc e521 36bc f54a a4bc 4d9c 753d
00000030: 7602 723c d77d 02bd fd2d 67bd fdef a9bc
00000040: ea9b 23bd 79de db3c 73fb 933d 4dcd f73c
00000050: a7c4 903a 6239 043d 89d3 bcbc a2f9 2ebd
00000060: 01f2 823d 9f87 5dbd b4d2 6e3d 118d 73bd
00000070: 85a4 b1bc f28b 8fbc 1f96 bd3d a1da 36bd
00000080: fb96 edbc c0ea a93b d93e 3cbd 6787 31bd
00000090: 2713 4ebc 927b 80bd 486e 1dbd c835 5dbd
000000a0: 4d6f 5bbd 6745 fdbc 362a 67bc cc73 fa3c
000000b0: 868e c13c 5598 c1bb b638 943b 01d9 09bd
000000c0: b87a a23d e555 89bb 9700 c8bc 5dcf a03d
000000d0: ceb3 afbc 9b85 3abd ed15 1cbd 6b9b 3c3d
000000e0: fc52 d93c aad1 1dbd 59cb 6cbd e749 aebb
000000f0: 7f6e adbc 4119 d33d 9007 90bc 54d9 49bd
00000100: 3048 34bd 19fe 61bd 3902 eb3d e87e de3c
00000110: b72f 81bc f703 b1bc 37ec 26bd 97d2 40bd
00000120: 3587 283d 601a 923d 0ff4 2fbd 0f22 04bc
00000130: 496b 0b39 f087 82bc 0e12 ad3d 5931 50bd
00000140: 3a10 c7bc 9e2a 06bd f0c3 513d e44e c13d
00000150: 82cb ddb9 1eb4 e0bc 54c6 36bd e7c8 de3c
00000160: 700f 033d 6f5c 0cbd a89a e6bc 0efc 283d
00000170: 28bd 883d 0881 a2bc d283 36bd b5f3 3e3c
00000180: dde1 973d bf19 a6bc 0ebc 7fb9 561c 2cbd
00000190: ab27 05bd 63a3 5dbc 73aa 183c fb37 3e3d
000001a0: 796d bebc 1a8b a03c 7dbb 3ebd 0519 813d
000001b0: 98fa 5dbd 3f2f 013a f3be 35bd d9a0 5cbd
000001c0: faa3 69bd 1735 0ebd eefe 88bd df45 dfbc
000001d0: 5789 02bd 13bc 673d e2dd 7c3b 93f7 b7bc
000001e0: b5ba bebc f375 023d dd71 41bc 020d 69bd
000001f0: 8ba6 79bc f91a 33bd 57ff 3ebd 1da5 e0bc
00000200: e978 fabc 8965 10bd 4a5a c9bc 9886 423d
00000210: 4eb5 773d 9674 09bc 6751 c23c cdc0 913c
00000220: ac50 e0bc 8a22 d9ba f7b4 33bc cd21 63bd
00000230: b5f3 233d ddb2 413c be0a dbbc 0af2 67bd
00000240: da3d ac3d fb30 3fbd 6aca c73c 4b80 3bbd
00000250: ff66 8f3c c2e1 05bd c973 13bd 42bd a3bc
00000260: 16c7 073c 3142 9d3d bdee f2bc 5ad2 17bd
00000270: 7da3 ce3c 456f 48bd 23f6 97bd 8944 60bd
00000280: 39a7 1a3c 4053 c93d cd82 49bd 0d77 52bd
00000290: bee2 d3bb eccf 823d 3172 2bbd 4942 8f3d
000002a0: a133 e3bb 4589 8c3c e4d8 6dbd c302 a5bc
000002b0: eb1a 2dbc 22f1 ab3c c9f0 84b9 3046 62bc
000002c0: 28a1 39bd a872 b23d d32a bbbc 99db 3bbd
000002d0: 2d1c 6a3d bdbf 33bd e8d8 f0bb 8b49 263d
000002e0: ee5d ae3c 7fbb 8d3b 09dc 91bc a9f3 2cbd
000002f0: eeb5 633d 9148 d4bc eda0 ab3d f464 d93b
00000300: 78db f03c bf4f 773b 8ae6 7cbb d2ad 9dbc
00000310: aba2 8bbc e851 e23c bd28 183c 9bf9 1abd
00000320: 33ce 9dbb 98b6 cfbc 0a4a 87bd b038 53bd
00000330: 69de 0a3c d088 79bd c422 653c fb8e 123d
00000340: e5e7 b9bc 1c4a 2ebd 7d3c 113c a8a1 c13b
00000350: 5d5c 513d 5b75 17bd ebe5 75bd 135b 9fbd
00000360: 4994 31bd 5a0e 08bd effa 223d a970 c8bc
00000370: 9cae 1dbd 3825 843d 06d6 773d 032c 3f3d
00000380: 1942 89bd 1d01 33ba 0f3b 0339 487c 8dbc
00000390: 687f 35bd e2e4 47bc 094a 933d 489b 62bc
000003a0: 6919 e4bc a4c3 93bc 8d28 983d cc36 babc
000003b0: 18b0 2ebc af89 75bc 3b8b 1bbd 2dd8 deba
000003c0: daf6 08bd c79f 443d 1065 15bd f0df a0bc
000003d0: 7af1 af3d a0e5 fcbc 463b 493d b4aa 99bc
000003e0: 953f edbc b7ca 52bd 0d90 5e3d eb77 d53c
000003f0: 2a9e a1bb c150 78bb d6c3 78bd 4552 cc3a

fc1.weight f4 [64, 256]
0.01077669 -0.062988505 -0.06317388 0.06723279 -0.061130445 0.03049528 0.0027134034 -0.05122955
0.0010506479 0.0551486 0.011323455 -0.068034805 -0.10511164 0.029163595 0.06026433 0.020168679
0.05680145 0.02412401 -0.028658798 -0.059810866 0.0067172106 -0.009678278 0.15683739 -0.05765256
0.046010684 0.10778264 0.008455401 0.121544376 -0.038261887 -0.0066773416 -0.042466063 -0.021153705
-0.057624847 -0.08059407 -0.02078238 0.032380503 0.040092357 -0.027041422 0.14843567 0.11658595
0.09829652 0.0064854994 -0.04940652 0.043238077 0.0276609 -0.039864365 -0.038907252 0.10626705
0.035866745 -0.09298778 0.10297733 0.036603022 -0.083963744 -0.06614693 -0.010264176 0.042836323
0.036184095 -0.03659416 -0.041928753 -0.02158679 0.024691464 -0.005674176 -0.033744223 0.09726456
0.0031745078 -0.0050342977 -0.035856 -0.065836705 -0.07473196 -0.019285047 -0.033999696 0.058090176
-0.060062993 -0.026127845 0.092531174 0.08982425 -0.01997427 0.10592818 0.027110929 0.21207562
0.009842548 0.054113116 0.049743406 -0.038777895 -0.011106987 0.05528713 -0.024640072 0.0472763
0.0054287836 -0.035640765 0.17013282 0.04380179 -0.024691524 0.020109672 0.035563745 0.05324691
0.034228504 0.059598207 -0.016879905 -0.021799168 -0.042822916 0.016642155 0.025876658 0.015459042
-0.0003450566 -0.026284182 0.08146396 -0.012856241 -0.01812837 0.053030845 -0.027219577 0.0023575323
-0.0014535149 -0.031832688 0.09129583 -0.042428322 0.058858857 -0.0465703 0.006196499 0.085641734
0.18855143 -0.023935765 -0.11430476 0.0386265 -0.08997916 -0.053847663 0.08499032 0.14076935
-0.06676952 0.043042693 0.03205477 -0.035921674 -0.041860983 0.0816279 0.04672807 -0.03078037
0.08776458 0.07839024 0.0708969 0.038726598 0.037258353 0.06719961 -0.021231074 0.032752085
0.026939642 -0.008522764 0.027607452 -0.07252792 -0.003442332 0.056274068 -0.03488442 0.052152414
-0.0928765 0.03858358 0.024144394 -0.0069449716 -0.015508757 -0.0030886885 0.059442315 0.05868732
0.035942655 -0.026512867 0.055943202 -0.024237247 0.10220095 -0.019886158 0.06733078 -0.032890663
-0.09775053 -0.03662625 0.031503446 -0.10319571 -0.06830486 -0.05100475 -0.035560966 0.13053443
0.13349476 0.018944072 -0.020294348 0.04730963 -0.005933656 -0.005209701 -0.02109284 -0.0325158
0.022944124 0.011590573 0.060595926 0.017130949 -0.009494125 0.07051353 -0.03815469 0.0401662
-0.079138935 0.0112524815 0.03459293 -0.031717133 -0.03134205 -0.014845497 -0.01494442 9.790288e-05
0.008895277 -0.022075882 0.12855741 0.07259088 0.019881388 0.06925891 0.011685027 0.012525465
-0.046138432 0.013581252 0.01177413 -0.067319475 -0.0357792 -0.016973665 0.019648705 0.031402964
-0.026527844 0.13837393 -0.04209856 -0.038076855 0.10405513 -0.042826194 0.039688338 -0.02384301
0.12843844 0.016589124 0.034650497 -0.056841996 0.051436577 -0.073936135 -0.03775068 -0.0588269
-0.07300096 0.00878362 -0.03882219 -0.065680586 0.030870743 0.070997864 0.12376158 -0.06506866
-0.02888551 0.0056139743 0.13857232 0.17105107 0.034944303 -0.033665463 -0.073911265 0.022778109
-0.027539598 -0.06103113 -0.079329014 0.04372371 -0.019189075 0.08097638 0.06045049 -0.010137111
00000000: b790 303c 1e00 81bd 4f61 81bd 58b1 893d
00000010: eb63 7abd 3dd1 f93c 5bd3 313b 14d6 51bd
00000020: e5b5 893a 80e3 613d 0386 393c d555 8bbd
00000030: c644 d7bd 7ee8 ee3c bbd7 763d c938 a53c
00000040: a3a8 683d b79f c53c dbc5 eabc 3dfc 74bd
00000050: 0c1c dc3b a491 1ebc fb99 203e 1725 6cbd
00000060: b375 3c3d 25bd dc3d 8688 0a3c 42ec f83d
00000070: 7fb8 1cbd 9acd dabb e5f0 2dbd 894a adbc
00000080: 0808 6cbd 810e a5bd cf3f aabc 6ba1 043d
00000090: e237 243d f985 ddbc 85ff 173e 9dc4 ee3d
000000a0: b04f c93d 5084 d43b 7e5e 4abd 691a 313d
000000b0: 1d99 e23c d148 23bd 365d 1fbd 8aa2 d93d
000000c0: 02e9 123d 6170 bebd c7e5 d23d 0ded 153d
000000d0: 2ff5 abbd 0b78 87bd 132b 28bc 2475 2f3d
000000e0: c635 143d c2e3 15bd 7cbd 2bbd c8d6 b0bc
000000f0: c145 ca3c 70ee b9bb 6237 0abd a432 c73d
00000100: 670b 503b c0f6 a4bb bedd 12bd 65d5 86bd
00000110: 120d 99bd adfb 9dbc 4443 0bbd f7ef 6d3d
00000120: 9d04 76bd 100a d6bc fc80 bd3d c7f5 b73d
00000130: 15a1 a3bc e0f0 d83d bd17 de3c 5a2a 593e
00000140: a342 213c b7a5 5d3d bebf 4b3d 92d5 1ebd
00000150: 14fa 35bc c274 623d fad9 c9bc cba4 413d
00000160: f0e3 b13b 0dfc 11bd 4c37 2e3e 8169 333d
00000170: e145 cabc 0abd a43c 4aab 113d 6f19 5a3d
00000180: 3033 0c3d 401d 743d ba47 8abc 2b94 b2bc
00000190: 1567 2fbd 2155 883c 49fb d33c ec47 7d3c
000001a0: b6e8 b4b9 ed51 d7bc 94d6 a63d fca2 52bc
000001b0: f381 94bc df36 593d 97fb debc d480 1a3b
000001c0: de83 beba fe62 02bd 4ff9 ba3d 52c9 2dbd
000001d0: fc15 713d 80c0 3ebd 000c cb3b ef64 af3d
000001e0: a013 413e f014 c4bc 9d18 eabd d236 1e3d
000001f0: fe46 b8bd 5e8f 5cbd 680f ae3d d725 103e
00000200: 75be 88bd 894d 303d dd4b 033d 9b22 13bd
00000210: 6c76 2bbd 872c a73d ef65 3f3d 1d27 fcbc
00000220: ebbd b33d 108b a03d 6532 913d c89f 1e3d
00000230: 379c 183d f39f 893d caec adbc 0d27 063d
00000240: 86b0 dc3c 10a3 0bbc 0629 e23c 8589 94bd
00000250: bf98 61bb a37f 663d f7e2 0ebd c59d 553d
00000260: 0936 bebd d109 1e3d 77ca c53c a592 e3bb
00000270: 7118 7ebc 986b 4abb c979 733d 1e62 703d
00000280: 9b38 133d 8331 d9bc b324 653d 318d c6bc
00000290: bb4e d13d 4ce8 a2bc b8e4 893d 5cb8 06bd
000002a0: 6e31 c8bd 6805 16bd c209 013d 4658 d3bd
000002b0: 6be3 8bbd 5bea 50bd 60a8 11bd d1aa 053e
000002c0: dab2 083e 9930 9b3c 5540 a6bc bec7 413d
000002d0: 1d6f c2bb 24b6 aabb e4ca acbc 4a2f 05bd
000002e0: 51f5 bb3c 63e6 3d3c 6f33 783d 3456 8c3c
000002f0: 3f8d 1bbc 6669 903d 1848 1cbd 5085 243d
00000300: 9813 a2bd 545c 383c 51b1 0d3d d3e9 01bd
00000310: 8560 00bd 873a 73bc 71d9 74bc 3551 cd38
00000320: 7fbd 113c 7bd8 b4bc 8ea4 033e 87aa 943d
00000330: 4bde a23c 9ed7 8d3d 8e72 3f3c 9c37 4d3c
00000340: a7fb 3cbd e683 5e3c 48e8 403c cbde 89bd
00000350: 368d 12bd 5b0c 8bbc 52f6 a03c 65a0 003d
00000360: ec50 d9bc e5b1 0d3e 8a6f 2cbd 7af6 1bbd
00000370: db1a d53d 856a 2fbd 3d90 223d 6b52 c3bc
00000380: 5e85 033e eae5 873c aeed 0d3d 27d3 68bd
00000390: 29af 523d d46b 97bd 75a0 1abd 7af4 70bd
000003a0: 8781 95bd 2ce9 0f3c 0404 1fbd 8b83 86bd
000003b0: a4e4 fc3c 5467 913d b676 fd3d b842 85bd
000003c0: 4ea1 ecbc 6ef5 b73b e7e5 0d3e 0328 2f3e
000003d0: c221 0f3d cce4 09bd ca5e 97bd 2899 ba3c
000003e0: b99a e1bc c7fb 79bd 4077 a2bd a217 333d
000003f0: 6832 9dbc f2d6 a53d ef9a 773d 2016 26bc

fc1.bias f4 [64]
-0.007208214 0.081327766 0.05659475 0.034958355 0.022686997 0.016384508 -0.012932408 -0.04835743
-0.02475957 0.008590025 0.025959693 -0.052354176 -0.018732212 0.052492492 0.03492243 -0.038286686
-0.017399114 -0.04555247 -0.0564159 -0.057168536 0.040501554 0.046851855 -0.036553234 0.048283596
0.040026907 -0.041516393 0.06503136 0.024847936 0.041905925 -7.393222e-06 0.10812264 0.048004694
0.079595834 -0.047658503 -0.06899841 0.046867117 0.008821621 0.09152433 -0.0987136 -0.05013515
0.013975973 -0.008729105 0.07857761 -0.007903632 0.04770822 0.075305596 -0.02210145 -0.052784495
-0.06428095 -0.036927223 0.040926423 -0.06247716 0.0020250548 -0.061684743 -0.011398136 -0.04456079
-0.054417457 0.08820982 0.0018256903 -0.07697949 0.05532137 -0.049289893 -0.0087105185 0.022928173
00000000: e232 ecbb 2c8f a63d e6cf 673d 7e30 0f3d
00000010: 15da b93c ce38 863c 73e2 53bc 7112 46bd
00000020: 95d4 cabc 2dbd 0c3c 6ca9 d43c 5571 56bd
00000030: 4c74 99bc 5e02 573d d20a 0f3d 80d2 1cbd
00000040: 9688 8ebc 3a95 3abd 5c14 67bd 8e29 6abd
00000050: f5e4 253d bbe7 3f3d d8b8 15bd 05c5 453d
00000060: 41f3 233d 180d 2abd 292f 853d e68d cb3c
00000070: 8ca5 2b3d 4b13 f8b6 676f dd3d 92a0 443d
00000080: 2403 a33d 9035 43bd 0a4f 8dbd bcf7 3f3d
00000090: 8f88 103c 1c71 bb3d 5b2a cabd 845a 4dbd
000000a0: 7bfb 643c 8504 0fbc 4ced a03d 3c7e 01bc
000000b0: b269 433d d239 9a3d 1a0e b5bc 8e34 58bd
000000c0: bba5 83bd 0041 17bd 77a2 273d 0de8 7fbd
000000d0: c8b6 043b 24a9 7cbd 3fbf 3abc 6085 36bd
000000e0: d7e4 5ebd 5aa7 b43d 004c ef3a 6ca7 9dbd
000000f0: a998 623d 33e4 49bd 90b6 0ebc ddd3 bb3c

fc2.weight f4 [5, 64]
0.07567114 -0.0021703818 -0.0032114817 0.11876958 0.08417446 0.040715452 0.06419859 0.07172512
-0.09457541 0.010595302 0.13816598 0.104381695 0.085037045 -0.0529355 -0.04959983 -0.0663643
-0.05036157 -0.03161058 0.10739635 0.02301298 0.029313922 -0.029910272 0.13302852 0.0060934527
0.023347883 -0.0342291 -0.05343499 0.048674792 -0.07387831 -0.028073976 0.0244157 -0.087240756
-0.050058663 0.08956531 -0.028775016 -0.059289984 -0.04625885 -0.09838628 -0.063840374 0.039343774
-0.027953414 0.03216285 -0.0780108 -0.015771253 0.07543356 -0.07413415 -0.09866997 0.10497001
0.18057019 0.106235646 0.040625956 -0.08629671 -0.0185102 0.051374305 -0.16141893 -0.045210514
0.045970175 0.026527718 -0.027567908 0.04998364 -0.10206876 -0.10433277 0.10230194 -0.14451963
-0.18387534 -0.32192248 0.18811662 -0.019602334 0.08878483 -0.008443893 0.08266964 0.024563596
-0.07046571 -0.26890936 0.018922994 0.10431521 0.24771324 0.22442394 0.020272395 0.014825076
0.08765391 0.040806398 -0.11595392 -0.03133616 -0.041278988 0.18359654 0.024259832 -0.080494486
-0.2886932 -0.08312569 0.08336709 -0.31123158 0.39127275 -0.08101946 0.1333695 0.17849743
0.10016319 0.037592974 -0.094612494 3.564695e-05 -0.026767625 -0.3334189 -0.024329271 -0.060113028
0.047908008 0.06266235 -0.2627287 -0.03447514 -0.04002464 0.12171874 -0.16530737 0.122695
0.24076678 0.05593559 0.0041519576 -0.10823734 -0.24957821 0.08311683 -0.14389826 0.0038221274
0.04606543 0.16087382 0.104708925 -0.1380966 0.15356988 0.08150696 0.07042453 -0.28942427
0.08729628 0.12808543 0.14897925 -0.07457667 0.07246437 0.018115265 -0.1245077 0.047730133
0.08309942 -0.10923107 0.081065156 -0.09790042 0.06977518 -0.15168378 -0.06357807 -0.024485156
-0.12107612 0.0020371825 0.07248621 -0.06802204 0.0036172688 -0.10044759 0.032111507 0.038978767
-0.11823237 -0.013085818 0.08358417 -0.0033712997 -0.018935671 -0.13062827 0.0049034934 0.008057599
0.048154872 0.09983704 0.10490187 0.017954072 0.13789679 -0.1547753 0.014935141 -0.05318643
-0.040495716 -0.088596754 -0.14066842 -0.08357059 -0.063706025 0.03951811 -0.028358798 0.060566142
0.11566813 0.090679556 0.05685283 -0.07289508 0.08805812 0.07594094 -0.06265879 -0.025198184
0.10294189 0.14154889 0.0744831 -0.041895818 -0.033848792 0.09168423 -0.04815428 0.0021864981
-0.01621011 -0.07944384 0.20011371 -0.013139295 0.10455451 -0.114457704 -0.10349461 -0.053956077
0.02173463 -0.09722775 -0.056031153 -0.03014671 -0.0841623 0.070358865 -0.03255856 0.030232638
-0.034959517 0.038857967 -0.11838867 -0.0804735 0.036897097 -0.06743676 0.008932971 -0.09189928
-0.1212773 0.07469952 0.11588758 0.07134341 0.19575106 0.11181705 0.061516393 0.08078832
0.1479029 0.08522661 -0.045896824 -0.03922753 0.11391759 0.055569425 -0.110363886 -0.08394149
-0.012221322 -0.054794803 -0.016536597 -0.083629794 -0.030939328 -0.06878018 -0.040264543 -0.08158915
-0.08426978 -0.021362333 0.053585295 -0.11073579 -0.099711895 -0.025324428 0.037948303 -0.0768867
0.08114491 -0.09578636 -0.05910796 0.07286236 0.09951574 0.09769611 0.0480064 -0.11660153
00000000: 78f9 9a3d f73c 0ebb b977 52bb 773d f33d
00000010: a963 ac3d 3fc5 263d 8d7a 833d 9fe4 923d
00000020: c1b0 c1bd eb97 2d3c 627b 0d3e 12c6 d53d
00000030: e727 ae3d e5d2 58bd 3129 4bbd 02ea 87bd
00000040: ef47 4ebd 187a 01bd 9ef2 db3d b885 bc3c
00000050: c023 f03c 6306 f5bc a138 083e 96ab c73b
00000060: 0f44 bf3c d033 0cbd a6de 5abd 385f 473d
00000070: 834d 97bd 65fb e5bc 6f03 c83c 48ab b2bd
00000080: 500a 4dbd 046e b73d 95b9 ebbc 0eda 72bd
00000090: eb79 3dbd bf7e c9bd bebe 82bd f026 213d
000000a0: 8ffe e4bc 31bd 033d 20c4 9fbd b732 81bc
000000b0: e97c 9a3d a5d3 97bd 7b13 cabd 84fa d63d
000000c0: 64e7 383e 1392 d93d 6767 263d 54bc b0bd
000000d0: b4a2 97bc dd6d 523d 014b 25be a92e 39bd
000000e0: 394b 3c3d a850 d93c 18d6 e1bc a5bb 4c3d
000000f0: 6d09 d1bd 6bac d5bd ae83 d13d f4fc 13be
00000100: d149 3cbe 06d3 a4be a5a1 403e 1395 a0bc
00000110: d2d4 b53d 4158 0abc b34e a93d 9839 c93c
00000120: 5350 90bd 7dae 89be 6504 9b3c 36a3 d53d
00000130: 8aa8 7d3e 64cf 653e 4b12 a63c e0e4 723c
00000140: e583 b33d 9c24 273d 4079 edbd 585a 00bd
00000150: 2814 29bd bb00 3c3e 8ebc c63c 4bda a4bd
00000160: 98cf 93be cd3d aabd 5dbc aa3d bf59 9fbe
00000170: e754 c83e 88ed a5bd 0492 083e 08c8 363e
00000180: 5c22 cd3d 17fb 193d 32c4 c1bd 9f83 1538
00000190: c747 dbbc e2b5 aabe 2e4e c7bc 1439 76bd
000001a0: 303b 443d 1e55 803d 6084 86be ce35 0dbd
000001b0: e0f0 23bd ad47 f93d 5646 29be 8447 fb3d
000001c0: 918b 763e b81c 653d 250d 883b 8aab ddbd
000001d0: 6e91 7fbe 2839 aa3d 115a 13be a87c 7a3b
000001e0: 1baf 3c3d 1bbc 243e a271 d63d 3269 0dbe
000001f0: 6c41 1d3e 1fed a63d bc3a 903d 6b2f 94be
00000200: 64c8 b23d d428 033e 048e 183e a7bb 98bd
00000210: 3368 943d 7766 943c e5fd febd ac80 433d
00000220: 0730 aa3d 8ab4 dfbd 7d05 a63d 0480 c8bd
00000230: 4ae6 8e3d fe52 1bbe 3835 82bd 1895 c8bc
00000240: c2f6 f7bd 4082 053b a673 943d 244f 8bbd
00000250: b30f 6d3b 77b7 cdbd 5b87 033d 33a8 1f3d
00000260: d023 f2bd e665 56bc 2d2e ab3d 06f1 5cbb
00000270: fb1e 9bbc 6bc3 05be 7cad a03b 0504 043c
00000280: 0b3e 453d 5d77 cc3d cbd6 d63d 6b14 933c
00000290: d134 0d3e 6b7d 1ebe 86b2 743c 04da 59bd
000002a0: d6de 25bd 3772 b5bd 620b 10be 0f27 abbd
000002b0: 4e78 82bd bedd 213d b650 e8bc 3414 783d
000002c0: 6ae3 ec3d 34b6 b93d 83de 683d 044a 95bd
000002d0: d157 b43d ec86 9b3d 4053 80bd 6c6c cebc
000002e0: 33d3 d23d 31f2 103e 988a 983d f39a 2bbd
000002f0: 08a5 0abd f1c4 bb3d 6c3d 45bd 5a4b 0f3b
00000300: 11cb 84bc 74b3 a2bd 9cea 4c3e 3346 57bc
00000310: ad20 d63d cd68 eabd fbf4 d3bd 0c01 5dbd
00000320: d30c b23c 581f c7bd ec80 65bd 3cf6 f6bc
00000330: 495d acbd 4f18 903d 205c 05bd 70aa f73c
00000340: b631 0fbd 8829 1f3d c275 f2bd 4acf a4bd
00000350: 6921 173d 491c 8abd 995b 123c b135 bcbd
00000360: 3c60 f8bd 10fc 983d 7856 ed3d 7e1c 923d
00000370: f772 483e 5600 e53d 9df8 7b3d 5974 a53d
00000380: dc73 173e 4a8b ae3d 4ffe 3bbd 0cad 20bd
00000390: a04d e93d c49c 633d 7606 e2bd 84e9 abbd
000003a0: f13b 48bc 8470 60bd c277 87bc 1946 abbd
000003b0: 7974 fdbc 9fdc 8cbd 6fec 24bd 3618 a7bd
000003c0: a295 acbd 0f00 afbc 417c 5b3d 72c9 e2bd
000003d0: c035 ccbd 2d75 cfbc ae6f 1b3d c676 9dbd
000003e0: 4d2f a63d a42b c4bd 301b 72bd dc38 953d
000003f0: e9ce cb3d e614 c83d 5ca2 443d c8cc eebd

fc2.bias f4 [5]
0.0515966 -0.00949948 -0.12223186 -0.059045248 -0.038241122
00000000: f556 533d b5a3 1bbc b354 fabd 6ed9 71bd
00000010: b9a2 1cbd
