IQL_CNN_tiny/agent1_201.pth (torch, 745122 bytes, 10 tensors)

c1.weight f4 [32, 8, 3, 3]
00000000: 6ffb 3bbd 29ce be3d ebc3 033e cd2f 04be
00000010: 94ea c63c 9619 d23b 024b 4abe 3ee4 f4bc
00000020: 5796 abbd 4bda 90be 0f03 983d 7f87 7c3d
00000030: a9d3 2abe ddf3 8dbe 8bba 3ebe 7e02 0d3d
00000040: e7f6 0bbe 42ce 4fbe fe26 b7bd 4628 343d
00000050: 80f8 253a a59d 9f3d 54ee 82bc 11df a53d
00000060: 5979 dd3d 457b 833d aa66 1b3d 8884 8ebc
00000070: 1cd0 b93c 2eff 763d e46e f5bc 6e31 8dbd
00000080: 5939 73bd 1a1e 663d a6b0 b7bd 34e6 6abd
00000090: d9bf 1e3e 1c4f 4f3c 5a5f d23c 04ca 91bd
000000a0: 8a65 f8bd 5034 8a3e 4b54 a73d bc0a f1bd
000000b0: 03c9 3f3d efc0 b43d 0e91 74bc a89c 63bd
000000c0: 01f5 003e 1eba f4bd 2fe1 273c 9bec 783d
000000d0: 9d57 043e 0e63 bdbc 6e19 9dbc 417d f03d
000000e0: 3acf dd3d 80c1 4abd a3bd 063e 9c79 183e
000000f0: f53c 5d3d 0ed4 eabc 23b7 273d 0d64 1b3b
00000100: 22c8 433c 6381 b9be 6055 e8bd 5306 8ebe
00000110: 36c5 de3b c6b2 ae3c ccab d5bd b846 7e3d
00000120: 2115 21bd 77d9 dd3d 3990 7dbd cba1 b4bd
00000130: 1855 14bc fcf3 a8bd d7d6 e5bd 2907 2b3d
00000140: 7f85 7b3d d395 833d 7d2f de3d 93f5 263e
00000150: 1fd5 18be c62b 94be 7329 0abe fcfc c33d
00000160: 2b99 e33d 8579 ad3d 60cb 10bd 5ec0 1d3d
00000170: 68c2 173c 08a8 0bbc 0cf2 ca3c a239 2f3d
00000180: 4292 683d ee85 1cbd ed33 be3d 0ac6 343d
00000190: 040b fd3c 0dd2 8f3d 4b59 b13d ba11 7d3d
000001a0: 3038 c3bb 983e 023c 96c7 59bd a7e1 993d
000001b0: 810b 38bd cde0 3abd a2ef 273e 2488 61be
000001c0: 787d d0bd c190 893e 27d3 a63d cadc 57bd
000001d0: dd91 593e 4bed 613d 72cd bfbc dbf4 f0bc
000001e0: d963 aabd c751 043c d359 f13d c34d fc3c
000001f0: 4387 423c 08f7 7f3d afe6 87bd a16b e4bd
00000200: 0241 4fbd c638 00bc bbe9 8b3d 4744 b93c
00000210: c9b5 5fbd a6f8 963c ae78 26bd 7427 26bd
00000220: 882c d2bd f315 07be 57da b4bd 9dd6 cc3d
00000230: 3341 75bd c27b b53d 1b59 9ebb 27b9 47bc
00000240: a215 d43d 5dac 2abc 0f1e 70bd a2d0 1b3d
00000250: c0bc 463d dc3a 4fbd 1fd4 76bd b5ae a6bd
00000260: 3940 e43d 553f 0b3d 67ee f3be a694 8dbc
00000270: ee43 063d fd27 983d 5025 083e e0ad 253e
00000280: 9186 883d d3bb b03d dc1d 2fbd 0b0f a83d
00000290: 80a3 62bb 22c4 bfbd e5cd a03d 3030 84bc
000002a0: 60ff 68bd c76e 833d 9051 b8bc 8612 46bd
000002b0: eb4a e83d 62a0 373d c2a5 4e3d 15fd e8bd
000002c0: 88ae 33bc d0ac 2fbc ae7e 9ebd a2a7 c2bd
000002d0: 3811 ed3d 00e3 e93b c8f5 ccbd e7a8 193e
000002e0: e7a8 073e a9d0 abbb 4278 8a3d b36e e1bd
000002f0: 1a11 82bd d5a3 e03c 54b9 09bc b8f6 06bb
00000300: c772 7a3d 9f38 783d 081c de3d 5518 2c3e
00000310: b5ea 783d 3c54 2b3c 4882 e3be f722 15be
00000320: c9e8 66be 1584 e63c 0af3 9dbc 6fe0 b43d
00000330: 9797 7c3d f3e0 373e 0d08 b03e f217 70bb
00000340: 008c fcbd e5b3 3ebe e013 7dbd 40d9 62bd
00000350: c846 babd c99f 97bd f539 09bd a1ff 87bd
00000360: db47 76bd 4b9a af3c 71fe 893d 8952 443c
00000370: 0586 e4bc 7613 803c c42e d2bd 061a 993d
00000380: 353a b73d ceb6 53be ab8f 603e 41e4 2b3e
00000390: 7c23 07bc f3e7 343e 4082 13bc 2fa0 4f3b
000003a0: 1cd7 403d a5a9 32be ee94 aebd cf01 aa3d
000003b0: c746 8e3d c2cd 7c3d 7a07 7ebd d044 67bc
000003c0: 29c7 cb3d 1ce1 b03c 54db c43c f8ce a1bc
000003d0: 689d 573c 4482 c43c 92e0 bdbd e2ca 673d
000003e0: 1100 953d 149b ec3c ad5c b9bd c17e 8dbd
000003f0: cd5f 433e 0f69 243e 7ce0 d2bb 8266 183c
-0.045894083 0.09316666 0.12867706 -0.1290886 0.024281777 0.0064117415 -0.19755176 -0.02989399
-0.083782844 -0.28291544 0.074224584 0.061652657 -0.16682304 -0.27725115 -0.18625848 0.034426205
-0.13668405 -0.20293525 -0.08942984 0.04398372 0.000633128 0.0779374 -0.015982784 0.08099187
0.10814161 0.06419996 0.037939705 -0.01739718 0.022682242 0.060301952 -0.029960103 -0.068941936
-0.059380863 0.05618105 -0.0896924 -0.057348445 0.15502872 0.0126531385 0.025680233 -0.071186095
-0.12128742 0.26993036 0.081703745 -0.117696255 0.04682256 0.08825862 -0.014927162 -0.05556932
0.12593462 -0.119495615 0.010246559 0.06077252 0.12924047 -0.023118522 -0.019177165 0.1174264
0.10830541 -0.049500942 0.13158278 0.1489014 0.05401321 -0.028665569 0.040946137 0.0023710758
0.011949571 -0.36231527 -0.11344409 -0.277392 0.0067984117 0.02132548 -0.10433158 0.06207916
-0.03932679 0.10832494 -0.06190512 -0.08819922 -0.009053491 -0.08249661 -0.11222618 0.041754875
0.06140661 0.06425061 0.108489014 0.16304617 -0.14925049 -0.28939646 -0.13492374 0.09569737
0.11113199 0.08470444 -0.035350204 0.038513534 0.009262659 -0.0085239485 0.02477362 0.042779572
0.056780107 -0.038213663 0.09287248 0.044134177 0.030889042 0.07022486 0.086596094 0.061784483
-0.005957626 0.007949494 -0.053168856 0.07513743 -0.044932846 -0.045624543 0.16400006 -0.2202459
-0.10180181 0.2686825 0.08145743 -0.052700795 0.21247049 0.05515794 -0.023413394 -0.029413631
-0.08319826 0.008076138 0.11784711 0.030798798 0.011873069 0.062491447 -0.06635796 -0.11153341
-0.050599106 -0.007826036 0.0683169 0.022615565 -0.054616723 0.018429112 -0.040642433 -0.04056497
-0.102624 -0.13191967 -0.088307075 0.10001872 -0.059876632 0.088614956 -0.0048323995 -0.01219014
0.10355689 -0.010417071 -0.058622416 0.038040765 0.04851985 -0.050593242 -0.06026089 -0.081387915
0.11145062 0.033995945 -0.47642824 -0.017282795 0.032779627 0.07429502 0.13295484 0.1617961
0.066662915 0.086295746 -0.042753085 0.08205994 -0.0034582317 -0.09363581 0.07851771 -0.016136259
-0.05688417 0.064176135 -0.02249983 -0.04835751 0.113424145 0.044830687 0.050451048 -0.113763966
-0.010966904 -0.010722354 -0.07739006 -0.0950463 0.1157555 0.007137656 -0.100078166 0.15005837
0.13248025 -0.00524338 0.067612186 -0.11007442 -0.06350918 0.027421871 -0.008406002 -0.0020593833
0.061144616 0.060600873 0.1084519 0.16806157 0.06077071 0.010457095 -0.44435334 -0.1456412
-0.22549738 0.028139153 -0.01928093 0.0883187 0.061668005 0.17956905 0.34381142 -0.0036635366
-0.123313904 -0.18623312 -0.061786532 -0.055382967 -0.09095532 -0.074035235 -0.033502538 -0.06640554
-0.06012712 0.021435877 0.06737984 0.011982569 -0.027895937 0.01563428 -0.10262826 0.07475667
0.08946649 -0.20675203 0.21929805 0.1678629 -0.008248206 0.17666607 -0.009003222 0.003168117
0.047080144 -0.17447527 -0.085245 0.08301126 0.069470935 0.061719663 -0.06201885 -0.014115527
0.09950096 0.021591716 0.024030365 -0.01975201 0.013160087 0.023987897 -0.09271349 0.05658997
0.07275403 0.02888254 -0.090508796 -0.06908942 0.19079514 0.16055702 -0.006435452 0.0093017835

c1.bias f4 [32]
00000000: b09c 103c bd23 603d 5de1 8a3d 47c1 3dbc
00000010: f469 cc3b cc61 27bd 4cf5 973d ff22 043c
00000020: 8f4b 8a3d d214 08bd 040f d7bc 180d 0b3d
00000030: d60a c93c 03ec 5abb a6ce 32bd 71cb 85bd
00000040: c0dc e9bd c15b 47bd 57ce db3c e663 dbbd
00000050: e76d 283c 6765 aa3d ba24 503d 0684 c8bd
00000060: ea8c cf3d 7ca3 8e37 8327 ac3d 691e 7a3c
00000070: 1d17 92bd cd0e c03c 8ccc 69bd 5a22 59bc
0.00882642 0.054721583 0.06781266 -0.011581725 0.0062382165 -0.04086475 0.074198335 0.008064984
0.06752693 -0.03322298 -0.026252277 0.033948034 0.0245413 -0.0033404834 -0.043654107 -0.06532944
-0.11419058 -0.048671488 0.026831789 -0.107124135 0.010280109 0.08320122 0.050816275 -0.097908065
0.10134299 1.7003847e-05 0.08405974 0.015266039 -0.07133315 0.023444558 -0.057079837 -0.013252819

c2.weight f4 [64, 32, 3, 3]
00000000: 8546 f5bd 46e0 46be 95a6 31bd 0668 d8bd
00000010: 831c 23be 0dff 3d3d 6e0a 7bbd 6cc9 9fbc
00000020: b90f d6bd 43e7 37bd 1560 95bd bcd1 fcbd
00000030: ccde f9bd ae5c 89bd 6280 21be e9d0 163d
00000040: 1673 1b3d fcbe c7bd 42bf aebc 3e50 dbbb
00000050: 8114 94bb 5004 a5bd 1149 c1bd d449 8ebb
00000060: 547e bebd cd95 003d a893 82bd 81eb 9e3c
00000070: 3437 3f3d 7268 fa3d 8695 3cbd 9845 5abd
00000080: 55a4 cc3d 667b 873c 5748 593d 2459 753d
00000090: ac8f afbc 4091 cdbd 6f7c 00be b6e2 42bc
000000a0: 02e0 f3bb eb0a 4cbd 6268 4a3c 6838 25bd
000000b0: 8f3c 96bd 14e0 55bd e029 9abd 7525 87bd
000000c0: b16e 11bd f763 48be 0f0c a7bd 64cc 3cba
000000d0: adc5 81bd 416d 92bd ef2e 463d 1acb 833c
000000e0: c46e 9bbd dd53 0abd 4ca3 a03d aafe aebb
000000f0: b00d 50be 1907 11bd 1a4a a43c c3e3 0ebe
00000100: 91d7 0ebe 6862 3cbe 42f7 37bc b9f2 9bbd
00000110: 6486 86bd 2ed1 323d fb1f 06bd bc0d d33c
00000120: a756 fcbc 3d39 8bbd 423b e0bd 481a fc3c
00000130: 31b0 11bd 1f20 8abd c45a 4b3d 6e24 10bc
00000140: b2d6 3cbd e8e4 043d 18f5 a13c 20a9 f7b9
00000150: 675e 95bb 6818 543b cec4 bf3c 84a5 bc3d
00000160: 74a0 c63b d53c 6ebd f4fd 2e3d 53dc 5a3d
00000170: 5161 b53d b62b b13c 6340 ab39 14fa a33d
00000180: 4e5a 42ba e8f1 4b3c d9e9 3e3c efc3 80bd
00000190: 2183 debc b152 04be bf9a 5a3d 951a 14bd
000001a0: fd5e 523c a6db f3bc 21b8 b5bd 306b 7d3c
000001b0: 1440 d73d 5b34 c33d 91c6 2f3d 9d9c d03d
000001c0: a9bf 9d3d 4291 0bbc 2c7c 33bd e147 31ba
000001d0: e0c8 7c3d 196c bcbb eecd 923d 1184 263d
000001e0: 7f6e 28bd f370 0d3d 97b1 95bd 12e0 3fbc
000001f0: 7a78 17bd ddc9 7fbd b75a 153a e1bf 66bd
00000200: da6e 8b3d d16d 9ebd 1185 4a3c e6c0 89bc
00000210: 8152 4fbe a667 97be 062e 09be 527a d63a
00000220: c64e 343d 40cd 313e 1562 c83c 9e2c 9c3d
00000230: 1497 f13d dff3 04be ec7b 9ebb 19b2 ed3c
00000240: 4362 793d 5c73 b9bb 2ed8 eb3b c731 dabd
00000250: 9328 89bd 7152 c2bd bec6 4cbc 3b09 c63d
00000260: f43b ac3d 0d71 9abd e918 8cbd 23bd 8dbd
00000270: 3030 4dbd badb 08be e692 35be dc3f c3bc
00000280: 9143 c6bc f064 2abe 7d16 aebd 03e3 0fbd
00000290: 1ae7 2ebc 4d67 97bc 4df7 f1bc 2fe9 893c
000002a0: 7bdc 79bc 6b05 b73c fb62 853a bdd5 163e
000002b0: d2cc 513e 8919 ad3e e9bf a03c 08ba 943d
000002c0: cf2c c03d d9a1 f9bd 68ca 923d f0db 393d
000002d0: 079b db3c d5b7 3c3d 8363 d3bc e469 123c
000002e0: d926 a1bc 9ec6 a43d 4de9 97bc d212 cfbb
000002f0: 8a71 173d 820a 06be d740 fdbd e122 06be
00000300: 4b17 01bd a061 fcbc 71e1 363a 294d d7bd
00000310: 93f9 be3d 5f9c b13c d9f8 d3bd 4dcd 14be
00000320: 09ff e3bd f2a0 aa3d 3ea2 c23c 1ea2 02bd
00000330: e513 363e 4782 943c 55ea ad3d 137f dd3d
00000340: 2c43 133e 6087 613d 8af6 f83d 0612 703d
00000350: e3e3 143d 6fa7 3abd beb2 493d 45ba 0abc
00000360: 47e6 783b ff92 083d ac2c 1f3d 233f 19be
00000370: d340 103d f183 f5bd 35da 7a3d d71d 0a3d
00000380: 4782 c03c 25c4 df3d 23f0 f63c d0dd 003c
00000390: 651e de3c f4ef 163d aa20 b3ba 963e 13be
000003a0: 0c83 8dbd b133 05bd a3c4 33bd d736 eebd
000003b0: 22a2 d9bd db8c 893d 932b 843c 174e 613c
000003c0: 8e7b 37be 1ef1 06bb 1a2a 6e3d eed6 053c
000003d0: 984a 553d a2b1 8e3d 1d38 88bd 4f43 80bc
000003e0: 05ba 2fbd a20a df3d cf08 9a3c f47d 47bd
000003f0: 0291 e63d feae b73d 83f8 1ebe a560 093e
-0.11976341 -0.19421491 -0.043371756 -0.10566716 -0.15928845 0.046385814 -0.061289243 -0.019505225
-0.104522176 -0.044898283 -0.07293717 -0.12344691 -0.12200698 -0.0670713 -0.1577163 0.036820326
0.03795155 -0.09753224 -0.021331433 -0.006692915 -0.004519046 -0.08057463 -0.094377644 -0.004342297
-0.09301439 0.03139286 -0.063758194 0.019399406 0.046683505 0.122269526 -0.046041034 -0.053289026
0.09992281 0.016538333 0.053047504 0.059899464 -0.021430813 -0.1003747 -0.12547468 -0.011894872
-0.0074424753 -0.0498151 0.012353988 -0.040336996 -0.073357694 -0.05221565 -0.07527518 -0.06598941
-0.035505954 -0.19569384 -0.08156597 -0.00072020874 -0.06336532 -0.07149745 0.048384603 0.016088057
-0.07589486 -0.033771385 0.078436464 -0.005340417 -0.20317721 -0.03540716 0.020054866 -0.13954072
-0.1394942 -0.18396914 -0.011228384 -0.07614655 -0.06568602 0.04365652 -0.032745343 0.025763385
-0.030803038 -0.06798027 -0.109488025 0.03077425 -0.03556842 -0.06744408 0.049647108 -0.008797748
-0.046103187 0.032444865 0.01977019 -0.0004723752 -0.004558373 0.003236318 0.023409273 0.09211257
0.006061608 -0.058163483 0.042722657 0.053432774 0.08856452 0.021627288 0.00032663633 0.08006683
-0.0007413969 0.012447812 0.011652433 -0.06287371 -0.027162137 -0.1292217 0.053370234 -0.036158163
0.01284003 -0.029767822 -0.088730104 0.01546745 0.10510269 0.095314704 0.042913977 0.101861216
0.07702572 -0.008518519 -0.04381959 -0.0006762725 0.061715007 -0.005750191 0.07168184 0.040653292
-0.041121002 0.034531545 -0.07309263 -0.011711137 -0.03698013 -0.06244837 0.00056974165 -0.056335334
0.06808253 -0.077357896 0.012360827 -0.016815614 -0.20246316 -0.29571265 -0.13396463 0.0016363359
0.044020437 0.17363453 0.024460832 0.076256976 0.11796394 -0.12983654 -0.00483655 0.029015588
0.060884725 -0.005659504 0.0071974015 -0.106540255 -0.06697192 -0.09488381 -0.012498556 0.09669729
0.08409873 -0.07541094 -0.06840689 -0.069208406 -0.050094783 -0.13365069 -0.17731819 -0.023834161
-0.02420214 -0.16640067 -0.08500383 -0.035128605 -0.010675216 -0.018481875 -0.029536868 0.016834823
-0.015250321 0.02234145 0.0010176593 0.14729972 0.20488289 0.33808544 0.01962276 0.07262045
0.093835466 -0.12189073 0.07167512 0.045375764 0.026807321 0.046073753 -0.025804287 0.008936379
-0.019671844 0.08045696 -0.018543864 -0.006319382 0.036973514 -0.13089946 -0.12365883 -0.13099243
-0.031516355 -0.03080827 0.00069763424 -0.10512764 0.09324946 0.021681009 -0.10350198 -0.14531441
-0.111326285 0.08331479 0.023759004 -0.03189289 0.17781027 0.018128527 0.08491961 0.10815253
0.14381093 0.055060744 0.121563986 0.05861094 0.036350142 -0.045569833 0.049242727 -0.008467262
0.0037979053 0.03334331 0.03886096 -0.14965491 0.03521807 -0.119880565 0.061243255 0.033719864
0.023499621 0.109260835 0.030143803 0.007865384 0.027114103 0.03684993 -0.0013666351 -0.14379343
-0.06909761 -0.03252 -0.0438887 -0.116315536 -0.106266275 0.06716319 0.016134059 0.013751528
-0.17918226 -0.0020590494 0.05814562 0.008168919 0.05207309 0.069674745 -0.06651328 -0.015657095
-0.04290201 0.108907 0.018803028 -0.048704103 0.11258127 0.08968924 -0.15524487 0.13415773

c2.bias f4 [64]
00000000: 28e0 193d 67d7 4b3b 962e cb3d ce57 67bd
00000010: 2847 04bd 93c3 ba3c 12d5 9abc d77d 8dbc
00000020: 9488 503d ff5f e03a 2d3b 723d 8a7e 4cbd
00000030: 61ea 943b a7b1 2e3d f376 943c cacc 853c
00000040: 9b08 35bd 770c 0abd d461 6cbd ff6d 4f3d
00000050: 70bc 8c3d d83a 183d dd36 903d 3779 173d
00000060: 3df3 10bc 4a63 1a3d 6ad3 4ebd 49b3 d83c
00000070: 881a e2bc 6deb 203d a4af 4e3c e9d4 c53c
00000080: 1408 9ebc 3a4c 443c cae4 54bc fd49 9a3d
00000090: 7db5 07bd a6c4 45bb 4092 e8bb fda0 e7bb
000000a0: c947 3d3d 5c85 343c 8ed6 9d3c f771 b43c
000000b0: 87e3 a1bc 2996 10bd d4f8 a73a 7a88 cb3c
000000c0: d7ea ed3c 07d4 b93d ce33 863d bff1 6b3d
000000d0: c74b 44bd 1d25 313d 1b42 103d b241 5bbd
000000e0: d872 a43c 1894 d13b 9e9f ffbc 65b2 b1bb
000000f0: 4f23 acbc 5cb5 373b ad0e 7d3d cafd 3b3d
0.037567288 0.0031103732 0.09920995 -0.05648022 -0.032294422 0.022798335 -0.018900428 -0.01727192
0.0509115 0.0017118453 0.059138466 -0.049925365 0.0045445417 0.04264989 0.018123126 0.016333003
-0.04419766 -0.033703294 -0.057710484 0.05064201 0.06871879 0.037165493 0.07041714 0.036980834
-0.008847055 0.037692346 -0.05049459 0.026452677 -0.027600542 0.03928702 0.012615118 0.024149375
-0.019290961 0.011981064 -0.012994001 0.075336434 -0.033132065 -0.0030177026 -0.0070975125 -0.007068752
0.046211038 0.0110181235 0.019267347 0.022026999 -0.019761814 -0.035299454 0.0012815245 0.02484535
0.029042644 0.09073644 0.0655285 0.057603594 -0.04792383 0.043248285 0.035219293 -0.05352945
0.020074293 0.006395828 -0.031204041 -0.0054228776 -0.02101293 0.0028031683 0.061781574 0.04589633

c3.weight f4 [256, 64, 3, 3]
00000000: 1921 ff3d e0ce e63d e7ba f13d 1632 a03d
00000010: 3e98 d53d d2c7 b03d 192b de3d 9015 163e
00000020: c9f3 f73d 610d d73d 56dd 813d 5cd1 c43d
00000030: 707c 963d 469b c43d 93e3 a23d 96d9 9a3d
00000040: 177a cc3d 5a3c d13d fc56 30bd aa6a 81bd
00000050: 5c9c 5fbd 29cc d4bd cb0d d5bd 934a 90bd
00000060: 2b61 61bd 3f45 e1bd 44c9 c0bd 953f b93d
00000070: d21e 6c3d 1fb6 dd3d beb8 c33d 02ac 933d
00000080: 8546 ed3d 6162 673d e14a 8e3d 6d03 fc3d
00000090: ca30 ea3d 5d7e 6a3d 3107 aa3d 4579 d03d
000000a0: cf6e 993d b23c c33d 6354 fd3d afe6 963d
000000b0: 49d8 d63d 8840 e13d af7d dc3d b19a 4f3d
000000c0: b8f1 de3d eb0a 9b3d 3477 913d f160 d63d
000000d0: 21d3 b03d 7d27 c93d 11c1 c9bc 3be8 733c
000000e0: 7ef9 283c 304c 7b3c bf73 68bc 1e94 64bc
000000f0: c406 563b 5094 dbbc 19a0 f5bc 1e9d a23d
00000100: 966a 073d 28d1 953d aad5 a73d 0352 d63d
00000110: f19c ae3d 1cd7 153d df57 a93d 4213 dd3d
00000120: 2d02 203e 3ebd 063e 2b60 133e 36a6 fc3d
00000130: 2072 e53d 1aee e33d 63c1 553e 53f3 4f3e
00000140: a675 293e 97f9 033e e30b 073e d598 fe3d
00000150: e353 803d 6510 8f3d 50b9 9e3d 3408 ef3d
00000160: 8ec8 0b3e badc ec3d 709f 87bd da20 91bd
00000170: a8db 31bd 8164 8dbd 321f 17bd b1ec 98bd
00000180: f2c1 4bbd 4731 abbd 3482 c6bd 95ae 853d
00000190: 7a6c f13d fcee e73d 19e9 2e3d 1f07 da3d
000001a0: c715 af3d affd 6e3d 6590 763d ae99 1c3d
000001b0: b1cf f93d 47e9 d83d 1894 f23d 60ca 083e
000001c0: d587 a83d 951c c83d 0af8 483e 3822 2a3e
000001d0: 2a75 2e3e aa35 123e 3c20 243e 2775 663d
000001e0: a4f3 6a3e 8810 593e 6eda 663e c9f7 5d3e
000001f0: 9986 183e 4459 6b3e 5b88 8b3e 6b6f 993e
00000200: 746b 9f3e 17b4 9a3e 9682 993e 8e8f 8f3e
00000210: 2158 8a3e da7c 8f3e 8b1c a43e 649a 923c
00000220: 4edb 88bc 733c a43c 7381 a13d db69 963d
00000230: c8fd 1c3d 0336 a73d d0e1 ab3d 361d 973d
00000240: 851a 253d 28f8 103d 4134 2a3d 1df1 a93d
00000250: 9dcb 8b3d bbf8 bf3d 7cc2 1d3d 92af f13c
00000260: d2bf a73d 90c4 903d d62d fa3d d344 e33d
00000270: 3e67 923d 2a7d 853d 817f 9b3d 3510 ec3d
00000280: 2a43 043e 97c2 b53d 864d ae3d aaea 053e
00000290: 594e 043e 8354 a03d 5316 9c3d d87f 9e3d
000002a0: 77c2 8e3d 3386 c93d 80be b33d 8304 423e
000002b0: 71a6 123e 2566 203e 5561 3f3e af0e 0d3e
000002c0: b4e7 4b3e cd39 4e3e bb60 603e 855f 3b3e
000002d0: 8233 943e 046f 513e da49 333e 8cd8 aa3e
000002e0: 7542 803e 5bdc 4b3e 2fdf bd3e 23c5 8c3e
000002f0: cf71 5b3e 97ee 883c fca4 0bbd c947 50bc
00000300: 60a1 e2b9 2418 efbc 910a 2cbd ee7d 77bd
00000310: addf c0bc 7bb6 51bd a340 16bd 1390 16bd
00000320: ff5d 313c f8c2 8cbd 51af d9bc 6bfb 32bd
00000330: b0ed fa3b e213 353c 73f3 03bd 924e 073e
00000340: 96e6 043e 554a cf3d c740 c53d afaa 243d
00000350: a5f4 ce3d 73d9 c23d c505 f23d dc2f d03d
00000360: 09eb 293d 9696 e73d ecb3 df3d abe2 bf3d
00000370: 40af 5c3d 4691 683d 3e5d 873d ce90 e03d
00000380: 6009 d13d f018 603e 1170 5f3e f9ce 3c3e
00000390: 7ab4 4b3e f3f8 333e e9db 6f3e e9a3 493e
000003a0: 4a2f 743e b6df 3d3e 7bf7 ceba 3d84 03bc
000003b0: 130a bb3c 5d94 50bc b1fe ef3b d3e9 d63c
000003c0: 2f8a 11bd ddba 32bd 49d4 a5bd acc4 193d
000003d0: 7b62 e83d 34f1 4b3d 0beb 413d ce37 9f3d
000003e0: cea0 8a3b 68dd 853d fb61 393d 15b7 a03c
000003f0: 58a7 823d 0ef8 ca3d 1258 e73d 7208 fa3d
0.12457485 0.11269927 0.11803227 0.07822053 0.104294285 0.08631863 0.10848064 0.14656663
0.12107045 0.10500599 0.063410446 0.09610245 0.07347953 0.095999286 0.079535626 0.075610325
0.09984224 0.10216589 -0.043051705 -0.06319173 -0.054592475 -0.10390503 -0.104030214 -0.07045474
-0.055024307 -0.10999536 -0.09413388 0.090453304 0.05764658 0.108257525 0.09556721 0.07210542
0.11585716 0.056490306 0.06947876 0.12305341 0.11435087 0.057249416 0.08302153 0.1017938
0.07491838 0.09533061 0.12369611 0.07368218 0.10490472 0.109986365 0.1076616 0.050684635
0.10885948 0.07570442 0.07102814 0.10467709 0.0863402 0.09821985 -0.024628194 0.014886911
0.01031339 0.015337989 -0.014187752 -0.0139513295 0.0032657841 -0.02680412 -0.029983567 0.07940124
0.033060633 0.07315284 0.0819505 0.10464861 0.08526028 0.036582097 0.08268713 0.10794689
0.1562583 0.13158128 0.14392154 0.1233639 0.11203408 0.11129399 0.20874552 0.20307665
0.16548786 0.1288818 0.13188128 0.12431494 0.06266 0.06985549 0.07750189 0.116714865
0.13650724 0.11565538 -0.06622207 -0.07086344 -0.04342237 -0.06903935 -0.036894985 -0.0746702
-0.049745508 -0.08359008 -0.09692803 0.065274395 0.117882684 0.113248795 0.042702768 0.106458895
0.085490756 0.0583474 0.0601963 0.038232498 0.12197817 0.10591369 0.11844653 0.1335845
0.08229033 0.097710766 0.1962587 0.16614616 0.17036882 0.14278284 0.16027921 0.05626407
0.22944504 0.21197712 0.22544262 0.21676554 0.14895095 0.22983271 0.27252468 0.29967818
0.31136668 0.30215523 0.29982442 0.2803921 0.27020362 0.28024942 0.32053027 0.017895885
-0.016706135 0.020048356 0.078860186 0.07344409 0.038327962 0.08164599 0.0839268 0.073786184
0.040308494 0.03539291 0.04155374 0.08297942 0.068259455 0.093736134 0.038515553 0.029502664
0.08190884 0.07068741 0.12215774 0.110971116 0.07148598 0.06518014 0.07592679 0.11526529
0.12916246 0.08875006 0.0851088 0.13077798 0.12920512 0.07828619 0.076214455 0.07739228
0.06970685 0.098400496 0.08776569 0.18947034 0.14321305 0.15663965 0.18689473 0.13775133
0.19912606 0.20139237 0.219119 0.18298157 0.28945547 0.20452505 0.17508641 0.33368337
0.25050703 0.19908278 0.37084338 0.27494153 0.21430133 0.016715331 -0.03409289 -0.012712427
-0.00043226313 -0.029186316 -0.042002264 -0.06042283 -0.023544157 -0.051199418 -0.036682736 -0.036758494
0.010825633 -0.06873125 -0.026572855 -0.043696802 0.007657729 0.011052104 -0.032214593 0.13213566
0.12978587 0.101215996 0.09631496 0.04020184 0.10105256 0.095141314 0.11817507 0.101653785
0.041483913 0.11308019 0.10922989 0.09369405 0.05387807 0.05677917 0.066095814 0.10965119
0.10206866 0.21884513 0.21820094 0.18438329 0.19893065 0.17575435 0.23423733 0.19691433
0.23846164 0.1854237 -0.0015790308 -0.0080271335 0.022831952 -0.012730685 0.0073240628 0.026234543
-0.035532173 -0.043635238 -0.08097131 0.037541077 0.11346909 0.049790576 0.047343295 0.07774316
0.004230595 0.065363705 0.045259457 0.01961855 0.063795745 0.09910594 0.11296095 0.12208642

c3.bias f4 [256]
00000000: 33c6 6bbd 23de b13d abe7 27bb 6965 1dbd
00000010: dcbd 06bd d6ce 9d3d acad 3cbc 712a 163d
00000020: 5ecd 41bd 8bc1 50bd b7a0 6dbd 4904 093d
00000030: 0ac0 a8bc f7b5 86bd 8931 1f3d 3683 5ebd
00000040: bff9 723c 7adc 7ebb 366a 8b3d 1c2e 49bd
00000050: 5fd2 a33d a9c3 eebc 3655 96bb cf4a 3a3d
00000060: fe4a 383d d2fd 88bb d617 d33d 72b6 413d
00000070: 49da 85bc 4d3e a23c 312f a43b 0470 3b3d
00000080: 29f0 60bd 58c4 d7bc 82b9 81bc e68a 48bd
00000090: b7a2 8e3c 5bcc 0ebd f983 6abc 09eb d83d
000000a0: 5571 cbbb e72d f33d 7db6 e33b a0c4 4abd
000000b0: 8a74 293d 3e79 c13d c2de 0dbc 4fc4 cebc
000000c0: 6330 d2bc b817 93bb ffab 98bd 3e48 423d
000000d0: e294 d2bc 96c3 05bd 5de3 eb3c edc2 25bd
000000e0: d4b2 97bc 7834 95bd 3695 e7bc 1d90 cc3d
000000f0: 9de1 52bd 4e6b 673b 3aa9 7dbd 0166 55bd
00000100: 4479 7c3d f1a7 7b3d a3e5 97bd 2549 593d
00000110: 407b 883d e82f 4ebc 2f43 ac3c 3801 d43d
00000120: d165 d6bc b559 60bc 1772 32bd 0b05 903d
00000130: ce3a fdbc 856b 5e3d f1d2 e93c ad2b d1bc
00000140: 16d0 adbc ae35 47bc dfd3 cb3c 18c9 283d
00000150: 95f8 9fbd c9db 9f3d 3166 1cbd 8899 853c
00000160: 4750 58bd a0a1 fc3b 6f03 ce3c e7f7 15bd
00000170: 39a5 a83c 18eb 393d 0a4d ff3d 6b22 30bd
00000180: a6b5 11bd 2026 3bbc 9a7b 2bbd c975 fdbc
00000190: bbf3 84bc 2b3e 5c3d b70a e13d c8ef 1d3d
000001a0: 9dc6 68bd ddb5 313c 311b 7b3d e4d7 0e3c
000001b0: c4f6 a03c 4332 18bb 814a 71bd 4b85 423c
000001c0: 2948 353d b6ca ef3c da10 e43d 91bd 21ba
000001d0: dedc 82bd 330f 213b ede6 08bd b82d 10bd
000001e0: 6fef b0bc 7dba aa3b 2e9c f6bb fd0d 0dbd
000001f0: d0f7 3e3d 3dc1 1e3b 01f0 2d3d 26a7 24bd
00000200: 05c1 4739 7d14 62bd 5df8 313d 6837 6e3d
00000210: 1eb8 d43d fb26 e0bc 6970 8d3d ce70 7fbd
00000220: ad1e 12bd fa03 013c db31 c93b c488 af3b
00000230: 5e45 8bbd c451 543c 4d97 48bd ebf1 453d
00000240: 251b 27bc 7336 a2bd 5628 ebba 3043 e13b
00000250: 969e 8a3c 4bfa 25bb dc21 26bb 9225 d03c
00000260: 5c28 973c fd7d e53c 0a09 16bd cd56 38bd
00000270: 912c 69bd 8fb5 3a3d e693 edbb 9711 a7bc
00000280: b92a 973c 284b 51bd b54a 63bd 70e6 9dbc
00000290: 81c5 9a3b 840e 5abd 2956 333c ea8d 66bc
000002a0: cceb 7bbd fc2e 87bd 8e20 f2bc 6d4f 953d
000002b0: fcec 7bbd dff4 0abd 7670 3fbd f236 4ebc
000002c0: b0dd 4e3d e47f 7d3d 266b 81bd 01e3 e63d
000002d0: bdb8 f0bb 6ce9 83bc 1121 053e 7e07 553d
000002e0: 0493 8abd 750b 0f3e d3d1 24bd a3a0 21bc
000002f0: ef86 e93d 06ea 64bc 8424 80bd 4349 ffbc
00000300: 75fd 93bd abff 9fbc 718e 063c c080 d63d
00000310: 38e2 0dbd 1035 903d b56e 3c3d a5a6 62bd
00000320: febb 01bc cbd6 133e 46c9 39bd d4d1 a4bc
00000330: 2a5e 40ba 5f29 513d 90fd 013e 0606 e1bb
00000340: 3c00 18bd 300f 52bd 7995 edbb cecb 28bd
00000350: 00e4 0bba b475 9a3d 07a7 2f3d 3c19 5f3d
00000360: 9c2c 26bd aad2 643d 549b 93bd ffd3 013d
00000370: cb19 c63b 013b 713b c2cc 3ebd d3c6 90bd
00000380: 1e44 123c 13f5 5bbb 8d17 8dbd 1184 bcbc
00000390: ea36 42bd 5918 2cbd 9684 d03b bb46 5b3d
000003a0: 8569 88bc b8fd 59bc 2183 31bd 0bd1 4a3d
000003b0: 31cd 28bd 566e 3f3d 3984 b33b 12dc 54bd
000003c0: 67d2 133b e9e3 28bd 1018 353d 3252 353a
000003d0: aee2 0f3d ac66 cb39 74fc 98bc 67e1 eb3a
000003e0: 2086 5ebc 798e 28ba 064a 67bc 7e9b 82bd
000003f0: 8bd7 353a 4332 94ba 471c a2ba 07a8 61bd
-0.057562064 0.08684947 -0.0025620263 -0.03842679 -0.032895908 0.077054664 -0.011516016 0.03666157
-0.047314994 -0.050965827 -0.058014598 0.033451352 -0.020599384 -0.06577676 0.0388656 -0.05432435
0.014830052 -0.0038888738 0.068073675 -0.04911624 0.079991095 -0.029146032 -0.0045877947 0.0454815
0.044993393 -0.0041806484 0.10307281 0.047293134 -0.016339438 0.019805098 0.0050105085 0.045761123
-0.054916535 -0.026338741 -0.015835527 -0.04896059 0.017411573 -0.034862857 -0.014313691 0.105917044
-0.0062085786 0.118739896 0.0069492445 -0.049503922 0.041370906 0.09446953 -0.008659067 -0.025240092
-0.025657838 -0.0044889115 -0.07454681 0.047432177 -0.025705758 -0.03265723 0.028794939 -0.0404691
-0.01851789 -0.07285398 -0.028269392 0.09988425 -0.051484693 0.0035311761 -0.061928965 -0.05209923
0.061639085 0.06143946 -0.074168466 0.05304827 0.06664133 -0.012584664 0.02102813 0.10351795
-0.026171597 -0.013693263 -0.043565836 0.07032212 -0.03091183 0.054301757 0.028542968 -0.025533522
-0.021217387 -0.012158794 0.024881301 0.041207403 -0.07811085 0.078055926 -0.038183395 0.016308561
-0.052810933 0.007709697 0.025148122 -0.03661337 0.020586597 0.04539022 0.12465866 -0.043001574
-0.035573624 -0.011422664 -0.041865923 -0.030939953 -0.016229501 0.053770225 0.10988372 0.03855875
-0.056830037 0.010846582 0.06130523 0.0087184645 0.019648917 -0.0023223318 -0.058908943 0.0118726
0.04425827 0.029271465 0.11136027 -0.000616991 -0.06389783 0.002457571 -0.033423353 -0.03519985
-0.021598546 0.0052102194 -0.0075259423 -0.03443717 0.04662305 0.0024224066 0.042465214 -0.040198468
0.00019050024 -0.05519532 0.04344975 0.05815831 0.1038668 -0.027362337 0.06906206 -0.06236344
-0.035673786 0.007874483 0.0061399764 0.00535688 -0.0680034 0.012958948 -0.048972417 0.048326414
-0.010199343 -0.079205416 -0.0017941098 0.0068744645 0.016921323 -0.0025326188 -0.0025349772 0.02540854
0.018451862 0.028014177 -0.036629714 -0.045004655 -0.056927267 0.045583304 -0.007250297 -0.02039413
0.018452989 -0.051097065 -0.055491168 -0.01927492 0.0047232513 -0.0532365 0.010945835 -0.014071921
-0.06150417 -0.066007584 -0.029556539 0.0729054 -0.061505303 -0.033924934 -0.04673811 -0.012586342
0.050504386 0.061889544 -0.06319265 0.11273766 -0.0073462413 -0.016102515 0.13000895 0.0520091
-0.06766322 0.13969214 -0.040239166 -0.009864959 0.1140269 -0.013971811 -0.06256965 -0.031162864
-0.072260775 -0.019531092 0.008212672 0.10473776 -0.034639567 0.07041371 0.046004016 -0.055334706
-0.007918356 0.14437406 -0.045357965 -0.020119585 -0.000733825 0.051064845 0.12694383 -0.006867173
-0.0371096 -0.051284015 -0.0072504845 -0.04120999 -0.0005336404 0.07541981 0.0428839 0.054467425
-0.040569887 0.055864967 -0.07207361 0.031696316 0.006045555 0.003680885 -0.04658199 -0.07069173
0.008927373 -0.0033562824 -0.068892576 -0.023012193 -0.04741565 -0.042015407 0.0063634617 0.05353425
-0.016651878 -0.01330512 -0.043337945 0.049515765 -0.04121131 0.046736084 0.0054784087 -0.051967688
0.002255583 -0.041232977 0.0442124 0.000691685 0.035128288 0.00038795674 -0.018675067 0.0017996252
-0.013581783 -0.00064299215 -0.01411677 -0.06377314 0.00069367205 -0.0011306483 -0.0012368046 -0.055091884

fc1.weight f4 [64, 256]
00000000: 8ef5 3ebd 70e5 2ebd 30db 77bd 3073 ccbb
00000010: 883e 58bd 866e 00bd 086c 51bc 8ed3 1cbd
00000020: 406d e83a 3cda 443d a8ed c63c 00b7 483a
00000030: 9c9c 403d 34bb 60bd 60d7 f1bb ae65 13bd
00000040: eeca 77bd d6d7 043d 7eb1 64bd 32f0 3d3d
00000050: a0c4 683b d09b 43bd 46d7 053d 781c 64bc
00000060: 2a48 4bbd 9aa9 54bd ce84 55bd 4099 3b3c
00000070: 947b 1f3d 561c 2ebd 080e 1abd 3441 c1bc
00000080: 085e 96bc a0ba 3b3c 68bd 5abd 801f 55bc
00000090: 88f7 eb3c 36ce 47bd 905b ab3b ac9b fa3c
000000a0: 4035 853b 1c8b 4c3d 3eea 1b3d 64ee 85bc
000000b0: f627 5abd dca0 bcbc ca0d 2bbd 68bf 76bd
000000c0: 14b3 0ebd 9669 723d 8c06 e13c d8e6 5fbd
000000d0: 0879 c83c 2024 77bb d8d4 9ebc 7485 833c
000000e0: 3060 53bd feac 043d f8d8 013d 60e0 a9bb
000000f0: 0c18 edbc 00cb 76bd e8ac 183d 2ec3 5f3d
00000100: 2e77 34bd 0040 6d38 306f d13b 40eb 13bc
00000110: e076 8d3b 70ac e43c 10a7 eabb 360c 3c3d
00000120: 946e d13c 266e 43bd e0d0 35bd 009b 0fbb
00000130: 90f4 42bc 346f b13c ecf2 bf3c 6097 093b
00000140: 6ab8 3a3d b027 2fbd debf 003d 6ab7 043d
00000150: 9058 fa3b c089 df3b 50a1 053d 3676 513d
00000160: 9a29 0f3d 0889 f5bc 508f 51bd 304f c43b
00000170: 2aea 443d e448 863c 2607 5e3d 30fb 2dbc
00000180: e428 6ebd d8a7 41bc 9cd1 583d e8c3 d3bc
00000190: 30d3 cbbb 36db 20bd 60a7 1dbc fc8a 163d
000001a0: f6b0 63bd 2c9e cfbc 88d1 babc da75 643d
000001b0: 58fa 643d 60dd 3bbc 0839 7fbd 5cd7 5bbd
000001c0: d044 57bd dc23 50bd 7ce4 e33c fc29 373d
000001d0: 1c6a 28bd 266e 573d e8ea 413c b0f7 8bbc
000001e0: 165e 4f3d fe91 673d 9282 1cbd d6b9 1bbd
000001f0: d082 6d3d eec4 1dbd d44a 20bd bc27 6f3d
00000200: 98c3 3abd 5a95 39bd eaf2 073d 1abd 643d
00000210: 4812 373d ace5 4bbd 805a 8bbc 6c89 8abc
00000220: c8cf 70bc d074 89bb a618 723d 001c 623c
00000230: d801 e5bc 344a 0d3d 78e3 233c 6839 7dbd
00000240: a845 23bc 780b 6cbc a069 81bc b6eb 033d
00000250: 2ea6 0a3d 2cb0 3fbd f0ec 56bc f6ee 373d
00000260: f0bc 75bc d822 9ebc dcb1 6b3d 4e26 2cbd
00000270: f24a 693d a21d 47bd 7280 783d 6ac2 54bd
00000280: de67 2bbd dc9c 2abd d884 4cbd 0ef6 663d
00000290: e831 72bc c09d 09bb 802e b53b b06a 38bc
000002a0: 9698 48bd 3875 5cbd 4049 cf3c 8020 513b
000002b0: 98e8 6b3c ccf8 c63c bc0f 033d 6082 eebb
000002c0: fa33 07bd 4867 e7bc 1418 5e3d b4c3 2b3d
000002d0: 887e 69bc 24d2 39bd 8400 1ebd 80be e7bb
000002e0: 8ace 713d e063 783c b21b 06bd 8e75 19bd
000002f0: 18ae d9bc 5e7d 0ebd 9099 cbbc 5057 c9bb
00000300: 2c97 81bc 501a 73bd 7097 a73b 5a12 3ebd
00000310: 10ac 5f3c fcd8 b0bc bc04 c3bc 048f b1bc
00000320: 7022 ccbb 5cc7 303d 4e38 1bbd d099 21bd
00000330: 0c09 783d b84a 483c b87f 44bd ac22 e03c
00000340: 4ecb 5a3d 80c7 0f3d 109f 6bbd 6aa3 18bd
00000350: 6448 ffbc e435 c0bc 38a6 fbbc f0a4 f5bc
00000360: 2097 10bc ea5e 06bd 5814 57bd cc32 923c
00000370: 5c61 3dbd 18b8 3a3c 16d0 54bd 60d3 683d
00000380: 4ce2 d5bc 406e d3bc 6cae 143d 4a5a 363d
00000390: 02a0 043d 04ef 1d3d 48ad 653d 9848 79bd
000003a0: e85d 49bd 268a 7b3d 609a 443d 1659 39bd
000003b0: 707c 45bd 3097 f0bb 2a51 11bd 401f 7f3d
000003c0: f87b 1a3d 60e0 573c b27e 6fbd 86ea 793d
000003d0: 782b aa3c 5043 2fbd 3e04 4a3d f877 33bc
000003e0: 98d1 37bd 9090 1ebc 80ec 66bc 2cca bcbc
000003f0: 7074 a23c 04ae 43bd e622 0d3d 7e99 3dbd
-0.046620898 -0.042699277 -0.060511768 -0.0062393174 -0.05279401 -0.031355403 -0.012782104 -0.03828769
0.0017732754 0.048059687 0.024283245 0.00076566637 0.047024354 -0.05486603 -0.007380411 -0.03598564
-0.060496263 0.0324324 -0.055833332 0.046371646 0.0035517588 -0.047756016 0.032676004 -0.013922803
-0.049629368 -0.051919557 -0.052128606 0.011450112 0.038936213 -0.042507492 -0.037611037 -0.023590662
-0.018355384 0.011458069 -0.053403288 -0.0130079985 0.028804556 -0.048780642 0.005229421 0.030591808
0.004065186 0.049937353 0.038065188 -0.016349025 -0.053260766 -0.023025922 -0.041761197 -0.060241133
-0.03483875 0.059182726 0.027468942 -0.05466351 0.024471775 -0.003771074 -0.019388601 0.016054846
-0.051605403 0.03239154 0.03170106 -0.0051842183 -0.02894213 -0.06025219 0.03727427 0.054629497
-0.04405897 5.6564808e-05 0.0063914284 -0.009028256 0.0043171495 0.027914256 -0.0071610287 0.045910083
0.025565423 -0.047712468 -0.04438865 -0.0021912456 -0.011899129 0.021659471 0.023431264 0.0020994768
0.045586027 -0.04276246 0.03143298 0.03240148 0.007639952 0.006821841 0.032624543 0.051138125
0.034951784 -0.029972568 -0.051162064 0.005990885 0.04807488 0.016392179 0.054206036 -0.01061897
-0.058144465 -0.011819802 0.052934274 -0.025850251 -0.006220244 -0.039271556 -0.009622425 0.03675364
-0.055588685 -0.025343977 -0.02280499 0.055776455 0.05590281 -0.011466354 -0.06231025 -0.05367218
-0.05255586 -0.05081545 0.02781891 0.044717774 -0.04111682 0.05259528 0.011835791 -0.01708588
0.050626837 0.056535713 -0.03821046 -0.038019024 0.05798608 -0.038517885 -0.03913386 0.058387503
-0.04559669 -0.04530845 0.033190645 0.055844404 0.04469517 -0.04977958 -0.017010927 -0.016911231
-0.014697976 -0.0041948333 0.059105538 0.013800621 -0.02795498 0.034494594 0.010002963 -0.061822325
-0.009965338 -0.014407031 -0.015797436 0.032207213 0.033849888 -0.04679887 -0.013118014 0.044905625
-0.0149986595 -0.019303724 0.057542667 -0.042028718 0.05695624 -0.048612244 0.06066937 -0.05194322
-0.041847102 -0.0416535 -0.049931377 0.056387 -0.014782406 -0.0020998567 0.005529225 -0.011255905
-0.048973642 -0.053822726 0.025303483 0.003191024 0.014398716 0.024288557 0.031997427 -0.0072787255
-0.033008553 -0.02824749 0.05422218 0.041934684 -0.014251359 -0.04536642 -0.03857471 -0.00707227
0.05903486 0.015160531 -0.032741256 -0.037465625 -0.026572272 -0.03478753 -0.024853498 -0.0061444417
-0.015819155 -0.059351265 0.0051144883 -0.04640422 0.013651863 -0.021587841 -0.023805968 -0.02167464
-0.006229691 0.043158874 -0.037895493 -0.039453328 0.060555503 0.012224846 -0.047973365 0.027360283
0.053416543 0.035102367 -0.05752474 -0.03726522 -0.031162448 -0.023463197 -0.030718908 -0.029985875
-0.0088250935 -0.03280536 -0.052509636 0.017846487 -0.046235427 0.01139643 -0.05195626 0.056842208
-0.026108883 -0.025809407 0.036299154 0.0445197 0.032379158 0.03855802 0.056073457 -0.060860246
-0.04916182 0.061411045 0.047998786 -0.045250975 -0.048214376 -0.0073422417 -0.035477795 0.06228566
0.037715882 0.013176054 -0.058470435 0.061014675 0.02077268 -0.042788804 0.049320452 -0.010953896
-0.04487762 -0.009678021 -0.014094472 -0.023045622 0.019830912 -0.047773376 0.03445711 -0.04628896

fc1.bias f4 [64]
00000000: faa7 74bd bd40 a53c 5f20 163d 33cb cd3c
00000010: e1a4 e5bc 009a 88bc 778e 4e3d f806 44bd
00000020: 80a9 51bc 99b8 acbc 0978 813b 35a4 7cbd
00000030: 5a6c 4c3b db4b c93c 4484 64bd 0596 7c3d
00000040: 1469 2dbd e4eb 26bd c9d7 563c 7ba4 12be
00000050: eb75 2b3b f4d2 523d 7d69 06bc a4a2 8e3d
00000060: 4520 8b3d 060c 35bc af0b 3cbd b806 97bd
00000070: 84c2 c0bc 0925 0fbd 98e9 2abd a3b9 1a3e
00000080: 3a55 bc3c 7026 21bd 5ed6 9239 3667 03bd
00000090: 6b9a 813d 6a59 8bbd baed 013e 7e53 f1b9
000000a0: 3411 c4ba d0b3 ac3c 68ae c53b a5cc 3cbd
000000b0: 65a1 4d3d 857c 0c3d 78e6 0c3d 0c7a 16bd
000000c0: cff9 72bb a849 353d 223d b5bc 2e32 17bd
000000d0: b890 19bd cae3 37bd 6c72 ebbc eaa8 25bd
000000e0: 628f 813d 8314 e83d 39d0 053d 609b 3a3d
000000f0: 3b98 9c3d fa7e 4abc 70a6 efbb 833f 54bd
-0.059730507 0.020172471 0.036651965 0.025121307 -0.028032722 -0.016674995 0.050428834 -0.04785821
-0.01279676 -0.021084117 0.003951077 -0.061680038 0.0031192512 0.024572304 -0.0557902 0.061666507
-0.04233654 -0.040752307 0.013112971 -0.14320557 0.0026162814 0.05147071 -0.008203861 0.06964615
0.06793264 -0.01105023 -0.04590958 -0.073743284 -0.023530252 -0.03494743 -0.04172668 0.15109877
0.022989858 -0.039343297 0.00028007006 -0.03208085 0.06328281 -0.06804164 0.12688342 -0.0004602931
-0.001495874 0.021081835 0.0060327537 -0.0460936 0.050202746 0.03429844 0.03439948 -0.036737487
-0.0037075167 0.044259697 -0.022123877 -0.03691309 -0.03749153 -0.04489497 -0.028741084 -0.040444292
0.06326176 0.11332037 0.03266928 0.045558333 0.07646223 -0.012359375 -0.007313542 -0.051818382

fc2.weight f4 [5, 64]
00000000: da1d d2bd a117 163e 8586 0fbd fffb 3abd
00000010: b072 073e 6069 55bd 722e 103c 8417 053d
00000020: 6a7d d93d 6f59 f5bc c0af f43d 9800 7a3e
00000030: adb6 8d3d aad2 0d3c f299 9b3d c162 4e3e
00000040: 4ef9 8ebd a864 b83c 4814 17bc 294e c63d
00000050: 4663 d5bd 2f58 07bd 9a79 e13d 1f76 303d
00000060: 8725 c5bd 3ea8 60bd 0844 43bd a86e 2a3d
00000070: 0955 e1bd e841 2d3e ff30 4dbd c10c 5ebe
00000080: 4214 cfbc 5301 2d3d 6422 653d 0042 9cbc
00000090: d2a8 52bb cd6c bf3d 0207 eb3c 5422 e5bd
000000a0: c82b f83d 3f54 863d bfe4 9b3c d296 aa3d
000000b0: 6a86 f93d bfe4 18bd 19f4 133d 19b2 b7bd
000000c0: e85c abbd 6b8a efbd 602b 0abd eda1 fbbd
000000d0: a81c ed3d 7083 a2bd 2066 463e 2c84 803d
000000e0: ed36 c7bc f1dc 9d3e c723 323e b4e7 7d3d
000000f0: 3118 6f3e 20bf 893c 207d a63b 2560 a73d
00000100: 900c ee3d 6423 253e 8767 fabd b654 a03d
00000110: 275a c73d ace7 283d 3fba 6fbd 1226 f93d
00000120: bd7d e1bd eb34 9e3d aa4d 1b3d 6da0 7c3e
00000130: ed6f 6abb 4c62 83be 00dd 143b 46e7 343b
00000140: 746c 373d 5c15 323d e34a c2bc 0442 413e
00000150: 0e7c 23bd 12ea 083e f045 fdbc 5b91 f43c
00000160: 0bcb 103e 1ead 36bd 9cc0 80bc 85bc 6d3d
00000170: 5623 e7bd fd94 4a3d ed7e 74bc e4fd adbc
00000180: 6db3 193d 3f84 033e 23bf 153e 48b2 dcbc
00000190: acbb 113e 06f9 df3d 25e7 753c b5b1 42bd
000001a0: 7516 943d 9d06 583e cc12 4e3d 5e0f f0bd
000001b0: f296 da3d 3143 9f3d b22e 503e 09fd b13c
000001c0: 676f dcbd dc51 7bbe 205b 7f3d bbf9 153c
000001d0: 3d5f c4bc e0b4 d63d c510 573e 54c2 4f3d
000001e0: 2127 093e d9fe 613e 6c06 e03d d11d e7bd
000001f0: 3ca4 053e de82 e23d 50f6 d83c b044 4f3d
00000200: b266 ffbd f425 323e d9dc adbd 03b4 8bbd
00000210: de15 0d3d cc4d 603d 577f 3fbd 385f c6bc
00000220: ff10 c23d dca8 0e3e 1069 19bd dc68 493d
00000230: aebe c03b e9de 91bd 00a4 1a39 412f 203e
00000240: 3aed c33d 6483 553d 763a 3ebd 4590 323e
00000250: 42cd 2dbd 919c 143e b884 663d c99b 1f3e
00000260: 7be7 1a3d 7dde 033e a8c0 b3bd 1c25 d8bd
00000270: 8155 983b cc5d abbc 7fcd cf3c d27a 023d
00000280: 0a9e aa3c 628b 753c 4260 213d ff84 913d
00000290: a140 a43c 6fa6 923e 1ca7 583e e186 00bc
000002a0: 4200 7fbd 0bfe 693d e1ff b53c 9534 743d
000002b0: fa41 de3d ed5b 4dbd e1d0 3abe 11e3 90bd
000002c0: e48c b53c 1e8a 33be 4408 413d 5e70 1c3c
000002d0: 7e0b c83d c0e5 133c 1d6c fa3d 0023 7b3c
000002e0: 70aa 873d b09e 4b3e 8600 e63d 7e84 823d
000002f0: 2b7e 8b3e 52bd c6bc 784c 4d3d ebca c9bb
00000300: 5ceb 3b3d 37f1 34bd d3a0 c5bd 3082 e93d
00000310: a68e 093e 5cbb cfbd ceec 3a3d 687c 96bd
00000320: cede 0bbc 2221 d1bd cc8e 2e3d bb25 51bd
00000330: fd73 11bc af89 e93b 8423 163d 2df5 343d
00000340: f436 923d 26fe 8b3d 1c0d 9dbd d818 8a3e
00000350: a8e4 14bd 1336 043c 2a14 2e3e 6d3f 343e
00000360: cadb 6bbe af41 be3d e059 ab3c 21a9 a83d
00000370: 4455 8cbd 6e58 c2bd e25d ae3d 17f5 98be
00000380: f758 50bd 0056 373e f821 a6bd bad0 91bc
00000390: a40f 413e d595 323e 1849 8b3e 4272 3abc
000003a0: 1010 013e a81e 573d 7ab2 e83d 05d5 5a3d
000003b0: 31fa 12be 4ebd e8bd 012a 50be a47e 3ebd
000003c0: c6fe 943d 95e0 1bbe 18eb 53bc f819 583d
000003d0: 55c9 08bd 7c5b a63d 5265 863e 005c e23b
000003e0: 7b30 2b3e 8e0d d33e 62e3 243e 93b1 933d
000003f0: 9884 7a3e debc 973d 8093 aeba 80b8 463d
-0.102596 0.14657451 -0.035040397 -0.04565048 0.13227344 -0.052102447 0.008800136 0.03249313
0.10619624 -0.029949872 0.11947584 0.24414289 0.06919608 0.008656183 0.07597722 0.20154859
-0.06981145 0.022508934 -0.009221144 0.096828766 -0.104193255 -0.033043083 0.11009522 0.0430814
-0.096262984 -0.05484795 -0.0476723 0.041609436 -0.11002547 0.16919672 -0.050095554 -0.21684553
-0.025278214 0.04223759 0.055941 -0.01907444 -0.0032144082 0.09346924 0.028689865 -0.11188188
0.121177256 0.065590374 0.019029973 0.08329548 0.121838406 -0.037327524 0.03612146 -0.08969516
-0.0836733 -0.11696323 -0.033732772 -0.12286744 0.11577731 -0.07935226 0.19374895 0.0627521
-0.024318183 0.30832627 0.1739646 0.061988547 0.23349072 0.016814768 0.005080834 0.08172635
0.1162349 0.16126782 -0.122267775 0.07828657 0.09733992 0.041236565 -0.058527227 0.121654645
-0.11010311 0.07724937 0.037915863 0.24670573 -0.003577228 -0.25660932 0.0022714734 0.002760367
0.044781163 0.0434774 -0.02371735 0.18872839 -0.03991323 0.1337054 -0.030917138 0.029854467
0.14139955 -0.04459869 -0.015716843 0.058041114 -0.11286037 0.049458493 -0.01492284 -0.021239229
0.03752463 0.12843417 0.14623694 -0.02694048 0.14231747 0.10936169 0.015008722 -0.047532756
0.07230846 0.21096273 0.050310895 -0.11721681 0.10673322 0.077764876 0.20330313 0.021727102
-0.10763436 -0.24542946 0.062342763 0.009153779 -0.023971194 0.10483718 0.21002491 0.050722435
0.13393833 0.22069873 0.10938725 -0.11284984 0.13050932 0.11060117 0.026484638 0.050602615
-0.124707595 0.1739729 -0.08489389 -0.06821444 0.034444682 0.054761693 -0.0467523 -0.024215326
0.09475898 0.13931602 -0.03745371 0.049172267 0.005882106 -0.07122595 0.00014747679 0.15643026
0.09566732 0.052127257 -0.04644247 0.17437847 -0.042432077 0.1451285 0.056278914 0.15586771
0.037818413 0.12877841 -0.08776981 -0.10553953 0.0046488647 -0.02091875 0.025366543 0.03185541
0.020827312 0.014986845 0.03939844 0.07105445 0.020050349 0.28642604 0.21157497 -0.007844658
-0.062256105 0.05712704 0.02221674 0.05962046 0.10852428 -0.050136495 -0.18243743 -0.070745595
0.022161908 -0.17533156 0.047127023 0.009548275 0.09767817 0.009026945 0.12227652 0.015328169
0.06624305 0.19884753 0.112305686 0.06372927 0.27244696 -0.024260197 0.050121754 -0.006158223
0.045878753 -0.044175353 -0.096498154 0.114017844 0.13433322 -0.10143158 0.04563599 -0.07347947
-0.0085370075 -0.10211398 0.04261665 -0.051061373 -0.008877751 0.007127009 0.036654964 0.04417913
0.07139388 0.06835584 -0.07668516 0.2697208 -0.036350876 0.008069533 0.1699988 0.1760232
-0.23033062 0.09289872 0.02091688 0.08235384 -0.068522006 -0.09489523 0.085140005 -0.2987449
-0.050866093 0.179039 -0.08111948 -0.017799724 0.18853623 0.17439969 0.27204204 -0.01137978
0.12603784 0.05251947 0.11362167 0.053425808 -0.14353253 -0.11364232 -0.20328523 -0.046507493
0.07275157 -0.1522239 -0.012934469 0.05275914 -0.03339513 0.08122918 0.26249176 0.00690794
0.16717713 0.4122128 0.16102365 0.07211604 0.24464643 0.074090704 -0.0013319105 0.048515797

fc2.bias f4 [5]
00000000: 8df2 033e 462c e1bd d917 cbbd c02e f93d
00000010: 928b ccbc
0.12885495 -0.109947726 -0.09916658 0.1216712 -0.024968896
