IQL_CNN_tiny/agent3_111.pth (torch, 745122 bytes, 10 tensors)

c1.weight f4 [32, 8, 3, 3]
0	0x3da0a2b7	0.078435354
1	0x3d28d8b0	0.041222274
2	0xbd950282	-0.07275869
3	0xbdcfa294	-0.10138431
4	0xbd0fca97	-0.035105314
5	0xbdc0eb8d	-0.09419928
6	0x3d965bad	0.073417045
7	0xbd657ebe	-0.056029074
8	0xbcadedb6	-0.021231513
9	0x3da888e8	0.08229238
10	0x3e36f348	0.17866242
11	0x3e412d40	0.18864918
12	0xbdd02d82	-0.1016493
13	0x3d33ac92	0.043865748
14	0x3e2cedbc	0.16887563
15	0x3d228ab3	0.039683055
16	0x3e1ae889	0.15127768
17	0x3d339830	0.04384631
18	0xbd34c380	-0.044131756
19	0xbd37f0da	-0.04490743
20	0xbbb31930	-0.005465649
21	0x3ccecdb4	0.025244571
22	0xbdb5c966	-0.08876304
23	0x3cb1995c	0.021679573
24	0x3bf5b0b0	0.0074978694
25	0xbdec1887	-0.11528116
26	0x3dd748f1	0.10511959
27	0x3d44c662	0.048040755
28	0x3dd5b667	0.10435181
29	0x3d90e257	0.07074421
30	0xbb1f6a40	-0.0024324805
31	0x3d2270e6	0.03965845
32	0x3dd74e9b	0.1051304
33	0x3d50676a	0.050879873
34	0x3d919c0d	0.071098424
35	0xbcac6554	-0.02104441
36	0xbd96ecdc	-0.07369396
37	0xbe4ae94e	-0.19815561
38	0xbdd93722	-0.10606219
39	0x3cbf3b61	0.023343744
40	0xbe17f4e3	-0.1483951
41	0xbebda431	-0.3703933
42	0xbe478b3a	-0.19486704
43	0xbdc7dd21	-0.09758974
44	0xbdf44495	-0.119271435
45	0xbcff15fb	-0.03113841
46	0xbd98c625	-0.07459668
47	0xbd0dcdea	-0.034620203
48	0x3c3a19a8	0.011358656
49	0x3d4d8f4d	0.05018549
50	0x3dde4e2f	0.10854756
51	0xbdbea0c8	-0.0930801
52	0xbdb66f9b	-0.08908006
53	0xbb42edb6	-0.0029743738
54	0xbca1239b	-0.019670298
55	0x3d907762	0.070540205
56	0x3cc5f646	0.024165284
57	0xbc848444	-0.01617635
58	0xbcf0b455	-0.029382864
59	0xbce35712	-0.02775148
60	0x3d3722b2	0.044710822
61	0xbd2894e9	-0.041157637
62	0x3d3736c6	0.04472997
63	0x3e05f236	0.13080677
64	0x3cac170c	0.021007083
65	0x3c404a5e	0.0117364805
66	0x3e3822ea	0.17982069
67	0x3e10eb56	0.14152274
68	0x3d537610	0.051626265
69	0x3d2ca874	0.042152837
70	0x3e3d1343	0.18464379
71	0xbda20e52	-0.07912888
72	0x3d5e1d5b	0.054227214
73	0xbd0c5fea	-0.03427116
74	0x3d9d139f	0.07669758
75	0xbd3d88bc	-0.04627298
76	0x3d712c7f	0.058880325
77	0xbde6becf	-0.112668626
78	0x3d04f6cb	0.032461923
79	0xbc854149	-0.016266482
80	0x3d70fe4c	0.058836266
81	0xbdd4cd76	-0.10390751
82	0xbdf51e5b	-0.119686805
83	0xbd9318b9	-0.0718245
84	0xbd828809	-0.06373603
85	0xbd5d3faa	-0.054015793
86	0xbd78a154	-0.06070073
87	0xbec20872	-0.37897068
88	0xbe02137e	-0.12702748
89	0x3d9b0e72	0.075711146
90	0xbcf36c58	-0.029714748
91	0xbd6247fc	-0.05524443
92	0x3d99e34b	0.07514056
93	0xbd224ff8	-0.039627045
94	0xbd4fd168	-0.050736815
95	0x3c592528	0.013253488
96	0x3d80464b	0.06263407
97	0x3de42db5	0.111415304
98	0x3dcdf9d7	0.10057419
99	0xbd9e8a0b	-0.07741173
100	0xbd5cb8e4	-0.053887263
101	0x3de3598f	0.11101066
102	0x3d8866ad	0.06660209
103	0xbcb19d44	-0.021681435
104	0xbde47c40	-0.11156511
105	0xbd42c1a4	-0.04754795
106	0x3b904870	0.0044031665
107	0xbbc08ae0	-0.00587593
108	0xbd10a049	-0.03530911
109	0xbd34e240	-0.04416108
110	0xbdd4a979	-0.10383887
111	0xbdc3edce	-0.09566842
112	0xbe174459	-0.14772166
113	0xbdfc74c7	-0.12326961
114	0xbebeb0af	-0.37244174
115	0xbdea7301	-0.114477165
116	0xbe0db858	-0.13839853
117	0x3bea40ac	0.007148823
118	0x3e080d78	0.13286388
119	0x3dfcd742	0.12345745
120	0xbdb8e3db	-0.09027835
121	0x3df52b48	0.11971146
122	0x3dbda4c9	0.09259946
123	0x3d32f7b2	0.043693252
124	0x3da590ed	0.08084283
125	0x3e08db00	0.13364792
126	0xbd887013	-0.066620015
127	0xbdbebed3	-0.093137406
128	0xbd525444	-0.051349893
129	0x3d2b88ba	0.04187844
130	0x3da1c755	0.07899348
131	0xbd85447f	-0.06507205
132	0x3d87c0f2	0.06628598
133	0x3da933b7	0.08261817
134	0xbe24dd48	-0.16100037
135	0x3e1e83c5	0.15479954
136	0x3c0ec59b	0.008714105
137	0xbdd02d67	-0.1016491
138	0x3e0f82f6	0.14014801
139	0x3d6a2a1f	0.057169076
140	0xbd4352e8	-0.047686487
141	0x3d9229e1	0.07136894
142	0xbdf8bbea	-0.12145217
143	0xbe13437e	-0.14381215
144	0x3d201bad	0.039088894
145	0x3d26312a	0.04057423
146	0x3d9cbdb3	0.0765337
147	0xbcb78ffa	-0.02240752
148	0xbda67171	-0.08127106
149	0x3dcd8ec4	0.10036996
150	0xbded7590	-0.11594689
151	0x3b561803	0.003266812
152	0x3d239df4	0.039945558
153	0xbe266e14	-0.16252929
154	0x3ce66d3c	0.028128259
155	0xbccff0b9	-0.02538334
156	0xbdee33bf	-0.116309635
157	0x3e28cd38	0.16484535
158	0x3ddad0ab	0.106843315
159	0xbe196d11	-0.14983012
160	0x3cf1497b	0.029453984
161	0xbd7a6168	-0.06112805
162	0xbd6de1a4	-0.058076516
163	0xbdec933a	-0.11551519
164	0x3dabb2fd	0.08383749
165	0x3c363b68	0.011122562
166	0xbd9a92e8	-0.075475514
167	0xbcab6ca4	-0.020925827
168	0x3c8b4e3c	0.017005078
169	0x3d5341ba	0.051576354
170	0x3c9031fc	0.01760196
171	0x3d3efbaa	0.046626724
172	0x3c6a6f38	0.014308743
173	0xbc6d9d70	-0.014502868
174	0xbdc9ffda	-0.09863253
175	0x3cb30e04	0.02185727
176	0xbb1eee00	-0.0024250746
177	0xbda4e56a	-0.0805157
178	0xbde94c4f	-0.11391508
179	0xbc4a71e8	-0.012356259
180	0xbc0b8413	-0.008515376
181	0xbd09c48f	-0.03363472
182	0xbd5ab9db	-0.0533999
183	0xbdcabfa9	-0.098998375
184	0xbd98eec0	-0.07467413
185	0xbe1a02ce	-0.15040132
186	0xbd36a07a	-0.044586636
187	0xbd3579ae	-0.044305496
188	0xbe2b6528	-0.16737807
189	0x3b0b897e	0.0021291669
190	0xbcbe3064	-0.023216434
191	0x3c50d8f9	0.012747043
192	0xbd001999	-0.03127441
193	0xbd991f45	-0.07476667
194	0x3cfb97ae	0.030711975
195	0xbbdd9137	-0.0067616957
196	0xbcbebc7c	-0.023283236
197	0x3ccb8241	0.024842383
198	0xbcf4e0b5	-0.029892305
199	0x3d05cf15	0.032668192
200	0xbe32a805	-0.17446907
201	0xbdbee9c7	-0.09321933
202	0xbe0f4a64	-0.13993222
203	0x3de7414f	0.112917535
204	0xbdc9cd79	-0.09853644
205	0x3dd656f2	0.10465802
206	0xbe710e9a	-0.23540726
207	0xbd268f8d	-0.040664244
208	0x3e0ed22d	0.13947363
209	0x3be4f053	0.0069866567
210	0x3e60f201	0.21967317
211	0xbca87851	-0.020565184
212	0x3c124c25	0.008929287
213	0xbd91710b	-0.07101639
214	0xbd2c7a00	-0.042108536
215	0x3da17c48	0.07885033
216	0xbe0dee41	-0.13860418
217	0x3d9f235e	0.07770418
218	0x3d5426f0	0.051794946
219	0xbdabdac9	-0.08391339
220	0x3c890ecd	0.01673069
221	0x3dab4b7d	0.083640076
222	0x3da88d12	0.08230032
223	0x3d200719	0.03906927
224	0xbde7ff60	-0.11328006
225	0xbcaf2e10	-0.021384269
226	0x3d91590e	0.07097064
227	0xbcae0ecb	-0.021247288
228	0xbc7b23a3	-0.015328321
229	0x3db50a55	0.08839861
230	0xbc0a5019	-0.008441948
231	0x3e1559de	0.14585063
232	0x3d503fe8	0.050842196
233	0xbcb71cc5	-0.022352586
234	0xbcd31904	-0.025768764
235	0xbca12c74	-0.019674517
236	0xbd3a1a28	-0.0454351
237	0x3bc8b5f0	0.0061252043
238	0x3da48ee9	0.080350704
239	0xbd2f26d2	-0.04276163
240	0x3dcd3d1d	0.10021422
241	0xbdd0bc24	-0.10192135
242	0xbc5fc410	-0.013657585
243	0x3c919c3c	0.017774694
244	0x3d048f3e	0.03236317
245	0x3d82ccb1	0.06386698
246	0x3c99c62c	0.018771254
247	0xbd01de86	-0.031706356
248	0x3d029542	0.031880625
249	0xbda92eee	-0.08260904
250	0xbdc7d689	-0.09757716
251	0x3d374a46	0.044748567
252	0xbd33ab88	-0.043864757
253	0x3c90a870	0.017658442
254	0xbdf86b88	-0.12129885
255	0xbded27a9	-0.1157983

c1.bias f4 [32]
0	0xbb1d6e8a	-0.0024022185
1	0x3da812e6	0.082067296
2	0xbdb7d415	-0.08975998
3	0x3dd98503	0.10621073
4	0xbb14a070	-0.0022678636
5	0x3d0887fd	0.033332814
6	0x3d677054	0.05650361
7	0x3da08cb5	0.07839338
8	0xbd83fd31	-0.06444777
9	0x3cfd7689	0.030940311
10	0xbdd5db0b	-0.1044217
11	0xbd903d22	-0.0704291
12	0x3d85efc9	0.06539876
13	0xbe066607	-0.13124858
14	0xbd84ddac	-0.06487593
15	0xbb388eaa	-0.0028161206
16	0xbdea07e0	-0.11427283
17	0xbe0b8ac9	-0.13627161
18	0xbd349a5a	-0.044092514
19	0x3ca21fca	0.019790549
20	0x3d933dce	0.07189523
21	0x3ceb4557	0.028719587
22	0xbc77a162	-0.01511416
23	0x3d52aed3	0.051436257
24	0xbdb1db59	-0.08684415
25	0x3d10ad00	0.035321236
26	0xbd8c6a8f	-0.06856262
27	0x3dbfd329	0.093664475
28	0xbe009610	-0.12557244
29	0xbc451376	-0.012028566
30	0xbd93cf5a	-0.072172835
31	0x3db5ca52	0.0887648

c2.weight f4 [64, 32, 3, 3]
0	0xbcd6b6ba	-0.026210178
1	0xbdce6910	-0.10078633
2	0xbd46a90d	-0.048501063
3	0xbd8d8314	-0.06909767
4	0xbbcf23c1	-0.006321401
5	0xbd8755ec	-0.06608185
6	0xbbacf441	-0.005278141
7	0xbd37367e	-0.044729702
8	0x3d300f9d	0.04298364
9	0xbdb71c96	-0.08940999
10	0xbe04e968	-0.12979662
11	0xbd9bec6b	-0.076134525
12	0xbd9ef555	-0.07761637
13	0xbc8e54e6	-0.017374467
14	0xbd9cb2de	-0.07651304
15	0xbcd84e00	-0.02640438
16	0xbd573cc0	-0.05254817
17	0x3c554330	0.013016507
18	0xbc6e21bd	-0.014534411
19	0xbdabfa3b	-0.08397337
20	0x3d22858e	0.03967815
21	0xbd26242a	-0.040561832
22	0x3de8b8bc	0.1136336
23	0x3dcede57	0.10101002
24	0xbe0d5d80	-0.13805199
25	0xbe055eba	-0.13024417
26	0x3d889073	0.066681765
27	0xbdafb004	-0.08578494
28	0x3d13d325	0.036090035
29	0xbdaba465	-0.08380965
30	0xbd2f1c28	-0.04275146
31	0xbcf9fdc7	-0.030516518
32	0xbce4106f	-0.027839867
33	0x3c21be73	0.009872067
34	0x3bc8c90a	0.0061274813
35	0x3d25b896	0.040459238
36	0xbd53af6b	-0.051680963
37	0xbd7a5b85	-0.061122436
38	0xbaa3a459	-0.0012484893
39	0xbe4e509b	-0.20147936
40	0xbd594e01	-0.053052906
41	0xbc85c96f	-0.016331403
42	0xbe2e2721	-0.17007114
43	0xbdf359ae	-0.118823394
44	0xbd895740	-0.06706095
45	0xbdc352c3	-0.0953727
46	0xbaa78224	-0.0012779874
47	0xbc784e3a	-0.015155369
48	0xbcca5a69	-0.024701314
49	0xbd80d2d3	-0.062902115
50	0x3c8a8078	0.016906962
51	0x3c302734	0.010751534
52	0xbd81e25c	-0.06342003
53	0xbb8cc2fd	-0.0042957054
54	0xbbdb3f8a	-0.006690924
55	0xbc07c309	-0.008286246
56	0x3cfa553e	0.030558225
57	0x3d5e877c	0.054328427
58	0x3d82d4d1	0.06388248
59	0x3d3fe0dd	0.046845306
60	0x3d98a81d	0.0745394
61	0xbc02bb3e	-0.007979212
62	0x3cadbcb4	0.021208145
63	0x3cb4dc99	0.022077845
64	0x3c3ff166	0.011715269
65	0xbd6f72d3	-0.058459114
66	0xbdb4f777	-0.08836263
67	0xbcebde3a	-0.02879249
68	0x3c7872bc	0.015164074
69	0xbd8fbf75	-0.070189394
70	0xbd93f512	-0.07224478
71	0x3d555e3f	0.052091833
72	0xbd9ceffa	-0.076629594
73	0xbd9c6dcb	-0.07638129
74	0xbdd48cf1	-0.10378445
75	0xbd9382bc	-0.0720267
76	0xbdd9bf39	-0.10632176
77	0xbe1191f1	-0.14215828
78	0xbd27f893	-0.041008543
79	0xbcc250e4	-0.023720212
80	0xbd392b72	-0.04520745
81	0x3adb1852	0.0016715622
82	0xbd6f3323	-0.058398377
83	0xbdc82c2b	-0.09774049
84	0x3c723fd0	0.014785722
85	0xbcc50cb2	-0.024053905
86	0x3d3ea08b	0.046539824
87	0x3d21b709	0.039481197
88	0x3cb20362	0.021730129
89	0x3d881d0a	0.06646164
90	0x3de2508f	0.110505216
91	0x3e03bdb0	0.12865329
92	0x3d0743ca	0.033023633
93	0x3d4571d0	0.048204243
94	0x3d86ff06	0.065916106
95	0x39c439f9	0.00037427226
96	0xbd3d2339	-0.04617617
97	0xbd45e3c1	-0.048312906
98	0xbd4aa2ad	-0.049471546
99	0x3d40d965	0.047082324
100	0x3dbb640c	0.09149942
101	0xbc937652	-0.018000755
102	0xba5ffeff	-0.0008544772
103	0x3d58128f	0.052752074
104	0xbc79dd3c	-0.0152505
105	0x3d84a37c	0.06476495
106	0x3dee354d	0.1163126
107	0x3da9e7f0	0.08296192
108	0xbc095147	-0.008381194
109	0x3cfaadfc	0.03060054
110	0x3d3d40e4	0.046204463
111	0x3af19f6d	0.0018434353
112	0x3c419aeb	0.0118167205
113	0x3d288359	0.041140888
114	0x3d77f7dc	0.06053911
115	0x3968023d	0.00022126078
116	0xbc768aeb	-0.015047769
117	0x3e33199d	0.1749024
118	0x3db3f0bd	0.087861516
119	0x3e0ddb66	0.13853225
120	0x3e01e460	0.12684774
121	0x3e1e8c3c	0.15483183
122	0x3e308c5f	0.17241047
123	0x3cba61a0	0.02275163
124	0x3dafa257	0.08575886
125	0x3e04e2a7	0.12977086
126	0x3d4f5f6a	0.050628103
127	0x3d970447	0.07373863
128	0x3d5e8c9f	0.054333325
129	0x3d9470b2	0.072480574
130	0x3db86d99	0.09005279
131	0x3dcd156e	0.10013853
132	0x3d50100d	0.050796557
133	0x3ce2b3e8	0.027673677
134	0x3d0e631b	0.034762483
135	0xbc1b4f9a	-0.009479428
136	0xbc64d836	-0.013967564
137	0xbb095f59	-0.0020961373
138	0x3d0b9cb2	0.034084983
139	0xbced1f2e	-0.028945532
140	0x3ca1d748	0.019755974
141	0x3b353bfe	0.0027654166
142	0xbd394997	-0.045236196
143	0xbd37eaf3	-0.0449018
144	0x3dbaa8db	0.09114238
145	0x3d810898	0.06300467
146	0x3e0b13aa	0.1358172
147	0xbbabb8b3	-0.0052405237
148	0x3c1d948b	0.009617935
149	0x3e02d690	0.12777162
150	0x3dac76d2	0.08421101
151	0x3d84a00f	0.06475841
152	0x3dabf8c8	0.08397061
153	0x3dcd2113	0.10016074
154	0xbab1fe30	-0.0013579782
155	0x3dfba83f	0.1228795
156	0x3d5f35e9	0.054494772
157	0xbc413586	-0.011792546
158	0x3dd705f9	0.10499186
159	0x3e051eb9	0.13000001
160	0x3db3ce9d	0.08779643
161	0x3dea16d4	0.11430135
162	0xbb20f06a	-0.002455736
163	0x3a5ea367	0.0008492977
164	0x3c375a65	0.011190985
165	0xbd589905	-0.052880306
166	0xbdd21ddf	-0.10259604
167	0xbb6be174	-0.0035992535
168	0x3cf5e765	0.030017564
169	0x3c942dc6	0.018088233
170	0x3b6a88f0	0.0035787188
171	0x3afa5770	0.0019099545
172	0x3d36e39e	0.044650666
173	0x3b828357	0.003982942
174	0xbc7847af	-0.015153809
175	0x3cb87b3a	0.022519697
176	0x3d26ea90	0.04075104
177	0xbb33fe8b	-0.0027464952
178	0x3d94800d	0.07250986
179	0xbc01fe1f	-0.007934122
180	0xbd8a8378	-0.06763357
181	0x3b973697	0.004614662
182	0xbd61ee8b	-0.055159133
183	0xbc8150fc	-0.015785687
184	0xbd83a587	-0.06428056
185	0xbd5c2fa4	-0.05375637
186	0x3c957afd	0.018247122
187	0x38db1fef	0.00010448682
188	0x3d45d7ce	0.04830151
189	0xbd81b48d	-0.063332655
190	0x3ca25b22	0.019818846
191	0xbcaa5f1d	-0.020797307
192	0xbd30a809	-0.043129
193	0xbd88512c	-0.06656107
194	0xbc6c4357	-0.014420352
195	0xbcfd15a7	-0.030894114
196	0x3cf64ce0	0.030065954
197	0xbae47db5	-0.0017432483
198	0xbde28ca2	-0.1106198
199	0x3bd78b18	0.0065778606
200	0xbddec55c	-0.10877487
201	0xbbdac9ed	-0.0066769035
202	0x3c414062	0.011795135
203	0xbc421b15	-0.011847277
204	0xbd6341f3	-0.055482816
205	0xbce4cd07	-0.027929796
206	0xbe068557	-0.13136803
207	0xbe8d51d2	-0.27601486
208	0xbe426bd3	-0.18986444
209	0xbe4e76c6	-0.20162496
210	0xbe819962	-0.25312334
211	0xbe1121f3	-0.14173107
212	0xbe4a57d7	-0.1976007
213	0xbe610d9d	-0.2197785
214	0xbddaf8cc	-0.106919855
215	0xbd129c1f	-0.03579342
216	0x3a01bb79	0.0004948895
217	0x3dbf46ff	0.09339713
218	0x3d55f3d1	0.052234475
219	0x3d19bb37	0.037532058
220	0x3cedb989	0.029019134
221	0x3dfdd2a2	0.12393691
222	0x3dcc328b	0.09970578
223	0x3d4a4ea7	0.049391415
224	0x3e6bfaeb	0.23044936
225	0xbd76df77	-0.060271706
226	0xbd60152e	-0.0547077
227	0xbd5a0f4e	-0.053237252
228	0xbe0586c6	-0.13039693
229	0xbd6f6986	-0.058450244
230	0x3d4aa903	0.04947759
231	0xbe219ef4	-0.15783292
232	0xbdc7415b	-0.097292624
233	0x3cd86406	0.026414882
234	0xbdcfdb13	-0.10149207
235	0x3d3c3990	0.045953333
236	0x3d2a2b3e	0.041545145
237	0xbd6e2b47	-0.05814674
238	0xbd66f91c	-0.056389913
239	0x3c7e8c2f	0.015536352
240	0xbd839c9a	-0.06426354
241	0x3c0c4123	0.008560452
242	0xbc5322db	-0.012886728
243	0x3d51bfca	0.051208295
244	0x3c5c1f13	0.013435143
245	0xbc13b5e6	-0.009015536
246	0x3d4bba3b	0.04973815
247	0x3d83f9f2	0.06444158
248	0x3d12c552	0.03583271
249	0x3d96c87f	0.0736246
250	0x3d6be6e7	0.057593253
251	0x3d976ee9	0.07394201
252	0xbda0d0ce	-0.07852326
253	0x3d9b6e38	0.07589382
254	0x3d10cef2	0.03535361
255	0xbd56a687	-0.052404907

c2.bias f4 [64]
0	0x3c63809c	0.013885643
1	0xbd4d0e65	-0.050062556
2	0xbcf8c29b	-0.030366233
3	0xbc193e84	-0.009353284
4	0xbd4d4445	-0.050113935
5	0x3d006152	0.031342812
6	0x3cb1e7cb	0.021716973
7	0x3d333f19	0.043761346
8	0x3aedc9ab	0.0018141767
9	0xbbbb5bfc	-0.0057177525
10	0x3c3835ef	0.0112433275
11	0xbd717ad9	-0.058955047
12	0xbc86191d	-0.016369397
13	0x39f4d5ba	0.00046698545
14	0xbb6752d4	-0.0035297172
15	0x39b2233b	0.00033977054
16	0x3cd5bee8	0.026092008
17	0x3d3336f2	0.04375357
18	0x3cba6b01	0.022756102
19	0xbd3614fe	-0.044453613
20	0xbd1d4508	-0.03839591
21	0x3cbf4e7d	0.023352856
22	0x3ce0d33c	0.027444474
23	0xbd8c522f	-0.06851613
24	0xbbdd8d0e	-0.0067612
25	0xbd240efd	-0.040053356
26	0xbbc0c902	-0.005883337
27	0xbcac534b	-0.021035811
28	0xbcc73e80	-0.024321795
29	0xbc837197	-0.016045375
30	0x3b0bfefd	0.0021361702
31	0x3d2af9f6	0.041742288
32	0xbd482e90	-0.04887253
33	0x3c67504a	0.0141182635
34	0xbd8e39e9	-0.06944639
35	0xbd87b335	-0.06625978
36	0xbc2c7996	-0.010527035
37	0xbd02db57	-0.03194746
38	0x3d9ac96b	0.07557949
39	0xbc0c6e17	-0.008571169
40	0xbd3bcf5b	-0.045852046
41	0xbd1d06b2	-0.038336463
42	0xbd3efe84	-0.046629444
43	0x3d74d05a	0.059769012
44	0x3ba02a02	0.00488782
45	0x3c9fa0a9	0.019485788
46	0xbcbe636d	-0.02324077
47	0xbcfb0101	-0.030640127
48	0x3d069d76	0.03286501
49	0xba81375b	-0.0009858416
50	0x3cee6bb6	0.029104095
51	0x3cd4134b	0.025888106
52	0x3c4e9da8	0.01261083
53	0x3c24d8a7	0.01006142
54	0xbcf3a71b	-0.029742768
55	0xbc2cd0dd	-0.010547844
56	0xbc08036d	-0.008301598
57	0xbd433514	-0.04765804
58	0xbd144123	-0.03619493
59	0x3d388825	0.045051713
60	0x3ac34a0d	0.0014899388
61	0x3d0ff953	0.035149883
62	0xbd8f4014	-0.06994644
63	0x3c8ad260	0.016946018

c3.weight f4 [256, 64, 3, 3]
0	0x3d4216a6	0.04738488
1	0x3ccb2820	0.024799407
2	0x3d44fd2c	0.048093006
3	0xbbe478b4	-0.0069723967
4	0x3d3f8e68	0.04676667
5	0x3c433971	0.011915551
6	0x3d0a16c3	0.033713114
7	0x3bac0faa	0.0052508907
8	0xbc7ff8e3	-0.015623304
9	0x3d3d8838	0.046272486
10	0xbc8904c2	-0.016725902
11	0x3d7a79f3	0.061151456
12	0x3d07ccce	0.0331543
13	0x3b6828f8	0.003542481
14	0xbc1889d2	-0.009310203
15	0x3cb170b4	0.021660186
16	0x3d60f70b	0.0549231
17	0x3cf7d04e	0.030250695
18	0x3cf95fdd	0.030441219
19	0x3d681f0f	0.056670245
20	0x3d1f4485	0.038883705
21	0x3bf0dced	0.007350555
22	0x3d1fe7c8	0.039039403
23	0x3d79ecfb	0.061017018
24	0x3d890a9f	0.06691479
25	0x3d8354c3	0.064126514
26	0x3d8e1949	0.069384165
27	0x3cd4fb38	0.025998697
28	0x3d2b868e	0.04187637
29	0xbc590b45	-0.013247316
30	0xbbcca864	-0.0062456597
31	0x3d092faf	0.03349274
32	0xbc917d94	-0.017760076
33	0xbc634623	-0.013871702
34	0xbbbe10f7	-0.005800362
35	0x3bc22bb7	0.0059256214
36	0xbd6cdaac	-0.05782573
37	0xbd95fb55	-0.073233284
38	0xbd446b22	-0.047953732
39	0xbd97e3f2	-0.07416524
40	0xbd29ef91	-0.041488234
41	0xbd959202	-0.073032394
42	0xbdd14e67	-0.10220032
43	0xbdb08f2d	-0.086210586
44	0xbdc20b6a	-0.09474833
45	0x3d7e6b22	0.06211389
46	0x3cc7822d	0.024354065
47	0x3d74ddad	0.05978172
48	0x3db8ea91	0.09029115
49	0x3d7baf77	0.061446633
50	0x3da39f7f	0.07989406
51	0x3db2dbfb	0.08733364
52	0x3cfacf80	0.030616522
53	0x3cb38508	0.02191402
54	0x3e347a94	0.17624885
55	0x3e15ff94	0.14648277
56	0x3e7add9c	0.244986
57	0x3e5dba96	0.21653208
58	0x3e2f5e33	0.17125778
59	0x3e81ab2a	0.253259
60	0x3e4a6532	0.19765165
61	0x3e756838	0.23965538
62	0x3e709869	0.2349564
63	0x3e1895cc	0.14900893
64	0x3e26eb70	0.1630075
65	0x3e360eef	0.17779134
66	0x3e176de9	0.14788021
67	0x3e347fe4	0.17626911
68	0x3dea3986	0.11436753
69	0x3e70fbde	0.2353358
70	0x3e517ed8	0.20458543
71	0x3e2691fa	0.16266623
72	0xbd26e04a	-0.040741242
73	0x3c430a36	0.01190429
74	0x3ce8c2cf	0.028413204
75	0x3cefde50	0.029280812
76	0xbcdf98df	-0.027294574
77	0x3cac5e33	0.021041011
78	0x3beba4d1	0.0071912785
79	0xbc5afdeb	-0.013366203
80	0xbc353b30	-0.011061475
81	0x3c8752e8	0.016519025
82	0x3d39d6a2	0.045370705
83	0x3c843794	0.016139783
84	0x3bf250da	0.007394892
85	0x3bfbf8f8	0.0076895915
86	0x3be92d44	0.007115992
87	0x3ce079bf	0.027401803
88	0xbb3b030c	-0.0028535752
89	0x3c6a528b	0.014301906
90	0x3b542416	0.0032370142
91	0x3d42e6af	0.04758328
92	0xbaa342bd	-0.0012455803
93	0xbd19378d	-0.037406493
94	0x3bcc3a26	0.006232518
95	0xbd2f96ef	-0.04286855
96	0xbd3ecfdd	-0.046584953
97	0xbcc86650	-0.024462849
98	0xbdca22f6	-0.098699495
99	0x3cd836e5	0.026393363
100	0x3d1f626f	0.038912233
101	0x3d44a71c	0.04801093
102	0x3cd573a0	0.02605611
103	0x3cac4d9e	0.021033105
104	0x3d2a972d	0.04164808
105	0x3c937c66	0.018003654
106	0x3d871235	0.065952696
107	0x3d189ff4	0.03726192
108	0x3d9a3c90	0.07531083
109	0x3db310c4	0.08743432
110	0x3dc29be2	0.095023885
111	0x3da550a8	0.080720246
112	0x3ce03c4c	0.027372502
113	0x3d6f5739	0.05843279
114	0x3db54e7e	0.08852862
115	0x3dae2095	0.08502308
116	0x3d21a698	0.039465517
117	0x3d8829e1	0.06648613
118	0x3db7b0f0	0.08969295
119	0x3d3629e7	0.044473555
120	0x3e07925a	0.13239422
121	0x3e080a60	0.13285208
122	0x3d5872d4	0.052843884
123	0x3dfe6db0	0.12423265
124	0x3d84e632	0.06489219
125	0x3d6c0937	0.057625975
126	0xbb9a215e	-0.0047036847
127	0x3bd96979	0.006634888
128	0x3c4e6bdc	0.012598958
129	0x3d5fa269	0.054598246
130	0xbc939e49	-0.018019812
131	0x3bb045a0	0.0053793937
132	0xbc97dba7	-0.018537356
133	0x3d2daf0d	0.04240327
134	0xbced412b	-0.028961739
135	0x3d04fe66	0.032469176
136	0x3db6ea6e	0.08931433
137	0x3d924bcf	0.071433656
138	0x3d8b8fe7	0.068145566
139	0x3d4aeee0	0.049544215
140	0x3d149521	0.036275033
141	0x3d8124dc	0.063058585
142	0x3dc27e0f	0.094967
143	0x3d3ded22	0.046368726
144	0x3d7bf0e9	0.061509047
145	0x3d620d9b	0.055188756
146	0x3de907e7	0.113784604
147	0x3d9a49b0	0.07533586
148	0x3d700bc9	0.05860499
149	0x3dabc6a7	0.08387499
150	0x3d2c34f7	0.0420427
151	0x3d9e504d	0.0773016
152	0x3d08cebe	0.03340029
153	0x3d36c8b0	0.044624984
154	0xbc67cefe	-0.014148472
155	0xbc366c71	-0.011134253
156	0x3cb882f5	0.022523383
157	0xbc17ef27	-0.009273327
158	0x3c8b0b55	0.016973177
159	0xbd3c9bbd	-0.04604696
160	0xbd2e6ed0	-0.042586148
161	0x3d093342	0.03349615
162	0x3d58c8f7	0.05292603
163	0x3bb4c67e	0.005516826
164	0xbbf2f59c	-0.007414533
165	0xbd0e6843	-0.0347674
166	0xbd574c66	-0.052563094
167	0xbda59e3d	-0.08086822
168	0xbca4de64	-0.020125575
169	0xbda3af54	-0.079924256
170	0xbcc6e67c	-0.024279825
171	0x3d1bc4e4	0.038029566
172	0x3d017363	0.031604182
173	0xb893c751	-7.046632e-05
174	0x3cf81bc1	0.030286672
175	0x3d2c2649	0.0420287
176	0xbc9e187f	-0.01929879
177	0x3d4d40e4	0.050110713
178	0x3d2b8966	0.04187908
179	0x3b1e6f5f	0.002417527
180	0x3db4c162	0.08825947
181	0x3d8bfc82	0.068352714
182	0x3d9e2127	0.07721167
183	0x3ca091a5	0.019600699
184	0x3daa372f	0.08311307
185	0x3cc6f4b5	0.024286607
186	0x3d939d56	0.07207744
187	0x3d5f1b1e	0.05446922
188	0x3d9b7e50	0.075924516
189	0x3d0b9809	0.03408054
190	0xbc769556	-0.015050253
191	0x3d84ec1d	0.064903475
192	0xbaa0ca73	-0.0012267366
193	0x3ccc9cce	0.024977114
194	0x3d650ab3	0.055918407
195	0xbbc340cd	-0.0059586526
196	0xbbbf8c01	-0.005845547
197	0xbc95cf89	-0.018287437
198	0x3d7fdfb9	0.062469218
199	0x3d000155	0.03125127
200	0x3d762655	0.06009515
201	0x3d857a70	0.06517494
202	0x3bbcb632	0.005759024
203	0x3d3dd426	0.0463449
204	0x3d5d5d54	0.054044083
205	0x3cccc087	0.024994148
206	0xbcc84918	-0.024448916
207	0xbb2797e5	-0.0025572714
208	0x3d8c5f91	0.06854165
209	0x3cc7f341	0.024407985
210	0x3d78b2c0	0.060717344
211	0x3b49b24f	0.0030776446
212	0x3bb0e44a	0.005398308
213	0xbc7ad4dd	-0.01530954
214	0x3cc7842e	0.02435502
215	0x3c5debc7	0.013544983
216	0xbc45c519	-0.0120709175
217	0x3b9e986b	0.004839947
218	0x3cb1fcdb	0.021727016
219	0xbbc67263	-0.0060561164
220	0x3be00d38	0.0068375133
221	0xbcd487d4	-0.025943674
222	0xbc8f8fce	-0.017524626
223	0xbd119811	-0.035545412
224	0x3c31629e	0.010826735
225	0x3d110186	0.035401843
226	0x3cf17103	0.029472833
227	0x3d97dc52	0.0741507
228	0x3da1764c	0.078838915
229	0x3c283749	0.010267087
230	0x3d2034fb	0.039113026
231	0x3d88cb07	0.066793494
232	0x3d00cb87	0.0314441
233	0x3d1ee96a	0.03879682
234	0x3d369f8a	0.044585742
235	0xbc9364d3	-0.017992413
236	0xbc278bfe	-0.010226248
237	0xbca70610	-0.020388633
238	0x3c145528	0.009053506
239	0xbc10617c	-0.008812305
240	0x3d749842	0.059715517
241	0x3c82d263	0.01596946
242	0x3cc1defa	0.023665894
243	0x3c42b1ed	0.011883241
244	0x3bea6b60	0.0071539134
245	0x3d0d44db	0.034489494
246	0x3d12ceac	0.03584163
247	0x3d5aa005	0.053375263
248	0x3bfe9ef9	0.007770416
249	0x3d2c4976	0.042062245
250	0x3d2bc1a7	0.04193273
251	0x3bbd07fd	0.0057687745
252	0x3d4a6e47	0.049421575
253	0x3d13b905	0.03606512
254	0x3d798032	0.060913272
255	0x3d51a526	0.05118289

c3.bias f4 [256]
0	0x39abcbd4	0.00032767525
1	0x3ba379a1	0.0049888645
2	0xbd984899	-0.07435722
3	0xbc044628	-0.008073367
4	0xbcaa7af1	-0.020810576
5	0x3d048361	0.032351855
6	0xbc25ca65	-0.010119055
7	0x3d2cf900	0.042229652
8	0x3cba74f6	0.02276085
9	0x3d1a9efd	0.03774928
10	0x3b92abb8	0.004476037
11	0xbce2121e	-0.02759653
12	0xbb362431	-0.0027792568
13	0x3d253921	0.040337685
14	0x3a8f0c56	0.001091371
15	0x3d3bffdf	0.045898315
16	0xbcd8838d	-0.026429916
17	0xbd78c77b	-0.060737114
18	0x3cdcef69	0.026969628
19	0x3da34542	0.07972194
20	0x3cdb48b4	0.026768066
21	0xbb922e14	-0.0044610593
22	0xbc0a5356	-0.00844272
23	0xbc7fdac2	-0.015616121
24	0xbb9b7871	-0.0047445823
25	0x3d74fd9f	0.059812184
26	0x3b5bb8b2	0.0033526835
27	0x3d2e0d8c	0.042493388
28	0x3d802062	0.062561765
29	0xbc6ee335	-0.014580538
30	0xbc88ea53	-0.016713297
31	0x3d0f8e72	0.035047956
32	0x3d1357c1	0.03597236
33	0x3c867fbb	0.016418329
34	0x3d117032	0.03550739
35	0x3d0c7903	0.034295093
36	0xbd40596a	-0.046960272
37	0x3d57c026	0.05267348
38	0x3d49bfd7	0.04925522
39	0x3d33c2dc	0.043887004
40	0xbcdd6f8d	-0.02703073
41	0x3d4c3e64	0.049864188
42	0x3d6b59c5	0.057458658
43	0xbc78314e	-0.015148474
44	0x3d118e7e	0.03553628
45	0x3c8eeab1	0.017445894
46	0xbc96644a	-0.018358368
47	0x3d0204e3	0.03174294
48	0x3cdc7fee	0.02691647
49	0xbd184a4a	-0.037180223
50	0xbc697942	-0.0142501015
51	0x3d2b8c70	0.04188198
52	0x3c4550ff	0.012043237
53	0x3aee5e47	0.0018186056
54	0xbd4f93b3	-0.050677966
55	0x3d18d3ef	0.03731149
56	0xbc012945	-0.007883375
57	0xbc59b851	-0.013288573
58	0xbb5d5c03	-0.0033776767
59	0x3b106794	0.0022034394
60	0xbd765851	-0.06014282
61	0x3b1a6b22	0.0023562391
62	0x3cf0c3b0	0.029390186
63	0x3d608348	0.0548127
64	0x3d024982	0.031808384
65	0x3af5aadd	0.0018742938
66	0x3be0a272	0.0068553025
67	0xbc665959	-0.014059388
68	0x3bb9e222	0.005672709
69	0x3cb4541f	0.022012768
70	0x3d0a50a8	0.033768326
71	0x3d23c2d7	0.039980736
72	0xbd00d4d8	-0.031452984
73	0x3d438efa	0.047743775
74	0xbcba4240	-0.022736669
75	0xbac53aad	-0.0015047394
76	0x3ceb23ed	0.028703654
77	0x3ca5101b	0.020149281
78	0xbcc9425c	-0.024567775
79	0x3cb62d25	0.022238323
80	0xbd09ed7c	-0.03367375
81	0x3d96c7e5	0.073623456
82	0xbc98a920	-0.018635333
83	0xbca9a161	-0.020706834
84	0x3c2cae84	0.010539655
85	0xbc0ef858	-0.008726202
86	0x3d36077c	0.04444073
87	0xbcc85059	-0.024452375
88	0x3d57f40f	0.052722987
89	0xbd62b3f1	-0.055347387
90	0x3b20ceda	0.0024537356
91	0x3d7812b3	0.060564708
92	0x3d383840	0.04497552
93	0x3d6d3029	0.057907257
94	0xbd2e10f6	-0.042496644
95	0x3d420b7e	0.04737424
96	0xbd90f0b1	-0.07077158
97	0xbc85fb0c	-0.01635506
98	0xbc86c9e8	-0.016453698
99	0xbda41473	-0.08011713
100	0xbcd87a09	-0.026425378
101	0x3ba0308e	0.0048886007
102	0x3d8468a7	0.06465273
103	0x3cb98383	0.022645717
104	0xbc9afd7a	-0.018919695
105	0x3d823d46	0.06359343
106	0xbcda7d7b	-0.026671162
107	0xbd1e4fb6	-0.038650237
108	0xbcefbcbe	-0.029264804
109	0xbd470d53	-0.04859669
110	0x3c4c4630	0.012467906
111	0x3c8d1f51	0.017226847
112	0x3a3d1cc1	0.00072140625
113	0x3d0ec176	0.034852467
114	0xbb8cda17	-0.0042984593
115	0xbcbf0db2	-0.02332196
116	0x3c6a0164	0.014282558
117	0xbbca28fc	-0.0061694365
118	0xbcab1371	-0.020883294
119	0xbb7e8184	-0.0038834522
120	0x3cf89882	0.030346159
121	0x3d59941b	0.05311976
122	0x38de814e	0.0001060987
123	0xbc8c8c9d	-0.017156893
124	0x3d53adc5	0.05167939
125	0x3c0f47bf	0.008745133
126	0xbcd825c7	-0.026385201
127	0xbc9e015f	-0.019287763
128	0x3b8a7b64	0.004226135
129	0x3d62fd77	0.055417504
130	0xbc3dbaf4	-0.011580218
131	0xbcb4800b	-0.022033712
132	0xbd5e4a77	-0.054270234
133	0xbd38d178	-0.04512164
134	0xbc72f8fb	-0.014829869
135	0x3a6b617b	0.00089790643
136	0xbc7af8ed	-0.015318138
137	0xbd4cb1a6	-0.049974106
138	0x3bb41b87	0.0054964456
139	0xbbef5494	-0.0073037837
140	0x3caa3036	0.020774942
141	0x3d236afc	0.03989695
142	0x3d32a895	0.043617804
143	0x3c84479d	0.01614743
144	0xbcb92ae3	-0.022603458
145	0xbd07eca0	-0.033184648
146	0xbbc0ce72	-0.005883985
147	0xbc586d71	-0.013209687
148	0xbc1875fa	-0.009305472
149	0x3cfed543	0.03110755
150	0xbcc845c2	-0.024447326
151	0x3da199f4	0.07890692
152	0xbc4b4f70	-0.012409076
153	0x3d3a22b1	0.04544324
154	0x3d5ea56d	0.05435698
155	0x3d1c0cf2	0.038098283
156	0xba6a6899	-0.0008941978
157	0x3bae2a4f	0.005315102
158	0x3d1639da	0.036676265
159	0x3bd2fe81	0.0064390306
160	0x3c63fd97	0.013915441
161	0xbc49f40e	-0.012326254
162	0x3da16bbd	0.078818776
163	0x3c8aa05b	0.016922167
164	0xbccec533	-0.025240516
165	0xbc4e82d3	-0.012604433
166	0xbc11dcda	-0.008902753
167	0xbd0e1b9d	-0.034694303
168	0x3d6d3ca9	0.05791918
169	0x3d3f7e4c	0.046751305
170	0xbc869788	-0.016429678
171	0x3d801422	0.0625384
172	0x3c0b24c3	0.008492651
173	0xbc674a9b	-0.014116908
174	0x394f5a7b	0.00019774765
175	0x3c995c60	0.018720806
176	0xbc83d834	-0.016094305
177	0x3d893412	0.06699385
178	0x3d39db62	0.045375235
179	0xbd297a76	-0.041376553
180	0xbca7eb0f	-0.020497827
181	0x3ced01ec	0.02893158
182	0x3ca03385	0.019555816
183	0x3d1961f4	0.03744693
184	0x3d4032a4	0.046923295
185	0x3c2fc30e	0.010727657
186	0x3d347af3	0.044062566
187	0x3caf06f2	0.021365616
188	0x3ca76094	0.020431794
189	0x3bf59e1e	0.0074956557
190	0x3cd1b5a0	0.0255993
191	0xbd317720	-0.043326497
192	0x3cf7ef1a	0.03026538
193	0xbd5308a3	-0.05152191
194	0x3cbc5a80	0.022992373
195	0xbd838a2b	-0.06422838
196	0xbcb4a26f	-0.02205011
197	0x3d03f14c	0.03221254
198	0x3c285fad	0.010276717
199	0xbd0a5534	-0.033772662
200	0xbd8cf352	-0.06882347
201	0x3c2623aa	0.010140339
202	0x3aff2a99	0.0019467651
203	0x3d21d93e	0.03951382
204	0xbd80769e	-0.062726244
205	0xbc515ddb	-0.012778725
206	0x3c952f0e	0.018210914
207	0x3c905307	0.017617716
208	0x3d1f9e29	0.038969193
209	0x3d7a9d58	0.06118521
210	0x3b6c2e98	0.0036038514
211	0xbc5eca71	-0.0135980705
212	0x3ceabf1b	0.02865558
213	0xbb6dd181	-0.0036288204
214	0x3ca2c2e9	0.019868331
215	0x3d3f2622	0.046667226
216	0x3c2c4270	0.010513887
217	0x3cc61cc9	0.024183648
218	0x3d17287b	0.03690384
219	0x3d943962	0.072375074
220	0x3d9d4a59	0.07680196
221	0xbcb0bbb8	-0.021573886
222	0xbc0756eb	-0.008260469
223	0x3d32c6c9	0.043646608
224	0xbce638b3	-0.028103208
225	0x3c7e402c	0.015518229
226	0xbcc9b3b3	-0.02462182
227	0x3cbf98fe	0.023388382
228	0xbb32011e	-0.002716131
229	0xbb54981f	-0.0032439304
230	0x3d4d5b04	0.050135627
231	0x3d0d1be0	0.03445041
232	0xbcb64cf6	-0.022253495
233	0x3d9f55b7	0.07780021
234	0x3d14a34d	0.03628855
235	0x3ce18149	0.027527468
236	0x3d5f480a	0.05451206
237	0x3d2980f3	0.04138274
238	0xbcdfff86	-0.027343523
239	0x3c73ef7e	0.014888642
240	0x3d871e54	0.065975815
241	0x3bc7d933	0.00609889
242	0xbc703e41	-0.01466328
243	0x3d3357b0	0.043784797
244	0x3d867d10	0.065668225
245	0x3cc502df	0.02404922
246	0xbb5004a7	-0.0031741054
247	0xbd2a2719	-0.041541193
248	0x3cfe4b10	0.031041652
249	0x3cb417ad	0.021983946
250	0x3ca32ffd	0.019920344
251	0xbbb0e18d	-0.0053979815
252	0x3ba7a431	0.0051160087
253	0xbc82de85	-0.015975246
254	0x3d136aa7	0.035990383
255	0x3d3bd9ec	0.045862123

fc1.weight f4 [64, 256]
0	0x3c9120ef	0.0177159
1	0x3d209878	0.039207906
2	0xbc11cd68	-0.00889907
3	0xbd67aab0	-0.056559265
4	0xbd5c84e2	-0.053837664
5	0x3cbb905c	0.022895984
6	0xbd7e5a0c	-0.062097594
7	0xbd6a4158	-0.057191223
8	0xbd1b4188	-0.037904292
9	0x3bacc11b	0.0052720434
10	0xbc5eae40	-0.013591349
11	0xbc820d78	-0.015875563
12	0xbd0364a1	-0.03207839
13	0x3cb42022	0.021987978
14	0xbd15c4b8	-0.03656456
15	0xbbfcf023	-0.007719056
16	0x3d5b2fa3	0.053512227
17	0x3c39a3fe	0.011330603
18	0x3d4bd07c	0.049759373
19	0x3d3a2525	0.04544558
20	0xbd809445	-0.0627828
21	0xbc90faec	-0.017697774
22	0xbd6b63d5	-0.057468254
23	0x3d3dcbc8	0.04633692
24	0xbd50445d	-0.050846446
25	0x3c941a21	0.018078865
26	0xbd38464c	-0.044988915
27	0x3bcb6858	0.006207507
28	0x3cfe6502	0.031054024
29	0xbd6c18ed	-0.05764096
30	0xbc80dac6	-0.01572932
31	0xbd4e7c49	-0.050411496
32	0xbd5bab4a	-0.05363015
33	0xbcd7e5c5	-0.02635468
34	0x3c286b8e	0.010279549
35	0x3d15341f	0.03642666
36	0xbd44756f	-0.047963556
37	0xbd1aaffd	-0.03776549
38	0xbd243141	-0.040086035
39	0xbd68d3c7	-0.05684259
40	0x3d502385	0.050815124
41	0xbd35671c	-0.044287786
42	0x3be15cb3	0.0068775057
43	0x3bab34a1	0.0052247797
44	0xbd3b6da5	-0.045758862
45	0xbd557d46	-0.052121423
46	0x3cd6585d	0.026165182
47	0xbcc594fc	-0.024118893
48	0xbd7c9fc9	-0.06167582
49	0x3cf711a0	0.030159771
50	0x3cd178a8	0.025570229
51	0x3d14ddc4	0.036344305
52	0xbcbf5658	-0.023356602
53	0xbd42e3b5	-0.04758044
54	0xbc9df836	-0.019283395
55	0x3d4698d4	0.048485592
56	0x3c08c435	0.008347561
57	0xbd80d59f	-0.06290745
58	0xbd5f5667	-0.05452576
59	0xbd632b60	-0.055461287
60	0xbd5dda31	-0.05416316
61	0x3b0d258a	0.0021537268
62	0xbd057a7a	-0.032587506
63	0xbcc732ba	-0.02431618
64	0xbd2cde34	-0.042204097
65	0x3ca96904	0.020679958
66	0xbd8287b1	-0.06373537
67	0xbc8fa064	-0.017532535
68	0x3c79b336	0.015240481
69	0xbd622719	-0.055213068
70	0xbd701d16	-0.05862149
71	0x3cf51c47	0.02992071
72	0x3bc712aa	0.006075223
73	0x3c2f4004	0.010696415
74	0x3d642bf3	0.055705976
75	0x3cd789a6	0.026310753
76	0xbd7595d8	-0.059957355
77	0xbce336e5	-0.027736137
78	0x3d01140f	0.03151327
79	0x3d1da640	0.038488626
80	0xbce8276d	-0.028339112
81	0xbc2b26ba	-0.010446245
82	0xbbcb19d0	-0.0061981454
83	0xbcecfd57	-0.028929396
84	0xbce3a0f9	-0.027786719
85	0xbd12f15a	-0.035874702
86	0xbb93a9be	-0.004506319
87	0xba6a4c1f	-0.00089377345
88	0xbd43f61f	-0.04784214
89	0x3d09df8e	0.033660464
90	0xbd67f534	-0.05663033
91	0x3ca32005	0.019912729
92	0x3d6530b3	0.055954646
93	0xbc640795	-0.013917823
94	0x3c7f583a	0.015585
95	0xbd1e0f3f	-0.03858876
96	0x3d1987ad	0.037482906
97	0xbc18e673	-0.009332287
98	0x3c3991a5	0.011326228
99	0xba6b8957	-0.0008985004
100	0xbd005661	-0.031332377
101	0x3d187161	0.0372175
102	0xbd473fee	-0.048644952
103	0x3d31a8ac	0.04337375
104	0xbcea074f	-0.028567938
105	0x3bfc0aca	0.007691716
106	0x3c9f573d	0.019450778
107	0x3ccbae50	0.024863392
108	0xbd1952fc	-0.037432656
109	0x3c332560	0.010934204
110	0xbcf01f05	-0.029311666
111	0x3d1fc451	0.03900558
112	0xbd33e9bf	-0.04392409
113	0xbcb06ec2	-0.021537188
114	0xbd40aa48	-0.047037393
115	0xbc0cc1e5	-0.00859115
116	0x3d632654	0.055456474
117	0x3d559728	0.052146107
118	0xbd3d318d	-0.046189833
119	0xbc8f0e27	-0.017462803
120	0x3b4ec0ed	0.0031548098
121	0xbd6c83a4	-0.05774273
122	0x3cdd81ee	0.027039494
123	0xbd4875d3	-0.04894049
124	0xbc6b8914	-0.014375944
125	0x3d5aa3e6	0.053378962
126	0xbc7668ca	-0.015039632
127	0xbd54e863	-0.051979434
128	0xbc068b61	-0.008211941
129	0x3d736fc8	0.059432775
130	0x3d1383e7	0.036014464
131	0x3d35c52e	0.0443775
132	0xbcd8d82e	-0.02647027
133	0xba85e294	-0.001021462
134	0xbd2f752f	-0.042836364
135	0xbc24e326	-0.010063922
136	0xbcbfa868	-0.023395732
137	0x3ce3a2d5	0.027787605
138	0xbd7e33e8	-0.06206122
139	0x3cb76a76	0.022389632
140	0xbd37b4d9	-0.044850204
141	0x3a0d6059	0.000539308
142	0xbb9603d7	-0.0045780945
143	0x3c8eb2a6	0.01741917
144	0x3d7a0df2	0.061048456
145	0xbc900b7d	-0.017583603
146	0xbc1e35a6	-0.0096563455
147	0xbd67e832	-0.056617923
148	0xbd5e8cb7	-0.054333415
149	0xbd32595a	-0.043542244
150	0xbccf3017	-0.025291486
151	0x3c1a1c62	0.009406181
152	0xbc2d93c5	-0.010594313
153	0xbc4e03d2	-0.012574153
154	0xbc9662ff	-0.018357752
155	0x3d3934c3	0.045216333
156	0xb892ef95	-7.006448e-05
157	0xbb96742e	-0.0045914864
158	0xbcc0a0af	-0.02351412
159	0xbd6b884b	-0.057503026
160	0xbcd4dffb	-0.025985708
161	0xbcf82d9c	-0.030295186
162	0xbd7c2e54	-0.06156762
163	0x3c04ddc9	0.008109518
164	0x3c1331ed	0.008984071
165	0xbd0331bd	-0.032029856
166	0xbc93966c	-0.018016063
167	0xbc3a8bc0	-0.011385858
168	0x3d316d80	0.043317318
169	0xbc76fccb	-0.015074919
170	0x3cd5f758	0.02611892
171	0xbc089353	-0.008335906
172	0x3c836d98	0.01604347
173	0x3d62bfa3	0.05535854
174	0xbd5d864d	-0.054083157
175	0x3d729185	0.05922081
176	0xbd83a0b0	-0.06427133
177	0x3cd3fa14	0.025876082
178	0x3c9b6df9	0.018973337
179	0xbd508f80	-0.050918102
180	0x3d5c4d94	0.05378492
181	0x3d7a379e	0.061088197
182	0xbc9a3098	-0.018822
183	0xbd589692	-0.05287797
184	0xbd6a1013	-0.057144236
185	0x3d62b4a3	0.05534805
186	0x3d1a60c6	0.037689947
187	0xbbee3f76	-0.0072707487
188	0x3d3ecdad	0.046582866
189	0x3be27066	0.0069103716
190	0x3d567c79	0.0523648
191	0xbd35ded8	-0.044401973
192	0x3b786348	0.0037900973
193	0xba52f860	-0.0008047875
194	0x3d5e04f3	0.05420394
195	0x3d446b4b	0.047953885
196	0x3d47a9c7	0.048745897
197	0x3cbf69bc	0.023365848
198	0x3c90d129	0.01767786
199	0xbcc36e41	-0.023856284
200	0x3d3f51ad	0.04670875
201	0xbd446950	-0.047951996
202	0x3c7def88	0.015499003
203	0xbbd1d7af	-0.0064038853
204	0x3d201956	0.039086662
205	0x3d02e3ad	0.03195541
206	0x3bb719ef	0.0055878083
207	0xbcfaf675	-0.030635098
208	0x3d318b3e	0.043345682
209	0x3d357324	0.04429926
210	0x3bd7189a	0.006564212
211	0xbcd729ec	-0.026265107
212	0xbc029ee2	-0.007972451
213	0x3d0ad87e	0.03389787
214	0xbd0d59e2	-0.034509547
215	0xbcc04f55	-0.023475328
216	0x3c649fa1	0.013954074
217	0x3d5b67fa	0.053565957
218	0xbb4d9fca	-0.003137576
219	0x3d594042	0.053039797
220	0x3d09b52d	0.03362005
221	0xbc7dc8c8	-0.0154897645
222	0x3c952c72	0.01820967
223	0x3c23af70	0.009990558
224	0x3d37ef44	0.044905916
225	0x3d6ab73b	0.05730365
226	0x3d59b8a5	0.053154606
227	0xbcc499ee	-0.02399918
228	0x3ca10968	0.019657806
229	0x3c824453	0.01590172
230	0xbd40f8ad	-0.047112156
231	0x3c9ae349	0.018907206
232	0xbc27a4e5	-0.010232185
233	0x3d40a75f	0.047034618
234	0x3cbc19c5	0.022961507
235	0x3a4f2e7d	0.00079033506
236	0xba10f4e0	-0.0005529653
237	0xbd5aefe0	-0.05345142
238	0xbba8d7d1	-0.0051526804
239	0xbd016be6	-0.03159704
240	0xbd7f9a6a	-0.06240312
241	0xbc391ac3	-0.011297884
242	0x3a176b38	0.000577617
243	0x3d28861f	0.041143533
244	0xbd44919a	-0.04799042
245	0x3d28a964	0.04117717
246	0xbd40bc5c	-0.047054633
247	0x3ca69258	0.020333454
248	0xbd4a40ca	-0.049378194
249	0xbd6745e3	-0.056463134
250	0xbcc5bfab	-0.024139246
251	0xbd2c0085	-0.041992683
252	0x3cb5574a	0.02213635
253	0xbd44c72c	-0.048041508
254	0xbd41442a	-0.047184147
255	0x3cbc7280	0.023003817

fc1.bias f4 [64]
0	0x3b8d1e76	0.0043066097
1	0x3cce2120	0.02516228
2	0x3da01253	0.07815995
3	0x3cb97821	0.02264029
4	0xbd371d09	-0.044705424
5	0xbcedce58	-0.029029056
6	0xbc8ccbd8	-0.017187044
7	0xbd52c744	-0.051459566
8	0x3c7d4f54	0.015460808
9	0x3d4e96da	0.050436832
10	0xbb607720	-0.0034250692
11	0x3d6679a0	0.056268334
12	0xbc6217c0	-0.013799608
13	0x3bce9551	0.006304421
14	0x3c95b55c	0.018274955
15	0x3d5d3ac5	0.054011125
16	0xbd68ce72	-0.056837507
17	0xbc206460	-0.009789556
18	0xbbaa5b60	-0.005198881
19	0x3d66aee8	0.056319147
20	0x3d8d6eb0	0.069058776
21	0xbd6b26bc	-0.057409987
22	0x3d1309b5	0.03589793
23	0xbd649ca2	-0.05581344
24	0xbcb9ecc3	-0.022695905
25	0x3d2a0642	0.041509874
26	0x3d642d73	0.055707406
27	0x3b53ee1d	0.0032337971
28	0xbcda398c	-0.026638769
29	0xbc87765f	-0.016535936
30	0xbcbeb5b2	-0.023279998
31	0x3cd4272a	0.025897581
32	0x3d9cb0f9	0.07650942
33	0x3cd7c38e	0.026338365
34	0x3d68da81	0.056849007
35	0xbd4a3492	-0.04936654
36	0x3d456887	0.04819539
37	0xbd1c8627	-0.038213875
38	0xbd2cdbbf	-0.042201754
39	0xbd240744	-0.04004599
40	0x3d920371	0.07129563
41	0xbd542277	-0.05179068
42	0xbcebecac	-0.028799377
43	0xbd5b6305	-0.05356123
44	0x3d30a541	0.04312635
45	0xb9ff5d00	-0.0004870668
46	0x3cf2896d	0.029606545
47	0xbc4f83ce	-0.012665702
48	0x3d37a40e	0.04483419
49	0x3da58a06	0.080829665
50	0x3d2deca3	0.042462002
51	0x3cc5f811	0.024166139
52	0x3afb6440	0.0019179657
53	0x3b137700	0.002250135
54	0x3d0e2895	0.03470667
55	0xbd15ce14	-0.036573485
56	0x3c9d2ad7	0.019185467
57	0x3c140878	0.009035222
58	0x3be8fff9	0.0071105924
59	0x3d3431bb	0.04399274
60	0x3c255cd2	0.010092931
61	0x3d0df6ff	0.034659382
62	0x3d372047	0.044708516
63	0x3cd071aa	0.025444824

fc2.weight f4 [5, 64]
0	0xbde7a858	-0.11311406
1	0x3cb0bea2	0.021575276
2	0x3d79d27e	0.060991757
3	0x3d96571c	0.073408335
4	0x3da31851	0.07963622
5	0x3c766ea0	0.0150410235
6	0xbd3fc497	-0.046818342
7	0x3c86ba45	0.016446242
8	0x3e210b59	0.15726985
9	0x3e02348e	0.1271536
10	0xbd41fe7c	-0.047361836
11	0x3e18405f	0.14868306
12	0x3ca90726	0.020633291
13	0x3cf4ac9b	0.029867461
14	0xbda8c89f	-0.082413904
15	0x3da2c413	0.079475544
16	0xbcabb634	-0.020960905
17	0x3d15bf26	0.036559246
18	0xbd926a32	-0.071491614
19	0x3e19788b	0.1498739
20	0x3d8ac848	0.06776482
21	0xbd119714	-0.03554447
22	0xbdc3be67	-0.09557801
23	0x3d26a6f8	0.040686578
24	0xbe4eae2e	-0.20183632
25	0xbda74064	-0.081665784
26	0xbc412983	-0.011789682
27	0xbd1609e4	-0.036630526
28	0xbda05615	-0.07828919
29	0x3d458853	0.048225712
30	0x3dbd3d47	0.09240203
31	0xb9f29e14	-0.00046275614
32	0x3dea1757	0.11430233
33	0x3e32d5d5	0.17464383
34	0x3d38e833	0.045143317
35	0x3d21adaa	0.03947226
36	0xbd2ffef5	-0.042967755
37	0x3d852916	0.06501977
38	0x3cba7499	0.022760676
39	0x3ccb42d1	0.024812134
40	0x3d808a32	0.06276359
41	0xbdceecb9	-0.10103745
42	0x3d6c5578	0.057698697
43	0xbd316c9b	-0.043316465
44	0x3c0eb606	0.00871039
45	0xbd7460a0	-0.05966246
46	0x3d93e99b	0.07222291
47	0x3da1bede	0.07897733
48	0x3de8de0d	0.11370478
49	0x3c6c836e	0.014435632
50	0x3d7963f5	0.060886342
51	0x3af18f84	0.0018429612
52	0x3cc46e43	0.023978358
53	0x3d8b84fe	0.068124756
54	0x3d97de8a	0.07415493
55	0xbca9aee0	-0.02071327
56	0xbda2f982	-0.07957746
57	0xbc602206	-0.013679987
58	0xbd494286	-0.049135707
59	0xbd1c943b	-0.0382273
60	0xbdd6d33e	-0.1048951
61	0x3d972421	0.07379938
62	0x3d1e2a00	0.038614273
63	0xbb936536	-0.0044981493
64	0xbd33cfea	-0.043899454
65	0xbc1c6172	-0.009544717
66	0xbda7df89	-0.08196933
67	0xbd59c01a	-0.053161718
68	0x3dd261ba	0.10272546
69	0xbde5ff1c	-0.11230299
70	0xbd7309bc	-0.059335455
71	0xbd9318df	-0.07182478
72	0x3d4ee452	0.050510712
73	0xbc7311f7	-0.014835826
74	0xbd8b7dc8	-0.068111
75	0x3e1c1523	0.15242438
76	0xbdbc831b	-0.09204694
77	0x3cbd2e9c	0.023093514
78	0xbc4e174d	-0.0125787975
79	0xbd8475ae	-0.06467758
80	0xbd3768e2	-0.04477776
81	0xbd2d3520	-0.042286992
82	0x3af0bc00	0.0018366575
83	0x3d8aff54	0.06786981
84	0x3da7f698	0.08201331
85	0x3dacb538	0.08433002
86	0x3d0f90ee	0.035050325
87	0xbdd91d32	-0.10601272
88	0xbc2df5bf	-0.0106176725
89	0x3d135ec2	0.03597904
90	0x3db2950a	0.08719833
91	0xbd85e31e	-0.0653746
92	0xbd5eb193	-0.054368567
93	0x3ca27fb0	0.019836277
94	0x3d97cd61	0.0741222
95	0xbd8079ee	-0.06273256
96	0x3d8683bc	0.06568095
97	0x3e4e0879	0.2012042
98	0xbbf9e2ea	-0.007625927
99	0xbd14c8f8	-0.03632447
100	0x3c9f37bc	0.019435756
101	0x3d113e34	0.035459712
102	0xbd01639d	-0.03158914
103	0xbda1cc84	-0.079003364
104	0x3e188681	0.14895059
105	0x3d7f4860	0.06232488
106	0x3da97eb0	0.08276117
107	0xbe7c3a51	-0.24631621
108	0xbd68733e	-0.05675053
109	0x3a8b2400	0.0010615587
110	0xbca543bf	-0.020173905
111	0x3e0abcd9	0.13548602
112	0xbddefc2e	-0.10887943
113	0x3dfa2066	0.12213211
114	0x3e19c9a1	0.15018322
115	0x3e210fab	0.15728633
116	0xbdfa68fe	-0.12227057
117	0xbd79dd10	-0.061001837
118	0x3d0d6371	0.034518663
119	0xbddb2444	-0.107002765
120	0xbcfdfab6	-0.031003337
121	0xbc874b70	-0.016515464
122	0x3cb30204	0.021851547
123	0x3d3cfa9c	0.046137437
124	0xbd187ae2	-0.037226565
125	0x3d192971	0.037393037
126	0x3d92219e	0.07135318
127	0xbdd7ad63	-0.10531118
128	0x3d5c5a0f	0.053796824
129	0x3d4c6ad9	0.049906585
130	0xbb81183c	-0.0039396565
131	0x3dc603e8	0.09668714
132	0x3df2fb64	0.11864355
133	0x3c8eea08	0.01744558
134	0x3d805876	0.062668726
135	0x3ccc3f3e	0.0249325
136	0x3ddcf141	0.10788203
137	0x3df7adfe	0.12093733
138	0x3d5d9520	0.054097295
139	0xbb0c6abc	-0.0021425923
140	0x3d920479	0.07129759
141	0x3d285168	0.04109326
142	0x3e3d1bea	0.1846768
143	0xbd99d347	-0.07511001
144	0xbd70de46	-0.058805726
145	0xbdd9866f	-0.10621344
146	0x3df63d92	0.12023462
147	0x3dec233f	0.1153016
148	0x3d4efebd	0.050535906
149	0xbd9ed232	-0.07754935
150	0x3ceeb901	0.029140951
151	0xba93c900	-0.0011275113
152	0xbd2fee09	-0.042951617
153	0xbda42a82	-0.0801592
154	0xbe111dea	-0.14171568
155	0xbd33ff3b	-0.04394458
156	0xbd559fef	-0.052154478
157	0xbdf64961	-0.12025715
158	0xbdfafc4e	-0.122551546
159	0xbdef6e43	-0.11690953
160	0x3e14b8a4	0.1452356
161	0xbd9d0c74	-0.07668391
162	0x3df0615e	0.11737321
163	0x3c154e1c	0.009112861
164	0xbd8985c1	-0.06714965
165	0xbd580fe4	-0.05274953
166	0x3dc9f8ec	0.09861931
167	0x3daf1ca2	0.08550383
168	0x3e0b6533	0.13612823
169	0x3d407381	0.046985153
170	0xbd0b6430	-0.034031093
171	0xbe3210c1	-0.17389204
172	0xbde3edf7	-0.111293726
173	0x3d254fa4	0.040359154
174	0xbdcb002e	-0.09912144
175	0x3daf7df8	0.085689485
176	0x3d4a682b	0.04941575
177	0xbba1f913	-0.004943022
178	0x3e0ae27c	0.1356296
179	0xbd971fb2	-0.07379092
180	0x3d5fa4e8	0.054600626
181	0x3cb1a3d8	0.021684572
182	0xbddaaefb	-0.10677906
183	0x3d829ad6	0.06377189
184	0xbde049e7	-0.10951596
185	0xbd0a8b5f	-0.03382432
186	0x3c9d3a4f	0.019192843
187	0xbdb0ba9f	-0.08629345
188	0xbdc4c128	-0.09607154
189	0xbda5d287	-0.080967955
190	0x3d3a3a06	0.04546549
191	0xbd54b0d3	-0.051926445
192	0x3dcbd627	0.09952956
193	0xbd59e08c	-0.05319266
194	0x3e2c1818	0.16806066
195	0x3de44719	0.11146373
196	0xbdfee272	-0.12445535
197	0x3d570a20	0.05249989
198	0x3bf95bd8	0.0076098256
199	0xbda7984e	-0.08183347
200	0x3e418af7	0.18900667
201	0xbd86988f	-0.06572067
202	0x3d8fe604	0.07026294
203	0xbcb40b4c	-0.021978043
204	0x3d959017	0.073028736
205	0x3d7ed3d0	0.06221372
206	0x3dff64b8	0.124703825
207	0x3cc01bd8	0.023450777
208	0xbd68d800	-0.05684662
209	0xbdbf4c20	-0.093406916
210	0xbafe9280	-0.0019422323
211	0xbd2c7550	-0.042104065
212	0x3d39faec	0.045405313
213	0xbdc6473a	-0.09681554
214	0x3d24b89e	0.040215127
215	0x3dfb2b32	0.12264098
216	0xbd0b635e	-0.03403031
217	0xbce1dccc	-0.027571104
218	0xbda39c37	-0.0798878
219	0x3d87f080	0.066376686
220	0xbd3177f5	-0.04332729
221	0xbd0be9b7	-0.034158435
222	0x3d77d8fb	0.060509663
223	0xbc1a9eb5	-0.009437253
224	0xb9f6828d	-0.00047018044
225	0x3d8d8da3	0.06911781
226	0xbcbb84a6	-0.0228904
227	0xbd28589d	-0.041100133
228	0x3d735624	0.059408322
229	0x3df7320c	0.120700926
230	0xbde6dcdc	-0.11272594
231	0x3d2ed180	0.042680264
232	0x3e3550de	0.1770663
233	0x3d420a6b	0.047373217
234	0xbdaaad2a	-0.0833381
235	0xbdeb225b	-0.11481162
236	0x3c52a9e4	0.012857888
237	0xbd34b570	-0.044118345
238	0x3dbd8e59	0.09255666
239	0x3d3a648c	0.045506045
240	0x3dca36bf	0.09873723
241	0xbdc5c0c6	-0.09655909
242	0x3d31dbcd	0.04342251
243	0x3ccc4901	0.024937155
244	0x3da2c526	0.07947759
245	0x3c384000	0.011245728
246	0xba9989e2	-0.0011714066
247	0xbdb9ee40	-0.09078646
248	0xbd115e24	-0.03549017
249	0x3b98e2f8	0.0046657287
250	0x3dcd401f	0.10021996
251	0xbdbcc919	-0.09218044
252	0x3d92f9f2	0.071765795
253	0x3dc1c1a8	0.09460765
254	0x3ded7acc	0.11595687
255	0xbd13ea48	-0.0361121

fc2.bias f4 [5]
0	0xbcccfb58	-0.025022194
1	0xbda3230e	-0.079656705
2	0xbccb6511	-0.024828466
3	0x3ddfdc3f	0.109306805
4	0xbd4d0069	-0.05004922
