IQL_CNN_tiny/agent3_81.pth (torch, 745108 bytes, 10 tensors)

c1.weight f4 [32, 8, 3, 3]
00000000: 8d0e 7dbb 4a79 36bd f754 08be fdec ac3a
00000010: a82f b13c 4078 0cbe 2f01 b53d bf26 fdbd
00000020: ddd7 8dbd b2bc 7d3b 60fa 6abc 8cf6 4f3e
00000030: b0c7 bc3d f7a8 453e 6c1d 4f3e c04e 913d
00000040: 5189 1dbe 9aa6 5fbe 29d7 cdbd 7008 dbbd
00000050: 079b afbd 3e6e 193b 01ff 033c 685b 4c3c
00000060: a07a 223b e40e b4bd 38b9 543d b6a8 d73d
00000070: c9c6 a73d d5d2 c5bd 7456 6d3d ec92 dabd
00000080: e038 943b 4b9a 693c 3c0c 99bc 06ab 06bd
00000090: 0b94 dd3c 0a53 a6bb 5a9d e93d c388 703e
000000a0: b866 2a3d 4bed 3f3e 4ac8 873d 6885 a9bc
000000b0: 687c fb3d 2731 06be 9fd1 6f3d 34bc 3cbb
000000c0: a95d 2ebc 90d1 fd3d 7109 febd 8871 8bbd
000000d0: af2a debd fa02 b03d 6ea5 163d a8a2 11be
000000e0: b890 4cbe 9566 5bbc 32fa aebd ed63 8dbe
000000f0: 4696 f93c d931 7c3d 7544 a6bd 2a1b 2fbe
00000100: 5f60 81be 06bb 90bc ecd2 02be f85b 7bbe
00000110: 84b5 b7bb f694 1b3e 8b4d 473d 52ac ac3d
00000120: 8a5f 9e3d 2285 ea3d f988 9dbd 707d 733a
00000130: 0d3d e83d 7db9 13be 51f7 463c 515f b63c
00000140: 5f59 273c 3a72 a0bd e9b0 dd3d 4bf2 c0bc
00000150: 970c 72be 6e2b 3fbe af2c 58be 66f7 643d
00000160: 8500 1e3d 97f1 70bc e406 70bc d802 423c
00000170: 7d0b 86bd 1210 6fbd ebf8 a3bc 3840 633d
00000180: f43a c9bd 98e0 ba3c d241 443c 5dd0 89bc
00000190: 28f6 09bd 893c 603d 20d7 a0bd 3272 ebbd
000001a0: 962d 043d d394 afbd ce44 213d f11d 993d
000001b0: d961 163e 4975 50be 7883 aabd b1a5 cf3d
000001c0: f322 0d3d 26c7 43bb 64d7 fd3d f56f 113e
000001d0: 01ea f03b f629 32bd e343 05be a803 5b3d
000001e0: b6e3 d5bd fa7f 07be 483f 2a3d 1e4c 373e
000001f0: 7a5e 143d 9379 ab3d 8c2b e4bd 6860 17bd
00000200: d2a4 823d 74e4 913c 4425 8bbd a572 083c
00000210: 31d9 063e f8f7 233e 121c 933d 3192 30bd
00000220: 8018 9f3c caad 51bd c6e0 1cbd befc dfbd
00000230: cdbc f2bd dca2 7cbd 81ae 33bd 5c23 54be
00000240: bec6 3e3d 7a78 e9bd d6bf 593d 776f 783d
00000250: 9712 aabd 65e9 cf3d 3e1d d03d 100d b3bd
00000260: fb45 723c 90ed 29be 93e7 29be eb18 90b8
00000270: 38f6 d2bd 6b8d d23d 0dfb 213c 0fd0 53be
00000280: 6598 47be c2b7 e3bd e363 623d a1d9 e33d
00000290: b42f 97bd c880 c2bd fd4b ecbc 4d70 c13d
000002a0: f759 b2bd 6f99 afbc 828b 22bd fb15 edbd
000002b0: e6c6 ee3d 8155 8f3c 8fcd 9b3d e5b1 923c
000002c0: ff12 6c3d d836 e6bc f917 f03d 093c 75bd
000002d0: b099 a63d e165 5f3d f0e4 093e 7e7f 903e
000002e0: fedf d53d e324 3c3d c795 243e dc6a 0e3d
000002f0: e318 2b3e 1f8d 753d 7a18 0cbd 2cfa 7bbc
00000300: 2c77 703d 5c64 023d 5ba0 b2bd 734c fcbd
00000310: 8179 993b 6d9c 1e3d 8242 a3bd 0f37 9abd
00000320: 1086 90bd b50a 7abe cc5e 42be 9b8c 90bd
00000330: 8774 263e 25d0 953d 664c 9c3d 3851 2abe
00000340: 9e60 e0bd 9c13 2abe 1636 7dbe 2c07 35be
00000350: 6a7b 6ebd 4442 59bd 6093 313c 4cb8 8cbc
00000360: 3303 5ebd 7cec e33b 2877 10be 669c 9cbd
00000370: c696 753d 39b5 403d e2df 6c3d c3fc ba3d
00000380: 585f 663d a798 d23d 7038 393d 78df e73c
00000390: 9bfc 0b3e 496d 4c3e 27d3 0cbe 0d4b 41be
000003a0: 6852 0d3e d960 f03d 1497 863c 204f 15bd
000003b0: 88b1 a13d a6d8 bdbd b843 61bd 3375 2e3d
000003c0: 479c e13b 5328 b93d 656b e7bd 3978 663d
000003d0: 20cf eabb 3031 fdbb 701d 133c 5d80 eb3d
000003e0: 1cdd 86bc 44c7 b23c 9722 b13d a311 eebd
000003f0: a8df 1a3e 90c8 333e 686f 9fbc 640d 113e
-0.003861341 -0.044549264 -0.13313662 0.0013193187 0.02162917 -0.13717747 0.088381164 -0.12360906
-0.06925938 0.0038717207 -0.014341921 0.20308894 0.09217775 0.19302736 0.20226067 0.070950985
-0.15384413 -0.21840897 -0.10050804 -0.10694969 -0.08574491 0.0023411657 0.008056403 0.012472965
0.0024792328 -0.08791903 0.05193445 0.10530226 0.08192212 -0.09659354 0.057943776 -0.106725544
0.0045233816 0.014257978 -0.018682592 -0.032877944 0.027048131 -0.005075817 0.114069656 0.2348967
0.041601866 0.18742864 0.06629999 -0.020693496 0.12279588 -0.13104688 0.05854952 -0.0028798701
-0.0106424475 0.123934865 -0.124041446 -0.06808764 -0.10847985 0.08594318 0.03677886 -0.14222205
-0.19977081 -0.013391157 -0.08543815 -0.276153 0.030467164 0.061570976 -0.08118526 -0.17100206
-0.25268838 -0.017667305 -0.12775773 -0.24546802 -0.005606355 0.15193543 0.048657935 0.08431305
0.077330664 0.11451174 -0.07692141 0.0009288406 0.113397695 -0.14426227 0.012143926 0.022262247
0.010214179 -0.07834287 0.108247586 -0.023553034 -0.23637615 -0.18668911 -0.21110795 0.0559
0.038574714 -0.014706037 -0.01465008 0.011841498 -0.0654516 -0.058364935 -0.020016154 0.055481166
-0.098256975 0.022812173 0.011978583 -0.016822988 -0.03368202 0.05474523 -0.07853532 -0.114963904
0.032270037 -0.08573308 0.039372258 0.07476414 0.14685763 -0.2035724 -0.08325857 0.10139025
0.03445716 -0.002987334 0.12394598 0.14202864 0.007352114 -0.04349705 -0.13014178 0.053470284
-0.10443823 -0.13232413 0.041564256 0.1790013 0.036222912 0.08372798 -0.111411184 -0.036957175
0.06379093 0.01780913 -0.06794217 0.008328115 0.1316879 0.16012561 0.07183088 -0.04310817
0.019420862 -0.05119113 -0.0383003 -0.109368786 -0.11852417 -0.061678752 -0.04386759 -0.20716614
0.046576254 -0.11399932 0.053161465 0.060653176 -0.08304327 0.10151938 0.101618275 -0.08742726
0.014787192 -0.16594529 -0.16592245 -6.8710964e-05 -0.10300869 0.102808796 0.009886515 -0.20684837
-0.19491728 -0.111190334 0.05527104 0.11125494 -0.073821455 -0.09497219 -0.028844828 0.09445248
-0.08708566 -0.021435468 -0.039683826 -0.11576458 0.116590306 0.017496826 0.076075666 0.017907092
0.057635304 -0.028102323 0.117233224 -0.059871707 0.08134782 0.05454052 0.13466239 0.2822227
0.10443114 0.045933615 0.1607276 0.034769878 0.16708712 0.059949037 -0.03420303 -0.01537947
0.0587074 0.03183399 -0.08721992 -0.12319269 0.004683674 0.038723398 -0.0797167 -0.07530033
-0.070568204 -0.24418147 -0.18981475 -0.07058068 0.16255389 0.07315091 0.07631759 -0.16632545
-0.10955928 -0.16609043 -0.24727663 -0.17678517 -0.058223166 -0.05304171 0.01083836 -0.017177723
-0.05420227 0.0069556814 -0.14107955 -0.07647018 0.059958242 0.047047827 0.0578307 0.09130242
0.05624327 0.102830224 0.04521984 0.0283048 0.1367058 0.19963564 -0.13752423 -0.18876286
0.13800967 0.11737222 0.016429462 -0.036452413 0.078951895 -0.09269838 -0.054996222 0.04259224
0.006885085 0.09040894 -0.11299781 0.056266997 -0.0071658045 -0.007726811 0.008979186 0.11499093
-0.016462855 0.021823533 0.086491756 -0.11624458 0.1512438 0.17556977 -0.019462302 0.14165264

c1.bias f4 [32]
00000000: 2225 ac3d 7cb6 583d 92c5 b03d a891 5d3c
00000010: 12b1 51bd 19e8 87bd bce8 e6bc c517 90bd
00000020: 99df 87bd b42a 88bd 84f3 18bc d2ae 81bd
00000030: ea4f c13c 3e26 e93c 7293 44bc 82e6 48bd
00000040: 5570 ce3d 6784 803d 84c2 403d 8965 463d
00000050: 55df d63d c269 8d3b fcd9 acbb f161 e23d
00000060: 875d 8339 2458 ef3d 3ee1 bd3c cafa c6bd
00000070: 9af3 39bd 17dd 2c3c 7fd4 c63d b02c b8bc
0.0840552 0.052908406 0.086314335 0.013523497 -0.051194258 -0.06636066 -0.028187148 -0.07035784
-0.06634445 -0.0664877 -0.009335402 -0.063321725 0.023597676 0.028460618 -0.011998044 -0.049047954
0.100800194 0.06275254 0.047060505 0.048436675 0.10491816 0.004315586 -0.005275009 0.11053837
0.0002505595 0.11686733 0.023178693 -0.09715803 -0.045398332 0.010550759 0.09708499 -0.022482246

c2.weight f4 [64, 32, 3, 3]
00000000: d586 9e3d 4fb4 a63c 3cc8 b33a 9699 8c3d
00000010: 4039 963c 6694 953c b4ab 9f3c 7c68 2d3d
00000020: 1afe 3dbd 59ee 29bd 91f5 cf3c a7b6 4fbd
00000030: b4ad 1e3d b420 be3c 2c71 6dbc 3963 173d
00000040: e815 4f3c c2c5 94bc 1534 b93c bfe7 b7bc
00000050: a2f1 063d 6ad9 813d b558 40bc 944a b93d
00000060: 21e2 31bc 4b59 b9ba 8d2b eb3c 1fc7 44bc
00000070: e763 babd a9f5 f7bd a6fa aebd cfc7 a8bd
00000080: 4585 10be b350 a0bd cb97 bf3a ef6d 203c
00000090: 30aa 43bc 6716 f6bd cd27 4ebe 9274 bebd
000000a0: f260 15be 7e91 01be 3677 bcbc 2c43 8d3d
000000b0: 9d50 233e 485a d5bc d798 2ebe 1f88 26be
000000c0: 3230 2bbd bafb bfbd bd71 2dbe 46fc 8abc
000000d0: bd2e 93bd b16e dfbd 38f8 be3d 55f2 16bd
000000e0: 3bf6 37bd 6ed3 973d 1cad 103e 8699 a23d
000000f0: a450 e63d 4567 f23d f5f9 3e3e 399b d33c
00000100: 0f55 43bd 0cee 2dbd 3c7e a8bd 5f3d 41bd
00000110: 3ed4 0fbe ed2a 46bd 2484 9e3b 4533 3abd
00000120: 69eb 59bd e4ec ddbc 7968 e63c 77de 39bd
00000130: d9f8 cebd e759 1abd bd39 d63c da1b 893d
00000140: 3b38 b33d 972c 83bc bf20 c93c 8542 a2bd
00000150: 874b 33bd 3e0f 1f3c d837 c5bd f650 3ebd
00000160: 807c ebbd 3e9a 08bd 5ee4 543c 4d63 23bd
00000170: ab7a 09bd 95a0 d5bd 31cf a5bc 8f74 23be
00000180: 0f8a 2a3d bf39 cd3c 5e6d e2bc 683b 0d3b
00000190: 1527 e4bc 08b4 dcbc 2f6e 0ebd 24e5 6bbd
000001a0: f0f5 68bd cef7 e4bd 46ed 7fbd 32b1 293d
000001b0: 1a4d 153d 9225 f83c a8cc c4bc e70e f13b
000001c0: d8f1 9d3c 2c1a 333a 6dde e73c 3864 593d
000001d0: 28c4 9f3d eccd 25bd 33d7 03bd 82d3 913c
000001e0: 4596 3e3d 93e0 c43d 7a04 793d 9412 173e
000001f0: 2366 273e 64d6 053e 5df3 753d d20d f43d
00000200: 2ad6 d83c 7e2f 053e 1ffb 803d afd5 953c
00000210: e146 e43d c9c7 e83d 8ee9 953d ce60 1e3d
00000220: ca6b c1bd 9b54 c9bd 6076 cfbd 3339 83bd
00000230: d9ae efbc 8263 53bd c628 4fbd 5fb4 19bd
00000240: 8214 59bd a796 603d b74c 06bc f1ae 9dbb
00000250: 615b 623d d364 643d 52e7 323d a29b 003d
00000260: df87 fcbb 5a50 bf3b f357 56bc 359e 263d
00000270: 8ff3 de3a 0adf 47bb 9cca eb3b 64c6 76bd
00000280: b2b4 a2bc 5e30 5b3d dc76 5c3d 6b35 20bc
00000290: a518 10bd c0eb 03bd 801a 1a3d a593 5abd
000002a0: c69d 413d 4c8f 203d 7c63 bbbc c2c0 95bc
000002b0: 1b10 3abc 067b 39bd 63ea 3d3d 4fa0 183d
000002c0: 0310 d33b 4c5c 7e3d a632 28bd 117a b1bd
000002d0: 3eb1 853d d176 9d3d 9f79 763d 0617 913c
000002e0: cdac ac3d 7a91 273d 5295 6e3c f27f 803c
000002f0: 4f58 d03d ae7e 8fbc 0a3d e339 c822 1fbd
00000300: 4ffd 29bd 2bc8 15bd 2908 fa3c deb6 683d
00000310: d2a1 bc3d 97ba a43d 5f88 b7bc d8f5 8bbd
00000320: 3301 f7bd 9005 75bc 8cb3 e2bd d4cf 21be
00000330: dd27 263d ed85 143d 0f3f 5239 7ce6 a03d
00000340: 66cc 09bd 313d 383c 85a9 ef3c 9086 04bd
00000350: cf7e 473d 449d 46bd 0880 923c 30f4 ad3b
00000360: 65fa ed3c adf0 333c 50c6 b43d b311 ebbc
00000370: dde5 7e3d d498 d93d 7ee4 023e b5d2 003e
00000380: af1c bb3d f0fc 063c 0d7b 683c 77d6 0f3d
00000390: 5bfc 6dbb ed0a f93c 960e 733c 9f93 1e3d
000003a0: bc73 3b3d 2381 6f3d b934 873d 4878 3e3b
000003b0: 1d7c a33b 0afd 883c 7ba2 b43d 81a1 fa3d
000003c0: 6aaa 1c3e 8597 1b3e 1edd 183e f60a 8abd
000003d0: ae66 36bd 03e1 d4bd a511 bc3c 8a8c b0bd
000003e0: d632 61bd f807 00be f86d 85bd 4a8b 5bbd
000003f0: a4d7 4b3d 15d5 9ebc bb82 1fbe 5bf1 35bd
0.07740561 0.02034965 0.0013716291 0.06865232 0.018337846 0.018259238 0.019491054 0.042335972
-0.04638491 -0.04148707 0.02538565 -0.0507113 0.038739875 0.023208953 -0.014492314 0.03695986
0.0126395 -0.018160705 0.022607842 -0.022449372 0.032945283 0.063402966 -0.011739899 0.09047428
-0.010857136 -0.0014140991 0.02870729 -0.012010365 -0.09101086 -0.12107403 -0.08543901 -0.082412355
-0.14113338 -0.07827892 0.0014617381 0.009791835 -0.011942431 -0.12015992 -0.2013237 -0.09299578
-0.14587763 -0.12653157 -0.023006063 0.06897578 0.1594872 -0.026044026 -0.17050491 -0.16262864
-0.04179401 -0.09374185 -0.16937919 -0.016965996 -0.07186649 -0.109097846 0.09324688 -0.0368522
-0.044912558 0.07413374 0.14128536 0.079394385 0.1124585 0.11836103 0.18650039 0.025830852
-0.04768854 -0.042463347 -0.08227202 -0.04717767 -0.14045808 -0.04838078 0.0048375297 -0.04545905
-0.05320302 -0.027090497 0.028125988 -0.045378175 -0.10106058 -0.037683394 0.026150579 0.066947654
0.087509595 -0.016012473 0.024551747 -0.07922844 -0.0437732 0.009708224 -0.09629792 -0.04646393
-0.11498356 -0.03335022 0.0129939 -0.039889622 -0.03356425 -0.10431019 -0.020240398 -0.15962432
0.04163557 0.02505195 -0.027640041 0.0021550301 -0.027850667 -0.026941314 -0.034773048 -0.057591572
-0.05687517 -0.111800775 -0.06248214 0.041428752 0.036450483 0.030291352 -0.024023369 0.007356513
0.01928036 0.0006832208 0.028304303 0.05307409 0.07801086 -0.040479586 -0.03218765 0.01780105
0.046530027 0.09613147 0.060795285 0.1475318 0.16347556 0.13070065 0.060046542 0.119166985
0.026469309 0.13006398 0.062978975 0.018290369 0.111463316 0.11366231 0.07319938 0.03866654
-0.09444387 -0.0983059 -0.1013 -0.06407394 -0.029258179 -0.05160857 -0.050575994 -0.03752553
-0.052998073 0.054831173 -0.008197001 -0.0048121144 0.055262927 0.055760216 0.043677635 0.031398423
-0.007706627 0.005838436 -0.013082492 0.04067822 0.0017009842 -0.0030497932 0.007195784 -0.060247794
-0.019861553 0.053512923 0.05382429 -0.009778361 -0.035179753 -0.03220725 0.03762293 -0.05336346
0.047269605 0.03919916 -0.022874586 -0.01828039 -0.011356379 -0.04528334 0.046366107 0.037262257
0.0064411177 0.06209974 -0.041063927 -0.086658604 0.06527947 0.07688678 0.06017458 0.017711174
0.08431397 0.04091022 0.014561968 0.01568601 0.101730935 -0.01751646 0.00043342292 -0.03885153
-0.04150134 -0.03656785 0.03052147 0.05681502 0.09210552 0.08043402 -0.022403894 -0.06834
-0.120607756 -0.0149549395 -0.11069402 -0.15801936 0.04056536 0.036260534 0.00020050652 0.078564614
-0.033642195 0.011245058 0.029255638 -0.03235489 0.04870492 -0.048489824 0.017883316 0.0053086504
0.029050061 0.010982675 0.088268876 -0.028694963 0.062230933 0.10624853 0.12782475 0.12580378
0.0913633 0.008239016 0.014189494 0.03511664 -0.0036313746 0.030400718 0.0148350205 0.038715
0.04576467 0.058472764 0.06601853 0.0029063392 0.0049891607 0.01672222 0.08820053 0.12237836
0.15299383 0.15194519 0.149281 -0.06740372 -0.044531517 -0.1039448 0.022957632 -0.08620556
-0.05498012 -0.1250304 -0.065151155 -0.053599633 0.049766198 -0.019388715 -0.15577213 -0.044419628

c2.bias f4 [64]
00000000: ebc7 2e3d f3e5 bf3b b925 893d 6ef9 25bd
00000010: e28e 453c b80c 0f3d f87f 98bb 5dad a5bb
00000020: b916 6dbd a725 8fbc 4067 8bbc 0534 15bd
00000030: 0492 f3bb ddcb 703d c2d5 02bd b996 803c
00000040: e320 38bd 43d2 b0ba 3702 16bd 5afd 86bb
00000050: 9234 ce3c 5df2 05bd 066f 833d d8cb 553d
00000060: 987f 213d aadb 6bbd 4d74 6f3d 2e2e 86bb
00000070: 4755 57bd 29db 61bc 5a53 ad3c 3b41 17bd
00000080: 768a 13bc 8ae4 18bd 90ea 7abd 96d9 083d
00000090: 7054 11bd 4c52 273d f971 e3bc 4531 61bd
000000a0: a84c f53c e193 74bd 7158 aabc 9989 403d
000000b0: d82a 61bd 4c31 933b 2088 3dbd 049e 40bc
000000c0: 7614 7d3d db24 103d 952a 8e3c 99d4 f63c
000000d0: 6962 7e3d 443b 8d3d 86a9 a9bc ccc6 42bd
000000e0: 05e4 8b39 feac a3bd 3163 1e3c 908f e9bc
000000f0: 4870 6fbc 0dbc 143d fb85 e5bc 05b0 253d
0.042671125 0.0058562695 0.06696648 -0.040521078 0.012057992 0.03492424 -0.004653927 -0.005056067
-0.057883 -0.017474009 -0.017017007 -0.036426563 -0.007433178 0.05878817 -0.031942137 0.01569687
-0.04495324 -0.0013490397 -0.036623206 -0.0041195573 0.025171552 -0.03270184 0.064176604 0.052196354
0.039428324 -0.057582535 0.058460522 -0.0040948605 -0.05257156 -0.013785162 0.02115791 -0.036927443
-0.00900518 -0.037327327 -0.061258852 0.03341063 -0.035480917 0.04084997 -0.027764307 -0.054978628
0.02994378 -0.05971134 -0.020794125 0.047006223 -0.0549725 0.0044919606 -0.046272397 -0.011756424
0.06178709 0.035191398 0.01735429 0.030130671 0.06210557 0.0689607 -0.020710718 -0.04755287
0.00026682034 -0.0799198 0.009667204 -0.028510839 -0.014614172 0.03631215 -0.028017988 0.04045107

c3.weight f4 [256, 64, 3, 3]
00000000: a61b 143d c678 cebc c0b8 a0bc 0446 9cba
00000010: 9f85 f9bb c6cf 10bb 1cec 0a3a 1c9d f13b
00000020: 9ba8 15bd ed68 843b 683b cd3b 2038 543c
00000030: 8ed8 adbc 758e 173d 2176 863c 072b 96bc
00000040: 21e4 a7bb ff10 88bc 684a b93d 9604 9f3d
00000050: d495 4e3d 11f1 a43d fbcc a13c 8b7b 7e3c
00000060: 2bca 003d a632 9b3d 7330 863d 3a7c 6d3d
00000070: 0513 713d d0cc e6bb c0fb 343d d261 4b3d
00000080: bba7 833c ba1b 783d 22fe 503d e0b5 893d
00000090: 7199 353d 246c 173d e41d b3bc c062 e73b
000000a0: cae7 323d e1fe 363d f791 e73c 0683 393a
000000b0: 2aa5 fcbc aa71 a93c 924b 45bb b698 cfbc
000000c0: 3941 1b3d 0dc7 163d bc87 88bb 0079 b9bc
000000d0: a728 3d3d d4b2 3ebc 96e3 b0bc 05c1 363d
000000e0: f3ac 1ebd 2392 9cbc 7a81 44bb 2614 1a3c
000000f0: b9f6 ef3c 7a11 a6bc 8cb9 d03c 85dc cb3c
00000100: 8fb3 913b 1aff 1b3d 0f38 043d 929a 8d3c
00000110: e84b 193c eb8a 1ebd 5b67 9ebb 9846 16bd
00000120: 62ac 473d b269 f33d 02e0 de3d b5da 913d
00000130: afb3 6e3d 8c68 df3d 3c0a c93d ad2d bf3d
00000140: 5e1a f03d c17c bd3d 602d 9d3d 7f95 c53d
00000150: e1cf aa3d 2eed bd3d 3c8b d03d 1557 b53d
00000160: 3100 c33d eaa7 723d b025 5e3c b0c3 933c
00000170: 56ef d03c a795 783d eda1 86ba c2d1 ac3a
00000180: 132f 113d 1313 753b 4a93 8b3c c263 8d3d
00000190: 7160 1d3d 3eb8 813d 7683 923c 6e7b 7d3c
000001a0: c9a2 293d 5682 333d 065e 3f3d f8da 873d
000001b0: 6603 623d ddd2 713d 5e13 b03d 0d7b f03d
000001c0: 9e23 963d 15de dc3d 222d a53d 5be6 623d
000001d0: 2bd9 d73d 8af1 063c ab13 8b3d 8a0f 6bba
000001e0: dc43 223d fc64 973c 7416 543d b844 8d3d
000001f0: 79c1 1e3d 160a 503d c8c9 36bd d05a 0fbc
00000200: 026b 75bd e6a3 0ebd ba39 4cbc 0f9e a3bd
00000210: ef75 06bd cefa adbd 0a58 d0bc 9d4b 093e
00000220: e52b e03d fa9f db3d ab50 273e f783 ef3d
00000230: b979 0e3e 1feb 303e cdd6 2f3e 59a5 123e
00000240: 6d5c 163d cfdb 4b3b 4558 143d 4854 0b3d
00000250: a761 2a3c c63b 813d 0923 b43d 6630 893d
00000260: 29f7 133d fb49 d4bc 4e39 653c 2ff9 e3bc
00000270: 0f03 c0bc 44c1 28bd 1d32 31bd 5d1d 48bc
00000280: 7115 473c 1f1f 6cbb f079 643c d16b 82ba
00000290: c17f 18bc 2b64 96bb e801 0c3d 9f4f dbbc
000002a0: b070 d23c 05ae c33b 5ec4 5fbd 68c8 e93d
000002b0: 91bb 7d3d ffa5 6c3d a0b0 153e de7a df3d
000002c0: 040f 9e3d 8790 113e 1011 fb3d aa23 ae3d
000002d0: 02df 333e abd2 0c3e 6c5e 093e 9b1b 3a3e
000002e0: ae65 223e 3603 373e 762e 273e 6200 1b3e
000002f0: 8ffc 333e 4bf5 353d e2b2 273d 7931 f73d
00000300: fb38 ac3d d0c8 6d3d 67ff ce3d 2ae7 823d
00000310: 065c b43d 32f9 c93d 3910 393c 4b4c 2f3d
00000320: 3009 573d a364 2bbc aa6e 9ebc 56c5 5c3d
00000330: b29d 363c b954 343c 3014 4b3c 7d3e 303d
00000340: abcb 853d 5689 5b3d b04c 9f3c 8481 8c3d
00000350: f3ef 1d3d b847 b53c 74ae 943d 6947 983d
00000360: b311 02bd ce71 783c daf2 0dbc d2dc 11bd
00000370: 9138 7fbc c5c5 c23c f32c 1cbc 6944 9f3a
00000380: 34bd 16bd 92e7 d63c 4743 943d 5a4c 5f3d
00000390: 8b60 6a3d db74 7c3c cb6e 633d 44c4 803d
000003a0: f4f1 9c3d 0aab 9e3d b996 803d e5a1 963b
000003b0: aaff 7d3a c831 4c3d dbae 463d 04cf 3f3d
000003c0: 1caa 703c b040 b63a b313 63bc 3bbf c53d
000003d0: 48ed 813d 8d59 2d3d ca24 b23d 80b8 e03d
000003e0: 169b 9b3d 571c 883d 3f86 aa3d ec98 e03c
000003f0: 194a 2f3d 4cce 503d 8555 543d 317b 543d
0.03615918 -0.025204074 -0.019619346 -0.0011922722 -0.007614806 -0.00220965 0.0005299465 0.007373465
-0.036537748 0.0040408284 0.0062631853 0.012952834 -0.021221425 0.037001092 0.01641375 -0.018331064
-0.0051236306 -0.016609667 0.09047395 0.077645466 0.050435856 0.08053792 0.019751063 0.015532385
0.031442802 0.0757802 0.0655221 0.0579798 0.05885603 -0.0070434585 0.0441854 0.049653836
0.016071191 0.060573317 0.05102361 0.06724143 0.044335786 0.036968365 -0.021864839 0.0070613325
0.043678083 0.044676665 0.028267844 0.0007076714 -0.030840475 0.020684082 -0.0030104858 -0.025341373
0.037903998 0.036810923 -0.0041665714 -0.022640705 0.046181347 -0.011639316 -0.021592896 0.04461767
-0.038739156 -0.019112652 -0.00299844 0.009404218 0.029292451 -0.020272005 0.0254791 0.024885425
0.004446454 0.03808508 0.032280024 0.017285619 0.009356476 -0.0387067 -0.0048340983 -0.036688417
0.04874838 0.11885394 0.1088257 0.07121793 0.05827683 0.109086126 0.09816405 0.09334884
0.11723779 0.092523105 0.0767467 0.09647655 0.08340431 0.09273754 0.10182807 0.088545
0.09521521 0.059242167 0.01355879 0.018037647 0.02550475 0.060689595 -0.0010271646 0.0013185071
0.035445284 0.0037395402 0.017038006 0.06903793 0.03842205 0.063339695 0.017884951 0.015471322
0.04141501 0.04382547 0.046720527 0.06633562 0.055179022 0.059038986 0.08597444 0.1174222
0.07331012 0.10784546 0.08065249 0.055395465 0.105394684 0.008236298 0.06790861 -0.0008966854
0.039615497 0.01848077 0.051779225 0.06897873 0.03875873 0.05079087 -0.044626027 -0.008749679
-0.059916504 -0.034824274 -0.012464935 -0.07989132 -0.032827314 -0.08495103 -0.025432605 0.1340775
0.10945872 0.107238725 0.16339366 0.11695092 0.13913621 0.17277192 0.17171784 0.14320888
0.036709238 0.0031106358 0.036216993 0.034015924 0.010399259 0.06310229 0.08795745 0.066986844
0.036124382 -0.025914183 0.013990713 -0.027828781 -0.023438958 -0.041199937 -0.043260682 -0.012214032
0.012151108 -0.0036029292 0.013945088 -0.0009950345 -0.009307803 -0.0045895777 0.034181505 -0.026771365
0.0256885 0.0059716725 -0.05463063 0.114151776 0.061946455 0.057775494 0.14618158 0.10912107
0.07717708 0.14215289 0.12259114 0.08502896 0.1756554 0.13752238 0.13414925 0.18174593
0.158591 0.17872319 0.16326317 0.15136865 0.17576812 0.044423383 0.04094208 0.12069983
0.08409306 0.058052838 0.10107308 0.06391747 0.088066146 0.09861983 0.011295372 0.042797368
0.052498996 -0.010461005 -0.019339878 0.05389913 0.011145996 0.011006528 0.01239495 0.043028343
0.06532987 0.05359777 0.019445747 0.06860641 0.03855891 0.022128925 0.07259837 0.074354954
-0.03175516 0.015163852 -0.008663857 -0.03561098 -0.015577451 0.023775944 -0.009532201 0.0012151125
-0.036801532 0.026233468 0.07239395 0.054516174 0.057220977 0.01540872 0.055525582 0.06287435
0.076633364 0.07747467 0.06278748 0.004596936 0.0009689281 0.049852163 0.0485066 0.046828285
0.014688995 0.0013904776 -0.013859677 0.09655615 0.06344086 0.04232173 0.08698423 0.109726906
0.0759794 0.066460304 0.08326387 0.027416669 0.042795274 0.05097799 0.05183937 0.051875297

c3.bias f4 [256]
00000000: 323c bc3c 5250 143d 6a5d 0e3c a482 ee3b
00000010: 1276 e63b 1bda 423c f3c4 6a3c ba63 093d
00000020: c217 6e3b a428 963c 60b5 04bd 5130 c8bc
00000030: 0b5d 083b ecec 093d 88f1 ffba 15a5 8d3d
00000040: a7b6 413d 18e1 d2bc 474e eb3c afe4 73bc
00000050: dcbf 2abd cc12 8139 96d6 00bd b811 b6bc
00000060: 3ce5 2a3d 35ad b4bc 47ee 5dbd 2eee cb3c
00000070: 3f2c 453d 6adb d3b9 25c7 19bd 36f6 613d
00000080: 6cbe 363d 952b bdbc 72c8 27ba 01ba 633c
00000090: 1f6b 20bd 50ab ea3a ed3e a7bc 674b 853d
000000a0: b202 aabc c4a6 563c c3ac debc 368b 43bc
000000b0: 280a 06bd c2d6 25bb 7747 913c e9cf c0b9
000000c0: f152 e7bc 2a0f c4bc f5cc 5dbc 8706 5abd
000000d0: 8a2d 4cbd a96e a83c 1296 ef3c 7cd1 2cbd
000000e0: 4fa2 48bd b76b f13c cfef 9b3c bd9e 91bc
000000f0: 456a 6cbd 6e6a a13c 04a8 3abc 9040 de3c
00000100: 11ba f9bc b066 243d 0198 afbc 6029 d5bb
00000110: 9767 62bc 4654 27bd bdab d6b9 41db e1bc
00000120: 3966 f1bc b57f eb3a 8ac1 583c df9b 0fbc
00000130: 3558 033d 0749 4c3c 802a a6bc 0fef 86bc
00000140: f6ee a8bc bfd6 ba3c 2fb9 6dbc 1b95 2cbb
00000150: 8a72 13bd a67d 623d 3bbc 363d 7642 fd3c
00000160: 40f9 11bd 4454 2fbd 007d 0cbd 522d 25bd
00000170: 09ac 45bc e551 3fbd e91d 893d fe91 b53a
00000180: 9f71 ae3d c80c b23c 5e0e 05bd 44ce cc3b
00000190: 0024 c3bb 63bc 2bbd f61d f73c 0646 07bd
000001a0: 32bf d53c 242f ed3b af6f fbba 605a 06bd
000001b0: 0f06 2abc 9c42 1c3d 902a 12bd 1ee5 8fbc
000001c0: 0595 f03b f010 e1bc 3a92 96bc 92ea 173c
000001d0: 9b46 ac3c 60a5 083b 900b 413d 5707 c63b
000001e0: 298c c9bc 0784 fdbc e651 66bc 3235 023d
000001f0: 1a47 783c f23a b3bc 9018 f5bc d1aa 18bd
00000200: a44f 2bbd 5544 743d 31eb f83c 7a74 56bb
00000210: c88f d5bc b677 383c 8b5d 963c 8abd e6bc
00000220: 6f43 0dbc 14a1 acbb 3247 22bc 22aa d83c
00000230: 69d8 2ebc b524 19bd 9829 763c 01a7 d43c
00000240: c7da 0bbc fda6 053c d5de 87b9 818b 1d3d
00000250: 6325 3abb fff2 bebc c683 58bc 42f7 c23d
00000260: e302 90bc b0d5 283c f53f 693b 765e 39bd
00000270: 9cb7 ac3c 484f 0dbd fd56 f8bc f927 ff3c
00000280: 6658 29bd 37cb 733d dda5 12bd 5f6e d7bc
00000290: 55eb 7dbc be6e 283c 8bea 37bd 17ba 703d
000002a0: 2dcc 1e3d 6653 91bc 8a0e 0c3b 2c7f ce3c
000002b0: 8a73 353d 0cb3 013c 5f6a ab3c 9011 2abd
000002c0: 0c4f b4bc 0bc2 a6bc 90cc 72bd 7f59 2c3d
000002d0: 5e13 71bc 6c26 433b 39c2 63ba 32af 193d
000002e0: 3588 3e3d a304 9c3d 1cd0 a33c 20f3 09bc
000002f0: 4ce8 d1bc 9c00 0b3c 0417 0e3d 1b2d 893c
00000300: 1371 a8bc 1a07 2bbd edf7 673d 0297 e13c
00000310: b647 debc fbe9 ef3c 135d a03c 6c32 223c
00000320: c7b1 a1bb 5a5a f9bc 1ab5 4abd 7506 5bbc
00000330: d9bd 0a3d 92ea 873d 2259 e4bc 0827 40bd
00000340: 64c1 593d a2f8 8a3c f0f0 9e3c 8848 40bc
00000350: a9a3 08bd cc0b 40bd a46e 2f3c d5f3 c2ba
00000360: 0628 533d 1c54 843b 6e18 8bbc 1ba1 1a3c
00000370: 13b3 22bd a1e8 31bd daf5 aebb cfca 8a3c
00000380: 792d dd3a 24c3 2bbc e97f 713d 498a 633d
00000390: 3a5e 24bc 8804 e3bb 04bb 3c3d 91f9 7abd
000003a0: 1ed2 eb3c b613 b63b 0bfb 78bc 1907 493d
000003b0: 5801 243b 2759 243c d08b 8b3c 3c31 77bc
000003c0: 2815 353d e877 c5bc db60 8c3c 9403 d93c
000003d0: 0a79 c6bc e1bb 573d db3a 11bd 195d 76bd
000003e0: 89cc 3c3d 8c0d 003d 0ef5 b7bb 89ad 7bba
000003f0: c365 4fbd 55db 9f3c 6a41 1abd de53 393d
0.022977922 0.036209412 0.008689264 0.007278757 0.007033118 0.011892821 0.014329183 0.033542372
0.0036330079 0.018329926 -0.032399535 -0.024437102 0.002080741 0.033673212 -0.0019526938 0.069162525
0.04729333 -0.025742099 0.028723849 -0.014886065 -0.041686878 0.00024618802 -0.031454645 -0.022225246
0.04172252 -0.022055248 -0.054182317 0.024893846 0.0481379 -0.00040408532 -0.037543435 0.055166446
0.044615194 -0.02309207 -0.0006400413 0.013899327 -0.03916466 0.0017903838 -0.020415748 0.065085225
-0.020753238 0.013101283 -0.027181989 -0.011935046 -0.03272453 -0.0025305008 0.017734272 -0.00036776
-0.028237792 -0.023933012 -0.013537635 -0.05322888 -0.049848117 0.02056058 0.029246364 -0.042191967
-0.048982915 0.029470308 0.019035248 -0.017775888 -0.057718534 0.01970407 -0.011392597 0.027130395
-0.030484231 0.040136993 -0.021434786 -0.0065051764 -0.013818643 -0.040851854 -0.00040945216 -0.027570369
-0.029467689 0.0017967137 0.013229737 -0.00876519 0.032066543 0.012468583 -0.020283937 -0.016471414
-0.020621758 0.022807477 -0.014509483 -0.002633399 -0.035997905 0.05529561 0.044613104 0.03091548
-0.035638094 -0.04280497 -0.034298897 -0.040326424 -0.012064942 -0.04670896 0.06695158 0.0013852713
0.08517765 0.02173461 -0.032484405 0.0062501747 -0.0059552193 -0.041927706 0.030165654 -0.033025764
0.026092146 0.0072382856 -0.0019183065 -0.032801032 -0.010377421 0.03814946 -0.035685122 -0.017565306
0.0073419833 -0.027473897 -0.018380273 0.0092722345 0.021029761 0.0020850524 0.047130167 0.0060433554
-0.024602966 -0.030946745 -0.014057612 0.031789012 0.015153671 -0.021878693 -0.029918939 -0.03727228
-0.041823998 0.05963548 0.030385586 -0.0032723234 -0.026069537 0.01125901 0.018355152 -0.028166551
-0.008622034 -0.0052682254 -0.00990467 0.026448313 -0.010671713 -0.037388522 0.015024565 0.02595854
-0.008536047 0.008157489 -0.0002591523 0.03846312 -0.0028403632 -0.023309229 -0.013215011 0.09519817
-0.017579501 0.010304853 0.00355911 -0.0452561 0.021083646 -0.034499437 -0.030314917 0.03114699
-0.04134407 0.059519973 -0.03580271 -0.026297746 -0.015498002 0.010280309 -0.044901412 0.05877122
0.038768936 -0.017739963 0.002137097 0.025207125 0.04429964 0.007916223 0.020924745 -0.041520655
-0.022010349 -0.020356199 -0.059277117 0.042077538 -0.01471409 0.002977754 -0.0008688304 0.037520595
0.046516616 0.07618072 0.019996695 -0.008419782 -0.025623463 0.008484032 0.03468992 0.01674514
-0.02056173 -0.04175482 0.056632925 0.027537826 -0.027133804 0.029286375 0.019575631 0.009899717
-0.004934523 -0.03043859 -0.04948912 -0.013368239 0.03387246 0.066365376 -0.027874533 -0.046912223
0.053162947 0.01696426 0.019401997 -0.011736043 -0.033359203 -0.04688625 0.010707531 -0.0014873693
0.05155184 0.004038347 -0.016979422 0.009437825 -0.03972156 -0.043434743 -0.0053393664 0.01694241
0.0016874514 -0.010483537 0.058959875 0.0555518 -0.010032231 -0.0069280304 0.04607679 -0.06127316
0.028786715 0.005556549 -0.015196572 0.049079034 0.0025025215 0.010031021 0.017034441 -0.015087422
0.04420963 -0.024105027 0.017136028 0.026490964 -0.024227638 0.05266941 -0.03545652 -0.06014738
0.046093497 0.03126292 -0.0056139296 -0.0009600749 -0.050634157 0.019513765 -0.03766004 0.045245998

fc1.weight f4 [64, 256]
00000000: 3f47 833d 5bd9 a73d df9d 863d 05cd 19bd
00000010: 01f2 3fba 1251 19be d389 983d 9c76 21bd
00000020: d54d 91bd 6b70 19be e47f 81bd cdff 25be
00000030: 81a5 3a3b 5f98 96bd 9a15 a4bd 956a fabd
00000040: 756d 8d3a 6410 cabd 7e83 a53d d8fd dabc
00000050: 15df fd3c a734 93bd d3b0 f23c 8f9c 623d
00000060: a2b2 d0bd 0f78 0fbe a8d6 e83d d36c 59bd
00000070: abdc 7e3d d6be b9bc 1305 36bc 6dec d93c
00000080: bc76 72bc 4ea6 353d a1b3 a5bc e3c1 b5bc
00000090: 9ee7 bebc 7615 f13c 8f70 2e3d 7eec 823d
000000a0: 2d80 0abe ebd5 a2bd aa7e 9a3d c2d2 8b3e
000000b0: 3a02 12bd e322 05be b0ac b43d 711a b03a
000000c0: d5a4 6bbd d358 06bd 32a0 5fbc fcb3 ec3d
000000d0: b6eb a5bd 0576 52bc cd2d bebd 0245 b1bb
000000e0: c8a4 2dbd 8341 123d f768 453d 38c8 a7bd
000000f0: 6c8b e23b ce4a dcbd 30a5 c63c 0ccb 3ebd
00000100: 0646 853c 8175 13be 02d7 72bd d5a3 1f3d
00000110: 1fff 0bbe 633e 65bd 067c 6abd c6cc 39bd
00000120: 9cd4 3b3c feab a03d b99d af3c 140a 843d
00000130: 339f 083d 4b08 fb3c 7324 edbb adf5 ef3b
00000140: 298f 1bbe 8f79 1c3e b08a 23bb d409 41bb
00000150: cc66 553d ef9b b43d 969a 323d 9b78 f43d
00000160: 8f51 213d dd5a 76bc 9b80 a7bd cf4d c9bd
00000170: b33b a9bd 23e3 9ebd 91e3 b5bd 2b6d 80bc
00000180: 9f10 713e fa60 42be 2443 443d a91a 613d
00000190: 25ee 1c3d e5ff 31be 755c 043e 6e48 403d
000001a0: 3b68 91bd 8594 3e3e 3c72 823c 66ce 9cbc
000001b0: ec27 ffbc 5c39 463c a811 313a 705b c5bd
000001c0: 06c1 59be 9ef2 8b3d 7293 60bd a3bd 473d
000001d0: 02ea e03d 84ca 41bd b057 e93d 0181 523d
000001e0: d183 1cbd da4e 65bd 7643 a13d 425a a13c
000001f0: 7ba5 06bd efad 44bd 8487 22bc d4f0 613c
00000200: b130 6b3d 30ff de3d 6756 d9bd 803c 0ebe
00000210: 8ebe e6bd 62a6 bdbb d164 403c af1f 95bd
00000220: ede7 763d 8a37 fd3d ed8d dcbc eee8 103d
00000230: 65d6 18be 7201 f1bc d061 653d 7f08 1fbd
00000240: afaf 5d3c f1a2 5bbc acfd 04bd 2cc2 3d3d
00000250: 3011 1c3e f3eb 423e 9fe7 ae3e 284b 3a3e
00000260: 6930 b5ba 163e a4bd 7584 59bd a182 03be
00000270: ef87 743d 7374 f2bd 1a27 173e 74c8 4abb
00000280: 1e39 77bb 0128 e93d 4cbf ef3b 3ebe d0bb
00000290: 9a77 52bd dabd a8bd 03ca 023e 642f cd3d
000002a0: 9c10 ba3c 724a c9bc 94c5 1a3e 739e f6bc
000002b0: d566 ad3d f62d c0bc b19c e3ba 19a4 e0bd
000002c0: b684 2ebd d20c 02bd 6a4e 01be b1f7 113d
000002d0: 93b3 253c 9157 9abd 092d ecbc 0615 bb3d
000002e0: a051 e33d aa5d 6b3d 5308 3bbd c5c8 61bd
000002f0: 332d 1a3d 6a4d 733e 2905 bd3d 790f 7e3d
00000300: d269 053d 2c70 18be f50f a7bd 47a7 44be
00000310: 7b48 debd b947 633d 7d98 48bc ff75 1abd
00000320: cc7b fabd f0f0 a6bc c0a5 74bc 1fc5 f4bc
00000330: 61e9 76bc e851 bb3d 8dcb 81bd 3faa 21bd
00000340: ed8d 473d 840a 2abc 805c 44bd 24df 593d
00000350: 4e23 f5bc 0e44 4b3b a9a8 edbd d136 43bb
00000360: 4851 833d db35 e1bd eec9 093e 483d 963d
00000370: 3ee0 cabd 5534 aebc 004d b03d 122c d0bc
00000380: 180c 49bd 069d 803c 15d4 bbbd f55f dcbd
00000390: c7b5 8cbd ccc5 d63c 0191 143e b334 dcbb
000003a0: 1b60 ffbd 0beb 4b3d c1b4 093e b8c9 d5bb
000003b0: 7cb8 71bc 2fb4 e0bd 28a8 543d 6ebd d33c
000003c0: a452 34bc 61e1 d43d b73b f3bc f7ff 993d
000003d0: 894d adbd ca1f d2bd 7e42 333e 78f5 803e
000003e0: 7759 e23d 520e a43d 86cf 99bc 8b44 353d
000003f0: 4352 77bd 8ec0 04bd 4549 1d3d f50b ef3c
0.064100735 0.08195754 0.0657308 -0.037549037 -0.0007322133 -0.14972332 0.07448163 -0.039419755
-0.070949234 -0.1498429 -0.06323221 -0.16210862 0.0028479996 -0.07353281 -0.08011933 -0.1222736
0.0010790067 -0.098664075 0.08081721 -0.02673237 0.030990163 -0.07187777 0.029625332 0.055325087
-0.101903215 -0.14010642 0.113690674 -0.0530823 0.062222164 -0.022674005 -0.011109608 0.026601994
-0.014798816 0.044348054 -0.020227255 -0.022187179 -0.023303803 0.029429179 0.042587813 0.063927636
-0.13525458 -0.07950958 0.075436905 0.27309233 -0.035646655 -0.1300159 0.08822 0.0013435615
-0.057530243 -0.032799553 -0.013649033 0.11557767 -0.08101599 -0.012845521 -0.092860796 -0.0054098377
-0.042393476 0.035707008 0.048195805 -0.081924856 0.006913593 -0.10756455 0.02424869 -0.04658036
0.016268741 -0.14400293 -0.05928708 0.0389746 -0.1367154 -0.0559677 -0.057247184 -0.045361303
0.011464264 0.07845305 0.021437513 0.06447235 0.03335495 0.030643603 -0.007237011 0.007322988
-0.1519133 0.15280746 -0.002495449 -0.002945532 0.052099988 0.088188045 0.043604456 0.11937066
0.03938442 -0.015036312 -0.081788264 -0.09829294 -0.0826334 -0.07758167 -0.088812955 -0.015677055
0.23541497 -0.18982306 0.047915593 0.054957066 0.03831305 -0.17382772 0.12925895 0.046944074
-0.070999585 0.18611343 0.015923612 -0.019141387 -0.031146966 0.0120986365 0.0006754645 -0.09636581
-0.21265039 0.06833385 -0.054828115 0.048764836 0.109821334 -0.047312275 0.11393678 0.05139256
-0.038211647 -0.0559834 0.07874195 0.019696359 -0.03287266 -0.04801744 -0.009920005 0.013790328
0.057419483 0.10888517 -0.10612183 -0.13890266 -0.11266814 -0.0057876566 0.0117427865 -0.07281434
0.060279775 0.12364109 -0.026923144 0.03537839 -0.14925535 -0.029419634 0.056001484 -0.038826462
0.013530656 -0.0134055475 -0.032468483 0.046327755 0.15240932 0.1903532 0.34161088 0.18192732
-0.0013823631 -0.080196545 -0.053104836 -0.128428 0.05969995 -0.11838617 0.1476101 -0.0030942233
-0.0037723253 0.11384583 0.0073165055 -0.006370335 -0.051383592 -0.08239336 0.12772374 0.10018805
0.022712998 -0.024571631 0.15114433 -0.030104851 0.08466879 -0.023459416 -0.0017365423 -0.10968799
-0.04260703 -0.031750508 -0.12627569 0.035636608 0.010113615 -0.07536233 -0.028830068 0.09134869
0.11099553 0.057462372 -0.045662235 -0.05512311 0.03764076 0.2376 0.092295 0.062026475
0.03257162 -0.1488654 -0.081573404 -0.19204436 -0.10853668 0.055488322 -0.012243387 -0.037710186
-0.12230644 -0.02037856 -0.014932096 -0.02987915 -0.01507029 0.09146482 -0.06337652 -0.039469
0.048719335 -0.010378484 -0.047939777 0.05319132 -0.029924061 0.0031015906 -0.11604435 -0.0029787312
0.064119875 -0.109966 0.13455936 0.07335907 -0.09906052 -0.021265188 0.086084366 -0.02541164
-0.0490838 0.015699875 -0.09171311 -0.1076049 -0.06870609 0.026217364 0.1450844 -0.0067201494
-0.124695025 0.0497847 0.13447858 -0.006524291 -0.014753457 -0.10971867 0.05191818 0.025847163
-0.011006031 0.1039455 -0.02969156 0.075195245 -0.08462054 -0.102599695 0.17505834 0.25187278
0.1105222 0.08010544 -0.018775713 0.04425482 -0.060381185 -0.032410197 0.038399953 0.029180506

fc1.bias f4 [64]
00000000: 856b d63d 503d bbbc bbef 833c ff09 00bd
00000010: c939 58ba 56c7 01bd 3413 79bd 2435 d5bc
00000020: 4877 a13d 5f43 3e3d 405d be3d b5dd 66bd
00000030: 4871 2bbd 5731 30bd 00c0 723d f0c6 a3bc
00000040: 8734 143d 9815 b93c 3c08 fbbc 61f5 60bc
00000050: f815 893d 71e9 12bc fa1f 44bd 0470 44bd
00000060: 27b9 33bc e53a 23ba 7191 83bd d3f2 d0bc
00000070: 7256 97bc 506e 503c aa3c 853d c837 1dbd
00000080: 4e30 ebbb df54 5a3b a8e9 293d b559 7e3d
00000090: a5d5 b0bc d850 4c3c 778f 623d 5888 58bc
000000a0: b6ea 62bd 3d91 573c b517 cb3d 573c 34bd
000000b0: 714a 2cbd cbd5 93bc 3b9d b7bc a3f3 39bd
000000c0: 4285 8abd 2c5f eabc 2030 3f3d b9a3 8a3c
000000d0: 62ca 48bd aed2 45bd c622 fe3c 4bf9 34bd
000000e0: cad5 ff39 1fe0 163d fc10 2fbd 04e2 44bd
000000f0: 9875 4a3d 2c6d 74bd 2ebf 3e3d 47cc 023d
0.104697265 -0.022856385 0.016105523 -0.031259533 -0.0008248357 -0.031684242 -0.06080933 -0.026026316
0.07884079 0.04645097 0.0929513 -0.05636378 -0.04185608 -0.043015804 0.059265137 -0.019992322
0.036182906 0.022593305 -0.030643575 -0.013730378 0.06693643 -0.00896679 -0.047882058 -0.04795839
-0.010969437 -0.00062267325 -0.06424225 -0.025506413 -0.018473838 0.012721613 0.065057114 -0.038383275
-0.007177389 0.0033314747 0.041482598 0.06209727 -0.021586249 0.0124704465 0.0553126 -0.013216101
-0.05539962 0.013157186 0.09916631 -0.044002857 -0.04206318 -0.01804628 -0.02241384 -0.045398366
-0.06763698 -0.028609835 0.046676755 0.016923772 -0.049021132 -0.048296623 0.03102244 -0.044183057
0.00048796675 0.036834832 -0.042740807 -0.048067108 0.049428552 -0.059674427 0.046569042 0.031933095

fc2.weight f4 [5, 64]
00000000: 0093 893d d848 ae3d 711b 60bd 1033 e7bd
00000010: 4834 fa3d 8324 c7bd c6a4 f83d 51bc 743d
00000020: 80ee 71be d446 273d 8c63 d0bc 0c15 4dbd
00000030: 80b3 a03a fd2e 523c 945c 573c b81d 51bd
00000040: 3c35 d6bb 4897 3f3d f89d a03c 200c d93d
00000050: 2582 073e 67d4 13bd 8338 6f3c 9ab2 43bd
00000060: 6d75 06bd 1d97 ac3d e2f0 8a3d eae4 a93d
00000070: e4ca 903d 5cb2 adbc 06bb 2d3e 0578 59bd
00000080: 9a00 813d 3a33 61bd 5265 763d a780 9b3d
00000090: 6c82 963d 8043 543c 48d9 9b3b be47 babd
000000a0: b8bd c4bc c210 d43d 51f5 acbd 4460 df3c
000000b0: f7f8 c7bd 1adf dbbc 0c12 dbbd 5bcb b43d
000000c0: 9dc2 20bd 84e2 a4bd 8edc f2bc 710e ebbd
000000d0: 66bc 8bbd 24f4 78bd d5ab 173e 0d09 a6bd
000000e0: f570 173d 1223 243d 1c88 fdbd 40ea 223b
000000f0: 917c 363e aa09 cc3d 3104 5dbd 40f1 e9bd
00000100: 51c5 92bc 9610 b43d 877d afbd 60d7 e5bd
00000110: 8604 d03d 0fde 80bd 401d fe3b 72f2 a73d
00000120: 602f 17be a54e c0bd 72b9 4dbb acd6 a63d
00000130: e805 cb3d a6b5 0bbc ffbd 113d 62de d1bd
00000140: 0d09 eb3d 0e2c bdbc 3030 6f3d 3d89 b9bd
00000150: 2aed 10be 93f0 9f3d 788d 313d f2b1 0c3e
00000160: bd1e e3bd b8c2 c1bd e812 3cbd a307 3e3d
00000170: d53e 9abd 7d5a ee3d 9b86 003e 2f7e d63d
00000180: 65da 2abd 305d b5bd 3a26 babd 288c c9bb
00000190: 2fb0 a83d 48fb a23c 40d4 9cbc 1960 8cbd
000001a0: d7b2 c0bd b6d3 e03d c904 73bd 142d b4bd
000001b0: 3fc4 cc3d 71f2 223c 8123 c7bd 6d56 c13d
000001c0: a79a ddbd 8a77 cdbd fa61 4cbd 0461 503d
000001d0: 10cc 6bbd 7e4a 9ebd 6ae2 7e3d 475d b73d
000001e0: 4cd2 b73d 0544 dbbd a852 153d 4c50 bd3d
000001f0: 54de 7b3c 08d2 1d3d 1365 a0bd 4937 edbd
00000200: 46fd 2f3d 00e1 1abc d7a8 3d3d b442 6a3d
00000210: 7a37 a53c 9667 0cbc 448f 933d 4d74 95bc
00000220: 84c7 b93b 5b4a f53d 8bb1 8cbe 0006 3fbd
00000230: 1aaa c3bd 045e c6bd 0b52 223d f6b3 c53d
00000240: 8c36 c63c 4032 86bd 18df f2bd 2bee 853d
00000250: 3024 f0bc d99b 64bd ee60 92bb e025 e23d
00000260: 7167 c33c 7004 c13d faae 86bd 6975 8dbc
00000270: 99f4 a2bc b284 443e bd78 e93b 25ed 94bd
00000280: eb34 14bd 8f4a 303e b358 8b3d b23a 863d
00000290: b682 1e3e 00eb 02bd 2d02 8dbd f2e6 d73d
000002a0: 4c7c b8bd f014 65bd 47b2 26be 0827 75bd
000002b0: ab14 bfbc d09d 80bb 265f a13c c03c 363c
000002c0: 03bc 9a3d 9cda 99bd 0adb cc3c b47a aa3c
000002d0: 4609 d3bd 08b2 37bd 83f2 243e 41ad edbd
000002e0: 7965 183d 98e2 60bd 5851 80bc 9803 10bd
000002f0: 8ef4 b33d f6bc c3bd 3bc5 cd3d 5590 01bd
00000300: 7f1e 75be 3067 ad3d ba4b a7bd 70a0 4b3d
00000310: f9e7 90bd 1b31 29be c0aa 64bb 25d5 81bd
00000320: 1fd0 463e 844e 113d 04cc 373e 4a03 333d
00000330: 1094 b23d 3f8a bbbb df76 cd3c 1c04 6c3d
00000340: f399 1e3e 06bb ccbd 4016 4d3c 20d7 e33d
00000350: d0ec 5f3d c38b 723d e62c a93d 0c19 29bd
00000360: aae6 273e 78a7 463c eea5 43bd 8097 cd3d
00000370: 2be8 97bc 4f56 503e e1ce 963d 1818 b5bd
00000380: ba21 e238 5790 d13d ed8d ec3c 91c2 513d
00000390: 9343 7fbd 907b 523c 90bb 403d e0e2 d7bd
000003a0: 5af9 b5bd af93 f53d 4a82 7a3a dc2a b73d
000003b0: 0e83 a5bd bc66 98ba 3f32 6f3d 99f1 2d3e
000003c0: 2318 06bd 2f6a e43d 72db 8abd 4884 f03d
000003d0: 8051 a23b 04fa edbd bcd2 e13c a38e 383c
000003e0: e788 2c3e 671b 88bc a0f8 a53d 16c8 cabd
000003f0: 1230 bdbd f669 c1bd f31f e83d 5de3 c13c
0.06717491 0.085099876 -0.05471367 -0.11289036 0.12217003 -0.09723761 0.12140803 0.059749905
-0.23626137 0.04083903 -0.025438093 -0.0500689 0.0012260526 0.012828586 0.013144631 -0.051053733
-0.0065371078 0.046775132 0.019606575 0.10598016 0.1323324 -0.036091235 0.014600876 -0.04777775
-0.03282683 0.0842726 0.06784226 0.08295615 0.07069948 -0.021203212 0.16965875 -0.053092975
0.06298943 -0.054980494 0.06015522 0.07592898 0.07349095 0.012955546 0.0047561266 -0.09095715
-0.024016246 0.10354759 -0.08445228 0.027267583 -0.09764283 -0.026839782 -0.106968015 0.088278495
-0.039248098 -0.08051017 -0.029646184 -0.11477364 -0.068230435 -0.060779706 0.14811642 -0.08107195
0.03697296 0.04007251 -0.123794764 0.0024858862 0.17820956 0.09962781 -0.053959075 -0.11422968
-0.017916353 0.08792226 -0.08568864 -0.1122272 0.10157113 -0.06292354 0.0077549517 0.0820054
-0.14764166 -0.0939 -0.0031391052 0.08146414 0.09913236 -0.008527195 0.035581585 -0.10247494
0.11476336 -0.023092296 0.058395565 -0.09059379 -0.14152971 0.07809558 0.043347806 0.13739756
-0.11089847 -0.09460968 -0.045916468 0.046394 -0.075315155 0.11638353 0.12551348 0.10473286
-0.041712184 -0.08855665 -0.090893224 -0.006150741 0.08236729 0.01989521 -0.019144177 -0.06854267
-0.09409111 0.10977881 -0.059330735 -0.087976605 0.099983685 0.009945498 -0.09723569 0.094403125
-0.10820513 -0.10032566 -0.049898125 0.05087377 -0.057567656 -0.07729052 0.062227644 0.08953338
0.08975658 -0.10706333 0.03645578 0.09243831 0.015372831 0.03853038 -0.078317784 -0.115828104
0.04296615 -0.009453058 0.046303596 0.05719252 0.020168055 -0.008569619 0.0720506 -0.018243933
0.005669536 0.11977073 -0.27479205 -0.04663658 -0.09553929 -0.09685901 0.039629024 0.096534654
0.024195932 -0.06552553 -0.11858958 0.065395676 -0.02931413 -0.05581269 -0.0044671213 0.1104238
0.023853036 0.094246745 -0.06576343 -0.0172679 -0.019892024 0.19191244 0.007124989 -0.07271794
-0.03618328 0.17215942 0.068040274 0.06554164 0.1547955 -0.031962395 -0.068851806 0.10542096
-0.09008083 -0.05592817 -0.16278945 -0.059851676 -0.023325285 -0.0039250627 0.01969869 0.011122882
0.07555392 -0.075123996 0.02500679 0.020810463 -0.10304503 -0.04484752 0.16108136 -0.11605311
0.037206147 -0.054903597 -0.015663788 -0.035159677 0.087868795 -0.09557526 0.10047384 -0.031631786
-0.23937415 0.08466947 -0.081687406 0.049713552 -0.07075495 -0.16522638 -0.0034891814 -0.06339482
0.1941533 0.03547527 0.1794892 0.04370431 0.08719647 -0.0057232673 0.025081096 0.057621107
0.15488414 -0.099966094 0.012517512 0.11125016 0.0546692 0.05921532 0.08260517 -0.041283652
0.16396585 0.012124889 -0.047765665 0.10038662 -0.018543324 0.20345424 0.07363678 -0.08842486
0.00010782802 0.10232609 0.02887627 0.051210944 -0.062320303 0.012846842 0.047053874 -0.1054132
-0.08885451 0.11991059 0.0009556158 0.08943722 -0.08081637 -0.0011627297 0.058397528 0.16986693
-0.032737862 0.111530654 -0.06780137 0.11743981 0.004953563 -0.11619952 0.027566306 0.011264476
0.16849099 -0.016614629 0.08104062 -0.099014446 -0.09237684 -0.094440386 0.11334219 0.023667986

fc2.bias f4 [5]
00000000: 102f 8bbd ed8f 423d 4e3d 35bd 1b3c 15bd
00000010: 1044 a9bd
-0.06796086 0.04750054 -0.044247918 -0.036434274 -0.08264935
