IQL_CNN_win/agent1_401.pth (torch, 745122 bytes, 10 tensors)

c1.weight f4 [32, 8, 3, 3]
000000 59 00 8c bd f2 82 55 3d 04 56 97 3d 32 1e 9b bd
       -0.06836004 0.052126832 0.07389453 -0.07574119
000010 4b 70 ae 3c 9a 2d ea 3c 2a b3 35 be 68 c9 5b bd
       0.02129378 0.028586198 -0.17744127 -0.053658873
000020 f5 b5 7a bd 11 66 0e be a3 d4 1a 3d 9b 91 7c 3d
       -0.061208684 -0.13906123 0.037800442 0.061662298
000030 9a 5a 42 bd 82 1d ba bd bc 3b b2 bd e0 68 15 3c
       -0.047449686 -0.090876594 -0.087028 0.009119242
000040 dc d4 a6 bd 51 fe 1a be fe 26 b7 bd 46 28 34 3d
       -0.081460685 -0.15136077 -0.08942984 0.04398372
000050 80 f8 25 3a a5 9d 9f 3d 54 ee 82 bc 11 df a5 3d
       0.000633128 0.0779374 -0.015982784 0.08099187
000060 59 79 dd 3d 45 7b 83 3d aa 66 1b 3d 88 84 8e bc
       0.10814161 0.06419996 0.037939705 -0.01739718
000070 1c d0 b9 3c 2e ff 76 3d e4 6e f5 bc 6e 31 8d bd
       0.022682242 0.060301952 -0.029960103 -0.068941936
000080 59 39 73 bd 1a 1e 66 3d a6 b0 b7 bd 34 e6 6a bd
       -0.059380863 0.05618105 -0.0896924 -0.057348445
000090 fe 71 4b 3e e8 5b 1d bd 5a d5 2d bd 07 e6 ee 3c
       0.19867703 -0.038417727 -0.042439796 0.02916242
0000a0 26 8d 9b bd b8 05 43 3e 12 f4 4e 3d 74 51 04 be
       -0.07595281 0.1904515 0.050525732 -0.12921697
0000b0 6f 0c 95 bd e8 f2 61 3c ce b1 e6 bd bb 99 4d be
       -0.07277762 0.0137908235 -0.11264382 -0.20078175
0000c0 fc be 63 3d ad 04 55 be 0e b5 a4 bd de 8b b0 3d
       0.05560206 -0.20802565 -0.08042346 0.086204275
0000d0 29 6a 9a 3d b4 51 a4 bc 9a a3 2a bd 04 c6 05 3e
       0.0753978 -0.02005849 -0.04165993 0.13063818
0000e0 3a bc ef 3d 6d 1b 8f bd 82 29 0d 3e 59 f4 20 3e
       0.11705823 -0.06987653 0.13785365 0.15718211
0000f0 db e0 57 3d 5a 1b 29 bc bd a5 15 3d be 72 ac bd
       0.052704673 -0.0103214625 0.036535013 -0.08420323
000100 f0 c2 fa bc 5f 91 87 be 5f d4 ae bd 79 9e 6b be
       -0.030610532 -0.26478097 -0.085366 -0.23009671
000110 f3 72 c2 bd 90 50 8e bc b4 5d 0c be 87 e8 41 bd
       -0.09494581 -0.0173724 -0.1370762 -0.047340896
000120 09 c0 bd bc 1f 37 e9 3d cc f3 5c bd bb a2 2a be
       -0.023162859 0.11387467 -0.05394344 -0.16663639
000130 9e 5b 32 bd c0 0b e1 bd f2 d4 bb bd ec d8 61 3d
       -0.043544404 -0.10988569 -0.091714755 0.055138513
000140 37 60 9a 3d 84 d8 e5 3c 2e f9 0b 3d af 4b fa 3d
       0.07537883 0.028057344 0.034173183 0.12221467
000150 c6 cb 9c bd cc 90 00 bd 62 11 b3 3c 8c b9 32 3d
       -0.07656054 -0.03138809 0.021858875 0.043633983
000160 c8 fe b3 3d e2 02 f0 3c 60 cb 10 bd 5e c0 1d 3d
       0.0878883 0.02929825 -0.035350204 0.038513534
000170 68 c2 17 3c 08 a8 0b bc 0c f2 ca 3c a2 39 2f 3d
       0.009262659 -0.0085239485 0.02477362 0.042779572
000180 42 92 68 3d ee 85 1c bd ed 33 be 3d 0a c6 34 3d
       0.056780107 -0.038213663 0.09287248 0.044134177
000190 04 0b fd 3c 0d d2 8f 3d 4b 59 b1 3d ba 11 7d 3d
       0.030889042 0.07022486 0.086596094 0.061784483
0001a0 30 38 c3 bb 98 3e 02 3c 96 c7 59 bd a7 e1 99 3d
       -0.005957626 0.007949494 -0.053168856 0.07513743
0001b0 99 57 d9 bd e7 37 54 bd 02 cb 64 3e 95 82 30 be
       -0.10612411 -0.051811125 0.22343066 -0.17237313
0001c0 a3 e2 dd bd 78 ce 3c 3e 86 f0 f2 bc 54 40 85 bc
       -0.10834243 0.18438137 -0.029655706 -0.016266026
0001d0 be b8 63 3e 12 c3 52 3d 45 d6 07 bd 23 f9 a3 3c
       0.22238442 0.051455565 -0.033163328 0.020016259
0001e0 87 24 ae bd ec 2f 02 3d b9 9d f1 3d 93 31 f1 bd
       -0.08503061 0.031783983 0.11797661 -0.11777034
0001f0 99 46 61 bd 6f 85 57 3d 90 68 37 bd b2 e8 97 bd
       -0.054998968 0.052617487 -0.044777453 -0.0741743
000200 a5 d5 aa 3d f7 f1 2c bd e9 d0 bc bc a4 1e d6 3d
       0.08341531 -0.042222943 -0.023048835 0.10455063
000210 cc 5f 5d bd 82 52 85 bc 49 26 aa bc 66 a2 e6 bd
       -0.054046437 -0.016274694 -0.020770209 -0.11261444
000220 23 b8 d1 bd 12 0a 18 be aa 97 5b bd 3e ea e9 3d
       -0.102401994 -0.14847592 -0.053611435 0.11421631
000230 2e 73 86 bd 51 14 50 3d ce 0b 93 bc fb 7c 54 bd
       -0.065649375 0.050800625 -0.017949965 -0.051877003
000240 c3 df 9c 3d 4f fb fc bb ef 1e 74 bd 15 a6 90 3c
       0.07659867 -0.007720388 -0.059599813 0.01765732
000250 62 91 77 3d 28 e5 37 bd 62 2b 9c bd 95 6d 9e bd
       0.060441382 -0.044896275 -0.07625462 -0.07735745
000260 d2 99 b1 3d 63 9e b2 3d d8 0f df bd 58 d2 91 3c
       0.08671917 0.08721616 -0.10891694 0.017800495
000270 31 89 dc bc 90 a4 03 3d 96 36 98 3d f8 ba 13 3e
       -0.026920887 0.03213936 0.074322864 0.14426792
000280 81 ee f8 3c dd fd 08 3d dc 1d 2f bd 0b 0f a8 3d
       0.030387165 0.033445228 -0.042753085 0.08205994
000290 80 a3 62 bb 22 c4 bf bd e5 cd a0 3d 30 30 84 bc
       -0.0034582317 -0.09363581 0.07851771 -0.016136259
0002a0 60 ff 68 bd c7 6e 83 3d 90 51 b8 bc 86 12 46 bd
       -0.05688417 0.064176135 -0.02249983 -0.04835751
0002b0 eb 4a e8 3d 62 a0 37 3d c2 a5 4e 3d 15 fd e8 bd
       0.113424145 0.044830687 0.050451048 -0.113763966
0002c0 88 ae 33 bc d0 ac 2f bc ae 7e 9e bd a2 a7 c2 bd
       -0.010966904 -0.010722354 -0.07739006 -0.0950463
0002d0 6b ca bd bd 4a 91 22 bd 81 ef 6f bd 08 40 b0 3c
       -0.09267124 -0.03968934 -0.058578018 0.021514907
0002e0 d2 f8 0e 3d 22 f8 82 bd a3 6e 43 bc 81 50 50 bd
       0.034905262 -0.06394984 -0.011928233 -0.050858025
0002f0 ba ac 48 bd 9a b1 b3 3c c8 fa cc 3b 86 3d 06 bb
       -0.04899285 0.021935273 0.0062554814 -0.0020483448
000300 fa 65 1b 3d bb 81 4a bd 54 4f 22 bb 8f e2 6a bc
       0.03793905 -0.049440127 -0.0024766522 -0.014336242
000310 55 ed 19 be de fc c6 bd 7d 3d 9b bd c0 45 b5 3c
       -0.15031941 -0.09716199 -0.07580087 0.022127986
000320 54 f1 f6 bd d7 4f 9a bd 0f 2f 22 bd f0 01 7a 3b
       -0.120577484 -0.075347595 -0.03959566 0.0038148127
000330 b8 22 1b be c8 e5 04 3b dd de 14 3e af 6e 53 3c
       -0.15149963 0.0020278562 0.1453814 0.012904807
000340 34 43 cc bd 05 25 a2 bd 77 1e 1f bd a9 13 ac bd
       -0.099737555 -0.07917217 -0.038847413 -0.084021874
000350 db dc b2 bd 37 55 b3 bd 8c 5f a5 bd d4 e3 8f bd
       -0.08733531 -0.08756488 -0.08074865 -0.07025877
000360 fd 32 39 bd 81 37 06 3d e4 d1 94 3d 6b 17 6e bd
       -0.04521464 0.032767776 0.07266596 -0.058127802
000370 c7 dc b8 bd a1 da 86 bd 12 c8 bc bd 0c 8c a0 3d
       -0.09026485 -0.06584669 -0.09217848 0.07839212
000380 c8 e2 bd 3d 59 03 08 be 3e da 31 3e 91 db 09 3e
       0.09271771 -0.13282527 0.17368409 0.13462664
000390 71 c3 78 bd 83 a7 12 3e bd 3e 31 be 41 49 71 bc
       -0.060733262 0.14321713 -0.17309089 -0.014726938
0003a0 f9 69 51 3d c5 16 29 be ee 94 ae bd cf 01 aa 3d
       0.051126454 -0.16512592 -0.085245 0.08301126
0003b0 c7 46 8e 3d c2 cd 7c 3d 7a 07 7e bd d0 44 67 bc
       0.069470935 0.061719663 -0.06201885 -0.014115527
0003c0 29 c7 cb 3d 1c e1 b0 3c 54 db c4 3c f8 ce a1 bc
       0.09950096 0.021591716 0.024030365 -0.01975201
0003d0 68 9d 57 3c 44 82 c4 3c 92 e0 bd bd e2 ca 67 3d
       0.013160087 0.023987897 -0.09271349 0.05658997
0003e0 11 00 95 3d 14 9b ec 3c ad 5c b9 bd c1 7e 8d bd
       0.07275403 0.02888254 -0.090508796 -0.06908942
0003f0 6a f4 4c 3e 92 39 e1 3d 72 f2 7e bd 34 77 bf 3d
       0.20015112 0.10997309 -0.062242933 0.09348908

c1.bias f4 [32]
000000 6e d0 34 ba bb 89 5a 3d c4 c7 8f 3d 6f 96 99 bc
       -0.00068975135 0.053354006 0.07020524 -0.01874849
000010 45 e9 14 bd 0e 57 75 bd a3 2c b4 3d b0 e2 df 3c
       -0.036355276 -0.059897475 0.08797576 0.027329773
000020 21 ef be 3d a5 78 12 bd 9c 95 d6 bc a3 69 43 3d
       0.09322954 -0.035759587 -0.026194386 0.047708165
000030 49 99 16 3c 60 f5 c0 bc 03 39 c8 bc 08 b6 d6 bd
       0.0091918195 -0.023554504 -0.024441248 -0.104839385
000040 40 13 f2 bd 95 9e 96 bd a7 fd e1 3c 15 7e d9 bd
       -0.11820078 -0.07354466 0.027586771 -0.10619751
000050 4d 65 6f bc be 2b 8c 3d 54 bb a1 3c b6 01 09 be
       -0.014611554 0.06844281 0.019742645 -0.13379559
000060 3c 12 de 3d 1d be ac 3c fa 5f a9 3d a6 3a 47 3c
       0.10843322 0.021086747 0.08270259 0.012159979
000070 d5 bf b0 bd 0b b5 1e 3d 49 8a 92 bd 66 15 70 bc
       -0.08630339 0.038746875 -0.07155282 -0.014653539

c2.weight f4 [64, 32, 3, 3]
000000 b3 11 9a bd 17 71 ce bc 20 ca 4c 3c 30 4f bd bc
       -0.07522907 -0.02520041 0.012499362 -0.023109049
000010 23 d2 a4 bd ce 49 94 3c 19 53 73 bd 51 0c 5e 3d
       -0.08047893 0.018101599 -0.05940542 0.054210965
000020 5b b2 f2 bc 7c 4b ae bd cc 99 95 bd 80 c1 11 be
       -0.029626062 -0.08510491 -0.07304725 -0.1423397
000030 ca f4 ca bd a0 4b ec bc d1 c5 ef bd d7 6c ab bc
       -0.09909971 -0.028844655 -0.11707652 -0.020925922
000040 74 28 1d bc 21 81 92 bd c7 80 61 bd 7c 11 47 bc
       -0.009592164 -0.07153536 -0.055054452 -0.012150165
000050 5f c6 c0 bc 6d 26 21 bd 68 75 84 bd 3c c6 2b bd
       -0.02353209 -0.039343286 -0.06467706 -0.041937098
000060 9f 7f a2 3c 6f 46 ce 3c e1 4b 0f bd b3 cd 25 bc
       0.019836245 0.02518007 -0.034984473 -0.010119843
000070 27 12 03 39 d8 76 2c 3d f0 be 4f bd ea e3 4a bd
       0.00012499896 0.042105526 -0.0507192 -0.049533762
000080 22 97 d7 3c 8d f2 2a 3d 0d eb 7e 3c bf 54 aa 3c
       0.026317183 0.04173522 0.01555897 0.020792363
000090 e8 7a b2 3b 27 13 2b 3c 23 8f c1 3c 3f f5 81 bb
       0.0054467805 0.010441578 0.023627823 -0.003966003
0000a0 e6 e5 55 3b 8f 32 ff bc 4c d0 40 bd ff 39 d6 bb
       0.003263825 -0.031152038 -0.047073647 -0.0065376754
0000b0 52 c5 9f bd 0c 8f 6b bd f9 83 c1 bd 2b ca bc bd
       -0.07801308 -0.057509467 -0.09449 -0.09218248
0000c0 29 15 d3 bd a2 17 fa bd 7c 99 5a bd 12 18 b2 3b
       -0.1030677 -0.12211539 -0.05336903 0.0054349983
0000d0 4c da 55 bd 90 21 2e bd c7 a1 da 3b 2a 25 d5 bb
       -0.052210137 -0.042512476 0.0066721174 -0.0065046744
0000e0 79 74 b2 bd dc 61 ec bc 03 b3 57 3d 06 79 92 bc
       -0.08713622 -0.028855257 0.052660953 -0.017879974
0000f0 6f cf 3b bd 04 c7 17 bd 32 e6 5d 3c 52 2f e6 bd
       -0.04585212 -0.03705503 0.013543652 -0.112394944
000100 c1 51 f2 bd 8f 47 b3 bd 18 ef bd 3b 6f ae a5 bd
       -0.118319996 -0.08753883 0.0057963245 -0.08089911
000110 7b 58 d8 bd 3b eb 2f 3d a3 7c ee bc b1 d0 87 3b
       -0.10563751 0.042948943 -0.029112166 0.004144751
000120 f3 4d 06 bd dc 97 96 bd 1a 87 d2 bb a0 1b 65 3c
       -0.032789182 -0.073531836 -0.006424797 0.013983637
000130 b5 a9 eb bc 5e 57 23 bd a5 1d 07 3d 59 da 42 3b
       -0.028767446 -0.03987824 0.032987256 0.0029732196
000140 5c 15 ff bb d1 97 98 3d ba de 68 3d a8 ec b9 3c
       -0.0077845287 0.07450832 0.056853034 0.022695854
000150 e7 8f 9d bb aa de ca 3c 8a 80 18 3d 98 e7 a6 3d
       -0.0048084143 0.024764378 0.03723196 0.08149642
000160 35 cf ad 3c 73 d0 2b bc bf cb 3b 3d 30 7d e3 3c
       0.021216968 -0.01048671 0.045848604 0.027769655
000170 c0 dd 8d 3d cf 47 0a 3d 08 d6 ae 3c 09 ca 40 3d
       0.06927061 0.03375989 0.021342292 0.047067676
000180 51 bf 5a 3d be 29 93 3d 1c 76 1f 3d e5 09 26 bd
       0.05340511 0.07185696 0.038930997 -0.04053678
000190 5d ca 13 3c d9 98 b0 bd 47 93 91 3d 79 5b 3d bd
       0.009020415 -0.086229034 0.07108169 -0.046229813
0001a0 ca 92 ba 3a 28 88 1e bd 27 9b 61 bd c7 98 4c bd
       0.001423442 -0.038704067 -0.055079605 -0.049950387
0001b0 b6 26 7c 3d 65 9c 9d 3d 97 c9 79 bb fd 01 a0 3d
       0.061560355 0.076958455 -0.0038114542 0.07812879
0001c0 4d 35 b0 3d 78 d0 d0 bc d5 ff 09 bd 85 ef b9 3c
       0.08603916 -0.02549003 -0.033691246 0.02269722
0001d0 f3 79 70 3d e9 14 79 bd 23 20 04 3d 03 a0 5e bd
       0.05871005 -0.060810957 0.03225721 -0.054351818
0001e0 fa 56 1f bc 14 c0 3c 3d 60 a6 9d bd f1 4a 53 3b
       -0.009725327 0.046081617 -0.07697749 0.0032240713
0001f0 aa 61 6f bd ee e4 82 bd 6d a8 9f bc de c7 93 bd
       -0.05844275 -0.06391321 -0.019489491 -0.07215856
000200 1d a4 8a 3c 8a 5f d0 bd 1b 6f db bc 29 0c b2 bd
       0.016923958 -0.10174473 -0.026786378 -0.086937256
000210 e4 af 2c be 7c cb 4c be ba f2 02 be 7d 35 a7 bc
       -0.16863972 -0.19999498 -0.12787905 -0.020411247
000220 57 71 0d 3d 7e ce 08 3e dd b8 67 3d da 1b 8b 3d
       0.034531917 0.1336002 0.056572784 0.06792422
000230 36 02 ca 3d be 14 6c bd 83 93 16 3d 90 9f 2b 3d
       0.09863703 -0.05763697 0.036761772 0.041900218
000240 58 9e 11 3d 76 c4 8b 3c e5 d4 93 bc 48 8e a3 bc
       0.0355514 0.017061453 -0.018045852 -0.019965306
000250 4a ba 12 bd 85 87 86 bd 70 2f a9 ba fe bb 86 3d
       -0.03582219 -0.06568817 -0.0012907814 0.065788254
000260 f8 43 b1 3c 85 d9 08 be a7 77 d3 bd 5a b4 e1 bd
       0.021638855 -0.13364227 -0.10325556 -0.110207275
000270 fa 68 23 bd 16 2d bf bd e8 1d 0e be 3e 3e 54 bd
       -0.039895035 -0.09334771 -0.13878596 -0.05181717
000280 62 71 88 3c d4 aa 01 be 66 55 07 be 83 7c f0 bd
       0.016655628 -0.12662822 -0.1321617 -0.11742499
000290 e0 6c ac bd 78 ff 0d bd 23 40 bc bd f2 5e b3 bc
       -0.08419204 -0.034667462 -0.091919206 -0.02189586
0002a0 32 7c 6f bd 07 f8 9b bc 5e 75 e7 bc 97 0b 1e 3e
       -0.05846805 -0.019039167 -0.028254207 0.15434109
0002b0 97 4b 48 3e 62 f8 34 3e b2 32 c1 3d 78 e8 02 3e
       0.19560085 0.17672876 0.094334975 0.12783992
0002c0 35 38 29 3e 43 da 59 3d c3 10 8f 3d 04 89 05 3e
       0.16525348 0.053186666 0.06985619 0.13040549
0002d0 24 46 89 3c e4 99 f3 3c 94 07 a6 bc 00 67 de 3c
       0.016757078 0.029736467 -0.020267285 0.027148724
0002e0 3f 41 eb 3c d9 1e 4f 3d 3d 4a f5 3c fc 0d 61 3c
       0.028717635 0.050566528 0.029942626 0.013736244
0002f0 c4 6e 16 3d 78 e8 b4 bd 92 83 93 bd b1 a2 85 bd
       0.036726728 -0.088334024 -0.072028294 -0.065251715
000300 62 3e ec bc 1a 13 6e bd 25 9e f5 bc da a4 5a bd
       -0.02883834 -0.058123685 -0.029982636 -0.05337987
000310 b5 2b a2 3d 3e 07 9b bc 1f 1a c0 bc 95 62 8c bd
       0.07918493 -0.018924352 -0.023449956 -0.068547405
000320 41 72 0b bc 97 fe e6 3d 8e d8 83 3d 34 1a 5c 3b
       -0.008511127 0.11279028 0.06437789 0.0033584954
000330 a7 11 61 3d c4 03 1d 3d 4a e4 97 3d 71 81 cf 3d
       0.054948475 0.03833367 0.074165896 0.10132111
000340 1b da 0a 3e 06 a0 a4 3d 41 21 04 3e 5d 4a f5 3d
       0.13559763 0.080383345 0.1290331 0.11977074
000350 19 af d2 3d 33 03 1f 3d 97 4b a0 3d 2c 7d 88 3d
       0.102873035 0.03882141 0.078269176 0.066645
000360 56 ac f2 bb 67 ee 13 3d 0a ae f4 bb 9a d9 ba bd
       -0.007405798 0.03611603 -0.007467036 -0.091235355
000370 ad cd 30 3d 42 93 6e bd 3b bf 31 3c 0a 19 f7 3c
       0.043164898 -0.058245905 0.010848816 0.030163307
000380 9d c6 fe 3b a8 82 a1 3d ba 04 ff 3c 47 af 85 bd
       0.0077751414 0.07886249 0.031130183 -0.06527572
000390 2d c6 71 3d c2 e0 52 3d 8f 53 47 bd 78 ba 55 bd
       0.059026886 0.051483877 -0.048663672 -0.052179784
0003a0 d1 fb 4a bd 54 4b 78 bd 0c d4 fc bc ac ec 3c bd
       -0.049556557 -0.060618713 -0.03086283 -0.046124145
0003b0 37 1f df bd 25 32 a4 3d f7 02 07 3d a4 a9 e4 3c
       -0.10894626 0.08017377 0.032961812 0.027912922
0003c0 21 94 8e bd 4d 13 b0 bc 6a 3c da bc 94 09 8c bc
       -0.06961847 -0.021493578 -0.026640136 -0.017094411
0003d0 20 5b 21 bc 28 b3 3e bd a4 88 c4 bd 9a c6 16 3b
       -0.009848386 -0.046557575 -0.09596375 0.002300656
0003e0 00 0d 45 bd 35 f1 42 3d 7e a7 4e bc 0b 0c 90 3c
       -0.0481081 0.047593314 -0.012613175 0.017583868
0003f0 b6 7a b3 3d 36 e6 9f 3d bb 7f 76 3c 50 e3 e8 3d
       0.0876364 0.07807581 0.015045102 0.113714814

c2.bias f4 [64]
000000 c7 17 13 3d 97 8d 98 bc c4 4e 90 3d c8 df 7f bd
       0.035911348 -0.018622203 0.07046273 -0.062469274
000010 ab 12 4f bd cd d5 87 bb 95 36 a7 bc d4 2d 10 bd
       -0.050554913 -0.00414536 -0.020411769 -0.035199955
000020 b8 2d 24 3d 05 b4 96 bc 7c 27 15 3d 50 0c 61 bd
       0.040082663 -0.018396387 0.03641461 -0.054943383
000030 72 8f d8 3c 43 c7 e3 3c 0a 7d 1d bc fb e2 7b bc
       0.026435588 0.027804976 -0.009612331 -0.015373941
000040 5c f8 39 bd 06 8a 76 bd 69 b6 6d bd d9 0e 02 3d
       -0.04540287 -0.060190223 -0.058035288 0.03175244
000050 05 27 40 3d a6 db 0e 3d 95 83 20 3d 9d 97 90 3c
       0.046912212 0.03487744 0.039187986 0.01765042
000060 09 5f 93 bc fc 7f 4b 3d 15 83 35 bd 22 4f 57 3b
       -0.017989652 0.049682602 -0.044314463 0.0032853563
000070 17 8b 23 bd da 39 96 3c 2d f8 6a 3c be d0 6e 3c
       -0.03992757 0.018338133 0.014341396 0.014576135
000080 a5 05 03 bd 0a 6e b5 3b 1f b3 d4 bc 59 b4 76 3d
       -0.031987805 0.0055367993 -0.025964318 0.060230587
000090 bc 3f 3d bd d5 e7 d6 bc b5 64 e4 bc ba 82 9d bc
       -0.04620336 -0.026233593 -0.027880052 -0.019227374
0000a0 e7 f1 74 3c f8 68 4f bb 1c 7a ac 3b c2 b7 d6 3c
       0.014950252 -0.003164826 0.00526358 0.02621067
0000b0 d1 68 e6 bc 9f 36 2a bd bc 7f 0a bc 48 81 d0 3c
       -0.028126152 -0.041555997 -0.008453306 0.025452271
0000c0 02 4a 3c 3c f8 d9 61 3d 62 6a ff 3c 48 76 12 3d
       0.011492254 0.05513951 0.031178657 0.035757333
0000d0 8b 96 58 bd a4 3b 30 3d 6d f4 c6 3c c4 d1 8b bd
       -0.052877944 0.043025628 0.024286473 -0.06827119
0000e0 dd 17 7d ba 89 15 79 3b 08 43 1b bd 2d 53 38 bc
       -0.000965474 0.003800722 -0.037905723 -0.011250299
0000f0 63 ca 8d bc fe 39 df 3a c5 af 12 3d 42 fd 87 3c
       -0.01730842 0.0017030833 0.03581216 0.016600255

c3.weight f4 [256, 64, 3, 3]
000000 e9 6b c8 3d e5 6a bc 3d df 3e ba 3d 99 bc fe 3c
       0.09786207 0.09200076 0.09094023 0.03109579
000010 89 10 82 3d 21 2f 22 3d 18 2f 38 3d 1a dc 98 3d
       0.0635081 0.039595727 0.044966787 0.07463856
000020 13 0b 5e 3d 00 b2 c6 3d 3b 2e 4d 3d cb 1b aa 3d
       0.05420978 0.097019196 0.050092917 0.08306082
000030 ac 52 7d 3d 11 c9 9a 3d 6f c0 87 3d 61 54 89 3d
       0.06184642 0.075578816 0.06628501 0.06705547
000040 bf 81 a1 3d e7 89 9f 3d 4c 44 07 3c d4 fb a3 bb
       0.07886075 0.07789975 0.008256029 -0.0050043855
000050 c0 3d 0a 3c e7 5b 41 bd d8 b5 25 bd 58 b7 52 3b
       0.008437574 -0.047206786 -0.040456623 0.0032152738
000060 ac f3 72 3a 55 10 28 bd e9 d4 ad bb 7d 84 ca 3d
       0.00092678773 -0.0410312 -0.005304922 0.098885514
000070 a8 97 85 3d 9c f8 05 3e b2 a7 be 3d 94 3a 8d 3d
       0.06523067 0.13083118 0.09309329 0.068959385
000080 c6 da 05 3e 40 0d 5c 3d 5a bf 86 3d 4b 52 09 3e
       0.13071737 0.053723574 0.06579466 0.13410299
000090 1b 01 00 3e 10 f0 83 3d 08 6a c5 3d 17 ce d1 3d
       0.12500422 0.06442273 0.096393645 0.10244387
0000a0 f0 9e 98 3d 3d a9 ce 3d 66 e0 f8 3d ac ca 93 3d
       0.0745219 0.100908734 0.121521756 0.07216391
0000b0 1f 89 e0 3d c4 7a fd 3d 3b eb e6 3d 5b 43 63 3d
       0.10963654 0.12376931 0.112753354 0.055484157
0000c0 fc 60 d0 3d 45 d1 88 3d 57 cb 83 3d 58 d3 c9 3d
       0.10174748 0.0668054 0.06435268 0.09854764
0000d0 26 bc 9c 3d 6f 66 b9 3d c7 0c 2f 3d ca 2c 90 3d
       0.07653074 0.09052741 0.042736795 0.07039793
0000e0 e2 a2 a0 3d a9 b1 95 3d a4 87 32 3d 99 b5 68 3d
       0.078435674 0.073092766 0.04358639 0.05681381
0000f0 2e b7 85 3d c4 88 09 3d 05 33 2f 3d 24 fc a4 3d
       0.065290794 0.033577695 0.042773265 0.080559045
000100 04 bb 0a 3d 12 48 a3 3d 2a 7b 90 3d 38 fd bf 3d
       0.03386976 0.07972731 0.07054742 0.093744695
000110 b2 ca a5 3d 51 49 b2 3c d7 0d 88 3d 54 da c8 3d
       0.08095302 0.021763476 0.06643265 0.09807268
000120 c0 a9 9d 3d 00 75 4c 3d f8 e5 8d 3d 68 dc b8 3c
       0.07698393 0.049916267 0.06928629 0.022566035
000130 1d 69 78 3c 74 ab 9c 3c 5f 83 b6 3d 8e eb a1 3d
       0.01516178 0.019124724 0.08911776 0.079062566
000140 c3 06 25 3d 56 17 eb 3d 2f 6b f7 3d 9a 4c f8 3d
       0.04028965 0.1147906 0.120809905 0.121239856
000150 9f 28 ec 3c b0 a5 1f 3d 13 83 5d 3d 20 a0 ab 3d
       0.028827963 0.03897637 0.05408008 0.08380151
000160 43 bb cd 3d fd bb ac 3d c5 4f 1f 3c a7 ac 13 bb
       0.10045483 0.084342934 0.009723608 -0.0022533329
000170 49 c2 2b 3d 4c 58 61 3c 65 a2 36 3d b0 2b b2 3c
       0.04193333 0.013753962 0.044588465 0.021749347
000180 5d c7 53 3d 4d ff 6b 3c 5e b2 6e 3c c6 4f 92 3d
       0.0517038 0.01440413 0.014568893 0.07144122
000190 03 ac f9 3d 16 dd fb 3d e1 ff 35 3d 13 71 dd 3d
       0.12191012 0.12298028 0.04443348 0.10812583
0001a0 bb 47 be 3d b3 bd 73 3d e2 7b 82 3d 94 75 3c 3d
       0.09291025 0.059507083 0.06371285 0.04601057
0001b0 92 3e 00 3d 9a ea 98 3c 98 54 01 3d af 0e 8b 3d
       0.03130967 0.018666554 0.031574816 0.0678991
0001c0 34 e9 91 3c 88 c4 f0 3c 75 5a dc 3d 7e 42 b0 3d
       0.017811395 0.029390588 0.10759441 0.086064324
0001d0 2d f4 c5 3d df 5c 1f 3d da 93 31 3d a5 1b c5 3d
       0.096657135 0.03890693 0.043353893 0.096244134
0001e0 cd 29 9e 3d 93 00 8c 3d b5 d9 32 3d cd 02 b1 3d
       0.077228166 0.06836047 0.043664653 0.08643112
0001f0 54 62 dd 3b e4 1d af 3d 84 3c b6 3d b1 11 ca 3d
       0.0067561064 0.08550623 0.08898261 0.098666556
000200 80 7a eb 3d 80 d5 ad 3d d4 11 91 3d a6 22 4d 3d
       0.114979744 0.084879875 0.070834786 0.05008187
000210 fc 08 63 3d 5e 31 68 3d 56 1f b8 3d ba ed 08 3d
       0.05542849 0.056687705 0.08990352 0.03342984
000220 59 c0 2e bc fc e1 f9 3c 08 61 9b 3d c4 e8 8a 3d
       -0.010665976 0.030503266 0.075868666 0.06782678
000230 d5 06 1a 3d c7 1e 8e 3d 54 54 94 3d 12 03 88 3d
       0.03760417 0.06939464 0.07242647 0.066412106
000240 c0 0b 7b 3d 2a 9c 62 3d 3d 64 91 3d 1f b6 bc 3d
       0.061290503 0.05532471 0.07099197 0.09214424
000250 73 e1 9d 3d 69 3b de 3d 47 1b 40 3d 7d ed 20 3d
       0.07709017 0.10851175 0.046901014 0.039288986
000260 c0 71 c0 3d 63 27 57 3d 6c eb b0 3d f9 9b a0 3d
       0.09396696 0.052527796 0.08638653 0.078422494
000270 61 8b 45 3d 69 da f4 3c 2d 87 2f 3d 64 16 8f 3d
       0.048228625 0.029889302 0.042853523 0.069866925
000280 de a6 ae 3d f2 03 56 3d ea 45 bc 3d 17 c6 0e 3e
       0.08527921 0.052249856 0.091930225 0.13942753
000290 e0 0a 15 3e be 9e a8 3d b7 a7 a9 3d 76 f1 b8 3d
       0.1455493 0.08233403 0.08283942 0.0903043
0002a0 17 c8 91 3d 2d a0 d1 3d f1 69 cd 3d 6b 95 e0 3d
       0.07118242 0.10235629 0.10029972 0.10965999
0002b0 e9 4d 82 3d ce 63 a1 3d 1b fc c8 3d 48 d2 56 3d
       0.063625164 0.07880364 0.0981371 0.052446634
0002c0 d2 20 d9 3d df 84 e9 3d fd ae 02 3e 60 8c b4 3d
       0.10601963 0.11402296 0.12762065 0.08815837
0002d0 7c 4f 42 3d db 46 57 3d c8 cb 4d 3d 09 da a3 3d
       0.047439083 0.052557807 0.05024317 0.08000571
0002e0 9c 8f 8c 3d 7f e5 aa 3d c4 8b 6b 3d ca fe 92 3c
       0.06863329 0.08344554 0.057506338 0.017943759
0002f0 ea 8c 08 3d dd 97 0c 3d 89 24 b5 bc 65 32 19 3c
       0.03333751 0.034324516 -0.022112148 0.009350394
000300 5b 32 78 3c d9 e6 a0 bc 27 29 cc bc 4d 51 1a bd
       0.015148724 -0.019641327 -0.024921967 -0.03767519
000310 40 c1 12 bc dc fd f7 bc 23 22 76 3c a5 60 90 3c
       -0.008957207 -0.030272417 0.015022787 0.017624209
000320 22 1b 85 3d 51 c0 37 39 59 10 20 3d fd ec b6 3c
       0.06499316 0.00017523883 0.03907809 0.022329802
000330 7a a4 50 3d b6 bb 49 3d b1 33 84 bb 77 7d cd 3d
       0.050938107 0.04925128 -0.0040344824 0.10033696
000340 6d 3b cd 3d c6 81 8b 3d fa f7 ad 3d 65 19 0b 3d
       0.100211 0.06811862 0.084945634 0.033959765
000350 9b f6 b7 3d 82 ce 97 3d 55 80 c4 3d 85 82 9f 3d
       0.08982583 0.07412435 0.0959479 0.077885665
000360 1e cf 41 3d 67 ab f0 3d 18 33 fa 3d 9b b8 c3 3d
       0.047316663 0.117514424 0.122167766 0.09556695
000370 df d9 68 3d bb 53 84 3d 06 30 82 3d 56 f1 df 3d
       0.056848403 0.06461283 0.06356816 0.10934703
000380 48 a7 dc 3d 0a 58 09 3e f6 9c 08 3e 31 48 cf 3d
       0.10774094 0.1341249 0.13341126 0.10121191
000390 b2 4e cd 3d 75 cb 9c 3d 61 e4 03 3e f0 6e aa 3d
       0.100247756 0.07655994 0.12880088 0.08321941
0003a0 e4 4a 05 3e 62 f6 9c 3d de 4d 54 3c 62 5f 45 3c
       0.1301685 0.07664181 0.012958018 0.012046667
0003b0 0c ec 48 3d 5e 55 8e 3b 3c b8 12 3d e7 f1 82 3d
       0.049053237 0.0043436727 0.03582023 0.063937955
0003c0 70 c1 0b bc bd ae b5 3a 19 b4 92 bc 76 2e 3b 3d
       -0.008530006 0.001386128 -0.017908143 0.045698605
0003d0 66 f5 ef 3d 5f 46 61 3d 27 29 3c 3d 82 40 98 3d
       0.11716728 0.05499875 0.045937683 0.07434179
0003e0 12 0b 4e 3a c5 b3 81 3d 6a e4 18 3d f1 d1 54 3c
       0.0007859926 0.063331164 0.037327208 0.012989507
0003f0 99 32 0f 3d 24 c8 90 3d 4a 31 b9 3d 43 f7 a8 3d
       0.034960363 0.07069424 0.09042604 0.082502864

c3.bias f4 [256]
000000 00 8b 1c bd 36 03 28 3d 34 a6 15 bd c8 b1 16 bd
       -0.0382185 0.041018687 -0.036535457 -0.03679064
000010 54 89 f7 bc 19 e0 76 3d 3b d5 d8 bc 63 77 ff 3c
       -0.03021685 0.06027231 -0.026468864 0.031184858
000020 6d 66 19 bd 22 b3 47 bd cd 02 08 bd fa 90 08 3d
       -0.037451196 -0.04875482 -0.033205796 0.033341385
000030 08 26 a5 bb d8 bb 4d bd 55 4a b0 3c 55 5e d2 bc
       -0.005039934 -0.05022797 0.02151982 -0.025679747
000040 11 9f f2 3c 5b 8d 81 3b 4a 61 ca 3c d7 00 07 bd
       0.029616864 0.0039536185 0.024704594 -0.032959785
000050 96 d5 f7 3c 57 64 b7 bc db e6 1e 3c fa 70 35 3d
       0.030253213 -0.022386713 0.009698595 0.044297196
000060 6d 2c 1d 3c 4d 4d 8e 3b 0f d3 6e 3d a1 ab db bc
       0.009593111 0.004342711 0.05830675 -0.026815237
000070 37 6c 9b 3b de 0f 0c bd 3b cf bb bc 14 7b eb 3c
       0.004743125 -0.03419482 -0.022925964 0.028745212
000080 75 0a 7d bd 52 d2 a7 bb 6b 01 0a bd f6 b3 e3 bc
       -0.06177755 -0.0051215077 -0.03369276 -0.027795773
000090 5d b5 21 3d 28 a7 56 bc 5d 3c 2f bd 54 77 91 3d
       0.039479602 -0.013101377 -0.042782176 0.07102838
0000a0 60 03 34 3b df 30 a7 3d 0c 2c f9 3c 1e a5 60 bd
       0.0027467832 0.08163618 0.030416511 -0.054844968
0000b0 9a bd bb 3b 58 a8 4c 3d bd ad 6c 3c 81 3f 10 bc
       0.0057293894 0.049965233 0.014445719 -0.008804203
0000c0 77 d7 06 bd 74 9b 38 bc 5a 06 41 bd 71 ee 53 3b
       -0.032920327 -0.011267532 -0.047125198 0.0032338167
0000d0 86 2c 3d bc 50 b7 ee bc 81 96 2c 3d de fa 4c bd
       -0.01154626 -0.029140145 0.04213572 -0.050043933
0000e0 ff 31 af bc 81 f2 59 bd 6b f9 74 bc 7e eb 6d 3d
       -0.021386145 -0.053209785 -0.014952044 0.05808591
0000f0 f2 ab 39 bd cc 69 0b 3c 0a 09 31 bd 49 f2 03 bd
       -0.045329995 0.008509111 -0.04322151 -0.032213483
000100 1a cd 55 3d 42 2e 3e 3d bc 6e 7b bd 82 ab 09 3d
       0.052197553 0.046430834 -0.0613849 0.03361083
000110 e0 67 3e 3d f6 9f 3d bd b2 f6 1a 3d 79 70 9e 3d
       0.04648578 -0.04629513 0.037832923 0.07736296
000120 2c 7c 3c bd 9f ee e8 ba b3 a6 af bc 86 10 ce bc
       -0.046016857 -0.001777131 -0.021441793 -0.025154363
000130 dc 72 80 bc 39 25 7e 3d 79 3e 1d 3d 1d d7 b5 3a
       -0.01567977 0.062047217 0.038389657 0.0013873313
000140 e7 b6 cc bc dc 45 74 bc cd 40 2c 3d 2b 16 36 3d
       -0.024989558 -0.014909234 0.042053986 0.044454735
000150 e9 77 14 bd 2e 9c 76 3d 5e 57 9d bc e5 b9 b3 3c
       -0.036247168 0.06020754 -0.019206699 0.021939227
000160 50 71 38 bd bb 99 e3 3c 2f 8c 13 3d bb 9f 20 bd
       -0.04502994 0.027783265 0.03602236 -0.03921483
000170 bb 81 b9 3c ea aa 69 3c ca e4 b3 3d 94 55 d2 bc
       0.022644868 0.0142619405 0.087838724 -0.025675572
000180 79 67 0c bc c2 5a 00 bd 8a 98 3f bd 55 50 3b bc
       -0.008569592 -0.031336553 -0.046776332 -0.011432727
000190 71 59 dc 3b 05 2d 24 3d 46 84 a6 3d 66 74 68 3d
       0.0067245294 0.040081996 0.08130698 0.05675163
0001a0 39 dd 2d bd 06 fa 8b 3c b2 1a 1b 3d bb 52 4f bc
       -0.042447302 0.017086994 0.037867256 -0.012654002
0001b0 ef 4a d7 3c 67 22 b8 3b bd 07 43 bd 88 de c4 3c
       0.026280848 0.0056193355 -0.0476148 0.024031892
0001c0 e8 2b 27 3d 42 df 1a 3c 76 c3 8a 3d 01 3b cc bb
       0.040813357 0.009452643 0.067755625 -0.0062326198
0001d0 1c 27 52 bd 4e 86 71 3c 81 0a fa bc 82 89 d7 bc
       -0.05130683 0.014741493 -0.030522587 -0.026310686
0001e0 96 57 0b bd 86 12 a4 3c 6b d2 79 3b 7f 61 53 bd
       -0.034019075 0.020028364 0.0038119804 -0.05160665
0001f0 e8 63 0c 3d da 50 ba 3c 5a dc 3f 3d d3 dd f1 bc
       0.034274966 0.022743631 0.046841003 -0.02952472
000200 c5 8f 88 bc e9 60 d5 bc e6 a6 29 3d b5 26 24 3d
       -0.016670117 -0.026047187 0.041418932 0.040075976
000210 bd 48 7d 3d 76 f6 5b bd 85 55 0d 3d 32 d1 01 bd
       0.061836947 -0.05370184 0.034505386 -0.031693645
000220 68 ca cf bc e4 8a fa 3c 5c 46 1f bd a4 35 ac bb
       -0.02536507 0.030583806 -0.03888546 -0.005255418
000230 39 0f 40 bd ea 7e c5 3c af 51 ae bc bc a1 40 3d
       -0.046889517 0.024108369 -0.021279184 0.047029242
000240 0a e2 76 39 d8 ae 68 bd 6e 37 2d 3b 2c 86 fe 3b
       0.00023544594 -0.05680737 0.0026430744 0.0077674594
000250 8a ea e4 3c e2 40 c1 bc 89 d0 1a 3c 96 1f 5b 3c
       0.027943868 -0.023590509 0.009449133 0.01337423
000260 38 57 2c bd 53 14 1e 3d 51 d6 1c bc af 2f 9e bc
       -0.042075366 0.0385936 -0.009572581 -0.019309847
000270 68 a2 1d bd 4b 7a 55 3d dd 08 25 bd e6 59 79 bc
       -0.03848496 0.05211858 -0.040291656 -0.015219187
000280 a2 24 c7 bc a3 7a 2c bd 38 0b ee bc 5f eb 4a bc
       -0.02430946 -0.042109143 -0.029058084 -0.012385218
000290 0d 39 46 bc eb d0 1c bd cb 03 1e bc 8f f1 97 3b
       -0.012098563 -0.038285177 -0.009644459 0.0046369503
0002a0 7b f1 1e bd 20 43 4e bd d3 02 e7 bc 7b 92 15 3d
       -0.038804512 -0.050356984 -0.028199589 0.036516648
0002b0 89 eb 2c bd 41 42 ab ba 61 8f b1 bc 51 c7 2d bc
       -0.04221681 -0.001306601 -0.021674814 -0.010606603
0002c0 9a c9 9e 3c e7 43 a7 3c 1d 4e 19 bd a3 ba 9e 3d
       0.01938324 0.02041812 -0.03742801 0.07750442
0002d0 58 20 6e 3b a3 4d bc ba a5 d5 b5 3d b4 51 bd bc
       0.0036335196 -0.0014366399 0.0887864 -0.023110248
0002e0 9b eb 32 bd 50 19 c3 3d b1 90 00 bd 34 9a 3b bc
       -0.043681722 0.09526312 -0.03138799 -0.011450339
0002f0 35 6e a4 3d e5 07 1d bd 07 27 45 bd 3e 91 29 bc
       0.08028833 -0.038337607 -0.048132923 -0.01034957
000300 79 be 55 bd 5e f2 94 bc 6f 78 b9 3c c5 6b 85 3d
       -0.052183602 -0.018181976 0.022640435 0.06514696
000310 a5 5f 19 bc 2e eb 66 3d 7b 4d aa 3a c5 66 fe bc
       -0.009361182 0.05637663 0.0012993062 -0.031054864
000320 72 5d 2d 3a 28 16 d9 3d df 99 1b bd 67 79 d0 bb
       0.00066133507 0.10599929 -0.03798854 -0.0063621285
000330 67 28 2a bc 85 ee 83 bc ee ce 9d 3d 16 5c ac ba
       -0.010385609 -0.016104946 0.07705484 -0.0013150002
000340 21 36 fe bc 56 81 4f bd 0f bb 84 bc 05 d8 f4 bc
       -0.03103167 -0.050660454 -0.016202478 -0.029888162
000350 17 d5 7d 3b 85 f0 74 3d 42 27 26 3d b3 1d 71 3d
       0.0038731748 0.05979969 0.040564783 0.058866214
000360 a8 1e 2e bd c8 1e 69 3b 98 28 5e bd c2 d8 2d 3d
       -0.042509705 0.0035571326 -0.054237932 0.042443044
000370 5d 88 ae bc c8 80 80 3c 60 7e 0a bd a9 7f 41 bd
       -0.021305257 0.015686408 -0.033811927 -0.047240887
000380 f3 bd bf 3c 36 54 82 3c 13 6d 51 bd 0a 9f 0f bc
       0.023406005 0.015909296 -0.051129412 -0.008765945
000390 ff 79 54 bd 6b 07 0b bd 70 50 c0 3c d9 15 d4 3c
       -0.051874157 -0.03394262 0.023475856 0.025889324
0003a0 f3 9c a8 bc 7a ba 36 3c b5 13 02 bd 35 df 22 3d
       -0.020582652 0.011152858 -0.031757075 0.039763648
0003b0 e0 e2 9c bc cc 42 60 3d 2a 5f fc bc 75 dd 33 bd
       -0.019151151 0.054751202 -0.030807097 -0.04391237
0003c0 3b 7d 25 bd 7f 2a 65 bd 30 8e 2f 3d 87 9c 82 bc
       -0.040402632 -0.05594873 0.04286021 -0.015943779
0003d0 6f 23 23 bd f0 e4 e6 3c 9b 55 1e bc 62 d6 a9 3c
       -0.039828714 0.028185338 -0.009663965 0.020732109
0003e0 5b c3 12 bd 67 12 a3 ba aa 1b fc bc 2c c8 29 bd
       -0.035830837 -0.0012441397 -0.03077491 -0.041450664
0003f0 bc d5 9b 3b 43 32 94 ba 69 be 75 3c f1 40 f0 bc
       0.0047557037 -0.0011306483 0.014999011 -0.029327841

fc1.weight f4 [64, 256]
000000 8e f5 3e bd 70 e5 2e bd 30 db 77 bd 30 73 cc bb
       -0.046620898 -0.042699277 -0.060511768 -0.0062393174
000010 88 3e 58 bd 86 6e 00 bd 08 6c 51 bc 8e d3 1c bd
       -0.05279401 -0.031355403 -0.012782104 -0.03828769
000020 40 6d e8 3a 3c da 44 3d a8 ed c6 3c 00 b7 48 3a
       0.0017732754 0.048059687 0.024283245 0.00076566637
000030 9c 9c 40 3d 34 bb 60 bd 60 d7 f1 bb ae 65 13 bd
       0.047024354 -0.05486603 -0.007380411 -0.03598564
000040 ee ca 77 bd d6 d7 04 3d 7e b1 64 bd 32 f0 3d 3d
       -0.060496263 0.0324324 -0.055833332 0.046371646
000050 a0 c4 68 3b d0 9b 43 bd 46 d7 05 3d 78 1c 64 bc
       0.0035517588 -0.047756016 0.032676004 -0.013922803
000060 2a 48 4b bd 9a a9 54 bd ce 84 55 bd 40 99 3b 3c
       -0.049629368 -0.051919557 -0.052128606 0.011450112
000070 94 7b 1f 3d 56 1c 2e bd 08 0e 1a bd 34 41 c1 bc
       0.038936213 -0.042507492 -0.037611037 -0.023590662
000080 08 5e 96 bc a0 ba 3b 3c 68 bd 5a bd 80 1f 55 bc
       -0.018355384 0.011458069 -0.053403288 -0.0130079985
000090 88 f7 eb 3c 36 ce 47 bd 90 5b ab 3b ac 9b fa 3c
       0.028804556 -0.048780642 0.005229421 0.030591808
0000a0 40 35 85 3b 1c 8b 4c 3d 3e ea 1b 3d 64 ee 85 bc
       0.004065186 0.049937353 0.038065188 -0.016349025
0000b0 f6 27 5a bd dc a0 bc bc ca 0d 2b bd 68 bf 76 bd
       -0.053260766 -0.023025922 -0.041761197 -0.060241133
0000c0 14 b3 0e bd 96 69 72 3d 8c 06 e1 3c d8 e6 5f bd
       -0.03483875 0.059182726 0.027468942 -0.05466351
0000d0 08 79 c8 3c 20 24 77 bb d8 d4 9e bc 74 85 83 3c
       0.024471775 -0.003771074 -0.019388601 0.016054846
0000e0 30 60 53 bd fe ac 04 3d f8 d8 01 3d 60 e0 a9 bb
       -0.051605403 0.03239154 0.03170106 -0.0051842183
0000f0 0c 18 ed bc 00 cb 76 bd e8 ac 18 3d 2e c3 5f 3d
       -0.02894213 -0.06025219 0.03727427 0.054629497
000100 2e 77 34 bd 00 40 6d 38 30 6f d1 3b 40 eb 13 bc
       -0.04405897 5.6564808e-05 0.0063914284 -0.009028256
000110 e0 76 8d 3b 70 ac e4 3c 10 a7 ea bb 36 0c 3c 3d
       0.0043171495 0.027914256 -0.0071610287 0.045910083
000120 94 6e d1 3c 26 6e 43 bd e0 d0 35 bd 00 9b 0f bb
       0.025565423 -0.047712468 -0.04438865 -0.0021912456
000130 90 f4 42 bc 34 6f b1 3c ec f2 bf 3c 60 97 09 3b
       -0.011899129 0.021659471 0.023431264 0.0020994768
000140 6a b8 3a 3d b0 27 2f bd de bf 00 3d 6a b7 04 3d
       0.045586027 -0.04276246 0.03143298 0.03240148
000150 90 58 fa 3b c0 89 df 3b 50 a1 05 3d 36 76 51 3d
       0.007639952 0.006821841 0.032624543 0.051138125
000160 9a 29 0f 3d 08 89 f5 bc 50 8f 51 bd 30 4f c4 3b
       0.034951784 -0.029972568 -0.051162064 0.005990885
000170 2a ea 44 3d e4 48 86 3c 26 07 5e 3d 30 fb 2d bc
       0.04807488 0.016392179 0.054206036 -0.01061897
000180 e4 28 6e bd d8 a7 41 bc 9c d1 58 3d e8 c3 d3 bc
       -0.058144465 -0.011819802 0.052934274 -0.025850251
000190 30 d3 cb bb 36 db 20 bd 60 a7 1d bc fc 8a 16 3d
       -0.006220244 -0.039271556 -0.009622425 0.03675364
0001a0 f6 b0 63 bd 2c 9e cf bc 88 d1 ba bc da 75 64 3d
       -0.055588685 -0.025343977 -0.02280499 0.055776455
0001b0 58 fa 64 3d 60 dd 3b bc 08 39 7f bd 5c d7 5b bd
       0.05590281 -0.011466354 -0.06231025 -0.05367218
0001c0 d0 44 57 bd dc 23 50 bd 7c e4 e3 3c fc 29 37 3d
       -0.05255586 -0.05081545 0.02781891 0.044717774
0001d0 1c 6a 28 bd 26 6e 57 3d e8 ea 41 3c b0 f7 8b bc
       -0.04111682 0.05259528 0.011835791 -0.01708588
0001e0 16 5e 4f 3d fe 91 67 3d 92 82 1c bd d6 b9 1b bd
       0.050626837 0.056535713 -0.03821046 -0.038019024
0001f0 d0 82 6d 3d ee c4 1d bd d4 4a 20 bd bc 27 6f 3d
       0.05798608 -0.038517885 -0.03913386 0.058387503
000200 98 c3 3a bd 5a 95 39 bd ea f2 07 3d 1a bd 64 3d
       -0.04559669 -0.04530845 0.033190645 0.055844404
000210 48 12 37 3d ac e5 4b bd 80 5a 8b bc 6c 89 8a bc
       0.04469517 -0.04977958 -0.017010927 -0.016911231
000220 c8 cf 70 bc d0 74 89 bb a6 18 72 3d 00 1c 62 3c
       -0.014697976 -0.0041948333 0.059105538 0.013800621
000230 d8 01 e5 bc 34 4a 0d 3d 78 e3 23 3c 68 39 7d bd
       -0.02795498 0.034494594 0.010002963 -0.061822325
000240 a8 45 23 bc 78 0b 6c bc a0 69 81 bc b6 eb 03 3d
       -0.009965338 -0.014407031 -0.015797436 0.032207213
000250 2e a6 0a 3d 2c b0 3f bd f0 ec 56 bc f6 ee 37 3d
       0.033849888 -0.04679887 -0.013118014 0.044905625
000260 f0 bc 75 bc d8 22 9e bc dc b1 6b 3d 4e 26 2c bd
       -0.0149986595 -0.019303724 0.057542667 -0.042028718
000270 f2 4a 69 3d a2 1d 47 bd 72 80 78 3d 6a c2 54 bd
       0.05695624 -0.048612244 0.06066937 -0.05194322
000280 de 67 2b bd dc 9c 2a bd d8 84 4c bd 0e f6 66 3d
       -0.041847102 -0.0416535 -0.049931377 0.056387
000290 e8 31 72 bc c0 9d 09 bb 80 2e b5 3b b0 6a 38 bc
       -0.014782406 -0.0020998567 0.005529225 -0.011255905
0002a0 96 98 48 bd 38 75 5c bd 40 49 cf 3c 80 20 51 3b
       -0.048973642 -0.053822726 0.025303483 0.003191024
0002b0 98 e8 6b 3c cc f8 c6 3c bc 0f 03 3d 60 82 ee bb
       0.014398716 0.024288557 0.031997427 -0.0072787255
0002c0 fa 33 07 bd 48 67 e7 bc 14 18 5e 3d b4 c3 2b 3d
       -0.033008553 -0.02824749 0.05422218 0.041934684
0002d0 88 7e 69 bc 24 d2 39 bd 84 00 1e bd 80 be e7 bb
       -0.014251359 -0.04536642 -0.03857471 -0.00707227
0002e0 8a ce 71 3d e0 63 78 3c b2 1b 06 bd 8e 75 19 bd
       0.05903486 0.015160531 -0.032741256 -0.037465625
0002f0 18 ae d9 bc 5e 7d 0e bd 90 99 cb bc 50 57 c9 bb
       -0.026572272 -0.03478753 -0.024853498 -0.0061444417
000300 2c 97 81 bc 50 1a 73 bd 70 97 a7 3b 5a 12 3e bd
       -0.015819155 -0.059351265 0.0051144883 -0.04640422
000310 10 ac 5f 3c fc d8 b0 bc bc 04 c3 bc 04 8f b1 bc
       0.013651863 -0.021587841 -0.023805968 -0.02167464
000320 70 22 cc bb 5c c7 30 3d 4e 38 1b bd d0 99 21 bd
       -0.006229691 0.043158874 -0.037895493 -0.039453328
000330 0c 09 78 3d b8 4a 48 3c b8 7f 44 bd ac 22 e0 3c
       0.060555503 0.012224846 -0.047973365 0.027360283
000340 4e cb 5a 3d 80 c7 0f 3d 10 9f 6b bd 6a a3 18 bd
       0.053416543 0.035102367 -0.05752474 -0.03726522
000350 64 48 ff bc e4 35 c0 bc 38 a6 fb bc f0 a4 f5 bc
       -0.031162448 -0.023463197 -0.030718908 -0.029985875
000360 20 97 10 bc ea 5e 06 bd 58 14 57 bd cc 32 92 3c
       -0.0088250935 -0.03280536 -0.052509636 0.017846487
000370 5c 61 3d bd 18 b8 3a 3c 16 d0 54 bd 60 d3 68 3d
       -0.046235427 0.01139643 -0.05195626 0.056842208
000380 4c e2 d5 bc 40 6e d3 bc 6c ae 14 3d 4a 5a 36 3d
       -0.026108883 -0.025809407 0.036299154 0.0445197
000390 02 a0 04 3d 04 ef 1d 3d 48 ad 65 3d 98 48 79 bd
       0.032379158 0.03855802 0.056073457 -0.060860246
0003a0 e8 5d 49 bd 26 8a 7b 3d 60 9a 44 3d 16 59 39 bd
       -0.04916182 0.061411045 0.047998786 -0.045250975
0003b0 70 7c 45 bd 30 97 f0 bb 2a 51 11 bd 40 1f 7f 3d
       -0.048214376 -0.0073422417 -0.035477795 0.06228566
0003c0 f8 7b 1a 3d 60 e0 57 3c b2 7e 6f bd 86 ea 79 3d
       0.037715882 0.013176054 -0.058470435 0.061014675
0003d0 78 2b aa 3c 50 43 2f bd 3e 04 4a 3d f8 77 33 bc
       0.02077268 -0.042788804 0.049320452 -0.010953896
0003e0 98 d1 37 bd 90 90 1e bc 80 ec 66 bc 2c ca bc bc
       -0.04487762 -0.009678021 -0.014094472 -0.023045622
0003f0 70 74 a2 3c 04 ae 43 bd e6 22 0d 3d 7e 99 3d bd
       0.019830912 -0.047773376 0.03445711 -0.04628896

fc1.bias f4 [64]
000000 fa a7 74 bd 1d df 13 3d 5f 20 16 3d 33 cb cd 3c
       -0.059730507 0.03610145 0.036651965 0.025121307
000010 30 d6 32 bd 00 9a 88 bc 77 8e 4e 3d f8 06 44 bd
       -0.043661296 -0.016674995 0.050428834 -0.04785821
000020 80 a9 51 bc bb 9e 3d bc 09 78 81 3b 35 ca b9 bd
       -0.01279676 -0.011573489 0.003951077 -0.09071771
000030 5a 6c 4c 3b f7 1c 02 bd 44 84 64 bd e1 0a 67 3d
       0.0031192512 -0.031765904 -0.0557902 0.05640686
000040 14 69 2d bd e4 eb 26 bd c9 d7 56 3c de cf d0 bd
       -0.04233654 -0.040752307 0.013112971 -0.101958975
000050 eb 75 2b 3b 23 ad 5f 3d 20 eb a9 bc 8f 9b 80 3d
       0.0026162814 0.054608475 -0.020742 0.062796704
000060 2e 25 73 3d fd 05 01 bc af 0b 3c bd 55 f4 86 bd
       0.05936163 -0.007874963 -0.04590958 -0.065895714
000070 84 c2 c0 bc e3 22 12 bd 98 e9 2a bd 5e 45 ce 3d
       -0.023530252 -0.0356778 -0.04172668 0.100718245
000080 3a 55 bc 3c 4b 32 f1 bc b7 cf c1 3c 36 67 03 bd
       0.022989858 -0.029442927 0.023658616 -0.03208085
000090 12 ee 7d 3d 17 80 05 bd 24 dd 9b 3d 7e 53 f1 b9
       0.06199462 -0.03259286 0.076105386 -0.0004602931
0000a0 34 11 c4 ba e9 1c 0f 3d 9a 73 69 ba f0 4e 2f bd
       -0.001495874 0.03493968 -0.00089054706 -0.04279989
0000b0 9d 1a 7b 3d 85 7c 0c 3d 10 fd 57 bc dd 79 09 bd
       0.061304677 0.03429844 -0.013182893 -0.033563484
0000c0 59 fd 96 3c ef fa 9d 3c 22 3d b5 bc 2e 32 17 bd
       0.018431352 0.019284694 -0.022123877 -0.03691309
0000d0 e3 f3 1e bd ca e3 37 bd 86 f2 37 bd ea a8 25 bd
       -0.038806807 -0.04489497 -0.044909023 -0.040444292
0000e0 a1 e5 78 3d 4b b8 be 3d 6d 2c ed 3c 60 9b 3a 3d
       0.060765866 0.09312495 0.028951848 0.045558333
0000f0 f8 1c 86 3d fa 7e 4a bc 70 a6 ef bb a6 66 49 bd
       0.06548494 -0.012359375 -0.007313542 -0.04917016

fc2.weight f4 [5, 64]
000000 da 1d d2 bd cf ca 03 3e 85 86 0f bd ff fb 3a bd
       -0.102596 0.12870334 -0.035040397 -0.04565048
000010 3e dc e3 3d 60 69 55 bd 72 2e 10 3c 84 17 05 3d
       0.11125992 -0.052102447 0.008800136 0.03249313
000020 6a 7d d9 3d 6f 59 f5 bc c0 af f4 3d 32 d9 6a 3e
       0.10619624 -0.029949872 0.11947584 0.22934416
000030 ad b6 8d 3d 4c ab 89 3d f2 99 9b 3d d3 c1 36 3e
       0.06919608 0.067221254 0.07597722 0.17847376
000040 4e f9 8e bd a8 64 b8 3c 48 14 17 bc 23 88 36 3d
       -0.06981145 0.022508934 -0.009221144 0.044563424
000050 46 63 d5 bd 69 2d 8e bd 35 54 9e 3d fe 4c 85 3c
       -0.104193255 -0.06942255 0.07730905 0.016272064
000060 ee 47 a1 bd 1f 6b 6a bd 08 44 43 bd e0 45 50 3d
       -0.078750476 -0.057231065 -0.0476723 0.050847888
000070 09 55 e1 bd a1 81 30 3e ff 30 4d bd af 11 16 be
       -0.11002547 0.1723695 -0.050095554 -0.14655183
000080 42 14 cf bc e7 c4 0a 3c af 5b 25 3d 00 42 9c bc
       -0.025278214 0.008469797 0.04037064 -0.01907444
000090 1c 35 f8 bc eb cd bd 3c fe da 3e bd 54 22 e5 bd
       -0.030298762 0.023169478 -0.046595566 -0.11188188
0000a0 c8 2b f8 3d eb 3e e0 3c 94 37 70 bc b7 04 b1 3d
       0.121177256 0.027373752 -0.014661688 0.086434774
0000b0 1b 0c 07 3d bf e4 18 bd fd be 9c 3d 19 b2 b7 bd
       0.03297053 -0.037327524 0.076536156 -0.08969516
0000c0 17 04 fc bd 80 f4 90 bd 60 2b 0a bd ed a1 fb bd
       -0.123054676 -0.07077885 -0.033732772 -0.12286744
0000d0 9d dd 94 3d 70 83 a2 bd 4f 0f bf 3d 2c 84 80 3d
       0.07268832 -0.07935226 0.09329092 0.0627521
0000e0 63 ff 6b bd 02 11 63 3e 04 2d 1b 3e b4 e7 7d 3d
       -0.057616603 0.22174457 0.15153891 0.061988547
0000f0 ad b5 1d 3e 20 bf 89 3c 20 7d a6 3b de b5 ad 3d
       0.15401335 0.016814768 0.005080834 0.08481954
000100 90 0c ee 3d ad 04 16 3e 87 67 fa bd b6 54 a0 3d
       0.1162349 0.14650221 -0.122267775 0.07828657
000110 74 ce b0 3d ac e7 28 3d 3f ba 6f bd 12 26 f9 3d
       0.08633128 0.041236565 -0.058527227 0.121654645
000120 bd 7d e1 bd eb 34 9e 3d aa 4d 1b 3d 51 ab 46 3e
       -0.11010311 0.07724937 0.037915863 0.1940129
000130 ed 6f 6a bb 03 11 81 bd 00 dd 14 3b 7f 15 18 bc
       -0.003577228 -0.06302073 0.0022714734 -0.009282469
000140 74 6c 37 3d 5c 15 32 3d e3 4a c2 bc b6 75 02 3e
       0.044781163 0.0434774 -0.02371735 0.12740216
000150 0e 7c 23 bd b2 4e e1 3d b3 3a 17 bd ef 78 a2 3c
       -0.03991323 0.11001338 -0.036921214 0.019833056
000160 b2 64 e5 3d 1e ad 36 bd 9c c0 80 bc 90 c2 8a 3d
       0.11200847 -0.04459869 -0.015716843 0.06775391
000170 56 23 e7 bd c3 52 1e 3d ed 7e 74 bc bf bf 06 3d
       -0.11286037 0.038653146 -0.01492284 0.032897707
000180 6d b3 19 3d 18 16 01 3e 66 f8 ed 3d 48 b2 dc bc
       0.03752463 0.12606084 0.11619644 -0.02694048
000190 8b 63 09 3e 48 fd f9 3c 79 e0 2a bd b5 b1 42 bd
       0.13416879 0.030516282 -0.04171798 -0.047532756
0001a0 75 16 94 3d 4a 8e 4d 3e 85 30 25 3d c9 55 e4 bd
       0.07230846 0.2007381 0.040329475 -0.11149175
0001b0 f0 ec 05 bb 31 43 9f 3d 39 c2 61 3e 09 fd b1 3c
       -0.0020435415 0.077764876 0.22046746 0.021727102
0001c0 e2 57 f7 bd 78 07 be bd 20 5b 7f 3d bb f9 15 3c
       -0.12077309 -0.09278768 0.062342763 0.009153779
0001d0 ca 64 6f bd e0 b4 d6 3d 58 09 d2 3d 54 c2 4f 3d
       -0.05844573 0.10483718 0.102556884 0.050722435
0001e0 3f 53 fb 3d 0b c7 14 3e ac 4a cb 3d d1 1d e7 bd
       0.12271737 0.14529054 0.09926352 -0.11284984
0001f0 66 82 c5 3d de 82 e2 3d 50 f6 d8 3c b0 44 4f 3d
       0.09644012 0.11060117 0.026484638 0.050602615
000200 b2 66 ff bd dc 1e 2c 3e d9 dc ad bd 03 b4 8b bd
       -0.124707595 0.16808647 -0.08489389 -0.06821444
000210 46 cc 4d 3c cc 4d 60 3d 57 7f 3f bd 38 5f c6 bc
       0.01256091 0.054761693 -0.0467523 -0.024215326
000220 ff 10 c2 3d 5e 23 15 3e 10 69 19 bd 0c 68 8b 3d
       0.09475898 0.14564273 -0.03745371 0.06806955
000230 ae be c0 3b e2 fe 9c bd 00 a4 1a 39 59 9e 0e 3e
       0.005882106 -0.076658025 0.00014747679 0.13927592
000240 3a ed c3 3d 64 83 55 3d 76 3a 3e bd 0e 3a dc 3d
       0.09566732 0.052127257 -0.04644247 0.107532606
000250 42 cd 2d bd a7 f5 06 3e 89 42 ca 3c 15 7b 07 3e
       -0.042432077 0.13179646 0.02468993 0.13230546
000260 f9 e4 a0 3d 7d de 03 3e a8 c0 b3 bd 5d d5 c4 bd
       0.07856173 0.12877841 -0.08776981 -0.09611008
000270 81 55 98 3b 05 69 4e bc 7f cd cf 3c d5 b9 03 3e
       0.0046488647 -0.012598281 0.025366543 0.12863858
000280 0a 9e aa 3c c5 91 8d bc 91 18 48 3d ff 84 91 3d
       0.020827312 -0.017281422 0.048851553 0.07105445
000290 9d 90 d6 bb c9 08 57 3e 1b ff f4 3d e1 86 00 bc
       -0.006548001 0.20999445 0.1196272 -0.007844658
0002a0 42 00 7f bd 8c f8 4a 3d fb a9 cd bb ce f6 7e 3d
       -0.062256105 0.04955344 -0.0062763668 0.06224709
0002b0 a0 81 17 3e ed 5b 4d bd 17 60 ce bd 60 45 97 bd
       0.14795542 -0.050136495 -0.100769214 -0.07386279
0002c0 cc b9 b8 3c bd da b7 bd 44 08 41 3d 5e 70 1c 3c
       0.022549532 -0.08977268 0.047127023 0.009548275
0002d0 2b 67 c9 3d c0 e5 13 3c 44 be c1 bd 00 23 7b 3c
       0.09834131 0.009026945 -0.094601184 0.015328169
0002e0 de af 1a 3d e9 71 f2 3d d0 f1 bc 3d 7e 84 82 3d
       0.037765376 0.11838133 0.092258096 0.06372927
0002f0 b1 99 59 3e 52 bd c6 bc 78 4c 4d 3d 80 16 25 bb
       0.21250035 -0.024260197 0.050121754 -0.0025190413
000300 5c eb 3b 3d da e6 34 bd d3 a0 c5 bd 30 82 e9 3d
       0.045878753 -0.04416547 -0.096498154 0.114017844
000310 93 61 dc 3d 5c bb cf bd ce ec 3a 3d 68 7c 96 bd
       0.10760798 -0.10143158 0.04563599 -0.07347947
000320 ce de 0b bc 22 21 d1 bd cc 8e 2e 3d 08 80 80 bc
       -0.0085370075 -0.10211398 0.04261665 -0.01568605
000330 fd 73 11 bc e2 7b 0a 3d 84 23 16 3d 16 0d c3 3c
       -0.008877751 0.03380955 0.036654964 0.02380995
000340 f4 36 92 3d 26 fe 8b 3d 1c 0d 9d bd a1 08 2f 3e
       0.07139388 0.06835584 -0.07668516 0.17093135
000350 a8 e4 14 bd a9 f4 97 3a c8 53 02 3e 6b 0f 18 3e
       -0.036350876 0.00115933 0.12727273 0.14849631
000360 e4 1d ef bd af 41 be 3d e0 59 ab 3c c5 c5 b2 3d
       -0.11675623 0.09289872 0.02091688 0.08729128
000370 44 55 8c bd e8 be b0 bd e2 5d ae 3d 57 c3 13 be
       -0.068522006 -0.086301625 0.085140005 -0.14429985
000380 f7 58 50 bd 00 14 0f 3e f7 e9 84 bd ba d0 91 bc
       -0.050866093 0.13972473 -0.06489938 -0.017799724
000390 39 86 21 3e a4 8c bb 3d e4 fa 3b 3d 42 72 3a bc
       0.15773858 0.091576844 0.045893565 -0.01137978
0003a0 10 10 01 3e 36 f2 2c 3d c6 5d 9c 3d cd f9 7f 3d
       0.12603784 0.042223178 0.07635073 0.062494088
0003b0 88 ce 70 bd 4e bd e8 bd e0 44 e3 bd a4 7e 3e bd
       -0.058790714 -0.11364232 -0.11097121 -0.046507493
0003c0 84 7d 4b 3d 8c ba 13 bb 18 eb 53 bc f8 19 58 3d
       0.049680248 -0.002254161 -0.012934469 0.05275914
0003d0 f4 cc 2a bd 7c 5b a6 3d c5 d9 91 bd 00 5c e2 3b
       -0.041699365 0.08122918 -0.07121614 0.00690794
0003e0 5f ca 0a 3e 5e 77 81 3e d8 da 0c 3e 93 b1 93 3d
       0.13553761 0.25286382 0.13755357 0.07211604
0003f0 7a 64 07 3e de bc 97 3d 80 93 ae ba 80 b8 46 3d
       0.13221923 0.074090704 -0.0013319105 0.048515797

fc2.bias f4 [5]
000000 7b a0 e0 3d fa 29 bf bd 13 09 ba bd fe 44 e3 3d
       0.10968109 -0.09334178 -0.09083762 0.110971436
000010 07 ee 1e bd
       -0.03880122
