IQL_CNN_win/agent3_371.pth (torch, 745122 bytes, 10 tensors)

c1.weight f4 [32, 8, 3, 3]
0	0x3da2c709	0.07948119
1	0x3d304d24	0.043042317
2	0xbd8c4f6a	-0.068510845
3	0xbdbf0d6f	-0.09328734
4	0xbd2c072b	-0.041999023
5	0xbdc21d56	-0.09478252
6	0x3d99b69a	0.075055316
7	0xbd6b14bc	-0.05739282
8	0xbd0e5f4e	-0.03475886
9	0x3dbad673	0.09122934
10	0x3e2affa6	0.16699085
11	0x3e30c8d2	0.17264107
12	0xbdd2991e	-0.10283111
13	0x3c8e2f1a	0.017356444
14	0x3e14b29b	0.14521258
15	0xbb137c2a	-0.0022504427
16	0x3e2c462e	0.16823646
17	0x3b8106a1	0.003937558
18	0xbd34c380	-0.044131756
19	0xbd37f0da	-0.04490743
20	0xbbb31930	-0.005465649
21	0x3ccecdb4	0.025244571
22	0xbdb5c966	-0.08876304
23	0x3cb1995c	0.021679573
24	0x3bf5b0b0	0.0074978694
25	0xbdec1887	-0.11528116
26	0x3dd748f1	0.10511959
27	0x3d44c662	0.048040755
28	0x3dd5b667	0.10435181
29	0x3d90e257	0.07074421
30	0xbb1f6a40	-0.0024324805
31	0x3d2270e6	0.03965845
32	0x3dd74e9b	0.1051304
33	0x3d50676a	0.050879873
34	0x3d919c0d	0.071098424
35	0xbcac6554	-0.02104441
36	0xbd463510	-0.048390448
37	0xbdd11dbd	-0.1021075
38	0xbc8526bd	-0.016253823
39	0xbbb0629d	-0.0053828494
40	0xbc06abb8	-0.008219652
41	0xbe2a5bdd	-0.16636606
42	0xbe03cf60	-0.12872076
43	0xbd8cc4e9	-0.06873495
44	0xbd0ab591	-0.03386456
45	0xbd085813	-0.03328712
46	0xbdb206e0	-0.086927176
47	0xbe0e6f6e	-0.13909695
48	0x3a7ca565	0.0009637683
49	0x3d4a39ce	0.049371533
50	0x3daea900	0.08528328
51	0xbe2443a0	-0.16041422
52	0xbca5e50b	-0.020250818
53	0x3c5b3007	0.01337815
54	0xbd06977a	-0.032859303
55	0x3d8720b3	0.06598034
56	0x3c91baf3	0.01778934
57	0xbd27e597	-0.04099044
58	0xbd9d9ee2	-0.0769632
59	0xbd4628b3	-0.048378658
60	0x3d2ef6e5	0.042715926
61	0xbda9b1a7	-0.082858376
62	0x3cdc4219	0.026886987
63	0x3e07e95e	0.13272616
64	0x3cc7b72a	0.024379332
65	0x3c538dac	0.012912195
66	0x3e3a41a1	0.18189098
67	0x3e1bd4fc	0.15217966
68	0x3d81b5a7	0.063334756
69	0x3d5d0946	0.053963922
70	0x3e49210c	0.19641513
71	0xbd919828	-0.071090996
72	0x3d8253ba	0.06363626
73	0xbcd74212	-0.026276622
74	0x3da1dca1	0.0790341
75	0xbd1bf3f9	-0.038074467
76	0x3d94b669	0.072613545
77	0xbdc0d045	-0.09414724
78	0x3cfdf1c4	0.030999072
79	0xbc9728c7	-0.018452061
80	0x3d6023a3	0.054721486
81	0xbe021fe9	-0.12707485
82	0xbe0bf9e0	-0.13669538
83	0xbdf6372f	-0.12022244
84	0xbe225e76	-0.15856346
85	0xbe42e487	-0.19032489
86	0xbda40663	-0.08009031
87	0xbe7e462d	-0.24831457
88	0xbdf05946	-0.117357776
89	0x3d0dd884	0.034630314
90	0xbcf36c58	-0.029714748
91	0xbd6247fc	-0.05524443
92	0x3d99e34b	0.07514056
93	0xbd224ff8	-0.039627045
94	0xbd4fd168	-0.050736815
95	0x3c592528	0.013253488
96	0x3d80464b	0.06263407
97	0x3de42db5	0.111415304
98	0x3dcdf9d7	0.10057419
99	0xbd9e8a0b	-0.07741173
100	0xbd5cb8e4	-0.053887263
101	0x3de3598f	0.11101066
102	0x3d8866ad	0.06660209
103	0xbcb19d44	-0.021681435
104	0xbde47c40	-0.11156511
105	0xbd42c1a4	-0.04754795
106	0x3b904870	0.0044031665
107	0xbbc08ae0	-0.00587593
108	0xbe1db8b3	-0.15402488
109	0xbe1a7b8d	-0.15086193
110	0xbe35b610	-0.17745233
111	0xbdaca2b7	-0.08429473
112	0xbddacabb	-0.10683199
113	0xbc50c98c	-0.012743365
114	0xbdb194b1	-0.08670939
115	0xbdab01e2	-0.083499685
116	0xbd8d5857	-0.06901615
117	0xbdd48a4e	-0.10377942
118	0x3d69a44c	0.05704145
119	0x3df75f56	0.12078731
120	0xbdcdd383	-0.10050108
121	0x3dc1e863	0.094681524
122	0x3d4f0297	0.05053958
123	0x3cd917fa	0.02650069
124	0x3db58163	0.08862569
125	0x3e0fa1ff	0.1402664
126	0xbd6de14d	-0.05807619
127	0xbda35a2f	-0.079761855
128	0x3c8b96da	0.017039705
129	0x3d54af0f	0.05192476
130	0x3dd25302	0.10269739
131	0x3c8724d4	0.016497053
132	0x3d2d24ee	0.042271547
133	0x3d95399e	0.0728638
134	0xbdaf7d5e	-0.08568834
135	0x3e1339c1	0.143775
136	0xbbad34fc	-0.0052858572
137	0xbdcb15a8	-0.0991624
138	0x3e0eeb87	0.13957034
139	0x3d789e75	0.06069799
140	0xbd32c83c	-0.04364799
141	0x3d982e2a	0.0743068
142	0xbde25187	-0.11050706
143	0xbe089ec7	-0.13341819
144	0x3d1b3c00	0.037899017
145	0x3d2c9c37	0.042141166
146	0x3d9c30e4	0.07626513
147	0xbc8ea0bd	-0.01741063
148	0xbdaf0e45	-0.085476436
149	0x3dd0cc8a	0.10195263
150	0xbdf36ad7	-0.118856125
151	0xb9b08b4c	-0.0003367312
152	0x3d1ac563	0.0377859
153	0xbe080029	-0.13281311
154	0x3d11920c	0.03553967
155	0xbd957d53	-0.07299294
156	0xbdbcf835	-0.09227029
157	0x3e18bf83	0.14916806
158	0x3da784e6	0.08179645
159	0xbe13b1b0	-0.14423251
160	0x3bde6b15	0.0067876675
161	0xbda6b882	-0.08140661
162	0xbd6de1a4	-0.058076516
163	0xbdec933a	-0.11551519
164	0x3dabb2fd	0.08383749
165	0x3c363b68	0.011122562
166	0xbd9a92e8	-0.075475514
167	0xbcab6ca4	-0.020925827
168	0x3c8b4e3c	0.017005078
169	0x3d5341ba	0.051576354
170	0x3c9031fc	0.01760196
171	0x3d3efbaa	0.046626724
172	0x3c6a6f38	0.014308743
173	0xbc6d9d70	-0.014502868
174	0xbdc9ffda	-0.09863253
175	0x3cb30e04	0.02185727
176	0xbb1eee00	-0.0024250746
177	0xbda4e56a	-0.0805157
178	0xbde94c4f	-0.11391508
179	0xbc4a71e8	-0.012356259
180	0xbd868b02	-0.065694824
181	0x3d17d963	0.03707255
182	0xbb64776a	-0.0034861215
183	0xbd4bc77d	-0.049750794
184	0xbd95183c	-0.07280013
185	0xbcb7da47	-0.02244295
186	0x3d8db00d	0.06918345
187	0x3d8e1e21	0.069393404
188	0xbdd42b3f	-0.10359811
189	0x3a6f38eb	0.0009125608
190	0xbcdaf6ed	-0.026729072
191	0x3db411af	0.087924354
192	0xbcb38613	-0.021914518
193	0xbd2cc8b2	-0.042183585
194	0x3c83e1eb	0.016098937
195	0xbb84fa3f	-0.004058152
196	0xbba95972	-0.0051681334
197	0x3d88c9f6	0.06679146
198	0xbbc9399b	-0.0061409003
199	0x3cf54d49	0.029944079
200	0xbcc4e853	-0.024036562
201	0xbe13d527	-0.1443678
202	0xbe3009a2	-0.17191175
203	0x3d4f8a49	0.05066899
204	0xbdae5b12	-0.08513464
205	0x3ded46b2	0.1158575
206	0xbe0e0b6c	-0.13871545
207	0xbd43e42d	-0.047825027
208	0x3e125902	0.14291766
209	0x3cb96fdd	0.022636348
210	0x3e61a087	0.22033893
211	0xbd2a07e0	-0.041511416
212	0xbc4f035a	-0.012635076
213	0xbd64cba9	-0.055858288
214	0xbceb92f0	-0.028756589
215	0x3da9665e	0.08271478
216	0xbe008708	-0.1255151
217	0x3d9d4fc1	0.076812275
218	0x3d49cd5b	0.049268108
219	0xbdad0092	-0.084473744
220	0xbd03c819	-0.03217325
221	0x3d672e71	0.056440774
222	0x3d9c7201	0.07638932
223	0x3c446246	0.011986321
224	0xbdddec84	-0.108361274
225	0xbca8f45b	-0.02062433
226	0x3da2db41	0.079519756
227	0xbc488509	-0.012238749
228	0xbcc1518f	-0.02359846
229	0x3dc1646a	0.094429806
230	0x3cfa7059	0.03057115
231	0x3dedd1c7	0.116122775
232	0x3da8cc07	0.0824204
233	0xbc8709c6	-0.016484153
234	0xbcd31904	-0.025768764
235	0xbca12c74	-0.019674517
236	0xbd3a1a28	-0.0454351
237	0x3bc8b5f0	0.0061252043
238	0x3da48ee9	0.080350704
239	0xbd2f26d2	-0.04276163
240	0x3dcd3d1d	0.10021422
241	0xbdd0bc24	-0.10192135
242	0xbc5fc410	-0.013657585
243	0x3c919c3c	0.017774694
244	0x3d048f3e	0.03236317
245	0x3d82ccb1	0.06386698
246	0x3c99c62c	0.018771254
247	0xbd01de86	-0.031706356
248	0x3d029542	0.031880625
249	0xbda92eee	-0.08260904
250	0xbdc7d689	-0.09757716
251	0x3d374a46	0.044748567
252	0xbd5f54fd	-0.05452441
253	0xbd6590a5	-0.056046147
254	0x3d8bcd15	0.06826226
255	0xbd9e9a34	-0.07744256

c1.bias f4 [32]
0	0xb9199a4b	-0.00014648696
1	0x3dabb860	0.08384776
2	0xbdb3bda8	-0.087764084
3	0x3d9b521b	0.0758402
4	0xba92bb9c	-0.0011194828
5	0x3d28fd7d	0.04125737
6	0x3d7d8629	0.061895523
7	0x3d8a347f	0.06748294
8	0xbd8457e3	-0.064620756
9	0x3ce5f0d8	0.028068945
10	0xbddb2c8a	-0.107018545
11	0xbd96d5aa	-0.07364972
12	0x3d951577	0.07279485
13	0xbe06b9c0	-0.13156796
14	0xbd3c9314	-0.046038702
15	0xbb58e368	-0.003309453
16	0xbde0cda3	-0.10976722
17	0xbe0602ad	-0.13086958
18	0xbd37adb9	-0.04484341
19	0x3d4196c7	0.047262933
20	0x3d950e8a	0.07278164
21	0x3cba1ccc	0.02271881
22	0xbcb2d603	-0.021830564
23	0x3d1aeea9	0.03782526
24	0xbdd2cefa	-0.10293384
25	0x3d2118b9	0.039330218
26	0xbd80c7e4	-0.06288126
27	0x3dc06a0d	0.093952276
28	0xbdf81443	-0.121132396
29	0x3bfafef9	0.0076597896
30	0xbd9a2820	-0.075271845
31	0x3da9cc33	0.08290901

c2.weight f4 [64, 32, 3, 3]
0	0xbc1e09dd	-0.009645906
1	0xbd83a231	-0.0642742
2	0xbd1618cc	-0.036644742
3	0xbcc13763	-0.02358598
4	0x3d1c386e	0.038139753
5	0xbd233c28	-0.03985229
6	0x3cc1f195	0.023674766
7	0xbc9591c3	-0.018257981
8	0x3d40569e	0.046957605
9	0xbd8429a5	-0.064532556
10	0xbdc26f45	-0.09493879
11	0xbd02ec34	-0.031963542
12	0xbda5fcfb	-0.08104893
13	0xbbae2978	-0.005315002
14	0xbd8f5ca6	-0.07000093
15	0xbd1d88b5	-0.038460452
16	0xbd6898ee	-0.05678647
17	0x3cc00d2d	0.023443783
18	0xbcb28765	-0.021793077
19	0xbd55872f	-0.052130874
20	0x3d39351d	0.04521667
21	0xbc4bb8d5	-0.012434204
22	0x3ddd81f5	0.10815803
23	0x3d9e0ac4	0.07716897
24	0xbdb50c69	-0.08840258
25	0xbdab84d1	-0.08374942
26	0x3d801fab	0.0625604
27	0xbd48e345	-0.049044866
28	0x3d238e40	0.039930582
29	0xbd68102e	-0.056656055
30	0xbd2e9b62	-0.042628653
31	0xbcdcac30	-0.026937574
32	0xbce7f036	-0.028312784
33	0xbcc617f2	-0.02418134
34	0x3b91b116	0.004446159
35	0x3cd8c48d	0.02646091
36	0xbc3a68cc	-0.011377525
37	0x3c280212	0.0102544
38	0x3d218f9f	0.03944361
39	0xbdecab7d	-0.11556146
40	0x3b4d4dff	0.0031327007
41	0xbd05081c	-0.032478437
42	0xbd7abc91	-0.061214987
43	0xbd8e4ca7	-0.06948214
44	0xbd6d8449	-0.057987485
45	0xbca1c63e	-0.01974785
46	0x3d5be428	0.053684384
47	0x3c9cde28	0.019148901
48	0xbb3738d1	-0.002795745
49	0xbd37c93d	-0.04486965
50	0x3cabb22f	0.020958988
51	0x3c9b1534	0.018931009
52	0xbd7b644e	-0.061374955
53	0xbb2f2cd9	-0.0026729612
54	0x3c3126e3	0.010812494
55	0xbc28ce40	-0.01030308
56	0x3d2bd44b	0.041950505
57	0x3c9fad92	0.019491944
58	0x3d772c61	0.060345057
59	0x3d3b8a79	0.045786355
60	0x3d79144d	0.060810376
61	0xbc6d88e3	-0.014497968
62	0xba662261	-0.00087789266
63	0xbafe2eda	-0.0019392625
64	0x3cd998f9	0.0265622
65	0xbcfdd9c3	-0.030987626
66	0xbd85c30d	-0.065313436
67	0xbcee2f45	-0.029075274
68	0x3c9acf38	0.018897638
69	0xbd26eb4e	-0.040751748
70	0xbd0ac22b	-0.03387658
71	0x3d5dbd22	0.05413545
72	0xbd580af5	-0.052744824
73	0xbac5a591	-0.001507925
74	0xbe002c7e	-0.12516972
75	0xbd920856	-0.07130496
76	0xbdb11171	-0.08645905
77	0xbdac01b6	-0.08398764
78	0xbd2d5f29	-0.04232708
79	0xbba9fbc7	-0.005187485
80	0xbca3da02	-0.020001415
81	0x3c94e9c0	0.018177867
82	0xbd5a2dc0	-0.053266287
83	0xbd9aac06	-0.07552342
84	0xbc1a19fe	-0.009405611
85	0xbd6918d7	-0.056908455
86	0x3a2d83e1	0.0006619078
87	0x3d608a00	0.054819107
88	0x3b20c369	0.0024530536
89	0x3baf7414	0.0053544138
90	0x3dcd72f3	0.100316904
91	0x3dfd9065	0.12381057
92	0x3d0ba27f	0.034090515
93	0x3d689dae	0.056791
94	0x3d7b0e92	0.061293192
95	0xbb20d67e	-0.002454191
96	0xbd08a978	-0.033364743
97	0xbc386d96	-0.011256596
98	0xbcfa9264	-0.030587383
99	0x3d5205af	0.05127495
100	0x3da6fbd8	0.08153504
101	0xbbbcd8dc	-0.0057631563
102	0xbc7eb249	-0.015545436
103	0x3d6b1b4e	0.057399087
104	0x3c07ada9	0.00828115
105	0x3d8382f1	0.064214595
106	0x3dd16423	0.10224178
107	0x3d96f577	0.073710375
108	0xbc6e59a7	-0.014547742
109	0x3cd04d60	0.02542752
110	0x3d5a1fdb	0.053253036
111	0x3c97710b	0.01848652
112	0x3cb5fc4c	0.022215031
113	0x3d6efb2b	0.058345
114	0x3d65dca6	0.05611863
115	0x3b9c27a1	0.0047654663
116	0xbca64224	-0.02029521
117	0x3e05a09f	0.13049553
118	0x3dd7669d	0.10517619
119	0x3e2e82e0	0.17042112
120	0x3e083513	0.13301496
121	0x3e181d11	0.14854838
122	0x3e2ca27a	0.16858855
123	0x3c8a442f	0.016878216
124	0x3dc82f44	0.0977464
125	0x3e01595f	0.12631749
126	0x3d9629de	0.07332204
127	0x3dcf2884	0.101151496
128	0x3d3b304c	0.045700356
129	0x3da09ba4	0.07842186
130	0x3dba8760	0.09107852
131	0x3d88b2b1	0.06674708
132	0x3d0fb313	0.035082888
133	0x3c857377	0.01629041
134	0xbc180b6f	-0.00928007
135	0xbc3429c1	-0.010996283
136	0xbc071488	-0.008244641
137	0x3ce2ab22	0.027669493
138	0x3cd490d0	0.025947958
139	0xbb266135	-0.002538753
140	0x3d26e5f0	0.04074663
141	0x3d45837f	0.048221108
142	0xbd0e7383	-0.03477813
143	0xbcd1696b	-0.025562963
144	0x3dbc1541	0.09183741
145	0x3dacf3e9	0.0844496
146	0x3e06d17f	0.13165854
147	0x3bb54925	0.005532401
148	0x3d2779f0	0.040887773
149	0x3df3c185	0.11902145
150	0x3dd9a6b5	0.106275
151	0x3da37bd0	0.079826
152	0x3d9a9b9d	0.07549212
153	0x3dd63f4a	0.1046129
154	0x3cacacdf	0.021078525
155	0x3e101618	0.14070928
156	0x3d947156	0.072481796
157	0x3cdddb02	0.02708197
158	0x3e09c9d0	0.13455892
159	0x3e36fd64	0.17870098
160	0x3dd28a40	0.10280275
161	0x3e057feb	0.13037078
162	0x3cf893b8	0.030343875
163	0x3c5d0089	0.013488897
164	0x3d380072	0.0449223
165	0xbc8fb3f4	-0.017541863
166	0xbd51299a	-0.051065065
167	0x3d124704	0.035712257
168	0x3cbc5281	0.02298856
169	0x3c15e571	0.009148941
170	0x3c0326c9	0.008004853
171	0xbcd4732b	-0.025933823
172	0x3d6b7eed	0.057494093
173	0x3ca2d7b2	0.019878242
174	0xbce52639	-0.027972328
175	0x3d3e00ac	0.04638736
176	0x3d5c2824	0.05374922
177	0xbce5cf8d	-0.02805307
178	0x3d9b9392	0.07596506
179	0xbc98af83	-0.018638378
180	0xbcf38fca	-0.02973165
181	0x3d1d6389	0.038425002
182	0xbcb65722	-0.022258345
183	0x3c858f1a	0.016303588
184	0xbcd30f3e	-0.025764104
185	0xbcf1747b	-0.029474488
186	0x3ce38a1c	0.027775817
187	0xbbe55e61	-0.0069997762
188	0x3d0950a8	0.033524185
189	0xbda1f9c5	-0.07908968
190	0x3d191027	0.03736892
191	0x3ceaf109	0.028679388
192	0xbcea7d16	-0.028624099
193	0xbd3cb279	-0.046068642
194	0x3c46165b	0.012090291
195	0xbd7a5ca3	-0.0611235
196	0x3d5b12bd	0.053484667
197	0x3c8ff076	0.017570715
198	0xbd956a7e	-0.072957024
199	0x3db1e062	0.08685376
200	0xbba3d463	-0.0049996837
201	0xbce19f27	-0.02754171
202	0x3c2e4c31	0.010638283
203	0xbc4763de	-0.012169806
204	0xbdabffe4	-0.08398417
205	0x3a66a26c	0.00087980065
206	0xbdc2a836	-0.0950474
207	0xbe34f2a6	-0.17670688
208	0xbdc2d51e	-0.09513305
209	0xbe52201c	-0.20520061
210	0xbe07fc12	-0.13279751
211	0xbd90cd8e	-0.070704564
212	0xbe0c3f40	-0.13696003
213	0xbdb62e05	-0.08895496
214	0xbd39ac2a	-0.045330204
215	0x3b48568c	0.0030569164
216	0x3ce1db2f	0.027570335
217	0x3df5d6ba	0.120038465
218	0x3d834283	0.064091705
219	0x3d8cc543	0.06873562
220	0x3d833ea6	0.064084336
221	0x3e0a10cc	0.1348297
222	0x3dd065cf	0.101756684
223	0x3d7a7806	0.06114962
224	0x3e33e028	0.17565978
225	0xbd707252	-0.058702774
226	0xbd234044	-0.03985621
227	0xbd1d5dc3	-0.038419496
228	0xbdd6270b	-0.104566656
229	0xbd28f823	-0.041252267
230	0x3d5d9c4a	0.054104127
231	0xbde76223	-0.11298015
232	0xbd5edd10	-0.05441004
233	0x3d3ce713	0.046118807
234	0xbd95cd71	-0.073145755
235	0x3d87e1fb	0.06634899
236	0x3d998462	0.07495953
237	0xbd409754	-0.047019318
238	0xbd0e8815	-0.034797747
239	0x3d1403c2	0.036136396
240	0xbd6a291a	-0.057168104
241	0x3d37558f	0.04475933
242	0xbcb60b91	-0.022222312
243	0x3db10197	0.08642881
244	0x3d0445cc	0.032293126
245	0x3c6d449b	0.014481689
246	0x3d862332	0.06549682
247	0x3d910a10	0.070819974
248	0x3cd3b476	0.025842886
249	0x3d9bc364	0.07605627
250	0x3d7333c5	0.059375543
251	0x3d427b95	0.04748114
252	0xbd5f7768	-0.054557234
253	0x3dc21f47	0.09478622
254	0x3d1acbcd	0.037792016
255	0xbc57d808	-0.013174064

c2.bias f4 [64]
0	0x3cef047b	0.029176941
1	0xbd2211c3	-0.03956772
2	0xbd1ce635	-0.03830548
3	0x3c394924	0.011308942
4	0xbd60bc91	-0.05486733
5	0x3d266f9f	0.040633794
6	0x3c9f00cb	0.019409558
7	0x3d24ce78	0.040235966
8	0x3bdbd87e	0.0067091575
9	0xbb9526d2	-0.004551747
10	0x3bfb4e19	0.007669222
11	0xbd68836e	-0.056765966
12	0xbc89ede7	-0.016837073
13	0x3bad746f	0.005293421
14	0x3b7d2571	0.0038627053
15	0x3cb6895c	0.022282295
16	0x3cd195e2	0.025584165
17	0x3d453820	0.048149228
18	0x3ca56d27	0.02019365
19	0xbd3ab206	-0.045579933
20	0xbd0e8f93	-0.03480489
21	0x3d04cdb0	0.03242272
22	0x3d076515	0.033055384
23	0xbd5ae8c3	-0.053444635
24	0xbc577903	-0.01315141
25	0xbd1df647	-0.038564947
26	0xbb273829	-0.0025515652
27	0xbca42163	-0.020035451
28	0xbcbab38e	-0.022790696
29	0xbbd16332	-0.006389999
30	0x3c124e37	0.008929781
31	0x3d3a6c00	0.045513153
32	0xbd427852	-0.047478028
33	0x3cafe51f	0.021471558
34	0xbd5b19c8	-0.053491384
35	0xbd645d75	-0.05575319
36	0xbc2deb6a	-0.010615209
37	0xbcf6f84f	-0.0301477
38	0x3d9b01f5	0.07568733
39	0xbb2454d5	-0.0025074978
40	0xbd3aa989	-0.045571838
41	0xbce69615	-0.028147737
42	0xbd29dac9	-0.041468415
43	0x3d798068	0.060913473
44	0x3c226d66	0.009913778
45	0x3c97dbc9	0.018537419
46	0xbc7dc2f7	-0.015488378
47	0xbc6bc81f	-0.014390974
48	0x3d1bf443	0.038074743
49	0x3bb57e1b	0.0055387146
50	0x3cff2b71	0.031148644
51	0x3d00b4a1	0.03142226
52	0x3c1295a5	0.008946811
53	0x3cfc0c92	0.030767713
54	0xbcffc12e	-0.031220045
55	0xbc04f32d	-0.008114618
56	0xbbe541a5	-0.006996351
57	0xbd282af6	-0.041056596
58	0xbd1f2877	-0.03885695
59	0x3d2a933e	0.041644327
60	0x3c541fea	0.012947062
61	0x3d237ccb	0.039913934
62	0xbd6da412	-0.058017798
63	0x3cb70b5d	0.022344286

c3.weight f4 [256, 64, 3, 3]
0	0x3cf9114c	0.030403756
1	0x3c0bdd52	0.008536654
2	0x3d2220f6	0.039582215
3	0xbcbee185	-0.023300895
4	0x3d00760f	0.03136259
5	0x3b1819b8	0.002320869
6	0x3c6c122d	0.01440863
7	0xbc7cdc14	-0.01543333
8	0xbcfe4670	-0.031039447
9	0x3d415139	0.0471966
10	0xbc818b67	-0.015813543
11	0x3d838feb	0.064239345
12	0x3d04b3c8	0.032398015
13	0x3b24408f	0.0025062894
14	0xbc003b99	-0.007826709
15	0x3c8b65bb	0.017016282
16	0x3d579436	0.05263158
17	0x3cfd4cd6	0.030920427
18	0x3c6dc2c6	0.01451177
19	0x3d2e02d0	0.04248315
20	0x3ccfda74	0.025372721
21	0xbc8f648d	-0.017504001
22	0x3c8fa257	0.017533464
23	0x3d2f52e4	0.04280366
24	0x3d3626c6	0.04447057
25	0x3d3a6241	0.04550386
26	0x3d528419	0.05139551
27	0x3b153637	0.002276791
28	0x3cba146a	0.022714812
29	0xbce4fe80	-0.027953386
30	0xbd03f2c0	-0.032213926
31	0x3c1f8328	0.00973586
32	0xbd1deeae	-0.0385577
33	0xbd22ea6b	-0.03977434
34	0xbcf4eb78	-0.029897436
35	0xbc607b59	-0.013701283
36	0xbd8d9111	-0.06912435
37	0xbd9eb0ef	-0.07748591
38	0xbd5e7d18	-0.054318517
39	0xbdb76fe4	-0.08956888
40	0xbd40e380	-0.04709196
41	0xbda84567	-0.082163624
42	0xbe048ea0	-0.12945032
43	0xbdcea530	-0.10090101
44	0xbddb99c9	-0.107226916
45	0x3d8640ff	0.06555366
46	0x3ce00c7e	0.027349707
47	0x3d7db34a	0.06193856
48	0x3dbf40c1	0.09338523
49	0x3d832eba	0.06405397
50	0x3da8a8cd	0.08235321
51	0x3db4dfb1	0.08831728
52	0x3d080a92	0.033213206
53	0x3cc152e9	0.023599105
54	0x3e07bb69	0.13255085
55	0x3dc41d11	0.095758565
56	0x3e233fe4	0.15942341
57	0x3e24d9aa	0.16098657
58	0x3df54651	0.119763024
59	0x3e35e9bd	0.17764945
60	0x3dc7aae2	0.0974939
61	0x3e0c7cf2	0.13719538
62	0x3dfa97f6	0.122360155
63	0x3e098d10	0.13432717
64	0x3e059adb	0.13047354
65	0x3df24e2c	0.11831316
66	0x3de47b7e	0.11156367
67	0x3e0ddbd7	0.13853393
68	0x3d29ee38	0.04148695
69	0x3e21a59d	0.15785833
70	0x3e06be46	0.13158521
71	0x3d86fa9d	0.065907694
72	0xbd101b95	-0.035182554
73	0x3c88bd4f	0.016691832
74	0x3d15fc2e	0.03661745
75	0x3d006935	0.031350333
76	0xbccfe131	-0.025375934
77	0x3cd264aa	0.025682766
78	0x3c1cbbe1	0.009566278
79	0xbc2ea4e7	-0.010659433
80	0xbba3333f	-0.0049804742
81	0x3cbb223e	0.022843476
82	0x3d5466e7	0.051855948
83	0x3cc7519f	0.024330912
84	0x3c561c2e	0.013068242
85	0x3c607f40	0.013702214
86	0x3c72a263	0.014809224
87	0x3d0b80eb	0.034058493
88	0x3b91cf5f	0.0044497694
89	0x3cb9aa2e	0.022664156
90	0x3b39a552	0.0028327298
91	0x3d38a533	0.04507942
92	0x3bbeb4ba	0.005819884
93	0xbcb28e7e	-0.021796461
94	0x3cb1170e	0.021617439
95	0xbb58293d	-0.0032983564
96	0xbba10563	-0.004913972
97	0x3c262b98	0.0101422295
98	0xbcf79bca	-0.030225653
99	0x3d0aa186	0.033845447
100	0x3d3b5392	0.045733996
101	0x3d670dd9	0.05640969
102	0x3d064197	0.032777395
103	0x3ce324a5	0.027727434
104	0x3d4bb516	0.049733244
105	0x3ccf24a4	0.025286026
106	0x3d97633f	0.073919766
107	0x3d3dc6a5	0.04633202
108	0x3d8c7f1e	0.06860183
109	0x3da74be3	0.08168771
110	0x3db5cc31	0.08876837
111	0x3d9a62b3	0.07538357
112	0x3cbd05b9	0.023074018
113	0x3d5ac33c	0.053408846
114	0x3da6643b	0.08124586
115	0x3da367dc	0.07978794
116	0x3d0a8134	0.033814624
117	0x3cb3ec91	0.02196339
118	0x3d40ffd3	0.047118973
119	0x3ba25e91	0.004955121
120	0x3d9ffbed	0.07811723
121	0x3da7e3d8	0.081977546
122	0x3bdb3eb7	0.006690826
123	0x3d864732	0.06556548
124	0x3beca578	0.007221874
125	0x3b1e5ebb	0.002416535
126	0xbcc0263c	-0.023455732
127	0xbc5f1601	-0.013616086
128	0x3bf25be3	0.0073962077
129	0x3d075768	0.03304234
130	0xbd28a9e3	-0.04117764
131	0xbb5dec50	-0.0033862777
132	0xbd1959b9	-0.03743908
133	0x3cad8b34	0.021184541
134	0xbd15ec7d	-0.036602486
135	0x3c7f2151	0.015571908
136	0x3d946870	0.07246482
137	0x3d65158e	0.05592876
138	0x3d384188	0.04498437
139	0x3cd5241a	0.026018191
140	0x3c65a9f6	0.014017573
141	0x3d24d0cd	0.04023819
142	0x3d9113af	0.070838325
143	0x3ccbb05b	0.024864366
144	0x3d75711c	0.059922323
145	0x3d5a0c97	0.053234663
146	0x3de89b22	0.11357714
147	0x3d993ce1	0.07482315
148	0x3d68b955	0.05681737
149	0x3daa69ae	0.08320938
150	0x3d2f30df	0.042771216
151	0x3d9cba8e	0.0765277
152	0x3d0803ba	0.03320668
153	0x3d543127	0.051804688
154	0xbc2c73d2	-0.010525661
155	0xbb00f4d9	-0.001967719
156	0x3cdf1617	0.027232213
157	0xbbd37955	-0.006453673
158	0x3cd43f3e	0.025909062
159	0xbd2487c6	-0.040168546
160	0xbd1228e5	-0.03568353
161	0x3d34748e	0.044056468
162	0x3d3a06c8	0.045416623
163	0x3c365bd5	0.011130293
164	0xbc011016	-0.00787737
165	0xbcdd5719	-0.02701907
166	0xbd066fc8	-0.032821447
167	0xbd767b47	-0.06017616
168	0x3bc12108	0.00589383
169	0xbd14b1c3	-0.03630234
170	0x3cb605e3	0.022219604
171	0x3d29e241	0.04147554
172	0x3d179787	0.037009742
173	0x3bc3d67d	0.0059764967
174	0x3d0fa1ae	0.0350663
175	0x3d45a366	0.048251532
176	0xbc52895c	-0.012850132
177	0x3d5c5545	0.053792257
178	0x3d450131	0.04809684
179	0x3c213d58	0.009841286
180	0x3db9cc83	0.09072211
181	0x3d90ad71	0.07064331
182	0x3da3263b	0.07966276
183	0x3caa4629	0.020785408
184	0x3daec4e4	0.08533648
185	0x3cd98926	0.026554655
186	0x3d95000b	0.07275399
187	0x3d680952	0.056649514
188	0x3da157fa	0.07878108
189	0x3d408444	0.04700114
190	0xbb3d404e	-0.002887744
191	0x3da1e9ca	0.0790592
192	0x3c2d58e8	0.010580279
193	0x3d176683	0.036962997
194	0x3d8fcc70	0.07021415
195	0x3ba6cce8	0.0050903447
196	0x3bb669db	0.005566818
197	0xbb9e6cc7	-0.0048347446
198	0x3d281b25	0.041041512
199	0x3b506afa	0.0031802044
200	0x3cd65410	0.026163131
201	0x3d230ccc	0.039807126
202	0xbc290769	-0.010316708
203	0x3d19bd3c	0.037533984
204	0x3d1b4043	0.03790308
205	0x3ce0a3d9	0.027421879
206	0xbc392d08	-0.01130224
207	0xb89816e0	-7.2521856e-05
208	0x3d9162cf	0.07098924
209	0x3ce89236	0.028390031
210	0x3d81b451	0.06333221
211	0x3bb85d67	0.005626369
212	0x3c19573c	0.009359177
213	0xbc61076a	-0.013734678
214	0x3cde57e9	0.027141528
215	0x3c926ff8	0.017875656
216	0xbc1bcb2f	-0.009508892
217	0x3c4ea69c	0.012612965
218	0x3d077dd4	0.033078983
219	0xbb66bf86	-0.0035209372
220	0x3c9a16e7	0.018809749
221	0xbc2cc6b8	-0.010545425
222	0xbc943dea	-0.01809593
223	0xbcb3702b	-0.021904072
224	0x3d000683	0.03125621
225	0x3d1f8d47	0.038953092
226	0x3d0a268f	0.03372818
227	0x3da30cae	0.07961403
228	0x3da7c1cf	0.08191263
229	0x3c6df349	0.014523336
230	0x3d34a1e4	0.044099703
231	0x3d92c1d9	0.0716588
232	0x3d1a7258	0.037706703
233	0x3d3f525a	0.046709396
234	0x3d254ffd	0.040359486
235	0xbb30d075	-0.0026979719
236	0x3cb50b56	0.022100132
237	0xbccc2a18	-0.024922416
238	0x3ccc08a2	0.02490646
239	0x3d032bc7	0.03202417
240	0x3d49d502	0.049275406
241	0x3ccff60b	0.025385877
242	0x3d875631	0.066082366
243	0x3c029d70	0.007972106
244	0x3b8921bb	0.004184929
245	0x3d090662	0.033453353
246	0x3d0656cf	0.03279763
247	0x3d505ca6	0.050869606
248	0x3bd75de9	0.0065724743
249	0x3d1940a5	0.037415165
250	0x3d1d9d0a	0.038479842
251	0x3b74bc10	0.003734354
252	0x3d5d5178	0.054032773
253	0x3d313c5c	0.043270454
254	0x3d880876	0.06642239
255	0x3d60978e	0.054832034

c3.bias f4 [256]
0	0xbb74fc7e	-0.0037381942
1	0x3bf6ba46	0.0075295297
2	0xbd75161d	-0.059835542
3	0xbc57d6c9	-0.013173767
4	0xbcb2f1cf	-0.021843819
5	0x3cfd6e41	0.030936362
6	0xbc9f78c9	-0.019466775
7	0x3d196e21	0.037458543
8	0x3cb21db1	0.021742674
9	0x3d1d2de7	0.038373854
10	0xba109732	-0.0005515694
11	0xbc4677ce	-0.012113525
12	0xbc29654c	-0.010339092
13	0x3d2cc732	0.042182155
14	0xbbff28e0	-0.007786855
15	0x3d298acc	0.041392133
16	0xbd06e1bc	-0.03293012
17	0xbd0eb9e1	-0.034845237
18	0x3c902d42	0.017599706
19	0x3d9aad3f	0.07552575
20	0x3c907b65	0.017636964
21	0xbc03a65a	-0.008035267
22	0xbc4f8864	-0.012666795
23	0xbcb6234d	-0.02223363
24	0xbc0d763a	-0.008634144
25	0x3d81d582	0.063395515
26	0xbbfd360e	-0.007727391
27	0x3d1f23de	0.038852565
28	0x3d7e8be1	0.062145118
29	0xbcaaddf4	-0.020857789
30	0xbc5b2483	-0.013375404
31	0x3cdeedec	0.02721306
32	0x3d07e6b2	0.033178993
33	0x3c9a0ae3	0.01880402
34	0x3d060354	0.032718018
35	0x3cec798d	0.028866554
36	0xbd0d81a5	-0.034547467
37	0x3d3358c5	0.04378583
38	0x3d3d4c79	0.046215508
39	0x3d2f006c	0.04272501
40	0xbd00aba0	-0.031413674
41	0x3d3b2a4c	0.045694634
42	0x3d620d06	0.0551882
43	0xbca90c1e	-0.02063566
44	0x3d29ce1a	0.04145632
45	0x3acc72e1	0.0015598201
46	0xbc58dfa1	-0.013236911
47	0x3ce6d3f9	0.028177248
48	0x3cd5beda	0.026091982
49	0xbcfafb2e	-0.03063735
50	0xbca7c170	-0.02047798
51	0x3d1bfb8f	0.0380817
52	0x3c006ea3	0.007838878
53	0x3ba24bd5	0.0049528875
54	0xbd2aa505	-0.04166128
55	0x3d18aa3c	0.037271723
56	0xbc435a95	-0.011923452
57	0xbc8f997e	-0.017529245
58	0xbc556616	-0.013024827
59	0xbc0d4b37	-0.00862389
60	0xbd49abd9	-0.049236152
61	0x3c23a619	0.009988331
62	0x3bcb9a42	0.0062134573
63	0x3d4f5819	0.050621126
64	0x3cf00a49	0.02930178
65	0xbc3b3105	-0.011425261
66	0x3b1aca4a	0.0023619109
67	0x3b91271e	0.004429712
68	0xbbef6337	-0.0073055285
69	0x3c973000	0.018455505
70	0x3cb6fce3	0.022337383
71	0x3d2135db	0.039358
72	0xbcd6f35a	-0.026239086
73	0x3d331fd4	0.043731526
74	0xbbc91a14	-0.006137142
75	0x38a28d8f	7.751129e-05
76	0x3cc7e27e	0.024399992
77	0x3cd36c12	0.025808368
78	0xbd068ab1	-0.03284711
79	0x3cae34a1	0.02126533
80	0xbd0e484e	-0.034736924
81	0x3d8eb0c0	0.06967306
82	0xbcf6e34e	-0.030137684
83	0xbce6cb24	-0.028173037
84	0x3bbd554a	0.0057779895
85	0xbc569500	-0.013097048
86	0x3cf941f5	0.030426959
87	0xbce8975a	-0.028392483
88	0x3d599edc	0.053130016
89	0xbd663d56	-0.05621084
90	0x3a6e3d04	0.00090880715
91	0x3d7713d2	0.060321636
92	0x3d4f1703	0.050559055
93	0x3d7aeb4e	0.06125956
94	0xbd2311c4	-0.039811864
95	0x3d11fe6e	0.035643034
96	0xbd7e14c6	-0.06203153
97	0xbc9e2202	-0.019303326
98	0xbcbddc5b	-0.023176363
99	0xbd81cded	-0.06338105
100	0xbc6f971e	-0.0146234315
101	0xbb03ada6	-0.0020092516
102	0x3d63aaf9	0.055582974
103	0x3c7ba78a	0.015359769
104	0xbccf841a	-0.025331546
105	0x3d80e896	0.06294362
106	0xbd04c4e6	-0.03241434
107	0xbd16f2ec	-0.036852762
108	0xbd039a28	-0.032129437
109	0xbd3c23b9	-0.045932505
110	0x3bae05b9	0.005310741
111	0x3c984be4	0.018590875
112	0x3bae7a73	0.0053246557
113	0x3d3923de	0.04520022
114	0xbc8d9025	-0.017280648
115	0xbc53dbf2	-0.012930857
116	0x3c0c8100	0.008575678
117	0xbc165d5b	-0.009177531
118	0xbcf1ada5	-0.029501745
119	0x3a9c2ede	0.0011915823
120	0x3ce3022c	0.027710997
121	0x3d414a02	0.04718972
122	0xbc573080	-0.013134122
123	0xbc34f29d	-0.011044172
124	0x3d5e0811	0.05420691
125	0x3ab20ebb	0.0013584712
126	0xbcc0d6b8	-0.023539886
127	0xbcafaad2	-0.021443758
128	0xbc02284e	-0.00794418
129	0x3d5b5e46	0.053556703
130	0xbc52a1f1	-0.012855993
131	0xbc62391d	-0.013807562
132	0xbd3bfca6	-0.04589524
133	0xbd1c7b81	-0.03820372
134	0xbc864ae7	-0.016393138
135	0xba8dcb0b	-0.0010817958
136	0xbcb956b1	-0.022624345
137	0xbd816fe0	-0.063201666
138	0x3a751065	0.0009348451
139	0xbca707d0	-0.020389467
140	0x3cdb3df1	0.026762934
141	0x3d259dd7	0.04043373
142	0x3d1f0c80	0.03883028
143	0x3c270f26	0.010196483
144	0xbc61e83e	-0.013788281
145	0xbd115804	-0.03548433
146	0xbbf842ff	-0.007576346
147	0xbca3dca3	-0.020002669
148	0xbc5e6148	-0.013572998
149	0x3d0fbdaf	0.035093006
150	0xbd1bd5b9	-0.03804562
151	0x3d98dec8	0.07464367
152	0xbc911efe	-0.017714974
153	0x3d221143	0.039567243
154	0x3d4c19e8	0.049829394
155	0x3cd70013	0.026245153
156	0xbb7b9ae4	-0.0038391883
157	0xbb350cb7	-0.0027625987
158	0x3d2cb952	0.042168923
159	0x3bb57125	0.0055371695
160	0x3c1e6415	0.009667416
161	0xbc8e6886	-0.017383825
162	0x3d9a378b	0.07530125
163	0x3c5809d9	0.013185942
164	0xbd061eec	-0.032744333
165	0xbc5ef76c	-0.013608795
166	0x3bcda54a	0.0062758075
167	0xbd01bb68	-0.031672865
168	0x3d64425c	0.055727348
169	0x3d281dea	0.041044153
170	0xbc2295da	-0.009923423
171	0x3d74da04	0.05977823
172	0x3a13a539	0.0005632225
173	0xbc3282c2	-0.010895433
174	0x3c057073	0.008144486
175	0x3ba19be7	0.004931915
176	0xbc5640b9	-0.0130769545
177	0x3d8bdd72	0.06829347
178	0x3d2a4644	0.041570917
179	0xbd1b7936	-0.037957393
180	0xbcbef2b4	-0.02330909
181	0x3cfb94b6	0.03071056
182	0x3c6200b6	0.013794115
183	0x3cf4dd21	0.029890599
184	0x3d12de3b	0.035856467
185	0x3bf1403f	0.007362395
186	0x3d323ebc	0.04351686
187	0x3c9c6e94	0.019095697
188	0x3c02ed2b	0.007991116
189	0x3b8469b0	0.0040409192
190	0x3cc9aab3	0.024617529
191	0xbd044120	-0.03228867
192	0x3ca9b176	0.020714503
193	0xbd3be9d2	-0.045877285
194	0x3cadfb7a	0.021238077
195	0xbd6243af	-0.05524033
196	0xbc93e6d2	-0.0180544
197	0x3cf84e28	0.030310705
198	0x3a924886	0.001116053
199	0xbcddb0f2	-0.027061913
200	0xbd6c5abf	-0.05770373
201	0x3bb89aa0	0.005633667
202	0xbbd6094b	-0.0065318695
203	0x3cfa934c	0.030587815
204	0xbd66923b	-0.0562918
205	0xbcdb20ae	-0.026748981
206	0x3c6abca1	0.014327199
207	0x3c125b05	0.008932834
208	0x3ced3203	0.028954512
209	0x3d65b6a6	0.05608239
210	0x3b6701a8	0.003524879
211	0xbc9e581d	-0.019329125
212	0x3cfbda4b	0.030743739
213	0xbc21be18	-0.009871982
214	0x3c2d97c4	0.010595266
215	0x3d19665d	0.037451137
216	0x3c67ad1b	0.014140393
217	0x3d16c796	0.036811434
218	0x3d34c792	0.044135638
219	0x3d8ad94a	0.06779726
220	0x3d9953a0	0.07486653
221	0xbccbd700	-0.024882793
222	0x3ca8a772	0.020587657
223	0x3d20c0a8	0.03924623
224	0xbccd8350	-0.025087029
225	0x3c9836a7	0.018580748
226	0xbd3e87e9	-0.046516333
227	0x3d015538	0.03157541
228	0xbc551a51	-0.013006763
229	0xbca81e8c	-0.020522378
230	0x3d1dfac5	0.03856923
231	0x3d1a428a	0.037661113
232	0xbccf7518	-0.02532439
233	0x3d936f68	0.071989834
234	0x3d06e5f8	0.03293416
235	0x3c913d1d	0.017729336
236	0x3d51d2f8	0.051226586
237	0x3d181de9	0.0371379
238	0xbc6cb2f7	-0.014446965
239	0x3c1e9fca	0.009681651
240	0x3d81e30a	0.063421324
241	0x3d0eea74	0.03489156
242	0xbcd1c5f0	-0.02560708
243	0x3cfb6e87	0.030692352
244	0x3d80c128	0.06286842
245	0x3d023e90	0.031797945
246	0xbb11fb60	-0.0022275075
247	0xbd1ad402	-0.037799843
248	0x3cd570b3	0.026054716
249	0x3c888614	0.016665496
250	0x3c4ba1ee	0.012428744
251	0x39b6a9b8	0.00034840195
252	0x3c1840b7	0.009292773
253	0xbce340bd	-0.02774083
254	0x3cd889cd	0.026432896
255	0x3d526c37	0.051372733

fc1.weight f4 [64, 256]
0	0x3c9120ef	0.0177159
1	0x3d209878	0.039207906
2	0xbc11cd68	-0.00889907
3	0xbd67aab0	-0.056559265
4	0xbd5c84e2	-0.053837664
5	0x3cbb905c	0.022895984
6	0xbd7e5a0c	-0.062097594
7	0xbd6a4158	-0.057191223
8	0xbd1b4188	-0.037904292
9	0x3bacc11b	0.0052720434
10	0xbc5eae40	-0.013591349
11	0xbc820d78	-0.015875563
12	0xbd0364a1	-0.03207839
13	0x3cb42022	0.021987978
14	0xbd15c4b8	-0.03656456
15	0xbbfcf023	-0.007719056
16	0x3d5b2fa3	0.053512227
17	0x3c39a3fe	0.011330603
18	0x3d4bd07c	0.049759373
19	0x3d3a2525	0.04544558
20	0xbd809445	-0.0627828
21	0xbc90faec	-0.017697774
22	0xbd6b63d5	-0.057468254
23	0x3d3dcbc8	0.04633692
24	0xbd50445d	-0.050846446
25	0x3c941a21	0.018078865
26	0xbd38464c	-0.044988915
27	0x3bcb6858	0.006207507
28	0x3cfe6502	0.031054024
29	0xbd6c18ed	-0.05764096
30	0xbc80dac6	-0.01572932
31	0xbd4e7c49	-0.050411496
32	0xbd5bab4a	-0.05363015
33	0xbcd7e5c5	-0.02635468
34	0x3c286b8e	0.010279549
35	0x3d15341f	0.03642666
36	0xbd44756f	-0.047963556
37	0xbd1aaffd	-0.03776549
38	0xbd243141	-0.040086035
39	0xbd68d3c7	-0.05684259
40	0x3d502385	0.050815124
41	0xbd35671c	-0.044287786
42	0x3be15cb3	0.0068775057
43	0x3bab34a1	0.0052247797
44	0xbd3b6da5	-0.045758862
45	0xbd557d46	-0.052121423
46	0x3cd6585d	0.026165182
47	0xbcc594fc	-0.024118893
48	0xbd7c9fc9	-0.06167582
49	0x3cf711a0	0.030159771
50	0x3cd178a8	0.025570229
51	0x3d14ddc4	0.036344305
52	0xbcbf5658	-0.023356602
53	0xbd42e3b5	-0.04758044
54	0xbc9df836	-0.019283395
55	0x3d4698d4	0.048485592
56	0x3c08c435	0.008347561
57	0xbd80d59f	-0.06290745
58	0xbd5f5667	-0.05452576
59	0xbd632b60	-0.055461287
60	0xbd5dda31	-0.05416316
61	0x3b0d258a	0.0021537268
62	0xbd057a7a	-0.032587506
63	0xbcc732ba	-0.02431618
64	0xbd2cde34	-0.042204097
65	0x3ca96904	0.020679958
66	0xbd8287b1	-0.06373537
67	0xbc8fa064	-0.017532535
68	0x3c79b336	0.015240481
69	0xbd622719	-0.055213068
70	0xbd701d16	-0.05862149
71	0x3cf51c47	0.02992071
72	0x3bc712aa	0.006075223
73	0x3c2f4004	0.010696415
74	0x3d642bf3	0.055705976
75	0x3cd789a6	0.026310753
76	0xbd7595d8	-0.059957355
77	0xbce336e5	-0.027736137
78	0x3d01140f	0.03151327
79	0x3d1da640	0.038488626
80	0xbce8276d	-0.028339112
81	0xbc2b26ba	-0.010446245
82	0xbbcb19d0	-0.0061981454
83	0xbcecfd57	-0.028929396
84	0xbce3a0f9	-0.027786719
85	0xbd12f15a	-0.035874702
86	0xbb93a9be	-0.004506319
87	0xba6a4c1f	-0.00089377345
88	0xbd43f61f	-0.04784214
89	0x3d09df8e	0.033660464
90	0xbd67f534	-0.05663033
91	0x3ca32005	0.019912729
92	0x3d6530b3	0.055954646
93	0xbc640795	-0.013917823
94	0x3c7f583a	0.015585
95	0xbd1e0f3f	-0.03858876
96	0x3d1987ad	0.037482906
97	0xbc18e673	-0.009332287
98	0x3c3991a5	0.011326228
99	0xba6b8957	-0.0008985004
100	0xbd005661	-0.031332377
101	0x3d187161	0.0372175
102	0xbd473fee	-0.048644952
103	0x3d31a8ac	0.04337375
104	0xbcea074f	-0.028567938
105	0x3bfc0aca	0.007691716
106	0x3c9f573d	0.019450778
107	0x3ccbae50	0.024863392
108	0xbd1952fc	-0.037432656
109	0x3c332560	0.010934204
110	0xbcf01f05	-0.029311666
111	0x3d1fc451	0.03900558
112	0xbd33e9bf	-0.04392409
113	0xbcb06ec2	-0.021537188
114	0xbd40aa48	-0.047037393
115	0xbc0cc1e5	-0.00859115
116	0x3d632654	0.055456474
117	0x3d559728	0.052146107
118	0xbd3d318d	-0.046189833
119	0xbc8f0e27	-0.017462803
120	0x3b4ec0ed	0.0031548098
121	0xbd6c83a4	-0.05774273
122	0x3cdd81ee	0.027039494
123	0xbd4875d3	-0.04894049
124	0xbc6b8914	-0.014375944
125	0x3d5aa3e6	0.053378962
126	0xbc7668ca	-0.015039632
127	0xbd54e863	-0.051979434
128	0xbc068b61	-0.008211941
129	0x3d736fc8	0.059432775
130	0x3d1383e7	0.036014464
131	0x3d35c52e	0.0443775
132	0xbcd8d82e	-0.02647027
133	0xba85e294	-0.001021462
134	0xbd2f752f	-0.042836364
135	0xbc24e326	-0.010063922
136	0xbcbfa868	-0.023395732
137	0x3ce3a2d5	0.027787605
138	0xbd7e33e8	-0.06206122
139	0x3cb76a76	0.022389632
140	0xbd37b4d9	-0.044850204
141	0x3a0d6059	0.000539308
142	0xbb9603d7	-0.0045780945
143	0x3c8eb2a6	0.01741917
144	0x3d7a0df2	0.061048456
145	0xbc900b7d	-0.017583603
146	0xbc1e35a6	-0.0096563455
147	0xbd67e832	-0.056617923
148	0xbd5e8cb7	-0.054333415
149	0xbd32595a	-0.043542244
150	0xbccf3017	-0.025291486
151	0x3c1a1c62	0.009406181
152	0xbc2d93c5	-0.010594313
153	0xbc4e03d2	-0.012574153
154	0xbc9662ff	-0.018357752
155	0x3d3934c3	0.045216333
156	0xb892ef95	-7.006448e-05
157	0xbb96742e	-0.0045914864
158	0xbcc0a0af	-0.02351412
159	0xbd6b884b	-0.057503026
160	0xbcd4dffb	-0.025985708
161	0xbcf82d9c	-0.030295186
162	0xbd7c2e54	-0.06156762
163	0x3c04ddc9	0.008109518
164	0x3c1331ed	0.008984071
165	0xbd0331bd	-0.032029856
166	0xbc93966c	-0.018016063
167	0xbc3a8bc0	-0.011385858
168	0x3d316d80	0.043317318
169	0xbc76fccb	-0.015074919
170	0x3cd5f758	0.02611892
171	0xbc089353	-0.008335906
172	0x3c836d98	0.01604347
173	0x3d62bfa3	0.05535854
174	0xbd5d864d	-0.054083157
175	0x3d729185	0.05922081
176	0xbd83a0b0	-0.06427133
177	0x3cd3fa14	0.025876082
178	0x3c9b6df9	0.018973337
179	0xbd508f80	-0.050918102
180	0x3d5c4d94	0.05378492
181	0x3d7a379e	0.061088197
182	0xbc9a3098	-0.018822
183	0xbd589692	-0.05287797
184	0xbd6a1013	-0.057144236
185	0x3d62b4a3	0.05534805
186	0x3d1a60c6	0.037689947
187	0xbbee3f76	-0.0072707487
188	0x3d3ecdad	0.046582866
189	0x3be27066	0.0069103716
190	0x3d567c79	0.0523648
191	0xbd35ded8	-0.044401973
192	0x3b786348	0.0037900973
193	0xba52f860	-0.0008047875
194	0x3d5e04f3	0.05420394
195	0x3d446b4b	0.047953885
196	0x3d47a9c7	0.048745897
197	0x3cbf69bc	0.023365848
198	0x3c90d129	0.01767786
199	0xbcc36e41	-0.023856284
200	0x3d3f51ad	0.04670875
201	0xbd446950	-0.047951996
202	0x3c7def88	0.015499003
203	0xbbd1d7af	-0.0064038853
204	0x3d201956	0.039086662
205	0x3d02e3ad	0.03195541
206	0x3bb719ef	0.0055878083
207	0xbcfaf675	-0.030635098
208	0x3d318b3e	0.043345682
209	0x3d357324	0.04429926
210	0x3bd7189a	0.006564212
211	0xbcd729ec	-0.026265107
212	0xbc029ee2	-0.007972451
213	0x3d0ad87e	0.03389787
214	0xbd0d59e2	-0.034509547
215	0xbcc04f55	-0.023475328
216	0x3c649fa1	0.013954074
217	0x3d5b67fa	0.053565957
218	0xbb4d9fca	-0.003137576
219	0x3d594042	0.053039797
220	0x3d09b52d	0.03362005
221	0xbc7dc8c8	-0.0154897645
222	0x3c952c72	0.01820967
223	0x3c23af70	0.009990558
224	0x3d37ef44	0.044905916
225	0x3d6ab73b	0.05730365
226	0x3d59b8a5	0.053154606
227	0xbcc499ee	-0.02399918
228	0x3ca10968	0.019657806
229	0x3c824453	0.01590172
230	0xbd40f8ad	-0.047112156
231	0x3c9ae349	0.018907206
232	0xbc27a4e5	-0.010232185
233	0x3d40a75f	0.047034618
234	0x3cbc19c5	0.022961507
235	0x3a4f2e7d	0.00079033506
236	0xba10f4e0	-0.0005529653
237	0xbd5aefe0	-0.05345142
238	0xbba8d7d1	-0.0051526804
239	0xbd016be6	-0.03159704
240	0xbd7f9a6a	-0.06240312
241	0xbc391ac3	-0.011297884
242	0x3a176b38	0.000577617
243	0x3d28861f	0.041143533
244	0xbd44919a	-0.04799042
245	0x3d28a964	0.04117717
246	0xbd40bc5c	-0.047054633
247	0x3ca69258	0.020333454
248	0xbd4a40ca	-0.049378194
249	0xbd6745e3	-0.056463134
250	0xbcc5bfab	-0.024139246
251	0xbd2c0085	-0.041992683
252	0x3cb5574a	0.02213635
253	0xbd44c72c	-0.048041508
254	0xbd41442a	-0.047184147
255	0x3cbc7280	0.023003817

fc1.bias f4 [64]
0	0x3b8d1e76	0.0043066097
1	0x3cce2120	0.02516228
2	0x3d98fe9e	0.074704394
3	0x3cb97821	0.02264029
4	0xbd371d09	-0.044705424
5	0xbcedce58	-0.029029056
6	0xbc8ccbd8	-0.017187044
7	0xbd52c744	-0.051459566
8	0x3bc15f5a	0.0059012594
9	0x3d22aac4	0.039713636
10	0xbb607720	-0.0034250692
11	0x3d38cbe9	0.04511634
12	0xbc6217c0	-0.013799608
13	0x3bce9551	0.006304421
14	0x3c98b720	0.018642008
15	0x3d3fe76e	0.046851568
16	0xbd68ce72	-0.056837507
17	0xbc206460	-0.009789556
18	0xbbaa5b60	-0.005198881
19	0x3d25b62f	0.040456947
20	0x3d7a1f57	0.061065044
21	0xbd6b26bc	-0.057409987
22	0x3d1309b5	0.03589793
23	0xbd649ca2	-0.05581344
24	0xbcc32b29	-0.023824291
25	0x3d2a0642	0.041509874
26	0x3d889915	0.06669823
27	0x3b53ee1d	0.0032337971
28	0xbcadd2b4	-0.021218635
29	0xbc87765f	-0.016535936
30	0xbcbeb5b2	-0.023279998
31	0x3cd4272a	0.025897581
32	0x3d815bb2	0.063163176
33	0x3cede26c	0.02903863
34	0x3d3745d2	0.04474432
35	0xbd4a3492	-0.04936654
36	0x3d456887	0.04819539
37	0xbd1c8627	-0.038213875
38	0xbd2cdbbf	-0.042201754
39	0xbd240744	-0.04004599
40	0x3d89e134	0.06732407
41	0xbd542277	-0.05179068
42	0xbcebecac	-0.028799377
43	0xbd63114c	-0.055436417
44	0x3d30a541	0.04312635
45	0xb9ff5d00	-0.0004870668
46	0x3cf2896d	0.029606545
47	0xbca88997	-0.02057342
48	0x3d37a40e	0.04483419
49	0x3d9bf36e	0.0761479
50	0x3d131255	0.035906155
51	0x3cc90cba	0.024542201
52	0x3afb6440	0.0019179657
53	0x3b137700	0.002250135
54	0x3d0e2895	0.03470667
55	0xbd15ce14	-0.036573485
56	0x3c9d2ad7	0.019185467
57	0x3c140878	0.009035222
58	0x3be8fff9	0.0071105924
59	0x3d3431bb	0.04399274
60	0x3c255cd2	0.010092931
61	0x3d0df6ff	0.034659382
62	0x3d2fbaa8	0.04290262
63	0x3cd071aa	0.025444824

fc2.weight f4 [5, 64]
0	0xbde7a858	-0.11311406
1	0x3cb0bea2	0.021575276
2	0x3d46785d	0.04845463
3	0x3d96571c	0.073408335
4	0x3da31851	0.07963622
5	0x3c766ea0	0.0150410235
6	0xbd3fc497	-0.046818342
7	0x3c86ba45	0.016446242
8	0x3e18a7f7	0.14907824
9	0x3df42147	0.1192041
10	0xbd41fe7c	-0.047361836
11	0x3e12ab53	0.14323168
12	0x3ca90726	0.020633291
13	0x3cf4ac9b	0.029867461
14	0xbdc8a53c	-0.09797141
15	0x3db846d7	0.08997887
16	0xbcabb634	-0.020960905
17	0x3d15bf26	0.036559246
18	0xbd926a32	-0.071491614
19	0x3e11232d	0.14173575
20	0x3d73665a	0.059423782
21	0xbd119714	-0.03554447
22	0xbdc3be67	-0.09557801
23	0x3d26a6f8	0.040686578
24	0xbe1f59bf	-0.15561579
25	0xbda74064	-0.081665784
26	0xbd250681	-0.040289406
27	0xbd1609e4	-0.036630526
28	0xbd576d97	-0.052594747
29	0x3d458853	0.048225712
30	0x3dbd3d47	0.09240203
31	0xb9f29e14	-0.00046275614
32	0x3ddd9d0d	0.10820971
33	0x3e24470a	0.16042724
34	0x3d155215	0.036455233
35	0x3d21adaa	0.03947226
36	0xbd2ffef5	-0.042967755
37	0x3d852916	0.06501977
38	0x3cba7499	0.022760676
39	0x3ccb42d1	0.024812134
40	0x3d5d5487	0.05403569
41	0xbdceecb9	-0.10103745
42	0x3d6c5578	0.057698697
43	0xbc8f72bd	-0.017510766
44	0x3c0eb606	0.00871039
45	0xbd7460a0	-0.05966246
46	0x3d93e99b	0.07222291
47	0x3d9979ac	0.0749391
48	0x3de8de0d	0.11370478
49	0x3c4197d4	0.011815984
50	0x3d5d0556	0.053960167
51	0xbbd16d08	-0.0063911714
52	0x3cc46e43	0.023978358
53	0x3d8b84fe	0.068124756
54	0x3d97de8a	0.07415493
55	0xbca9aee0	-0.02071327
56	0xbda2f982	-0.07957746
57	0xbc602206	-0.013679987
58	0xbd494286	-0.049135707
59	0xbd1c943b	-0.0382273
60	0xbdd6d33e	-0.1048951
61	0x3d972421	0.07379938
62	0x3cd035c4	0.025416262
63	0xbb936536	-0.0044981493
64	0xbd33cfea	-0.043899454
65	0xbc1c6172	-0.009544717
66	0xbdb2bcc3	-0.0872741
67	0xbd59c01a	-0.053161718
68	0x3dd261ba	0.10272546
69	0xbde5ff1c	-0.11230299
70	0xbd7309bc	-0.059335455
71	0xbd9318df	-0.07182478
72	0x3d406dfe	0.046979897
73	0xbd86baf2	-0.06578626
74	0xbd8b7dc8	-0.068111
75	0x3e16b6d6	0.14718184
76	0xbdbc831b	-0.09204694
77	0x3cbd2e9c	0.023093514
78	0xbc8fe956	-0.017567318
79	0xbd8c50c8	-0.06851345
80	0xbd3768e2	-0.04477776
81	0xbd2d3520	-0.042286992
82	0x3af0bc00	0.0018366575
83	0x3d59067a	0.052984692
84	0x3d9d99eb	0.07695373
85	0x3dacb538	0.08433002
86	0x3d0f90ee	0.035050325
87	0xbdd91d32	-0.10601272
88	0xbc2b2360	-0.010445446
89	0x3d135ec2	0.03597904
90	0x3d8ee18e	0.06976615
91	0xbd85e31e	-0.0653746
92	0xbd309460	-0.04311025
93	0x3ca27fb0	0.019836277
94	0x3d97cd61	0.0741222
95	0xbd8079ee	-0.06273256
96	0x3d78750a	0.060658492
97	0x3e3ae8d0	0.18252873
98	0xbc64a0df	-0.01395437
99	0xbd14c8f8	-0.03632447
100	0x3c9f37bc	0.019435756
101	0x3d113e34	0.035459712
102	0xbd01639d	-0.03158914
103	0xbda1cc84	-0.079003364
104	0x3e1409bb	0.14456837
105	0x3d7f4860	0.06232488
106	0x3da97eb0	0.08276117
107	0xbe7e75d4	-0.24849635
108	0xbd68733e	-0.05675053
109	0x3a8b2400	0.0010615587
110	0xbca543bf	-0.020173905
111	0x3e078d6e	0.13237545
112	0xbddefc2e	-0.10887943
113	0x3df40116	0.119142696
114	0x3e15bab4	0.14622003
115	0x3e1d4896	0.1535972
116	0xbdfa68fe	-0.12227057
117	0xbd79dd10	-0.061001837
118	0x3d0d6371	0.034518663
119	0xbddb2444	-0.107002765
120	0xbcfdfab6	-0.031003337
121	0xbc874b70	-0.016515464
122	0x3cb30204	0.021851547
123	0x3d3cfa9c	0.046137437
124	0xbd187ae2	-0.037226565
125	0x3d192971	0.037393037
126	0x3d82f297	0.063939266
127	0xbdd7ad63	-0.10531118
128	0x3d5c5a0f	0.053796824
129	0x3d4c6ad9	0.049906585
130	0xbc14f2bb	-0.009091075
131	0x3dc603e8	0.09668714
132	0x3df2fb64	0.11864355
133	0x3c8eea08	0.01744558
134	0x3d805876	0.062668726
135	0x3ccc3f3e	0.0249325
136	0x3dd0ef10	0.102018476
137	0x3deb8146	0.11499266
138	0x3d5d9520	0.054097295
139	0xbbccd552	-0.0062510157
140	0x3d920479	0.07129759
141	0x3d285168	0.04109326
142	0x3e387075	0.18011649
143	0xbd953420	-0.07285333
144	0xbd70de46	-0.058805726
145	0xbdd9866f	-0.10621344
146	0x3df63d92	0.12023462
147	0x3df92304	0.12164882
148	0x3d3997ae	0.04531067
149	0xbd9ed232	-0.07754935
150	0x3ceeb901	0.029140951
151	0xba93c900	-0.0011275113
152	0xbcc820e0	-0.024429739
153	0xbda42a82	-0.0801592
154	0xbe2775a2	-0.16353467
155	0xbd33ff3b	-0.04394458
156	0xbda30975	-0.07960788
157	0xbdf64961	-0.12025715
158	0xbdfafc4e	-0.122551546
159	0xbdef6e43	-0.11690953
160	0x3e10d219	0.14142646
161	0xbda18507	-0.07886701
162	0x3de9a470	0.11408317
163	0x3c154e1c	0.009112861
164	0xbd8985c1	-0.06714965
165	0xbd580fe4	-0.05274953
166	0x3dc9f8ec	0.09861931
167	0x3daf1ca2	0.08550383
168	0x3e060e17	0.13091312
169	0x3d407381	0.046985153
170	0xbd0b6430	-0.034031093
171	0xbe395abb	-0.18101017
172	0xbde3edf7	-0.111293726
173	0x3d254fa4	0.040359154
174	0xbdcb002e	-0.09912144
175	0x3da6b1b6	0.081393644
176	0x3d4a682b	0.04941575
177	0xbc302d6c	-0.010753017
178	0x3e069e25	0.13146265
179	0xbda1d8e4	-0.07902697
180	0x3d5fa4e8	0.054600626
181	0x3cb1a3d8	0.021684572
182	0xbddaaefb	-0.10677906
183	0x3d829ad6	0.06377189
184	0xbde049e7	-0.10951596
185	0xbd0a8b5f	-0.03382432
186	0x3c9d3a4f	0.019192843
187	0xbdb0ba9f	-0.08629345
188	0xbdc4c128	-0.09607154
189	0xbda5d287	-0.080967955
190	0x3d2d8631	0.042364303
191	0xbd54b0d3	-0.051926445
192	0x3dcbd627	0.09952956
193	0xbd59e08c	-0.05319266
194	0x3e2ae6c6	0.16689596
195	0x3de44719	0.11146373
196	0xbdfee272	-0.12445535
197	0x3d570a20	0.05249989
198	0x3bf95bd8	0.0076098256
199	0xbda7984e	-0.08183347
200	0x3e3eaab3	0.18619804
201	0xbdfe9b49	-0.12431962
202	0x3d8fe604	0.07026294
203	0xbcd17ebe	-0.02557313
204	0x3d959017	0.073028736
205	0x3d7ed3d0	0.06221372
206	0x3e0304d2	0.12794808
207	0xbde8f7e1	-0.11375404
208	0xbd68d800	-0.05684662
209	0xbdbf4c20	-0.093406916
210	0xbafe9280	-0.0019422323
211	0xbd20957a	-0.039205052
212	0x3d2f63df	0.042819854
213	0xbdc6473a	-0.09681554
214	0x3d24b89e	0.040215127
215	0x3dfb2b32	0.12264098
216	0xbe17778f	-0.14791702
217	0xbce1dccc	-0.027571104
218	0xbe135d8b	-0.14391153
219	0x3d87f080	0.066376686
220	0xbe241ad3	-0.16025858
221	0xbd0be9b7	-0.034158435
222	0x3d77d8fb	0.060509663
223	0xbc1a9eb5	-0.009437253
224	0xbb3164f4	-0.002706823
225	0x3da8b4d5	0.08237616
226	0xbcbfc13e	-0.023407575
227	0xbd28589d	-0.041100133
228	0x3d735624	0.059408322
229	0x3df7320c	0.120700926
230	0xbde6dcdc	-0.11272594
231	0x3d2ed180	0.042680264
232	0x3e33b38f	0.17548965
233	0x3d420a6b	0.047373217
234	0xbdaaad2a	-0.0833381
235	0xbe028b24	-0.1274839
236	0x3c52a9e4	0.012857888
237	0xbd34b570	-0.044118345
238	0x3dbd8e59	0.09255666
239	0x3d2f756c	0.04283659
240	0x3dca36bf	0.09873723
241	0xbdce06d6	-0.100598976
242	0x3d29d55b	0.041463237
243	0x3cb12c2b	0.021627506
244	0x3da2c526	0.07947759
245	0x3c384000	0.011245728
246	0xba9989e2	-0.0011714066
247	0xbdb9ee40	-0.09078646
248	0xbd115e24	-0.03549017
249	0x3b98e2f8	0.0046657287
250	0x3dcd401f	0.10021996
251	0xbdbcc919	-0.09218044
252	0x3d92f9f2	0.071765795
253	0x3dc1c1a8	0.09460765
254	0x3def179c	0.11674425
255	0xbd13ea48	-0.0361121

fc2.bias f4 [5]
0	0xbd4b7dc9	-0.049680505
1	0xbdacf7f0	-0.08445728
2	0xbd128203	-0.03576852
3	0x3de38234	0.11108819
4	0xbd6e0e42	-0.058119066
