IQL_CNN_win/agent1_271.pth (torch, 745122 bytes, 10 tensors)

c1.weight f4 [32, 8, 3, 3]
-0.08455871 0.04271231 0.06549703 -0.09249731 0.0034811154 0.016696982 -0.114401564 -0.06269862
-0.06914007 -0.048055045 0.05179528 0.09222475 -0.011111405 -0.048234418 -0.07864392 0.0040876
-0.08697843 -0.12547147 -0.08942984 0.04398372 0.000633128 0.0779374 -0.015982784 0.08099187
0.10814161 0.06419996 0.037939705 -0.01739718 0.022682242 0.060301952 -0.029960103 -0.068941936
-0.059380863 0.05618105 -0.0896924 -0.057348445 0.18840386 -0.058877014 -0.043097228 0.013945054
-0.04510197 0.18628582 0.039768733 -0.099088654 -0.0485662 0.020850038 -0.18702681 -0.12042413
0.04978833 -0.11663436 -0.045903116 0.087034285 0.07815648 0.025994645 0.0047321236 0.11728807
0.11277258 -0.09420546 0.1102776 0.14190309 0.028766446 -0.04825476 0.0063489997 -0.0833829
0.017789869 -0.16790564 -0.056051847 -0.124628864 -0.09925444 -0.008571784 -0.13197698 0.018122617
-0.030846285 0.10908267 -0.050559416 -0.167003 -0.040994883 -0.09169574 -0.0905202 0.057951227
0.06914282 0.008896245 0.027339581 0.12680572 -0.16936289 -0.034939867 0.045655627 0.04542743
0.09021296 0.03554307 -0.035350204 0.038513534 0.009262659 -0.0085239485 0.02477362 0.042779572
0.056780107 -0.038213663 0.09287248 0.044134177 0.030889042 0.07022486 0.086596094 0.061784483
-0.005957626 0.007949494 -0.053168856 0.07513743 -0.05319849 -0.057754435 0.19400336 -0.09114882
-0.11343503 0.17745283 -0.040766094 -0.021288056 0.20590957 0.03543281 -0.04314207 0.010550429
-0.09888261 0.038433976 0.12864901 -0.12214772 -0.13863902 0.035221692 -0.051245674 -0.09157164
0.100608855 -0.05122651 -0.008791946 0.10448265 -0.07413816 -0.018441783 -0.010615265 -0.12413915
-0.051794473 -0.15816349 -0.07021118 0.115562156 -0.034670215 0.10752396 0.09254574 -0.03868235
0.07511036 -0.0043000733 -0.058367897 0.01588556 0.06352219 -0.03864651 -0.08161878 -0.081630416
0.084711015 0.105486125 -0.09188121 0.015512278 -0.031589948 0.045330368 0.056136522 0.1537729
0.026088342 0.038200248 -0.042753085 0.08205994 -0.0034582317 -0.09363581 0.07851771 -0.016136259
-0.05688417 0.064176135 -0.02249983 -0.04835751 0.113424145 0.044830687 0.050451048 -0.113763966
-0.010966904 -0.010722354 -0.07739006 -0.0950463 -0.073101595 -0.039714668 -0.05384739 0.03159409
0.023129385 -0.12141 0.01999757 -0.037298597 -0.03249543 0.013397039 0.006574887 0.012184455
0.03174024 -0.04824625 -0.009864999 -0.029495299 -0.118284926 -0.10876295 -0.044884156 0.032855432
-0.12355459 -0.038467985 0.032208614 0.009098748 -0.1074763 0.0026771463 0.14194565 0.01210804
-0.13809298 -0.04684748 -0.0026432264 -0.07448035 -0.07063543 -0.047974326 -0.06874747 -0.09047697
-0.03369943 0.054671396 0.08425044 -0.059880234 -0.095541395 -0.07540988 -0.10542183 0.06867678
0.07496724 -0.17503661 0.15682898 0.09675515 -0.13279445 0.129055 -0.15441586 -0.07875874
0.05265682 -0.14563549 -0.085245 0.08301126 0.069470935 0.061719663 -0.06201885 -0.014115527
0.09950096 0.021591716 0.024030365 -0.01975201 0.013160087 0.023987897 -0.09271349 0.05658997
0.07275403 0.02888254 -0.090508796 -0.06908942 0.18952647 0.104873374 -0.046721395 0.09523215
00000000: 1e2d adbd 1af3 2e3d 4f23 863d 3b6f bdbd
00000010: 6d23 643b 1cc8 883c 5e4b eabd 2268 80bd
00000020: 4f99 8dbd 5ed5 44bd 4a27 543d 54e0 bc3d
00000030: 9c0c 36bc 7491 45bd 1010 a1bd 46f1 853b
00000040: bf21 b2bd 987b 00be fe26 b7bd 4628 343d
00000050: 80f8 253a a59d 9f3d 54ee 82bc 11df a53d
00000060: 5979 dd3d 457b 833d aa66 1b3d 8884 8ebc
00000070: 1cd0 b93c 2eff 763d e46e f5bc 6e31 8dbd
00000080: 5939 73bd 1a1e 663d a6b0 b7bd 34e6 6abd
00000090: f1ec 403e 0629 71bd b886 30bd cc79 643c
000000a0: d8bc 38bd b6c1 3e3e 8ae4 223d feee cabd
000000b0: 5aed 46bd b3cd aa3c f583 3fbe eda0 f6bd
000000c0: d9ee 4b3d ffdd eebd e804 3cbd 083f b23d
000000d0: 8110 a03d b9f2 d43c ee0f 9b3b ba34 f03d
000000e0: 4ff5 e63d cbee c0bd 39d9 e13d 0b4f 113e
000000f0: 9ca7 eb3c c9a6 45bd 450b d03b a7c4 aabd
00000100: 0fbc 913c 75ef 2bbe 9f96 65bd 6b3d ffbd
00000110: e945 cbbd ab70 0cbc f924 07be e275 943c
00000120: 59b1 fcbc bc66 df3d 6417 4fbd d602 2bbe
00000130: 40ea 27bd faca bbbd a862 b9bd 445e 6d3d
00000140: c09a 8d3d 8ec1 113c 42f7 df3c 5cd9 013e
00000150: 776d 2dbe 1b1d 0fbd 6501 3b3d 1d12 3a3d
00000160: 93c1 b83d 9c95 113d 60cb 10bd 5ec0 1d3d
00000170: 68c2 173c 08a8 0bbc 0cf2 ca3c a239 2f3d
00000180: 4292 683d ee85 1cbd ed33 be3d 0ac6 343d
00000190: 040b fd3c 0dd2 8f3d 4b59 b13d ba11 7d3d
000001a0: 3038 c3bb 983e 023c 96c7 59bd a7e1 993d
000001b0: a9e6 59bd ea8f 6cbd d1a8 463e 3cac babd
000001c0: a050 e8bd 32b6 353e 59fa 26bd 4a64 aebc
000001d0: f5d9 523e ff21 113d bdb5 30bd b5db 2c3c
000001e0: f782 cabd f26c 1d3d 91bc 033e 9528 fabd
000001f0: 63f7 0dbe 9f44 103d fce6 51bd e989 bbbd
00000200: 040c ce3d e4d2 51bd 180c 10bc 00fb d53d
00000210: bfd5 97bd 3913 97bc a6eb 2dbc ab3c febd
00000220: 7126 54bd 9cf5 21be e1ca 8fbd daab ec3d
00000230: 5b02 0ebd 8635 dc3d 9f88 bd3d 6271 1ebd
00000240: 76d3 993d a1e7 8cbb 2d13 6fbd 6f22 823c
00000250: ec17 823d ce4b 1ebd bf27 a7bd d92d a7bd
00000260: f87c ad3d 1c09 d83d 372c bcbd 3627 7e3c
00000270: 7664 01bd 56ac 393d 69ef 653d a576 1d3e
00000280: 38b7 d53c dd77 1c3d dc1d 2fbd 0b0f a83d
00000290: 80a3 62bb 22c4 bfbd e5cd a03d 3030 84bc
000002a0: 60ff 68bd c76e 833d 9051 b8bc 8612 46bd
000002b0: eb4a e83d 62a0 373d c2a5 4e3d 15fd e8bd
000002c0: 88ae 33bc d0ac 2fbc ae7e 9ebd a2a7 c2bd
000002d0: 4ab6 95bd d9ab 22bd 158f 5cbd ce68 013d
000002e0: d679 bd3c cea5 f8bd f2d1 a33c 6ac6 18bd
000002f0: ee19 05bd 417f 5b3c 2672 d73b 4fa1 473c
00000300: 0e02 023d dc9d 45bd cea0 21bc 20a0 f1bc
00000310: 5e3f f2bd 1cbf debd 73d8 37bd 6b93 063d
00000320: 300a fdbd 9b90 1dbd 2eed 033d ea12 153c
00000330: 891c dcbd 1073 2f3b 335a 113e cd60 463c
00000340: 3f68 0dbe 25e3 3fbd fb39 2dbb 2789 98bd
00000350: 4fa9 90bd ba80 44bd 79cb 8cbd fd4b b9bd
00000360: 6a08 0abd 1def 5f3d 7f8b ac3d fa44 75bd
00000370: 35ab c3bd 7f70 9abd 67e7 d7bd 69a6 8c3d
00000380: 6d88 993d cc3c 33be c797 203e 9027 c63d
00000390: 45fb 07be fe26 043e 311f 1ebe 434c a1bd
000003a0: adae 573d 7821 15be ee94 aebd cf01 aa3d
000003b0: c746 8e3d c2cd 7c3d 7a07 7ebd d044 67bc
000003c0: 29c7 cb3d 1ce1 b03c 54db c43c f8ce a1bc
000003d0: 689d 573c 4482 c43c 92e0 bdbd e2ca 673d
000003e0: 1100 953d 149b ec3c ad5c b9bd c17e 8dbd
000003f0: 3a13 423e dac7 d63d ef5e 3fbd 1309 c33d

c1.bias f4 [32]
-0.00451098 0.050252337 0.07129415 -0.015969658 -0.02482772 -0.06194757 0.08827115 0.019759405
0.09119721 -0.03174919 -0.018047128 0.047612082 0.020104412 -0.021104641 -0.01694417 -0.111777544
-0.10594081 -0.07821313 0.030807568 -0.10384493 -0.011861599 0.06919095 0.019952593 -0.1310106
0.107778564 0.017007327 0.083292164 0.012779638 -0.08258019 0.037458528 -0.068127364 -0.009748937
00000000: d8d0 93bb 65d5 4d3d ab02 923d cdd2 82bc
00000010: 8163 cbbc bcbc 7dbd 81c7 b43d 7ade a13c
00000020: 9ac5 ba3d 700b 02bd 92d7 93bc e304 433d
00000030: 02b2 a43c a4e3 acbc 80ce 8abc a0eb e4bd
00000040: 7ff7 d8bd 352e a0bd 2760 fc3c a7ac d4bd
00000050: 2757 42bc fcb3 8d3d 9f73 a33c a527 06be
00000060: 02bb dc3d f352 8b3c 1595 aa3d b061 513c
00000070: cd1f a9bd 1d6e 193d 5c86 8bbd 01ba 1fbc

c2.weight f4 [64, 32, 3, 3]
-0.07585933 -0.028092492 -0.004953239 -0.022485023 -0.09441144 0.021000478 -0.06377423 0.06440736
-0.013223903 -0.08974248 -0.06506942 -0.13521308 -0.072016895 -0.02273611 -0.08910299 -0.0020208096
0.002572066 -0.057110578 -0.05343603 -0.014394047 -0.018653793 -0.040800396 -0.05897515 -0.03339677
0.012657907 0.032818872 -0.024152603 -0.007944557 0.0010327934 0.05592527 -0.046745326 -0.04261526
0.045829512 0.045740046 0.027777536 0.015612223 -0.0013248187 0.010411825 0.02206556 -0.011116669
0.009943708 -0.027878357 -0.033308167 0.0008871162 -0.06784121 -0.049076848 -0.08191276 -0.08377474
-0.0811777 -0.099003084 -0.004587845 0.0006858823 -0.05926284 -0.028326392 0.00054655113 -0.001056089
-0.08241832 -0.034912627 0.04035801 -0.024147172 -0.023816386 -0.040546775 0.010532992 -0.07306049
-0.096728064 -0.09728474 0.00464203 -0.09406716 -0.08786798 0.036735456 -0.04174022 0.02170391
-0.03253708 -0.055637993 0.0011677622 0.032915086 -0.033308182 -0.025574775 0.02435885 -0.0064637917
-7.354101e-05 0.08327682 0.029436408 -0.0021373976 -0.0050485167 -0.010487315 0.030159967 0.10431543
-0.0006864579 -0.01293691 0.031291626 0.023691926 0.06373656 0.031562757 0.01708782 0.048145592
0.045286335 0.06527022 0.038496595 -0.029669046 0.013585304 -0.06560966 0.03934368 -0.047074206
-0.0057354774 -0.049408995 -0.06607627 -0.0441984 0.058524724 0.07964173 0.011618708 0.04447255
0.07061948 -0.05308542 -0.05255019 0.008878132 0.030926872 -0.048686124 -0.0031024383 -0.06315046
-0.038708065 0.03832104 -0.06592763 -0.011958353 -0.060593896 -0.044742435 -0.03092513 -0.08170334
-0.004308479 -0.096311636 -0.009970728 -0.09563288 -0.15721835 -0.17328404 -0.057320595 -0.05297002
0.014796684 0.12641217 0.020186959 0.04485053 0.103575215 -0.03463466 0.035722453 0.09772561
0.028221106 -0.015323892 -0.029807577 -0.030527981 -0.057585575 -0.07761395 -0.014877395 0.06368821
0.0044186325 -0.12744734 -0.096723676 -0.095225066 -0.053170703 -0.102584966 -0.11865072 -0.06503098
-0.0034662427 -0.114634946 -0.07778348 -0.12014381 -0.08391898 -0.04209465 -0.10415706 -0.032945205
-0.06806092 -0.028667206 -0.0362759 0.15160328 0.18475042 0.16707972 0.08505931 0.1140538
0.15800248 0.06311357 0.07260567 0.13685033 -0.007893923 0.025485402 -0.039086938 0.014271946
0.022469217 0.035026044 0.018920287 0.009658218 0.021693787 -0.06330049 -0.05050068 -0.05227671
-0.0403695 -0.06662536 -0.016232057 -0.046445776 0.06902477 -0.018398078 -0.03682853 -0.04438506
-0.008073086 0.07606498 0.05252667 -0.011363725 0.020923568 0.026940485 0.079702534 0.09882846
0.13173716 0.07455808 0.12459925 0.1066672 0.093102396 0.03534522 0.073036805 0.07426656
0.0026762106 0.03867781 0.0016794258 -0.08921427 0.048622712 -0.062670946 0.014747692 0.04038331
0.0024544327 0.059198573 0.021322438 -0.068298206 0.050330743 0.05283466 -0.038301114 -0.05496519
-0.047504436 -0.041630458 -0.028368296 -0.04001684 -0.055865336 0.06050192 0.019034015 0.021590177
-0.073556766 -0.026457705 -0.036801837 -0.027156398 -0.0040593287 -0.038399883 -0.06505693 0.009487222
-0.046896737 0.049079735 -0.020672468 0.015994847 0.06715727 0.07038037 0.011015752 0.1043624
00000000: 235c 9bbd 3a22 e6bc c84e a2bb 8332 b8bc
00000010: c95a c1bd 3209 ac3c 109c 82bd 02e8 833d
00000020: 12a9 58bc e8ca b7bd 1e43 85bd 4c75 0abe
00000030: 987d 93bd 1441 babc a17b b6bd 8f6f 04bb
00000040: 1b90 283b c8ec 69bd bddf 5abd 02d5 6bbc
00000050: d7cf 98bc 511e 27bd ed8f 71bd 0dcb 08bd
00000060: 1c63 4f3c 156d 063d aedb c5bc e329 02bc
00000070: cc5e 873a e511 653d 0778 3fbd 578d 2ebd
00000080: bab7 3b3d ea59 3b3d b78d e33c 69ca 7f3c
00000090: 8aa5 adba 5c96 2a3c d5c2 b43c b022 36bc
000000a0: efea 223c 2761 e4bc 256e 08bd 5c8d 683a
000000b0: 55f0 8abd ce04 49bd e1c1 a7bd 1792 abbd
000000c0: 7e40 a6bd 21c2 cabd a255 96bb c8cc 333a
000000d0: 97bd 72bd c00c e8bc 6d46 0f3a 776c 8aba
000000e0: f0ca a8bd 8b00 0fbd 714e 253d 4ad0 c5bc
000000f0: 951a c3bc 6014 26bd 9292 2c3c bda0 95bd
00000100: 5d19 c6bd 393d c7bd 2c1c 983b 48a6 c0bd
00000110: 21f4 b3bd eb77 163d cbf7 2abd 66cc b13c
00000120: 9a45 05bd aae4 63bd 990f 993a f8d1 063d
00000130: 296e 08bd 3182 d1bc 368c c73c 37ce d3bb
00000140: 073a 9ab8 0a8d aa3d 9f24 f13c 9513 0cbb
00000150: 076e a5bb fdd2 2bbc 0912 f73c 54a3 d53d
00000160: 69f3 33ba 55f5 53bc a62b 003d 9215 c23c
00000170: 5088 823d f347 013d c2fb 8b3c 5034 453d
00000180: 2a7e 393d 65ac 853d 9bae 1d3d 800c f3bc
00000190: e594 5e3c 5c5e 86bd d726 213d e2d0 40bd
000001a0: acf0 bbbb 1661 4abd ff52 87bd 6209 35bd
000001b0: 9fb7 6f3d 341b a33d 655c 3e3c d928 363d
000001c0: f2a0 903d 1970 59bd de3e 57bd 9675 113c
000001d0: 5a5a fd3c 1a6b 47bd 4752 4bbb 0755 81bd
000001e0: 598c 1ebd 86f6 1c3d 1105 87bd f8ec 43bc
000001f0: 4e31 78bd d843 37bd b356 fdbc 1554 a7bd
00000200: 242e 8dbb 093f c5bd 445c 23bc 2cdb c3bd
00000210: d9fd 20be 5f71 31be 00c9 6abd 17f7 58bd
00000220: ca6d 723c 3172 013e 1f5f a53c 30b5 373d
00000230: 3e1f d43d 13dd 0dbd b551 123d 5d24 c83d
00000240: f32f e73c 1011 7bbc 052f f4bc d115 fabc
00000250: dade 6bbd 10f4 9ebd 51c0 73bc f76e 823d
00000260: 2dca 903b 8e81 02be 1017 c6bd 5c05 c3bd
00000270: 86c9 59bd 1118 d2bd 26ff f2bd f62e 85bd
00000280: e729 63bb bac5 eabd f24c 9fbd f50d f6bd
00000290: b7dd abbd 716b 2cbd 4c50 d5bd 8df1 06bd
000002a0: 8663 8bbd 7dd7 eabc 0a96 14bd e43d 1b3e
000002b0: 372f 3d3e f216 2b3e 9333 ae3d 0a95 e93d
000002c0: 67cb 213e b041 813d 48b2 943d 7e22 0c3e
000002d0: 8355 01bc c3c6 d03c a019 20bd e1d4 693c
000002e0: 5d11 b83c 7877 0f3d b8fe 9a3c 813d 1e3c
000002f0: 2bb7 b13c b0a3 81bd cdd9 4ebd 1a20 56bd
00000300: 7d5a 25bd e072 88bd 17f9 84bc ed3d 3ebd
00000310: dc5c 8d3d 91b7 96bc 83d9 16bd 1ccd 35bd
00000320: fa44 04bc f5c7 9b3d 3526 573d eb2e 3abc
00000330: e767 ab3c 4bb2 dc3c 153b a33d 9366 ca3d
00000340: 1be6 063e e8b1 983d e42d ff3d 5574 da3d
00000350: 78ac be3d 26c6 103d 5294 953d 1119 983d
00000360: 5d63 2f3b a06c 1e3d 2e20 dc3a f9b5 b6bd
00000370: 9c28 473d a059 80bd 4ea0 713c f868 253d
00000380: 8cda 203b 347a 723d 65ac ae3c eedf 8bbd
00000390: 9c27 4e3d 2869 583d a1e1 1cbd 2e23 61bd
000003a0: 0394 42bd b384 2abd a164 e8bc b3e8 23bd
000003b0: 0dd3 64bd dcd0 773d 39ed 9b3c e2dd b03c
000003c0: eea4 96bd d4bd d8bc 86bd 16bd 1877 debc
000003d0: 1e04 85bb 3249 1dbd 913c 85bd 4b70 1b3c
000003e0: cb16 40bd d507 493d 4f59 a9bc a007 833c
000003f0: c089 893d 9523 903d 6a7b 343c f4bb d53d

c2.bias f4 [64]
0.038040355 -0.014286396 0.060626116 -0.06226031 -0.04706719 -0.0041824942 -0.016676726 -0.032843713
0.040644407 -0.013454209 0.03836606 -0.05104716 0.027654573 0.033533454 -0.006069944 -0.016351344
-0.04086499 -0.055474803 -0.05437883 0.032427724 0.052790012 0.032994706 0.04399219 0.018405838
-0.015527542 0.049820285 -0.04195393 0.0042922683 -0.0388146 0.013069137 0.016244328 0.019887337
-0.030015856 0.0065460303 -0.025693651 0.0513727 -0.044037055 -0.025559498 -0.025943037 -0.01646242
0.023766112 -0.0053233816 0.005528639 0.022465497 -0.023014966 -0.03869751 -0.0059518474 0.02822277
0.01826756 0.0434006 0.033232864 0.036288686 -0.05033196 0.043514248 0.025901534 -0.06673769
0.003297814 0.0031055026 -0.035577636 -0.013542568 -0.0102065485 0.00707978 0.039231203 0.020886067
00000000: 34d0 1b3d 7d11 6abc 1753 783d ab04 7fbd
00000010: 87c9 40bd 4e0d 89bb a19d 88bc 2187 06bd
00000020: c07a 263d 0b6f 5cbc bb25 1d3d d416 51bd
00000030: d88b e23c 605a 093d 61e6 c6bb 41f3 85bc
00000040: 0c62 27bd 8c39 63bd 56bc 5ebd efd2 043d
00000050: 573a 583d 7525 073d 2831 343d d7c7 963c
00000060: 3b67 7ebc 5b10 4c3d e2d7 2bbd 28a6 8c3b
00000070: 0ffc 1ebd ef1f 563c d312 853c c5ea a23c
00000080: d0e3 f5bc 1580 d63b 7e7b d2bc 2e6c 523d
00000090: 3360 34bd 2762 d1bc 7e86 d4bc 32dc 86bc
000000a0: 26b1 c23c c36f aebb 9629 b53b 9009 b83c
000000b0: e289 bcbc 4881 1ebd b707 c3bb 7033 e73c
000000c0: daa5 953c d4c4 313d 2f1f 083d 72a3 143d
000000d0: e328 4ebd ff3b 323d 742f d43c c5ad 88bd
000000e0: 2320 583b b085 4b3b dbb9 11bd a6e1 5dbc
000000f0: 5e39 27bc 80fd e73b e6b0 203d 4219 ab3c

c3.weight f4 [256, 64, 3, 3]
0.08958585 0.084357835 0.08070103 0.02372944 0.058318622 0.03657739 0.03735381 0.06835758
0.049995348 0.08773319 0.040305674 0.07436674 0.0535341 0.06708793 0.060310397 0.05580308
0.066359915 0.068569496 0.011480312 0.00045368177 0.015748184 -0.047350794 -0.0388147 0.005894843
-0.0057178475 -0.045897648 -0.009922025 0.08949757 0.055785306 0.1264049 0.082414106 0.057896808
0.12233221 0.04406688 0.052010663 0.12042685 0.11955219 0.058257554 0.09530164 0.0967563
0.066041134 0.09821544 0.1131575 0.06452091 0.10342325 0.11120365 0.10589491 0.04956808
0.08851184 0.055150606 0.05759412 0.08317984 0.06295755 0.08217719 0.034256335 0.062595844
0.06927759 0.0664012 0.03665304 0.05131214 0.05931118 0.025583722 0.034436498 0.07603617
0.028396806 0.07574577 0.06741429 0.086476594 0.07447443 0.0152955 0.056603268 0.084513344
0.06593187 0.03760505 0.057197183 0.013848231 0.007683252 0.012425051 0.07984022 0.07103421
0.031744983 0.097156 0.10331179 0.10067825 0.017661098 0.026402064 0.03958871 0.07112265
0.08283249 0.06537812 0.00026193497 -0.015223407 0.039392922 0.0075915554 0.03708516 0.021953262
0.044146087 0.004594876 0.008928655 0.06094067 0.11154202 0.11744488 0.03572747 0.097135514
0.08261288 0.04749482 0.05174075 0.03370278 0.029351402 0.018138919 0.03365759 0.071041904
0.021547282 0.039331984 0.10630298 0.08686804 0.099325396 0.033208944 0.03648074 0.09488701
0.0712859 0.06365485 0.04320704 0.08045866 0.0019993347 0.08366978 0.07768544 0.0922749
0.106618114 0.07636703 0.06506089 0.0443708 0.045497946 0.047897812 0.08076829 0.038357534
-0.004070935 0.046013016 0.07633045 0.06634518 0.046180565 0.06240659 0.06587294 0.06652069
0.048232086 0.04407751 0.06578299 0.08100148 0.06671665 0.10082999 0.034883745 0.02705045
0.083539404 0.04061682 0.073276624 0.06550393 0.036880773 0.016251234 0.029466217 0.05544972
0.07362246 0.041346386 0.07601072 0.12423936 0.13410023 0.06710658 0.066577435 0.07598956
0.056812853 0.08723105 0.08811806 0.09241321 0.051046252 0.06466359 0.084682345 0.041959986
0.096385494 0.100265846 0.11385043 0.0783968 0.048624016 0.056917153 0.053805437 0.081842214
0.07402447 0.090238705 0.05952838 0.022651896 0.03962626 0.033461917 -0.022215243 0.005443799
0.014970865 -0.020668432 -0.029225891 -0.04139835 -0.012584877 -0.03547922 0.011193074 0.017100314
0.06373467 -0.0008650335 0.04285303 0.02497264 0.050138056 0.050761864 -0.0037504027 0.096372075
0.09697052 0.06609287 0.078648 0.02774063 0.08395926 0.06523678 0.0880501 0.070588544
0.035782076 0.107559204 0.111567505 0.08610021 0.04740111 0.05418688 0.049384292 0.09672132
0.09355663 0.11405999 0.116976514 0.08387933 0.08355354 0.059814684 0.113009684 0.06666284
0.11170587 0.056411717 -0.009487932 -0.0018809653 0.038318146 -0.023089994 0.018022142 0.04778885
-0.040869832 -0.029034674 -0.043679457 0.042387374 0.113844775 0.051362485 0.052568424 0.08547129
0.014954217 0.07135686 0.044305574 0.02507165 0.033039447 0.066728376 0.0838705 0.077937774
00000000: c978 b73d cdc3 ac3d 9546 a53d 3e64 c23c
00000010: 82df 6e3d 2cd2 153d 4f00 193d 0fff 8b3d
00000020: ecc7 4c3d 75ad b33d 9017 253d 974d 983d
00000030: 9346 5b3d 6665 893d 0908 773d c591 643d
00000040: b5e7 873d 2a6e 8c3d eb17 3c3c 23dc ed39
00000050: 5602 813c e8f2 41bd 2afc 1ebd 8729 c13b
00000060: c85c bbbb 2cff 3bbd fd8f 22bc 814a b73d
00000070: 227f 643d 4970 013e bac8 a83d 3425 6d3d
00000080: 4f89 fa3d 797f 343d 2209 553d 5aa2 f63d
00000090: c7d7 f43d 799f 6e3d 822d c33d 2b28 c63d
000000a0: 9340 873d 2d25 c93d 1fbf e73d 8a23 843d
000000b0: 92cf d33d bdbe e33d 6edf d83d e607 4b3d
000000c0: b245 b53d 9ae5 613d d0e7 6b3d 315a aa3d
000000d0: e3ef 803d 844c a83d 5f50 0c3d 4032 803d
000000e0: 69e1 8d3d 5afd 873d 8021 163d ae2c 523d
000000f0: 48f0 723d f494 d13c 490d 0d3d dab8 9b3d
00000100: 6ba0 e83c 9920 9b3d 8110 8a3d a41a b13d
00000110: 0d86 983d fa99 7a3c d4d8 673d 5515 ad3d
00000120: 4a07 873d c107 1a3d 9847 6a3d b1e3 623c
00000130: cac3 fb3b 7192 4b3c 4583 a33d 627a 913d
00000140: 0707 023d baf9 c63d 2295 d33d 6630 ce3d
00000150: 02ae 903c 2449 d83c c527 223d c0a8 913d
00000160: 15a4 a93d f7e4 853d 5154 8939 996b 79bc
00000170: 795a 213d 95c2 f83b 9ce6 173d 54d7 b33c
00000180: 87d2 343d 9d90 963b 7e49 123c ed9c 793d
00000190: 2570 e43d f186 f03d f856 123d fcee c63d
000001a0: f130 a93d ee89 423d 1cee 533d ed0b 0a3d
000001b0: 5a72 f03c 1298 943c 8bdc 093d 6b7e 913d
000001c0: ed83 b03c 931a 213d 60b5 d93d dfe7 b13d
000001d0: 1d6b cb3d 1a06 083d d46c 153d 1f54 c23d
000001e0: 58fe 913d 795d 823d ddf9 303d 83c7 a43d
000001f0: 4507 033b 105b ab3d 8b19 9f3d 9ffa bc3d
00000200: 995a da3d 5166 9c3d a53e 853d 28be 353d
00000210: 0e5c 3a3d 7f30 443d d869 a53d ca1c 1d3d
00000220: 7a65 85bb 2578 3c3d 2453 9c3d fbdf 873d
00000230: d527 3d3d 0d9e 7f3d 64e8 863d 003c 883d
00000240: 028f 453d 9e8a 343d 3bb9 863d 1be4 a53d
00000250: bda2 883d f47f ce3d 42e2 0e3d e898 dd3c
00000260: b516 ab3d d35d 263d 0e12 963d ed26 863d
00000270: 4b10 173d 4f21 853c 2363 f13c 3f1f 633d
00000280: 5fc7 963d d45a 293d 82ab 9b3d 3571 fe3d
00000290: 9251 093e 2d6f 893d c059 883d 6aa0 9b3d
000002a0: 98b4 683d 31a6 b23d 3e77 b43d 2343 bd3d
000002b0: e015 513d 586e 843d f06d ad3d 3cde 2b3d
000002c0: c265 c53d 2e58 cd3d 6a2a e93d 808e a03d
000002d0: fa29 473d f621 693d 1763 5c3d e49c a73d
000002e0: 249a 973d 12cf b83d 08d4 733d 7890 b93c
000002f0: 254f 223d 5d0f 093d befc b5bc e561 b23b
00000300: 5c48 753c d850 a9bc 236b efbc 5191 29bd
00000310: cd30 4ebc a952 11bd 2863 373c f515 8c3c
00000320: 5387 823d 6ac3 62ba a986 2f3d 6c93 cc3c
00000330: 905d 4d3d aceb 4f3d 51c9 75bb b95e c53d
00000340: 7b98 c63d b35b 873d 3412 a13d 5140 e33c
00000350: d5f2 ab3d dc9a 853d 9c53 b43d ba90 903d
00000360: 3a90 123d 0048 dc3d 817d e43d 4f55 b03d
00000370: ab27 423d 10f3 5d3d 2f47 4a3d d415 c63d
00000380: 9e9a bf3d 4998 e93d 6291 ef3d edc8 ab3d
00000390: 1e1e ab3d 3e00 753d 9f71 e73d 8786 883d
000003a0: 0cc6 e43d f90f 673d 4573 1bbc b98a f6ba
000003b0: 7df3 1c3d 3a27 bdbc 2ca3 933c 3ebe 433d
000003c0: 2067 27bd 20da edbc 3be9 32bd 629e 2d3d
000003d0: 7327 e93d 7861 523d fd51 573d 920b af3d
000003e0: 8802 753c 8c23 923d c379 353d 1063 cd3c
000003f0: 5f54 073d e3a8 883d 4cc4 ab3d d79d 9f3d

c3.bias f4 [256]
-0.03490783 0.02238383 -0.036535457 -0.032332987 -0.024242347 0.0644233 -0.035597034 0.028351963
-0.030614452 -0.036439452 -0.018424835 0.035176817 -0.007702147 -0.044195935 0.02172849 -0.017626787
0.03780702 0.008342324 0.01669926 -0.030728046 0.020999895 -0.019959787 0.020446068 0.05637083
0.015463702 0.018629264 0.044711456 -0.027666235 0.0019662324 -0.033152767 -0.025922555 0.04525774
-0.045013055 0.013938555 -0.021076586 -0.024508564 0.052552093 -0.0037738045 -0.015227663 0.033872847
0.015930492 0.055762224 0.04704134 -0.037613925 -0.0027615863 0.035621345 0.027956042 -0.0015887449
-0.035139907 -0.0069657573 -0.04576741 0.015390638 -0.011004612 -0.029140145 0.05506593 -0.044211175
-0.0212073 -0.048797633 -0.01273935 0.039859854 -0.044505607 -0.022965541 -0.041080568 -0.014890876
0.03663536 0.037909653 -0.04672988 0.014676001 0.033799585 -0.04629513 0.045362514 0.045441344
-0.032776907 0.017361816 -0.0024304038 -0.020811921 -0.031811107 0.0679014 0.044440392 0.019955372
-0.023603799 -0.011839482 0.016462242 0.06192019 -0.031307936 0.03516343 -0.026938649 0.029927472
-0.043028556 0.031896994 0.027814517 -0.03921483 0.042424362 0.013546362 0.06350475 -0.023976913
-0.010875449 -0.031336553 -0.04097619 -0.008523837 0.025141813 0.017337793 0.054416478 0.05870769
-0.03729312 0.025208743 0.037039552 -0.00024810998 0.008522695 0.016189396 -0.039696466 0.039152082
0.03499631 0.02617905 0.036657043 0.004626937 -0.046639957 0.028810551 -0.049891386 -0.017435431
-0.027843742 0.010322846 0.009449121 -0.040552992 0.039066385 0.041128587 0.048475076 -0.025149237
-0.021023668 -0.0018108507 0.032039415 0.037450362 0.04135732 -0.04219859 0.047677763 -0.04033998
-0.024236092 0.04444531 -0.03888546 0.015864758 -0.03701323 0.03236905 0.0019647426 0.057739448
0.0027782058 -0.05067985 0.012212856 0.0034977016 0.041263934 -0.016855126 0.026952883 0.019102545
-0.04138751 0.04624731 -0.011789217 -0.022131935 -0.034345176 0.056178074 -0.038303655 -0.009903542
-0.022193903 -0.040659424 -0.024713855 -0.0076241405 0.0037391626 -0.027114457 0.008486681 -0.006864216
-0.041813616 -0.04394676 -0.022811184 0.023959398 -0.042252205 0.007143789 -0.022874521 -0.0050799805
-0.011095473 0.01317349 -0.0149775 0.05190159 0.011962352 0.0052351984 0.06607264 -0.026021661
-0.039891027 0.07036183 -0.025019431 -0.0298272 0.05254015 -0.025799274 -0.038609408 -0.012165763
-0.043529253 -0.009776618 0.05012393 0.043520916 -0.005951149 0.056328915 -0.0074282233 -0.030655524
0.01068198 0.07349065 -0.034403175 -0.0050203786 0.00516541 -0.016104946 0.052200124 0.008289979
-0.027688524 -0.038176987 -0.0016336446 -0.02310318 0.015308271 0.042797122 0.014781775 0.06966309
-0.027435653 0.0035571326 -0.05133584 0.049918793 -0.0073482646 0.027803635 -0.030623442 -0.04733557
0.05319068 0.03366284 -0.038596 0.0068848687 -0.036795296 -0.028903974 0.045370214 0.014745647
-0.01557477 0.027617106 -0.016390989 0.0359982 -0.013187057 0.06607471 -0.028308958 -0.04033684
-0.038464375 -0.03994887 0.051972356 0.010057527 -0.039583236 0.040847667 -0.008018832 0.032538995
-0.023389986 0.022702832 -0.033249408 -0.027635649 0.0047557037 -0.0011306483 0.034468297 -0.025113286
00000000: 83fb 0ebd 4b5e b73c 34a6 15bd 986f 04bd
00000010: e397 c6bc 5df0 833d 32ce 11bd 6042 e83c
00000020: 29cb fabc 8941 15bd aeef 96bc 9115 103d
00000030: 4b62 fcbb cc06 35bd f2ff b13c 0d66 90bc
00000040: 89db 1a3d 3eae 083c e3cc 883c 62b9 fbbc
00000050: f907 ac3c b582 a3bc 837e a73c 19e5 663d
00000060: 785b 7d3c 669c 983c 5c23 373d 4da4 e2bc
00000070: e8db 003b 32cb 07bd 8a5b d4bc 2e60 393d
00000080: 9c5f 38bd 895e 643c cea8 acbc 2fc6 c8bc
00000090: dd40 573d ef51 77bb 737d 79bc 41be 0a3d
000000a0: aa80 823c ee66 643d 6cae 403d 0f11 1abd
000000b0: bbfb 34bb b0e7 113d 1204 e53c 6f3d d0ba
000000c0: ddee 0fbd 0241 e4bb 9c76 3bbd 0429 7c3c
000000d0: b04c 34bc 50b7 eebc d08c 613d c716 35bd
000000e0: eeba adbc 07e0 47bd b5b8 50bc 1644 233d
000000f0: 834b 36bd 3b22 bcbc 1944 28bd dcf8 73bc
00000100: f60e 163d 2747 1b3d d567 3fbd 9c73 703c
00000110: 6f71 0a3d f69f 3dbd 0bce 393d b420 3a3d
00000120: 1441 06bd 5e3a 8e3c 6947 1fbb c37d aabc
00000130: 5d4c 02bd e40f 8b3d 2107 363d 7379 a33c
00000140: c15c c1bc 63fa 41bc d3db 863c 06a0 7d3d
00000150: c03c 00bd 8707 103d 71ae dcbc 752a f53c
00000160: b63e 30bd 6ca6 023d 45db e33c bb9f 20bd
00000170: 2bc5 2d3d 8ff1 5d3c c70e 823d 3b6b c4bc
00000180: f02e 32bc c25a 00bd a6d6 27bd 90a7 0bbc
00000190: 34f6 cd3c fd07 8e3c d0e3 5e3d 7a77 703d
000001a0: acc0 18bd 9182 ce3c c9b6 173d c214 82b9
000001b0: c6a2 0b3c a09f 843c c398 22bd ef5d 203d
000001c0: 4a58 0f3d 7275 d63c b225 163d 909d 973b
000001d0: 8a09 3fbd 1b04 ec3c e95a 4cbd c0d4 8ebc
000001e0: 8f18 e4bc 2721 293c 7cd0 1a3c e51a 26bd
000001f0: 1304 203d 7376 283d cd8d 463d c605 cebc
00000200: d439 acbc 115a edba c33b 033d 8d65 193d
00000210: 4b66 293d 6ed8 2cbd c249 433d 893b 25bd
00000220: c58a c6bc 490c 363d 5c46 1fbd cff6 813c
00000230: 2f9b 17bd 6995 043d e9c2 003b 3380 6c3d
00000240: 8f12 363b ad95 4fbd 6e18 483c b239 653b
00000250: 5f04 293d c313 8abc 4bcc dc3c f17c 9c3c
00000260: f385 29bd d26d 3d3d 8f27 41bc 084e b5bc
00000270: 87ad 0cbd fb1a 663d 4be4 1cbd 7742 22bc
00000280: fdcf b5bc 7f8a 26bd b674 cabc edd3 f9bb
00000290: bd0c 753b 231f debc b80b 0b3c 38ed e0bb
000002a0: c144 2bbd 8501 34bd 85de babc 8046 c43c
000002b0: a610 2dbd 7216 ea3b 5963 bbbc f775 a6bb
000002c0: c9c9 35bc 9fd5 573c 3064 75bc c396 543d
000002d0: befd 433c 078c ab3b 1851 873d 612b d5bc
000002e0: c664 23bd dd19 903d 8df5 ccbc 2c58 f4bc
000002f0: 5734 573d 0059 d3bc e624 1ebd e952 47bc
00000300: bb4b 32bd 1c2e 20bc c04e 4d3d fd42 323d
00000310: db01 c3bb 26b9 663d 7468 f3bb 4b21 fbbc
00000320: 7903 2f3c 4482 963d 58ea 0cbd fd81 a4bb
00000330: 9a42 a93b 85ee 83bc cccf 553d b1d2 073c
00000340: 0bd3 e2bc 795f 1cbd 0420 d6ba e142 bdbc
00000350: 8bcf 7a3c 094c 2f3d 422f 723c 86ab 8e3d
00000360: bcc0 e0bc c81e 693b 8845 52bd a677 4c3d
00000370: b6c9 f0bb 73c4 e33c 03de fabc f1e2 41bd
00000380: 78de 593d 0ce2 093d d716 1ebd 779a e13b
00000390: aab6 16bd 07c8 ecbc 1ed6 393d ba97 713c
000003a0: 522d 7fbc 453d e23c 6546 86bc d972 133d
000003b0: 870e 58bc 2d52 873d 30e8 e7bc 3e38 25bd
000003c0: d28c 1dbd 6da1 23bd f7e0 543d 53c8 243c
000003d0: 0822 22bd e24f 273d 6b61 03bc 9c47 053d
000003e0: 5b9c bfbc 4afb b93c 8830 08bd 2864 e2bc
000003f0: bcd5 9b3b 4332 94ba a12e 0d3d 61ba cdbc

fc1.weight f4 [64, 256]
-0.046620898 -0.042699277 -0.060511768 -0.0062393174 -0.05279401 -0.031355403 -0.012782104 -0.03828769
0.0017732754 0.048059687 0.024283245 0.00076566637 0.047024354 -0.05486603 -0.007380411 -0.03598564
-0.060496263 0.0324324 -0.055833332 0.046371646 0.0035517588 -0.047756016 0.032676004 -0.013922803
-0.049629368 -0.051919557 -0.052128606 0.011450112 0.038936213 -0.042507492 -0.037611037 -0.023590662
-0.018355384 0.011458069 -0.053403288 -0.0130079985 0.028804556 -0.048780642 0.005229421 0.030591808
0.004065186 0.049937353 0.038065188 -0.016349025 -0.053260766 -0.023025922 -0.041761197 -0.060241133
-0.03483875 0.059182726 0.027468942 -0.05466351 0.024471775 -0.003771074 -0.019388601 0.016054846
-0.051605403 0.03239154 0.03170106 -0.0051842183 -0.02894213 -0.06025219 0.03727427 0.054629497
-0.04405897 5.6564808e-05 0.0063914284 -0.009028256 0.0043171495 0.027914256 -0.0071610287 0.045910083
0.025565423 -0.047712468 -0.04438865 -0.0021912456 -0.011899129 0.021659471 0.023431264 0.0020994768
0.045586027 -0.04276246 0.03143298 0.03240148 0.007639952 0.006821841 0.032624543 0.051138125
0.034951784 -0.029972568 -0.051162064 0.005990885 0.04807488 0.016392179 0.054206036 -0.01061897
-0.058144465 -0.011819802 0.052934274 -0.025850251 -0.006220244 -0.039271556 -0.009622425 0.03675364
-0.055588685 -0.025343977 -0.02280499 0.055776455 0.05590281 -0.011466354 -0.06231025 -0.05367218
-0.05255586 -0.05081545 0.02781891 0.044717774 -0.04111682 0.05259528 0.011835791 -0.01708588
0.050626837 0.056535713 -0.03821046 -0.038019024 0.05798608 -0.038517885 -0.03913386 0.058387503
-0.04559669 -0.04530845 0.033190645 0.055844404 0.04469517 -0.04977958 -0.017010927 -0.016911231
-0.014697976 -0.0041948333 0.059105538 0.013800621 -0.02795498 0.034494594 0.010002963 -0.061822325
-0.009965338 -0.014407031 -0.015797436 0.032207213 0.033849888 -0.04679887 -0.013118014 0.044905625
-0.0149986595 -0.019303724 0.057542667 -0.042028718 0.05695624 -0.048612244 0.06066937 -0.05194322
-0.041847102 -0.0416535 -0.049931377 0.056387 -0.014782406 -0.0020998567 0.005529225 -0.011255905
-0.048973642 -0.053822726 0.025303483 0.003191024 0.014398716 0.024288557 0.031997427 -0.0072787255
-0.033008553 -0.02824749 0.05422218 0.041934684 -0.014251359 -0.04536642 -0.03857471 -0.00707227
0.05903486 0.015160531 -0.032741256 -0.037465625 -0.026572272 -0.03478753 -0.024853498 -0.0061444417
-0.015819155 -0.059351265 0.0051144883 -0.04640422 0.013651863 -0.021587841 -0.023805968 -0.02167464
-0.006229691 0.043158874 -0.037895493 -0.039453328 0.060555503 0.012224846 -0.047973365 0.027360283
0.053416543 0.035102367 -0.05752474 -0.03726522 -0.031162448 -0.023463197 -0.030718908 -0.029985875
-0.0088250935 -0.03280536 -0.052509636 0.017846487 -0.046235427 0.01139643 -0.05195626 0.056842208
-0.026108883 -0.025809407 0.036299154 0.0445197 0.032379158 0.03855802 0.056073457 -0.060860246
-0.04916182 0.061411045 0.047998786 -0.045250975 -0.048214376 -0.0073422417 -0.035477795 0.06228566
0.037715882 0.013176054 -0.058470435 0.061014675 0.02077268 -0.042788804 0.049320452 -0.010953896
-0.04487762 -0.009678021 -0.014094472 -0.023045622 0.019830912 -0.047773376 0.03445711 -0.04628896
00000000: 8ef5 3ebd 70e5 2ebd 30db 77bd 3073 ccbb
00000010: 883e 58bd 866e 00bd 086c 51bc 8ed3 1cbd
00000020: 406d e83a 3cda 443d a8ed c63c 00b7 483a
00000030: 9c9c 403d 34bb 60bd 60d7 f1bb ae65 13bd
00000040: eeca 77bd d6d7 043d 7eb1 64bd 32f0 3d3d
00000050: a0c4 683b d09b 43bd 46d7 053d 781c 64bc
00000060: 2a48 4bbd 9aa9 54bd ce84 55bd 4099 3b3c
00000070: 947b 1f3d 561c 2ebd 080e 1abd 3441 c1bc
00000080: 085e 96bc a0ba 3b3c 68bd 5abd 801f 55bc
00000090: 88f7 eb3c 36ce 47bd 905b ab3b ac9b fa3c
000000a0: 4035 853b 1c8b 4c3d 3eea 1b3d 64ee 85bc
000000b0: f627 5abd dca0 bcbc ca0d 2bbd 68bf 76bd
000000c0: 14b3 0ebd 9669 723d 8c06 e13c d8e6 5fbd
000000d0: 0879 c83c 2024 77bb d8d4 9ebc 7485 833c
000000e0: 3060 53bd feac 043d f8d8 013d 60e0 a9bb
000000f0: 0c18 edbc 00cb 76bd e8ac 183d 2ec3 5f3d
00000100: 2e77 34bd 0040 6d38 306f d13b 40eb 13bc
00000110: e076 8d3b 70ac e43c 10a7 eabb 360c 3c3d
00000120: 946e d13c 266e 43bd e0d0 35bd 009b 0fbb
00000130: 90f4 42bc 346f b13c ecf2 bf3c 6097 093b
00000140: 6ab8 3a3d b027 2fbd debf 003d 6ab7 043d
00000150: 9058 fa3b c089 df3b 50a1 053d 3676 513d
00000160: 9a29 0f3d 0889 f5bc 508f 51bd 304f c43b
00000170: 2aea 443d e448 863c 2607 5e3d 30fb 2dbc
00000180: e428 6ebd d8a7 41bc 9cd1 583d e8c3 d3bc
00000190: 30d3 cbbb 36db 20bd 60a7 1dbc fc8a 163d
000001a0: f6b0 63bd 2c9e cfbc 88d1 babc da75 643d
000001b0: 58fa 643d 60dd 3bbc 0839 7fbd 5cd7 5bbd
000001c0: d044 57bd dc23 50bd 7ce4 e33c fc29 373d
000001d0: 1c6a 28bd 266e 573d e8ea 413c b0f7 8bbc
000001e0: 165e 4f3d fe91 673d 9282 1cbd d6b9 1bbd
000001f0: d082 6d3d eec4 1dbd d44a 20bd bc27 6f3d
00000200: 98c3 3abd 5a95 39bd eaf2 073d 1abd 643d
00000210: 4812 373d ace5 4bbd 805a 8bbc 6c89 8abc
00000220: c8cf 70bc d074 89bb a618 723d 001c 623c
00000230: d801 e5bc 344a 0d3d 78e3 233c 6839 7dbd
00000240: a845 23bc 780b 6cbc a069 81bc b6eb 033d
00000250: 2ea6 0a3d 2cb0 3fbd f0ec 56bc f6ee 373d
00000260: f0bc 75bc d822 9ebc dcb1 6b3d 4e26 2cbd
00000270: f24a 693d a21d 47bd 7280 783d 6ac2 54bd
00000280: de67 2bbd dc9c 2abd d884 4cbd 0ef6 663d
00000290: e831 72bc c09d 09bb 802e b53b b06a 38bc
000002a0: 9698 48bd 3875 5cbd 4049 cf3c 8020 513b
000002b0: 98e8 6b3c ccf8 c63c bc0f 033d 6082 eebb
000002c0: fa33 07bd 4867 e7bc 1418 5e3d b4c3 2b3d
000002d0: 887e 69bc 24d2 39bd 8400 1ebd 80be e7bb
000002e0: 8ace 713d e063 783c b21b 06bd 8e75 19bd
000002f0: 18ae d9bc 5e7d 0ebd 9099 cbbc 5057 c9bb
00000300: 2c97 81bc 501a 73bd 7097 a73b 5a12 3ebd
00000310: 10ac 5f3c fcd8 b0bc bc04 c3bc 048f b1bc
00000320: 7022 ccbb 5cc7 303d 4e38 1bbd d099 21bd
00000330: 0c09 783d b84a 483c b87f 44bd ac22 e03c
00000340: 4ecb 5a3d 80c7 0f3d 109f 6bbd 6aa3 18bd
00000350: 6448 ffbc e435 c0bc 38a6 fbbc f0a4 f5bc
00000360: 2097 10bc ea5e 06bd 5814 57bd cc32 923c
00000370: 5c61 3dbd 18b8 3a3c 16d0 54bd 60d3 683d
00000380: 4ce2 d5bc 406e d3bc 6cae 143d 4a5a 363d
00000390: 02a0 043d 04ef 1d3d 48ad 653d 9848 79bd
000003a0: e85d 49bd 268a 7b3d 609a 443d 1659 39bd
000003b0: 707c 45bd 3097 f0bb 2a51 11bd 401f 7f3d
000003c0: f87b 1a3d 60e0 573c b27e 6fbd 86ea 793d
000003d0: 782b aa3c 5043 2fbd 3e04 4a3d f877 33bc
000003e0: 98d1 37bd 9090 1ebc 80ec 66bc 2cca bcbc
000003f0: 7074 a23c 04ae 43bd e622 0d3d 7e99 3dbd

fc1.bias f4 [64]
-0.059730507 0.03878777 0.036651965 0.025121307 -0.04660221 -0.016674995 0.050428834 -0.04785821
-0.01279676 0.018445123 0.003951077 -0.05420349 0.0031192512 -0.031765904 -0.0557902 0.07214641
-0.04233654 -0.040752307 0.013112971 -0.07130549 0.0026162814 0.062852144 -0.02155645 0.0758272
0.052940108 -0.007874963 -0.04590958 -0.06279398 -0.023530252 -0.022827763 -0.04172668 0.08579562
0.022989858 -0.012717998 0.036729574 -0.03208085 0.06936371 -0.00066085695 0.05101601 -0.0004602931
-0.001495874 0.05252123 0.010595175 -0.039623614 0.0659042 0.03429844 -0.019069808 -0.033563484
0.005051497 0.0095920395 -0.022123877 -0.03691309 -0.036674608 -0.04489497 -0.05012781 -0.040444292
0.07466087 0.083835885 0.04642281 0.047385268 0.050010353 -0.006616786 -0.007313542 -0.04917016
00000000: faa7 74bd eddf 1e3d 5f20 163d 33cb cd3c
00000010: f5e1 3ebd 009a 88bc 778e 4e3d f806 44bd
00000020: 80a9 51bc 3a1a 973c 0978 813b 7b04 5ebd
00000030: 5a6c 4c3b f71c 02bd 4484 64bd 7fc1 933d
00000040: 1469 2dbd e4eb 26bd c9d7 563c 9d08 92bd
00000050: eb75 2b3b a0b8 803d 2797 b0bc 4b4b 9b3d
00000060: bad7 583d fd05 01bc af0b 3cbd 219a 80bd
00000070: 84c2 c0bc 4a01 bbbc 98e9 2abd 9db5 af3d
00000080: 3a55 bc3c 265f 50bc c071 163d 3667 03bd
00000090: 900e 8e3d 5c3d 2dba 2af6 503d 7e53 f1b9
000000a0: 3411 c4ba 8020 573d 6397 2d3c 5f4c 22bd
000000b0: c8f8 863d 857c 0c3d 4938 9cbc dd79 09bd
000000c0: 0787 a53b ee27 1d3c 223d b5bc 2e32 17bd
000000d0: 1d38 16bd cae3 37bd d252 4dbd eaa8 25bd
000000e0: cce7 983d 26b2 ab3d d825 3e3d 0e17 423d
000000f0: a8d7 4c3d a0d1 d8bb 70a6 efbb a666 49bd

fc2.weight f4 [5, 64]
-0.102596 0.12305866 -0.035040397 -0.04565048 0.11022675 -0.052102447 0.008800136 0.03249313
0.10619624 -0.056272723 0.11947584 0.1865526 0.06919608 0.067221254 0.07597722 0.17327347
-0.06981145 0.022508934 -0.009221144 -0.011843305 -0.104193255 -0.07100091 0.07303383 0.010564549
-0.07685929 -0.057231065 -0.0476723 0.050847888 -0.11002547 0.16449238 -0.050095554 -0.13909343
-0.025278214 0.0029513815 0.035129953 -0.01907444 -0.03643433 -0.030180242 0.0018596891 -0.11188188
0.121177256 0.02687959 -0.019402651 0.086434774 0.035710305 -0.037327524 0.053045772 -0.08969516
-0.05895134 -0.06674968 -0.033732772 -0.12286744 0.077732 -0.07935226 0.0954472 0.0627521
-0.062414728 0.1966067 0.14507185 0.064024374 0.13400991 0.016814768 0.005080834 0.08481954
0.1162349 0.14243744 -0.122267775 0.07828657 0.08012273 0.041236565 -0.058527227 0.121654645
-0.11010311 0.0530738 0.037915863 0.15397665 -0.003577228 -0.06302073 0.0022714734 -0.013819759
0.044781163 0.0434774 -0.02371735 0.076072834 -0.03991323 0.102818444 -0.03811427 0.01607188
0.10633092 -0.04459869 -0.015716843 0.06775391 -0.11286037 0.030516675 -0.01492284 0.043269306
0.03752463 0.124979 0.1085632 -0.02694048 0.13061145 -0.020464677 -0.050530072 -0.047532756
0.07230846 0.20111424 0.036811545 -0.11465328 -0.015007707 0.077764876 0.18733726 0.021727102
-0.13370834 -0.08816818 0.062342763 0.009153779 -0.06370532 0.10483718 0.09465738 0.050722435
0.11994246 0.12816171 0.09501123 -0.10768263 0.08393172 0.11060117 0.026484638 0.050602615
-0.124707595 0.1656729 -0.08489389 -0.06821444 0.010797569 0.054761693 -0.0467523 -0.024215326
0.09475898 0.10475834 -0.03745371 -0.005664105 0.005882106 -0.076658025 0.00014747679 0.13573867
0.09566732 0.052127257 -0.04644247 0.026280247 -0.042432077 0.124860354 0.01767454 0.12699859
0.075186916 0.12877841 -0.08776981 -0.096774414 0.0046488647 -0.012504444 0.025366543 0.14315036
0.020827312 -0.015318653 0.047247685 0.07105445 -0.012719977 0.13045365 0.05457503 -0.007844658
-0.062256105 0.056398284 -0.011286947 0.06224709 0.142729 -0.050136495 -0.11858045 -0.07386279
0.016326051 -0.09998242 0.047127023 0.009548275 0.09422655 0.009026945 -0.08860709 0.015328169
0.031439107 0.0867477 0.088212274 0.065956295 0.17784458 -0.024952725 0.050121754 -0.0025190413
0.045878753 -0.041894224 -0.096498154 0.114017844 0.11089061 -0.10143158 0.04563599 -0.07347947
-0.0085370075 -0.109519996 0.04261665 -0.04965168 -0.008877751 0.03380955 0.036654964 0.024559438
0.07139388 0.06835584 -0.07668516 0.11002093 -0.036350876 0.0068165557 0.12962839 0.14911711
-0.09461307 0.09289872 0.02091688 0.08729128 -0.068522006 -0.08445121 0.085140005 -0.1364181
-0.050866093 0.14382486 -0.060439292 -0.017799724 0.15967648 0.036688544 0.00177323 -0.01137978
0.12603784 0.048865445 0.078930736 0.062494088 -0.0531278 -0.11364232 -0.11932975 -0.046507493
0.0055357264 0.030488253 -0.012934469 0.05275914 -0.042284474 0.08122918 -0.071548566 0.00690794
0.13814555 0.23548953 0.13835181 0.07723121 0.11425129 0.074090704 -0.0013319105 0.048515797
00000000: da1d d2bd 2e06 fc3d 8586 0fbd fffb 3abd
00000010: 90be e13d 6069 55bd 722e 103c 8417 053d
00000020: 6a7d d93d 3a7e 66bd c0af f43d a507 3f3e
00000030: adb6 8d3d 4cab 893d f299 9b3d 9a6e 313e
00000040: 4ef9 8ebd a864 b83c 4814 17bc 6c0a 42bc
00000050: 4663 d5bd ed68 91bd c392 953d ee16 2d3c
00000060: 6768 9dbd 1f6b 6abd 0844 43bd e045 503d
00000070: 0955 e1bd b170 283e ff30 4dbd 826e 0ebe
00000080: 4214 cfbc f76b 413b 6de4 0f3d 0042 9cbc
00000090: 2a3c 15bd 8e3c f7bc d0c0 f33a 5422 e5bd
000000a0: c82b f83d 9632 dc3c 4ff2 9ebc b704 b13d
000000b0: f844 123d bfe4 18bd 8646 593d 19b2 b7bd
000000c0: f676 71bd 0eb4 88bd 602b 0abd eda1 fbbd
000000d0: f431 9f3d 7083 a2bd d279 c33d 2c84 803d
000000e0: 96a6 7fbd 4453 493e b78d 143e 361f 833d
000000f0: e539 093e 20bf 893c 207d a63b deb5 ad3d
00000100: 900c ee3d 1fdb 113e 8767 fabd b654 a03d
00000110: 6317 a43d ace7 283d 3fba 6fbd 1226 f93d
00000120: bd7d e1bd ea63 593d aa4d 1b3d 0eac 1d3e
00000130: ed6f 6abb 0311 81bd 00dd 143b 456c 62bc
00000140: 746c 373d 5c15 323d e34a c2bc 13cc 9b3d
00000150: 0e7c 23bd 7a92 d23d b51d 1cbd 2da9 833c
00000160: 06c4 d93d 1ead 36bd 9cc0 80bc 90c2 8a3d
00000170: 5623 e7bd 1bfe f93c ed7e 74bc 283b 313d
00000180: 6db3 193d fdf4 ff3d 6256 de3d 48b2 dcbc
00000190: 02bf 053e 8aa5 a7bc 9ff8 4ebd b5b1 42bd
000001a0: 7516 943d e4f0 4d3e b4c7 163d 57cf eabd
000001b0: e3e2 75bc 3143 9f3d 57d5 3f3e 09fd b13c
000001c0: d7ea 08be 8591 b4bd 205b 7f3d bbf9 153c
000001d0: ef77 82bd e0b4 d63d badb c13d 54c2 4f3d
000001e0: 64a4 f53d d33c 033e 3f95 c23d b688 dcbd
000001f0: 65e4 ab3d de82 e23d 50f6 d83c b044 4f3d
00000200: b266 ffbd 28a6 293e d9dc adbd 03b4 8bbd
00000210: 49e8 303c cc4d 603d 577f 3fbd 385f c6bc
00000220: ff10 c23d 8a8b d63d 1069 19bd f599 b9bb
00000230: aebe c03b e2fe 9cbd 00a4 1a39 14ff 0a3e
00000240: 3aed c33d 6483 553d 763a 3ebd ac49 d73c
00000250: 42cd 2dbd c9b6 ff3d 32ca 903c eb0b 023e
00000260: 99fb 993d 7dde 033e a8c0 b3bd aa31 c6bd
00000270: 8155 983b 71df 4cbc 7fcd cf3c 0296 123e
00000280: 0a9e aa3c 16fb 7abc ca86 413d ff84 913d
00000290: 7367 50bc a495 053e 118a 5f3d e186 00bc
000002a0: 4200 7fbd e301 673d e3ec 38bc cef6 7e3d
000002b0: 8d27 123e ed5b 4dbd 4fda f2bd 6045 97bd
000002c0: 36be 853c 95c3 ccbd 4408 413d 5e70 1c3c
000002d0: d9f9 c03d c0e5 133c a277 b5bd 0023 7b3c
000002e0: 4bc6 003d c7a8 b13d a3a8 b43d 1814 873d
000002f0: e41c 363e a869 ccbc 784c 4d3d 8016 25bb
00000300: 5ceb 3b3d 4799 2bbd d3a0 c5bd 3082 e93d
00000310: 9e1a e33d 5cbb cfbd ceec 3a3d 687c 96bd
00000320: cede 0bbc 054c e0bd cc8e 2e3d 8f5f 4bbd
00000330: fd73 11bc e27b 0a3d 8423 163d e030 c93c
00000340: f436 923d 26fe 8b3d 1c0d 9dbd a752 e13d
00000350: a8e4 14bd 6a5d df3b 4ebd 043e 28b2 183e
00000360: 7fc4 c1bd af41 be3d e059 ab3c c5c5 b23d
00000370: 4455 8cbd c2f4 acbd e25d ae3d 30b1 0bbe
00000380: f758 50bd d346 133e 318f 77bd bad0 91bc
00000390: 3b82 233e ba46 163d ba6b e83a 4272 3abc
000003a0: 1010 013e 2227 483d 70a6 a13d cdf9 7f3d
000003b0: 899c 59bd 4ebd e8bd 2863 f4bd a47e 3ebd
000003c0: 0a65 b53b 80c2 f93c 18eb 53bc f819 583d
000003d0: 7c32 2dbd 7c5b a63d 0e88 92bd 005c e23b
000003e0: 0776 0d3e 2b24 713e 19ac 0d3e 662b 9e3d
000003f0: 95fc e93d debc 973d 8093 aeba 80b8 463d

fc2.bias f4 [5]
0.1154269 -0.08518016 -0.08688799 0.1282638 -0.026020464
00000000: f064 ec3d f072 aebd 55f2 b1bd 9657 033e
00000010: de28 d5bc
