IQL_CNN_win/agent1_81.pth (torch, 745108 bytes, 10 tensors)

c1.weight f4 [32, 8, 3, 3]
-0.095103204 -0.16521056 -0.029075934 0.091076426 -0.013943796 0.042411737 0.054158397 0.021449938
-0.052128572 0.16037132 0.0892252 -0.16691406 0.15528645 0.072226636 0.03339248 0.016001193
0.23832558 0.022118486 -0.06728062 0.0424589 -0.0789693 -0.013268404 -0.034743488 -0.09010835
0.088332884 0.04882627 0.08932067 -0.086146235 -0.05835685 -0.05181805 -0.025699787 -0.02208732
-0.038286686 -0.066417396 -0.054477893 -0.044009976 -0.012499696 -0.043558467 0.09365321 0.10432385
-0.088382505 0.11654851 -0.07380523 -0.08348032 -0.1400432 -0.03350913 0.070431516 -0.058286287
0.03887048 0.081410445 -0.07069942 -0.078298315 0.009949713 -0.026781952 -0.01628042 0.030737927
0.039652508 0.16914986 -0.19811542 0.06393138 -0.06432626 -0.14975874 -0.088213235 0.43293098
-0.02808875 -0.013641552 0.22494374 0.20695958 0.05143751 0.15269199 0.1332839 0.16272588
0.012629587 0.018913278 0.0058742617 -0.076493934 -0.080222145 0.07126892 -0.07817077 0.092542365
-0.017413061 0.14569746 0.12439478 0.17519839 0.15202604 0.11397332 -0.18559746 0.15925214
-0.09873476 -0.15008983 -0.11253615 0.060729317 0.089496695 -0.07335357 -0.03828554 -0.041668564
0.09625486 -0.116772145 0.053186618 0.059875466 -0.045958936 0.059891157 -0.015666462 0.0235878
0.02129855 0.022369824 -0.063535914 0.106501736 0.07325348 -0.1020289 -0.03055437 0.07406803
0.103355095 -0.13876899 -0.09620442 -0.08126076 -0.13687982 -0.04494141 -0.007155852 -0.07162122
0.051349275 0.024803426 0.10417012 -0.18982655 -0.07155259 0.074115895 0.0489185 -0.1368151
-0.016240293 -0.018440451 -0.058543358 -0.08309074 -0.0693641 -0.09794367 -0.13206147 0.07512253
0.18818095 -0.05615622 0.06295668 0.0314771 0.010604433 -0.06901819 -0.034061097 -0.118736304
0.04904794 -0.029631363 0.09891922 -0.014376129 -0.011155466 0.09984026 -0.0013612797 -0.10884793
-0.08003414 0.18701594 0.14729437 -0.08651437 -0.06088894 -0.14783116 -0.087844595 0.07405131
0.01175751 -0.064496934 -0.10369166 0.005687125 -0.067206755 0.09937476 0.07045517 -0.010741994
-0.061065696 0.10034501 -0.018528864 0.018846668 -0.0052712113 0.10850827 0.03534872 0.08215315
-0.04339622 0.111332335 0.0790757 0.052479096 0.033303693 -0.1569338 -0.10263171 0.03487407
-0.15423127 0.09878221 0.14608712 -0.17119913 0.108696915 -0.02391922 0.021525977 0.104544014
-0.22347216 -0.07621444 -0.12150283 -0.03597607 0.11640787 0.114086226 0.07245584 -0.08631535
-0.023906948 0.041797653 0.005854374 -0.17953056 -0.13107568 -0.057957787 -0.15096559 0.029869093
-0.018797683 0.10258073 -0.06533944 -0.03115983 0.010215886 -0.085857816 -0.025830593 -0.15464057
0.052084792 0.09215638 -0.09061238 0.1021221 -0.11890817 -0.019518254 0.043247685 -0.051141147
0.049395263 -0.16929023 0.08452025 0.15804815 0.12434063 0.014851949 0.1272205 0.16387239
0.13651536 0.09698418 0.031607397 -0.0877224 -0.027739622 -0.0581362 -0.003233619 -0.044484243
-0.061462652 -0.0996332 0.030455567 0.10797068 -0.034471475 0.094727255 -0.11591919 -0.022571966
-0.012373544 0.019439705 -0.00498455 0.108638234 -0.041077547 -0.05266318 0.12952554 0.07049314
00000000: 78c5 c2bd f52c 29be a730 eebc 4786 ba3d
00000010: 8574 64bc eeb7 2d3d 32d5 5d3d c8b7 af3c
00000020: c584 55bd 6138 243e b4bb b63d 85eb 2abe
00000030: 6903 1f3e 8feb 933d 8ec6 083d ef14 833c
00000040: 9f0b 743e d431 b53c 6cca 89bd 62e9 2d3d
00000050: a8ba a1bd b863 59bc 304f 0ebd ba8a b8bd
00000060: dfe7 b43d 0efe 473d c1ed b63d 706d b0bd
00000070: 9807 6fbd 2a3f 54bd 5c88 d2bc 78f0 b4bc
00000080: 80d2 1cbd d805 88bd 3624 5fbd ce43 34bd
00000090: 86cb 4cbc 5d6a 32bd 41cd bf3d bea7 d53d
000000a0: e301 b5bd fcb0 ee3d 3227 97bd bbf7 aabd
000000b0: 7c67 0fbe df40 09bd 663e 903d 9abd 6ebd
000000c0: a736 1f3d 85ba a63d dcca 90bd de5a a0bd
000000d0: 1f04 233c d365 dbbc 845e 85bc 1bce fb3c
000000e0: ab6a 223d 9f35 2d3e c5de 4abe 75ee 823d
000000f0: 7cbd 83bd 5b5a 19be 24a9 b4bd 21a9 dd3e
00000100: 611a e6bc d180 5fbc a757 663e 36ed 533e
00000110: 23b0 523d 4a5b 1c3e 937b 083e 9da1 263e
00000120: 54ec 4e3c 05f0 9a3c e17c c03b daa8 9cbd
00000130: 824b a4bd 71f5 913d ff17 a0bd da86 bd3d
00000140: d6a5 8ebc b731 153e b1c2 fe3d 3567 333e
00000150: b7ac 1b3e d86a e93d 430d 3ebe fe12 233e
00000160: 7335 cabd 26b1 19be 5a79 e6bd 4ebf 783d
00000170: 0b4a b73d 663a 96bd 4cd1 1cbd a8ac 2abd
00000180: 4521 c53d 3c26 efbd 36da 593d fa3f 753d
00000190: 703f 3cbd 6e50 753d f456 80bc 343b c13c
000001a0: 4c7a ae3c ec40 b73c 1e1f 82bd 951d da3d
000001b0: ec05 963d 87f4 d0bd 284d fabc fbb0 973d
000001c0: d6ab d33d 7519 0ebe d306 c5bd 0b6c a6bd
000001d0: 392a 0cbe 7c14 38bd a37b eabb 25ae 92bd
000001e0: 9e53 523d 8e30 cb3c 2557 d53d e461 42be
000001f0: 2a8a 92bd 13ca 973d c45e 483d 4219 0cbe
00000200: 5d0a 85bc 6e10 97bc 29cb 6fbd 7a2b aabd
00000210: c40e 8ebd b196 c8bd 1f3b 07be d7d9 993d
00000220: 82b2 403e 1104 66bd 6fef 803d 22ee 003d
00000230: 37be 2d3c 6959 8dbd a683 0bbd 052c f3bd
00000240: 7ee6 483d 79bd f2bc 2996 ca3d db89 6bbc
00000250: 6ac5 36bc 0d79 cc3d f86c b2ba aaeb debd
00000260: f0e8 a3bd 1b81 3f3e 56d4 163e 722e b1bd
00000270: ae66 79bd 0d61 17be dee7 b3bd 37a8 973d
00000280: 92a2 403c f816 84bd 4b5c d4bd 105b ba3b
00000290: b2a3 89bd ff84 cb3d cd4a 903d 30ff 2fbc
000002a0: 0620 7abd af81 cd3d d8c9 97bc 5464 9a3c
000002b0: 20ba acbb 9539 de3d d2c9 103d e93f a83d
000002c0: 3cc0 31bd 3502 e43d 71f2 a13d 52f4 563d
000002d0: 7469 083d 41b3 20be 9330 d2bd 1dd8 0e3d
000002e0: cdee 1dbe 544e ca3d dd97 153e d34e 2fbe
000002f0: 7d9c de3d 3df2 c3bc 3f57 b03c 2c1b d63d
00000300: e3d5 64be 5116 9cbd 7ad6 f8bd a55b 13bd
00000310: 4067 ee3d 0aa6 e93d ba63 943d 1ac6 b0bd
00000320: 81d8 c3bc 0434 2b3d 0cd6 bf3b dcd6 37be
00000330: b438 06be 2565 6dbd b996 1abe 07b0 f43c
00000340: 99fd 99bc d915 d23d afd0 85bd e642 ffbc
00000350: 8860 273c 39d6 afbd ae9a d3bc 195a 1ebe
00000360: dd56 553d 7cbc bc3d fc92 b9bd 6425 d13d
00000370: 2086 f3bd bfe4 9fbc 7c24 313d 6179 51bd
00000380: b052 4a3d 6b5a 2dbe f418 ad3d 60d7 213e
00000390: 4da6 fe3d 9755 733c 1746 023e 2ace 273e
000003a0: afca 0b3e a49f c63d c276 013d cda7 b3bd
000003b0: 343e e3bc 3920 6ebd 20eb 53bb 1c35 36bd
000003c0: 43c0 7bbd 7e0c ccbd f47d f93c bb1f dd3d
000003d0: f631 0dbd 5d00 c23d 0a67 edbd d8e8 b8bc
000003e0: 68ba 4abc 0440 9f3c 7055 a3bb b97d de3d
000003f0: ee40 28bd 59b5 57bd 58a2 043e b55e 903d

c1.bias f4 [32]
-0.040098444 -0.040395115 -0.07560491 -0.057924237 -0.069407515 -0.03413438 -0.07097563 -0.10753269
-0.013728971 -0.053544704 0.015232928 -0.09413147 -0.009991369 -0.041216236 -0.031907275 -0.10605032
0.016601868 -0.0782368 -0.040717833 0.08893573 0.024765918 -0.066949755 -0.09650409 0.06457123
-0.020307383 -0.038981676 -0.08405729 -0.129821 0.033964034 -0.120914005 -0.024963778 -0.062237572
00000000: 443e 24bd 5975 25bd bfd6 9abd f741 6dbd
00000010: 8725 8ebd 7ed0 0bbd ac5b 91bd 193a dcbd
00000020: 7aef 60bc b151 5bbd 8893 793c 00c8 c0bd
00000030: d7b2 23bc 5bd2 28bd 34b1 02bd e930 d9bd
00000040: a400 883c 9e3a a0bd bec7 26bd f023 b63d
00000050: e5e1 ca3c f41c 89bd f0a3 c5bd ec3d 843d
00000060: ab5b a6bc 40ab 1fbd 3a26 acbd ccef 04be
00000070: df1d 0b3d c3a1 f7bd d680 ccbc d3ec 7ebd

c2.weight f4 [64, 32, 3, 3]
-0.085825995 0.026503766 -0.0045492277 -0.029349135 0.029268187 -0.026606066 -0.038626086 -0.040759556
0.004015379 0.008860179 0.026723595 0.06534571 0.040862724 0.07686002 -0.016038112 -0.018116735
0.06972957 -0.0012590148 0.040060326 0.07771253 0.03869733 0.075723104 -0.0039897496 0.018945491
0.068405464 -0.030078432 0.05071884 -0.0045071007 -0.002660893 0.026757779 0.030891644 0.035960812
0.0743278 0.078366674 0.018008666 -0.013380929 -0.061908208 -0.076798245 -0.05127597 -0.075049266
-0.03970221 -0.049764335 -0.1417783 -0.091656044 -0.12165204 0.037824977 -0.022134386 0.06654733
-0.022810325 0.057126638 -0.032164134 -0.037013896 0.0019907323 -0.05576438 0.017898913 0.035829756
0.060602047 -0.0036355064 0.017888492 0.068870194 0.004062887 0.032374702 0.0015188697 -0.02991621
0.04189079 -0.06726745 -0.021534177 -0.0047653057 -0.039931294 0.018062226 -0.06147659 -0.030315705
0.04007528 0.060573813 0.034547284 -0.0077103623 0.058698084 0.05037002 0.0042049885 0.05264097
0.003169334 0.06315884 0.019788623 0.018002076 0.012425317 0.045166455 0.034599207 0.04672917
-0.0016238148 0.04550736 0.017709699 0.067625165 0.011612942 0.0430822 0.055687103 0.03442627
-0.03186002 0.032765027 0.065635145 0.055150554 0.020795075 -0.0044251285 0.038478673 0.05205639
0.048095617 0.05388663 0.08154877 0.07170578 -0.024978915 -0.059603687 -0.0063003977 -0.063213244
-0.026998684 -0.02872132 0.03618007 0.026161233 0.04336363 -0.059233513 -0.08119845 -0.10794586
-0.0075957505 -0.054561913 -0.10411559 -0.022609837 -0.050088044 -0.048355334 0.016890341 -0.038694475
0.045774274 -0.013283706 0.03383071 0.020257358 0.030010406 0.022592844 0.04448042 0.0035894415
0.02498896 0.051527727 -0.018893767 -0.0036532264 -0.00089767104 0.09638064 0.10462066 -0.01067741
-0.078741446 -0.059878945 0.015126 -0.045456987 0.019118188 -0.06673544 -0.08475361 -0.005822641
-0.07646561 -0.0008507816 -0.012206885 0.053066317 -0.025102546 -0.0011513286 -0.037472792 0.06023038
0.03913153 0.070892565 -0.008627687 0.05049589 0.0039332197 0.05557841 -0.026671482 0.012438912
-0.00482084 0.03436499 -0.013032331 -0.06331309 0.042600397 0.03622552 0.057158533 0.03988875
-0.006292238 -0.042055383 0.0012718623 0.025675911 -0.0030704525 -0.051226463 0.028708987 0.025465904
-0.054015346 -0.06220802 0.013024477 0.03584256 -0.04271107 -0.014275481 -0.04412701 -0.006928517
0.053425357 -0.043088764 -0.010169754 0.059515115 0.046701513 0.00644462 0.06330564 0.043258704
0.08803537 0.05485528 0.070020854 0.050868023 0.10074453 0.067344405 0.10200464 0.0024197323
0.028119542 0.018950606 -0.019983953 -0.0402876 -0.061478242 -0.041984763 -0.059681866 -0.072445214
0.053881306 -0.073194824 -0.06809691 0.05297063 -0.017380401 -0.021142809 0.068908624 -0.041220196
-0.005266769 -0.033686355 0.042750493 -0.018242324 -0.05457538 0.021077229 -0.02266026 -0.048051897
-0.0111411875 -0.05554913 -0.003962066 0.039541516 0.0371596 -0.05145097 -0.0404101 0.017528882
0.04394696 0.004919742 0.019198384 0.07540915 0.034146544 0.0076459954 0.048499692 0.069603235
-0.025909191 0.12205731 0.006876451 -0.0068099746 0.014753606 0.035116516 0.044020224 0.025329648
00000000: 8ac5 afbd 6d1e d93c b011 95bb 996d f0bc
00000010: d6c3 ef3c f7f4 d9bc 6336 1ebd 7ef3 26bd
00000020: 7193 833b 492a 113c 71eb da3c f9d3 853d
00000030: ac5f 273d c968 9d3d 5c62 83bc 8c69 94bc
00000040: 60ce 8e3d 8705 a5ba 4c16 243d bf27 9f3d
00000050: 1781 1e3d b714 9b3d 72bc 82bb 9333 9b3c
00000060: 2a18 8c3d 0b67 f6bc 8fbe 4f3d 4db0 93bb
00000070: 6062 2ebb 2133 db3c 7910 fd3c a54b 133d
00000080: 2c39 983d b57e a03d e986 933c af3b 5bbc
00000090: 7693 7dbd 6648 9dbd c006 52bd 6eb3 99bd
000000a0: c99e 22bd b0d5 4bbd 552e 11be 2ab6 bbbd
000000b0: b424 f9bd 5dee 1a3d 2c53 b5bc f749 883d
000000c0: b8dc babc 9ffd 693d 8abe 03bd e29b 17bd
000000d0: f276 023b 3169 64bd bea0 923c 39c2 123d
000000e0: da39 783d ad41 6ebb e38a 923c d10b 8d3d
000000f0: f721 853b 569b 043d cf14 c73a d712 f5bc
00000100: ad95 2b3d 84c3 89bd 7168 b0bc 4826 9cbb
00000110: ff8e 23bd 3cf7 933c e0ce 7bbd a458 f8bc
00000120: fa25 243d 3f1c 783d 7481 0d3d 35a7 fcbb
00000130: 676d 703d cb50 4e3d 00ca 893b 0f9e 573d
00000140: 9ab4 4f3b 6c59 813d c01b a23c 1779 933c
00000150: 8f93 4b3c 7600 393d e6b7 0d3d 1667 3f3d
00000160: 2fd6 d4ba ed65 3a3d ee13 913c 107f 8a3d
00000170: 3644 3e3c f676 303d 2918 643d 8f02 0d3d
00000180: a77f 02bd 9f34 063d b86b 863d 8ce5 613d
00000190: 6f5a aa3c ab00 91bb d09b 1d3d 1539 553d
000001a0: e9ff 443d 3ab8 5c3d 0b03 a73d 7bda 923d
000001b0: 95a0 ccbc ff22 74bd 9173 cebb f275 81bd
000001c0: 582c ddbc f948 ebbc 8e31 143d 1550 d63c
000001d0: 109e 313d d79e 72bd 5f4b a6bd b812 ddbd
000001e0: c6e5 f8bb 507c 5fbd 8e3a d5bd 4438 b9bc
000001f0: 1f29 4dbd 3e10 46bd 9d5d 8a3c 197e 1ebd
00000200: ce7d 3b3d e7a3 59bc 1292 0a3d c2f2 a53c
00000210: 62d8 f53c a114 b93c 1a31 363d d63c 6b3b
00000220: a6b5 cc3c bd0e 533d 1ac7 9abc f86a 6fbb
00000230: af51 6bba 3763 c53d 5b43 d63d 4ef0 2ebc
00000240: 3243 a1bd a043 75bd 0bd3 773c 1b31 3abd
00000250: bf9d 9c3c 97ac 88bd 4d93 adbd dacb bebb
00000260: 009a 9cbd fd06 5fba 63ff 47bc 115c 593d
00000270: dba3 cdbc 2de8 96ba 127d 19bd 22b4 763d
00000280: 6248 203d 1f30 913d 245b 0dbc c7d4 4e3d
00000290: 3de2 803b 30a6 633d 277e dabc 94cc 4b3c
000002a0: 23f8 9dbb 4ec2 0c3d 8f85 55bc 4baa 81bd
000002b0: c17d 2e3d 3661 143d 111f 6a3d 6362 233d
000002c0: 1e2f cebb 4442 2cbd 9eb4 a63a 4a56 d23c
000002d0: a539 49bb d7d2 51bd 1c2f eb3c df9d d03c
000002e0: 323f 5dbd d6cd 7ebd 9e64 553c a6cf 123d
000002f0: cef1 2ebd b5e3 69bc 86be 34bd 9d08 e3bb
00000300: 8cd4 5a3d d87d 30bd 0a9f 26bc 1fc6 733d
00000310: 164a 3f3d 642d d33b 63a6 813d 0a30 313d
00000320: e34b b43d eeaf 603d 1867 8f3d fd5a 503d
00000330: 2653 ce3d ddeb 893d cfe7 d03d 5f94 1e3b
00000340: f45a e63c 4d3e 9b3c 63b5 a3bc 9c04 25bd
00000350: 9cd0 7bbd 37f8 2bbd f974 74bd 285e 94bd
00000360: a5b2 5c3d 2be7 95bd 6576 8bbd bbf7 583d
00000370: 5861 8ebc af33 adbc f71f 8d3d 82d6 28bd
00000380: dc94 acbb b4fa 09bd 241b 2f3d ed70 95bc
00000390: 6f8a 5fbd 27aa ac3c 02a2 b9bc 11d2 44bd
000003a0: 8789 36bc 7c87 63bd 38d4 81bb 49f6 213d
000003b0: aa34 183d 41be 52bd 1085 25bd bb98 8f3c
000003c0: ba01 343d c935 a13b ee45 9d3c 1d70 9a3d
000003d0: 3fdd 0b3d 428b fa3b 9da7 463d 248c 8e3d
000003e0: 833f d4bc 2ff9 f93d da53 e13b 3526 dfbb
000003f0: 1cb9 713c 56d6 0f3d 8d4e 343d 1f80 cf3c

c2.bias f4 [64]
-0.0057279505 -0.051430423 0.030831505 0.031140346 -0.01095111 -0.010099107 0.015975244 -0.029039282
0.0015311956 0.0449555 0.029659238 0.04619916 0.021774227 0.036882814 -0.0121695055 -0.050433934
-0.048277102 0.019074429 -0.00014060526 0.06892594 -0.0061358837 -0.03392942 -0.049043067 -0.044890292
0.02694743 -0.016925704 -0.010339081 0.03528622 0.027835235 -0.029266557 -0.040615443 -0.0022154625
0.0076248962 0.01231536 -0.062406003 -0.049230248 0.017774947 0.036523826 0.04024276 0.013181409
0.010654048 -0.022727037 -0.018496484 -0.024643812 -0.03360851 0.051543802 -0.0199758 -0.02530993
-0.007535822 0.006867345 -0.046902686 0.013127923 0.017650804 -0.06031445 0.050021637 0.019813322
-0.044378445 -0.040678505 0.05415535 -0.004776401 0.01945357 -0.0029674591 -0.03494001 -0.04700349
00000000: 88b1 bbbb b5a8 52bd 5a92 fc3c 0a1a ff3c
00000010: 496c 33bc ba76 25bc 84de 823c cae3 edbc
00000020: 66b2 c83a 4223 383d eef7 f23c 553b 3d3d
00000030: dd5f b23c 6f12 173d 9b62 47bc d093 4ebd
00000040: 36be 45bd fa41 9c3c 706f 13b9 0b29 8d3d
00000050: 860f c9bb 93f9 0abd 62e1 48bd e2de 37bd
00000060: dbc0 dc3c c6a7 8abc 4065 29bc 4988 103d
00000070: b806 e43c 6bc0 efbc 615c 26bd 4b31 11bb
00000080: 44da f93b 5dc6 493c 709d 7fbd a8a5 49bd
00000090: c49c 913c 029a 153d 98d5 243d d6f6 573c
000000a0: 518e 2e3c 0d2e babc f085 97bc d2e1 c9bc
000000b0: 14a9 09bd 981f 533d 4aa4 a3bc c556 cfbc
000000c0: 0fef f6bb 7707 e13b 081d 40bd 8016 573c
000000d0: 6b98 903c 490c 77bd 7de3 4c3d 8c4f a23c
000000e0: 2cc6 35bd 819e 26bd 00d2 5d3d 5b83 9cbb
000000f0: 185d 9f3c b479 42bb 421d 0fbd bb86 40bd

c3.weight f4 [256, 64, 3, 3]
0.012924631 0.020337988 -0.024495315 -0.040500548 -0.026459904 -0.054419104 0.015800498 0.0059343893
-0.027436398 -0.016917823 -0.023173608 -0.031603992 0.028541673 -0.047898374 -0.041397423 -0.028417917
0.014449288 -0.035746463 0.00562379 -0.005043713 -0.03634923 0.073676966 -0.028654078 -0.043670285
-0.0080315005 -0.083988175 -0.0022276007 0.010172834 -0.02131703 -0.005670788 0.06254008 0.00403935
-0.03613777 0.050931774 -0.029048275 0.030250464 0.008353229 0.038686227 -0.025122683 0.025307965
0.018132014 0.01107413 0.039532453 0.051431034 0.03854941 -0.028337963 0.03667785 -0.011929626
-0.01223002 -0.007550143 -0.051901773 0.02733013 -0.008342073 0.0387935 -0.023501001 -0.026105927
0.030301183 -0.0025760212 0.042334072 -0.016804878 0.046291336 0.02860847 0.014519956 -0.013148809
-0.029198084 -0.082550235 -0.025121503 -0.04434873 -0.06325819 -0.006965414 0.005361521 0.010868559
0.013394887 -0.026144769 0.03262195 0.0039220485 0.017754598 -0.021245688 0.03679235 -0.009618281
-0.021720352 -0.020756453 0.034755383 0.009938186 0.030874863 0.0144489305 -0.045902718 0.0060374048
-0.041662764 0.013186628 -0.012402271 -0.015887529 0.015820269 0.02517425 -0.010627164 -0.007963593
0.06504948 0.03277215 0.008903592 -0.021481685 -0.011017241 -0.01706745 0.0064674965 -0.032621253
-0.0005627071 0.033768367 0.040964514 -0.021988183 -0.027275587 -0.029085735 -0.048445348 -0.027379941
0.017965188 -0.023699611 -0.013890514 -0.05026067 -0.019745653 0.06694966 0.028231382 -0.023717385
0.036976915 0.03432272 -0.03558763 0.0075951596 -0.028939692 -0.0025386808 0.034719016 -0.03563961
0.009445839 -0.0130937565 -0.032631077 -0.03853892 -6.909308e-05 -0.02694247 -0.0351445 -0.011508939
0.01529642 0.016612258 -0.007830293 -0.025755277 0.0014872692 0.0129910875 -0.04257369 0.028642513
0.049141914 0.043120947 -0.009526752 0.019544741 -0.013558711 -0.022237845 0.0056526316 -0.03185409
-0.03070631 0.048844896 -0.019694518 -0.008304036 -0.005342362 -0.0019083183 -0.026380561 0.027801313
0.0010683762 0.04039375 0.014134931 -0.031918578 -0.007396255 0.02539971 -0.02018153 0.014768261
-0.034783103 -0.02028098 0.05026893 -0.028144049 -0.0058418266 -0.03954455 -0.008331959 -0.029439334
0.03356567 0.0471459 0.034847397 0.045279797 0.052712675 0.0010016391 0.025541246 0.04321991
0.027374754 0.0007478163 0.01680209 -0.06321806 -0.010821315 0.03960629 -0.01108955 -0.003618246
0.00605926 0.012645698 -0.023643918 -0.01596634 -0.030910064 0.02364045 -0.00031294642 -0.007415212
0.027464574 0.045631807 -0.035187013 0.0012456469 0.034779638 0.0072724577 0.0133610135 0.010416108
0.030793602 -0.041270353 0.020437593 -0.012890507 0.011613906 0.025863858 -0.008967612 0.0394486
-0.042991064 -0.04043528 -0.019121662 -0.005754751 -0.03662278 -0.020904759 0.023823218 -0.04681241
-0.008498703 -0.025025291 0.032139093 -0.041574623 0.035055187 -0.0048801578 0.017644824 -0.01928156
-0.035543535 -0.02330044 0.004995146 -0.026422583 0.0151114445 -0.02438848 0.008365743 0.06887452
-0.028429944 0.03747088 0.059206907 -0.051273715 0.024809005 0.0078142835 -0.010471782 -0.012083422
-0.015744004 0.037643407 -0.028101668 0.00017984053 0.025148913 0.04060905 -0.056192312 0.038199767
00000000: d5c1 533c da9b a63c 66aa c8bc e7e3 25bd
00000010: 71c2 d8bc 91e6 5ebd 0c70 813c 4475 c23b
00000020: 4cc2 e0bc 3f97 8abc 94d6 bdbc 3073 01bd
00000030: 3ad0 e93c 1631 44bd 5890 29bd b1cc e8bc
00000040: b5bc 6c3c e26a 12bd c547 b83b bb45 a5bb
00000050: eee2 14bd f3e3 963d f5bb eabc 9ddf 32bd
00000060: 8e96 03bc fe01 acbd f0fc 11bb f5ab 263c
00000070: 0da1 aebc 05d2 b9bb 0315 803d 865c 843b
00000080: 3305 14bd d69d 503d a6f6 edbc d2cf f73c
00000090: fbdb 083c 7375 1e3d 16ce cdbc a652 cf3c
000000a0: 9789 943c 4570 353c c8ec 213d 59a9 523d
000000b0: fce5 1d3d 0425 e8bc 833b 163d 7a74 43bc
000000c0: 6c60 48bc 3167 f7bb f496 54bd 70e3 df3c
000000d0: 31ad 08bc efe5 1e3d 2c85 c0bc 19dc d5bc
000000e0: 303a f83c 77d2 28bb 7e66 2d3d 62aa 89bc
000000f0: fc9b 3d3d 4f5c ea3c 1ce5 6d3c 1a6e 57bc
00000100: d230 efbc 1910 a9bd 9ccb cdbc 04a7 35bd
00000110: 838d 81bd 213e e4bb b3af af3b 0a12 323c
00000120: 3a76 5b3c 8e2d d6bc 989e 053d 8784 803b
00000130: 1772 913c 700b aebc 93b3 163d ff95 1dbc
00000140: e1ee b1bc 7009 aabc a95b 0e3d c6d3 223c
00000150: 48ed fc3c 35bb 6c3c 7d04 3cbd 6cd5 c53b
00000160: 93a6 2abd ba0c 583c e532 4bbc 9026 82bc
00000170: 8299 813c 3b3a ce3c 8e1d 2ebc bb79 02bc
00000180: a938 853d 173c 063d 5fe0 113c 5cfa afbc
00000190: a881 34bc 09d1 8bbc 4bed d33b dd9d 05bd
000001a0: a282 13ba b350 0a3d 68ca 273d 9020 b4bc
000001b0: 0d71 dfbc 3545 eebc a16e 46bd e64b e0bc
000001c0: bb2b 933c b025 c2bc 0a95 63bc 22de 4dbd
000001d0: a3c1 a1bc e71c 893d 8045 e73c f64a c2bc
000001e0: 1b75 173d fb95 0c3d 56c4 11bd d1e0 f83b
000001f0: ef12 edbc ff5f 26bb 8735 0e3d d7fa 11bd
00000200: b8c2 1a3c 3287 56bc 2aa8 05bd fdda 1dbd
00000210: 11e6 90b8 74b6 dcbc aef3 0fbd fd8f 3cbc
00000220: d69d 7a3c 6e16 883c a14a 00bc bbfc d2bc
00000230: 79f0 c23a 92d8 543c c061 2ebd b4a3 ea3c
00000240: 0849 493d 979f 303d 1816 1cbc 4b1c a03c
00000250: 5b25 5ebc 242c b6bc b639 b93b 6f79 02bd
00000260: cd8b fbbc 9611 483d 6656 a1bc a70d 08bc
00000270: fb0e afbb 8920 faba 0c1c d8bc 94bf e33c
00000280: c208 8c3a eb73 253d 3396 673c 0ebd 02bd
00000290: 495c f2bb 0d13 d03c bc53 a5bc 94f6 713c
000002a0: ba78 0ebd 4c24 a6bc cbe6 4d3d 598e e6bc
000002b0: cb6c bfbb 77f9 21bd c582 08bc c22a f1bc
000002c0: 287c 093d 0f1c 413d 25bc 0e3d 4f77 393d
000002d0: 3fe9 573d 6e49 833a e03b d13c 5c07 313d
000002e0: 0541 e03c 1a09 443a 89a4 893c 7878 81bd
000002f0: e34b 31bc 353a 223d f2b0 35bc 1820 6dbb
00000300: c28c c63b e72f 4f3c e4b0 c1bc d8cb 82bc
00000310: 1a37 fdbc 9ea9 c13c f512 a4b9 4ffb f2bb
00000320: 63fd e03c 6be8 3a3d 4220 10bd f944 a33a
00000330: 1875 0e3d cc4d ee3b 27e8 5a3c 53a8 2a3c
00000340: dd42 fc3c 1a0b 29bd bd6c a73c b432 53bc
00000350: 4148 3e3c 71e0 d33c e4ec 12bc db94 213d
00000360: 6617 30bd 779f 25bd 08a5 9cbc 5a92 bcbb
00000370: c501 16bd 7540 abbc e928 c33c 5fbe 3fbd
00000380: 253e 0bbc d701 cdbc 48a4 033d 274a 2abd
00000390: 0796 0f3d bbe9 9fbb e18b 903c 5df4 9dbc
000003a0: 1996 11bd 90e0 bebc 52ae a33b 2c74 d8bc
000003b0: fe95 773c 59ca c7bc 7810 093c 160e 8d3d
000003c0: eae5 e8bc 117b 193d f182 723d 6304 52bd
000003d0: 413c cb3c 7b07 003c d691 2bbc 8cf9 45bc
000003e0: 92f9 80bc f92f 1a3d 7835 e6bc 9393 3c39
000003f0: 1805 ce3c ad55 263d e929 66bd 5c77 1c3d

c3.bias f4 [256]
-0.004452687 -0.02773716 0.015987018 -0.029457506 0.009435156 -0.03696476 0.019075546 -0.024705376
0.015943289 0.0035616155 0.03474788 0.08924755 -0.013322143 0.03928705 -0.036350135 0.05755467
-0.057396993 0.038721595 0.002190571 -0.023570772 0.009631053 -0.011929095 0.0124315405 -0.047406815
-0.014426734 -0.008198254 0.060432307 -0.018563766 0.0026925802 -0.009869706 0.052467182 -0.045174688
0.031913232 0.009257883 0.016877698 0.045914702 -0.04935517 0.021646408 -0.052496586 -0.024107434
0.037280288 0.029984305 0.022260167 0.024689708 0.021591337 0.020179598 -0.013463807 -0.0005789655
0.01733292 -0.022414392 0.040507257 0.016384767 0.023694314 -0.017345225 0.045165654 0.0042260652
0.05684337 0.034444463 0.010283081 0.016785465 -0.027497781 0.020864561 -0.058967106 0.0138819795
0.021063112 -0.027414093 0.030221116 -0.0054710316 -0.018358469 -0.039621234 0.01978067 0.022364505
0.03527602 -0.02040585 -0.021040756 -0.030908275 0.042919256 -0.006536268 -0.044713687 0.049909066
-0.020713637 -0.026324052 -0.028094893 0.0379561 0.023663685 -0.003990398 0.0051263324 -0.051298067
0.032027792 0.023289975 0.032092467 -0.028653603 0.05210429 0.051164925 -0.0054913373 0.07135178
-0.027410593 -0.03861862 0.021170195 -0.011612061 -0.013060851 -0.0013765766 0.049611773 -0.0431283
-0.008794845 0.0045202114 0.059131663 -0.03626974 0.064027674 0.030595642 0.0037335593 -0.0225878
0.009527924 0.011413651 -0.0051796813 0.04598363 -0.035110984 -0.033697207 -0.011385603 -0.03122564
0.039883632 0.038814336 0.013624248 0.012399224 0.037697393 -0.025008673 -0.011120333 0.066886544
0.017175335 -0.051180873 -0.020623144 -0.011787525 -0.036202118 -0.031148925 -0.024788614 -0.017583191
-0.042427137 -0.022777723 -0.029741023 -0.048448674 -0.0048517 0.047616385 0.053443037 0.0002391255
0.0022997719 -0.035063334 0.051798966 0.032230128 -0.029393166 -0.00248027 0.008979112 0.010588689
0.026153073 0.04819457 0.01224953 -0.03154326 0.01634485 -0.0007296242 -0.002152201 -0.006428342
0.032320466 0.008109344 -0.0123152 -0.03879886 -0.043522142 0.03151354 -0.031801764 0.036897607
0.029179985 0.011741597 0.003046753 -0.018770589 0.03795989 0.02175931 -0.014747613 -0.012455498
0.008327855 -0.008874758 0.021336973 0.005097291 -0.012820648 0.008943415 -0.040218472 -0.00019221404
-0.004508499 -0.018188793 -0.0051781056 0.013511997 0.04991422 0.0227374 0.057041388 0.020037401
-0.031156672 0.049206186 0.06283563 0.063769914 0.021076206 -0.045844067 0.0595028 -0.020349264
0.0024228706 -0.04040893 -0.021394787 0.026796112 -0.03006187 0.0072567114 0.017566007 0.021327492
0.037340265 -0.014053167 -0.049012773 -0.010364607 -0.053872295 -0.012041743 0.051852066 0.018675296
0.013225322 0.010898932 0.06461491 0.056848086 -0.0065990645 -0.043777965 -0.0024580702 0.045983836
-0.03009019 0.03050148 -0.00011636726 0.0144564565 -0.030526012 -0.010510711 0.02933191 -0.038784977
-0.0148953 0.050337296 -0.05943247 0.012796644 0.012545242 0.021551108 -0.06487701 -0.036440495
-0.022533942 0.011711293 0.057459082 0.021744853 -0.010305577 0.04525581 -0.029204236 -0.004943534
-0.01528437 0.016915824 -0.040921167 0.0028683643 0.018115783 -0.034107056 -0.006557575 0.013824688
00000000: d9e7 91bb 0a39 e3bc 35f7 823c de50 f1bc
00000010: ea95 1a3c 5c68 17bd 5244 9c3c ee62 cabc
00000020: 809b 823c fe69 693b cb53 0e3d 6bc7 b63d
00000030: 1e45 5abc 75eb 203d e1e3 14bd 72be 6b3d
00000040: 1c19 6bbd 899a 1e3d af8f 0f3b 7e17 c1bc
00000050: 90cb 1d3c 4072 43bc a9ad 4b3c a62d 42bd
00000060: 1c5e 6cbc f851 06bc de87 773d 0a13 98bc
00000070: 0076 303b 8cb4 21bc d4e7 563d 1809 39bd
00000080: 73b7 023d 60ae 173c 1943 8a3c 0e11 3c3d
00000090: a628 4abd cf53 b13c a906 57bd f47c c5bc
000000a0: 37b3 183d a5a1 f53c f45a b63c 1242 ca3c
000000b0: 51e0 b03c af4f a53c 4d97 5cbc b8c5 17ba
000000c0: c5fd 8d3c 639e b7bc f0ea 253d 5939 863c
000000d0: 941a c23c 9317 8ebc 9fff 383d ce7a 8a3b
000000e0: 98d4 683d a315 0d3d 5e7a 283c ac81 893c
000000f0: 0743 e1bc 28ec aa3c 7e87 71bd 3e71 633c
00000100: 8c8c ac3c 8593 e0bc 4692 f73c 5746 b3bb
00000110: 8064 96bc e049 22bd 120b a23c c435 b73c
00000120: 977d 103d 2b2a a7bc aa5d acbc 5a33 fdbc
00000130: 1acc 2f3d 312e d6bb b325 37bd 736d 4c3d
00000140: a5af a9bc 8aa5 d7bc 4327 e6bc db77 1b3d
00000150: 58da c13c e2c1 82bb cbfa a73b ec1d 52bd
00000160: 932f 033d 9eca be3c 6473 033d f6ba eabc
00000170: 4f6b 553d 5092 513d adf0 b3bb e220 923d
00000180: 2e8c e0bc 8f2e 1ebd 1e6d ad3c 8440 3ebc
00000190: 2efd 55bc 3f6e b4ba b735 4b3d 4da7 30bd
000001a0: 4118 10bc 481e 943b 0b34 723d 948f 14bd
000001b0: f120 833d b6a3 fa3c bbae 743b 0d0a b9bc
000001c0: 021b 1c3c 5200 3b3c 51ba a9bb 5559 3c3d
000001d0: 89d0 0fbd 1506 0abd ae8a 3abc eacc ffbc
000001e0: 055d 233d c8fb 1e3d 3d38 5f3c 1d26 4b3c
000001f0: 9568 1a3d fdde ccbc 0f32 36bc d0fb 883d
00000200: 4ab3 8c3c 09a3 51bd def1 a8bc 7720 41bc
00000210: ac48 14bd 082c ffbc 7e11 cbbc a00a 90bc
00000220: 14c8 2dbd 5998 babc 72a3 f3bc 1e72 46bd
00000230: 02fb 9ebb 6609 433d 16e7 5a3d c3bd 7a39
00000240: c5b7 163b 929e 0fbd 272b 543d bd03 043d
00000250: f0c9 f0bc 078c 22bb 201d 133c 2e7c 2d3c
00000260: f83e d63c ab67 453d 41b2 483c 8133 01bd
00000270: a3e5 853c 4044 3fba f10b 0dbb d7a4 d2bb
00000280: 7762 043d 0edd 043c b1c5 49bc 8eeb 1ebd
00000290: 4644 32bd 5714 013d 9142 02bd f221 173d
000002a0: dd0a ef3c d45f 403c 08ac 473b c7c4 99bc
000002b0: d47b 1b3d 9540 b23c f99f 71bc 2512 4cbc
000002c0: 8e71 083c 6f67 11bc e0ca ae3c 2d07 a73b
000002d0: b20d 52bc 6787 123c 20bc 24bd 108d 49b9
000002e0: 08bc 93bb aa00 95bc 19ad a9bb 6c61 5d3c
000002f0: da72 4c3d c943 ba3c 3ba4 693d 7a25 a43c
00000300: 473c ffbc 6d8c 493d f7af 803d cd99 823d
00000310: 02a8 ac3c fdc6 3bbd 35b9 733d 80b3 a6bc
00000320: 06c9 1e3b d683 25bd 1f44 afbc 8583 db3c
00000330: 5044 f6bc b5c9 ed3b 96e6 8f3c feb6 ae3c
00000340: 1bf2 183d 413f 66bc 9ec1 48bd 50d0 29bc
00000350: 32a9 5cbd bb4a 45bc d562 543d effc 983c
00000360: 05af 583c 6f91 323c d254 843d 8ad9 683d
00000370: f73c d8bb 8650 33bd 9317 21bb 8c59 3c3d
00000380: b47f f6bc 3dde f93c 320a f4b8 c6da 6c3c
00000390: b011 fabc 1e35 2cbc 7949 f03c ffdc 1ebd
000003a0: 6b0b 74bc 7b2e 4e3d 766f 73bd 04a9 513c
000003b0: 8f8a 4d3c f38b b03c 3dde 84bd a142 15bd
000003c0: 1a99 b8bc b9e0 3f3c 375a 6b3d 4322 b23c
000003d0: b9d8 28bc 285e 393d b93d efbc 5efd a1bb
000003e0: 4b6b 7abc 0e93 8a3c f49c 27bd 2bfb 3b3b
000003f0: 8d67 943c d7b3 0bbd ede0 d6bb f280 623c

fc1.weight f4 [64, 256]
0.000915496 0.011379055 -0.027425377 -0.039091635 -0.028017208 -0.008283572 0.07313506 0.085165694
-0.00054733234 0.02568215 0.029894244 -0.04448829 -0.008099562 0.003237387 -0.018605249 -0.018031335
-0.027413582 0.039748818 -0.029704062 -0.02417108 -0.121964514 0.07626776 -0.068875276 0.09106878
0.057498574 0.058964293 -0.06737066 0.07726899 0.07698026 -0.023061365 -0.088753514 -0.016796295
-0.15777573 0.06053524 0.033770125 -0.07565491 -0.008444158 -0.04393963 0.023862874 -0.010726479
-0.09247559 -0.03718107 0.016497914 -0.08142257 0.009851186 0.0201371 0.020603951 0.008954046
-0.0032835596 0.07008663 0.10792252 -0.05188964 0.050856076 -0.11343624 -0.073951386 0.022397043
-0.056562256 0.03106308 -0.024820795 0.01967583 0.001141374 -0.0028358654 -0.042080835 0.013867262
0.01383146 0.034518022 -0.024286395 0.082888976 0.0032014325 0.08318911 0.03685413 0.03773866
0.041022908 0.07118793 -0.0073324856 0.008310494 -0.10358209 0.07956049 -0.045651887 -0.13772386
-0.054227535 -0.0050442265 0.022864329 0.07381634 -0.023040747 0.09257947 0.07562671 0.005732681
0.048195288 0.06296248 -0.0050428677 0.08776625 -0.076067306 -0.08762183 -0.056305695 -0.0954387
-0.041098844 0.020967592 -0.08818166 0.013520817 0.018321304 -0.15135597 0.022918018 0.049160562
0.088538855 0.0030806214 -0.04917946 0.046685174 -0.056324143 0.054433964 0.071742095 -0.024195775
0.027474847 0.07899006 0.061845385 -0.05194794 0.09106215 0.044469334 0.049934693 -0.023076665
-0.039433468 -0.03436989 -0.035692632 -0.043227695 -0.06272322 0.041961644 -0.02807465 -0.024886109
0.017817918 0.023706803 -0.044644702 0.049139403 0.053620417 -0.0029319443 0.014016538 -0.05478749
0.073539436 0.06772243 -0.0024976837 0.0054044607 -0.08803932 -0.12240766 -0.09302991 0.041368548
-0.023481512 0.09349077 -0.05314706 -0.04989845 -0.0290397 0.012242581 -0.021142865 -0.014847147
-0.1750038 -0.06838936 -0.08406341 -0.012924048 -0.06206307 0.043578282 -0.033156812 -0.014552137
0.0063101063 -0.018858582 0.02398676 0.038917508 0.059809312 -0.0009298284 0.0977091 -0.021792972
-0.017573643 -0.16189827 0.0013035968 0.093086705 -0.087721676 -0.0007012898 0.047376793 0.08487974
0.013736101 0.0045022704 -0.113580234 -0.03527324 0.082242236 -0.039419927 -0.020206522 -0.03467172
0.024839114 0.013842107 -0.154237 -0.07337616 -0.03388676 0.004496198 -0.042988528 -0.019731171
-0.0021565787 -0.08288731 -0.023767067 -0.077886365 0.07655891 0.073729105 -0.04771275 -0.03075755
-0.093998656 -0.000836379 -0.016684502 0.041518126 0.06132907 0.07657083 0.066839404 -0.028585166
0.021073768 0.0589463 0.033663187 0.09834509 0.08272234 -0.10196445 -0.027171083 0.05570399
-0.09500727 0.02624258 -0.05766697 0.011340701 0.058651686 0.033822786 -0.12747611 -0.080733016
0.096201345 -0.04195017 0.0518558 0.073851176 -0.0041848426 -0.022175584 0.06214981 -0.036197826
-0.066957854 -0.031096753 -0.0024699362 -0.06658142 -0.1161885 -0.0059050857 0.02860937 0.062265925
-0.120684884 -0.08907946 -0.061090156 0.05796837 0.026626863 -0.0362234 -0.01887021 0.056529652
0.06283015 0.06845605 0.041129705 0.008329237 -0.065499455 0.0103877485 0.024032362 0.056747954
00000000: e6fd 6f3a 376f 3a3c 2fab e0bc 8d1e 20bd
00000010: 5884 e5bc d2b7 07bc d6c7 953d 5a6b ae3d
00000020: da7a 0fba 5f63 d23c c6e4 f43c 5a39 36bd
00000030: 06b4 04bc 572a 543b 096a 98bc 73b6 93bc
00000040: 7392 e0bc a8cf 223d ef55 f3bc 6e02 c6bc
00000050: 88c8 f9bd 4532 9c3d 7b0e 8dbd 4582 ba3d
00000060: a083 6b3d 8b84 713d a1f9 89bd 343f 9e3d
00000070: d4a7 9d3d 30eb bcbc 67c4 b5bd 6298 89bc
00000080: f68f 21be cdf3 773d 8b52 0a3d f6f0 9abd
00000090: 5e59 0abc 0bfa 33bd 137c c33c 1dbe 2fbc
000000a0: d863 bdbd 2d4b 18bd a226 873c e0c0 a6bd
000000b0: de66 213c 8ff6 a43c 9ec9 a83c feb3 123c
000000c0: fd30 57bb 9489 8f3d 7b06 dd3d 3b8a 54bd
000000d0: 764e 503d 4251 e8bd d373 97bd 017a b73c
000000e0: d3ad 67bd 0078 fe3c fb54 cbbc 352f a13c
000000f0: 289a 953a edd9 39bb f45c 2cbd 8333 633c
00000100: 599d 623c c562 0d3d 43f4 c6bc b2c1 a93d
00000110: 20cf 513b 0d5f aa3d 5bf4 163d da93 1a3d
00000120: a307 283d faca 913d 5945 f0bb bd28 083c
00000130: d922 d4bd 9cf0 a23d 79fd 3abd 7c07 0dbe
00000140: b11d 5ebd 0a4a a5bb f94d bb3c 052d 973d
00000150: f3bf bcbc 4e9a bd3d 2de2 9a3d 37d9 bb3b
00000160: 6c68 453d 79f2 803d a43e a5bb cbbe b33d
00000170: 2dc9 9bbd 1373 b3bd cda0 66bd 5d75 c3bd
00000180: 4357 28bd 3ac4 ab3c 9698 b4bd 6b86 5d3c
00000190: 8f16 963c 0ffd 1abe 91be bb3c 965c 493d
000001a0: dc53 b53d 40e4 493b 6770 49bd f438 3f3d
000001b0: 25b4 66bd 26f6 5e3d 85ed 923d 3836 c6bc
000001c0: ee12 e13c 8ac5 a13d 9651 7d3d 5dc7 54bd
000001d0: cb7e ba3d 7a25 363d 5288 4c3d 460b bdbc
000001e0: fd84 21bd 71c7 0cbd 7032 12bd 860f 31bd
000001f0: 0875 80bd f9df 2b3d cffc e5bc f4dd cbbc
00000200: e2f6 913c c534 c23c 5ddd 36bd 6646 493d
00000210: 15a1 5b3d dd25 40bb 9fa5 653c d968 60bd
00000220: d89b 963d 0fb2 8a3d 2eb0 23bb e717 b13b
00000230: f64d b4bd deb0 fabd 7786 bebd 1172 293d
00000240: 4d5c c0bc 1778 bf3d bbb0 59bd 5162 4cbd
00000250: aae4 edbc 1b95 483c cd33 adbc 7341 73bc
00000260: 3234 33be b90f 8cbd 7029 acbd 63bf 53bc
00000270: d835 7ebd 247f 323d 70cf 07bd 166c 6ebc
00000280: 02c5 ce3b 507d 9abc e27f c43c f767 1f3d
00000290: 9cfa 743d babf 73ba b51b c83d 2d87 b2bc
000002a0: 9af6 8fbc a9c8 25be 73dd aa3a 3ea4 be3d
000002b0: 6ca7 b3bd c3d6 37ba 2b0e 423d 6ed5 ad3d
000002c0: 620d 613c c887 933b c19c e8bd ac7a 10bd
000002d0: 9e6e a83d ca76 21bd 2688 a5bc ef03 0ebd
000002e0: 667b cb3c 01ca 623c 4ef0 1dbe 3d46 96bd
000002f0: d8cc 0abd d854 933b bd14 30bd 44a3 a1bc
00000300: 6355 0dbb d2c0 a9bd 27b3 c2bc e382 9fbd
00000310: ebca 9c3d 49ff 963d 726e 43bd 42f7 fbbc
00000320: 5e82 c0bd 7240 5bba f0ad 88bc e90e 2a3d
00000330: 3134 7b3d 2bd1 9c3d 19e3 883d 702b eabc
00000340: e5a2 ac3c ad71 713d 69e2 093d 2769 c93d
00000350: 556a a93d bdd2 d0bd e495 debc de29 643d
00000360: 2c93 c2bd aefa d63c 3334 6cbd 59ce 393c
00000370: c03c 703d c389 0a3d 1989 02be 5a57 a5bd
00000380: 3605 c53d f1d3 2bbd bf66 543d 493f 973d
00000390: 0121 89bb 92a9 b5bc cd90 7e3d 2c44 14bd
000003a0: 3321 89bd 9ebe febc a7de 21bb d75b 88bd
000003b0: 3cf4 edbd 737f c1bb 335e ea3c 8e0a 7f3d
000003c0: a329 f7bd 4b6f b6bd ac39 7abd 3e70 6d3d
000003d0: 9420 da3c fd5e 14bd b395 9abc a38b 673d
000003e0: 18ad 803d af32 8c3d 9f77 283d 5a77 083c
000003f0: 9424 86bd 6031 2a3c 84df c43c 8b70 683d

fc1.bias f4 [64]
0.010927003 0.023254663 -0.008871224 -0.06220336 0.040806755 -0.016325405 -0.015857928 -0.048851654
0.0002522496 0.033860546 0.057405334 0.049350347 -0.04650857 -0.03357286 -0.009884941 -0.027047468
0.0354803 -0.041539393 -0.063157566 -0.001775675 -0.056451216 0.038344074 0.02212114 -0.051394153
-0.013739513 -0.018473823 -0.065666355 -0.0075036995 0.056551088 0.02698229 0.034364764 -0.019287216
-0.05342297 -0.04269808 -0.00037834753 -0.03998044 0.04919894 -0.063622385 -0.006804689 0.038669493
0.038750373 0.034559 0.026684605 0.0067596724 -0.052660756 0.012887068 0.024304135 -0.036366284
0.034566026 -0.017018981 -0.04478692 0.021098277 -0.028667793 0.006192083 0.033802643 -0.041770134
-0.0021016207 0.016256467 0.040247466 -0.04247939 0.016298696 -0.03990176 0.033604022 -0.0056785382
00000000: 2c07 333c 9080 be3c 9c58 11bc f3c8 7ebd
00000010: fc24 273d dbbc 85bc 7ce8 81bc ac18 48bd
00000020: 5e40 8439 5bb1 0a3d db21 6b3d 9723 4a3d
00000030: c57f 3ebd b283 09bd 73f4 21bc a792 ddbc
00000040: cb53 113d 3625 2abd c158 81bd c4bd e8ba
00000050: 6439 67bd ad0e 1d3d 6537 b53c ad82 52bd
00000060: b21b 61bc 6a56 97bc 157c 86bd 98e1 f5bb
00000070: 1da2 673d f709 dd3c 11c2 0c3d 3900 9ebc
00000080: 0bd2 5abd 2fe4 2ebd f25c c6b9 88c2 23bd
00000090: d484 493d 744c 82bd def9 debb e763 1e3d
000000a0: b6b8 1e3d bd8d 0d3d ac99 da3c 3e80 dd3b
000000b0: ceb2 57bd 4824 533c 7719 c73c d0f4 14bd
000000c0: 1b95 0d3d 646b 8bbc 7d72 37bd 4bd6 ac3c
000000d0: b8d8 eabc f5e6 ca3b a474 0a3d 2917 2bbd
000000e0: 58bb 09bb 482c 853c 87da 243d defe 2dbd
000000f0: d884 853c 0770 23bd 5fa4 093d 0813 babb

fc2.weight f4 [5, 64]
0.132251 -0.066310965 -0.043292 -0.060845852 -0.051020984 0.08928293 0.081224054 0.012316301
0.11877 0.02705204 0.14703524 0.08091108 0.029424623 0.04191302 0.13679601 0.07891565
-0.014573446 0.041063756 -0.092751734 0.10402961 0.024918526 -0.024788959 -0.06393227 0.09727174
-0.10599106 0.12424229 0.04798945 -0.10756868 0.11645359 0.12824728 0.026965661 0.034636185
0.087270945 0.05793596 0.055930153 0.06486812 -0.050316196 -0.030680055 -0.018247446 0.044026166
0.0068222913 -0.107783854 0.16798401 0.04531416 0.034614097 -0.06251043 0.03751122 0.0689605
0.1022968 0.10847755 -0.0070331884 -0.10934327 -0.07615134 0.04426816 -0.08789506 -0.0075704865
0.07932223 0.04025807 -0.086473845 -0.090214506 0.03890332 -0.07632134 -0.08130304 0.06589922
0.21453296 0.06464196 0.0006058514 -0.07529005 0.0259774 0.099808656 0.09119004 0.0886154
0.12603945 0.09126265 0.12121594 0.0905985 -0.010284665 0.074558385 0.117330655 -0.087775655
0.00089634734 0.06620565 -0.11863597 0.07740527 0.12636535 0.049710885 -0.09374903 0.034106612
-0.0031959577 0.1457481 0.12554005 -0.06573756 0.15154102 0.039948437 -0.0051874 0.03710164
0.10035888 -0.0975963 -0.09259891 -0.047657624 0.12674083 -0.0517968 -0.07869169 -0.093047366
-0.0317955 -0.0705824 0.11083314 0.023781994 0.057364967 0.090943225 -0.10487813 0.112459436
0.08729489 0.116437204 0.025136247 -0.03900476 0.049123675 0.16536029 -0.07268391 -0.018151267
-0.1323094 0.11258807 0.047220275 -0.07499611 -0.09808213 -0.06887404 0.07109951 0.09903343
0.009404322 0.083564594 -0.086356714 0.108210355 -0.035919003 -0.027200637 0.0104456395 -0.035635144
0.061066087 0.13832618 -0.053404264 0.038615875 0.012218434 0.047508765 0.07006342 -0.07787602
0.029142333 -0.04474758 -0.026684556 0.14396715 0.15123975 0.0026868535 -0.07208302 0.041873712
-0.074760675 -0.019066667 0.11775876 0.10653778 0.09432689 0.1842844 0.11924484 0.049685895
-0.06986336 0.014425295 -0.05762778 -0.10598187 0.0055887443 0.06603169 0.067110024 0.0009697658
0.04584922 0.0489862 -0.021679081 0.06902608 -0.08998443 -0.11392208 0.039550804 0.09841251
-0.036108878 0.10047557 -0.012800562 -0.06713346 0.07150552 0.069312446 0.01721222 -0.11824893
0.069172956 0.08155619 -0.0510418 0.054143906 0.08673613 -0.041135937 -0.078690395 0.043482214
-0.06098414 0.009664894 0.087424256 -0.05508834 0.08403611 0.062466305 0.094791755 0.016274884
0.08819475 0.054145247 0.12638175 0.013004232 -0.027634367 0.04094536 -0.060362693 -0.043937434
-0.09512937 0.095307514 0.04414105 0.10973879 0.16896541 0.07782195 -0.121244885 0.013223399
-0.06393564 0.052533705 0.010896245 -0.017123505 0.06212942 0.09764218 -0.10264043 -0.09839217
0.06365612 0.05752981 0.0952332 0.10418627 0.055889104 -0.119585365 -0.03980857 -0.09388155
-0.013121359 0.11622117 0.061574277 0.03066293 -0.07970855 0.1009046 0.013114342 0.007360487
-0.05288686 0.1549249 -0.02749008 0.025940927 -0.08353099 0.12934177 0.0063622054 0.11138707
0.09944159 -0.037846174 -0.074272156 0.050061136 0.12921833 -0.099228166 -0.023608487 -0.0015712712
00000000: ce6c 073e 0bce 87bd f452 31bd 8039 79bd
00000010: 61fb 50bd f8d9 b63d cc58 a63d 50ca 493c
00000020: b03d f33d 3d9c dd3c 6890 163e b5b4 a53d
00000030: e80b f13c fdac 2b3d 4114 0c3e 879e a13d
00000040: 76c5 6ebc 7832 283d 9ff4 bdbd 7a0d d53d
00000050: f021 cc3c 3712 cbbc ecee 82bd 6836 c73d
00000060: d711 d9bd be72 fe3d 9690 443d f84c dcbd
00000070: 387f ee3d 4153 033e 17e7 dc3c acde 0d3d
00000080: 1cbb b23d 424e 6d3d 0417 653d 94d9 843d
00000090: 5b18 4ebd bd54 fbbc ab7b 95bc c854 343d
000000a0: 878d df3b c8bd dcbd 0004 2c3e 579b 393d
000000b0: 83c7 0d3d 7805 80bd 5da5 193d 2a3b 8d3d
000000c0: fc80 d13d 7a29 de3d a976 e6bb 5def dfbd
000000d0: 3cf5 9bbd 8852 353d 5302 b4bd d811 f8bb
000000e0: b173 a23d a5e5 243d 3319 b1bd 62c2 b8bd
000000f0: 1659 1f3d 5d4e 9cbd 3582 a6bd 2cf6 863d
00000100: 87ae 5b3e 0163 843d 00d2 1e3a ab31 9abd
00000110: 8ece d43c 7b68 cc3d d8c1 ba3d fe7b b53d
00000120: 7c10 013e eae7 ba3d 1040 f83d b58b b93d
00000130: 0381 28bc 11b2 983d 0e4b f03d b9c3 b3bd
00000140: daf8 6a3a d496 873d 6af7 f2bd a786 9e3d
00000150: eb65 013e a49d 4b3d 7eff bfbd 60b3 0b3d
00000160: 4673 51bb fd3e 153e 928d 003e 6aa1 86bd
00000170: 922d 1b3e f9a0 233d 11fb a9bb e4f7 173d
00000180: f588 cd3d 92e0 c7bd 7fa4 bdbd a434 43bd
00000190: 59c8 013e e228 54bd 1c29 a1bd 9e8f bebd
000001a0: 003c 02bd 818d 90bd 7cfc e23d 75d2 c23c
000001b0: 87f7 6a3d 7140 ba3d 58ca d6bd 2251 e63d
000001c0: aac7 b23d a176 ee3d 88ea cd3c 75c3 1fbd
000001d0: e835 493d 3554 293e 4ddb 94bd f7b1 94bc
000001e0: 1e7c 07be 9394 e63d 0c6a 413d 8f97 99bd
000001f0: 49df c8bd d50d 8dbd 9f9c 913d 0ad2 ca3d
00000200: 9614 1a3c ea23 ab3d cadb b0bd 649d dd3d
00000210: ce1f 13bd dfd3 debc 3024 2b3c 28f6 11bd
00000220: 6f20 7a3d 61a5 0d3e 6ebe 5abd ae2b 1e3d
00000230: d42f 483c 8d98 423d 697d 8f3d 767d 9fbd
00000240: e7bb ee3c 3d49 37bd 9299 dabc 206c 133e
00000250: 98de 1a3e ec15 303b 43a0 93bd c583 2b3d
00000260: 201c 99bd b331 9cbc 812b f13d 7b30 da3d
00000270: 752e c13d 0db5 3c3e a436 f43d 7083 4b3d
00000280: 8514 8fbd 1358 6c3c 1b0b 6cbd 060d d9bd
00000290: c921 b73b 9f3b 873d fb70 893d e237 7e3a
000002a0: 64cc 3b3d c1a5 483d 5498 b1bc 8c5d 8d3d
000002b0: c249 b8bd fb4f e9bd 0600 223d 7f8c c93d
000002c0: e7e6 13bd 23c6 cd3d 73b9 51bc 447d 89bd
000002d0: 7c71 923d aff3 8d3d a400 8d3c 7f2c f2bd
000002e0: 8daa 8d3d ef06 a73d 3511 51bd 00c6 5d3d
000002f0: b6a2 b13d 287e 28bd 6e28 a1bd 681a 323d
00000300: 81ca 79bd 8159 1e3c 7d0b b33d 50a4 61bd
00000310: 201b ac3d abdc 7f3d 2e22 c23d e852 853c
00000320: 739f b43d 68c7 5d3d 386a 013e b40f 553c
00000330: 7861 e2bc 52b6 273d df3e 77bd bdf7 33bd
00000340: 30d3 c2bd 9630 c33d 3fcd 343d bbbe e03d
00000350: 4505 2d3e 1d61 9f3d 3d4f f8bd f5a6 583c
00000360: b0f0 82bd 952d 573d 2a86 323c 9846 8cbc
00000370: 6b7b 7e3d a0f8 c73d 2535 d2bd d681 c9bd
00000380: 245e 823d 61a4 6b3d a009 c33d 9c5f d53d
00000390: f9eb 643d 2ce9 f4bd 500e 23bd f844 c0bd
000003a0: f8fa 56bc 5d05 ee3d 4f35 7c3d d330 fb3c
000003b0: 3c3e a3bd 12a7 ce3d 89dd 563c 3d30 f13b
000003c0: e49f 58bd a2a4 1e3e e032 e1bc 1182 d43c
000003d0: 4c12 abbd 2b72 043e 0c7a d03b e71e e43d
000003e0: 08a8 cb3d 9704 1bbd 001c 98bd e80c 4d3d
000003f0: cf51 043e 2338 cbbd 9666 c1bc 1df3 cdba

fc2.bias f4 [5]
-0.0816564 -0.026447698 0.022827273 -0.093436435 -0.1060681
00000000: 783b a7bd d8a8 d8bc 4300 bb3c 9a5b bfbd
00000010: 3b3a d9bd
