IQL_CNN_win/agent3_181.pth (torch, 745122 bytes, 10 tensors)

c1.weight f4 [32, 8, 3, 3]
00000000: c42e 9f3d 7452 2c3d 6340 95bd 0a07 b2bd
00000010: a4ed d8bc 6171 87bd e9d8 943d 7ff0 32bd
00000020: d7da 6fbc 27f1 aa3d 2b32 2b3e 187e 283e
00000030: 6066 4bbd d394 9e3c ba32 1f3e 5038 823c
00000040: d825 3a3e ecdc 993c 80c3 34bd daf0 37bd
00000050: 3019 b3bb b4cd ce3c 66c9 b5bd 5c99 b13c
00000060: b0b0 f53b 8718 ecbd f148 d73d 62c6 443d
00000070: 67b6 d53d 57e2 903d 406a 1fbb e670 223d
00000080: 9b4e d73d 6a67 503d 0d9c 913d 5465 acbc
00000090: 5d23 3bbb 4aca bcbd 4978 1e3d 784c f93c
000000a0: c792 983d 8e4e 02be da57 09be 4585 1cbe
000000b0: 2c5f 39bd 32c6 6abd c44f b0bd 2fc8 2dbe
000000c0: 1513 83bc 58a1 1c3c 09df 993c 7f58 1cbe
000000d0: 8602 d2bc f01e 8a3c 5713 2bbe d096 663c
000000e0: 8199 6e3c a0c7 90bc 68a5 b9bd 0d22 4bbd
000000f0: 5a9c bb3d c869 9cbd 4bbb 243d 77ca 133e
00000100: 16f0 db3c d6ad 193d 9996 2c3e a22e 063e
00000110: 4ac3 f13c 3060 233d aef8 2b3e 2d7c 14be
00000120: fcab 773d 5a6d 10bd b2c8 a93d c4d0 1bbd
00000130: 5e2e c23d 2373 8cbd 213f 953c 5b1d 9bbc
00000140: 4b7b 8d3d 4275 d9bd 4a55 cfbd 9fa5 14bd
00000150: f466 b9bd e62f d4bd 97e0 05bb d94a eabd
00000160: cac4 5abd 8819 4c3d 586c f3bc fc47 62bd
00000170: 4be3 993d f84f 22bd 68d1 4fbd 2825 593c
00000180: 4b46 803d b52d e43d d7f9 cd3d 0b8a 9ebd
00000190: e4b8 5cbd 8f59 e33d ad66 883d 449d b1bc
000001a0: 407c e4bd a4c1 42bd 7048 903b e08a c0bb
000001b0: a81c 07be 1c8c b8bd 81ab f9bd ee29 f0bd
000001c0: 0960 8abd 377e 473d db14 99bd 7222 94bd
000001d0: 768c e9bd 584c f4bd bbf2 cabc e0e5 903d
000001e0: fc93 ffbd 2fc2 893d 9805 b6bb ed9f c7bd
000001f0: c506 a43d e002 193e ffb4 d7bd e9e3 01be
00000200: b02a 423c 67b9 c2bb 5bb2 953d 65cb 4e3d
00000210: 810f a63c 28f8 123d 34f1 a0bc f6eb a33d
00000220: 4362 1ebd 8e5f c2bd 1912 c93d 6cb4 5c3d
00000230: c8a1 20bd 0c4c 413d cf55 b1bd b059 c3bd
00000240: 883b 123d 460c 253d 3306 8e3d 7be2 90bc
00000250: 8569 9bbd a132 cc3d e4c4 e1bd c4a0 92bb
00000260: a9d9 093d 3f4c 2fbe 2603 b83b db5f b5bd
00000270: 8fb7 5bbd bd79 283e 7e4f ba3d a5ea 73bd
00000280: 3e0a 28bc ba49 79bd a4e1 6dbd 3a93 ecbd
00000290: fdb2 ab3d 683b 363c e892 9abd a46c abbc
000002a0: 3c4e 8b3c ba41 533d fc31 903c aafb 3e3d
000002b0: 386f 6a3c 709d 6dbc daff c9bd 040e b33c
000002c0: 00ee 1ebb 6ae5 a4bd 4f4c e9bd e871 4abc
000002d0: f253 0fbd 954a 00bd a23d 46bc 3681 46bc
000002e0: e965 d4bc e3c4 b8bc 07ef 5e3c 253a 0c3c
000002f0: 0d5c 06be 8d92 4cbb 9418 9dbc d46c 8f3d
00000300: 24aa 92bd 6c38 d7bd a982 3fbb 5bfd 1ebc
00000310: 0e37 2cbc f501 c53d cca3 13be ad05 953a
00000320: 1899 20bd ef4c 47be 4255 23be 950b 0f3d
00000330: f8ca 11be becc ea3d 1482 a6bd 6758 5abd
00000340: ba94 383e b1a6 41bc ba79 593e b065 5ebd
00000350: 3878 34bd 181d 02be ab3e 7abd 1b7d 8a3b
00000360: edde f8bd fec4 9a3d b02b 3f3d 5ee9 a3bd
00000370: 3962 cbbc 5a5d 863d 81b4 ac3d d6f5 df3c
00000380: fc5f 83bd 9922 dabc 483c b03d 2b7f b0bb
00000390: 95ff 1cbd 2ce5 af3d 8280 e63c 4246 cd3d
000003a0: b6de 923d 3b76 0139 0419 d3bc 742c a1bc
000003b0: 281a 3abd f0b5 c83b e98e a43d d226 2fbd
000003c0: 1d3d cd3d 24bc d0bd 10c4 5fbc 3c9c 913c
000003d0: 3e8f 043d b1cc 823d 2cc6 993c 86de 01bd
000003e0: 4295 023d ee2e a9bd 89d6 c7bd 464a 373d
000003f0: 3e58 8cbd ef51 abbd d836 1e3d 924d 9bbd
0.07772592 0.04207082 -0.072876714 -0.08692749 -0.026480503 -0.06613422 0.07267935 -0.043686386
-0.014639578 0.083467774 0.16718356 0.16454351 -0.04965818 0.019358074 0.15546694 0.015895993
0.18178499 0.018782102 -0.044131756 -0.04490743 -0.005465649 0.025244571 -0.08876304 0.021679573
0.0074978694 -0.11528116 0.10511959 0.048040755 0.10435181 0.07074421 -0.0024324805 0.03965845
0.1051304 0.050879873 0.071098424 -0.02104441 -0.0028555014 -0.09218271 0.03868893 0.030431971
0.074498706 -0.12725279 -0.13412419 -0.15285213 -0.04525678 -0.05731792 -0.08608964 -0.16970895
-0.01600031 0.009559952 0.01878311 -0.15268134 -0.025635969 0.016860455 -0.16706596 0.014074042
0.014562965 -0.017673314 -0.09064752 -0.04959302 0.09160681 -0.07637364 0.04021768 0.14432703
0.02684788 0.0375193 0.16854323 0.13103727 0.029512066 0.039886653 0.16794083 -0.14500494
0.06046675 -0.035260536 0.08290233 -0.03804089 0.094815 -0.06857898 0.018218579 -0.018934896
0.06908282 -0.10618068 -0.101236895 -0.03629076 -0.0905284 -0.103606984 -0.0020428055 -0.11440057
-0.05341033 0.049829036 -0.029714748 -0.05524443 0.07514056 -0.039627045 -0.050736815 0.013253488
0.06263407 0.111415304 0.10057419 -0.07741173 -0.053887263 0.11101066 0.06660209 -0.021681435
-0.11156511 -0.04754795 0.0044031665 -0.00587593 -0.13194525 -0.09011099 -0.12190915 -0.117267475
-0.067565985 0.048704352 -0.07474681 -0.072331324 -0.11403744 -0.11928624 -0.024773946 0.07075095
-0.12479398 0.06726491 -0.005554866 -0.097473 0.08009104 0.14942503 -0.10532569 -0.12684597
0.011850998 -0.005942512 0.07309409 0.05048694 0.020271065 0.03588119 -0.019646265 0.0800399
-0.03866793 -0.09490882 0.09817905 0.053883 -0.039216787 0.047191665 -0.08658945 -0.09538591
0.035701305 0.040294908 0.06934776 -0.01768612 -0.07588486 0.09970594 -0.11023882 -0.004474731
0.033654843 -0.1711893 0.0056156097 -0.088561736 -0.053641852 0.1645269 0.09097193 -0.059549946
-0.010256348 -0.060861327 -0.058076516 -0.11551519 0.08383749 0.011122562 -0.075475514 -0.020925827
0.017005078 0.051576354 0.01760196 0.046626724 0.014308743 -0.014502868 -0.09863253 0.02185727
-0.0024250746 -0.0805157 -0.11391508 -0.012356259 -0.034992166 -0.031321127 -0.012099655 -0.012115767
-0.0259275 -0.02255482 0.013606793 0.008558785 -0.13121052 -0.003121528 -0.019176759 0.07003179
-0.07161358 -0.105088085 -0.0029222167 -0.009703959 -0.010511173 0.09619514 -0.14417952 0.0011369489
-0.0392085 -0.19462942 -0.15950492 0.034923155 -0.14237583 0.11464833 -0.08130279 -0.053306963
0.18025485 -0.0118195275 0.21237841 -0.054296196 -0.044059962 -0.12706411 -0.06109492 0.0042263395
-0.12151895 0.075571045 0.046672523 -0.08003496 -0.02482711 0.06560774 0.08432866 0.027338903
-0.06414792 -0.026627826 0.08605248 -0.0053862534 -0.03832968 0.08588633 0.02813745 0.10023166
0.07171385 0.00012346443 -0.025768764 -0.019674517 -0.0454351 0.0061252043 0.080350704 -0.04276163
0.10021422 -0.10192135 -0.013657585 0.017774694 0.03236317 0.06386698 0.018771254 -0.031706356
0.031880625 -0.08260904 -0.09757716 0.044748567 -0.06852768 -0.08365237 0.03862652 -0.07583155

c1.bias f4 [32]
00000000: 6838 3ebb 039c 933d c35d bdbd 027e 983d
00000010: a0b4 683c f740 563d c05c 7c3d 09a1 8c3d
00000020: 49f0 94bd c54c eb3c 02df f8bd 9a80 a1bd
00000030: 0162 8b3d d19e 0abe 71a4 3ebd 1a00 02bc
00000040: c1a3 f0bd 5e86 02be 620c 1fbd 2c67 8b3d
00000050: 227c a53d c7df 513c 6518 88bc a0a7 063d
00000060: c15a d7bd 25e8 0d3d c182 86bd ea2c c93d
00000070: 9af8 eebd 5e7d b43b 5548 a3bd 60d6 a63d
-0.002902532 0.07207491 -0.09246399 0.07445909 0.014203221 0.05230805 0.06161189 0.068666525
-0.07272393 0.02872313 -0.1215191 -0.07885857 0.06805802 -0.13537146 -0.046543542 -0.0079345945
-0.117499836 -0.1274657 -0.03883017 0.06806788 0.08080317 0.0128097 -0.016613195 0.032874703
-0.10515357 0.03464522 -0.06567908 0.0982302 -0.11668511 0.005508109 -0.079727806 0.081463575

c2.weight f4 [64, 32, 3, 3]
00000000: 6fca bebc a1bd 98bd df35 2cbd 69da cabc
00000010: 36ef 2b3d 12a5 2bbd 2671 913c 7fbc 52bc
00000020: 23cc 353d 73e4 33bd 6df7 9ebd 3570 06bd
00000030: 6574 7cbd fb5c 5c3c 24fa 94bd b951 84bc
00000040: 5263 44bd f37f 8f3c cb30 fabc 63ba 8fbd
00000050: 41d7 d63c ad6f ccbc ea5a a23d e8d9 733d
00000060: e8ad d5bd b909 dbbd bc75 613d afb7 e6bc
00000070: 988f 363d cd6a 0bbd 7e49 e9bc fb23 e4bc
00000080: 6dbe a6bc 30b6 92bc 8a41 aab9 428f b23c
00000090: bf7a c239 1059 f43b 234e af3c d051 aebd
000000a0: e9c2 873c 2827 8fbd 0681 bdbc 4618 80bd
000000b0: 1c80 c6bd e6e9 d2bb 7f6a 5e3d a4eb 313c
000000c0: 26fe 673c 8428 2fbd 935a 0f3b 565d 223d
000000d0: 193f 6abd d29c dbbc 9d3f 193c b36a c3bc
000000e0: 7396 1b3d 0d64 013c 6fed 2f3d 82ca 093d
000000f0: 2ca3 543d 604b c5bc 2650 bebb 68c7 133c
00000100: 15ac c93c d24a b0bc 6ec2 88bd f6a1 fbbc
00000110: 2112 8c3c d678 e2bc 08f7 93bc 805c 443d
00000120: fdae f1bc 8591 b9bc a133 10be ed33 18bd
00000130: 9546 e1bd c1d4 fbbd 9482 adbb 252c debc
00000140: b931 8abd b600 6d3c 968c 4fbd 07e6 86bd
00000150: 929d fbbc de37 49bd f15c 723a 4f8e 543d
00000160: 9f62 fe3b 7326 d2bb 7fd6 7c3d 8128 de3d
00000170: c9b9 783c ec01 153d d29c 153d 10ba 453c
00000180: 4d8f 0abd bc0c cebc 02f3 13bd bf97 7c3a
00000190: e07a 393d bf9c d7bb 97ca 81bd 1ccf 833c
000001a0: ab83 85bc 12f5 ef3c fa3c a83d b6df b83d
000001b0: ff7a 1dbd 063e 043d 049a 1c3d 0fbb 643c
000001c0: 40e6 1138 16c5 243d 6d88 3d3d cd84 e6ba
000001d0: 49e2 d0bc 5833 903d 8277 ba3d 829c 0b3e
000001e0: 615d 963d 5945 d53d c3f1 123e b4d3 94bc
000001f0: f378 983d 82a0 c63d 1f2b 903d 82d8 853d
00000200: d35a 2a3d 2d80 a33d 410b 753d 508e 983d
00000210: eb85 3b3d 4fa2 75bc 869c 923b 37ca bdbc
00000220: a4c2 46bd c332 22bc a023 a73c 26b1 89bc
00000230: e93a a03c b4cc d93c 7b88 7cbd e991 44bd
00000240: b8ea a03d 1153 483d 7589 d43d 1573 81bc
00000250: a9f1 8c3c 8c23 cb3d d5e3 da3d 5d7e 823d
00000260: 8c7c 833d 78fc e03d 53b4 f13c 6e69 143e
00000270: 6862 893d 856e 763d 8cb5 0f3e 2883 483e
00000280: 2500 183e 120c 093e 9ab6 3b3d df6c 923c
00000290: 9717 f93c 07f7 4f3c ccca f6bc 467c 183d
000002a0: c080 503d 07db 983c 1881 e9bb ac9b 8fbb
000002b0: ec24 863d c196 453c 83ec e4bb 2046 523d
000002c0: fcec 0a3d 509a 45bc fc4d 963d 21ca 12bd
000002d0: f3d5 71bc 9975 1e3d ad92 6bbc 55bc 103d
000002e0: eb03 a1bc 4734 8bbc a7f6 423d c850 08bc
000002f0: 4efc 2d3d cc95 acbd d142 603d 4cba 0a3d
00000300: a20a 6bbd faaf 33bd f396 b43c 9283 79bd
00000310: 3c75 683d 1fa9 323d d30c a3bd aa89 7b3d
00000320: cbc1 313c d4dc 1dbd b5f4 eabc 3e94 9bbc
00000330: 9bd1 49bd 85d7 82bb 09e7 7fbd 3224 04be
00000340: fa16 bebd 0a24 11be b3cb abbd 7cc7 b5bd
00000350: 42a6 c1bd a86c 06bd 0827 56bd 5ca0 183d
00000360: 65e2 f63b c7ca b63d 94e3 5a3d 909a bb3c
00000370: bf19 463d cb86 e43d 966f 7f3d 8ff1 5b3d
00000380: 5ffe 0b3e 6c68 6cbd 79fc 03bd 20f6 2fbd
00000390: ce65 c7bd 4abb d6bc 14ab 563d 50a1 b9bd
000003a0: 8fed 8ebc 5ac5 623d 7661 82bd 7242 453d
000003b0: 2bf1 663d e037 a0bd 9dab 4abd 045e 073d
000003c0: 1d7b 35bd d955 0c3d 4827 52bc 776e a23d
000003d0: 14e2 873c 0e5f 593c ae94 493d 2c22 423d
000003e0: 8703 933c 2bf9 863d 9f1c 5c3d d71b 643d
000003f0: 8bc8 85bd 1113 a93d 7da7 813c 90b3 d3bc
-0.023289887 -0.07458044 -0.042043563 -0.02476235 0.041976176 -0.04190547 0.017754149 -0.012862324
0.044384133 -0.043919038 -0.077620365 -0.032821853 -0.06163444 0.013449903 -0.07274273 -0.01615225
-0.04794628 0.017517066 -0.030540844 -0.07017972 0.026225688 -0.024955595 0.07927497 0.059533983
-0.104335606 -0.10695214 0.05504392 -0.028163759 0.044570535 -0.0340374 -0.028477427 -0.027849188
-0.020354474 -0.01790914 -0.00032473757 0.021796826 0.00037094016 0.007456906 0.021399563 -0.08511698
0.016572433 -0.0698989 -0.023132812 -0.0625463 -0.09692404 -0.0064365743 0.05430078 0.010859404
0.014159715 -0.042763248 0.0021874055 0.039639793 -0.05718908 -0.026808176 0.0093535455 -0.02385459
0.037985276 0.007897389 0.042951044 0.033640392 0.051913425 -0.024083793 -0.0058078943 0.00901971
0.024618188 -0.021520052 -0.066777095 -0.030716877 0.017098488 -0.02764551 -0.01806213 0.047939777
-0.029502386 -0.022652397 -0.14082195 -0.037158895 -0.109997906 -0.12296439 -0.005295107 -0.02712066
-0.06747765 0.0144655015 -0.050671183 -0.06586843 -0.030714784 -0.049125545 0.0009245417 0.05189353
0.0077632214 -0.006413275 0.061727997 0.10847569 0.015181013 0.036378786 0.03652651 0.012068287
-0.03382807 -0.025152557 -0.036120422 0.0009635649 0.0452832 -0.006579965 -0.06337469 0.016089968
-0.016298136 0.029291663 0.08214755 0.090270445 -0.038447376 0.032285713 0.03823282 0.013960614
3.478513e-05 0.04022702 0.046272684 -0.0017587185 -0.025498526 0.07041043 0.091048256 0.13633922
0.07342029 0.10413618 0.14350037 -0.018167354 0.07444944 0.09698583 0.07039475 0.06535436
0.041590523 0.07983432 0.059825186 0.07449019 0.04578201 -0.014992311 0.0044742255 -0.023167713
-0.048525468 -0.009899798 0.02040273 -0.016808104 0.01955934 0.026586868 -0.061653595 -0.047990713
0.07857269 0.048907343 0.1037778 -0.015801946 0.017205076 0.099188894 0.10687987 0.06371758
0.0642024 0.109856546 0.02950493 0.14493343 0.06708223 0.060163993 0.14034098 0.19581282
0.14843805 0.1338351 0.04582844 0.01787418 0.030406756 0.012693173 -0.030125998 0.03722789
0.050904036 0.018659128 -0.007125985 -0.004382571 0.06550011 0.012059868 -0.006986202 0.051336408
0.033917412 -0.012060717 0.07339093 -0.035837296 -0.014760482 0.03868637 -0.014378232 0.035335857
-0.019655189 -0.016992701 0.047598507 -0.008320041 0.042476945 -0.08427009 0.05475122 0.033869073
-0.057383187 -0.043868996 0.022044634 -0.06091649 0.05675243 0.043618318 -0.079614304 0.061410584
0.0108494265 -0.038540676 -0.028681139 -0.018991586 -0.04927216 -0.003992977 -0.06247619 -0.12904432
-0.09281726 -0.14173904 -0.08388462 -0.08875939 -0.09455539 -0.032818466 -0.052283317 0.037262306
0.0075343125 0.089253955 0.05343969 0.02290085 0.048364397 0.11158522 0.062362276 0.053697165
0.13671254 -0.057716772 -0.0322232 -0.042959332 -0.097362146 -0.026212353 0.052409247 -0.09063971
-0.017447261 0.05536399 -0.063662454 0.04815907 0.05638234 -0.07823157 -0.04948007 0.033048645
-0.044306863 0.03426156 -0.012826748 0.07931226 0.016587295 0.013267292 0.049214058 0.04739587
0.017946018 0.06590494 0.053738233 0.055690613 -0.06532391 0.0825559 0.015826935 -0.025842458

c2.bias f4 [64]
00000000: ab2f 0b3d 9e47 3dbd 6080 07bd 7a97 9d3c
00000010: 5e50 41bd b6ee 083d 14f9 333c 1452 313d
00000020: a837 343a d876 13bc 3453 633c 0398 69bd
00000030: 6e18 a0bc 1829 4b3b d6ff 153c 4b3b ab3c
00000040: 3f17 bd3c adcd 4c3d 70b4 d23c 21d9 39bd
00000050: d3de 1bbd cf04 f83c 8016 163d 2429 5bbd
00000060: 7e59 f9bb 30dc 32bd 6e23 54bc a56d 82bc
00000070: 51c7 d0bc 1f26 d7bb eec6 743b 2298 5d3d
00000080: 5cf7 56bd e98f a83c 5d37 62bd da8c 73bd
00000090: d37d c9bb dc25 f8bc 664c 9f3d 4375 8cbb
000000a0: f54d 51bd c3f4 00bd 6a85 3abd 1a79 803d
000000b0: 90d9 ec3b f1b2 903c 5a11 9fbc aa14 87bc
000000c0: 211d 273d 9911 5f3b ee05 083d 97c2 dc3c
000000d0: 3b6f d33b a0ff 103d e534 12bd 1f9a 0bbc
000000e0: 5a1c 85bc 5536 36bd d2e9 22bd f46f 1a3d
000000f0: 801b 263c c2e5 503d 8a8c 7bbd cc39 c63c
0.033981007 -0.046210878 -0.033081412 0.019237269 -0.047195785 0.033430777 0.010984678 0.043291166
0.00068747485 -0.0090005025 0.013874818 -0.057029735 -0.019542899 0.0030999836 0.009155234 0.020902297
0.023082374 0.050000835 0.025720805 -0.045373086 -0.0380543 0.03027573 0.03664255 -0.05350603
-0.0076095453 -0.04366702 -0.0129479 -0.015921423 -0.025485666 -0.0065658237 0.0037350017 0.054100163
-0.052481994 0.020576434 -0.05522858 -0.0594605 -0.0061490326 -0.03029149 0.07778244 -0.0042864396
-0.051099736 -0.031483423 -0.04553739 0.06273098 0.007228084 0.01766345 -0.019417454 -0.016489346
0.040799264 0.0034037589 0.03320878 0.026948256 0.0064524687 0.035400033 -0.035694975 -0.008520632
-0.01624887 -0.04448541 -0.03977377 0.037704423 0.010138392 0.051000364 -0.061413325 0.024197482

c3.weight f4 [256, 64, 3, 3]
00000000: 2282 9e3c a026 eaba 951a 063d 4e24 fbbc
00000010: 7219 bf3c 187d 2dbb fd1d f73b d21c c1bc
00000020: 59df 11bd e4b2 6c3d 44d0 fcbb e7e8 8f3d
00000030: 3070 1d3d 3dc1 1f3c 92ac 53bb c4f3 4b3c
00000040: ab7c 423d 1b4e c43c e705 923c 9949 2a3d
00000050: 09b4 a03c 59d1 79bc 4a6f 783c 09d0 1f3d
00000060: 13d6 363d 6ef4 2a3d bfa4 453d b35a b8bb
00000070: b97c 3b3c 52b3 14bd cfc3 15bd 0df2 ea3a
00000080: c84e 35bd 268a 38bd a358 1bbd d74c a7bc
00000090: a603 88bd df18 9cbd e4bd 62bd d633 b3bd
000000a0: a8c0 31bd 4b00 abbd 1998 fcbd 8028 c8bd
000000b0: 8837 d3bd 155e 753d d057 ba3c 0dc3 693d
000000c0: 7ef3 af3d 4526 6a3d f564 983d 6a0a 8a3d
000000d0: f751 3c3c 4e6f 9437 a2fb 463d b351 a43c
000000e0: 9452 a03d 4926 a03d 6d5b 143d 17f6 ba3d
000000f0: 4866 823c 31d7 663d c4fb 293d e20f b03d
00000100: 62d6 af3d c93a a23d 0d5d 833d c9b4 c33d
00000110: 9297 bf3b 7514 e43d ee1c b33d 0097 f83c
00000120: 8b36 f9bc 1c6f 883c 4c62 0d3d 7e35 083d
00000130: d32f dfbc 8cda d03c 9207 0c3c 6dd6 58bc
00000140: c2ab d6bb a45b 123d a7f2 7e3d 028b 053d
00000150: f05f bd3c 451a b63c a8fd c93c f067 303d
00000160: 2be8 463c 24aa f73c e3e2 1abc 527b 103d
00000170: 46a5 37bc 8a16 e7bc 7e57 613c cca2 99bc
00000180: 452b 32bc b054 4f3a 0f88 32bd af27 353d
00000190: 1e29 593d 466a 7d3d 0edf 1a3d 9edd 033d
000001a0: 4e74 603d 91ba eb3c ba32 a03d 61b8 503d
000001b0: b776 983d 4ee4 b23d afb6 c63d 00f8 a33d
000001c0: de6b dd3c 84ff 793d c694 a53d 8578 a13d
000001d0: 16b2 133d 2a72 1e3c abf8 143d 6ff7 16bc
000001e0: 6ff9 803d f072 863d c574 0fbc 63e8 3c3d
000001f0: 8b50 46bc b02f 84bc 5229 0abd 8edd b6bc
00000200: 6a22 653b daf7 c53c 4352 4bbd 2111 f7bb
00000210: 35af 40bd 29ea 313c c5e2 2fbd 1513 803c
00000220: 56cd 8c3d 8217 4d3d b453 2b3d 503d b43c
00000230: b4e2 373c abac 193d 9cdf 883d 07fc b53c
00000240: 3be0 773d 2261 4c3d e0a1 e13d 0c46 9a3d
00000250: 8851 5a3d aea1 a53d 6584 2a3d 5db6 933d
00000260: 1c70 ee3c 0039 803d 933b c4bb 6dea e3bb
00000270: 5f2e 1d3d a008 84bb 3d73 a53c bcbd e5bc
00000280: 5bae 01bd 6ae0 143d c8d9 263d b72c 1a3c
00000290: 1745 74bc a918 ccbc 2ced 0abd 6509 8bbd
000002a0: 3310 163c 7b29 11bd ddce 6c3c 4f6e 693d
000002b0: 2101 4d3d 8e05 893c cad6 413d aea2 753d
000002c0: 2b86 45bb d389 823d 00ee 653d 3e5c 873c
000002d0: a98b cf3d 87ff a43d 09a4 b93d 1d5c f63c
000002e0: 7f56 c13d 1a4a 133d 49f1 a03d dcb1 7e3d
000002f0: e727 ae3d b4f3 5a3d f724 463a ae29 a13d
00000300: 6763 6d3c 7c6b 213d 1204 963d 9e15 ed3b
00000310: bceb cd3b 2a43 70bb 1c40 153d 1845 0abc
00000320: e993 6c3c ce29 123d 19c1 b5bc 3c01 dc3c
00000330: 3c67 0f3d 20a0 8f3c bee2 a8bc fcb9 4c3c
00000340: 66ee ab3d 1fa7 2a3d 4346 9b3d 941e 913c
00000350: cad2 b23c 3460 2cbb 6d2c 183d 3de9 e23c
00000360: 42dc 98bc b195 203b 43b7 ab3c e869 47bc
00000370: d770 0a3c f7aa bbbc 4dc4 d1bc 51fb e2bc
00000380: d58c bf3c faa1 3d3d 57a4 263d f0e8 b13d
00000390: 07a6 b33d 2ef5 a63c 0870 4e3d 1a54 993d
000003a0: 8d30 283d 0c30 4a3d edad 393d 4c1e c4bb
000003b0: 10f8 983c fc10 c0bc cd73 9d3c b5e9 d03c
000003c0: a7e0 2c3d 230b 653c ce5a 5f3d 8b6e d23c
000003d0: fc0b b23c 33a3 513d cd82 513d 3d06 8e3d
000003e0: 5250 cb3c 5796 573d 2be7 5b3d 9c22 963c
000003f0: e8b7 993d 61a0 693d 08a6 9a3d 5477 943d
0.019349162 -0.0017864294 0.032740194 -0.03065696 0.023327563 -0.0026472267 0.0075414167 -0.023573313
-0.03561339 0.05778779 -0.007715257 0.070268445 0.03843707 0.009750661 -0.0032298905 0.012448255
0.047482174 0.023963025 0.01782508 0.041574094 0.019617097 -0.015247666 0.015163252 0.039016757
0.04463775 0.041737013 0.048252817 -0.0056260466 0.01144331 -0.036303826 -0.03656369 0.001792492
-0.044264585 -0.045053624 -0.037926327 -0.020422382 -0.06641321 -0.07621931 -0.055356875 -0.08750121
-0.043396622 -0.08349665 -0.12333698 -0.0977335 -0.10313326 0.059904177 0.02274695 0.05707078
0.08591364 0.057165403 0.07441131 0.067402676 0.011494151 1.7694805e-05 0.04857982 0.020058488
0.078282505 0.07819802 0.036220003 0.09128969 0.015917912 0.056357566 0.041499868 0.085967794
0.08585812 0.07921369 0.064142324 0.095559664 0.005846926 0.11136714 0.08745752 0.03034544
-0.030421516 0.016654544 0.03451757 0.03325414 -0.027244484 0.025494836 0.008546727 -0.013234717
-0.006551237 0.035731927 0.06224313 0.03260327 0.023117036 0.022229323 0.024657086 0.043067873
0.012140314 0.030232497 -0.009453508 0.035273857 -0.011208838 -0.02820899 0.01375377 -0.018754385
-0.010874574 0.0007909043 -0.043586787 0.0442273 0.053017728 0.06186893 0.037810378 0.032193772
0.054798417 0.028775485 0.07822175 0.050957087 0.07444518 0.08734952 0.09702813 0.080062866
0.027028974 0.061034694 0.08085017 0.078843154 0.036058508 0.0096707735 0.03636996 -0.009214266
0.06297576 0.06564891 -0.008755867 0.04612006 -0.012104164 -0.01613602 -0.033730812 -0.022322442
0.003496314 0.024166036 -0.049638998 -0.0075398837 -0.04704209 0.010859051 -0.042940874 0.015634099
0.06875102 0.050071247 0.041827872 0.022001892 0.011223484 0.037518185 0.06683275 0.022214903
0.060516577 0.04989732 0.11017203 0.07532892 0.05330041 0.080874786 0.041630168 0.072125174
0.029106192 0.06260872 -0.005988547 -0.006955436 0.0383743 -0.0040293485 0.020196551 -0.028044574
-0.03166042 0.03634683 0.040735036 0.009410075 -0.01490905 -0.024914103 -0.03391759 -0.06788901
0.009159136 -0.03543995 0.014453617 0.056989964 0.050049905 0.016726281 0.04732398 0.059969597
-0.0030139785 0.06373944 0.056135178 0.016523477 0.1013406 0.080565505 0.0906449 0.03007322
0.09440326 0.03595934 0.078585215 0.06218134 0.085037045 0.05345507 0.0007558609 0.07869278
0.014489031 0.039409146 0.07324995 0.007235243 0.0062842052 -0.0036661127 0.036438093 -0.008439325
0.014439561 0.0356844 -0.022186803 0.026856057 0.03501056 0.017532408 -0.020615932 0.012495514
0.0839508 0.041663285 0.07581761 0.017714776 0.021829028 -0.0026302459 0.037151743 0.027699107
-0.018659715 0.0024503286 0.02096141 -0.012171246 0.008449755 -0.02290867 -0.025606299 -0.027707728
0.023382584 0.04629705 0.04068407 0.086870074 0.087719016 0.020380583 0.05039981 0.07486744
0.041061927 0.049362227 0.045331884 -0.005985057 0.018672973 -0.023445599 0.019220257 0.025502065
0.042206433 0.013979706 0.054529957 0.025687477 0.02173423 0.05118103 0.051150132 0.069347836
0.024818573 0.05263361 0.053687256 0.01832705 0.075057805 0.057037715 0.07551199 0.072493225

c3.bias f4 [256]
00000000: 2b62 02bc 767f b43c 8fa8 29bd 3059 a5bb
00000010: 7418 c4bc b1f9 013d c4d2 bdbc 05da 023d
00000020: 19bb 9c3c 2892 023d a3c3 923a 3aa3 4abc
00000030: 1ad9 7ebc e5de 393d 8cfb b7bb f3b8 0f3d
00000040: 0bce 22bd a943 f6bc dd75 293c e4a1 8d3d
00000050: 802b 9e3c 6419 38bc dff1 e4bc 3c5b fcbc
00000060: c919 36bc c364 873d 20c6 89bc 6da2 143d
00000070: 16d9 763d 8a74 e1bc ffe2 43bc b56d b93c
00000080: 612b e93c a5db a23c 8853 e63c b455 9f3c
00000090: bb05 e6bc 6e37 083d fedc 283d f851 283d
000000a0: df0c 0dbd 4f04 233d 1e6e 583d 7e49 cbbc
000000b0: 69be 3e3d dc40 433a 15bc 17bc fe66 a93c
000000c0: c7ad c93c 8a74 aebc c053 b2bc 0c68 173d
000000d0: 2f3d 363c b648 353b 02ad 13bd b444 c23c
000000e0: fd3f b4bc fc27 93bc 6ae9 acbc 0a97 71bc
000000f0: c5fb 18bd 862a c23c 0674 fe3b c693 383d
00000100: 36c2 d13c c94a 22bc d7c4 42bb 7b3f c4bb
00000110: b0fe 62bc abb7 763c 9f3a 453c 9fca 163d
00000120: 5753 cdbc af2e 1d3d af65 51ba 3969 a83b
00000130: 4d4c b53c e618 593c 6c5f 14bd a4fa a73c
00000140: eeca 12bd 6d9c 823d c273 0fbd 724c 58bd
00000150: 76af 133b 4fbf a6bc d98c 1a3d aed0 0bbd
00000160: 1464 5a3d 14ed 40bd f67f c53b b132 703d
00000170: 8964 583d f188 863d 4fd2 11bd cd2a 103d
00000180: 66d1 68bd b4a8 bfbc 1033 f0bc 8205 72bd
00000190: 2d21 97bc c505 32bc af73 423d 54ae ab3c
000001a0: c89a 04bd 091e 823d b6ab 29bd acc2 12bd
000001b0: 9734 fbbc b923 3cbd 81c6 4e39 bfd3 d13c
000001c0: fe4c 563c 93fd 7f3d 96ec 94bc 9f4c 21bc
000001d0: a826 663a f5d6 86bc d265 08bd 7744 263c
000001e0: 7742 d63c f5fd db3c 9260 8dbc f791 69bc
000001f0: 7ce1 533d 6d76 e1bb 7f3b bbbc b00f cfbc
00000200: e742 34bc ac0a 533d 243f 35bc c6ee 2abc
00000210: 9190 2bbd a43b d9bc a2cf e4bc cb74 02bc
00000220: 01cb 8dbc be92 43bd b0a3 2abc 6f9d b2bc
00000230: f864 eb3c 02d3 273d 6d2c 0f3d 24f0 b23b
00000240: 6311 c7bc 6421 0cbd b90c f7bb 2a65 97bc
00000250: fd9c 79bc 7c17 0c3d f7e0 4abd d05f 8d3d
00000260: 5dec b8bc 0b08 943c 5490 343d 21ec 9e3c
00000270: a9b6 f7bb 88ef 17bc 9f33 393d 41a6 0fbc
00000280: 66d2 d93b fe69 b3bc b53c 933d f709 963c
00000290: 9921 16bd 38dc 8abc adbc 4b3c 68bb 01bd
000002a0: 4ccf 523d 9c17 293d 51fb 1bbc e629 6c3d
000002b0: 1514 1aba c88b bfbc 7303 2d3c 5df5 83bb
000002c0: 0c96 7bbc 5f1c 8d3d a641 223d 3679 1bbd
000002d0: 0bf3 dabc 8f71 d03c 1e1c 693c ebb3 aa3c
000002e0: 8dda 403d 64ae 723b 0ce4 213d 76dd 803c
000002f0: 7f75 213b 4671 073c cbab ff3c 8945 0dbd
00000300: 607c ca3b 9ff4 25bd b1be b23c 2116 42bd
00000310: 5a25 26bc ea1b fb3c cf8e 7a3c f68a 34bc
00000320: a427 69bd a936 e437 4a43 afbc 9040 fd3c
00000330: ea50 58bd dd68 cebc 19f9 1d3c 12b3 1b3c
00000340: 0302 db3c 5ca4 483d 4838 ad3a 8a4c e7bc
00000350: 3e64 063d 15c8 98bc 4f5b b53b d746 213d
00000360: a295 883c 2e27 2b3d acf1 5c3d 46a9 7d3d
00000370: e8f2 8f3d a326 06bd f2fd d53c 6150 063d
00000380: 6bca 00bd baf5 1a3d 8fe9 25bd e02e 2b3d
00000390: cbf9 b9bc 430d 95bc 842f 333d 1e7b 013d
000003a0: 40c1 edbc 93d1 833d d44f e13c 6221 dc3b
000003b0: d13e 393d abb2 1a3d 8b71 6cbc 4abb a73b
000003c0: 5b5d 6c3d 3736 593d 6bb8 10bd 4619 f93c
000003d0: 0491 723d 1aea be3c f220 e93a 5df0 16bd
000003e0: aca6 ac3c d9a2 7e3c 1df5 423b b8ee a1bb
000003f0: 4e39 1b3c 0f8c f6bc a842 be3c 1fd8 3e3d
-0.007957975 0.022033434 -0.041420516 -0.0050460324 -0.023937441 0.031732265 -0.02317179 0.0319462
0.019132184 0.031877667 0.001119722 -0.012368018 -0.015554691 0.045378584 -0.0056147035 0.03508849
-0.03974728 -0.03006156 0.010343042 0.06915644 0.019307852 -0.011236522 -0.027947364 -0.030805223
-0.011114546 0.06611016 -0.016818106 0.036287714 0.060265623 -0.02752139 -0.011955976 0.02263532
0.028463067 0.019880125 0.028116003 0.019450046 -0.028078904 0.033255987 0.04122638 0.041093796
-0.034436103 0.03979903 0.05283939 -0.024815317 0.046568308 0.00074483245 -0.009261151 0.020678993
0.024618996 -0.021295805 -0.02176845 0.03696446 0.011122986 0.0027661747 -0.036053665 0.0237144
-0.022003168 -0.017963402 -0.021107394 -0.014745483 -0.03734948 0.023701917 0.007765296 0.045062803
0.025605302 -0.0099055255 -0.0029719376 -0.005989013 -0.013854668 0.015058438 0.012037902 0.03681433
-0.025064154 0.0383746 -0.00079878693 0.0051394966 0.02213111 0.013250565 -0.036223814 0.020505257
-0.03583806 0.06377492 -0.035022505 -0.05280728 0.0022535003 -0.020354895 0.03773198 -0.03413456
0.0533181 -0.047101095 0.006027217 0.058642093 0.052830253 0.06569088 -0.035600957 0.035197068
-0.056840323 -0.023395874 -0.029321223 -0.059087284 -0.018448437 -0.010865633 0.047473606 0.02095715
-0.032374173 0.06353385 -0.041423522 -0.035830185 -0.030664725 -0.045932505 0.0001971964 0.025613664
0.01307988 0.062497687 -0.01817922 -0.009844928 0.0008779564 -0.016459921 -0.03330023 0.010148159
0.02615474 0.026854495 -0.017257962 -0.014255992 0.05172871 -0.0068805725 -0.022855518 -0.025276035
-0.011002279 0.05152385 -0.011062417 -0.010432905 -0.041885916 -0.026517697 -0.027931038 -0.007962416
-0.017308714 -0.047747366 -0.010415003 -0.021803586 0.02873467 0.040972717 0.034954477 0.005460756
-0.024300283 -0.03421153 -0.0075393585 -0.018480856 -0.015235183 0.034202084 -0.04953095 0.069030404
-0.022573644 0.018070241 0.044082955 0.019399704 -0.0075596166 -0.009273417 0.045215245 -0.008767665
0.006647396 -0.021901127 0.07189313 0.018315298 -0.036653135 -0.016950712 0.0124351205 -0.031672865
0.051467225 0.04128228 -0.009520368 0.057657145 -0.0005877626 -0.023382083 0.010559904 -0.0040270523
-0.015355598 0.06890177 0.03961339 -0.037957393 -0.02672722 0.025444774 0.014227895 0.020837745
0.047083426 0.0037030214 0.039524123 0.0157306 0.0024636684 0.008266753 0.031209847 -0.034490142
0.0061793774 -0.040516492 0.021819444 -0.047384385 -0.010140741 0.030652959 0.015292837 -0.011019459
-0.05692257 2.7205171e-05 -0.02139439 0.030914575 -0.05281154 -0.025196487 0.009641909 0.009503143
0.026734358 0.04898487 0.0013215626 -0.028234739 0.032810442 -0.018650094 0.0055345665 0.0393742
0.016672913 0.04178541 0.053941414 0.06192901 0.070287526 -0.03275169 0.026122067 0.0327915
-0.03144304 0.037832 -0.040505942 0.04179275 -0.022702118 -0.0181948 0.043746486 0.031611554
-0.029022813 0.064364575 0.027503885 0.0067178467 0.045225922 0.037768047 -0.014431368 0.005118762
0.05770622 0.05303022 -0.035332125 0.03040756 0.05922033 0.023304988 0.0017786308 -0.036850322
0.02107557 0.015541756 0.002974815 -0.0049417876 0.009474112 -0.030096082 0.023225144 0.046592828

fc1.weight f4 [64, 256]
00000000: ef20 913c 7898 203d 68cd 11bc b0aa 67bd
00000010: e284 5cbd 5c90 bb3c 0c5a 7ebd 5841 6abd
00000020: 8841 1bbd 1bc1 ac3b 40ae 5ebc 780d 82bc
00000030: a164 03bd 2220 b43c b8c4 15bd 23f0 fcbb
00000040: a32f 5b3d fea3 393c 7cd0 4b3d 2525 3a3d
00000050: 4594 80bd ecfa 90bc d563 6bbd c8cb 3d3d
00000060: 5d44 50bd 211a 943c 4c46 38bd 5868 cb3b
00000070: 0265 fe3c ed18 6cbd c6da 80bc 497c 4ebd
00000080: 4aab 5bbd c5e5 d7bc 8e6b 283c 1f34 153d
00000090: 6f75 44bd fdaf 1abd 4131 24bd c7d3 68bd
000000a0: 8523 503d 1c67 35bd b35c e13b a134 ab3b
000000b0: a56d 3bbd 467d 55bd 5d58 d63c fc94 c5bc
000000c0: c99f 7cbd a011 f73c a878 d13c c4dd 143d
000000d0: 5856 bfbc b5e3 42bd 36f8 9dbc d498 463d
000000e0: 35c4 083c 9fd5 80bd 6756 5fbd 602b 63bd
000000f0: 31da 5dbd 8a25 0d3b 7a7a 05bd ba32 c7bc
00000100: 34de 2cbd 0469 a93c b187 82bd 64a0 8fbc
00000110: 36b3 793c 1927 62bd 161d 70bd 471c f53c
00000120: aa12 c73b 0440 2f3c f32b 643d a689 d73c
00000130: d895 75bd e536 e3bc 0f14 013d 40a6 1d3d
00000140: 6d27 e8bc ba26 2bbc d019 cbbb 57fd ecbc
00000150: f9a0 e3bc 5af1 12bd bea9 93bb 1f4c 6aba
00000160: 1ff6 43bd 8edf 093d 34f5 67bd 0520 a33c
00000170: b330 653d 9507 64bc 3a58 7f3c 3f0f 1ebd
00000180: ad87 193d 73e6 18bc a591 393c 5789 6bba
00000190: 6156 00bd 6171 183d ee3f 47bd aca8 313d
000001a0: 4f07 eabc ca0a fc3b 3d57 9f3c 50ae cb3c
000001b0: fc52 19bd 6025 333c 051f f0bc 51c4 1f3d
000001c0: bfe9 33bd c26e b0bc 48aa 40bd e5c1 0cbc
000001d0: 5426 633d 2897 553d 8d31 3dbd 270e 8fbc
000001e0: edc0 4e3b a483 6cbd ee81 dd3c d375 48bd
000001f0: 1489 6bbc e6a3 5a3d ca68 76bc 63e8 54bd
00000200: 618b 06bc c86f 733d e783 133d 2ec5 353d
00000210: 2ed8 d8bc 94e2 85ba 2f75 2fbd 26e3 24bc
00000220: 68a8 bfbc d5a2 e33c e833 7ebd 766a b73c
00000230: d9b4 37bd 5960 0d3a d703 96bb a6b2 8e3c
00000240: f20d 7a3d 7d0b 90bc a635 1ebc 32e8 67bd
00000250: b78c 5ebd 5a59 32bd 1730 cfbc 621c 1a3c
00000260: c593 2dbc d203 4ebc ff62 96bc c334 393d
00000270: 95ef 92b8 2e74 96bb afa0 c0bc 4b88 6bbd
00000280: fbdf d4bc 9c2d f8bc 542e 7cbd c9dd 043c
00000290: ed31 133c bd31 03bd 6c96 93bc c08b 3abc
000002a0: 806d 313d cbfc 76bc 58f7 d53c 5393 08bc
000002b0: 986d 833c a3bf 623d 4d86 5dbd 8591 723d
000002c0: b0a0 83bd 14fa d33c f96d 9b3c 808f 50bd
000002d0: 944d 5c3d 9e37 7a3d 9830 9abc 9296 58bd
000002e0: 1310 6abd a3b4 623d c660 1a3d 763f eebb
000002f0: adcd 3e3d 6670 e23b 797c 563d d8de 35bd
00000300: 4863 783b 60f8 52ba f304 5e3d 4b6b 443d
00000310: c7a9 473d bc69 bf3c 29d1 903c 416e c3bc
00000320: ad51 3f3d 5069 44bd 88ef 7d3c afd7 d1bb
00000330: 5619 203d ade3 023d ef19 b73b 75f6 fabc
00000340: 3e8b 313d 2473 353d 9a18 d73b ec29 d7bc
00000350: e29e 02bc 7ed8 0a3d e259 0dbd 554f c0bc
00000360: a19f 643c fa67 5b3d ca9f 4dbb 4240 593d
00000370: 2db5 093d c8c8 7dbc 722c 953c 70af 233c
00000380: 44ef 373d 3bb7 6a3d a5b8 593d ee99 c4bc
00000390: 6809 a13c 5344 823c adf8 40bd 49e3 9a3c
000003a0: e5a4 27bc 5fa7 403d c519 bc3c 7d2e 4f3a
000003b0: e0f4 10ba e0ef 5abd d1d7 a8bb e66b 01bd
000003c0: 6a9a 7fbd c31a 39bc 386b 173a 1f86 283d
000003d0: 9a91 44bd 64a9 283d 5cbc 40bd 5892 a63c
000003e0: ca40 4abd e345 67bd abbf c5bc 8500 2cbd
000003f0: 4a57 b53c 2cc7 44bd 2a44 41bd 8072 bc3c
0.0177159 0.039207906 -0.00889907 -0.056559265 -0.053837664 0.022895984 -0.062097594 -0.057191223
-0.037904292 0.0052720434 -0.013591349 -0.015875563 -0.03207839 0.021987978 -0.03656456 -0.007719056
0.053512227 0.011330603 0.049759373 0.04544558 -0.0627828 -0.017697774 -0.057468254 0.04633692
-0.050846446 0.018078865 -0.044988915 0.006207507 0.031054024 -0.05764096 -0.01572932 -0.050411496
-0.05363015 -0.02635468 0.010279549 0.03642666 -0.047963556 -0.03776549 -0.040086035 -0.05684259
0.050815124 -0.044287786 0.0068775057 0.0052247797 -0.045758862 -0.052121423 0.026165182 -0.024118893
-0.06167582 0.030159771 0.025570229 0.036344305 -0.023356602 -0.04758044 -0.019283395 0.048485592
0.008347561 -0.06290745 -0.05452576 -0.055461287 -0.05416316 0.0021537268 -0.032587506 -0.02431618
-0.042204097 0.020679958 -0.06373537 -0.017532535 0.015240481 -0.055213068 -0.05862149 0.02992071
0.006075223 0.010696415 0.055705976 0.026310753 -0.059957355 -0.027736137 0.03151327 0.038488626
-0.028339112 -0.010446245 -0.0061981454 -0.028929396 -0.027786719 -0.035874702 -0.004506319 -0.00089377345
-0.04784214 0.033660464 -0.05663033 0.019912729 0.055954646 -0.013917823 0.015585 -0.03858876
0.037482906 -0.009332287 0.011326228 -0.0008985004 -0.031332377 0.0372175 -0.048644952 0.04337375
-0.028567938 0.007691716 0.019450778 0.024863392 -0.037432656 0.010934204 -0.029311666 0.03900558
-0.04392409 -0.021537188 -0.047037393 -0.00859115 0.055456474 0.052146107 -0.046189833 -0.017462803
0.0031548098 -0.05774273 0.027039494 -0.04894049 -0.014375944 0.053378962 -0.015039632 -0.051979434
-0.008211941 0.059432775 0.036014464 0.0443775 -0.02647027 -0.001021462 -0.042836364 -0.010063922
-0.023395732 0.027787605 -0.06206122 0.022389632 -0.044850204 0.000539308 -0.0045780945 0.01741917
0.061048456 -0.017583603 -0.0096563455 -0.056617923 -0.054333415 -0.043542244 -0.025291486 0.009406181
-0.010594313 -0.012574153 -0.018357752 0.045216333 -7.006448e-05 -0.0045914864 -0.02351412 -0.057503026
-0.025985708 -0.030295186 -0.06156762 0.008109518 0.008984071 -0.032029856 -0.018016063 -0.011385858
0.043317318 -0.015074919 0.02611892 -0.008335906 0.01604347 0.05535854 -0.054083157 0.05922081
-0.06427133 0.025876082 0.018973337 -0.050918102 0.05378492 0.061088197 -0.018822 -0.05287797
-0.057144236 0.05534805 0.037689947 -0.0072707487 0.046582866 0.0069103716 0.0523648 -0.044401973
0.0037900973 -0.0008047875 0.05420394 0.047953885 0.048745897 0.023365848 0.01767786 -0.023856284
0.04670875 -0.047951996 0.015499003 -0.0064038853 0.039086662 0.03195541 0.0055878083 -0.030635098
0.043345682 0.04429926 0.006564212 -0.026265107 -0.007972451 0.03389787 -0.034509547 -0.023475328
0.013954074 0.053565957 -0.003137576 0.053039797 0.03362005 -0.0154897645 0.01820967 0.009990558
0.044905916 0.05730365 0.053154606 -0.02399918 0.019657806 0.01590172 -0.047112156 0.018907206
-0.010232185 0.047034618 0.022961507 0.00079033506 -0.0005529653 -0.05345142 -0.0051526804 -0.03159704
-0.06240312 -0.011297884 0.000577617 0.041143533 -0.04799042 0.04117717 -0.047054633 0.020333454
-0.049378194 -0.056463134 -0.024139246 -0.041992683 0.02213635 -0.048041508 -0.047184147 0.023003817

fc1.bias f4 [64]
00000000: 761e 8d3b 2021 ce3c b560 923d 2178 b93c
00000010: 091d 37bd 58ce edbc d8cb 8cbc 44c7 52bd
00000020: 3c64 f7ba b5c1 033d 2077 60bb 0f87 103d
00000030: c017 62bc 5195 ce3b 4931 913c d758 6e3d
00000040: 72ce 68bd 6064 20bc 605b aabb 5cbf e43c
00000050: 1603 533d bc26 6bbd b509 133d a29c 64bd
00000060: dd9b afbc 4206 2a3d 9d6e 833d 1dee 533b
00000070: 6aa7 eebb 5f76 87bc b2b5 bebc 2a27 d43c
00000080: 789d 523d 6a12 e53c 55f2 0d3d 3a6a 39bd
00000090: 8768 453d 2786 1cbd bfdb 2cbd 4407 24bd
000000a0: 1328 813d 7722 54bd acec ebbc 4d80 8bbd
000000b0: 41a5 303d 005d ffb9 6d89 f23c 03da f3bc
000000c0: 0ea4 373d d22a 943d cb27 f03c 5a41 d23c
000000d0: 4064 fb3a 0077 133b 9528 0e3d 14ce 15bd
000000e0: d72a 9d3c 7808 143c f9ff e83b bb31 343d
000000f0: d25c 253c fff6 0d3d 4d75 283d aa71 d03c
0.0043066097 0.02516228 0.07147352 0.02264029 -0.044705424 -0.029029056 -0.017187044 -0.051459566
-0.0018874477 0.032167155 -0.0034250692 0.035285052 -0.013799608 0.006304421 0.017723696 0.058190193
-0.056837507 -0.009789556 -0.005198881 0.027923279 0.051516615 -0.057409987 0.03589793 -0.05581344
-0.021436626 0.041509874 0.06417582 0.0032337971 -0.007283141 -0.016535936 -0.023279998 0.025897581
0.051419705 0.027962882 0.034654934 -0.04526732 0.04819539 -0.038213875 -0.042201754 -0.04004599
0.06306472 -0.05179068 -0.028799377 -0.06811581 0.04312635 -0.0004870668 0.029606545 -0.029767042
0.04483419 0.0723473 0.02931585 0.025665928 0.0019179657 0.002250135 0.03470667 -0.036573485
0.019185467 0.009035222 0.0071105924 0.04399274 0.010092931 0.034659382 0.04112749 0.025444824

fc2.weight f4 [5, 64]
00000000: 58a8 e7bd a2be b03c ce9f 0a3d 1c57 963d
00000010: 5118 a33d a06e 763c 97c4 3fbd 45ba 863c
00000020: 1f67 113e 1cc3 f83d 7cfe 41bd 8a70 113e
00000030: 2607 a93c 9bac f43c 0975 e8bd 6600 bc3d
00000040: 34b6 abbc 26bf 153d 326a 92bd 0437 083e
00000050: a258 5a3d 1497 11bd 67be c3bd f8a6 263d
00000060: 5780 98bd 6440 a7bd 05c3 1cbd e409 16bd
00000070: eda0 9bbb 5388 453d 473d bd3d 149e f2b9
00000080: 897c d83d 939b 153e d100 ed3c 0892 133d
00000090: f5fe 2fbd 1629 853d 9974 ba3c d142 cb3c
000000a0: 5cd5 453d b9ec cebd 7855 6c3d 9b3f 023e
000000b0: 06b6 0e3c a060 74bd 9be9 933d 929d c13d
000000c0: 0dde e83d 1da1 513c a3ad 543d 3123 21bc
000000d0: 436e c43c fe84 8b3d 8ade 973d e0ae a9bc
000000e0: 82f9 a2bd 0622 60bc 8642 49bd 3b94 1cbd
000000f0: 3ed3 d6bd 2124 973d fa52 3f3c 3665 93bb
00000100: eacf 33bd 7261 1cbc e9ad b2bd 1ac0 59bd
00000110: ba61 d23d 1cff e5bd bc09 73bd df18 93bd
00000120: 4e63 353d eb5a 99bd c87d 8bbd ae82 103e
00000130: 1b83 bcbd 9c2e bd3c a5d4 71bc 430d 2ebd
00000140: e268 37bd 2035 2dbd 00bc f03a 1d22 383d
00000150: c447 973d 38b5 ac3d ee90 0f3d 321d d9bd
00000160: c963 06bd c25e 133d 222b a53d 1ee3 85bd
00000170: 1955 82bd b07f a23c 61cd 973d ee79 80bd
00000180: 79d7 633d 36c2 ca3d 13b9 88bc e8b2 4dbd
00000190: bc37 9f3c 343e 113d 9d63 01bd 84cc a1bd
000001a0: 7c66 103e 6048 7f3d b07e a93d c397 eabd
000001b0: 3e73 68bd 0024 8b3a bf43 a5bc 763d 003e
000001c0: 2efc debd 56a0 e83d 0c12 113e 1766 173e
000001d0: fe68 fabd 10dd 79bd 7163 0d3d 4424 dbbd
000001e0: b6fa fdbc 704b 87bc 0402 b33c 9cfa 3c3d
000001f0: e27a 18bd 7129 193d 9542 803d 63ad d7bd
00000200: 0f5a 5c3d d96a 4c3d da15 63bc e803 c63d
00000210: 64fb f23d 08ea 8e3c 7658 803d 3e3f cc3c
00000220: d2d4 ca3d 5e46 ec3d 2095 5d3d e897 15bc
00000230: 7904 923d 6851 283d 0c0d 363e b273 93bd
00000240: 46de 70bd 6f86 d9bd 923d f63d 703a f63d
00000250: c839 2c3d 32d2 9ebd 01b9 ee3c 00c9 93ba
00000260: fda9 75ba 822a a4bd b068 31be 3bff 33bd
00000270: a872 3fbd 6149 f6bd 4efc fabd 436e efbd
00000280: e417 0f3e 5692 c0bd 1ae5 e63d 606d 8a3c
00000290: c185 89bd e40f 58bd ecf8 c93d a21c af3d
000002a0: edce 023e 8173 403d 3064 0bbd 0447 12be
000002b0: f7ed e3bd a44f 253d 2e00 cbbd c7ed a13d
000002c0: 2b68 4a3d e7d8 60bc a3e4 043e bc2d a9bd
000002d0: e8a4 5f3d d8a3 b13c fbae dabd d69a 823d
000002e0: e749 e0bd 5f8b 0abd 4f3a 9d3c 9fba b0bd
000002f0: 28c1 c4bd 87d2 a5bd 8192 1b3d d3b0 54bd
00000300: 27d6 cb3d 8ce0 59bd 4ec6 263e 1947 e43d
00000310: 72e2 febd 200a 573d d85b f93b 4e98 a7bd
00000320: 2005 3a3e b39d 08be 04e6 8f3d f592 fcbc
00000330: 1790 953d d0d3 7e3d e99a ff3d 616d 04be
00000340: 00d8 68bd 204c bfbd 8092 feba 3668 38bd
00000350: 6eb3 1c3d 3a47 c6bd 9eb8 243d 322b fb3d
00000360: b143 febd ccdc e1bc 3722 21be 80f0 873d
00000370: bcfa 21be b7e9 0bbd fbd8 773d b59e 1abc
00000380: bab5 f4bb 6ae7 333d 5af1 ebbc b494 5abd
00000390: 2456 733d 0c32 f73d dcdc e6bd 80d1 2e3d
000003a0: ba67 2f3e 6b0a 423d 2aad aabd 7ca0 acbd
000003b0: e4a9 523c 70b5 34bd 598e bd3d e994 203d
000003c0: bf36 ca3d f90a dbbd 9023 183d f06e 893c
000003d0: 26c5 a23d 0040 383c e289 99ba 40ee b9bd
000003e0: 245e 11bd f8e2 983b 1f40 cd3d 19c9 bcbd
000003f0: f2f9 923d a8c1 c13d d4e4 e73d 48ea 13bd
-0.11311406 0.021575276 0.033843808 0.073408335 0.07963622 0.0150410235 -0.046818342 0.016446242
0.14199494 0.12146589 -0.047361836 0.14203086 0.020633291 0.029867461 -0.11350448 0.091797635
-0.020960905 0.036559246 -0.071491614 0.13302237 0.053307183 -0.03554447 -0.09557801 0.040686578
-0.07446354 -0.081665784 -0.038271923 -0.036630526 -0.0047494085 0.048225712 0.09240203 -0.00046275614
0.10570628 0.14610128 0.028931053 0.036027938 -0.042967755 0.06501977 0.022760676 0.024812134
0.04829918 -0.10103745 0.057698697 0.12719576 0.00871039 -0.05966246 0.07222291 0.09453882
0.11370478 0.01279476 0.051923405 -0.00983505 0.023978358 0.068124756 0.07415493 -0.02071327
-0.07957746 -0.013679987 -0.049135707 -0.0382273 -0.1048951 0.07379938 0.011677498 -0.0044981493
-0.043899454 -0.009544717 -0.08724577 -0.053161718 0.10272546 -0.11230299 -0.059335455 -0.07182478
0.044284157 -0.07488044 -0.068111 0.1411235 -0.09204694 0.023093514 -0.014760171 -0.042493116
-0.04477776 -0.042286992 0.0018366575 0.044954408 0.07386735 0.08433002 0.035050325 -0.10601272
-0.032810006 0.03597904 0.080648676 -0.0653746 -0.06363887 0.019836277 0.0741222 -0.06273256
0.055625413 0.09900324 -0.016689813 -0.050219446 0.019435756 0.035459712 -0.03158914 -0.079003364
0.14101595 0.06232488 0.08276117 -0.114547275 -0.05675053 0.0010615587 -0.020173905 0.12523445
-0.10887943 0.11358707 0.1416704 0.14785038 -0.12227057 -0.061001837 0.034518663 -0.107002765
-0.031003337 -0.016515464 0.021851547 0.046137437 -0.037226565 0.037393037 0.062626995 -0.10531118
0.053796824 0.049906585 -0.01386019 0.09668714 0.11864355 0.01744558 0.062668726 0.0249325
0.099038735 0.11536859 0.054097295 -0.009130456 0.07129759 0.04109326 0.17778414 -0.071998015
-0.058805726 -0.10621344 0.12023462 0.12022865 0.042047292 -0.07754935 0.029140951 -0.0011275113
-0.00093713385 -0.0801592 -0.17325091 -0.04394458 -0.046740204 -0.12025715 -0.122551546 -0.11690953
0.13973957 -0.09402911 0.112741664 0.016897857 -0.06714965 -0.05274953 0.09861931 0.08550383
0.12774248 0.046985153 -0.034031093 -0.14284903 -0.111293726 0.040359154 -0.09912144 0.079066806
0.04941575 -0.013723589 0.12977843 -0.08260676 0.054600626 0.021684572 -0.10677906 0.06377189
-0.10951596 -0.03382432 0.019192843 -0.08629345 -0.09607154 -0.080967955 0.037981514 -0.051926445
0.09952956 -0.05319266 0.16286585 0.11146373 -0.12445535 0.05249989 0.0076098256 -0.08183347
0.18166018 -0.13341407 0.07026294 -0.030831793 0.073028736 0.06221372 0.12480719 -0.1293235
-0.05684662 -0.093406916 -0.0019422323 -0.04502126 0.038257055 -0.09681554 0.040215127 0.12264098
-0.12415255 -0.027571104 -0.15735708 0.066376686 -0.15818304 -0.034158435 0.060509663 -0.009437253
-0.0074679526 0.043921866 -0.028801609 -0.05336447 0.059408322 0.120700926 -0.11272594 0.042680264
0.17129412 0.047373217 -0.0833381 -0.084290475 0.012857888 -0.044118345 0.09255666 0.03920451
0.09873723 -0.10695452 0.03714329 0.016776532 0.07947759 0.011245728 -0.0011714066 -0.09078646
-0.03549017 0.0046657287 0.10021996 -0.09218044 0.071765795 0.09460765 0.113229424 -0.0361121

fc2.bias f4 [5]
00000000: 6834 84bd ef2e b1bd 55cb 36bd 1b62 e33d
00000010: 0499 8cbd
-0.06455308 -0.0865153 -0.044627506 0.111026965 -0.06865123
