IQL_CNN_win/agent1_291.pth (torch, 745122 bytes, 10 tensors)

c1.weight f4 [32, 8, 3, 3]
-0.08392199 0.04478047 0.06753533 -0.09529037 0.005346265 0.01595813 -0.114987575 -0.06213515
-0.06544133 -0.068643615 0.04821771 0.087122895 -0.013525264 -0.0448908 -0.080259435 0.0009106214
-0.07619178 -0.13316439 -0.08942984 0.04398372 0.000633128 0.0779374 -0.015982784 0.08099187
0.10814161 0.06419996 0.037939705 -0.01739718 0.022682242 0.060301952 -0.029960103 -0.068941936
-0.059380863 0.05618105 -0.0896924 -0.057348445 0.19105785 -0.07301311 -0.052320994 0.015985806
-0.0527663 0.189729 0.040879104 -0.099257365 -0.049954973 0.016062662 -0.18626477 -0.119758226
0.049516715 -0.12508018 -0.045339424 0.08950334 0.078454316 0.040578406 -0.008055489 0.13263102
0.11500994 -0.08717889 0.11244953 0.14797351 0.025957014 -0.037063554 0.015271416 -0.08522263
-0.00087486446 -0.18938245 -0.06824927 -0.14285251 -0.095835365 -0.016346354 -0.13408265 -0.0015994632
-0.030682005 0.10927029 -0.050721854 -0.16842927 -0.04242512 -0.09351324 -0.092270136 0.05684234
0.07034462 0.006326993 0.024260271 0.12228519 -0.14636767 -0.029860599 0.0391286 0.0451825
0.09096808 0.040899508 -0.035350204 0.038513534 0.009262659 -0.0085239485 0.02477362 0.042779572
0.056780107 -0.038213663 0.09287248 0.044134177 0.030889042 0.07022486 0.086596094 0.061784483
-0.005957626 0.007949494 -0.053168856 0.07513743 -0.052695885 -0.065495245 0.1932093 -0.100941636
-0.12999652 0.17907216 -0.033176154 -0.017599761 0.21409553 0.036786806 -0.045773603 0.016045762
-0.09544063 0.03532358 0.124804735 -0.1286571 -0.12680967 0.045510612 -0.05209241 -0.09432844
0.099763975 -0.054758027 -0.010155498 0.102032065 -0.07760016 -0.019106045 -0.010117712 -0.11711029
-0.06416619 -0.15641934 -0.050657265 0.12032997 -0.042667117 0.08924942 0.06999605 -0.053221803
0.07521081 -0.0043220194 -0.058750797 0.016018106 0.06305239 -0.039374422 -0.08163768 -0.08199963
0.0841864 0.10346338 -0.0918593 0.017199578 -0.033639204 0.042824686 0.055415817 0.15239137
0.027125241 0.035671107 -0.042753085 0.08205994 -0.0034582317 -0.09363581 0.07851771 -0.016136259
-0.05688417 0.064176135 -0.02249983 -0.04835751 0.113424145 0.044830687 0.050451048 -0.113763966
-0.010966904 -0.010722354 -0.07739006 -0.0950463 -0.07484651 -0.035383504 -0.05308083 0.032355994
0.02494655 -0.122186966 0.018168863 -0.036017835 -0.030539127 0.014761129 0.0021094729 0.0018266386
0.030907476 -0.053615388 -0.018772686 -0.026363878 -0.11578601 -0.099245 -0.043745436 0.032613404
-0.11604991 -0.043319132 0.027056975 0.0066583655 -0.11038726 0.0016440315 0.13980052 0.009661778
-0.13318846 -0.048178703 -0.0071066613 -0.08137345 -0.0653363 -0.053931996 -0.06868748 -0.09942466
-0.03379218 0.05306072 0.08265954 -0.05542395 -0.08807271 -0.07388003 -0.099980906 0.07389438
0.08026951 -0.16580585 0.16083395 0.10719098 -0.13627508 0.13041495 -0.13698125 -0.067755334
0.04952027 -0.15472561 -0.085245 0.08301126 0.069470935 0.061719663 -0.06201885 -0.014115527
0.09950096 0.021591716 0.024030365 -0.01975201 0.013160087 0.023987897 -0.09271349 0.05658997
0.07275403 0.02888254 -0.090508796 -0.06908942 0.19010006 0.10511525 -0.05550107 0.09460326
00000000: 4bdf abbd ba6b 373d f74f 8a3d 9927 c3bd
00000010: b92f af3b a0ba 823c 9b7e ebbd 6d81 7ebd
00000020: 1b06 86bd 0695 8cbd ef7f 453d 7d6d b23d
00000030: 1299 5dbc 6adf 37bd 0f5f a4bd c5b6 6e3a
00000040: 700a 9cbd 3f5c 08be fe26 b7bd 4628 343d
00000050: 80f8 253a a59d 9f3d 54ee 82bc 11df a53d
00000060: 5979 dd3d 457b 833d aa66 1b3d 8884 8ebc
00000070: 1cd0 b93c 2eff 763d e46e f5bc 6e31 8dbd
00000080: 5939 73bd 1a1e 663d a6b0 b7bd 34e6 6abd
00000090: aba4 433e e687 95bd 8a4e 56bd aaf4 823c
000000a0: 7a21 58bd 5248 423e d970 273d 7247 cbbd
000000b0: 969d 4cbd d895 833c 31bc 3ebe cd43 f5bd
000000c0: 0ad2 4a3d 0515 00be d5b5 39bd 874d b73d
000000d0: a8ac a03d 8b35 263d 2bfb 03bc 6dd0 073e
000000e0: 558a eb3d d98a b2bd f04b e63d 5e86 173e
000000f0: cea3 d43c f4cf 17bd f634 7a3c 3489 aebd
00000100: 2957 65ba 79ed 41be 46c6 8bbd ee47 12be
00000110: 5545 c4bd cae8 85bc f64c 09be 14a5 d1ba
00000120: d458 fbbc 1ac9 df3d b8c1 4fbd b978 2cbe
00000130: f6c5 2dbd df83 bfbd 20f8 bcbd 83d3 683d
00000140: d710 903d aa52 cf3b 7abd c63c a870 fa3d
00000150: 68e1 15be 379e f4bc 5045 203d 4911 393d
00000160: 794d ba3d 3e86 273d 60cb 10bd 5ec0 1d3d
00000170: 68c2 173c 08a8 0bbc 0cf2 ca3c a239 2f3d
00000180: 4292 683d ee85 1cbd ed33 be3d 0ac6 343d
00000190: 040b fd3c 0dd2 8f3d 4b59 b13d ba11 7d3d
000001a0: 3038 c3bb 983e 023c 96c7 59bd a7e1 993d
000001b0: a4d7 57bd 5f22 86bd a9d8 453e 7dba cebd
000001c0: cf1d 05be b15e 373e b8e3 07bd 602d 90bc
000001d0: dc3b 5b3e c3ad 163d 1a7d 3bbd 6772 833c
000001e0: 6176 c3bd 75af 103d a099 ff3d b0be 03be
000001f0: 65da 01be 5669 3a3d da5e 55bd 452f c1bd
00000200: 0e51 cc3d f449 60bd 3f63 26bc 30f6 d03d
00000210: d5ec 9ebd 4884 9cbc c3c4 25bc 85d7 efbd
00000220: 9069 83bd 642c 20be fe7d 4fbd 8f6f f63d
00000230: b7c3 2ebd 66c8 b63d 175a 8f3d 1bff 59bd
00000240: 2008 9a3d ba9f 8dbb ada4 70bd 6738 833c
00000250: 9d21 813d 1347 21bd a831 a7bd 6cef a7bd
00000260: eb69 ac3d 9ce4 d33d bb20 bcbd 21e6 8c3c
00000270: 43c9 09bd f068 2f3d b2fb 623d 7c0c 1c3e
00000280: c135 de3c de1b 123d dc1d 2fbd 0b0f a83d
00000290: 80a3 62bb 22c4 bfbd e5cd a03d 3030 84bc
000002a0: 60ff 68bd c76e 833d 9051 b8bc 8612 46bd
000002b0: eb4a e83d 62a0 373d c2a5 4e3d 15fd e8bd
000002c0: 88ae 33bc d0ac 2fbc ae7e 9ebd a2a7 c2bd
000002d0: 2149 99bd 4bee 10bd 496b 59bd b887 043d
000002e0: b55c cc3c 293d fabd ded6 943c 7087 13bd
000002f0: 312d fabc aad8 713c 153f 0a3b d26b ef3a
00000300: ad31 fd3c cf9b 5bbd 2dc9 99bc 0ff9 d7bc
00000310: 3721 edbd f640 cbbd 6a2e 33bd a295 053d
00000320: 93ab edbd 676f 31bd 97a6 dd3c 6b2e da3b
00000330: b712 e2bd 8b7c d73a de27 0f3e 6f4c 1e3c
00000340: 8e62 08be 0857 45bd ffde e8bb 20a7 a6bd
00000350: 0acf 85bd cce7 5cbd 06ac 8cbd 289f cbbd
00000360: ab69 0abd 3356 593d 6849 a93d 3904 63bd
00000370: 775f b4bd 6a4e 97bd cac2 ccbd f055 973d
00000380: 5764 a43d 02c9 29be a8b1 243e f286 db3d
00000390: b28b 0bbe 7f8b 053e d044 0cbe 4fc3 8abd
000003a0: c4d5 4a3d 6470 1ebe ee94 aebd cf01 aa3d
000003b0: c746 8e3d c2cd 7c3d 7a07 7ebd d044 67bc
000003c0: 29c7 cb3d 1ce1 b03c 54db c43c f8ce a1bc
000003d0: 689d 573c 4482 c43c 92e0 bdbd e2ca 673d
000003e0: 1100 953d 149b ec3c ad5c b9bd c17e 8dbd
000003f0: 97a9 423e aa46 d73d 1755 63bd 5bbf c13d

c1.bias f4 [32]
-0.0024694374 0.050543852 0.071377374 -0.0161 -0.025998697 -0.0617816 0.08946325 0.021083063
0.09164289 -0.033461515 -0.019155301 0.04789436 0.017128445 -0.02148346 -0.013722476 -0.10863462
-0.10836215 -0.0781206 0.03142194 -0.10475237 -0.01200801 0.06698205 0.020862274 -0.13170895
0.10861057 0.017871385 0.08306895 0.012812931 -0.08298249 0.037914336 -0.06848984 -0.0097816
00000000: 49d6 21bb 1207 4f3d 4d2e 923d 26e4 83bc
00000010: 38fb d4bc b40e 7dbd 8238 b73d 63b6 ac3c
00000020: 44af bb3d f10e 09bd 94eb 9cbc e02c 443d
00000030: f450 8c3c 15fe afbc 3cd4 60bc d47b debd
00000040: faec ddbd b1fd 9fbd 4bb4 003d 6988 d6bd
00000050: 3fbd 44bc e32d 893d 5ce7 aa3c b6de 06be
00000060: 386f de3d 0367 923c 0e20 aa3d 54ed 513c
00000070: b9f2 a9bd 104c 1b3d 6744 8cbd 0143 20bc

c2.weight f4 [64, 32, 3, 3]
-0.07610209 -0.030370519 -0.0048344024 -0.018328333 -0.09480564 0.01744255 -0.06337074 0.06323732
-0.018359132 -0.09396434 -0.06753505 -0.13604404 -0.07944777 -0.026201393 -0.085779846 -0.004033705
0.00096183975 -0.059620894 -0.055105727 -0.016571136 -0.020590402 -0.04094022 -0.058284175 -0.034144033
0.013060703 0.032240637 -0.02467047 -0.0041799005 0.00028624252 0.05549201 -0.049144264 -0.044543818
0.04378529 0.0394651 0.025610747 0.016096026 0.00046666097 0.010657923 0.023468632 -0.0125891445
0.007460881 -0.028685628 -0.03638754 -0.005133312 -0.07214545 -0.052949097 -0.09477499 -0.08684854
-0.084995806 -0.099506706 -0.01053714 -0.0005685347 -0.05909805 -0.030392142 0.00038610742 -0.0070204334
-0.08538151 -0.033770926 0.04372486 -0.025019104 -0.019610608 -0.03747512 0.011986934 -0.080006756
-0.09792919 -0.096257806 0.0026059127 -0.09479014 -0.08503546 0.03367298 -0.04208606 0.022273274
-0.035758324 -0.057285257 0.00014088242 0.030186756 -0.033669636 -0.027886108 0.025873808 -0.005367871
-0.0007328468 0.08134856 0.032151047 -0.0017573935 -0.008134229 -0.007065341 0.030040383 0.09908322
0.0003855054 -0.01325938 0.034470733 0.025205588 0.06442279 0.031278852 0.016999291 0.04860084
0.044919763 0.063541 0.037674237 -0.03167306 0.009306046 -0.071494475 0.043547682 -0.04676572
-0.0040945844 -0.0479576 -0.06535733 -0.04731639 0.058072634 0.07798872 0.008438011 0.04592073
0.07268463 -0.05570927 -0.055016555 0.00618885 0.02952187 -0.0479378 1.33753165e-05 -0.05679332
-0.041269578 0.03986388 -0.06383898 -0.013950232 -0.06167509 -0.04163791 -0.03199121 -0.08389537
-0.0018758213 -0.10481414 -0.016359398 -0.09946951 -0.16553947 -0.17938222 -0.07129086 -0.05959407
0.016426729 0.12972847 0.016605731 0.050022475 0.104722716 -0.037560374 0.030406138 0.08931028
0.026763827 -0.014653366 -0.02874441 -0.030931039 -0.055806212 -0.07512716 -0.0119563015 0.063220836
0.008381348 -0.12817934 -0.10081234 -0.09417478 -0.05032008 -0.101238415 -0.11710599 -0.06473466
-4.328065e-05 -0.10976009 -0.0905436 -0.12158643 -0.08595032 -0.04141379 -0.10134576 -0.033359405
-0.068808384 -0.026043613 -0.034539383 0.15060487 0.18701632 0.1695879 0.08534453 0.116579205
0.15936935 0.061415445 0.07396007 0.13673356 -0.010233977 0.025540223 -0.034559518 0.0137011185
0.018463379 0.03693219 0.02186044 0.012200947 0.025295606 -0.06592461 -0.054762874 -0.055130675
-0.040919255 -0.060827427 -0.016317982 -0.04340462 0.07043631 -0.017295616 -0.042137682 -0.0519072
-0.0057554506 0.08251481 0.054507166 -0.012060113 0.024284456 0.028404042 0.07739358 0.095257424
0.1330735 0.07628349 0.12494455 0.10869573 0.095692426 0.035004634 0.073740445 0.074521236
-0.0022174192 0.03644261 -0.0010110625 -0.09446632 0.04712874 -0.061377663 0.013620452 0.03995472
0.0040914803 0.059901685 0.020002235 -0.06851581 0.050428607 0.05333332 -0.039035145 -0.055119313
-0.047197063 -0.043752365 -0.028617589 -0.044514697 -0.06491283 0.0618147 0.022214841 0.02073769
-0.07480347 -0.025877396 -0.03677232 -0.027421461 0.0001505836 -0.03534661 -0.069933735 0.012178958
-0.046522327 0.051146604 -0.01648835 0.017201759 0.07155367 0.070518576 0.015508792 0.105662294
00000000: 6adb 9bbd 98cb f8bc e869 9ebb 4d25 96bc
00000010: 7629 c2bd aee3 8e3c 85c8 81bd 9182 813d
00000020: e465 96bc 6070 c0bd d14f 8abd 214f 0bbe
00000030: 83b5 a2bd 4ea4 d6bc 58ad afbd 2c2d 84bb
00000040: f923 7c3a 0a35 74bd 8bb6 61bd 31c0 87bc
00000050: 34ad a8bc efb0 27bd 63bb 6ebd 9dda 0bbd
00000060: 8ffc 553c c20e 043d ba19 cabc 8cf7 88bb
00000070: d212 9639 974b 633d 7f4b 49bd 9473 36bd
00000080: 3458 333d 28a6 213d a1cd d13c d0db 833c
00000090: 2daa f439 929e 2e3c 4a41 c03c b342 4ebc
000000a0: 687a f43b 1ffe eabc 1a0b 15bd 5835 a8bb
000000b0: fec0 93bd 27e1 58bd 6419 c2bd a6dd b1bd
000000c0: 4812 aebd 2cca cbbd f8a3 2cbc b809 15ba
000000d0: cc10 72bd f1f8 f8bc 766e ca39 aa0b e6bb
000000e0: 80dc aebd 6253 0abd d718 333d ddf4 ccbc
000000f0: 6da6 a0bc 837f 19bd d864 443c 95da a3bd
00000100: 198f c8bd d022 c5bd f6c7 2a3b 5521 c2bd
00000110: 1227 aebd aeec 093d 6f62 2cbd 7176 b63c
00000120: 5277 12bd f2a3 6abd d6b9 1339 374a f73c
00000130: 2ce9 09bd 6871 e4bc 4ff5 d33c f7e4 afbb
00000140: 841c 40ba 139a a63d d1b0 033d 5758 e6ba
00000150: 6e45 05bc 6084 e7bb 4017 f63c 25ec ca3d
00000160: a91d ca39 df3d 59bc 2f31 0d3d f37b ce3c
00000170: 19f0 833d 411e 003d 1942 8b3c ad11 473d
00000180: c9fd 373d c921 823d 4d50 1a3d 9cbb 01bd
00000190: 6378 183c b26b 92bd 0e5f 323d 698d 3fbd
000001a0: dd2b 86bb 306f 44bd 10da 85bd d5ce 41bd
000001b0: 92dd 6d3d 8db8 9f3d 953f 0a3c 6017 3c3d
000001c0: aedb 943d 672f 64bd 0a59 61bd d6cb ca3b
000001d0: d9d7 f13c 6d5a 44bd 8c66 6037 1da0 68bd
000001e0: 4a0a 29bd 4f48 233d 03be 82bd 848f 64bc
000001f0: 059f 7cbd 838c 2abd 3709 03bd 56d1 abbd
00000200: 1ede f5ba cca8 d6bd 2504 86bc acb6 cbbd
00000210: 2e83 29be f9af 37be f100 92bd e918 74bd
00000220: 5991 863c 8ad7 043e be08 883c 5ee4 4c3d
00000230: dd78 d63d e8d8 19bd 4b16 f93c 4fe8 b63d
00000240: d03f db3c ac14 70bc 6679 ebbc 1763 fdbc
00000250: 0e95 64bd 45dc 99bd 5de4 43bc ed79 813d
00000260: ec51 093c 7241 03be b376 cebd b5de c0bd
00000270: 6e1c 4ebd 1656 cfbd 44d5 efbd 9b93 84bd
00000280: 3e88 35b8 e6c9 e0bd ec6e b9bd 4e02 f9bd
00000290: b906 b0bd 82a1 29bd 5e8e cfbd dfa3 08bd
000002a0: 69eb 8cbd 6a59 d5bc 2b79 0dbd 2a38 1a3e
000002b0: 3581 3f3e 73a8 2d3e 1dc9 ae3d 14c1 ee3d
000002c0: b831 233e c38e 7b3d 6178 973d e203 0c3e
000002d0: 69ac 27bc bb39 d13c 488e 0dbd a87a 603c
000002e0: 8340 973c 3546 173d aa14 b33c 7be6 473c
000002f0: bb38 cf3c 7b03 87bd 094f 60bd b4d0 61bd
00000300: f39a 27bd 2e26 79bd 4aad 85bc 0bc9 31bd
00000310: e940 903d 89af 8dbc 9098 2cbd a59c 54bd
00000320: 3898 bcbb 86fd a83d e842 5f3d c897 45bc
00000330: 32f0 c63c 98af e83c 8680 9e3d 5316 c33d
00000340: 6b44 083e 853a 9c3d eee2 ff3d de9b de3d
00000350: 64fa c33d 0561 0f3d 3b05 973d 979e 983d
00000360: 1f52 11bb d944 153d a185 84ba 8f77 c1bd
00000370: 110a 413d 2567 7bbd 5128 5f3c 8fa7 233d
00000380: d311 863b 785b 753d badb a33c 0452 8cbd
00000390: 3a8e 4e3d 0a74 5a3d 51e3 1fbd cac4 61bd
000003a0: b551 41bd ae35 33bd 6f6f eabc 0b55 36bd
000003b0: 05f1 84bd 6931 7d3d e6fb b53c 17e2 a93c
000003c0: 9032 99bd d5fc d3bc 929e 16bd f9a2 e0bc
000003d0: fae5 1d39 9bc7 10bd 6b39 8fbd 418a 473c
000003e0: 328e 3ebd 1a7f 513d 9412 87bc b4ea 8c3c
000003f0: bb8a 923d 0b6c 903d 9718 7e3c 7965 d83d

c2.bias f4 [64]
0.036890924 -0.015859175 0.066386476 -0.06303983 -0.048033334 -0.0045600655 -0.0182197 -0.03308917
0.040122237 -0.014518927 0.037488196 -0.052004855 0.025982773 0.03221429 -0.0076134424 -0.015867637
-0.04214659 -0.055937536 -0.055196956 0.032484088 0.05119187 0.034713987 0.041946493 0.017668204
-0.01581428 0.0495495 -0.04276405 0.0036110976 -0.03961953 0.016958343 0.01566933 0.018280748
-0.030891959 0.006105493 -0.026164275 0.057318512 -0.044491522 -0.026014728 -0.02702326 -0.017161101
0.022167293 -0.005856281 0.0049548917 0.022185449 -0.0238497 -0.03924855 -0.0058208266 0.027226593
0.017644512 0.046407048 0.031810928 0.035131495 -0.052081816 0.044051066 0.02514115 -0.06781868
0.0023640592 0.0030283984 -0.03583143 -0.012370119 -0.010667753 0.0065849796 0.038041897 0.019639613
00000000: f01a 173d 1aeb 81bc a2f5 873d 071b 81bd
00000010: 9abe 44bd 9a6c 95bb 7b41 95bc 8288 07bd
00000020: 3757 243d cbe0 6dbc 398d 193d 0b03 55bd
00000030: d3d9 d43c 22f3 033d 2f7a f9bb d9fc 81bc
00000040: e7a1 2cbd c21e 65bd 3416 62bd 090e 053d
00000050: 91ae 513d 4130 0e3d 16d0 2b3d e9bc 903c
00000060: f38c 81bc 6bf4 4a3d 5b29 2fbd 2aa8 6c3b
00000070: 1748 22bd 39ec 8a3c f75c 803c 82c1 953c
00000080: 2211 fdbc 9610 c83b 7656 d6bc d1c6 6a3d
00000090: be3c 36bd d71c d5bc e25f ddbc 7095 8cbc
000000a0: 2f98 b53c 0ce6 bfbb a55c a23b 42be b53c
000000b0: 7260 c3bc 16c3 20bd a2bc bebb 4e0a df3c
000000c0: 398b 903c 5115 3e3d 2d4c 023d 0be6 0f3d
000000d0: be53 55bd e46e 343d d0f4 cd3c 85e4 8abd
000000e0: 55ee 1a3b 1878 463b fac3 12bd 0aac 4abc
000000f0: cdc7 2ebc d0c6 d73b d2d1 1b3d 41e3 a03c

c3.weight f4 [256, 64, 3, 3]
0.0916679 0.08649695 0.08374767 0.025243327 0.059826784 0.038014602 0.03896564 0.0701465
0.051625215 0.091525525 0.044447105 0.0789107 0.057498936 0.07094085 0.064216 0.060342137
0.07093488 0.07317047 0.008503717 -0.0026354028 0.012268457 -0.049767476 -0.041084778 0.0034812537
-0.0063831415 -0.046834234 -0.0106696645 0.09285647 0.059223887 0.12966326 0.0864088 0.061404314
0.12588738 0.04881321 0.056705877 0.12564243 0.122178525 0.059656862 0.09591549 0.09919565
0.06799022 0.09946978 0.11671632 0.067068756 0.10559139 0.11483975 0.10814422 0.051439825
0.09223386 0.058283858 0.06024827 0.08709378 0.066733144 0.0853581 0.036890782 0.06549185
0.07246885 0.069070846 0.03959162 0.054178778 0.0625464 0.029048694 0.038381066 0.07849032
0.03050883 0.07735181 0.07032157 0.08881101 0.07683234 0.018797345 0.059994575 0.08827894
0.069367535 0.041031256 0.060674846 0.016795445 0.010472217 0.015252749 0.08312212 0.074266806
0.035546158 0.09871918 0.104275435 0.102517426 0.018932853 0.027309421 0.040763 0.072364405
0.084238976 0.06735917 0.0026680648 -0.011836352 0.042130444 0.008950533 0.03881636 0.023499912
0.045938104 0.0071191792 0.010955572 0.0639042 0.11384356 0.11936395 0.038835585 0.0996817
0.08522579 0.0517178 0.05498536 0.037319317 0.0324111 0.020933088 0.036816098 0.07307229
0.023392757 0.040801566 0.10884286 0.089237735 0.102448486 0.034096472 0.03856892 0.09653351
0.072343886 0.0651293 0.04414721 0.08162892 0.0036057825 0.085500896 0.080739126 0.094735935
0.10947519 0.07966454 0.06790167 0.04715984 0.04911923 0.051376663 0.08434407 0.039163515
-0.0034912005 0.04424693 0.07768401 0.06796539 0.0470497 0.06519203 0.06872483 0.06870044
0.051105976 0.046540365 0.067669325 0.08343019 0.06907084 0.10328092 0.037934292 0.03012043
0.08698943 0.044216756 0.076059975 0.068073094 0.040428497 0.019338436 0.032372113 0.060769305
0.07772133 0.044847712 0.07980779 0.12771635 0.13766542 0.070977174 0.070360824 0.07971998
0.061943818 0.091225 0.0920391 0.09550166 0.053035304 0.06740816 0.086632535 0.043559674
0.09806191 0.10254809 0.116022594 0.080168754 0.050490536 0.058809415 0.05600982 0.08330822
0.07550524 0.091682725 0.060827736 0.024641084 0.04154336 0.033596758 -0.02203889 0.005795147
0.014630248 -0.02076279 -0.029289737 -0.041596297 -0.013143062 -0.036261227 0.013288554 0.019026455
0.06511106 0.0011098713 0.044307142 0.025757128 0.05225283 0.05256837 -0.0026105626 0.0985902
0.099240735 0.06835538 0.08265803 0.031775914 0.088031836 0.07050541 0.09325178 0.075864375
0.03889074 0.10988893 0.113863185 0.08859505 0.049206488 0.056263477 0.053942893 0.10019054
0.09778555 0.11678372 0.1188259 0.08613022 0.08562219 0.06144181 0.114818126 0.07002368
0.11449498 0.05939828 -0.0056450153 -8.098612e-05 0.04039068 -0.017594142 0.021631405 0.051758844
-0.033583965 -0.021239426 -0.0367706 0.04362516 0.115635425 0.053774986 0.05281704 0.085828826
0.0151907075 0.07209226 0.045000087 0.026061105 0.035073765 0.068266355 0.08603441 0.08081248
00000000: 61bc bb3d 5025 b13d e683 ab3d 18cb ce3c
00000010: ee0c 753d 33b5 1b3d 6f9a 1f3d f8a8 8f3d
00000020: f674 533d bc71 bb3d 2b0e 363d ef9b a13d
00000030: 0184 6b3d 7049 913d ae83 833d 5129 773d
00000040: 4e46 913d 66da 953d 2d53 0b3c b9b6 2cbb
00000050: a301 493c fbd8 4bbd 8348 28bd bf25 643b
00000060: ac29 d1bb 41d5 3fbd d1cf 2ebc 882b be3d
00000070: bf94 723d 72c6 043e 19f7 b03d 1783 7b3d
00000080: 9fe8 003e 5cf0 473d 6c44 683d 69a8 003e
00000090: bc38 fa3d c15a 743d 576f c43d 1727 cb3d
000000a0: 753e 8b3d d0b6 cb3d f708 ef3d 585b 893d
000000b0: 4c40 d83d 1a31 eb3d b87a dd3d 91b2 523d
000000c0: 1be5 bc3d 0ebb 6e3d e4c6 763d 395e b23d
000000d0: 63ab 883d 3ad0 ae3d ca1a 173d 9720 863d
000000e0: 8c6a 943d 0475 8d3d d32a 223d 91ea 5d3d
000000f0: 5418 803d 87f7 ed3c 7735 1d3d 88bf a03d
00000100: a7ed f93c a06a 9e3d c104 903d 8ce2 b53d
00000110: 465a 9d3d e4fc 993c dfbc 753d 97cb b43d
00000120: 9110 8e3d 6410 283d 3086 783d 9a96 893c
00000130: a993 2b3c abe6 793c ee3b aa3d 3219 983d
00000140: d998 113d 482d ca3d 5c8e d53d a8f4 d13d
00000150: 1219 9b3c 02b8 df3c 1af7 263d ca33 943d
00000160: 7c85 ac3d 9bf3 893d b3da 2e3b 42ed 41bc
00000170: f990 2c3d 42a5 123c e7fd 1e3d e382 c03c
00000180: 9829 3c3d 0148 e93b 007f 333c 35e0 823d
00000190: d026 e93d 1675 f43d 1012 1f3d eb25 cc3d
000001a0: dc8a ae3d 0bd6 533d 5438 613d 24dc 183d
000001b0: 80c1 043d de7b ab3c 7acc 163d eda6 953d
000001c0: 2ba2 bf3c 8b1f 273d 01e9 de3d 46c2 b63d
000001d0: 83d0 d13d bea8 0b3d 72fa 1d3d 5cb3 c53d
000001e0: 0829 943d 8362 853d b4d3 343d 102d a73d
000001f0: fe4e 6c3b 181b af3d 8e5a a53d ea04 c23d
00000200: 8734 e03d 2a27 a33d 0810 8b3d ad2a 413d
00000210: 3f31 493d 5670 523d 95bc ac3d ec69 203d
00000220: a0cc 64bb 453c 353d cb18 9f3d 7031 8b3d
00000230: 30b7 403d 6683 853d 9bbf 8c3d d1b2 8c3d
00000240: 8054 513d 1ca1 3e3d 3796 8a3d 73dd aa3d
00000250: 0375 8d3d f284 d33d fd60 1b3d 1fbf f63c
00000260: 8427 b23d a11c 353d 55c5 9b3d e869 8b3d
00000270: 5a98 253d a46b 9e3c 9f98 043d 3ce9 783d
00000280: 5c2c 9f3d 3cb2 373d 4472 a33d 13c8 023e
00000290: 2af8 0c3e 7b5c 913d 5619 903d 3b44 a33d
000002a0: cdb8 7d3d 2cd4 ba3d ff7e bc3d 6096 c33d
000002b0: 8c3b 593d 4a0d 8a3d 666c b13d a16b 323d
000002c0: afd4 c83d bc04 d23d 419d ed3d 842f a43d
000002d0: 2acf 4e3d 24e2 703d 8e6a 653d 809d aa3d
000002e0: 7ea2 9a3d 27c4 bb3d 8126 793d 19dc c93c
000002f0: 5f29 2a3d c19c 093d e78a b4bc 37e5 bd3b
00000300: b5b3 6f3c ba16 aabc 08f1 efbc e160 2abd
00000310: ff55 57bc a786 14bd 3cb8 593c 5edd 9b3c
00000320: f358 853d 1a79 913a 687b 353d 9d00 d33c
00000330: 1007 563d ee51 573d f915 2bbb a9e9 c93d
00000340: ba3e cb3d e8fd 8b3d 9d48 a93d 7627 023d
00000350: 094a b43d 2465 903d cafa be3d c85e 9b3d
00000360: e64b 1f3d 730d e13d 1a31 e93d 5271 b53d
00000370: be8c 493d 8874 663d 39f3 5c3d b330 cd3d
00000380: ca43 c83d 4e2c ef3d fe5a f33d 0a65 b03d
00000390: b05a af3d 68aa 7b3d c425 eb3d 9368 8f3d
000003a0: 587c ea3d 9c4b 733d d2f9 b8bb 18d7 a9b8
000003b0: b370 253d 9721 90bc 5834 b13c 1501 543d
000003c0: 578f 09bd 4efe adbc c59c 16bd 4cb0 323d
000003d0: 44d2 ec3d 2943 5c3d ae56 583d 06c7 af3d
000003e0: 72e2 783c 1ba5 933d 0352 383d 197e d53c
000003f0: 82a9 0f3d 3bcf 8b3d cf32 b03d 0381 a53d

c3.bias f4 [256]
-0.036448497 0.032959428 -0.036535457 -0.034015443 -0.027079064 0.06351913 -0.033105865 0.031110754
-0.033534564 -0.040190216 -0.021533262 0.03571362 -0.00946051 -0.044137675 0.027251463 -0.019117279
0.034051787 0.0077641867 0.019606834 -0.03100718 0.023992406 -0.020610625 0.020108473 0.051081944
0.013987128 0.012974623 0.05362943 -0.027666235 -0.0008048656 -0.033152767 -0.025922555 0.03808363
-0.049801312 0.006483661 -0.023981228 -0.029213961 0.047022693 -0.0058769756 -0.019731352 0.05092501
0.008842364 0.06497914 0.04149964 -0.038837645 -0.00085579394 0.041316424 0.021296255 -0.008249226
-0.035322893 -0.011113958 -0.045625567 0.010963416 -0.0131653175 -0.029140145 0.04978157 -0.044211175
-0.021386145 -0.04844827 -0.012445954 0.05165571 -0.044505607 -0.019512184 -0.04001343 -0.02094543
0.046761576 0.042210132 -0.051202487 0.021312604 0.039117496 -0.04629513 0.04453549 0.06384553
-0.03467408 0.010331624 -0.009531576 -0.020811921 -0.025965458 0.0663931 0.04218551 0.011760314
-0.02417091 -0.013606529 0.017816909 0.054101698 -0.035350867 0.046125982 -0.027084416 0.025764847
-0.043028556 0.029997418 0.03099423 -0.03921483 0.03458487 0.013545171 0.077189095 -0.023466805
-0.010765033 -0.031336553 -0.04208473 -0.007698539 0.017281314 0.025150597 0.065769695 0.058685012
-0.03784828 0.023436245 0.038296018 -0.0031855856 0.0077539026 0.009928659 -0.04064543 0.032134324
0.040397108 0.021717919 0.048257083 0.0019332555 -0.046584617 0.021890325 -0.044755913 -0.020283084
-0.02934679 0.013246218 0.006267044 -0.044942934 0.036738344 0.032821186 0.04830707 -0.026506905
-0.026576072 -0.011627121 0.03614933 0.04106226 0.05185466 -0.04428192 0.041976124 -0.04033998
-0.023907261 0.039150555 -0.03888546 0.00939417 -0.04132245 0.02541246 -0.0044417577 0.05156919
0.0029845801 -0.049679667 0.013612555 0.008823579 0.032000884 -0.016829075 0.019167418 0.01795553
-0.04138751 0.044170566 -0.009340736 -0.020838473 -0.033647794 0.056167264 -0.038303655 -0.011472249
-0.022193903 -0.040659424 -0.025853666 -0.008437958 0.00042104043 -0.02826688 0.0010709573 -0.0023661873
-0.04235541 -0.044281885 -0.025652029 0.027306568 -0.04153229 0.0018686823 -0.022090476 -0.006755825
0.0046107094 0.022374537 -0.022999449 0.06569279 0.009720756 0.0027016294 0.077363454 -0.026021661
-0.042213637 0.083666965 -0.026469586 -0.023886207 0.06797168 -0.025599912 -0.03965593 -0.010411103
-0.045930278 -0.012754885 0.042800702 0.053988013 -0.008695617 0.05665322 -0.011184525 -0.028991055
0.00792484 0.09108101 -0.034293987 -0.005976263 0.0010063343 -0.016104946 0.06422567 0.0017191414
-0.028539708 -0.042055268 -0.0026822977 -0.031436782 0.0114409365 0.055250764 0.01853221 0.06546765
-0.03233141 0.0035571326 -0.051182117 0.04698914 -0.018160585 0.023088755 -0.03057393 -0.045123164
0.04521357 0.026329536 -0.0438616 -0.00027867084 -0.039323542 -0.030280784 0.039081104 0.016373117
-0.017326964 0.02195003 -0.01663208 0.037113413 -0.0143393595 0.060965072 -0.02818312 -0.04099667
-0.038464375 -0.0454837 0.04718728 0.0057046637 -0.039583236 0.034563642 -0.007134652 0.02587933
-0.024645863 0.012688874 -0.032010403 -0.03532855 0.0047557037 -0.0011306483 0.027701866 -0.027880711
00000000: 054b 15bd 7700 073d 34a6 15bd c753 0bbd
00000010: ead4 ddbc 5116 823d 049a 07bd fbdb fe3c
00000020: 8a5b 09bd 7f9e 24bd 8666 b0bc 7248 123d
00000030: 4100 1bbc b5c9 34bd 763e df3c d79b 9cbc
00000040: e379 0b3d b86a fe3b 839e a03c c502 febc
00000050: b98b c43c 9dd7 a8bc 86ba a43c 4d3b 513d
00000060: 442a 653c 8393 543c 88aa 5b3d 4da4 e2bc
00000070: 9efd 52ba 32cb 07bd 8a5b d4bc 95fd 1b3d
00000080: 76fc 4bbd e474 d43b 4874 c4bc 1e52 efbc
00000090: de9a 403d a593 c0bb a5a3 a1bc be96 503d
000000a0: 90df 103c c913 853d 87fb 293d 3914 1fbd
000000b0: 5c57 60ba 693b 293d 7c75 ae3c c327 07bc
000000c0: bdae 10bd 5217 36bc e0e1 3abd e69f 333c
000000d0: 58b3 57bc 50b7 eebc c2e7 4b3d c716 35bd
000000e0: ff31 afbc b171 46bd 1dea 4bbc f094 533d
000000f0: 834b 36bd 04d8 9fbc 1fe5 23bd c095 abbc
00000100: 1189 3f3d 88e4 2c3d b3b9 51bd c597 ae3c
00000110: ab39 203d f69f 3dbd d96a 363d 72c1 823d
00000120: 6806 0ebd f945 293c 542a 1cbc c37d aabc
00000130: 83b5 d4bc 1bf9 873d b7ca 2c3d 55ae 403c
00000140: 1202 c6bc ebed 5ebc c4f4 913c be99 5d3d
00000150: 12cc 10bd 99ee 3c3d 23e0 ddbc cd10 d33c
00000160: b63e 30bd 25bd f53c 9de7 fd3c bb9f 20bd
00000170: dda8 0d3d 91ec 5d3c 5115 9e3d 753d c0bc
00000180: d25f 30bc c25a 00bd 0a61 2cbd 0744 fcbb
00000190: 8b91 8d3c a008 ce3c 43b2 863d b25f 703d
000001a0: cc06 1bbd 5efd bf3c 49dc 1c3d 42c5 50bb
000001b0: 7314 fe3b d0ab 223c d37b 26bd 489f 033d
000001c0: 7077 253d c7e9 b13c 38a9 453d 4a65 fd3a
000001d0: 83cf 3ebd 5753 b33c fa51 37bd b628 a6bc
000001e0: ae68 f0bc aa06 593c c75b cd3b 1516 38bd
000001f0: f27a 163d 826f 063d a2dd 453d 0225 d9bc
00000200: 10b6 d9bc ae7f 3ebc 5211 143d e630 283d
00000210: 8d65 543d f560 35bd 28ef 2b3d 893b 25bd
00000220: 29d9 c3bc 555c 203d 5c46 1fbd 01ea 193c
00000230: bb41 29bd cb2d d03c 2a8c 91bb 373a 533d
00000240: f298 433b e87c 4bbd 3207 5f3c c690 103c
00000250: 5c13 033d 21dd 89bc fd04 9d3c 7a17 933c
00000260: f385 29bd 32ec 343d e309 19bc 72b5 aabc
00000270: 45d2 09bd a50f 663d 4be4 1cbd 1af6 3bbc
00000280: fdcf b5bc 7f8a 26bd 11cb d3bc 5c3f 0abc
00000290: 17bf dc39 f28f e7bc 5d5f 8c3a 0912 1bbb
000002a0: de7c 2dbd ec60 35bd 3424 d2bc 06b2 df3c
000002b0: c31d 2abd 93ee f43a 16f7 b4bc f85f ddbb
000002c0: 6f15 973b ce4a b73c 5769 bcbc f189 863d
000002d0: ce43 1f3c d20d 313b bb70 9e3d 612b d5bc
000002e0: 35e8 2cbd 9659 ab3d bfd6 d8bc 02ad c3bc
000002f0: bc34 8b3d e8b6 d1bc 426e 22bd 5593 2abc
00000300: 6321 3cbd ddf9 50bc ca4f 2f3d 8922 5d3d
00000310: 1078 0ebc 350d 683d 4c3f 37bc a67e edbc
00000320: 30d7 013c ae88 ba3d da77 0cbd 87d4 c3bb
00000330: fae6 833a 85ee 83bc c088 833d d054 e13a
00000340: 1bcc e9bc 2542 2cbd 7dc9 2fbb dbc3 00bd
00000350: c472 3b3c a04e 623d dcd0 973c e713 863d
00000360: f16d 04bd c81e 693b 57a4 51bd af77 403d
00000370: 82c5 94bc a124 bd3c 2e76 fabc 11d3 38bd
00000380: dd31 393d 0ab1 d73c 39a8 33bd 911a 92b9
00000390: b911 21bd 680f f8bc 8213 203d ea20 863c
000003a0: 47f1 8dbc 8dd0 b33c 0040 88bc 3c04 183d
000003b0: a2ef 6abc 83b6 793d 49e0 e6bc 20ec 27bd
000003c0: d28c 1dbd 1e4d 3abd 7347 413d 30ee ba3b
000003d0: 0822 22bd 9b92 0d3d cdc9 e9bb e300 d43c
000003e0: 1fe6 c9bc ffe4 4f3c 571d 03bd abb4 10bd
000003f0: bcd5 9b3b 4332 94ba 06ef e23c 1766 e4bc

fc1.weight f4 [64, 256]
-0.046620898 -0.042699277 -0.060511768 -0.0062393174 -0.05279401 -0.031355403 -0.012782104 -0.03828769
0.0017732754 0.048059687 0.024283245 0.00076566637 0.047024354 -0.05486603 -0.007380411 -0.03598564
-0.060496263 0.0324324 -0.055833332 0.046371646 0.0035517588 -0.047756016 0.032676004 -0.013922803
-0.049629368 -0.051919557 -0.052128606 0.011450112 0.038936213 -0.042507492 -0.037611037 -0.023590662
-0.018355384 0.011458069 -0.053403288 -0.0130079985 0.028804556 -0.048780642 0.005229421 0.030591808
0.004065186 0.049937353 0.038065188 -0.016349025 -0.053260766 -0.023025922 -0.041761197 -0.060241133
-0.03483875 0.059182726 0.027468942 -0.05466351 0.024471775 -0.003771074 -0.019388601 0.016054846
-0.051605403 0.03239154 0.03170106 -0.0051842183 -0.02894213 -0.06025219 0.03727427 0.054629497
-0.04405897 5.6564808e-05 0.0063914284 -0.009028256 0.0043171495 0.027914256 -0.0071610287 0.045910083
0.025565423 -0.047712468 -0.04438865 -0.0021912456 -0.011899129 0.021659471 0.023431264 0.0020994768
0.045586027 -0.04276246 0.03143298 0.03240148 0.007639952 0.006821841 0.032624543 0.051138125
0.034951784 -0.029972568 -0.051162064 0.005990885 0.04807488 0.016392179 0.054206036 -0.01061897
-0.058144465 -0.011819802 0.052934274 -0.025850251 -0.006220244 -0.039271556 -0.009622425 0.03675364
-0.055588685 -0.025343977 -0.02280499 0.055776455 0.05590281 -0.011466354 -0.06231025 -0.05367218
-0.05255586 -0.05081545 0.02781891 0.044717774 -0.04111682 0.05259528 0.011835791 -0.01708588
0.050626837 0.056535713 -0.03821046 -0.038019024 0.05798608 -0.038517885 -0.03913386 0.058387503
-0.04559669 -0.04530845 0.033190645 0.055844404 0.04469517 -0.04977958 -0.017010927 -0.016911231
-0.014697976 -0.0041948333 0.059105538 0.013800621 -0.02795498 0.034494594 0.010002963 -0.061822325
-0.009965338 -0.014407031 -0.015797436 0.032207213 0.033849888 -0.04679887 -0.013118014 0.044905625
-0.0149986595 -0.019303724 0.057542667 -0.042028718 0.05695624 -0.048612244 0.06066937 -0.05194322
-0.041847102 -0.0416535 -0.049931377 0.056387 -0.014782406 -0.0020998567 0.005529225 -0.011255905
-0.048973642 -0.053822726 0.025303483 0.003191024 0.014398716 0.024288557 0.031997427 -0.0072787255
-0.033008553 -0.02824749 0.05422218 0.041934684 -0.014251359 -0.04536642 -0.03857471 -0.00707227
0.05903486 0.015160531 -0.032741256 -0.037465625 -0.026572272 -0.03478753 -0.024853498 -0.0061444417
-0.015819155 -0.059351265 0.0051144883 -0.04640422 0.013651863 -0.021587841 -0.023805968 -0.02167464
-0.006229691 0.043158874 -0.037895493 -0.039453328 0.060555503 0.012224846 -0.047973365 0.027360283
0.053416543 0.035102367 -0.05752474 -0.03726522 -0.031162448 -0.023463197 -0.030718908 -0.029985875
-0.0088250935 -0.03280536 -0.052509636 0.017846487 -0.046235427 0.01139643 -0.05195626 0.056842208
-0.026108883 -0.025809407 0.036299154 0.0445197 0.032379158 0.03855802 0.056073457 -0.060860246
-0.04916182 0.061411045 0.047998786 -0.045250975 -0.048214376 -0.0073422417 -0.035477795 0.06228566
0.037715882 0.013176054 -0.058470435 0.061014675 0.02077268 -0.042788804 0.049320452 -0.010953896
-0.04487762 -0.009678021 -0.014094472 -0.023045622 0.019830912 -0.047773376 0.03445711 -0.04628896
00000000: 8ef5 3ebd 70e5 2ebd 30db 77bd 3073 ccbb
00000010: 883e 58bd 866e 00bd 086c 51bc 8ed3 1cbd
00000020: 406d e83a 3cda 443d a8ed c63c 00b7 483a
00000030: 9c9c 403d 34bb 60bd 60d7 f1bb ae65 13bd
00000040: eeca 77bd d6d7 043d 7eb1 64bd 32f0 3d3d
00000050: a0c4 683b d09b 43bd 46d7 053d 781c 64bc
00000060: 2a48 4bbd 9aa9 54bd ce84 55bd 4099 3b3c
00000070: 947b 1f3d 561c 2ebd 080e 1abd 3441 c1bc
00000080: 085e 96bc a0ba 3b3c 68bd 5abd 801f 55bc
00000090: 88f7 eb3c 36ce 47bd 905b ab3b ac9b fa3c
000000a0: 4035 853b 1c8b 4c3d 3eea 1b3d 64ee 85bc
000000b0: f627 5abd dca0 bcbc ca0d 2bbd 68bf 76bd
000000c0: 14b3 0ebd 9669 723d 8c06 e13c d8e6 5fbd
000000d0: 0879 c83c 2024 77bb d8d4 9ebc 7485 833c
000000e0: 3060 53bd feac 043d f8d8 013d 60e0 a9bb
000000f0: 0c18 edbc 00cb 76bd e8ac 183d 2ec3 5f3d
00000100: 2e77 34bd 0040 6d38 306f d13b 40eb 13bc
00000110: e076 8d3b 70ac e43c 10a7 eabb 360c 3c3d
00000120: 946e d13c 266e 43bd e0d0 35bd 009b 0fbb
00000130: 90f4 42bc 346f b13c ecf2 bf3c 6097 093b
00000140: 6ab8 3a3d b027 2fbd debf 003d 6ab7 043d
00000150: 9058 fa3b c089 df3b 50a1 053d 3676 513d
00000160: 9a29 0f3d 0889 f5bc 508f 51bd 304f c43b
00000170: 2aea 443d e448 863c 2607 5e3d 30fb 2dbc
00000180: e428 6ebd d8a7 41bc 9cd1 583d e8c3 d3bc
00000190: 30d3 cbbb 36db 20bd 60a7 1dbc fc8a 163d
000001a0: f6b0 63bd 2c9e cfbc 88d1 babc da75 643d
000001b0: 58fa 643d 60dd 3bbc 0839 7fbd 5cd7 5bbd
000001c0: d044 57bd dc23 50bd 7ce4 e33c fc29 373d
000001d0: 1c6a 28bd 266e 573d e8ea 413c b0f7 8bbc
000001e0: 165e 4f3d fe91 673d 9282 1cbd d6b9 1bbd
000001f0: d082 6d3d eec4 1dbd d44a 20bd bc27 6f3d
00000200: 98c3 3abd 5a95 39bd eaf2 073d 1abd 643d
00000210: 4812 373d ace5 4bbd 805a 8bbc 6c89 8abc
00000220: c8cf 70bc d074 89bb a618 723d 001c 623c
00000230: d801 e5bc 344a 0d3d 78e3 233c 6839 7dbd
00000240: a845 23bc 780b 6cbc a069 81bc b6eb 033d
00000250: 2ea6 0a3d 2cb0 3fbd f0ec 56bc f6ee 373d
00000260: f0bc 75bc d822 9ebc dcb1 6b3d 4e26 2cbd
00000270: f24a 693d a21d 47bd 7280 783d 6ac2 54bd
00000280: de67 2bbd dc9c 2abd d884 4cbd 0ef6 663d
00000290: e831 72bc c09d 09bb 802e b53b b06a 38bc
000002a0: 9698 48bd 3875 5cbd 4049 cf3c 8020 513b
000002b0: 98e8 6b3c ccf8 c63c bc0f 033d 6082 eebb
000002c0: fa33 07bd 4867 e7bc 1418 5e3d b4c3 2b3d
000002d0: 887e 69bc 24d2 39bd 8400 1ebd 80be e7bb
000002e0: 8ace 713d e063 783c b21b 06bd 8e75 19bd
000002f0: 18ae d9bc 5e7d 0ebd 9099 cbbc 5057 c9bb
00000300: 2c97 81bc 501a 73bd 7097 a73b 5a12 3ebd
00000310: 10ac 5f3c fcd8 b0bc bc04 c3bc 048f b1bc
00000320: 7022 ccbb 5cc7 303d 4e38 1bbd d099 21bd
00000330: 0c09 783d b84a 483c b87f 44bd ac22 e03c
00000340: 4ecb 5a3d 80c7 0f3d 109f 6bbd 6aa3 18bd
00000350: 6448 ffbc e435 c0bc 38a6 fbbc f0a4 f5bc
00000360: 2097 10bc ea5e 06bd 5814 57bd cc32 923c
00000370: 5c61 3dbd 18b8 3a3c 16d0 54bd 60d3 683d
00000380: 4ce2 d5bc 406e d3bc 6cae 143d 4a5a 363d
00000390: 02a0 043d 04ef 1d3d 48ad 653d 9848 79bd
000003a0: e85d 49bd 268a 7b3d 609a 443d 1659 39bd
000003b0: 707c 45bd 3097 f0bb 2a51 11bd 401f 7f3d
000003c0: f87b 1a3d 60e0 573c b27e 6fbd 86ea 793d
000003d0: 782b aa3c 5043 2fbd 3e04 4a3d f877 33bc
000003e0: 98d1 37bd 9090 1ebc 80ec 66bc 2cca bcbc
000003f0: 7074 a23c 04ae 43bd e622 0d3d 7e99 3dbd

fc1.bias f4 [64]
-0.059730507 0.037302483 0.036651965 0.025121307 -0.051095013 -0.016674995 0.050428834 -0.04785821
-0.01279676 0.0083004385 0.003951077 -0.06652726 0.0031192512 -0.031765904 -0.0557902 0.06508152
-0.04233654 -0.040752307 0.013112971 -0.0796258 0.0026162814 0.055952635 -0.027807217 0.06741001
0.053498626 -0.007874963 -0.04590958 -0.06279398 -0.023530252 -0.028942756 -0.04172668 0.091476195
0.022989858 -0.012738412 0.028511316 -0.03208085 0.06350514 -0.0101150535 0.06864593 -0.0004602931
-0.001495874 0.047581345 0.003011701 -0.04279989 0.060242426 0.03429844 -0.015996015 -0.033563484
0.016912378 0.0064661987 -0.022123877 -0.03691309 -0.041878715 -0.04489497 -0.053203665 -0.040444292
0.07008846 0.09077849 0.040764563 0.047385268 0.057981066 -0.006616786 -0.007313542 -0.04917016
00000000: faa7 74bd 7dca 183d 5f20 163d 33cb cd3c
00000010: 0149 51bd 009a 88bc 778e 4e3d f806 44bd
00000020: 80a9 51bc 90fe 073c 0978 813b 723f 88bd
00000030: 5a6c 4c3b f71c 02bd 4484 64bd 7649 853d
00000040: 1469 2dbd e4eb 26bd c9d7 563c da12 a3bd
00000050: eb75 2b3b 972e 653d f6cb e3bc 420e 8a3d
00000060: 6021 5b3d fd05 01bc af0b 3cbd 219a 80bd
00000070: 84c2 c0bc 5c19 edbc 98e9 2abd df57 bb3d
00000080: 3a55 bc3c c6b4 50bc 9090 e93c 3667 03bd
00000090: fc0e 823d 9cb9 25bc 3d96 8c3d 7e53 f1b9
000000a0: 3411 c4ba a8e4 423d f55f 453b f04e 2fbd
000000b0: c3c0 763d 857c 0c3d 130a 83bc dd79 09bd
000000c0: d48b 8a3c 68e2 d33b 223d b5bc 2e32 17bd
000000d0: 0489 2bbd cae3 37bd 16ec 59bd eaa8 25bd
000000e0: 8a8a 8f3d 13ea b93d bef8 263d 0e17 423d
000000f0: 8e7d 6d3d a0d1 d8bb 70a6 efbb a666 49bd

fc2.weight f4 [5, 64]
-0.102596 0.1235161 -0.035040397 -0.04565048 0.111019835 -0.052102447 0.008800136 0.03249313
0.10619624 -0.055687524 0.11947584 0.18653826 0.06919608 0.067221254 0.07597722 0.17374465
-0.06981145 0.022508934 -0.009221144 -0.0055118157 -0.104193255 -0.07048943 0.07366758 0.011190081
-0.075767435 -0.057231065 -0.0476723 0.050847888 -0.11002547 0.1654964 -0.050095554 -0.14459224
-0.025278214 0.0031076886 0.036117565 -0.01907444 -0.035522316 -0.027733173 -0.041079354 -0.11188188
0.121177256 0.025532944 -0.01845525 0.086434774 0.034578677 -0.037327524 0.063184336 -0.08969516
-0.08540183 -0.06674968 -0.033732772 -0.12286744 0.07818651 -0.07935226 0.0954472 0.0627521
-0.06172593 0.20712446 0.14576696 0.064024374 0.14075942 0.016814768 0.005080834 0.08481954
0.1162349 0.14199318 -0.122267775 0.07828657 0.080154635 0.041236565 -0.058527227 0.121654645
-0.11010311 0.050343547 0.037915863 0.15479827 -0.003577228 -0.06302073 0.0022714734 -0.0139288865
0.044781163 0.0434774 -0.02371735 0.0796196 -0.03991323 0.102208406 -0.037704132 0.016021919
0.10134041 -0.04459869 -0.015716843 0.06775391 -0.11286037 0.030530969 -0.01492284 0.039252747
0.03752463 0.12462432 0.108295105 -0.02694048 0.13068011 -0.018013492 -0.045803625 -0.047532756
0.07230846 0.20009734 0.0369732 -0.11149175 -0.016280165 0.077764876 0.19898368 0.021727102
-0.14503732 -0.08816818 0.062342763 0.009153779 -0.064005665 0.10483718 0.09465738 0.050722435
0.11977367 0.13483112 0.09496626 -0.10768263 0.08977955 0.11060117 0.026484638 0.050602615
-0.124707595 0.16505711 -0.08489389 -0.06821444 0.012198501 0.054761693 -0.0467523 -0.024215326
0.09475898 0.10460546 -0.03745371 0.0032994475 0.005882106 -0.076658025 0.00014747679 0.13559216
0.09566732 0.052127257 -0.04644247 0.044721443 -0.042432077 0.124661475 0.018765984 0.12700711
0.06886792 0.12877841 -0.08776981 -0.096774414 0.0046488647 -0.012640419 0.025366543 0.13481921
0.020827312 -0.01658431 0.046899427 0.07105445 -0.012596566 0.14443444 0.09964736 -0.007844658
-0.062256105 0.053232122 -0.011167022 0.06224709 0.1419043 -0.050136495 -0.1126261 -0.07386279
0.0369603 -0.09777588 0.047127023 0.009548275 0.09550816 0.009026945 -0.08822072 0.015328169
0.031043068 0.099630505 0.08820264 0.065956295 0.19302721 -0.024952725 0.050121754 -0.0025190413
0.045878753 -0.041459523 -0.096498154 0.114017844 0.1123083 -0.10143158 0.04563599 -0.07347947
-0.0085370075 -0.10786118 0.04261665 -0.044906296 -0.008877751 0.03380955 0.036654964 0.025000485
0.07139388 0.06835584 -0.07668516 0.12170181 -0.036350876 0.0075574396 0.13013898 0.14953096
-0.093499996 0.09289872 0.02091688 0.08729128 -0.068522006 -0.08416934 0.085140005 -0.1366285
-0.050866093 0.14339668 -0.060060766 -0.017799724 0.15995842 0.046853162 0.041512985 -0.01137978
0.12603784 0.048256177 0.07910641 0.062494088 -0.0516811 -0.11364232 -0.10896898 -0.046507493
0.04860753 0.030488253 -0.012934469 0.05275914 -0.04095897 0.08122918 -0.071548566 0.00690794
0.13826783 0.24683848 0.13870369 0.07723121 0.12557837 0.074090704 -0.0013319105 0.048515797
00000000: da1d d2bd 02f6 fc3d 8586 0fbd fffb 3abd
00000010: 5e5e e33d 6069 55bd 722e 103c 8417 053d
00000020: 6a7d d93d 9a18 64bd c0af f43d e303 3f3e
00000030: adb6 8d3d 4cab 893d f299 9b3d 1eea 313e
00000040: 4ef9 8ebd a864 b83c 4814 17bc 769c b4bb
00000050: 4663 d5bd c35c 90bd 07df 963d 9a56 373c
00000060: f52b 9bbd 1f6b 6abd 0844 43bd e045 503d
00000070: 0955 e1bd e377 293e ff30 4dbd fd0f 14be
00000080: 4214 cfbc 5daa 4b3b 03f0 133d 0042 9cbc
00000090: d97f 11bd ae30 e3bc d342 28bd 5422 e5bd
000000a0: c82b f83d 772a d13c 772f 97bc b704 b13d
000000b0: 5fa2 0d3d bfe4 18bd ca66 813d 19b2 b7bd
000000c0: 28e7 aebd 0eb4 88bd 602b 0abd eda1 fbbd
000000d0: 4020 a03d 7083 a2bd d279 c33d 2c84 803d
000000e0: 54d4 7cbd 6f18 543e ef43 153e 361f 833d
000000f0: 3d23 103e 20bf 893c 207d a63b deb5 ad3d
00000100: 900c ee3d a966 113e 8767 fabd b654 a03d
00000110: 1d28 a43d ace7 283d 3fba 6fbd 1226 f93d
00000120: bd7d e1bd 0935 4e3d aa4d 1b3d 7083 1e3e
00000130: ed6f 6abb 0311 81bd 00dd 143b fc35 64bc
00000140: 746c 373d 5c15 323d e34a c2bc 9a0f a33d
00000150: 0e7c 23bd a452 d13d a66f 1abd 6640 833c
00000160: 908b cf3d 1ead 36bd 9cc0 80bc 90c2 8a3d
00000170: 5623 e7bd 151c fa3c ed7e 74bc 7dc7 203d
00000180: 6db3 193d 093b ff3d d3c9 dd3d 48b2 dcbc
00000190: 02d1 053e 0891 93bc 959c 3bbd b5b1 42bd
000001a0: 7516 943d 51e6 4c3e 3671 173d c955 e4bd
000001b0: fb5d 85bc 3143 9f3d 61c2 4b3e 09fd b13c
000001c0: aa84 14be 8591 b4bd 205b 7f3d bbf9 153c
000001d0: 6715 83bd e0b4 d63d badb c13d 54c2 4f3d
000001e0: e64b f53d 2b11 0a3e ac7d c23d b688 dcbd
000001f0: 57de b73d de82 e23d 50f6 d83c b044 4f3d
00000200: b266 ffbd bb04 293e d9dc adbd 03b4 8bbd
00000210: 39dc 473c cc4d 603d 577f 3fbd 385f c6bc
00000220: ff10 c23d 633b d63d 1069 19bd 8b3b 583b
00000230: aebe c03b e2fe 9cbd 00a4 1a39 acd8 0a3e
00000240: 3aed c33d 6483 553d 763a 3ebd d52d 373d
00000250: 42cd 2dbd 844e ff3d 1fbb 993c 270e 023e
00000260: a00a 8d3d 7dde 033e a8c0 b3bd aa31 c6bd
00000270: 8155 983b c319 4fbc 7fcd cf3c 0c0e 0a3e
00000280: 0a9e aa3c d2db 87bc 9d19 403d ff84 913d
00000290: d461 4ebc 9fe6 133e ea13 cc3d e186 00bc
000002a0: 4200 7fbd ed09 5a3d e3f5 36bc cef6 7e3d
000002b0: 5c4f 113e ed5b 4dbd 83a8 e6bd 6045 97bd
000002c0: af63 173d b83e c8bd 4408 413d 5e70 1c3c
000002d0: c899 c33d c0e5 133c 11ad b4bd 0023 7b3c
000002e0: 084e fe3c 140b cc3d 96a3 b43d 1814 873d
000002f0: eda8 453e a869 ccbc 784c 4d3d 8016 25bb
00000300: 5ceb 3b3d 76d1 29bd d3a0 c5bd 3082 e93d
00000310: e501 e63d 5cbb cfbd ceec 3a3d 687c 96bd
00000320: cede 0bbc 53e6 dcbd cc8e 2e3d aaef 37bd
00000330: fd73 11bc e27b 0a3d 8423 163d d1cd cc3c
00000340: f436 923d 26fe 8b3d 1c0d 9dbd cc3e f93d
00000350: a8e4 14bd 66a4 f73b 2743 053e a51e 193e
00000360: ed7c bfbd af41 be3d e059 ab3c c5c5 b23d
00000370: 4455 8cbd fa60 acbd e25d ae3d 57e8 0bbe
00000380: f758 50bd 94d6 123e 4702 76bd bad0 91bc
00000390: 24cc 233e 1ae9 3f3d 8509 2a3d 4272 3abc
000003a0: 1010 013e 45a8 453d 8b02 a23d cdf9 7f3d
000003b0: 90af 53bd 4ebd e8bd 212b dfbd a47e 3ebd
000003c0: b018 473d 80c2 f93c 18eb 53bc f819 583d
000003d0: 98c4 27bd 7c5b a63d 0e88 92bd 005c e23b
000003e0: 1596 0d3e 3ac3 7c3e 5708 0e3e 662b 9e3d
000003f0: 9e97 003e debc 973d 8093 aeba 80b8 463d

fc2.bias f4 [5]
0.11301759 -0.08529514 -0.09219197 0.12666246 -0.034397252
00000000: c475 e73d 38af aebd 25cf bcbd ceb3 013e
00000010: 22e4 0cbd
