IQL_CNN_win/agent1_41.pth (torch, 745108 bytes, 10 tensors)

c1.weight f4 [32, 8, 3, 3]
00000000: 3f2f c0bd 6b1c 21be 2a90 6fbc 0363 b63d
00000010: c11c 78bc e37d 1d3d 74aa 323d 35b7 b53c
00000020: 53e4 80bd 2036 213e 34dc bd3d 44bc 1abe
00000030: a3cb 093e 2b4f 533d f29c 563c f81f d13b
00000040: ae58 3c3e 17f2 ab3b 6cca 89bd 62e9 2d3d
00000050: a8ba a1bd b863 59bc 304f 0ebd ba8a b8bd
00000060: dfe7 b43d 0efe 473d c1ed b63d 706d b0bd
00000070: 9807 6fbd 2a3f 54bd 5c88 d2bc 78f0 b4bc
00000080: 80d2 1cbd d805 88bd 3624 5fbd ce43 34bd
00000090: c821 2ebc 1901 c9bd 8f44 d33d c0d6 e03d
000000a0: 0a40 b2bd a335 ca3d 6f88 39bd e3e3 64bd
000000b0: 0460 d7bd 6e5e 7bbd 2544 873d e89f d3bd
000000c0: 0742 8a3c 11f1 ca3d 898b 00be df35 88bd
000000d0: 0966 1d3c adc4 873c aa49 eabc 1dc6 5c3d
000000e0: f390 b63c 6aa5 0a3e f7ad 37be 97f6 893d
000000f0: dead 93bd bb01 07be a044 84bd ed33 8b3e
00000100: 438d 66bd da60 debb d9a5 103e 98d5 d43d
00000110: 776a 9a3d 7cd3 cd3d 3cf0 983d 4435 d93d
00000120: 1394 6a3c 0453 b03c 9e29 3e3c b07e 9fbd
00000130: 65ea a5bd 7fe6 973d a110 a9bd 6627 be3d
00000140: 119b 8dbc b1d7 123e c800 073e 6240 343e
00000150: d02c 1c3e 824c ee3d 4b56 2fbe e640 213e
00000160: 55b3 89bd 7bfd 22be 5a79 e6bd 4ebf 783d
00000170: 0b4a b73d 663a 96bd 4cd1 1cbd a8ac 2abd
00000180: 4521 c53d 3c26 efbd 36da 593d fa3f 753d
00000190: 703f 3cbd 6e50 753d f456 80bc 343b c13c
000001a0: 4c7a ae3c ec40 b73c 1e1f 82bd 951d da3d
000001b0: e325 433d 56d7 17be 5459 cb3c 322f 903d
000001c0: 868f b53d ab01 a7bd 1f93 9bbd 1977 b3bd
000001d0: 8d1f c9bd 1d3f 67bd 2e60 af3b 9f7c 3bbd
000001e0: c0ce 3a3d 1321 5b3c 1360 ce3d bf27 55be
000001f0: 6c55 a3bd f10e d23d f22e a13d 4734 ffbd
00000200: dc04 22bd a054 71bc 3089 5cbd 2034 bdbd
00000210: e9fa 9dbd c431 dcbd 8077 18be c8c0 9a3c
00000220: bd26 0b3e ef48 3bbd 49e2 21bc a870 153d
00000230: 69cc 003c 6f1b 46bd 322a 9cbc ab97 0fbe
00000240: aa48 503d fbf2 dabc 91a1 cd3d 0c94 bcbc
00000250: e718 65bc 4036 d13d dfdd 67bc 97a0 d2bd
00000260: bd07 91bd 196e 443e 8357 1c3e e5c0 dabd
00000270: 7999 2abd 5fe4 d5bd e148 b9bd 15b1 8b3d
00000280: 2dbe d03b 373c 10bd 4b5c d4bd 105b ba3b
00000290: b2a3 89bd ff84 cb3d cd4a 903d 30ff 2fbc
000002a0: 0620 7abd af81 cd3d d8c9 97bc 5464 9a3c
000002b0: 20ba acbb 9539 de3d d2c9 103d e93f a83d
000002c0: 3cc0 31bd 3502 e43d 71f2 a13d 52f4 563d
000002d0: 4404 a839 df68 39be 342a a1bd aeb8 2d3d
000002e0: 1ae3 2bbe e12d de3d fcfb 0e3e 3533 28be
000002f0: 0797 ce3d b75b 20bd ebc5 1e3c 9bb8 b13d
00000300: 4b0c 3fbe 05ef 91bd 7a8d f8bd 922c ac3b
00000310: 05b8 fc3d 493e b43d 8297 af3d 2fb9 b3bd
00000320: 63d7 a5bc 1772 423d 6ff0 9b3a 2ffd 43be
00000330: 9edb ecbd 3e01 3ebd 5120 2fbe f298 28bd
00000340: 0d93 cd3c 6441 da3d 6ea7 7abd b4b3 183c
00000350: 18b6 3f3c 6b38 62bd 94f8 d4bc 03f3 e9bd
00000360: 89ad 333d 3ff3 bc3d c3e6 c0bd 5e8e bd3d
00000370: 9ef4 05be d5f7 c0bc ea56 153d c75d 75bd
00000380: 7817 323d 611d 1bbe e063 9d3d 8c5f 2a3e
00000390: d536 023e 807c fa3b d305 083e 7516 293e
000003a0: 63ca 103e d801 c83d c276 013d cda7 b3bd
000003b0: 343e e3bc 3920 6ebd 20eb 53bb 1c35 36bd
000003c0: 43c0 7bbd 7e0c ccbd f47d f93c bb1f dd3d
000003d0: f631 0dbd 5d00 c23d 0a67 edbd d8e8 b8bc
000003e0: 68ba 4abc 0440 9f3c 7055 a3bb b97d de3d
000003f0: 6994 3dbd b0f4 9abd 6a33 0c3e 18a5 663d
-0.093840115 -0.15733497 -0.014621774 0.08905604 -0.015143574 0.038450133 0.043619588 0.022182086
-0.062935494 0.15743303 0.09270516 -0.1511088 0.13456587 0.051589172 0.013098942 0.006381985
0.18393204 0.005247365 -0.06728062 0.0424589 -0.0789693 -0.013268404 -0.034743488 -0.09010835
0.088332884 0.04882627 0.08932067 -0.086146235 -0.05835685 -0.05181805 -0.025699787 -0.02208732
-0.038286686 -0.066417396 -0.054477893 -0.044009976 -0.010628171 -0.098146625 0.10315811 0.1097846
-0.08703621 0.09873512 -0.04529613 -0.055881392 -0.105163604 -0.061369352 0.066047944 -0.10333234
0.016877187 0.09909261 -0.12553228 -0.066509 0.009606847 0.016573275 -0.028599579 0.053899873
0.022285914 0.13539663 -0.17937456 0.067364864 -0.07210897 -0.13184254 -0.06458402 0.27188054
-0.05628706 -0.006786448 0.14125766 0.10392302 0.07539838 0.10050103 0.07467696 0.10605863
0.01431753 0.02152396 0.011606602 -0.077878356 -0.08101348 0.074170105 -0.08255125 0.092848584
-0.017285855 0.14340092 0.13183892 0.17602685 0.1525147 0.116356865 -0.17122762 0.15747413
-0.06723658 -0.15917008 -0.11253615 0.060729317 0.089496695 -0.07335357 -0.03828554 -0.041668564
0.09625486 -0.116772145 0.053186618 0.059875466 -0.045958936 0.059891157 -0.015666462 0.0235878
0.02129855 0.022369824 -0.063535914 0.106501736 0.047643553 -0.14828238 0.024822868 0.07040252
0.088652655 -0.08154615 -0.075964205 -0.087629505 -0.09820471 -0.056456674 0.0053520417 -0.045773145
0.04560733 0.013374585 0.100769185 -0.20815943 -0.07975277 0.10256756 0.07870282 -0.12461143
-0.039555416 -0.014729649 -0.05384177 -0.09238458 -0.07713873 -0.107516795 -0.14889336 0.018890753
0.13588996 -0.04572385 -0.009880611 0.03648439 0.007861235 -0.048366006 -0.019063089 -0.140227
0.050850548 -0.02672719 0.10040582 -0.023019813 -0.013982988 0.102154255 -0.014152019 -0.10284536
-0.07081554 0.19182624 0.15267758 -0.10681323 -0.04165027 -0.10443949 -0.09047104 0.06820885
0.006370327 -0.035213675 -0.10369166 0.005687125 -0.067206755 0.09937476 0.07045517 -0.010741994
-0.061065696 0.10034501 -0.018528864 0.018846668 -0.0052712113 0.10850827 0.03534872 0.08215315
-0.04339622 0.111332335 0.0790757 0.052479096 0.00032046635 -0.18106411 -0.07869378 0.042412452
-0.16785851 0.108485945 0.13963312 -0.16425784 0.100874 -0.039149966 0.009690742 0.08677789
-0.18657033 -0.071256675 -0.121363595 0.0052543366 0.123397864 0.088009425 0.0857382 -0.08775555
-0.020244306 0.047472086 0.0011897216 -0.1913955 -0.11565326 -0.046387903 -0.17102171 -0.041161485
0.025094533 0.106570035 -0.06119483 0.009320188 0.011701129 -0.055229586 -0.025997438 -0.11423304
0.043866668 0.09226083 -0.09419014 0.0925567 -0.13081595 -0.023555676 0.03645984 -0.059903886
0.043479413 -0.15147926 0.07685065 0.1663801 0.1271623 0.007644236 0.13283472 0.16512473
0.14139704 0.09765977 0.031607397 -0.0877224 -0.027739622 -0.0581362 -0.003233619 -0.044484243
-0.061462652 -0.0996332 0.030455567 0.10797068 -0.034471475 0.094727255 -0.11591919 -0.022571966
-0.012373544 0.019439705 -0.00498455 0.108638234 -0.046284113 -0.07566202 0.13691488 0.05630979

c1.bias f4 [32]
00000000: 260c 2fbd a377 e5bc 784b 8bbd 84c9 64bd
00000010: 2e67 91bd e76e f2bc 504c 66bd 3f39 e0bd
00000020: 0cb1 6bbc e7a9 4cbd 6857 3b3c 6ba8 b6bd
00000030: 8ffd 24bc 5878 41bd b4a7 e0bc d84b debd
00000040: 56c9 a43c eb2f 9ebd ffe6 2dbd e88a b43d
00000050: c0e8 ca3c 5af6 67bd 573b afbd 7bcb 8b3d
00000060: 2e50 f8bc 136b 26bd 64fc c0bd 3fc6 ecbd
00000070: 3a89 6a3d 8ee7 ecbd bb8c e8bc 51ba 77bd
-0.042736195 -0.028011149 -0.06801504 -0.055856243 -0.07099758 -0.029593898 -0.05622512 -0.10948419
-0.014385473 -0.04996672 0.0114344135 -0.08918842 -0.010070219 -0.04723391 -0.027423717 -0.1085431
0.020115536 -0.077239834 -0.042456623 0.08815557 0.024769187 -0.056631424 -0.0855624 0.0682592
-0.03031167 -0.040629458 -0.0942314 -0.1156125 0.057259776 -0.11567603 -0.028387418 -0.06048042

c2.weight f4 [64, 32, 3, 3]
00000000: 1579 a0bd ebe7 173d 5710 c73b 4777 39bd
00000010: fbbe ed3c ae73 b2bc c5cb 5fbd 73da 30bd
00000020: 625e 0b3c 6c93 13bc 1f36 eb3c 8756 893d
00000030: e0c4 cb3c 0845 9e3d 5a1f 6bbc 8875 94bc
00000040: b680 913d 4235 593b 6171 aa3c 8122 933d
00000050: 3cfc ff3c 2f86 713d 4d50 fbbb b13e 603c
00000060: e602 893d 2771 febc caa1 663d b967 afbb
00000070: 4727 cfbb 6a51 f53c 3b70 eb3c 9baa 0d3d
00000080: 5741 9f3d 9923 9e3d ef58 4b3c c991 26bc
00000090: 3def 19bd 3490 6bbd 15e5 c9bc 369a 76bd
000000a0: fb3c 26bd b9cb 68bd 533c eebd eb9f b0bd
000000b0: bb6e c7bd 381c 113d 626f e6bc 0b25 8a3d
000000c0: ead9 cdbc 07aa 633d 5b95 efbc c3ab 23bd
000000d0: 9fc7 e339 82ba 32bd 1786 463b 0149 de3c
000000e0: 021f 873d 1b3a b9bb a538 7f3c 13e3 8e3d
000000f0: 23d5 363c 6f10 de3c 82fc 473b 60ed e4bc
00000100: 44d6 383d d267 87bd be0f 86bc 16ec 18bb
00000110: 1dcc 1cbd 8880 113d 428e 39bd 1556 4e3b
00000120: e799 133d 4aca 833d e440 0e3d bfb0 53bc
00000130: 5ca9 5f3d 2f17 613d 47e2 1cba ab49 413d
00000140: 5770 0ebc b19b 633d 188b 3b3c 88f8 ff3b
00000150: 0750 233c 5459 2f3d eb6a d53c 78cf 413d
00000160: e543 69ba 85bb 4a3d f96f 983c f19e 803d
00000170: a48b 793c 40a4 2c3d b0c1 483d d14f 1f3d
00000180: aee9 05bd 3331 a93c 5010 863d 73d0 303d
00000190: 4600 a73c 0c27 26bb 7adc 153d a378 5c3d
000001a0: 18ec 403d 6b01 633d 9cc9 983d 3061 8b3d
000001b0: 9a3e 91bc 2940 5fbd 4ea4 0e3c 252c 83bd
000001c0: 4f40 d9bc a728 95bc a890 123d b820 be3c
000001d0: 3163 383d 497e 82bd e3f7 94bd e791 9ebd
000001e0: 6ba7 c0bc 6dc0 1abd 4601 b9bd 9c67 e5bc
000001f0: 29a0 5cbd 03f2 a6bc 27a5 863c 7eda 29bd
00000200: a6ba 203d 7260 bbbc 34cb f13c f618 6d3c
00000210: 7830 8c3c a4b2 b83c 19a2 223d db9d e939
00000220: 3588 173c 6f11 013d 7bd8 edbc 7d87 a4bc
00000230: 535a 5bbc e360 ab3d ed95 b43d 4227 c3bc
00000240: 71a1 78bd 27b7 3fbd 5ca6 cc3c 42b0 20bd
00000250: 4fea a63c a1a2 87bd 504a 83bd 4022 8dba
00000260: efa1 89bd 4a6e 8bbc c053 fdbb 6ac7 703d
00000270: ae05 25bd b82a 28bb e9e6 08bd d0a9 3f3d
00000280: 36b3 073d 8e08 803d 9c03 0bbc 3fca 363d
00000290: befe 063b 09c0 5a3d c9f1 0dbd b702 903c
000002a0: 55c1 d9bb 7ee6 e13c 491e f3bb 81af 81bd
000002b0: 7eba 423d f531 173d a604 593d 667b 243d
000002c0: e624 eebb 498e 34bd c29e c0b9 ce9f bc3c
000002d0: df99 353b 36ad 5abd 20a8 dd3c c1f7 ed3c
000002e0: 53cc 62bd e049 7abd 5c01 be3c 4de7 163d
000002f0: 81d9 31bd 55b4 b9bc 1801 1cbd 602f 3e39
00000300: 8920 343d c29f 1fbd d894 a3bb 5600 573d
00000310: ce9e 293d 20ce 9d3b 99a5 553d 380e 3a3d
00000320: acfc b33d 8b4e 493d e664 963d 80dd 493d
00000330: 8ae4 c73d aa8b 8d3d d57a d53d 5ae2 a83b
00000340: 7381 e73c 2221 b83c 2f55 8abc b795 23bd
00000350: 43cf 7cbd b5bf 2abd 7043 68bd a081 89bd
00000360: 809c 543d ff8e 6ebd 9f74 6ebd a74a 193d
00000370: 1b03 98bc 2a38 8bbc 5842 6b3d ba17 06bd
00000380: 75e8 363c 70ff 11bd 1ac1 313d f276 93bc
00000390: 6af8 5abd 9471 df3c cb4f 5ebc be07 38bd
000003a0: 17cd debb d409 43bd d4f2 3cbc abd8 203d
000003b0: 765b 023d 9f5a 65bd 8c82 37bd 2bcd 303c
000003c0: e86b 523d 091f 463c e6ac db3c 4ef7 5e3d
000003d0: 3a00 043d 0e6e 103b ba18 133d 439d 913d
000003e0: ff08 debc cf7b b93d f400 353a bcf0 00bc
000003f0: ae92 783c f63f 0d3d 1466 3d3d 4c2c ca3c
-0.078355946 0.03708641 0.006074946 -0.045279767 0.02902173 -0.021783676 -0.05463769 -0.04317708
0.008506389 -0.009007316 0.02871233 0.06705957 0.02487415 0.077280104 -0.0143507365 -0.01812245
0.07104628 0.0033143316 0.020806016 0.071843155 0.031248204 0.058965858 -0.0076694847 0.013686822
0.06690006 -0.031059815 0.056306638 -0.005352941 -0.006321821 0.029946048 0.02874004 0.03458653
0.077761345 0.077216335 0.01241134 -0.010166594 -0.03758167 -0.05751057 -0.024645368 -0.06020566
-0.0405855 -0.05683491 -0.116326 -0.08624252 -0.09737917 0.035427302 -0.028129283 0.06745347
-0.025128324 0.055582073 -0.029246023 -0.039958727 0.00043445543 -0.0436349 0.0030292326 0.02713442
0.06597711 -0.0056526787 0.01557747 0.06976905 0.011159214 0.027107446 0.0030515497 -0.02794522
0.045126215 -0.06611599 -0.016364928 -0.0023334078 -0.038280595 0.035522968 -0.045301683 0.0031484414
0.036035445 0.06435068 0.034729853 -0.0129205575 0.054604873 0.05495375 -0.00059846457 0.047189396
-0.008693776 0.0555684 0.011446737 0.0078116097 0.0099678105 0.0428098 0.026051959 0.047317
-0.00088983617 0.04949524 0.01860808 0.06280316 0.015231047 0.04214883 0.04901284 0.03889448
-0.032693557 0.020653343 0.0654608 0.043167543 0.020385873 -0.0025352864 0.036587216 0.053825986
0.047100157 0.055421274 0.07460329 0.068056464 -0.017730046 -0.054504547 0.0087061655 -0.06404904
-0.026519923 -0.018207861 0.035782486 0.02320896 0.04501647 -0.06371743 -0.07273843 -0.077426724
-0.023517331 -0.037781168 -0.09033446 -0.028003506 -0.053863678 -0.020379072 0.016436173 -0.041468136
0.0392405 -0.022873137 0.02951584 0.014471283 0.017112955 0.02254612 0.03970537 0.00044558835
0.009248783 0.031510767 -0.02903389 -0.020084137 -0.013388234 0.08368089 0.088176586 -0.02382243
-0.060700838 -0.046805527 0.02498167 -0.039230593 0.020375399 -0.06622816 -0.06410658 -0.0010767654
-0.067203395 -0.017020363 -0.007730931 0.058783926 -0.04028862 -0.0025660228 -0.033423338 0.046792805
0.033129893 0.06251632 -0.008484747 0.04462647 0.0020598616 0.053405795 -0.034654412 0.01757942
-0.0066453614 0.027575728 -0.0074193818 -0.06332303 0.047541134 0.036912877 0.05298295 0.040156744
-0.007267582 -0.044081006 -0.00036739378 0.02302542 0.0027710123 -0.053387843 0.027057707 0.029048802
-0.05537064 -0.06110561 0.023194008 0.03684168 -0.04342032 -0.022668997 -0.03808698 0.0001813746
0.04397634 -0.038970716 -0.004992109 0.052490555 0.041411214 0.004815832 0.05215988 0.045423716
0.08788428 0.04914717 0.073434636 0.049283504 0.09760387 0.069114044 0.10423819 0.0051539363
0.028259968 0.022476736 -0.016886322 -0.0399377 -0.061721098 -0.041686732 -0.05670494 -0.06714177
0.051907063 -0.05824184 -0.058216687 0.03742471 -0.018556168 -0.016994555 0.057436317 -0.03273747
0.0111638205 -0.035643995 0.043397047 -0.018001053 -0.053459562 0.027275838 -0.013568829 -0.04492926
-0.006799351 -0.047616795 -0.011532504 0.03926913 0.031825505 -0.055994626 -0.044802234 0.010791103
0.05137244 0.01209236 0.026815843 0.054435067 0.03222678 0.0022038254 0.035912253 0.071100734
-0.027103899 0.09056818 0.0006904744 -0.007869896 0.01517169 0.034484826 0.046239927 0.024679326

c2.bias f4 [64]
00000000: 0363 b3bb 8798 4fbd e52f f83c 1694 0f3d
00000010: fbbe 21bc 2d51 6fbc 2d0c 7d3c 9d6f f8bc
00000020: 617d d43a 27f3 453d e552 d93c cf21 2e3d
00000030: 4762 7b3c 52d0 053d fcc2 2abc dc1f 42bd
00000040: 617b 3fbd 4141 bb3c 8a4d 06bb f6b2 873d
00000050: 3ebc 1f3a 5586 1abd b1c2 37bd b537 31bd
00000060: 83a0 b63c a755 91bc 491c 54bc d90c 003d
00000070: 8f72 c93c 23be f5bc f654 37bd 0cf2 13ba
00000080: 1600 683b 672a 7a3c 27ff 7fbd 6467 42bd
00000090: a166 463c 4a5c 0c3d a077 143d 2954 7c3c
000000a0: 0d6d 743c 0df9 d7bc a2e5 98bc 0501 b5bc
000000b0: 37e3 00bd 6ac7 3e3d 137c b2bc db13 c9bc
000000c0: 06b2 a7bb 8fa1 243c 68ce 4dbd 30c0 3b3c
000000d0: 585b 9f3c 5f14 76bd fc6c 4a3d d37f 383c
000000e0: 51c6 4cbd 75b2 17bd fc0a 4f3d 7778 f7bb
000000f0: 3bf2 8f3c d60b 5fb9 0ab2 12bd f2d1 3cbd
-0.0054744496 -0.05068257 0.030296275 0.035053335 -0.009872193 -0.014606756 0.015444797 -0.030326659
0.0016211682 0.04832759 0.026528785 0.04251271 0.015343255 0.032669373 -0.010422464 -0.047393665
-0.046748523 0.022858264 -0.0020492994 0.06625931 0.0006093419 -0.037725765 -0.044863407 -0.043266017
0.022293335 -0.017741038 -0.012946197 0.031262252 0.024590759 -0.02999789 -0.04475876 -0.0005643673
0.0035400442 0.015268899 -0.06249919 -0.047461882 0.01210943 0.0342677 0.036246896 0.015400925
0.014918578 -0.026363874 -0.018664185 -0.022095213 -0.03146669 0.046576895 -0.021787679 -0.0245456
-0.0051176576 0.010048284 -0.050245672 0.011459395 0.019452736 -0.06007802 0.04942034 0.011260944
-0.049993817 -0.037035424 0.050547585 -0.0075522023 0.01757156 -0.00021271346 -0.035814323 -0.046098657

c3.weight f4 [256, 64, 3, 3]
00000000: 0f18 703c 7b1f a63c 7010 a8bb 8ace 30bd
00000010: 20cf ecbc 03dc c0bc 8963 913c 1a48 343c
00000020: 3e97 0abb ba72 c3bc 43aa d3bc 2762 c7bc
00000030: bf34 ac3c cc45 3ebd 5174 52bd 164d f9bc
00000040: 1adb bb3c f936 2bbd 2a6b 05bc 0e7e 1dbc
00000050: 8524 d1bc e5e3 573d ca11 d3bc 6c45 eebc
00000060: 8aa5 9dbc f9e9 82bd 519b dcbb 7dab 4e3b
00000070: f703 f3bc 0aa6 49bc 5f8d 343d 9c57 34bc
00000080: bfd1 1dbd 4407 163d 53a2 16bd c379 fd3c
00000090: ce5e 4dbb 9cea 073d 9bb6 78bc a0e4 e03b
000000a0: f558 1c3c 6ed7 14bc ed89 bf3c 9f68 213d
000000b0: 6c42 053c a023 03bd cc1e 0f3d 49f1 053c
000000c0: a49e 7cbc 4580 70ba be09 d8bc 98b8 cf3c
000000d0: 94ee d33b 9624 e53c c8b2 febc 5b28 efbc
000000e0: 2c51 c73c b922 9cbc eb13 103d 34d0 f8bc
000000f0: 89fc 293d e4a9 663c 8162 42bc 7a35 8dbc
00000100: f486 dabc 9c91 1bbd f2af cfbc 8bcb 20bd
00000110: fd6c 6dbc d091 b9bb 8dcf adbb c452 913c
00000120: b048 0e3d 05a1 35bc 3452 073d 869a 76ba
00000130: cc85 2e3c 26ac 00bd c266 db3c 69b2 42bc
00000140: ce61 e6bc 7f38 06bd 9865 f33c 66de 093d
00000150: 3aeb ba3c 4e68 b93c 49bb 06bd 0fcf 043b
00000160: f4e0 14bd a826 213c 1e7d d6bc 02aa edbc
00000170: 9356 5d3c d23c 9a3b 222f f3bc 3225 c9bb
00000180: 0699 523d 9822 533c 7fae 803c 7091 63bc
00000190: 2c39 43bb a8b1 03bc 7db9 cd3a 6483 0ebd
000001a0: 39a8 c3bb b879 af3c 06e3 203d 28dc fbbc
000001b0: b658 ebbc 34b9 04bd 2255 f8bc 9e27 eabc
000001c0: 8d94 ee3c 53e5 5f3c cab7 8db9 f69e bfbc
000001d0: 308d c03c 5a1d 643d b33c c43c e6f9 a139
000001e0: c77b b53c 9f6b f23c 03fa f8bc 8395 98bb
000001f0: 6e16 33bd 91c2 99bc f489 e73c 6b38 22bd
00000200: 1f55 853c 4a90 abbc aa83 f1bc 3ea9 3dbd
00000210: d874 513b 588a 53bc c77c f9bc 0086 c0bc
00000220: 6d0f f13b 8d0d a13c be19 a6bc c9df d0bc
00000230: 6d7c 3cbc 6db6 113c 1504 e5bc d13a ac3b
00000240: ad38 0d3d ef80 fb3c ebc0 b1bb 1e63 233c
00000250: 425b 82bc fdb9 99bb 17d1 c63a 5358 9ebc
00000260: 3cf2 b0bc fcdf 223d 28f9 adbc d23a 43bc
00000270: c829 8dbc 4d81 34bb 49a3 08bd f182 d33c
00000280: 5dce b83b 2dda 8d3c 95fb a93c 36f9 e7bc
00000290: d338 2a3c d25a ed3c 6c20 64bc 217c b93c
000002a0: 5d08 acbc 7121 21bc aa1d 263d 2d7b 6bbc
000002b0: 4cf5 d03b 0a1d 16bd 7f4e 0ebc 8376 dfbc
000002c0: b71e e63c 1ace 273d e180 093d c83e 1e3d
000002d0: 8a5e 293d 9132 ebbb b689 db3c 11d0 143d
000002e0: 1470 f63c 7c14 d83b 94a9 b63c 89fd f9bc
000002f0: e3a9 99bc b3e0 dc3c 7740 98bc 4f2e 9c3b
00000300: 872f 06bc f38c ac3b 5186 dbbc 645f e5bc
00000310: 6f4b 21bd 1da9 31ba e7d5 71bc 275e 86bc
00000320: 5171 ed3c 3575 0b3d b129 15bd e022 1bbc
00000330: 239a 0a3d 99f4 883c 613c fcbb 30c1 b03a
00000340: 4d90 e63c b364 28bd 0c30 273b 09ae b3bc
00000350: 36b7 95bc c09f ac3b 9203 c4bc b755 1ebc
00000360: 869d 37bd 0645 05bd 3067 7e3c 7eed 8e3b
00000370: 323b 66bc bcf7 efbb 5615 f13c ee45 22bd
00000380: a7fd 523b aa5d 08bd 8e82 da3c 3a31 2cbd
00000390: 0894 d83c b90e e2bb de54 bb3b bfaa c9bc
000003a0: 4e1b 03bd 5b6e 11bd c726 eb3b d5d9 00bc
000003b0: 1ff7 573c e181 14bd be63 9b3b 1694 633d
000003c0: 5acc 37bd 2bcc e73c db2a 353d 24bb 2dbd
000003d0: 1596 053d d630 423c 0919 95bc 4b0e 85bc
000003e0: 6700 bfbc c22a ca3c 836f 09bd 76c1 31bc
000003f0: f77e 8b3c 4279 233d e46b c3bc a70f 073d
0.0146541735 0.020278683 -0.0051289126 -0.04316572 -0.028907359 -0.02354241 0.017747657 0.0110035185
-0.0021147276 -0.023858417 -0.025838023 -0.024338795 0.021021245 -0.046453282 -0.05138046 -0.030432265
0.022931624 -0.041800473 -0.008143226 -0.009612573 -0.02553011 0.05270757 -0.025765318 -0.029085837
-0.019243974 -0.06392283 -0.0067323823 0.003153532 -0.029664977 -0.012307653 0.044080134 -0.011007216
-0.038530108 0.036628023 -0.0367759 0.03094185 -0.0031337026 0.033182725 -0.015180255 0.0068631917
0.009542693 -0.009084566 0.023381198 0.039406415 0.008133512 -0.032016397 0.03494148 0.008175203
-0.015418682 -0.0009174387 -0.026371833 0.025356576 0.0064676497 0.027971547 -0.031091109 -0.029194048
0.024330698 -0.019059526 0.035175245 -0.030372716 0.041500602 0.014078591 -0.0118643055 -0.017237414
-0.026675679 -0.03798066 -0.025352452 -0.039256614 -0.014491317 -0.005663134 -0.005304283 0.017739661
0.03473729 -0.011085753 0.03303738 -0.0009407181 0.010652017 -0.031414174 0.026782397 -0.011883357
-0.028122809 -0.032768723 0.02971153 0.03365936 0.022817243 0.022632744 -0.032893453 0.0020265018
-0.036347345 0.0098358765 -0.026182707 -0.02901173 0.01350941 0.0047069574 -0.02968556 -0.006138467
0.051415466 0.012886666 0.015708206 -0.0138896555 -0.0029788716 -0.008037962 0.0015695539 -0.034793273
-0.0059709814 0.021420345 0.039279006 -0.030744627 -0.028728824 -0.032403186 -0.030314032 -0.028583344
0.029123569 0.013665515 -0.0002703055 -0.023391228 0.023504823 0.055692054 0.023954725 0.00030894502
0.022153748 0.029592333 -0.030392652 -0.004656495 -0.043722562 -0.018769534 0.028264023 -0.039604586
0.01627594 -0.020942826 -0.029481728 -0.04630398 0.0031960513 -0.012911402 -0.030455006 -0.023501396
0.007356575 0.019659782 -0.020275947 -0.025497334 -0.011504275 0.008893591 -0.027956048 0.005256035
0.03447788 0.030701129 -0.005424609 0.009972362 -0.015912656 -0.004691361 0.0015168515 -0.019329226
-0.021599881 0.03976439 -0.021236971 -0.011915879 -0.017231837 -0.002754289 -0.033358846 0.025819274
0.005639835 0.017315948 0.020749846 -0.028317075 0.0103895245 0.02897397 -0.013923746 0.022642197
-0.021000082 -0.009834633 0.040555634 -0.014372629 0.006376898 -0.036648788 -0.008685707 -0.02727819
0.028090818 0.04096804 0.033570174 0.03863409 0.041349925 -0.007177659 0.026799064 0.03633124
0.03008274 0.006594239 0.022297658 -0.030516403 -0.018757766 0.026962614 -0.018585427 0.0047662626
-0.008190042 0.005265826 -0.026797445 -0.027999587 -0.03937858 -0.0006777214 -0.014760471 -0.016402317
0.028984698 0.034047324 -0.036416713 -0.009468764 0.033838402 0.016718196 -0.0076976274 0.0013485309
0.02814498 -0.04111166 0.0025510816 -0.021933572 -0.018275838 0.005268067 -0.023927484 -0.009663991
-0.04482796 -0.03253653 0.0155275315 0.0043618074 -0.014052199 -0.0073232334 0.02942912 -0.03961747
0.0032194646 -0.03329245 0.026673581 -0.042039134 0.026437774 -0.0068987277 0.005716904 -0.02461755
-0.03200846 -0.035505634 0.0071762535 -0.007864435 0.013181477 -0.036256675 0.004742115 0.055561148
-0.04487262 0.028295597 0.044230323 -0.0424148 0.032613833 0.011852464 -0.018200414 -0.016242167
-0.023315622 0.024678592 -0.03355361 -0.010849347 0.017028315 0.039910562 -0.023855157 0.03297391

c3.bias f4 [256]
00000000: ce62 9abb b5c9 8ebc 7ce7 703b 3854 f0bc
00000010: 6bd1 813c 5fe4 12bd 3716 613c a5f9 b6bc
00000020: 5775 523c 63fb 1d3c 60f2 223d 9a11 9b3d
00000030: b7f1 0bbc c968 163d 28f0 06bd c638 5c3d
00000040: 4c3c 5cbd f54e e63c 4c57 8b3c 7e17 c1bc
00000050: 6660 babb 6193 a4bc a9ad 4b3c fd37 4dbd
00000060: 68ea abbc 8d88 8ebc 14e0 433d c0ba 65bc
00000070: 278c 083b c996 7abc f24f 203d 83c9 32bd
00000080: 114e c73c 257f 173c 95f7 893c 59b4 1b3d
00000090: 4c2f 4fbd cb68 9e3c 5389 3bbd 8465 51bc
000000a0: bfde 173d a5a1 f53c 3d82 5b3c f543 903c
000000b0: 925e a03c cb68 023d db16 b7bb 7c79 623c
000000c0: 2042 e53c 97bf 01bd 2675 8d3c b8e7 873c
000000d0: 380b f83c 7dcf f1bc 1c7c 203d b438 293c
000000e0: 43ac 493d b28a 3a3d ee22 04bb 0bae 343c
000000f0: b5fd c9bc 5dec d33c a2f9 4cbd 7679 8b3c
00000100: 8c8c ac3c dca0 19bd 5539 043d 9497 31ba
00000110: 8da8 b0bc c775 13bd 061a 6b3c d94c 943c
00000120: 4516 e43c 63ca ccbc 19c2 83bc f491 dbbc
00000130: 950b 0a3d 6a07 5abc b325 37bd d579 153d
00000140: bda1 d0bc cc16 afbc 9e19 07bd d484 ec3c
00000150: 58da c13c ccce 7039 3d6e 2a3b e991 13bd
00000160: 5e4f 153d 74a7 df3c 3a21 e63c 5626 01bd
00000170: 6521 5d3d 86f5 4a3d 60b4 55bb 9459 563d
00000180: 4362 1dbd a349 3ebd 5c3e 963c a618 c2bb
00000190: 2efd 55bc d23c 69bc 6653 443d e74a 2dbd
000001a0: 903a b5bc 099c a239 1779 6e3d 27bc cabc
000001b0: d5dd 873d 00cf 0a3d 4e7a fdba 447a cbbc
000001c0: f8f1 4d3c d832 703c 416a abbb a9fc de3c
000001d0: 6529 1bbd be37 18bd 4b79 18bb 6249 fabc
000001e0: 8de8 143d 7e29 403d 4538 5f3c 8204 1c3b
000001f0: 282c 023d 010a a8bc d081 30bc 0f28 6b3d
00000200: 1226 2b3c e819 2ebd 0c5d 21bc 7720 41bc
00000210: 5ff0 15bd edc0 c2bc 3261 afbc 58a8 72bc
00000220: ad5d 17bd b393 06bd a1e5 bdbc de4b 54bd
00000230: 45d4 63bc ee74 173d 46b2 2c3d f9f9 08bc
00000240: c5b7 163b 5fb0 1fbd 23f4 2f3d bf96 043d
00000250: 2f73 07bd a2f4 983a cc0d 5f3c b9e5 9a3a
00000260: 719f 843c e6f0 f73c 3b0b eebb c246 cdbc
00000270: a3e5 853c 6ba1 74bb a39d 633b 62fd 19bb
00000280: 615e 943c ec98 403c 925c abbb 8eeb 1ebd
00000290: 4a14 47bd f8db 1a3d a6f3 dfbc 55de 2f3d
000002a0: 7daa 093d 8ef8 58ba 5e1f 1b3c 57f2 c6bc
000002b0: e725 003d 9540 b23c dab1 aebc 2cf4 3ebc
000002c0: 46a6 803c 22ca 00bc 51de 1f3c a304 ad3b
000002d0: d189 2cbc 631a c23c 20bc 24bd c849 b23b
000002e0: 17ca 64bc fca1 9ebc 5bb8 c8bc 449f 233c
000002f0: 1997 383d 0b22 f73c e724 323d 68de 733c
00000300: accb b3bc f3ba 2a3d 2283 673d ec2f 4b3d
00000310: 59d7 bb3c 1168 20bd e04a 213d 3fc1 94bc
00000320: 8eef 20bc 6305 1fbd 1f44 afbc 769f db3c
00000330: 1bc0 e2bc 393b 883c 4b47 7e3c 37bd 113d
00000340: 373e 2b3d d244 22bc 61f6 2dbd f027 b4bc
00000350: 26e3 41bd b182 11bc accf 443d 04b8 843c
00000360: 9459 0f3c a48e 603c 48e0 4d3d ede5 423d
00000370: 4b24 1cbb 0c30 17bd 2c39 6fbc 746a f03c
00000380: ea1e ecbc 0127 2b3d 26e1 3abc bbdd 473c
00000390: 5986 83bc 318c 28bc ab04 353d 7a24 11bd
000003a0: db3b c3bc a50d 563d 44f0 5ebd 5cdc 213c
000003b0: 57af 5b39 f38b b03c fb74 2abd af4c 0ebd
000003c0: 1e3c 23bd b37e 913a 82bf 593d 23d9 cc3c
000003d0: b42c 36bc 2210 273d 6baf dbbc cc51 34bc
000003e0: bf06 7bbc 0f83 913c 14bc 29bd 2bfb 3b3b
000003f0: cd44 ba3c 372e 15bd fde8 cabb 0475 993b
-0.0047114855 -0.017430166 0.003675907 -0.029337034 0.015846929 -0.035862323 0.013738207 -0.022335837
0.012845359 0.009642455 0.039781928 0.075717166 -0.008541516 0.036721025 -0.032943875 0.05376508
-0.05376844 0.028113822 0.0170094 -0.023570772 -0.005687761 -0.020089807 0.0124315405 -0.050102223
-0.020985797 -0.017399097 0.04782112 -0.014021575 0.002083549 -0.015294739 0.03913874 -0.043649208
0.024329217 0.009246622 0.01684169 0.03801379 -0.050582215 0.019337079 -0.04578526 -0.012780551
0.03707766 0.029984305 0.01339775 0.01761053 0.019576345 0.03183822 -0.0055874414 0.013822909
0.027985632 -0.031676855 0.017267775 0.016589984 0.030278787 -0.029517883 0.03918086 0.0103284605
0.049236547 0.045542426 -0.0020162421 0.011027823 -0.02465711 0.025869543 -0.050042756 0.01702569
0.021063112 -0.037506923 0.03228124 -0.0006774601 -0.021564746 -0.036000993 0.014349466 0.01810305
0.02784265 -0.02499885 -0.016083764 -0.026802994 0.03370245 -0.013307432 -0.044713687 0.03649314
-0.025467748 -0.021373175 -0.032983415 0.028871931 0.023663685 0.00022965221 0.0026005649 -0.036027823
0.036452644 0.027301528 0.028092016 -0.0315307 0.053986926 0.049550556 -0.0032608733 0.052331522
-0.038423788 -0.046456944 0.018340282 -0.0059233485 -0.013060851 -0.014235692 0.047931097 -0.04230776
-0.022122651 0.00031015303 0.05822095 -0.024747921 0.06634108 0.033888817 -0.0019338818 -0.024838574
0.012569897 0.01466056 -0.0052311723 0.027220087 -0.037881274 -0.037162535 -0.0023265656 -0.03055257
0.03635459 0.04691457 0.013624256 0.0023806398 0.031780392 -0.020512583 -0.010773137 0.05741125
0.010446088 -0.042505175 -0.009848844 -0.011787525 -0.03660619 -0.023773635 -0.021408651 -0.014810644
-0.03695457 -0.0328557 -0.023180785 -0.051830165 -0.0139055895 0.036976747 0.042162202 -0.008360379
0.0022997719 -0.03898656 0.042957436 0.032370325 -0.033068832 0.0011669586 0.013614129 0.001181773
0.016189309 0.030266237 -0.0072645224 -0.025058154 0.01634485 -0.0037327658 0.003473141 -0.0023496975
0.01811141 0.011755209 -0.005229541 -0.03879886 -0.048603334 0.037807435 -0.02733786 0.04293664
0.033609856 -0.00082767836 0.009467928 -0.024285479 0.031286146 0.02175931 -0.02132504 -0.011654895
0.015704285 -0.007860692 0.009757594 0.0052800938 -0.010530905 0.023694223 -0.040218472 0.0054409243
-0.013964198 -0.01936435 -0.02450197 0.009986702 0.045065973 0.0301676 0.043492224 0.014884569
-0.021947704 0.041682195 0.056521542 0.04960625 0.022929834 -0.039161745 0.039378047 -0.018158553
-0.009822739 -0.038823497 -0.021394787 0.026809435 -0.027679494 0.016629802 0.015519927 0.03558084
0.04180738 -0.009904103 -0.042471293 -0.0219917 -0.047335766 -0.008881257 0.048049614 0.016201027
0.008749384 0.013705883 0.05026272 0.047582556 -0.0023825343 -0.036911055 -0.014601033 0.029347636
-0.028823335 0.041785244 -0.011406219 0.012198861 -0.016055273 -0.0102873305 0.044193905 -0.035435177
-0.023832252 0.052259106 -0.054428354 0.009879198 0.00020950787 0.021551108 -0.041615468 -0.0347411
-0.039852254 0.0011100381 0.05316115 0.025005883 -0.0111190565 0.04078687 -0.026817044 -0.01100583
-0.015321433 0.017762689 -0.04143913 0.0028683643 0.022737885 -0.036421027 -0.006192325 0.004683139

fc1.weight f4 [64, 256]
00000000: b31e fb3a 407d 3cbc 178e 28bb ad44 2bbd
00000010: 0e56 4cbd a5d5 f7bc 4b22 4e3d d54d 813d
00000020: b7a1 9a3c 504c 7b3b bacf 323d 4386 afbc
00000030: 9aed f7bc 72fd 9f3c 2f11 27bd 70ed 49bb
00000040: 39a9 4bbd 98bb 873c bb39 2ebd 6e02 c6bc
00000050: b35b 83bd 9890 4d3d 7b0e 8dbd 1c6e 8b3d
00000060: b030 0e3d 939a 153d c9f8 cabc c625 623d
00000070: 194e 613d c41f 38bd e398 93bd e8ee 88bc
00000080: 0b67 ecbd 7243 183d 1a94 3f3c 3001 5dbd
00000090: 6888 f9bc cecd edbb e910 0a3b 7351 0bbd
000000a0: 1bfb 87bd 2d4b 18bd c994 0fbd 35fa 80bd
000000b0: 266c 4ebc 977c c0b9 564e 27ba 321d fdbb
000000c0: 8d63 12bd 5197 413d 8007 943d dd78 a1bd
000000d0: e6d3 f23c fa48 32bd b635 2cbd 227d 9739
000000e0: cccf dcbc 7464 233c 8091 44bd 14b2 1abb
000000f0: 17ae a9bc 0920 d1bc 0307 8bbd 185f 0abc
00000100: 599d 623c 9670 473c 430f 3ebd 22d9 793d
00000110: 7383 d1bc 85bc 793d abe8 6b3c 367b 793c
00000120: 69f3 933c ad3d 463d 729f f6bc bd28 083c
00000130: f46f a9bd 6a74 663d 79fd 3abd 2ff7 bfbd
00000140: 7b95 febc 60ca 41bb a111 2bbb 1e66 4f3d
00000150: f3bf bcbc 0dc6 903d c4f6 583d e596 99bc
00000160: 66b2 443d 0c38 253d ec59 ddbc fea5 853d
00000170: c46c 7dbd f92b 82bd b7df 07bd 6a05 9abd
00000180: 8265 2d38 ae00 c7ba 9edc 90bd e104 3ebc
00000190: 8f16 963c 1681 b4bd 998a 1d3d 965c 493d
000001a0: a3dd 853d 0676 9dbc 6ea0 11bd e283 9e3c
000001b0: 7977 25bd dd29 063d 3b23 2c3d a6ac 3dbd
000001c0: 9a1e d03b 152d 693d 8029 f53c e2e7 ccbc
000001d0: c137 8d3d a8e9 ae3c 0e1a e23c cc8d 39bd
000001e0: ee1d c3bc c857 ddbc 7032 12bd 8a6a 72bd
000001f0: 1baa d9bc 3aa7 a43c e543 4fbd 02c3 b1bb
00000200: 6b2c 1abc 4ab4 a53a 43bd 97bd 6646 493d
00000210: ca41 003d 29bc cfbc 6e53 f4bb 4411 6fbd
00000220: e082 4f3d e36d 3b3d cfb8 cfbc 2ca5 89bc
00000230: 1579 fabc e7bf a3bd 532d 19bd e96d 903c
00000240: 4d5c c0bc 13ff 913d f11e 93bc 38ba fbbc
00000250: 03e5 6a3b 0a58 2dbc 3e64 2ebd 8341 19bd
00000260: 9ec0 f9bd a78a 75bc c87c 6fbd 75b7 11bd
00000270: d835 7ebd 9364 ca3c 7c7e b8bc 9517 15bd
00000280: 6583 c13c 5f26 29bd fc0b 0a3d f767 1f3d
00000290: cfe3 1a3d d812 b3bc 5ef6 993d b402 2fbd
000002a0: a836 21bd 7986 dbbd 1d46 a7bc 2828 913d
000002b0: 6243 7dbd c3d6 37ba c968 cb3c d75b 803d
000002c0: d8a7 01bc 2a2a 94bc a30a 4abd 059e 65bc
000002d0: 2bd1 763d f7ad 51bd 2688 a5bc 6243 69bd
000002e0: de1c e03a 5862 37bc 34d8 95bd eaa9 34bd
000002f0: d315 68bc 5472 8cbc a031 a2bc e225 693b
00000300: 911a c6bc 145f 75bd 5b2d 293c 3085 6abd
00000310: a08a 5f3d 02cc 513d 4484 d2bc 49ab 96bc
00000320: 0e53 05bd 7240 5bba f0ad 88bc e90e 2a3d
00000330: 7976 1f3d 18d3 623d 71b0 363d 5619 a9bc
00000340: 383d 42ba cdc1 123d 4891 3e3c 299e 623d
00000350: bbf5 743d 35df 96bd b7a8 24bc 1185 083d
00000360: 8e72 93bd 7ff4 343d b5b3 d3bc c430 d93c
00000370: 9a4f 153d 3572 3f3c ec5c 91bd 38ab 71bd
00000380: 51bb 963d 2570 20bd 9590 eb3c 942d 523d
00000390: 26b3 06bd 83ee 34bd a8af 313d 9430 05bd
000003a0: 529f e8bc 78dd 6abc b5d4 c9bc a445 24ba
000003b0: ac7d 5fbd 737f c1bb 93f1 133c 15c8 233d
000003c0: ea2b 60bd 4bb8 3ebd 1a3d 37bd ace0 0f3d
000003d0: 1921 913b 4df6 97bc b395 9abc 16bc 033d
000003e0: 18ad 803d 9ee4 3f3d 4f58 9d3c 5a77 083c
000003f0: 46b6 3dbd a544 41bc 25e2 e53a 3f3c 0b3d
0.0019158929 -0.011504471 -0.0025719458 -0.04181354 -0.049886756 -0.03025324 0.050325673 0.063136734
0.01887594 0.0038345046 0.043655135 -0.021426326 -0.030264664 0.019530032 -0.040787872 -0.003081169
-0.04972193 0.016568944 -0.042535525 -0.02417108 -0.064139746 0.050186723 -0.068875276 0.06808111
0.0347144 0.036524367 -0.024776833 0.055211805 0.05500612 -0.04495217 -0.07206895 -0.016715482
-0.115430914 0.037173696 0.011693025 -0.05395621 -0.030460551 -0.0072572 0.0021067208 -0.034013223
-0.066396914 -0.03718107 -0.035054002 -0.06297723 -0.012599027 -0.0003671392 -0.00063822174 -0.0077244276
-0.03573947 0.047263447 0.07227993 -0.07884381 0.029642057 -0.043526627 -0.04204341 0.00028894196
-0.026954554 0.00997268 -0.047990322 -0.0023604678 -0.020712895 -0.02552797 -0.06788447 -0.008445524
0.01383146 0.012172839 -0.046401273 0.06099809 -0.025575375 0.0609708 0.014398734 0.01522713
0.018060403 0.048398662 -0.030105326 0.008310494 -0.082733065 0.056263365 -0.045651887 -0.093733184
-0.031077137 -0.0029570088 -0.0026103037 0.050634496 -0.023040747 0.07069025 0.05296971 -0.01874871
0.048021697 0.040336654 -0.027020417 0.06525801 -0.061871305 -0.06356043 -0.033172335 -0.07520564
4.134095e-05 -0.0015182698 -0.070733294 -0.011597843 0.018321304 -0.08813684 0.038462255 0.049160562
0.065364145 -0.019221317 -0.03555339 0.019349996 -0.04039714 0.032754768 0.042025786 -0.04630723
0.0063513042 0.05692776 0.029927015 -0.025012914 0.068954 0.02135165 0.027600314 -0.045301244
-0.023817983 -0.027019396 -0.035692632 -0.059183635 -0.02657037 0.020099271 -0.05060186 -0.005424858
-0.009410004 0.0012642231 -0.07409146 0.049139403 0.03131274 -0.025358276 -0.0074562347 -0.058366075
0.05066192 0.045759093 -0.025356678 -0.016802393 -0.030575315 -0.07995587 -0.03739674 0.017630534
-0.023481512 0.0712873 -0.01795909 -0.030728444 0.0035842068 -0.010580072 -0.042576067 -0.037415992
-0.12194942 -0.014986671 -0.05846861 -0.03557535 -0.06206307 0.02470616 -0.02252125 -0.036399443
0.023622224 -0.04129636 0.033702835 0.038917508 0.03781491 -0.021859571 0.07517694 -0.042727187
-0.039358765 -0.10719008 -0.020419175 0.07087737 -0.06183184 -0.0007012898 0.024830239 0.06267517
-0.007913552 -0.018086512 -0.04932655 -0.014014726 0.060258072 -0.051191296 -0.020206522 -0.056949027
0.0017098447 -0.011192881 -0.07316628 -0.044107355 -0.01416536 -0.01714436 -0.019799054 0.0035575558
-0.02418259 -0.059905127 0.010325755 -0.057255924 0.054575562 0.051219948 -0.025697835 -0.018392222
-0.03254991 -0.000836379 -0.016684502 0.041518126 0.038931344 0.055377096 0.04460186 -0.020641964
-0.0007409635 0.035829354 0.011631317 0.055326615 0.05980466 -0.07366792 -0.01004999 0.033330027
-0.07199584 0.044178482 -0.025842527 0.026512511 0.036452867 0.011684944 -0.070978016 -0.059001178
0.073599465 -0.03916945 0.028755466 0.051312998 -0.032885693 -0.044172775 0.04338041 -0.03251703
-0.028396282 -0.014335029 -0.02463756 -0.0006266481 -0.05456321 -0.0059050857 0.009029764 0.039985735
-0.05472938 -0.046562474 -0.044736005 0.035126373 0.0044289944 -0.018550063 -0.01887021 0.032161795
0.06283015 0.046848886 0.019207148 0.008329237 -0.046316408 -0.011796151 0.001753871 0.033993002

fc1.bias f4 [64]
00000000: dd71 323b 4ef6 803c 9c58 11bc f3c8 7ebd
00000010: fc24 273d dbbc 85bc 7ce8 81bc ac18 48bd
00000020: 7294 6a3b 8489 583d 4842 8a3d f2fc 533d
00000030: a4f0 3cbd 98d2 08bd 2dd4 34bc 1ee0 c4bc
00000040: cb53 113d d643 1dbd c158 81bd a58b f53b
00000050: b4fb 59bd c94f 353d 6537 b53c ad82 52bd
00000060: 5f48 4abc 4269 93bc 7ac6 7dbd 98e1 f5bb
00000070: 71d5 663d 9b94 0b3d 11c2 0c3d 3900 9ebc
00000080: 78e8 56bd 2fe4 2ebd 0029 9b3a 88c2 23bd
00000090: d484 493d 7ca8 7ebd def9 debb e763 1e3d
000000a0: 51d8 373d bd8d 0d3d 4636 d73c a91e 06ba
000000b0: f49c 47bd 4824 533c 7719 c73c d0f4 14bd
000000c0: 1b95 0d3d e859 86bc 55b8 30bd 1390 c23c
000000d0: b8d8 eabc 57af 1c3c a474 0a3d 19d4 0bbd
000000e0: 4ed4 303c 482c 853c 87da 243d ee88 21bd
000000f0: 9954 dd3c 0770 23bd 5fa4 093d a722 80bb
0.0027228512 0.015742447 -0.008871224 -0.06220336 0.040806755 -0.016325405 -0.015857928 -0.048851654
0.0035794047 0.05286552 0.067509234 0.0517549 -0.04612793 -0.033403963 -0.011036915 -0.024032649
0.0354803 -0.03839477 -0.063157566 0.0074934536 -0.05321856 0.044265542 0.02212114 -0.051394153
-0.012346356 -0.017994527 -0.06195686 -0.0075036995 0.056355897 0.034077268 0.034364764 -0.019287216
-0.052467793 -0.04269808 0.001183778 -0.03998044 0.04919894 -0.062172398 -0.006804689 0.038669493
0.04488403 0.034559 0.026270997 -0.0005116263 -0.048733667 0.012887068 0.024304135 -0.036366284
0.034566026 -0.016400293 -0.043144543 0.02375034 -0.028667793 0.009563289 0.033802643 -0.03413782
0.010792805 0.016256467 0.040247466 -0.039437227 0.027017878 -0.03990176 0.033604022 -0.003910381

fc2.weight f4 [5, 64]
00000000: e5e0 eb3d 00e4 96bd f452 31bd 8039 79bd
00000010: 61fb 50bd f8d9 b63d cc58 a63d 50ca 493c
00000020: f6a5 e33d df91 253c 05b2 113e 0060 933d
00000030: e80b f13c 3c0e 393d 417e db3d 8a62 a93d
00000040: 76c5 6ebc 7832 283d 9ff4 bdbd 16fa bf3d
00000050: b246 acbb 32f2 fdbc ecee 82bd 6836 c73d
00000060: d711 d9bd 4faf c63d 76da b53c f84c dcbd
00000070: 1b13 e23d 5310 ca3d 17e7 dc3c acde 0d3d
00000080: 9851 913d 424e 6d3d d055 793d 94d9 843d
00000090: 5b18 4ebd 087d f0bc ab7b 95bc c854 343d
000000a0: f89a f33b c8bd dcbd 9093 0d3e 155f 2c3d
000000b0: f8cd 8f3c 7805 80bd 5da5 193d 2a3b 8d3d
000000c0: fc80 d13d f19a 9f3d a976 e6bb 22de e1bd
000000d0: 3cf5 9bbd a061 7a3c 5302 b4bd 6782 e8b9
000000e0: b242 ac3d a5e5 243d 3319 b1bd 62c2 b8bd
000000f0: 1f98 1e3d 5d4e 9cbd 3582 a6bd 892f 703d
00000100: 2704 053e 0f2a 893d 00d2 1e3a ab31 9abd
00000110: 8ece d43c 7b68 cc3d d8c1 ba3d fe7b b53d
00000120: 92a9 033e 409e ba3d 9c0d fc3d de00 bf3d
00000130: 49a0 2cbc 5814 963d dfef b93d 601c b2bd
00000140: daf8 6a3a d496 873d 6af7 f2bd 965d a23d
00000150: 2c80 ce3d f97a 543d 7eff bfbd 60b3 0b3d
00000160: fe9d 87bb 696d d53d 9425 b03d 6aa1 86bd
00000170: 5245 1d3e 7e64 b23c 11fb a9bb e4f7 173d
00000180: 84cb 783d 92e0 c7bd 3803 c8bd a434 43bd
00000190: 59c8 013e a8b6 59bd 1c29 a1bd 9e8f bebd
000001a0: df07 fdbc 818d 90bd 9e1a a73d ff65 f63c
000001b0: 7c3c 333d 7140 ba3d 58ca d6bd 2251 e63d
000001c0: aac7 b23d 9e22 bb3d 88ea cd3c 073c 24bd
000001d0: e835 493d a89b 083e 4ddb 94bd 831e 93bd
000001e0: 886c 06be 9394 e63d 0c6a 413d f63e 9bbd
000001f0: e271 c4bd d50d 8dbd 9f9c 913d 6ac2 cf3d
00000200: cbfe e5bc 41ce 8a3d cadb b0bd 649d dd3d
00000210: ce1f 13bd dfd3 debc 3024 2b3c 28f6 11bd
00000220: 00fd 3a3d dbcb fb3d 5caf 92bd 862a ab3c
00000230: ffea 433c ec20 7b3d 330a 433d 1005 80bd
00000240: e7bb ee3c 542f 3ebd 9299 dabc 73e5 033e
00000250: ed9e 043e a97f 4cbc 43a0 93bd c583 2b3d
00000260: 201c 99bd e32c 3cbd f6bc be3d 7b30 da3d
00000270: 8414 9f3d 2ae5 283e a436 f43d 7083 4b3d
00000280: d0d0 bebd 1358 6c3c a488 57bd 060d d9bd
00000290: c921 b73b 2481 8a3d fb70 893d e237 7e3a
000002a0: 26d7 013d c1a5 483d 622f 34bd a2a3 933d
000002b0: 36c7 b3bd fb4f e9bd 0600 223d 7f8c c93d
000002c0: e7e6 13bd 0785 a23d 73b9 51bc 7528 89bd
000002d0: 7c71 923d 18a4 393d a400 8d3c 9b67 03be
000002e0: 1044 503d ef06 a73d 3511 51bd 00c6 5d3d
000002f0: e134 883d 287e 28bd 6e28 a1bd ed8b d93c
00000300: 5d03 debd 60ca ea3b 7d0b b33d 50a4 61bd
00000310: 201b ac3d abdc 7f3d 2e22 c23d e852 853c
00000320: b335 b03d 65ff 353d 8ffe 003e a1f7 213c
00000330: 7861 e2bc f801 283d 90bf d1bd da6e 01bd
00000340: 30d3 c2bd 9630 c33d 3fcd 343d fd58 dd3d
00000350: 2f2e 023e d6c3 9f3d 3d4f f8bd f5a6 583c
00000360: b0f0 82bd 0266 013c 676a 06bd 9846 8cbc
00000370: 363c 783d db1f 713d 2535 d2bd d681 c9bd
00000380: 4857 dd3c 61a4 6b3d b6b5 cf3d 9c5f d53d
00000390: f9eb 643d 766d eebd 500e 23bd f844 c0bd
000003a0: 426b 21bc 5d05 ee3d 1d89 843c 78f7 263d
000003b0: 5006 a5bd 12a7 ce3d 89dd 563c 3d30 f13b
000003c0: e49f 58bd 2dc0 e53d e032 e1bc 3277 d23c
000003d0: 4c12 abbd ffb9 b03d 0c7a d03b 0cab af3d
000003e0: b608 d73d 9704 1bbd 001c 98bd e80c 4d3d
000003f0: 02ec 083e 2338 cbbd 9666 c1bc 5f6f 86bb
0.115175046 -0.07367706 -0.043292 -0.060845852 -0.051020984 0.08928293 0.081224054 0.012316301
0.11115639 0.010105579 0.14228065 0.07196045 0.029424623 0.04517959 0.107174404 0.08270748
-0.014573446 0.041063756 -0.092751734 0.09373872 -0.005257451 -0.030999277 -0.06393227 0.09727174
-0.10599106 0.09701406 0.022198897 -0.10756868 0.110388 0.09866395 0.026965661 0.034636185
0.07095641 0.05793596 0.060872853 0.06486812 -0.050316196 -0.029356495 -0.018247446 0.044026166
0.007434245 -0.107783854 0.13825822 0.042082865 0.017554268 -0.06251043 0.03751122 0.0689605
0.1022968 0.077932246 -0.0070331884 -0.110286966 -0.07615134 0.015282065 -0.08789506 -0.00044347646
0.084111586 0.04025807 -0.086473845 -0.090214506 0.038719293 -0.07632134 -0.08130304 0.058639083
0.12989865 0.06697475 0.0006058514 -0.07529005 0.0259774 0.099808656 0.09119004 0.0886154
0.12857655 0.09112215 0.12307283 0.09326337 -0.010536262 0.07328099 0.09078955 -0.08696818
0.00089634734 0.06620565 -0.11863597 0.07928006 0.100830406 0.05187509 -0.09374903 0.034106612
-0.004138707 0.10421259 0.086009175 -0.06573756 0.15358475 0.021776434 -0.0051874 0.03710164
0.060740963 -0.0975963 -0.09766239 -0.047657624 0.12674083 -0.05315271 -0.07869169 -0.093047366
-0.030887542 -0.0705824 0.08159374 0.030077932 0.043758854 0.090943225 -0.10487813 0.112459436
0.08729489 0.09137462 0.025136247 -0.04009631 0.049123675 0.13340628 -0.07268391 -0.07183554
-0.13127339 0.11258807 0.047220275 -0.07580368 -0.09592034 -0.06887404 0.07109951 0.101445034
-0.028075596 0.06777621 -0.086356714 0.108210355 -0.035919003 -0.027200637 0.0104456395 -0.035635144
0.045651436 0.12294742 -0.071623534 0.0208943 0.011957883 0.061310694 0.04761715 -0.062509656
0.029142333 -0.046431854 -0.026684556 0.12880497 0.1295125 -0.012481608 -0.07208302 0.041873712
-0.074760675 -0.045941245 0.09313385 0.10653778 0.07767585 0.16493669 0.11924484 0.049685895
-0.093171716 0.014425295 -0.052620545 -0.10598187 0.0055887443 0.06762913 0.067110024 0.0009697658
0.031699322 0.0489862 -0.0439905 0.07208945 -0.08778231 -0.11392208 0.039550804 0.09841251
-0.036108878 0.07935529 -0.012800562 -0.0669717 0.07150552 0.045322508 0.01721222 -0.12832491
0.05084616 0.08155619 -0.0510418 0.054143906 0.06650711 -0.041135937 -0.078690395 0.02655598
-0.10840485 0.0071652383 0.087424256 -0.05508834 0.08403611 0.062466305 0.094791755 0.016274884
0.08603992 0.044433016 0.12597106 0.0098856995 -0.027634367 0.041017503 -0.10241616 -0.031599857
-0.09512937 0.095307514 0.04414105 0.10807989 0.1271293 0.078010246 -0.121244885 0.013223399
-0.06393564 0.007897856 -0.032816317 -0.017123505 0.060604297 0.05886827 -0.10264043 -0.09839217
0.027019158 0.05752981 0.101420805 0.10418627 0.055889104 -0.11641972 -0.03980857 -0.09388155
-0.009852232 0.11622117 0.016178662 0.04076335 -0.08057845 0.1009046 0.013114342 0.007360487
-0.05288686 0.11218295 -0.02749008 0.025691602 -0.08353099 0.08629226 0.0063622054 0.085775465
0.10499708 -0.037846174 -0.074272156 0.050061136 0.1337128 -0.099228166 -0.023608487 -0.004102632

fc2.bias f4 [5]
00000000: 0a94 90bd 42fc 01bd 9027 6b3c 336a acbd
00000010: 9a63 ccbd
-0.07059486 -0.031734712 0.014352694 -0.084186934 -0.09979935
