SimpleQMIX_everything_varying_blox_gamma0.95_lr0.0001_hidden64_target10/agent1_10.pth (torch, 745108 bytes, 10 tensors)

c1.weight f4 [32, 8, 3, 3]
00000000: a64b ac3d b8e1 913d 6526 9dbd dd3c 0c3d
00000010: 420b b2bb 5984 a1bc cc10 813c 01e6 ba3d
00000020: 0e35 84bd 1392 2c3e cea6 153e 631e 553e
00000030: 440c 83be e6f9 fabd c8fb f43d a176 b2be
00000040: 674f f63d 0ced cd3d 4d4d bbbd d03f dfbc
00000050: 33b6 b93d bd55 b63d 9522 863d de6a a0bd
00000060: 9b4e 943d c0d4 d6bb 65fc df3d 0efb 5ebd
00000070: e709 9f3d 77e2 e2bd 832b 803d 2869 403c
00000080: 1876 aebd de5c 18bd 983c 3ebd a83b 493c
00000090: de4f afbc 4241 e13d b177 8abc 54d8 bb3d
000000a0: cf8e d53a e33f 73bc b33c c7bb fb0f d53d
000000b0: 6368 683d f0aa ad3d b54f 6ebe c7e4 eebe
000000c0: ad0b 893d 444f 56be 33ca d23b f558 b43d
000000d0: 72de 89bd f0b4 0dbd 183c adbc 9c40 92bd
000000e0: 48e6 87bc b008 1ebd f7ab 46bd 7729 253e
000000f0: 40ab 4f3d 998d 163a f12d 7b3c 89d7 32bd
00000100: f110 963d d37e 173d 6e3f bebc 1012 fdbc
00000110: 1c19 c7bd 116f 18bd 208c b73c 579d 01bb
00000120: 081d e4bc 5348 403d 2d0b c43d 199e 133d
00000130: fd36 053d b0fc 93bd 95f4 2bbd c626 1f3d
00000140: 2346 7e3d d71e c53c b5a0 9f3d 42cb ac3b
00000150: 13b4 8c3d d76d 91be ec7c 343d ee89 893d
00000160: 8dd1 89bd aff2 2b3b fee8 adbd 7ad6 c1bd
00000170: 92e5 233d dc0a cbbc e2c0 6d3d e118 ab3d
00000180: 00af a33b 0b61 a0bd 8c57 e1bc 3e31 4f3d
00000190: 1966 93bd 0c2d d0bd 6fa4 d13d 7cfb 9d3c
000001a0: 1d1c c53d beee 60bd a097 a5bd 99c5 903d
000001b0: 61fb 703d 5898 65bd 03b2 91bd 2e2b 5bbe
000001c0: a17d 62be 8527 373d 7025 93be 201f 303c
000001d0: ac0c 1fbe 18d5 04bd 5d21 03bd 95de cbbd
000001e0: 7b43 0fbd 647d c5bc 64a1 863d df56 533d
000001f0: 0c49 5fba 82d6 e13d a128 a43d 388d e3bd
00000200: f985 b73d b0f7 3d3d 94a3 523d 18b1 313d
00000210: 083a 46bd faa7 d33b 648a 94bc fd73 38be
00000220: 997b 583d 8e89 ad3d 164f 1cbd b722 5fbd
00000230: 1896 9bbd 59be 68bb a5ef 85bb 6bd6 0abd
00000240: e0e9 2bbc e709 1f3d 6378 05be 95ac 8f3d
00000250: 02d3 2ebd d812 e4bd 9fb5 6d3d c35e 933d
00000260: 5670 ae3d 6d73 023e b483 0b3e 3a9b 473e
00000270: 34fc e33d 768a d03d 6f71 c83d 9100 bebd
00000280: fe58 e7bc 6c79 a43d 6dd3 b5bd c81d 09bd
00000290: e8d9 dfbd 9587 b93d 583c a9bc 0c88 a03c
000002a0: 50ca f7bb 6ab9 753d ec19 c43c cd48 8a3d
000002b0: 95d4 d83d eaee 0a3d 0281 82bd d067 18bd
000002c0: 5b8e da3d 488e 0cbd 708d db3b f8c4 5dbd
000002d0: e43c d43d e073 243d 65cf 593d 5537 ed3c
000002e0: 8a5d a23c 12b5 d73c 91a6 153d 0e2c 223e
000002f0: 5634 a93d 113e d7bc 0820 10be dbce a2bd
00000300: 671b 4bbd 9644 39bd 5dca 69be 5f1c 07bd
00000310: 8e56 b9bd f0d9 83bd ad3e ac3d 6e67 063d
00000320: 3589 3b3d 4b58 843d cb8c a3bd bbf7 f2bd
00000330: 114b fd3c 5708 b1bc 8583 953d 0c00 993d
00000340: 08cd 143e efb6 d13d 4c22 9cbd 1729 de3d
00000350: 066d 0b3e ce22 0b3e 9778 03be ff4f 4bbc
00000360: 3794 e2bd 1372 e73d f4ee 813d b8be e13c
00000370: 5815 95bd 2fa5 e0bd ebda e53d f80a 7fbd
00000380: 0135 3abd ab55 8cbb 4134 a5bd 0b2a 133c
00000390: d0eb 41bd 3465 47bd 1f97 c7bb dca5 3ebd
000003a0: 0099 dfbc d3c1 02be 8395 cc3d ec72 cabd
000003b0: 8fde 963d 29ba edbd 8082 403b 1642 1f3d
000003c0: f6f7 163d 334e de3d 05f9 803d 404d 9f3a
000003d0: 8b95 efbd 0cd6 8abc 6d3a d1bd a40d 1fbd
000003e0: e2fc b0bd ccf5 3ebd d03a ddbd 4038 9b3b
000003f0: c583 46bd 0679 de3b 27ac d4ba ab90 9a3d
0.08412866 0.071231306 -0.07673339 0.03423773 -0.005433471 -0.019716429 0.01575508 0.09125901
-0.06455432 0.16852598 0.14614412 0.20812373 -0.25595295 -0.122546956 0.11962086 -0.34856132
0.120268635 0.10054979 -0.09145603 -0.027252108 0.09067955 0.08903072 0.06549565 -0.07832883
0.07241555 -0.0065561235 0.10936812 -0.054438643 0.077655606 -0.11078351 0.06258299 0.011743821
-0.08518618 -0.03719794 -0.046444505 0.01228229 -0.021400388 0.10998775 -0.016902776 0.09172121
0.0016293171 -0.014846775 -0.006080234 0.10403439 0.056740176 0.08479869 -0.23272593 -0.46658918
0.0669168 -0.20928675 0.0064327954 0.0880603 -0.06731881 -0.034596384 -0.021146819 -0.071412295
-0.016589299 -0.038582504 -0.048503842 0.16129099 0.050700426 0.00057431456 0.0153307775 -0.04366258
0.0732745 0.036986183 -0.023223605 -0.030892402 -0.09721586 -0.037215296 0.022405684 -0.001977762
-0.027845874 0.046943974 0.09572444 0.036039446 0.032523144 -0.07225931 -0.0419813 0.038855337
0.062078606 0.024062557 0.07794324 0.0052732537 0.06870284 -0.28404114 0.044064447 0.06715761
-0.06729422 0.002623718 -0.08491705 -0.09464736 0.040013857 -0.024785452 0.058045276 0.08354355
0.004995227 -0.078310095 -0.027507566 0.05058407 -0.07197208 -0.10164842 0.10236441 0.019284956
0.09624503 -0.054915182 -0.08085561 0.07068939 0.058833484 -0.05605349 -0.07114031 -0.2140319
-0.22118236 0.044715423 -0.287395 0.010749608 -0.15532178 -0.032429785 -0.03201424 -0.099545635
-0.034976464 -0.024107642 0.065737516 0.05159652 -0.000851766 0.11027242 0.08015562 -0.1111092
0.089611 0.04637879 0.05142553 0.04338178 -0.048395187 0.0064592334 -0.018132396 -0.18012996
0.052852247 0.08473502 -0.03816136 -0.054476466 -0.075969875 -0.0035513847 -0.0040874057 -0.03389589
-0.010492772 0.038827803 -0.13034205 0.07015339 -0.0426817 -0.11136407 0.058034535 0.07195809
0.0851752 0.12739344 0.1362446 0.19492808 0.11132088 0.10182659 0.09787261 -0.09277452
-0.028240677 0.08030972 -0.08878217 -0.033475667 -0.10930234 0.09059063 -0.020658657 0.019596122
-0.0075619593 0.059991278 0.023938142 0.06752167 0.10587422 0.033919252 -0.063722625 -0.03720838
0.106716834 -0.034315377 0.0067002103 -0.054142922 0.103631765 0.04014957 0.053176302 0.028957048
0.019819994 0.026331458 0.036535803 0.15837118 0.082619354 -0.026274713 -0.14074719 -0.07949611
-0.04958668 -0.045231424 -0.22831102 -0.03298604 -0.09049712 -0.06438053 0.08410392 0.032813482
0.045785148 0.06462153 -0.079858385 -0.11863657 0.030919584 -0.021610422 0.07300476 0.07470712
0.14531338 0.1023997 -0.07623729 0.10847681 0.13615808 0.13587496 -0.1283897 -0.012409209
-0.11063426 0.11301055 0.06344405 0.027556762 -0.072794616 -0.10969006 0.11223396 -0.06226632
-0.045460705 -0.0042826734 -0.08066607 0.008982192 -0.04734403 -0.0486805 -0.006091013 -0.046544895
-0.027294636 -0.1276925 0.099894546 -0.09885201 0.073666684 -0.11607773 0.002937466 0.038881384
0.036857568 0.10854759 0.06297497 0.001215376 -0.11698445 -0.016947769 -0.10216222 -0.038831368
-0.086419836 -0.04662113 -0.10802233 0.00473693 -0.04846551 0.0067893295 -0.0016225622 0.075471245

c1.bias f4 [32]
00000000: 4276 afbd 3fac cfbd 9ba7 bebd c72c 823d
00000010: b2f3 eb3c a784 70bd 98c8 3b3c 4cef acbd
00000020: 37b2 6b3d e4f0 c63d c880 50bd 56ed c6bd
00000030: 8392 2bbc 44c0 3bbd b4f0 d1bd 63d4 573d
00000040: f719 d6bd 59fd dcbc ef25 88bd ad38 e6bd
00000050: 6e75 e2bd ed0d a8bc c43f f1bc ba7d a5bd
00000060: af49 70bd dab1 523d b68a 80bd 4a2f 7dbc
00000070: 552b a63d cc90 7b3d ea30 edbc 8898 59bd
-0.08567478 -0.10140275 -0.09309312 0.06356197 0.028802726 -0.058720257 0.0114613995 -0.0844408
0.057543006 0.09713915 -0.050904065 -0.09713237 -0.010471943 -0.045837656 -0.102509886 0.052692782
-0.10454171 -0.026976274 -0.0664786 -0.11241279 -0.11057554 -0.020514453 -0.029449351 -0.08080621
-0.05866402 0.051439144 -0.06276457 -0.015453169 0.08113734 0.061417386 -0.028953988 -0.05312398

c2.weight f4 [64, 32, 3, 3]
00000000: d729 2cbd 6fc2 8fbc fe15 843d 99e4 503d
00000010: c80a 2dbc 6a6e 7d3d b25d 033d 79ab 703d
00000020: 4138 e33d bfe2 673d 817e 523d b049 a83d
00000030: 0166 a63d 03bf 813d a28f e1bc a8b6 d93d
00000040: 93ad 713b 5e93 443d 1528 883d 52b8 ac3d
00000050: 007b b13d 3077 713d c193 193d 2a04 a13d
00000060: 8117 6f3d 6e42 e43c e560 0b3d e050 a9bd
00000070: 35e0 64bb 084c 11bd c012 c9b8 be7c a73c
00000080: 2a36 d1bd a588 aabd 4cdb c7bd 2626 8dbd
00000090: a64f 963d efce e73d 3184 ddbc e69c 103d
000000a0: 0464 12bd 6453 81bd d0f0 a33c 7b3b dabb
000000b0: 7592 3e3c 4ace 173d 700f 113d 7b9b 9a3d
000000c0: 1a31 a23d 1f36 e2bb 6e35 813b c60b 843d
000000d0: b940 58bc c860 0c3d d954 edbb 1ab5 2ebd
000000e0: 76ed fbbd 2d71 a3bd 3adc f73c 2eab c9bd
000000f0: 1f77 8cbd 9abe ffbd 9377 f5bd 88b8 d73c
00000100: 2c3b 393d a40c d23d ddf9 6a3c 9e19 f2bc
00000110: e812 b2bc c12b abbb e7f4 193d 97c1 8b3d
00000120: 6b4d e43d cec0 8d3d 8c11 d83b 2ed2 4c3d
00000130: ab79 003d 485a 9ebb 8750 6e3d c5d9 4a3c
00000140: 8347 76bd 35a5 8d3d 2621 c23a e761 fcbc
00000150: 48fa 1fbc 1fd6 5c3c 24ac 30bd 45fb 91bc
00000160: f45b 99bd ce2e d3bc 12dd 4c3d 490d c03c
00000170: 98d6 df3b 91cd 873d 735f b03d ba79 db3b
00000180: 53e3 0a3d d804 8abd 3dd3 433d 319a 86bb
00000190: f0fd c4bc b000 693d 8ac8 88bd 9b11 ebbc
000001a0: b527 97bd f064 e03d ecba 1a3d aefb 993d
000001b0: 3000 0cbb 49a7 583d 69c3 4f3d d0be c03c
000001c0: a00e 5c3d 2e58 82bd 63c9 aa3c 8c46 4e3d
000001d0: 134d c4bc 8120 9d3c 1151 9dbd 04bb 6abc
000001e0: 478b 86bd 7a7b e0bd 66e5 e4bd 10ca 24bb
000001f0: 015c e4bd fdae 3cbd 0e36 7c3d 2eaf 2a3d
00000200: 2cb1 94bb 6d23 19bd 30fb 1fbd 1c5e 6f3d
00000210: 76e2 a7bc 3728 383d e97b d93b c23d aabd
00000220: 8bf5 4abb 29d4 0c3d 1a57 08be a6e2 89bd
00000230: 8788 bdbd 87be 12be fc62 7fbd b954 8fbd
00000240: 07d8 1bbe 8c5c b6bd 5710 35bd 2765 65be
00000250: 6303 60be 6b17 3dbe d170 5abe eced b6bd
00000260: b7d6 3abe e14b 7dbd 3953 743c 3b07 4dbc
00000270: ac8a 15bd 5382 fe3b bf37 ccbc 8fbe 43bb
00000280: c539 86bd 114b a1bd b6fd 4bbc 907c 41bc
00000290: 359d fe3a b60a 86bc 6717 f0bc c785 a7bc
000002a0: f6d3 2ebc f792 be3b 936b 2f3b 7f78 93bc
000002b0: e635 acbc 7d91 4b3d 80e3 babb 233d 483c
000002c0: 21e1 b73c d7e6 68bd c6f9 b7bd 016b 30bd
000002d0: 20c6 cdbc 58e2 c1bd 2ac3 bcbd 1404 2a3d
000002e0: a25d 4b3d 3975 6a3d 7a0e 41bc 3054 153b
000002f0: 5271 11bd 63ff e4bc 2ba3 8fbb 7107 3abd
00000300: 06a6 3abc 762e 543d b4b7 41bd bb3e ea3a
00000310: b7f5 90bd 39f1 523d f442 5d3c d2a0 e5bc
00000320: 527c 8dbc 4367 dd3c b4e9 183d cbba 733d
00000330: b1f3 ce3d c4c7 d83d 7108 9d3b 79f6 3d3d
00000340: c349 abbb 171c b63d 4b1d b83d 9a83 343d
00000350: e22a b83d a1c2 cb3d ff46 9f3d 103d 943d
00000360: 7f2a 6abe b4d9 36be 668c 7bbe abd0 803c
00000370: 751f bcbd d1af 84bd 01ae 3bbd de83 d2bc
00000380: e124 1dbe c9c6 acbd 634f 023c 4f98 2f3c
00000390: 481f d4bd 5a50 83bc 3b07 dc3d 4a41 05be
000003a0: 6140 a93a b663 e6bb eff9 69bd 0e35 45bd
000003b0: e401 2ebc 0fb0 a83d ead2 4a3d 9e4e 553d
000003c0: 5ee1 3c3d ed34 0abc 1b23 bbbd 259c 34ba
000003d0: 9e9c 953d d7c1 503c f7a1 0b3e 4092 bb3d
000003e0: d4b0 123e 4b2c 303d ec70 e53d 6738 d73c
000003f0: 903e 033e 3fd1 973c 6e40 5bbd 569b ae3d
-0.04203209 -0.017548768 0.06449507 0.050999258 -0.0105616525 0.061872877 0.032071777 0.05875728
0.11094714 0.056612726 0.051390175 0.0821718 0.081249245 0.06335261 -0.02753431 0.10630542
0.003687714 0.047992103 0.0664827 0.08433594 0.086660385 0.058951557 0.037494425 0.07862122
0.058372024 0.027863707 0.034027953 -0.08267379 -0.0034923677 -0.0354729 -9.587919e-05 0.020445224
-0.10215409 -0.08326844 -0.097586244 -0.06892042 0.073394105 0.11318766 -0.027040573 0.03530588
-0.035739914 -0.063147336 0.02001229 -0.0066599227 0.011631598 0.037061967 0.035415113 0.07549187
0.07919522 -0.0069034244 0.003943137 0.06447558 -0.013199025 0.034271985 -0.0072427806 -0.04265318
-0.123011515 -0.07980571 0.03025638 -0.09847103 -0.06858658 -0.12487526 -0.119856976 0.026333109
0.045222446 0.10256317 0.014341799 -0.02955323 -0.02173753 -0.0052237217 0.037587073 0.06824034
0.11147579 0.0692154 0.0065938886 0.05000513 0.03136603 -0.0048325397 0.058182266 0.012381022
-0.060126793 0.06916276 0.0014810904 -0.030808402 -0.009764262 0.013478785 -0.043132916 -0.01782001
-0.07488242 -0.025779154 0.050015517 0.023443835 0.0068310015 0.066310056 0.086119555 0.0066978605
0.0339082 -0.06739205 0.047808874 -0.0041077365 -0.024046868 0.05688542 -0.06678875 -0.028694918
-0.073806204 0.10956752 0.03777592 0.07518707 -0.0021362416 0.05289391 0.050723467 0.023528486
0.053724885 -0.06364475 0.020847982 0.050360247 -0.023962533 0.019180538 -0.07681478 -0.014326815
-0.06569534 -0.10961051 -0.11176567 -0.0025144853 -0.11150361 -0.04606532 0.061574988 0.04167097
-0.004537722 -0.0373873 -0.03905791 0.05843936 -0.020493727 0.044960227 0.0066370857 -0.083125606
-0.003096911 0.03438202 -0.13314477 -0.06732683 -0.09254556 -0.14330493 -0.06235026 -0.069985814
-0.15219127 -0.08904371 -0.044205036 -0.22401868 -0.21876292 -0.18465964 -0.21332099 -0.08932099
-0.1824597 -0.061839942 0.01491242 -0.012513931 -0.0365092 0.0077670007 -0.024928926 -0.002986822
-0.065539874 -0.07875646 -0.012450626 -0.011809483 0.0019425513 -0.01636253 -0.029308034 -0.020449532
-0.010670653 0.0058158594 0.0026767 -0.018001793 -0.021021795 0.049699295 -0.0057033896 0.012221607
0.022446217 -0.05686077 -0.089831874 -0.043070797 -0.025118887 -0.09467 -0.09216912 0.041507795
0.049649842 0.0572407 -0.011783237 0.0022785775 -0.03550846 -0.02795381 -0.004383465 -0.045417253
-0.011392122 0.05180212 -0.047294334 0.0017871478 -0.070781164 0.05149958 0.013504732 -0.028030787
-0.017271195 0.027026778 0.03733225 0.05950431 0.10105074 0.10584977 0.004792266 0.046377633
-0.005227299 0.088920765 0.08989962 0.044070818 0.08992554 0.09949232 0.07777213 0.07238209
-0.22867773 -0.17856485 -0.24565277 0.0157245 -0.091856875 -0.06478847 -0.04582024 -0.025697645
-0.153461 -0.08436353 0.007953498 0.010717466 -0.10357529 -0.016029526 0.107435666 -0.13013187
0.0012912863 -0.0070309294 -0.05712312 -0.0481463 -0.010620568 0.082367055 0.04951755 0.05207693
0.046113364 -0.00843547 -0.09137555 -0.00068897224 0.07305263 0.0127415275 0.13636003 0.09158754
0.14325267 0.04301099 0.11203179 0.026272012 0.12816834 0.018532394 -0.05352824 0.08525722

c2.bias f4 [64]
00000000: f3a8 063e 9d70 33bd 62c4 9bbd 6b4f 133d
00000010: d6aa 74bd 9070 803d 3d6f 9b3c 6d9b 373d
00000020: ceba 63bd 5145 a4bd b298 3e3d 80c8 1e3d
00000030: 2cdc 9abd 01c3 343d 74a7 d43c cfb1 d5bc
00000040: af9c 1cbc cbd4 283b 1ced 7dbd 7a37 c63c
00000050: a6c2 9e3d eac8 013e 3368 48bd 4deb b4bd
00000060: a08a 1d3d a643 71bd 242d 213c 835b b4bc
00000070: 0498 1d3d effd e8bc 9267 0d3c 6acd 90bd
00000080: b6dd 143c 6d51 6dbd bad1 9e3c 6b51 90bd
00000090: a639 80bb 60fe bfbd 1e14 29bd 3535 5f3d
000000a0: b72d 49ba e0fd 9a3d 5321 9ebd 45bf ea3b
000000b0: 3811 be3c 06d5 b73d 75a3 1c3c def4 7a3c
000000c0: d03c 923d eb27 903b 723a b9bc ad41 8dbd
000000d0: 6582 72bd bad7 6cbd fe25 afbd bcec 9cbd
000000e0: d63d 863d be85 9c3c 708b 753d 0b37 94b9
000000f0: 83fa 45bd a1ba ac3c e7f4 10bd 982a c73c
0.13150387 -0.04380857 -0.076058164 0.03596441 -0.059733234 0.062714696 0.018973941 0.04482596
-0.055598073 -0.080210336 0.04653234 0.03876543 -0.07561526 0.044131283 0.025958754 -0.026085762
-0.009558841 0.00257616 -0.061993703 0.024196375 0.0775197 0.12674299 -0.048927497 -0.088339426
0.03846228 -0.058902405 0.0098374225 -0.022016292 0.03847505 -0.028441397 0.00863065 -0.070704296
0.009086063 -0.05793898 0.019387115 -0.07046779 -0.003913122 -0.0937469 -0.04127895 0.0544941
-0.00076743535 0.07567954 -0.077212 0.0071639144 0.02320157 0.08976178 0.009560456 0.01531717
0.07140505 0.00439929 -0.022610877 -0.06897292 -0.059206385 -0.05782292 -0.08552168 -0.07662341
0.06554763 0.019106742 0.05994743 -0.0002826977 -0.04833461 0.021085085 -0.035389807 0.024312302

c3.weight f4 [256, 64, 3, 3]
00000000: 15e6 29bd f85a 3f3c 34e6 df3c 2669 7fbd
00000010: f531 25bd 9c53 d1bc ef77 f83b c337 953b
00000020: c46b 6ebd e59f 4f3e f34e 213e 01df 563e
00000030: 34f5 4f3e cd2e 453e 5a0b 3d3e 00c3 4b3e
00000040: 51a5 163e d646 4e3e 6854 1e3e 5646 2b3e
00000050: f5b5 273e ad9b f43d 7b44 273e f1c2 0b3e
00000060: 8f83 fa3d 94c5 1c3e 727a f13d 3597 37bd
00000070: 5e4e 81bd 614a c03b f047 bebc a258 98bc
00000080: 3204 4dbc e224 a3bc b166 30bd 4448 9fbd
00000090: f715 283e 5f8b 2d3e 9e59 063e 516c 163e
000000a0: 0c32 e13d 30c8 f83d 617e 143e e816 083e
000000b0: e9e7 2d3e 4106 303c e482 293c aeb7 d4bc
000000c0: 0a8a 7fbc da57 0cbd a6ac 79bd 6f1e 35bc
000000d0: efdd 5dbd 83a6 0dbd fb6f 8cbd 9b8d 94bc
000000e0: 2a1d 79bd 9710 a7bc 8623 c4bd 9350 61bd
000000f0: 71c8 8bbd 129c 69bd 78da 5bbd 3db0 c9bc
00000100: e949 7abb a565 853c 3113 5fbc bc0e 83bd
00000110: f45f 17bd fe1f 9fba 7c36 48bc ed1c 94bc
00000120: d043 5a3c 4cb0 d53c fd9c 883d 530a a33d
00000130: a0ab 693d 7018 e93c 9da1 823d 55d3 8b3d
00000140: 347e 643d 0d0f 283e 0f4e db3d ec19 e53d
00000150: 2d91 023e de26 213e 8535 f83d 60a5 bd3d
00000160: 27b8 f33d 46e3 283e e99e bb3c 4c6e 1d3c
00000170: 1f83 103d ac9f 203d 9667 ea3b 60ae ddbc
00000180: 12a8 91bc f848 203d 27fd aebc f032 e8bd
00000190: d268 4cbd ce3e eebd c441 1dbd c7e3 91bd
000001a0: 7643 5fbd bdbd 81bd 4f16 c7bc 826d 87bd
000001b0: c7c0 203e 4d72 e73d 0c31 f93d d3b6 0b3e
000001c0: 7a05 163e b6ce df3d ed88 dd3d e13a 263e
000001d0: 9e47 cd3d 9539 a0bc b586 323b 70f0 70bc
000001e0: c14f 493d 1fbf 043d 4576 b03c ea88 8b3c
000001f0: f631 5d3d 3130 063d e7ac 01bd 90ce 22bc
00000200: 829e 75bc b41e 3bbd 73ea 3abd c152 36bd
00000210: d395 b0ba 7cc4 87bd 55d9 a73b 3c7b fa3d
00000220: 20ac 1c3e 2af5 153e ae8a 443e 39ef 113e
00000230: 6131 493e 95c4 313e 9df2 203e 829c 4c3e
00000240: c808 3a3c 559a 17bb c02c bdbc 9eed 30bd
00000250: 87a6 1bbd d748 0dbd 4db3 87bd 66ff 283c
00000260: 3860 82bd f72e 28bd d89e 65bc 8c7f 26bd
00000270: e6fc dabb f936 29bc 39ef 1e3b f35e 87bd
00000280: ebc0 1bbd 7368 273c a1f4 1e3e c50d 3f3e
00000290: 81e9 193e 6583 343e 50dd 083e d017 1f3e
000002a0: a493 183e 21bf 1c3e e196 1d3e 50dc 183e
000002b0: 10d2 fc3d 6ddf f73d 8788 2f3e a1d3 1c3e
000002c0: c8c7 0b3e 62c1 f53d cbe3 363e 65c8 1a3e
000002d0: 922f e6bd ebf1 12be 187b 18be 3ce3 c7bd
000002e0: 70b3 e6bd 8d4b 1bbe d135 56bd 27da 8cbd
000002f0: d943 cabd 072d 643c 7403 c5bc c113 09bd
00000300: 392e 5fbd e25d b23c ec41 eebc 54cb 463c
00000310: b1ea 19bd 56b0 77bc 9685 323e 481e 423e
00000320: 5ea2 3c3e 9f76 5f3e e053 523e d310 143e
00000330: 4438 323e eba7 0c3e 603f 273e 4e16 eb3d
00000340: b0f9 3a3e 2947 0d3e 16fd d33d 47ae 223e
00000350: eda9 043e 0e49 233e 2d3d c13d 89ee 263e
00000360: 80db 4a3c 5509 703c dbec bdbc 5022 51bd
00000370: 217e eabc 745b 5dbd e069 f3bc 6823 47ba
00000380: 2434 3bbd a905 c33d 8bea 0f3e e02b 163e
00000390: 1648 f23d 32e8 023e 0d6e fe3d b35b 9f3d
000003a0: 4484 133e 75a7 db3d 449d 9f3c 0cd1 643c
000003b0: 5a90 13bd 220b 36bd 702b 4abd 4da2 26bd
000003c0: 602a 82bd 2fce 05bd 7122 67bd 6ab3 31bc
000003d0: f9d4 52bd b524 a0bb 0050 403c 4730 4ebc
000003e0: f367 3ebc 4722 c9bc b1f8 0abd 7f61 5cbd
000003f0: 3860 ff3d 9226 053e e906 9a3d b535 593d
-0.04147919 0.0116794035 0.02733145 -0.062356137 -0.040330846 -0.025552563 0.0075826566 0.0045537665
-0.058208242 0.20275839 0.15752773 0.20983507 0.20308381 0.19256134 0.18461362 0.19898605
0.147115 0.2014421 0.15461886 0.1672605 0.16378005 0.11943755 0.16334717 0.13648583
0.12232124 0.15309745 0.11790933 -0.044821937 -0.063137755 0.0058682417 -0.023227662 -0.01859695
-0.012513207 -0.019915048 -0.043066684 -0.077774554 0.16414629 0.16947697 0.13120124 0.14689757
0.10995874 0.12147558 0.14501335 0.13289988 0.16982998 0.010743679 0.010346148 -0.025966492
-0.015596876 -0.03426347 -0.060955666 -0.011054619 -0.05416673 -0.034582626 -0.06857296 -0.018133929
-0.06081883 -0.020393653 -0.09577088 -0.055008482 -0.068253405 -0.057033606 -0.053675145 -0.02462017
-0.0038191027 0.01628382 -0.013615415 -0.06399295 -0.036956742 -0.0012140272 -0.012220021 -0.0180802
0.013321832 0.026085041 0.06670568 0.079609536 0.05704844 0.028454036 0.063784815 0.06827418
0.05578442 0.16411991 0.10708248 0.11186585 0.12750693 0.15737483 0.12119583 0.092600584
0.11900359 0.16492948 0.022902923 0.009608816 0.035281297 0.039214775 0.0071534617 -0.027060688
-0.017780337 0.03913209 -0.021360947 -0.113378406 -0.049904652 -0.11633073 -0.038392797 -0.07123523
-0.054507695 -0.06335018 -0.02430263 -0.06612684 0.15698539 0.11301098 0.12167558 0.1364396
0.14650527 0.10928099 0.10817132 0.16233398 0.100234255 -0.019558707 0.0027240936 -0.014705762
0.049148325 0.03240883 0.02154077 0.01703306 0.054002725 0.032760803 -0.031659033 -0.009936944
-0.0149914045 -0.045683578 -0.045633744 -0.044512514 -0.0013472385 -0.06629273 0.0051223435 0.12230536
0.15300035 0.14644304 0.19193527 0.14251412 0.19647743 0.17360146 0.1571755 0.19981578
0.011354633 -0.002313276 -0.023092628 -0.04319536 -0.03800061 -0.034493294 -0.06625996 0.010314798
-0.063660085 -0.041060414 -0.014014922 -0.040648982 -0.00668298 -0.010328048 0.0024251475 -0.06609907
-0.038025778 0.010217774 0.15523006 0.18657596 0.15030481 0.17628248 0.13365674 0.15536427
0.1490007 0.15307285 0.15389587 0.14927793 0.12344754 0.12103162 0.17141925 0.15315105
0.13650429 0.119997755 0.17860334 0.15115507 -0.11239542 -0.14350097 -0.14890707 -0.097601384
-0.11264694 -0.15165539 -0.052297417 -0.06877547 -0.09876222 0.013926751 -0.024049498 -0.033466104
-0.05448744 0.021773282 -0.029084168 0.012133438 -0.037577335 -0.015117725 0.17433771 0.18956864
0.18421313 0.21822594 0.20539808 0.14459543 0.17404276 0.1373593 0.1633277 0.11478864
0.1825931 0.13796677 0.10351007 0.15886794 0.12955447 0.15945837 0.094354965 0.16301931
0.012381434 0.014650662 -0.02318423 -0.051058114 -0.028624596 -0.054042295 -0.029713571 -0.00075965235
-0.045704022 0.09522564 0.14054315 0.14665174 0.118301556 0.12783888 0.12423334 0.07781162
0.14405924 0.10725299 0.01948417 0.013965856 -0.036026336 -0.04444421 -0.04935783 -0.040682126
-0.06355739 -0.032667335 -0.05642933 -0.010845998 -0.051472638 -0.0048871883 0.0117378235 -0.012584752
-0.011621463 -0.024552478 -0.033928577 -0.053803917 0.12469524 0.13002995 0.07520849 0.053029735

c3.bias f4 [256]
00000000: bf01 063d fb2e 053e 700b 2abb 6a27 03bc
00000010: 8166 6abd c04b 23bd c66a 89ba 0b19 7f3d
00000020: a2e1 8a3d 8e74 21bc f17b 303c 61b7 c6bc
00000030: 848b d73c 5239 2cbd 9e40 823c da66 663d
00000040: ea40 a53d 7de0 063d 6430 4f3d 2123 f43b
00000050: 1ee7 e1bd ad4f d13c fc1a 2ebd 3f89 58bd
00000060: 53f1 263e 1255 a73c ff75 a4bc 3ddf 303d
00000070: 4adb d53d 2739 28bd f285 4dbc ee1e 3cbd
00000080: e324 b73d 0a8f 0bbd f57b 823d 9d4e c23d
00000090: 79ed c23d acbb c2bc 553b 113d bc17 b03d
000000a0: f953 8f3c fe97 d23d a2ef eebd 1bf1 583b
000000b0: 4655 6eb9 b7e4 883d 6e16 1c3e 8b4d e23d
000000c0: 7232 5bbd 7835 b83d 4acc a43d 2bf1 8dbc
000000d0: 6c58 1cbd 3a5f 883d b6a9 973d 5d9c 703d
000000e0: 590e 34bc f0eb 813c 0ea2 053e 1f0c 923b
000000f0: 65c5 1b3c 8da8 a5bd e20f e4bc 5a28 ddbc
00000100: 6f08 b03d e2ff 04bd f1fe 113d 44c5 253d
00000110: 56e1 713d 7d69 9d3d c748 1b3d 6226 be3d
00000120: bc64 e73d 5048 253d fff7 40bc 10d1 4c3c
00000130: e119 463d a803 39bd 562f 943d 1c0c 34bd
00000140: 397d e93c 1650 fe3d e4f4 d33d a042 b33d
00000150: 168c e73c 43b1 053d c048 853d 8af7 c73c
00000160: c251 163e 47c7 4d3c 1a8d d23d 01e5 863d
00000170: b7f3 053e 78fa ff3d fe2f af3d ab73 b43d
00000180: 20b7 35bd 8d9e 03bc ccfe f43c 4f83 62bc
00000190: 9915 013e 94a1 8fbd 75dc 4fbd 660c 3fbc
000001a0: 0d0f 833d cd0e 03bd c449 dbbb ae70 3fbc
000001b0: 171b 06bc 7cb6 393c fc63 0a3b 3a51 d73c
000001c0: c495 9dbc 3474 a3bc 69c0 a4bc 5712 dd3d
000001d0: 74e1 173d 3b37 233c 5c11 05bd f6be 56bd
000001e0: 87db 9e3d 67a4 0e3d 3d8b c2bc 3fda c53d
000001f0: e81a d03d 19ea 2abd bc4b 17bd 3581 33bd
00000200: 7c7e 0abd e50c 0ebc 995b 8f3d 03a2 ac3d
00000210: c341 73bd 628d afbc faf7 69bd 7fb3 8c3d
00000220: 785f 18bc ca12 0c3d 67dd 0e3d bf8d 663d
00000230: ecfb 8c3c cef6 e43c 204b 553c 8a88 2b3d
00000240: 7598 84bd cace d23c b858 4abd 0673 1b3d
00000250: 4a1b 683d 39c5 58bc 3d8f 86bd 0850 563d
00000260: 4db9 7cbc a70f 29bd df3c d63a d7b7 603d
00000270: 692b a43c 0f37 9bbb 552c 353d 97b5 003c
00000280: 3791 243d 0a61 f1bc d294 b43d ba99 43bd
00000290: fde9 163e c0b7 163d 9df7 c43c b4f8 cf3c
000002a0: fde7 d3bc cf2f af3d 6d46 113d fca2 a13c
000002b0: 888b 86ba 80d6 1a3d 6f82 333c 22cc 173d
000002c0: 6e56 95bd f644 0e3d 8bda a23a 8e1e a03d
000002d0: dd65 a2bb 253d 50bc 4b5a 213d 6818 bebb
000002e0: 8846 343c ca7b 2dbd 9dde 82bc 03b0 33bd
000002f0: 5390 c2bb 5183 12bd 986c a53d 5a98 b03d
00000300: 6b81 a13d 03c5 4d3c 80a0 a13c 8fcc cdbc
00000310: 1463 3e3d 1db6 583c 4152 3fbd 14a3 083e
00000320: 813b 9d3c 3b19 403c 0fa6 7bbd 3d22 de3d
00000330: 407f 893d 280a c63b 66af b93c 9a98 39bb
00000340: 0a8d 813d e947 213e 9d52 a63d b9bf 23bd
00000350: fdba 5ebc b7ee 74bc b646 293c 195b 37bc
00000360: 4041 c23d 8f72 2c3d 4092 17bd fbed 91bc
00000370: 4af0 c0bb 043a 28bd 3185 bb3d d580 5b3d
00000380: 3a5c a73d 2e6f 573d 7f1f 3fbd 270f 2db9
00000390: 4e55 bc3d 8e09 063d cd2b bd3d 0b80 01bd
000003a0: cd5b 98bc cb5a 863d 49fe 173d 2dc7 103a
000003b0: fba9 703d bb17 45bc 6457 e63b 5539 f5bb
000003c0: 63ef b0bc 5ed0 22bd d23a 053e 3121 b4ba
000003d0: b5c0 c93c bbd2 f6ba 7c5f ddbc c6ab 26bd
000003e0: 83b8 5fbd 76e0 f63d bf43 ad3d e25d 373d
000003f0: 15ef 723d 35de f03c c573 8d39 7aa5 b73d
0.03271651 0.13006203 -0.0025946759 -0.0080050025 -0.05722666 -0.039867163 -0.0010484091 0.062279742
0.06781317 -0.009854449 0.010771737 -0.024257364 0.026311643 -0.042046852 0.015899953 0.05625043
0.08069022 0.032928932 0.05058326 0.0074504768 -0.1103041 0.025550688 -0.042506203 -0.052865263
0.16302995 0.020426307 -0.020075796 0.043181647 0.10442217 -0.04107013 -0.012544142 -0.045927934
0.089425825 -0.03407196 0.06371299 0.094876505 0.095179506 -0.02377113 0.035456974 0.08598277
0.017496096 0.102828965 -0.116668 0.0033102694 -0.00022729216 0.06684249 0.15242931 0.110499464
-0.053514905 0.08994573 0.080467775 -0.017326912 -0.038170263 0.06658788 0.07405417 0.05874287
-0.010989749 0.015859574 0.130501 0.0044570114 0.009507512 -0.08088789 -0.027839605 -0.02699678
0.085953586 -0.03247059 0.03564352 0.04047133 0.059052788 0.07686136 0.037911203 0.09284665
0.112985104 0.040352166 -0.011777877 0.012501016 0.048364524 -0.045169502 0.07235591 -0.04395686
0.028502094 0.12417619 0.103494436 0.08752942 0.02826504 0.032639753 0.065080166 0.024410028
0.14679626 0.012559718 0.10280819 0.06586648 0.13081251 0.12498945 0.08554076 0.088111244
-0.044364095 -0.008033407 0.029906653 -0.013825252 0.12605895 -0.070132405 -0.050747354 -0.011660671
0.06399355 -0.031996537 -0.006692143 -0.01168458 -0.00818517 0.011335012 0.0021116724 0.026283849
-0.019236453 -0.01995287 -0.02011128 0.10794514 0.037080243 0.009961898 -0.03248726 -0.05242821
0.07756715 0.034824755 -0.023748035 0.09660768 0.10161382 -0.04172716 -0.03693746 -0.043824393
-0.03381203 -0.0086700665 0.06999893 0.08429339 -0.059388887 -0.021429721 -0.057121255 0.06870174
-0.009300105 0.034197606 0.034879114 0.056287523 0.01720997 0.027949717 0.0130183995 0.04187826
-0.06474391 0.02573337 -0.049401015 0.03795149 0.05666665 -0.013230615 -0.06570289 0.052322417
-0.0154250385 -0.041274693 0.0016345045 0.054862823 0.02004023 -0.004736788 0.04423173 0.007855794
0.04017755 -0.029465217 0.08817448 -0.047754027 0.14737697 0.03679633 0.024043852 0.025387146
-0.025867457 0.08554041 0.035467554 0.019731037 -0.0010264972 0.03780222 0.010956391 0.03705991
-0.07291876 0.034733735 0.001242475 0.07818328 -0.0049559907 -0.0127098905 0.03939275 -0.0058012493
0.011003144 -0.042354383 -0.01597529 -0.04386903 -0.005937615 -0.035769764 0.08077353 0.08622809
0.07886013 0.012559178 0.019729853 -0.025121955 0.046481207 0.013227013 -0.046709303 0.1334346
0.019193413 0.011724765 -0.061437663 0.10846374 0.06713724 0.006043691 0.022666644 -0.0028319717
0.06325729 0.15750088 0.08121226 -0.039977763 -0.013594386 -0.014949492 0.0103318 -0.011191153
0.09485102 0.04210144 -0.03700471 -0.017813673 -0.0058880197 -0.041070953 0.091562636 0.05358966
0.08171888 0.052596264 -0.046660896 -0.0001650421 0.09195958 0.032723956 0.0923687 -0.031616252
-0.018598462 0.06560286 0.03710774 0.00055228436 0.058755856 -0.012029584 0.0070294607 -0.007483641
-0.021598523 -0.039749496 0.1301072 -0.0013742802 0.024628023 -0.0018831113 -0.02702307 -0.04069116
-0.054619323 0.12054531 0.08460187 0.044767268 0.059310038 0.029402832 0.0002697987 0.08967109

fc1.weight f4 [64, 256]
00000000: 7571 66bc 9bd6 eebc 216d cbbc a3ab 50bc
00000010: 5899 2ebd da5f aabc 5bee 67bd 5ec3 99bc
00000020: 360b 9d3b deaf 13bd 3cc1 593d 44ad 5bbc
00000030: 62e1 79bd cfcc 653d 1856 59bd 22a2 45bd
00000040: eb52 4b3d be3e 40bd fa1e 4bbd 1f6d 2fbd
00000050: df01 8c3c 1dbb 4bbd 3d15 45bd 4e6e 3e3d
00000060: 0f8b 533d eede c6bc bf3e 1dbb 504d d8bb
00000070: 36cf 8cbc f48d 483d 8da4 b6bc 367a 803c
00000080: 334b 78bd 332c 5dbd 141d 203d e07e f4bb
00000090: 3102 853c 4ee2 903b 6cd6 94bc 3d84 07bd
000000a0: 2c07 89bc d991 e73b 9254 723d dd81 f4bc
000000b0: 47db 9ebc 0994 323d 8c9a 9f3c 58dc 683d
000000c0: 5691 0e3c cdc5 48bd f2bb 5bbc a5c0 7cbd
000000d0: 9633 523c 6cd1 07bd 9ab5 823c 55e2 ea3c
000000e0: 2d64 663d bc52 cdbb 68ef 553d 5cff 493d
000000f0: 77e1 e23c 0782 393d 5f3e be3c f56f 8c3a
00000100: e7bf 89bd 7e9c 2e3d 03fc 58bd 4deb 34bd
00000110: dac5 60bd 2a2f 34bc c406 2bbd 5e28 2d3d
00000120: eff1 6e3b b655 0d3d d7c5 f2bc feb9 1b3c
00000130: 6573 44bd d014 de3c 71b5 bcbb 0cfd 113b
00000140: 1077 b3bc 562c 243d 2ff8 6dbd d987 43bc
00000150: 3f34 18bd b9c2 99bc 890c 04bb 436d 10bc
00000160: 58ff 7cbd f9e5 69bd a71e 75bd 23d0 47bd
00000170: 7bfc 3e3d d4af 5f3b 3133 453d 4b4a 01bd
00000180: ed0a 85bd dafa 82bd e676 36bc e0bc 3c3d
00000190: eff4 f5bb 42ed 17bd bf6f 5e3d 571b 013d
000001a0: 5b9d 10bc ec2e 123d c8e8 733d 04f0 9cbc
000001b0: a4aa b538 80a9 4f3d 83c3 153b ce93 143d
000001c0: 1771 54bc 7aa5 fb3c 3a9b 20bd f41a 0abd
000001d0: f2e9 56bb 02cb d53c 06de 0a3d 8cbb cbbc
000001e0: 89ac 0dbd f5a7 333c ece5 c53c f8c9 7dbd
000001f0: e405 143d 7deb 06bd 8f1b b73c a5a6 643d
00000200: 8d75 23bd 0019 523d 4afa ebbc 7454 11bd
00000210: 0ae3 fb3c baac 2bbc cca9 c53a 5587 84bd
00000220: 0ac5 25bd b1d5 45bb 8921 26bd f665 5c3d
00000230: f460 73bc 95ea 6a3d 361b 52bd ca41 01bd
00000240: d912 373d f8f7 d4bc 92a7 fd3c c52c b83c
00000250: ad5a 37bd 6cd1 fc3c e13c 87bd d7ce 30bd
00000260: 44fd 20bd d6e7 36bd 2c1a 2c3d 8fa3 b33c
00000270: 8ce4 033d d7a4 ec3c 3a22 c83c 174a 533d
00000280: 0a05 6b3c aae1 123d a1a0 b2bb 495b 753d
00000290: 2639 f03c eb82 2bbc c8a8 28bd e9d3 c9bc
000002a0: f557 b73c 8905 543d 6ba4 f3bc 10d8 47bd
000002b0: db04 1ebd c879 43bd 86b5 633c 363c 103d
000002c0: 7f6e d73c a7fd 253d cbb5 6dbd 0146 17bd
000002d0: 7fdd c43c 0066 4a3d 2f79 dabc c0f7 cc3c
000002e0: 3b69 8cbd 1292 6e3d 7c15 28bd 2ba9 5fbc
000002f0: 3eba fe3c 3e9a 743d db88 3d3d 497a 013d
00000300: 9bdd 5bbd 9bce 06bd c9fe 72bd 7536 06bb
00000310: 95cc 323d dd3c 25bc 11a1 b9bc db1b 02bc
00000320: e8f2 abba fc78 e9bc b8a3 393d 0de8 583c
00000330: 24fd 22bd 988b 18bc e7fa ef3c 071f 0e3c
00000340: 1dcd 92bc 651c 543d 1f20 87bd 97ed 51bd
00000350: 962a 2dbd dc12 613d a9dc 343c 4255 5e3d
00000360: 1c16 d53c f180 1dbd 9026 41bc 2d46 583d
00000370: fc91 45bd bf86 41bd 0b41 d73b 1794 84bd
00000380: a3ec 4bbd aca9 683d 568d 7b3c b493 263d
00000390: 5d8a 313d 9e5f 7bbd 1875 543d 39f3 bdbc
000003a0: 523e 02bd 6e7e 4d3d c7af 743d ac5c 3bbd
000003b0: 991c 8fbd ba72 85bd 3a51 b73c 0c2d ef3b
000003c0: 36f6 2dbd 1f3f b83c 937b 443d 5e1e 4f3d
000003d0: ccbb c13c 711a 3abd 0df3 b83c a6cd 0abd
000003e0: 1b98 ca3c 1735 98bb b865 8abd e6b8 b03b
000003f0: a4e2 3cbd 3945 cb3c b9d3 103d ccfd adbc
-0.014065136 -0.029155066 -0.02483231 -0.012736234 -0.04262671 -0.020797659 -0.056623798 -0.018769916
0.004792596 -0.036056392 0.0531628 -0.013408009 -0.061005957 0.056103524 -0.05306062 -0.048250325
0.049639624 -0.046934836 -0.04959009 -0.042828675 0.017090736 -0.049738992 -0.048115958 0.046491913
0.05164629 -0.024276223 -0.0023993698 -0.0066010132 -0.01718865 0.048963502 -0.02229526 0.015683275
-0.06061859 -0.05399723 0.03909023 -0.0074614137 0.016236397 0.004421509 -0.01816865 -0.033085097
-0.016727053 0.007066947 0.059162684 -0.02984708 -0.019391669 0.04359821 0.019482873 0.05685076
0.008701643 -0.049016763 -0.013411509 -0.061707158 0.012829682 -0.033158705 0.015955735 0.028672377
0.05624788 -0.006265966 0.05223027 0.049315795 0.0276954 0.04529002 0.0232231 0.0010714518
-0.067260556 0.04262971 -0.052974712 -0.044169713 -0.054876186 -0.010997573 -0.0417545 0.042274825
0.0036460122 0.03450557 -0.029635353 0.009504793 -0.04796161 0.027109534 -0.005758934 0.0022276072
-0.02190736 0.040081345 -0.058098014 -0.011934244 -0.0371592 -0.018769609 -0.0020149073 -0.0088151125
-0.061766952 -0.057104085 -0.059843685 -0.04878248 0.046627503 0.0034131901 0.048144523 -0.031564992
-0.064962246 -0.063955024 -0.011136746 0.046078563 -0.007506005 -0.0370915 0.054305788 0.031520214
-0.008826579 0.03568928 0.05954817 -0.019157417 8.662537e-05 0.050698757 0.002285213 0.03627377
-0.012966416 0.030718554 -0.039210536 -0.03371711 -0.003279325 0.026097778 0.033903144 -0.024869703
-0.03458837 0.010965337 0.024157487 -0.06196019 0.03613843 -0.032939423 0.022352008 0.055822987
-0.039907027 0.051293373 -0.02880587 -0.03548093 0.03074791 -0.010478193 0.0015080511 -0.06471125
-0.040471114 -0.0030187184 -0.040559325 0.053808175 -0.014854658 0.05735262 -0.05129548 -0.031556882
0.04469571 -0.025997147 0.030963693 0.022482285 -0.04476421 0.030861579 -0.066034086 -0.043166008
-0.039304033 -0.04465469 0.042017147 0.021928577 0.03220038 0.028887196 0.024430383 0.05158433
0.014344463 0.03585974 -0.0054512774 0.05990151 0.029324125 -0.010468225 -0.041176587 -0.02463718
0.022380808 0.05176309 -0.029741487 -0.048790038 -0.03857885 -0.04772356 0.013898259 0.03521367
0.026297806 0.040525105 -0.0580347 -0.036931995 0.024031399 0.04941368 -0.026669113 0.02502048
-0.068560086 0.058244772 -0.041036114 -0.013651173 0.031094667 0.05971741 0.046273094 0.03161076
-0.053678136 -0.032911878 -0.059325013 -0.0020479236 0.043652136 -0.010085312 -0.02265981 -0.007941212
-0.0013118656 -0.028500073 0.04532215 0.013238919 -0.039792195 -0.0093106255 0.029294444 0.00867439
-0.017920071 0.05178489 -0.065979235 -0.051251974 -0.04227694 0.054949626 0.011038938 0.054280527
0.02601152 -0.038453046 -0.011788979 0.0528013 -0.048234925 -0.047247645 0.006569033 -0.064735584
-0.04978622 0.056802437 0.015353521 0.040668204 0.043344844 -0.061370485 0.05186948 -0.023187267
-0.031797715 0.0501694 0.059737947 -0.045742676 -0.069878764 -0.06516023 0.022377599 0.007299071
-0.042471133 0.022491036 0.047969412 0.05056607 0.023649119 -0.045435373 0.022576833 -0.033887528
0.024730733 -0.0046450007 -0.067576826 0.0053931354 -0.04611458 0.024813281 0.035358164 -0.021239184

fc1.bias f4 [64]
00000000: fccb f63a 8b5b 0bbd 1c2e 273d 9db1 243e
00000010: 1402 e83c f6d4 eabc 431f 79bd c883 16bb
00000020: 97ca a23d fbd4 943d 1df4 88bc 1ecc 863d
00000030: 3a5b 3ebd beb7 e43b 2905 423d a9e5 c83d
00000040: b5c1 4d3d 7cab 2d3d da32 2cbc 4311 b63d
00000050: 22a9 5abd 0950 2c3d 6790 99b8 1a06 953c
00000060: 1ead 993c 3385 5ebc cea2 0dbd d738 173d
00000070: 7f46 f3bd 9b80 f13c 9419 8d3d 49a3 173c
00000080: bb24 923c c084 6cbb dc0c 41bc c536 7a3d
00000090: 191d 80bd 2dbb 723c 1a16 b239 78d7 83bc
000000a0: 3479 5dbb 1259 93bc 525e 48bd b253 91ba
000000b0: 1801 a13c ce7c 07bd 44c1 efbc 7c2c 893d
000000c0: ec92 563a b5dd 233d 85ec 44bd 7d40 7e3d
000000d0: 1d66 ff3d 0acb 5a3d 4966 e1bb 3224 49bd
000000e0: 82ed 233d 78ad ca3d ec96 01bd 3d91 8a3d
000000f0: d8bc 1bbd 2059 16bd d35a f03d ecdf 21bd
0.0018829103 -0.03402285 0.040815458 0.16083379 0.028321303 -0.028666 -0.06082083 -0.0022966731
0.07948797 0.07267185 -0.016717965 0.06581901 -0.04647372 0.0069799116 0.047368202 0.09809429
0.05023356 0.04239987 -0.010510171 0.08890011 -0.053383954 0.042068515 -7.3225056e-05 0.018191386
0.018759307 -0.013581562 -0.03457909 0.03691944 -0.118786804 0.02948027 0.06889644 0.009255239
0.01783978 -0.0036089867 -0.011782851 0.06108739 -0.0625555 0.014815134 0.00033967273 -0.016093954
-0.0033794167 -0.017986808 -0.048918076 -0.0011087565 0.019653842 -0.033078007 -0.02926696 0.06697938
0.0008185345 0.04000636 -0.048077125 0.06207322 0.124706484 0.05341629 -0.0068786484 -0.049106784
0.040021427 0.09896368 -0.03163807 0.06765983 -0.038021892 -0.03670609 0.11736073 -0.03952019

fc2.weight f4 [5, 64]
00000000: 4cfc dd3d 9797 87bd a5ac bbbd 6afe 0e3e
00000010: a6a4 8d3d d0a2 553d 8079 aabd 5768 9fbd
00000020: a267 6c3d 333c 4d3d 7c22 fa3d 0601 083e
00000030: c063 173b 2e9a b63d 7898 f7bd 5955 013e
00000040: 4e71 be3c 5fbc c2bd fb22 ebbd 2142 ca3c
00000050: e232 c93d bddd 36bd ccf1 2e3e 24e1 df3c
00000060: bb54 d3bd ff6d 7d3d 2b27 103c 336e a7bd
00000070: c899 5b3e 159d a7bd 96e1 dcbc 69a6 f73d
00000080: 7788 c9bd 18de 3fbd 7b66 f63d 8a52 123d
00000090: 62c8 d43d e41c 263d 9b27 893c 984f c9bd
000000a0: 4591 aa3c c27c d0bd 2cea 4d3d 7a0f 223d
000000b0: 3a1f 6dbc be66 cebd 589e d6bd e9fa ea3d
000000c0: cea9 a7bd 15cd 143e 102f 98bc 25c0 39bd
000000d0: 7504 64bb 7e78 24bc 92df c83d f0b4 293c
000000e0: 4ba3 bfbd 2e3f c83d 88fc b4bd 4f76 6e3e
000000f0: 4336 afbd dc6b 2e3d 2f1b 633d fed5 12bb
00000100: b418 ddbd 5a4c e6bd e1a7 043e c552 6c3e
00000110: 42c8 88bd 3160 8bbc bf12 b7bd 8019 c6bc
00000120: e3a6 803e ad11 163e 8508 ef3d b1f7 ccbd
00000130: 96af 81bd 0a01 02bd d209 8dbd 4f8f 023e
00000140: a189 eb3c 0b45 b3bc e6e7 9abd bc87 913d
00000150: 9cd3 773d aab5 98bd 8f2b bd3d 361b d3bc
00000160: 03b6 cbbb 9f5c a63b ac90 f4bd 2292 b73d
00000170: da93 17bd deae 8dbd ccdb d3bb 6e8d e5bd
00000180: 35f0 3a3d 407b 66bc 56c9 d9bd 9041 293e
00000190: 144d 02bd 4286 64bc c19f 023c eca7 503d
000001a0: b29b d3bd 763a bfbd c72b 923c 0185 d23c
000001b0: d1d9 c83d 8ccc ccbd 9fd3 7cbd 5425 ab3d
000001c0: 4ee6 8a3d 2fce 6a3e c8a6 cbbd ee7a 64bd
000001d0: 5266 403e 974a c23d 2623 f1bb c413 d53d
000001e0: 2e34 1abd 6837 843d 871e d83d 9299 d23d
000001f0: 4098 a63d 3090 af3c fa5c 6d3e ff00 40bd
00000200: 8f9d 883d 3764 92bd aef9 cbbd e3d5 d43d
00000210: 487a 06be e41c e03d aab1 c03d c36f 4cbd
00000220: 5ea2 4f3e cc26 123e b54e d0bc 7069 b93d
00000230: 1cf1 4e3d 1f42 27bd fe74 53bd c46a 123e
00000240: f6f3 363c 73eb 723d 3456 033b ec25 373e
00000250: 9069 fd3c 3329 9a3d 922a 853d 1358 e4bd
00000260: cab8 403d fb16 87bb d348 d4bd fd32 26bd
00000270: e263 d53d 412f 94bd 7707 e93d 4019 a33d
00000280: a980 413d 8033 83bd 013d c73d dedd d43d
00000290: b9de 893c e1f3 c03d 72c4 fb3d f38f 4cbc
000002a0: 3737 f93d a474 31bd fbb8 4b3b 808b c6bd
000002b0: 48c5 153d 00b4 a9bd 05e5 16bd f8a0 113e
000002c0: c566 803d 26f5 a73d 0896 3f3b ae74 893d
000002d0: 54cd 043e 34f2 b13c d37a 01bd 38f3 76bd
000002e0: 4b0d 42bd 5425 e53d 645c b23d 62ff ba3d
000002f0: 945a ea3d 704e 693c 5148 163e c49f e83c
00000300: 19bb 963d 0f19 d93d 2c4a 15bd e3a1 af3c
00000310: a51f ca3d 4316 e33d 3e81 53bd 722a 133d
00000320: 395f 95bd 1bcf 213e f90a 3f3e b0af 983c
00000330: e8be ac3c b082 0bbd 6836 1ebd 0710 063e
00000340: efa7 6f3b b627 a93d cd90 ab3d 3b1f 1e3e
00000350: 4c65 19bd 52f0 c53d 4e6d 523e a683 bd3d
00000360: 7a4b e3bd ab2f 923d bb1b 9cbd 1b24 c8bd
00000370: 2810 843d 38c9 a93d 5e44 3fbc 7bbf 033e
00000380: 046d 00bd 9a56 d4bd 6c04 97bd 72b9 163e
00000390: 0ecc a03d f31b 333b 10e7 553d 841f 8e3d
000003a0: 4602 a43d 2ffb f33d 5238 f3bd 039d 5c3d
000003b0: e4bc 303e 9c2d 7a3d 3bbf bdbd 71f2 cebc
000003c0: 6958 f8bd f07f acbc 0d98 7f3d 1021 97bc
000003d0: f7f9 ea3d d61c 17bd 647c 20bd 98b6 983c
000003e0: 3284 b63d bcb2 2d3e 45d1 783d 8149 d93d
000003f0: a9b5 e73d 9ae0 f7bd 2e5c 393e 00b1 efbd
0.108391374 -0.0662071 -0.09163789 0.13964239 0.0691617 0.052157223 -0.083239555 -0.07783573
0.05771602 0.05010624 0.122136086 0.1328164 0.0023100227 0.08916126 -0.12089628 0.12630214
0.023247387 -0.09508585 -0.11481281 0.024689736 0.09824158 -0.04464506 0.17084426 0.027329035
-0.103188954 0.06187248 0.008798401 -0.08175316 0.21445382 -0.08184258 -0.026963037 0.12092287
-0.09840482 -0.046842664 0.12031265 0.035723247 0.103897825 0.040554896 0.016742518 -0.098296344
0.020821223 -0.10180046 0.05027215 0.03956554 -0.014472777 -0.1007819 -0.104794204 0.114736386
-0.081866845 0.14531358 -0.018577129 -0.04534926 -0.0034792696 -0.010038493 0.09808268 0.01035808
-0.093573175 0.097776756 -0.08837229 0.23287319 -0.085552715 0.04258333 0.055445846 -0.0022405381
-0.10795727 -0.11245032 0.12954666 0.23078449 -0.06678821 -0.017013641 -0.089391224 -0.024182081
0.25127324 0.1465518 0.11671547 -0.10008181 -0.063323185 -0.031739272 -0.06886639 0.1274998
0.02875215 -0.021883508 -0.07563762 0.071059674 0.06050454 -0.07456525 0.09236824 -0.025769811
-0.006216766 0.0050769593 -0.119416565 0.089634195 -0.037006237 -0.06918119 -0.006465411 -0.11208616
0.045639236 -0.014067471 -0.10634105 0.16528916 -0.03181179 -0.013948025 0.007972659 0.050941393
-0.10332431 -0.093373224 0.01784314 0.025698187 0.0980717 -0.09999952 -0.061725255 0.08356729
0.067822084 0.22930215 -0.099439204 -0.055781297 0.18789032 0.09486883 -0.0073589263 0.104041606
-0.03764742 0.064558804 0.10552698 0.102831975 0.08134508 0.021431059 0.23179999 -0.04687595
0.06670677 -0.07148021 -0.09959732 0.10392358 -0.13132584 0.109430104 0.09408887 -0.04991127
0.20276782 0.14272612 -0.025428155 0.09053314 0.05052291 -0.040834542 -0.051625244 0.1429854
0.011166563 0.059306573 0.0020040395 0.1788556 0.030934125 0.075273894 0.0650226 -0.11149611
0.04705123 -0.0041226125 -0.103654526 -0.04057597 0.10419442 -0.072355755 0.11378377 0.079638004
0.04724184 -0.06406307 0.097284324 0.1039388 0.016829835 0.09421516 0.12293328 -0.012485492
0.121687345 -0.043324128 0.0031085599 -0.09694576 0.036565095 -0.082862854 -0.036839504 0.14221561
0.06269602 0.08201055 0.0029233713 0.06711708 0.12968951 0.021721937 -0.031611275 -0.060290545
-0.04737596 0.111887604 0.08709028 0.09130742 0.11443058 0.014239892 0.14676024 0.028396495
0.07359905 0.10600483 -0.03644769 0.021439498 0.09869317 0.110882305 -0.051636927 0.03592915
-0.07293553 0.1580166 0.1865653 0.018638462 0.021087125 -0.03406018 -0.038626105 0.13092051
0.0036568602 0.082595274 0.08377228 0.15441601 -0.03745012 0.09664978 0.20549509 0.092536256
-0.110983804 0.07137998 -0.07622477 -0.097725116 0.06448394 0.082903326 -0.011674015 0.12866013
-0.031353965 -0.103680804 -0.0737389 0.1471918 0.0785142 0.0027329891 0.05222231 0.06939605
0.08008246 0.11913144 -0.118759766 0.053860676 0.17259556 0.061078653 -0.0926499 -0.02526209
-0.12126238 -0.0210571 0.062400866 -0.018448383 0.11473458 -0.036892734 -0.03918113 0.018641755
0.08911933 0.16962713 0.06074645 0.10609723 0.11313946 -0.12103386 0.1810157 -0.11703682

fc2.bias f4 [5]
00000000: 6ee5 433e a2fa db3d eb48 f63d c220 93bc
00000010: 740d 213d
0.19130489 0.10741164 0.12025627 -0.017959956 0.03931947
