SimpleQMIX_everything_random_blox_gamma0.95_lr0.0001_hidden64_target10/agent3_20.pth (torch, 745108 bytes, 10 tensors)

c1.weight f4 [32, 8, 3, 3]
0	0xbdcb330b	-0.09921845
1	0x3daff3b8	0.085914075
2	0xbd4c4612	-0.04987151
3	0xbda5dbe7	-0.08098584
4	0xbcc16a60	-0.023610294
5	0xbd129d80	-0.035794735
6	0xbc317840	-0.0108318925
7	0xbaa7b5cc	-0.0012795269
8	0x3d9f9820	0.077926874
9	0x3d95c3fa	0.0731277
10	0x3e0dda31	0.13852765
11	0xbdce620a	-0.10077293
12	0xbde9cff7	-0.11416619
13	0x3d05261c	0.032507047
14	0x3dd0b09b	0.10189935
15	0x3dadf85e	0.08494638
16	0x3d8ad134	0.067781836
17	0x3df276da	0.118390754
18	0xbd835472	-0.06412591
19	0x3c0b6798	0.008508585
20	0xbcc2fd00	-0.02380228
21	0x3d86c1e3	0.0657995
22	0x3d990be1	0.07472969
23	0xbd2931bc	-0.041307196
24	0xbc327968	-0.010893203
25	0xbdbdb071	-0.09262169
26	0xbdca8c3a	-0.09890027
27	0xb8a4fc00	-7.867068e-05
28	0x3dcc80a5	0.099854745
29	0x3c5366e8	0.012902953
30	0xbc840268	-0.016114429
31	0xbdcd9c54	-0.10039583
32	0x3dce2027	0.10064726
33	0x3cebc23c	0.028779142
34	0x3dc1e205	0.09466938
35	0xbdaf5692	-0.08561434
36	0xbdf5fecf	-0.120114915
37	0x3d61a5ec	0.055089876
38	0xbd8cca7b	-0.068745576
39	0x3d09b2ce	0.033617787
40	0x3c9ecbc1	0.019384267
41	0x3ddb3919	0.1070425
42	0xbda19779	-0.07890219
43	0xbdb9b8df	-0.090684645
44	0x3ca1f484	0.019769914
45	0x3cbae201	0.022812845
46	0x3de2fd8a	0.11083515
47	0x3ddbd72e	0.10734402
48	0xbc8c9df4	-0.017165162
49	0x3c776ac0	0.015101135
50	0xbc694de7	-0.014239765
51	0x3d98e899	0.074662395
52	0xbd9aabf7	-0.07552331
53	0x3d878b90	0.06618416
54	0x3c7b30d2	0.015331464
55	0x3d95baa3	0.07310989
56	0xbd9ff420	-0.07810235
57	0x3da9e5a5	0.08295754
58	0xbdcd400f	-0.10021984
59	0x3dc6e4e5	0.09711627
60	0xbdd8e03f	-0.105896465
61	0xbd816105	-0.06317333
62	0xbdbc08bb	-0.09181353
63	0xbdea747c	-0.11447999
64	0x3d4b0aa5	0.0495707
65	0x3d1aacb6	0.037762366
66	0x3dc547d0	0.09632838
67	0x3d7cbc5a	0.061703064
68	0x3d810253	0.062992714
69	0xbc418d3f	-0.011813461
70	0x3daa1f79	0.08306784
71	0xbd3469a6	-0.044046067
72	0x3d8c736f	0.06857955
73	0xbbf1d880	-0.007380545
74	0xbc46c94a	-0.012132952
75	0x3d3d1834	0.04616566
76	0xbde2141d	-0.110389926
77	0x3d121dbc	0.03567289
78	0xbd2afaaf	-0.041742977
79	0xbd36330f	-0.044482287
80	0xbde387d5	-0.11109892
81	0xbd0898bf	-0.033348795
82	0xbe1b6898	-0.15176618
83	0xbd9fdcdb	-0.07805797
84	0xbce5015a	-0.027954746
85	0xbdba05e1	-0.090831526
86	0x3db79f0c	0.08965883
87	0x3dd2381f	0.102646105
88	0xbe32636b	-0.17420737
89	0x3d224060	0.039612174
90	0xbdee42e2	-0.11633851
91	0x3dc61a67	0.096730046
92	0xbc29b620	-0.010358363
93	0x3d8c6459	0.06855077
94	0xbd711186	-0.058854602
95	0xbc940618	-0.018069312
96	0xbd04f8f6	-0.03246399
97	0x3ddae335	0.106878676
98	0xbd18b08e	-0.03727775
99	0xbc125358	-0.0089310035
100	0x3de2ba4f	0.11070692
101	0x3d918b31	0.07106627
102	0x3de16fbf	0.11007642
103	0x3dad2297	0.08453863
104	0x3ce9bf9c	0.02853375
105	0xbc02aae0	-0.00797531
106	0x3dcce0f5	0.10003845
107	0x3d65290a	0.05594734
108	0xbe075ab8	-0.132182
109	0xbb7ed573	-0.003888455
110	0x3bcfd68a	0.0063427137
111	0x3deace66	0.11465149
112	0xbd8ab6d1	-0.06773151
113	0xbdf9d538	-0.121988714
114	0xbc9edf66	-0.019393634
115	0xbc44fd8c	-0.012023341
116	0x3d4ac238	0.049501628
117	0x3de5df5a	0.112242416
118	0xbe115332	-0.14191893
119	0xbe02e4e9	-0.12782635
120	0xbe01cf1d	-0.12676664
121	0x3d60237c	0.05472134
122	0xbcf6e310	-0.030137569
123	0x3d73bc19	0.059505556
124	0xbe0c65cd	-0.13710709
125	0x3dc2567a	0.0948915
126	0xbd8fb833	-0.07017555
127	0xbdef7d83	-0.11693861
128	0xba2e227f	-0.00066427136
129	0x3b2c7795	0.0026316394
130	0xbdcdbf76	-0.10046284
131	0x3dcec258	0.10095662
132	0x3d0f10b8	0.034928054
133	0x3cbf3399	0.023340033
134	0x3de1b2cc	0.11020431
135	0xbda45401	-0.08023835
136	0xbd6bfff2	-0.057617135
137	0x3db109f3	0.08644476
138	0x3db82b86	0.089926764
139	0xbd9cb19e	-0.07651065
140	0x3d61b9d5	0.055108864
141	0xbd9846ff	-0.074354164
142	0xbd8f7716	-0.07005136
143	0xbbe52e94	-0.006994078
144	0x3d5e8a8a	0.05433134
145	0x3d311be0	0.043239474
146	0x3d014b19	0.03156576
147	0xbd767f9f	-0.060180303
148	0x3dc86c06	0.09786229
149	0xbdccc453	-0.099983834
150	0xbd3565c9	-0.044286523
151	0x3d75a52c	0.059971973
152	0xbdb542d7	-0.08850639
153	0x3d4ba0f3	0.04971404
154	0x3da3d7a4	0.080001146
155	0xbe525524	-0.20540291
156	0x3d80c642	0.06287815
157	0xbd7c0908	-0.06153205
158	0x3dbcba7a	0.09215255
159	0xbdc40c51	-0.09572662
160	0x3d887514	0.06662956
161	0x3d89cc76	0.06728451
162	0x3d20d816	0.039268576
163	0xbd99b328	-0.075048745
164	0xbd946f3e	-0.0724778
165	0xbd3cc2a2	-0.046084054
166	0xbcdc749c	-0.026911072
167	0xbdbe249d	-0.09284327
168	0xbccfd0d4	-0.025368132
169	0x3da1101b	0.078644
170	0xbc3bb018	-0.011455558
171	0xbae8e940	-0.0017769709
172	0x3d4cf2de	0.050036304
173	0xbdc7c881	-0.0975504
174	0x3c283338	0.010266118
175	0xbdbe35d2	-0.09287609
176	0x3c9a22c4	0.018815406
177	0xbde0e72d	-0.10981593
178	0xbdad1266	-0.08450775
179	0x3c06ccf8	0.008227579
180	0xbe311cc1	-0.17296125
181	0x3dc09003	0.09402468
182	0x3bae3953	0.005316892
183	0xbd83e404	-0.06439975
184	0x3d79dbbe	0.061000578
185	0xbd40f6ee	-0.04711049
186	0xbe316920	-0.17325258
187	0xbdcdde28	-0.100521386
188	0xbe1f7f2b	-0.15575854
189	0xbdd4fe96	-0.10400121
190	0xbd6ef77e	-0.058341496
191	0xbb1ee5d0	-0.0024245866
192	0xbe046250	-0.12928128
193	0x3d1fbe2c	0.03899972
194	0x3cc9847d	0.024599308
195	0xbc57a115	-0.013160964
196	0x3adec80a	0.0016996872
197	0xbdbf412f	-0.09338605
198	0x3d8e8f6e	0.06960951
199	0xbbfcb1d9	-0.007711631
200	0xbd42f152	-0.047593422
201	0xbd49c851	-0.049263302
202	0xbb2b7e24	-0.0026167715
203	0x3da88d9c	0.08230135
204	0xbd423a7a	-0.04741905
205	0xbd177324	-0.03697504
206	0xbd595cc9	-0.053067002
207	0xbcf59df4	-0.029982544
208	0xbd90501f	-0.07046532
209	0xbce4e1ca	-0.027939696
210	0xbc90f4c0	-0.01769483
211	0xbb885eac	-0.0041616764
212	0xbdef2f39	-0.11678929
213	0xbc88cca4	-0.016699143
214	0xbc803388	-0.015649572
215	0xbd776ccb	-0.060406487
216	0x3c699b0b	0.0142581565
217	0x3ac14190	0.0014744271
218	0xbdaa7731	-0.08323515
219	0x3db0c1ad	0.08630691
220	0xbd901e2b	-0.07037004
221	0x3d8e99d3	0.069629334
222	0xbd9b69d7	-0.07588547
223	0x3dd469a7	0.10371714
224	0x3bd66a0a	0.0065434026
225	0x3d4c2de4	0.049848452
226	0x3da9b665	0.08286742
227	0x3ced6d49	0.028982775
228	0xbde2c404	-0.11072543
229	0xbe2a4e8a	-0.16631523
230	0xbe7185fe	-0.2358627
231	0x3e01ab36	0.12662968
232	0xbcb765b1	-0.022387357
233	0x3d65920c	0.056047484
234	0xbd6b0a07	-0.05738261
235	0x3d3a9756	0.04555448
236	0x3ba84200	0.005134821
237	0x3db47c35	0.08812753
238	0x3debd7a3	0.11515739
239	0xbda71dba	-0.08159967
240	0xbdd22b72	-0.10262193
241	0x3d7c3be6	0.06158056
242	0xbd36d09e	-0.044632547
243	0x3cd090fc	0.025459759
244	0xbd762ba8	-0.060100228
245	0x3dd412e1	0.10355163
246	0x3d8a72cd	0.06760178
247	0xbcb6b230	-0.022301763
248	0xbd5d5644	-0.054037347
249	0x3dd918bd	0.106004216
250	0xbd42143a	-0.04738257
251	0x3d8820d1	0.06646884
252	0xbe2c3f0d	-0.16820927
253	0x3dd4f821	0.10398889
254	0xbdbd6e57	-0.09249561
255	0xbcc4fae6	-0.024045419

c1.bias f4 [32]
0	0x3db9421d	0.09045813
1	0x3a3c7f2a	0.000719058
2	0xbd73a1f9	-0.05948064
3	0x3de7432c	0.11292109
4	0xbdd8e6f8	-0.10590929
5	0x3d2a3e7b	0.041563492
6	0x3d643dfe	0.055723183
7	0xbde28856	-0.1106116
8	0xbdbea815	-0.09309403
9	0xbb6ba889	-0.003595861
10	0x3d9ded95	0.07711331
11	0xbdb1ee89	-0.08688075
12	0xbd337d52	-0.043820687
13	0x3daee747	0.085402064
14	0x3cdc3648	0.026881352
15	0xbdc5f38a	-0.09665592
16	0xbb06a0fd	-0.0020542734
17	0x3caae0a4	0.02085907
18	0xbdc46661	-0.0958984
19	0xbd5acd13	-0.05341823
20	0xbd62bc51	-0.055355374
21	0xbde32ec8	-0.11092907
22	0x3d88e40d	0.06684122
23	0x3de89af6	0.113576815
24	0xbde840fd	-0.113405205
25	0xbda497b8	-0.080367506
26	0x3b83dc1d	0.0040240423
27	0x3dcba5b7	0.09943717
28	0xbd9722e2	-0.073797
29	0x3d391814	0.04518898
30	0xbd25c224	-0.04046835
31	0x3ddd7c17	0.10814684

c2.weight f4 [64, 32, 3, 3]
0	0xbba19bb2	-0.0049318904
1	0xbc023a9e	-0.007948546
2	0xbbf95ccb	-0.0076099387
3	0x3d02ac2b	0.031902473
4	0xb81996f4	-3.661863e-05
5	0x3d4e057d	0.050298203
6	0x3d4dcbe0	0.05024326
7	0xbd67218e	-0.056428485
8	0xbc09095a	-0.008364046
9	0xbd6402d2	-0.055666752
10	0x3b8f71fd	0.004377602
11	0x3cce95f5	0.02521799
12	0x3d58e344	0.052951112
13	0xbcc2f2fe	-0.023797508
14	0x3d50e23a	0.050996996
15	0x3d24f87b	0.040276032
16	0xbd1f7972	-0.03893418
17	0x3d5cac95	0.053875525
18	0x3d441a5c	0.0478767
19	0x3c81753e	0.015802976
20	0xbcbf1d1b	-0.023329308
21	0x3d530110	0.051514685
22	0x3bd996be	0.0066402843
23	0x3cc555b0	0.02408871
24	0xbcb57921	-0.022152485
25	0x3d147990	0.036248744
26	0x3cd4b809	0.025966661
27	0xbc19a0d0	-0.00937672
28	0x3c1c99a9	0.00955812
29	0xbb908bf3	-0.0044112145
30	0x3c001e54	0.007819731
31	0xbcd3b9b1	-0.02584538
32	0xbd188611	-0.03723723
33	0x3d5a9e3a	0.053373553
34	0x3c58e8cb	0.013239096
35	0xbd5c8c21	-0.053844575
36	0xbc42af50	-0.011882618
37	0x3d198735	0.03748246
38	0x3d1ff8b6	0.03905555
39	0x3d759bb9	0.05996296
40	0x3c4b6cc7	0.012416071
41	0xbd166535	-0.036717612
42	0xbb8dad26	-0.0043236194
43	0xbd09edea	-0.03367416
44	0x3d543226	0.051805638
45	0x3d0cf77d	0.03441571
46	0xbc82acf0	-0.015951604
47	0xbd7385f6	-0.059453927
48	0x3d44a4ab	0.048008602
49	0x3d10ee22	0.03538335
50	0xbd36f0ef	-0.044663366
51	0xbd82239a	-0.06354447
52	0x3b529e2f	0.0032137742
53	0xbc89c572	-0.016817782
54	0x3b2ccea4	0.0026368285
55	0xbd480b00	-0.048838615
56	0x3d3f9e50	0.046781838
57	0xbd64882e	-0.055793934
58	0xbd80a113	-0.062807225
59	0x3d37d666	0.0448822
60	0x3c6d182b	0.014471094
61	0xbd493d93	-0.049130987
62	0xbd6ff71b	-0.058585268
63	0xbd36bc50	-0.044613183
64	0x3c8e2e7d	0.017356152
65	0xbd088253	-0.03332741
66	0x3d009371	0.03139061
67	0xbc967b18	-0.018369243
68	0x3c46abc2	0.012125911
69	0xbc513b8c	-0.012770545
70	0x3d57bdac	0.05267112
71	0xbd4a2a8b	-0.04935698
72	0x3d909de3	0.070613645
73	0xbcd4ab68	-0.02596064
74	0x3d8947a5	0.06703118
75	0x3d4bf2b5	0.04979201
76	0x3d84150a	0.064493254
77	0x3d1ed16c	0.03877394
78	0x3d97b612	0.07407774
79	0x3b5c8d04	0.0033653388
80	0x3d0f7630	0.03502482
81	0x3c980c07	0.018560423
82	0xbd623c3e	-0.055233233
83	0x3cabeeec	0.02098795
84	0xbc0ac9af	-0.008470937
85	0x3cbe95aa	0.023264725
86	0x3ca2cf98	0.019874379
87	0x3d243de3	0.040098082
88	0xbcae390f	-0.021267442
89	0xbd568a47	-0.052377965
90	0x3d46bd0b	0.04852013
91	0xbd244bf6	-0.040111504
92	0x39de7782	0.0004243218
93	0x3d425449	0.04744366
94	0xbd04d8e8	-0.03243342
95	0xbce9c986	-0.028538477
96	0x3d52bbdf	0.0514487
97	0xbd3f17be	-0.0466535
98	0x3cd33f04	0.025786884
99	0xbc640714	-0.013917703
100	0xbd231618	-0.039815992
101	0x3d50fcc5	0.05102231
102	0x3cb31550	0.021860749
103	0x3ce7683f	0.02824795
104	0xbc8f7f6f	-0.01751682
105	0x3d561cfc	0.052273735
106	0x3d4c0854	0.04981263
107	0x3d0804b7	0.03320762
108	0xbd185b5d	-0.037196506
109	0xbcf81b27	-0.030286385
110	0xbd4a5ae9	-0.049403105
111	0x3c8b302a	0.01699074
112	0xbca78ce1	-0.020452918
113	0xbcca8e17	-0.024725957
114	0xbd59bdd4	-0.05315955
115	0x3cf52001	0.029922487
116	0xbd4d200e	-0.050079398
117	0xbd1103ba	-0.035403945
118	0x3bbcb8af	0.0057593207
119	0xba959281	-0.001141146
120	0x3c8148aa	0.01578172
121	0xbd7a26f6	-0.061072312
122	0x3c416a2c	0.0118050985
123	0xbd22eec2	-0.03977848
124	0x3d600795	0.05469473
125	0x3ccdacf5	0.025106886
126	0x3c93e54b	0.018053671
127	0xbd25fb63	-0.040522944
128	0x3c98b6f0	0.018641919
129	0x3b7e8315	0.0038835455
130	0x3d3a9467	0.045551684
131	0xbce846a3	-0.028353995
132	0xbd6a7a88	-0.05724576
133	0xbce1b62c	-0.027552687
134	0x3ca84baf	0.020543901
135	0x3d5c5198	0.05378875
136	0xbccfbe5a	-0.025359321
137	0x3d22142f	0.03957003
138	0xbd7bed8b	-0.061505836
139	0x3cd68bf7	0.026189787
140	0x3d31c52d	0.043400932
141	0xbd2b07e6	-0.04175558
142	0x3cf05c19	0.02934079
143	0x3c5fb720	0.0136545
144	0x3d034fb6	0.03205844
145	0xbd4ad7ac	-0.049522087
146	0x3c59843a	0.013276154
147	0xbd72634d	-0.05917673
148	0x3b9cdbbf	0.004786938
149	0xbd576eaf	-0.05259579
150	0x3d36d5e9	0.044637594
151	0x3c03e95b	0.008051242
152	0xbd221516	-0.03957089
153	0xbbdbeb91	-0.0067114313
154	0xbd5e1af7	-0.054224934
155	0xbd030c0b	-0.031993907
156	0xbcd4e962	-0.025990192
157	0xba3b7f48	-0.000715245
158	0x3c94ad72	0.018149111
159	0x3c30ce65	0.010791396
160	0xbcfe7427	-0.031061245
161	0xbc501923	-0.012701306
162	0x3cda423c	0.026642911
163	0xbd0542e6	-0.032534502
164	0x3a8562e6	0.0010176569
165	0x3d29403a	0.041321017
166	0x3d19cd56	0.03754934
167	0x3d486ffe	0.04893493
168	0xbd6f5ad9	-0.05843625
169	0xbc1b5160	-0.0094798505
170	0x3d1e2762	0.038611777
171	0x3c607b4d	0.013701272
172	0xbd1788ea	-0.036995806
173	0x3c73f409	0.0148897255
174	0x3d58f3b1	0.052966777
175	0x3d5cb76f	0.053885873
176	0x3c83c541	0.016085269
177	0xbd744beb	-0.059642714
178	0xbc2dbc67	-0.010604001
179	0xbd4e33f7	-0.050342526
180	0xbc8fb774	-0.017543532
181	0xbca7c121	-0.020477833
182	0x3c2e32c7	0.010632223
183	0x3c7877d3	0.015165287
184	0x3d95dd2b	0.07317575
185	0x3db254a8	0.08707553
186	0xbb20ca9e	-0.0024534832
187	0x3d05accc	0.032635495
188	0x3d87d299	0.06631965
189	0x3c4c2eb4	0.012462307
190	0xbd543ff6	-0.05181881
191	0x3d4b0df4	0.049573854
192	0xbd6f990d	-0.05849557
193	0x3d47266d	0.04862063
194	0x3d64aa14	0.05582626
195	0xbc5fbd45	-0.013655965
196	0x3d684ad9	0.056712005
197	0xbc80c3e5	-0.01571841
198	0x3c5e9c33	0.0135870455
199	0xbd314a8a	-0.043283977
200	0xbc46649a	-0.012108946
201	0xbd0788d7	-0.033089485
202	0x3d3c3578	0.04594943
203	0xbd3df7ec	-0.046379015
204	0x3d08deeb	0.033415716
205	0x3c941091	0.018074306
206	0xba81b733	-0.0009896517
207	0xbcbd414d	-0.023102427
208	0x3d051578	0.032491177
209	0xbaa4f7c6	-0.0012586049
210	0xbd400ec1	-0.04688907
211	0x3cd2d50b	0.025736352
212	0xbce2b2e2	-0.027673189
213	0xbd17a398	-0.03702125
214	0x3ce28cb5	0.027654985
215	0x3cf2eb09	0.02965309
216	0xbcc513ea	-0.024057347
217	0x3c505748	0.012716122
218	0x3d0f1be5	0.03493871
219	0xbbc16d51	-0.005902924
220	0x3bfb340e	0.0076661175
221	0x3c3f0ace	0.011660291
222	0xbd44c734	-0.048041537
223	0x3c52ea1c	0.012873199
224	0xbce05135	-0.027382473
225	0x3cf34021	0.029693665
226	0xbc55bbb5	-0.013045241
227	0xbd204dbc	-0.039136633
228	0x3c4513b5	0.012028624
229	0x3ca199ea	0.019726712
230	0xbcff7e63	-0.031188196
231	0xbbc391aa	-0.0059682922
232	0xbce55b15	-0.027997533
233	0xbd064083	-0.032776367
234	0xbb735c20	-0.0037133768
235	0x3c419a41	0.011816562
236	0xbcbdd319	-0.023171948
237	0xbd608036	-0.05480977
238	0x3cb86238	0.022507772
239	0xbd1fd48f	-0.03902107
240	0x3b206403	0.0024473674
241	0xbd0d73de	-0.034534328
242	0xbd4f0562	-0.050542243
243	0xbbf74c70	-0.007546954
244	0x3d48ba33	0.0490057
245	0xb94b845b	-0.00019408895
246	0xbd070147	-0.032960203
247	0xbd6c5cf1	-0.057705823
248	0x3d0fae67	0.035078432
249	0x3d3dc9f6	0.046335183
250	0x3c93a701	0.01802397
251	0xbd2a77ea	-0.041618265
252	0xbccff639	-0.025385963
253	0xbd3afbec	-0.045650408
254	0xbce9456b	-0.028475484
255	0x3c05e474	0.008172143

c2.bias f4 [64]
0	0xbd5ef9be	-0.05443739
1	0x3caab343	0.020837432
2	0xbd75d80b	-0.060020488
3	0x3d39e473	0.04538388
4	0xbd531e4a	-0.051542558
5	0x3cc87dc2	0.024474028
6	0x3c3a25c5	0.011361544
7	0x3c70868d	0.014680517
8	0xbb86fe0c	-0.00411964
9	0x3d428133	0.047486495
10	0xbd39f56b	-0.045400064
11	0xbd48cac5	-0.0490215
12	0x3ca3db53	0.020002043
13	0xbd464767	-0.04840794
14	0xbc40cb4b	-0.011767219
15	0xbda40cff	-0.08010291
16	0x3cde9aac	0.027173363
17	0x3d0bfc3e	0.034176104
18	0x3d43808e	0.04773002
19	0xbcaf83c4	-0.021425135
20	0x3bc74a24	0.0060818363
21	0x3cd46d62	0.025931064
22	0xbd601d48	-0.054715425
23	0x3d2fa311	0.04288012
24	0x3d329bb0	0.043605506
25	0xbd49a38d	-0.04922824
26	0xbd5fb089	-0.054611716
27	0xbd02d4b8	-0.031941146
28	0x3d1bdb7a	0.038051106
29	0xbcea3b8d	-0.02859285
30	0x3c16694a	0.009180376
31	0x3b0f0fca	0.002182948
32	0xbcd691dc	-0.026192598
33	0x3cb1ea4c	0.021718167
34	0x3d56da05	0.052454013
35	0xbcd950d8	-0.026527807
36	0xba8d53c8	-0.0010782415
37	0xbd3349b9	-0.04377148
38	0x3d5e2c1e	0.054241292
39	0xbd694a75	-0.056955773
40	0xbbbbc8f7	-0.005730744
41	0xbd5215c4	-0.05129029
42	0xbcc9f3b7	-0.024652345
43	0xbcd07be3	-0.025449699
44	0xbc82f2df	-0.01598495
45	0x3cd9f23d	0.026604766
46	0x3caf5faf	0.02140793
47	0xbd82be6d	-0.06383977
48	0xbc28b410	-0.0102968365
49	0xbd34fad1	-0.04418451
50	0xbc56e176	-0.0131152775
51	0x3d311a1c	0.04323779
52	0x3cf0466b	0.029330453
53	0x3c69d3e7	0.014271713
54	0xbda022f4	-0.07819167
55	0x3c93a200	0.018021584
56	0xbc864c8e	-0.016393926
57	0x3d40efde	0.047103755
58	0xbcbf8a5d	-0.023381406
59	0x3d054382	0.032535084
60	0x3cedd363	0.029031461
61	0xbc900f51	-0.017585428
62	0xbd533526	-0.05156436
63	0x3bdb2543	0.0066877916

c3.weight f4 [256, 64, 3, 3]
0	0xbcae6278	-0.021287188
1	0xbd02e062	-0.03195227
2	0xbbc6b811	-0.006064423
3	0xbaaac3d8	-0.0013028337
4	0x3cc0b57a	0.023524035
5	0xbd04293e	-0.032265894
6	0x3d03e4a8	0.032200485
7	0xbc8eb7d8	-0.017421648
8	0xbcef0680	-0.029177904
9	0xbc8c3702	-0.017116074
10	0xbd141ac3	-0.036158334
11	0xbd24898b	-0.040170234
12	0xbc8526f2	-0.016253922
13	0x3c789c60	0.015174001
14	0xbcd27429	-0.025690155
15	0xbb8d1630	-0.0043056235
16	0xbc3d603f	-0.011558591
17	0xbc4ba132	-0.012428569
18	0x3be8fe60	0.007110402
19	0x3c45da47	0.012075967
20	0xbcf7ed9c	-0.030264668
21	0x3ce33740	0.027736306
22	0xbcef53e3	-0.029214805
23	0x3a8013de	0.0009771546
24	0xbc761032	-0.01501851
25	0xbd256115	-0.040375788
26	0x3c985a70	0.018597811
27	0xbc1621a7	-0.009163297
28	0xbcc1b854	-0.023647465
29	0xbd224d74	-0.039624646
30	0x3cab3039	0.020897018
31	0x3d08dd15	0.033413965
32	0xbcaca25d	-0.021073515
33	0xbd21decc	-0.039519116
34	0xbd17bc65	-0.0370449
35	0xbab478b6	-0.0013768885
36	0xbcc44d77	-0.02396272
37	0xbd111799	-0.035422895
38	0x3cb5695a	0.022144962
39	0x397ee28e	0.00024307726
40	0xbc8e6f8e	-0.017387178
41	0xbb3b6048	-0.0028591324
42	0xbc0718ca	-0.008245656
43	0x3c2929d4	0.010324914
44	0x3d036593	0.03207929
45	0xbcfe03f1	-0.031007739
46	0x3c586126	0.013206756
47	0x3b8720c2	0.004123778
48	0x3ce3a1b0	0.02778706
49	0x3cecc94d	0.028904581
50	0x3bc43d14	0.0059887264
51	0x3b3c22df	0.0028707308
52	0xba807e8e	-0.0009803341
53	0xbd0a0452	-0.033695526
54	0x3ca5ddec	0.020247422
55	0xbc826b08	-0.015920177
56	0xbcfc98e7	-0.030834628
57	0xbc464196	-0.012100598
58	0x3c87e16c	0.016586982
59	0xbd2f3e2f	-0.042783912
60	0x3d09f5e8	0.03368178
61	0xbc98c27d	-0.018647427
62	0xbc6356d5	-0.013875683
63	0xbcfae82f	-0.030628292
64	0x3c482d75	0.012217869
65	0x3c61913a	0.013767535
66	0x3d0e0f1c	0.03468238
67	0xbd08b106	-0.033371948
68	0x3b78f3ae	0.0037987041
69	0xbc9ee00a	-0.01939394
70	0x3cf98359	0.03045814
71	0xbbb8ee64	-0.0056436528
72	0xbd056cdc	-0.03257452
73	0x383492ac	4.3051943e-05
74	0x3cbd967f	0.023143051
75	0x3c783bac	0.015150946
76	0x3d1d50a3	0.03840698
77	0x3cfda455	0.030962149
78	0x3ca38d2d	0.019964779
79	0xbcd6eacf	-0.026235012
80	0xbcf356c4	-0.029704459
81	0xbc518229	-0.01278738
82	0x3cca3419	0.024683045
83	0xbc6264ce	-0.013817979
84	0xbd21bf1a	-0.03948889
85	0x3bb981b5	0.0056612142
86	0x3cb29e90	0.021804124
87	0x3c879372	0.0165498
88	0x3cd1c0b0	0.025604576
89	0xbcdf7cad	-0.02728113
90	0x3cb66e49	0.022269385
91	0x3be9912f	0.007127903
92	0xbbd1a157	-0.006397407
93	0xbc4b4519	-0.012406611
94	0xbce387ad	-0.027774656
95	0xbb378725	-0.0028004136
96	0x3d0f1036	0.03492757
97	0xbcf1f59f	-0.029536067
98	0x3c3e797b	0.011625643
99	0xbc1fe1cf	-0.009758427
100	0xbce17beb	-0.027524909
101	0x3cbd7448	0.023126736
102	0x3cf133ea	0.0294437
103	0xbccbb910	-0.024868518
104	0xbc102800	-0.008798599
105	0x3c2ae973	0.010431635
106	0xbc898a23	-0.016789502
107	0x3ceca6f2	0.0288882
108	0xbc244887	-0.0100270575
109	0x3d0f0ef1	0.03492636
110	0x3cef52f0	0.029214352
111	0xbc60163d	-0.013677177
112	0x3c41352b	0.011792461
113	0x3cd39c4a	0.02583136
114	0xbc86d27d	-0.01645779
115	0x3d17b675	0.03703924
116	0xbd283daa	-0.041074432
117	0xbc935c1c	-0.017988257
118	0xbc7dc9a0	-0.015489966
119	0x3c033a48	0.008009501
120	0x3c01c474	0.007920373
121	0xbb35caf6	-0.0027739382
122	0x3cd46147	0.025925292
123	0x3cc835fb	0.024439802
124	0x3bf8b575	0.0075899907
125	0xbbcda2a0	-0.00627549
126	0x3c447418	0.0119905695
127	0xbcd930d6	-0.026512545
128	0x3caa0a7f	0.020756958
129	0xbd206106	-0.03915503
130	0x3ca72601	0.020403864
131	0x3d20dd6a	0.039273657
132	0x3d03e90a	0.032204665
133	0xbd20b829	-0.03923813
134	0x3c703643	0.0146613745
135	0xbcc57645	-0.024104247
136	0x3ccde6fc	0.025134556
137	0xbd09b369	-0.033618364
138	0x3cfe7a05	0.031064043
139	0xbd183e1f	-0.03716862
140	0x3c8ae3f9	0.016954409
141	0xbd077643	-0.033071768
142	0xbcfb5ff5	-0.030685404
143	0x3b6d5e8c	0.0036219684
144	0xbaac5739	-0.0013148553
145	0xbcedf9fb	-0.029049864
146	0xbcb092b9	-0.021554338
147	0xbc335de9	-0.010947683
148	0x3d263917	0.04058179
149	0x3cbbcf79	0.02292608
150	0xbcc8bd0c	-0.024504207
151	0xbba5d96b	-0.0050613186
152	0xbccdccc7	-0.02512206
153	0xba7a04d8	-0.0009537465
154	0x3bd5ddd7	0.0065266895
155	0xbd0961b1	-0.03354043
156	0xbd28ef2a	-0.04124371
157	0x3c7800b9	0.015136891
158	0xbb34f7ed	-0.0027613596
159	0xbc0a20bb	-0.008430655
160	0xbbae1a9b	-0.00531323
161	0x3d02bb51	0.03191692
162	0xbd2c83de	-0.042117946
163	0x3cc59ae2	0.024121705
164	0x3d1cc76b	0.038276117
165	0x3bf3395a	0.0074226083
166	0x3cdabda9	0.026701765
167	0x3c423392	0.011853116
168	0xbd1c86e2	-0.03821457
169	0x3ceb2440	0.028703809
170	0xbc818046	-0.015808236
171	0xbc39edd4	-0.011348207
172	0x3cb2508c	0.021766923
173	0x3ba05098	0.00489242
174	0x3ce17996	0.027523797
175	0xbc55ab27	-0.013041294
176	0xbbf2b35a	-0.0074066343
177	0x3d15ec1f	0.036602136
178	0xbd1f4c64	-0.03889121
179	0x3c5ab3e8	0.013348557
180	0xbcb7e218	-0.022446677
181	0xbac0c750	-0.0014707837
182	0x3d051d77	0.032498803
183	0x3cd36772	0.025806163
184	0x3c8dd1a3	0.017311877
185	0x3c097445	0.008389537
186	0xbba3cd11	-0.004998811
187	0x3d162421	0.03665555
188	0x3b95abb8	0.0045675896
189	0xbb674e20	-0.003529437
190	0xbc9486ac	-0.018130623
191	0xbd28df7d	-0.04122876
192	0x3cbfac5b	0.023397615
193	0xbc2af908	-0.01043535
194	0x3d044f3b	0.032302123
195	0xbd1f591b	-0.038903337
196	0x3c8a06b6	0.016848903
197	0xbc80f020	-0.0157395
198	0x3c5db819	0.013532662
199	0xbcef694c	-0.029225014
200	0xbc2597c0	-0.010106981
201	0x3cbd1c91	0.02308491
202	0xbd315d20	-0.0433017
203	0x3cca613d	0.02470457
204	0x3c1ae87b	0.009454842
205	0x3bdb9ed7	0.006702285
206	0xb950865e	-0.00019886481
207	0xbc890c28	-0.01672943
208	0xbd0b82e6	-0.03406038
209	0x3cffdfd4	0.03123466
210	0xbc986376	-0.018602114
211	0x3d115f05	0.03549101
212	0xbd2a42e8	-0.041567713
213	0x3c8e76a2	0.017390553
214	0xbd2b2858	-0.04178652
215	0xbcfe0855	-0.031009832
216	0xbcbb75c1	-0.022883298
217	0xbd12c494	-0.035832003
218	0x393cc7df	0.00018003535
219	0xbca3e3a1	-0.020006003
220	0x3d0bd8cb	0.034142297
221	0xbcc416c2	-0.023936633
222	0x3c6909a7	0.014223493
223	0xbcf9c68f	-0.030490188
224	0x3b99a651	0.004689016
225	0xbca2a199	-0.019852446
226	0x3bf61389	0.007509653
227	0xbb2f56cc	-0.0026754616
228	0x3c9e8732	0.019351576
229	0xbd1c88af	-0.03821629
230	0x3c684995	0.0141777
231	0x3bc4739b	0.0059952266
232	0x3c6f8edd	0.014621464
233	0x3bc8c7d1	0.0061273356
234	0xbd02214a	-0.03177003
235	0xbc617d01	-0.013762713
236	0x3cdfab58	0.027303383
237	0xbc41a65e	-0.01181945
238	0x3ccf184f	0.025280146
239	0x3cc0acb9	0.02351986
240	0x3c9e512b	0.019325813
241	0xbd1f0880	-0.038826466
242	0x3c6328d8	0.013864718
243	0xbbbd3ec4	-0.0057753045
244	0xbb742cfd	-0.003725826
245	0xbc15ec23	-0.009150538
246	0x3ce636f4	0.028102376
247	0x38ce1e66	9.8285076e-05
248	0x3d00056e	0.03125518
249	0x3c00c737	0.0078599965
250	0x3bf90440	0.0075993836
251	0xbd13a037	-0.036041465
252	0x3c8e25de	0.01735204
253	0xbc8a05ac	-0.016848408
254	0xba01dbc0	-0.0004953705
255	0x3b623f03	0.0034522421

c3.bias f4 [256]
0	0xbd11f7c4	-0.03563668
1	0xbd092b53	-0.033488583
2	0xbc85811b	-0.016296914
3	0xbd0ffbc1	-0.0351522
4	0x3b9bd910	0.0047561005
5	0xbcf5fcad	-0.030027712
6	0x3d021252	0.031755753
7	0xbcac2f29	-0.021018581
8	0xbd5ebedc	-0.054381236
9	0x3d265c2f	0.040615257
10	0xbce99c59	-0.028516935
11	0xbc9ec5f6	-0.019381505
12	0x3d0a0a7d	0.03370141
13	0xbc842546	-0.016131055
14	0x3d0a0d3f	0.03370404
15	0xbccf7627	-0.025324894
16	0xbd3b319e	-0.045701616
17	0x3d3437d7	0.043998566
18	0xbb4f67c2	-0.0031647538
19	0x3bc77d1e	0.006087913
20	0xbce882bd	-0.028382653
21	0x3c820de0	0.015875757
22	0x3c5d79d0	0.013517812
23	0xb9a6f51f	-0.00031844617
24	0x3c25dd7a	0.010123605
25	0x3d51ff43	0.051268827
26	0x3cdc1fee	0.026870694
27	0x3c68db47	0.014212436
28	0x3d448663	0.047979724
29	0x3d696e12	0.056989737
30	0x3d499cd2	0.04922182
31	0x3bf39a79	0.007434186
32	0x3cbf664b	0.023364207
33	0x3c830697	0.015994353
34	0xbd3f6c8a	-0.04673437
35	0x3bd31d77	0.0064427215
36	0xbbcbaed7	-0.006215911
37	0x3c6b0601	0.014344693
38	0x3d194d68	0.037427336
39	0xbbe29aa8	-0.006915409
40	0xbc84dc27	-0.016218258
41	0x3d8ff20d	0.070285894
42	0xbbc945e6	-0.0061423657
43	0x3ca9265d	0.020648176
44	0x3a434fd6	0.0007450556
45	0x3c01e540	0.007928193
46	0x3d8112ed	0.06302438
47	0xbb3d9776	-0.002892939
48	0xbb2a2533	-0.0025962114
49	0x3d2045fb	0.03912924
50	0xbcc3f70c	-0.023921512
51	0x3b212690	0.0024589635
52	0x3d2a747d	0.041614998
53	0xbbc9cd6c	-0.0061585214
54	0x3cd0598b	0.025433322
55	0x3b72d467	0.0037052871
56	0x3c97c009	0.018524187
57	0x3b8f698f	0.0043765972
58	0xbb0c7694	-0.0021432983
59	0xbd068377	-0.03284022
60	0x3c6da00e	0.014503492
61	0xbaf293c2	-0.001850717
62	0xbcd7fd5f	-0.026365934
63	0xbd142249	-0.03616551
64	0xbcd62ce3	-0.02614445
65	0xbcf1cf00	-0.02951765
66	0xbc1731de	-0.009228198
67	0xbcb86ce2	-0.022512857
68	0x3d683cc2	0.05669857
69	0xbbf20d77	-0.007386859
70	0xbcb9be6b	-0.022673806
71	0x3c32e5d2	0.010919051
72	0x3d1fa1ab	0.038972538
73	0xbbb6bfb1	-0.0055770506
74	0x3c2b7133	0.0104640005
75	0xbb4de29e	-0.0031415592
76	0x3d2555af	0.040364917
77	0xbd152c65	-0.03641929
78	0x3cc7aea1	0.024375262
79	0xbd09be5e	-0.033628814
80	0xbc6ddc60	-0.0145178735
81	0x3c118e0a	0.008883962
82	0x3accf615	0.0015637303
83	0x3cc519a2	0.024060074
84	0x3c04ca89	0.008104929
85	0xbcbdd943	-0.023174888
86	0xbb3b1c46	-0.0028550788
87	0x3ca88d90	0.020575315
88	0x3b3ad416	0.002850776
89	0xbbbc0904	-0.0057383794
90	0x3d5b5eae	0.05355709
91	0xbc3b6958	-0.01143869
92	0xbd1237ea	-0.035697855
93	0xbc08d707	-0.008352048
94	0xbd16bbb1	-0.03680009
95	0xbcab12bc	-0.020882957
96	0xbadc5ec8	-0.0016812915
97	0x3bd038d4	0.0063544307
98	0x3d234b5d	0.039866794
99	0x3d747346	0.059680246
100	0xbc983a89	-0.0185826
101	0x3d203859	0.039116237
102	0xbd3251d6	-0.043535076
103	0xbc69473c	-0.014238175
104	0xbc3134d5	-0.010815819
105	0xbcc459c9	-0.023968594
106	0x3d8421c7	0.06451755
107	0x3d038bbc	0.032115683
108	0xbd159864	-0.036522284
109	0x3c8aaf13	0.016929185
110	0x3c655a1c	0.0139985345
111	0x3c5f9032	0.013645219
112	0x3c527518	0.0128453
113	0xb74dc237	-1.2264171e-05
114	0xbcc1753a	-0.023615468
115	0xbd0cff05	-0.034422893
116	0xbc9d0729	-0.019168453
117	0x3cbaf619	0.022822427
118	0xbcc4b364	-0.024011321
119	0x3d117b1a	0.03551779
120	0x3d08be26	0.033384465
121	0x3cb5c43b	0.022188297
122	0xbc8d1720	-0.01722294
123	0xbcdaa1cf	-0.026688484
124	0x3d1e5ac6	0.038660787
125	0x3d27b569	0.04094449
126	0x3d4ad1aa	0.049516357
127	0x3c9ca8ee	0.01912352
128	0x3d184fbb	0.037185412
129	0xbd171caa	-0.03689257
130	0x3d18b538	0.0372822
131	0xbca512de	-0.020150598
132	0x3d879e29	0.066219635
133	0xbc4e09b8	-0.012575559
134	0xbd4e8406	-0.050418876
135	0xbce35829	-0.027751999
136	0xbccf68df	-0.025318561
137	0x3d123fe7	0.035705473
138	0xbb6ae6ca	-0.0035843127
139	0xbce9297c	-0.028462164
140	0xbb202ea0	-0.0024441853
141	0xbcac2c70	-0.021017283
142	0xbc151391	-0.009098903
143	0x3c0eb0c7	0.008709139
144	0x3b9fdb77	0.004878457
145	0xbd03afc4	-0.032150045
146	0x3d13b07d	0.036056984
147	0x3c1b6c6a	0.009486297
148	0xbd448cb4	-0.047985747
149	0x3d286473	0.04111142
150	0x3d0c0cf1	0.03419203
151	0x3d1a667e	0.0376954
152	0x3cab478f	0.020908145
153	0x3d286703	0.041113865
154	0xbb8da96b	-0.0043231747
155	0x3c44d210	0.012012973
156	0xbba0f43a	-0.0049119266
157	0x3d0e2ca9	0.03471056
158	0x3c9da547	0.01924385
159	0x3d04f40b	0.0324593
160	0x3c80b5d1	0.015711697
161	0xbcc8bf21	-0.0245052
162	0x3c41f652	0.0118385125
163	0x3d17c412	0.03705222
164	0x3c908198	0.01763992
165	0x3d0f4c74	0.03498502
166	0xbd00bc90	-0.031429827
167	0x3c888753	0.01666609
168	0x3d0845f9	0.033269856
169	0x3cee6b01	0.029103758
170	0xbd1f73ef	-0.038928922
171	0xbc8abb8a	-0.016935129
172	0xbd29b818	-0.04143533
173	0x3cb43881	0.0219996
174	0x3d71e38e	0.059054904
175	0x3cbc0b6e	0.022954669
176	0xbd2d9255	-0.04237588
177	0xbd15323b	-0.036424857
178	0xbca901ae	-0.020630684
179	0x3b857e5f	0.0040739025
180	0x3c908734	0.017642595
181	0x3b8ea71f	0.0043534185
182	0xbccfb384	-0.025354154
183	0x3b9aeb06	0.004727724
184	0xbcfd3735	-0.030910114
185	0x3d3a4c3e	0.045482866
186	0x3ca14e3e	0.01969063
187	0xbd16f1b1	-0.03685159
188	0x3cd39b44	0.025830872
189	0x3d515752	0.051108666
190	0xbd1d7da8	-0.038449913
191	0xbcd12e7d	-0.025534863
192	0xbd312f0c	-0.043257758
193	0xbd393160	-0.045213103
194	0x3cad37b1	0.02114472
195	0xbb48d29a	-0.0030643106
196	0x3d0ace38	0.03388807
197	0xbd06f86f	-0.03295177
198	0x3d8539b5	0.06505147
199	0xbd205230	-0.03914088
200	0x3d12a9c6	0.03580644
201	0x3c6ca406	0.014443403
202	0x3d3901a2	0.045167573
203	0x3d0028a3	0.031288754
204	0x3d05435a	0.032534935
205	0x3b92c70b	0.004479294
206	0x3ca43a4b	0.020047328
207	0xbc55f25d	-0.013058272
208	0xbc59dd8e	-0.013297452
209	0x3cda5091	0.026649745
210	0x3c38448f	0.011246814
211	0x3d1c67c8	0.03818491
212	0xbd1b6b3c	-0.037944064
213	0xbc9a0fd6	-0.01880638
214	0xbc48f73e	-0.012265978
215	0xbd05daba	-0.032679297
216	0x3d1390f0	0.036026895
217	0xbc2fa225	-0.010719811
218	0xbd024645	-0.031805295
219	0x3c6185dd	0.013764826
220	0xbc995a11	-0.018719705
221	0x3cc77559	0.024347948
222	0x3cf554f7	0.029947741
223	0xbc80ff41	-0.015746715
224	0x3cdb72d2	0.026788149
225	0xbbcb7843	-0.0062094047
226	0xbc935ad0	-0.017987639
227	0x3cdd417f	0.02700877
228	0xbcd7df07	-0.026351465
229	0x3d1def41	0.03855825
230	0x3d9325d4	0.071849495
231	0xbd55a752	-0.052161522
232	0x3c59f8ba	0.01330393
233	0xbd16aec3	-0.03678776
234	0xbd01b0fc	-0.031662926
235	0xbd158a70	-0.036508977
236	0xbca6d84b	-0.020366808
237	0x3d1923f3	0.0373878
238	0xbbfaee48	-0.0076578
239	0x3b4f65d0	0.0031646378
240	0xbd2256bf	-0.03963351
241	0xbcef97a3	-0.02924711
242	0xbad0a146	-0.0015917204
243	0x3b31393a	0.0027042166
244	0x3c7bce5b	0.015369023
245	0xbd64ff5f	-0.055907603
246	0x3ceaea06	0.028676044
247	0x3cbce4f5	0.023058394
248	0xbc8ebba5	-0.01742346
249	0x3d1123ef	0.03543466
250	0x3cfa190e	0.030529525
251	0x3c819800	0.01581955
252	0xbbe2fcb6	-0.006927098
253	0xbb0c1a1e	-0.0021377872
254	0xbcf549a5	-0.029942343
255	0xbcc87d65	-0.024473855

fc1.weight f4 [64, 256]
0	0x3ca720c9	0.020401375
1	0x3cc51590	0.024058133
2	0xbd07861b	-0.033086877
3	0x3cb78485	0.022402057
4	0x3d1effe0	0.03881824
5	0xbc500d5a	-0.012698496
6	0x3c0ed3cc	0.0087174885
7	0x3d319e98	0.043364137
8	0xbcba2c82	-0.022726301
9	0x3d519c4f	0.051174458
10	0xbc81d682	-0.015849356
11	0xbc80bedf	-0.015716014
12	0x3c8f0153	0.017456686
13	0x3c03392a	0.008009234
14	0x3cf26b43	0.029592162
15	0x3cfdf060	0.030998409
16	0xbc11f909	-0.008909472
17	0x3c8fe0c2	0.017563228
18	0x3cc1dcf8	0.023664936
19	0xbd643521	-0.05571473
20	0xbceb0c72	-0.028692458
21	0xbd2744b8	-0.04083702
22	0x3c252688	0.010079987
23	0x3ca6a4a0	0.020342171
24	0x3d68f400	0.05687332
25	0xbc2819f3	-0.010260093
26	0x3bde521f	0.006784692
27	0xbd2c9e8a	-0.042143382
28	0xbb5b690f	-0.0033479368
29	0x3d244964	0.040109053
30	0x3c02dc6b	0.007987122
31	0x3cf23d65	0.02957029
32	0x3d09322d	0.033495117
33	0x3d576636	0.05258771
34	0x3d0af3c5	0.033923883
35	0x3cfe6c56	0.031057518
36	0xbca08341	-0.019593837
37	0x3b966387	0.0045895013
38	0x3d0c9473	0.03432126
39	0xbbdb50cf	-0.0066929827
40	0x3ce55849	0.0279962
41	0xbb09c2eb	-0.0021020721
42	0xbd66303f	-0.056198355
43	0x3d5802a5	0.052736897
44	0xbd6b7d0e	-0.05749231
45	0xbc65c467	-0.014023877
46	0xbd4128ea	-0.04715816
47	0xbc772745	-0.015085046
48	0xbcc13971	-0.02358696
49	0xbccc053d	-0.024904842
50	0xbccbc961	-0.024876298
51	0xbd3b2d75	-0.045697648
52	0xbd786b7c	-0.06064938
53	0xbd2b634b	-0.04184274
54	0x3d7342c9	0.059389863
55	0xbd804a8f	-0.06264221
56	0xbd6cdc46	-0.057827257
57	0xbc0340db	-0.008011068
58	0xbaf8e539	-0.0018989212
59	0xbd459161	-0.048234347
60	0xbd4e7bc3	-0.050410997
61	0xbcc1a996	-0.023640435
62	0x3d528b36	0.051402293
63	0x3d424b54	0.04743512
64	0xbd509352	-0.050921746
65	0x3d1b628c	0.03793578
66	0x3d416ae0	0.047221065
67	0xbcded865	-0.027202794
68	0x3d546fe6	0.051864527
69	0x3d4cc3ba	0.049991347
70	0x3c9aaddb	0.018881729
71	0xbcfa0463	-0.03051967
72	0xbd67332e	-0.056445293
73	0xbd781280	-0.060564518
74	0x3cc89c1a	0.024488498
75	0xbbe57d49	-0.0070034605
76	0xbd9325f9	-0.07184977
77	0x3d5d6243	0.054048788
78	0xbd5cfaeb	-0.05395023
79	0x3d36dfb5	0.044646937
80	0x3d0e25c4	0.034703985
81	0x3d244c99	0.04011211
82	0xbc33d5d1	-0.010976271
83	0xbcd1c348	-0.025605813
84	0xbd55814a	-0.052125253
85	0x3c957512	0.0182443
86	0xbd3be35f	-0.045871135
87	0x3cb31851	0.02186218
88	0xbcf07dd8	-0.029356882
89	0x3d481e69	0.048857126
90	0x38e745eb	0.000110279616
91	0x3cdcf4a1	0.026972117
92	0xbd235338	-0.039874285
93	0x3c40c394	0.011765379
94	0xbc26d6f1	-0.010183082
95	0x3d407738	0.046988696
96	0xbc2403a4	-0.010010634
97	0xbbe11cb1	-0.0068698754
98	0xbd088839	-0.033333037
99	0xbcd16412	-0.025560413
100	0xbcfa906c	-0.030586444
101	0x3cf0480a	0.029331226
102	0xbb651159	-0.0034952967
103	0xbd5afb1d	-0.053462137
104	0xbc23ee20	-0.010005504
105	0xbd308ea0	-0.043104768
106	0x3c089491	0.008336202
107	0xbd1b4e02	-0.03791619
108	0x3cd33ee0	0.025786817
109	0x3d3c5b8a	0.045985736
110	0xbca08891	-0.01959637
111	0x3d33eeca	0.0439289
112	0xbcc8c7b8	-0.024509296
113	0xba93fdb9	-0.0011290825
114	0x3c3fa0a5	0.0116960155
115	0xbc3882c1	-0.011261643
116	0xbae7fb07	-0.0017698713
117	0x3d462db3	0.048383426
118	0x3ce8d04e	0.02841964
119	0xbd6a25c9	-0.05716494
120	0x3d32e25b	0.0436729
121	0xbd2def5d	-0.042464603
122	0xbd497d6d	-0.04919188
123	0x3b939d01	0.0045048003
124	0xbc6facaa	-0.014628569
125	0x3c8c335a	0.01711433
126	0xbd4f5e3e	-0.050626986
127	0x3d6b247f	0.057407852
128	0x3ab1f594	0.0013577216
129	0x3d53c1ac	0.05169837
130	0x3cee116f	0.029061047
131	0x3bb39f0e	0.0054816073
132	0x3d0319c2	0.032006986
133	0x3cf799c4	0.030224688
134	0xb9c26e16	-0.00037084584
135	0x3b6099a6	0.003427127
136	0x3d50f261	0.0510124
137	0x3c838049	0.016052382
138	0xbbc761cf	-0.0060846577
139	0xbd295774	-0.041343167
140	0xbcd8c215	-0.026459733
141	0x3ce381e3	0.027771896
142	0x3d3315f4	0.043722108
143	0x3bf8b224	0.0075895954
144	0xbcfd7401	-0.030939104
145	0x3d0d6a1e	0.03452503
146	0x3ccaa078	0.02473472
147	0x3ce82d1f	0.028341828
148	0x3d7107ee	0.058845453
149	0x3cdd0b1c	0.026982836
150	0xbd6b5a34	-0.05745907
151	0xbd273957	-0.040826168
152	0xbd5a291b	-0.053261857
153	0x3b08e77d	0.002088993
154	0x3c9e1ddb	0.019301346
155	0xbd2ed5f9	-0.04268453
156	0xbd482a5d	-0.048868526
157	0x3d3bf6d1	0.04588968
158	0xbcd27431	-0.02569017
159	0xbd1d4b43	-0.038401853
160	0xbd684811	-0.056709353
161	0x3d58c281	0.05291987
162	0xbd87afeb	-0.066253506
163	0x3cb65f5a	0.022262264
164	0xbd52a47f	-0.051426407
165	0xbccdc9b6	-0.025120597
166	0x3c5819a2	0.013189705
167	0x3b8bc985	0.0042659664
168	0x3d30b1fb	0.043138485
169	0xbd7b9d34	-0.061429217
170	0xbd2becf1	-0.04197401
171	0x3cafa3c1	0.021440389
172	0xbd2d558f	-0.042317923
173	0xbd6ae32b	-0.05734555
174	0x3d1514f5	0.03639694
175	0x3d3faf15	0.04679783
176	0x3d517614	0.051138
177	0x3cab5019	0.020912217
178	0xbc81d7c7	-0.015849961
179	0xbd2792b9	-0.04091141
180	0x3d513e35	0.051084716
181	0x3d44b8ef	0.04802793
182	0x3c80842b	0.015688023
183	0x3d328c44	0.0435908
184	0x3cc85785	0.024455795
185	0xbc94fba7	-0.018186403
186	0xbcd1310a	-0.025536079
187	0xbc14960e	-0.009068979
188	0xbd70da52	-0.058801956
189	0xbd334c2c	-0.043773815
190	0x3d3f9023	0.04676832
191	0xbcd14859	-0.025547193
192	0xbd1a1998	-0.037622064
193	0x3cdf9905	0.027294645
194	0x3c392626	0.011300599
195	0x3cae11a3	0.021248644
196	0xbd8e2edd	-0.06942532
197	0xbd6cd666	-0.057821654
198	0x3cf81a52	0.030285988
199	0xbd829c77	-0.063774996
200	0xbd6cf4d6	-0.05785068
201	0xbd593bb5	-0.053035457
202	0xbd45c79e	-0.048286073
203	0xbd6fe530	-0.05856818
204	0x3c320739	0.01086598
205	0xbc7da2b5	-0.015480687
206	0xbcf821f3	-0.030289626
207	0xbc3a88da	-0.011385167
208	0x3d4dd77c	0.05025433
209	0xbc946b2e	-0.018117514
210	0xbd7c3d39	-0.061581824
211	0xbb9a2fcb	-0.0047054044
212	0xbbf5c5e2	-0.007500396
213	0xbd1bbfec	-0.038024828
214	0x3d0a6be6	0.033794306
215	0xbd862440	-0.06549883
216	0x3d43c823	0.047798287
217	0xbd807559	-0.06272382
218	0xbcbd2f75	-0.023093918
219	0x3d0b6b63	0.03403796
220	0x3c59643e	0.0132685285
221	0xbd6c7c94	-0.057735994
222	0xbcc5d1ed	-0.024147952
223	0x3d0c4356	0.034243904
224	0xbcfc9f23	-0.030837601
225	0xbd1b35a0	-0.037892938
226	0xbd57078f	-0.052497443
227	0x3c4dac36	0.012553265
228	0xbd6da928	-0.058022648
229	0x3d5e4f68	0.054274946
230	0x3b30ddb2	0.002698761
231	0x3c798ba7	0.01523105
232	0x3d4657e2	0.048423655
233	0xbd39435c	-0.045230255
234	0x3d5a7ac2	0.053339727
235	0xbd30688d	-0.043068457
236	0xbcbb4aa1	-0.022862734
237	0x3cf06979	0.029347168
238	0x3c2862b3	0.010277438
239	0x3c9e9eb7	0.01936279
240	0x3d2eaf20	0.04264748
241	0x3ce07e29	0.027403908
242	0xbd4bc050	-0.04974395
243	0xbbb253f0	-0.005442135
244	0xbd1d2653	-0.038366627
245	0xbd0bb389	-0.034106765
246	0x3d0d8b91	0.03455693
247	0x3ca4244d	0.02003684
248	0x3d0c1d07	0.03420737
249	0x3d30dfbd	0.043182123
250	0x39de051f	0.00042346955
251	0xbd85b4a5	-0.06528596
252	0xbd6c71ce	-0.05772572
253	0x3d5cb6a9	0.053885136
254	0xbcecb5c5	-0.028895268
255	0x3d37e687	0.044897582

fc1.bias f4 [64]
0	0x3d17ccc3	0.03706051
1	0xbd54318a	-0.051805057
2	0x3cec08e7	0.028812839
3	0xbd851f2a	-0.06500085
4	0x3c8825f9	0.01661967
5	0xbc2cd9cf	-0.0105499765
6	0xbc8bb3cc	-0.017053507
7	0xbcf21ed4	-0.029555716
8	0xbd4ae1bd	-0.049531687
9	0xbd0c5838	-0.03426382
10	0xbd0afea7	-0.03393426
11	0xbc475732	-0.012166785
12	0xbd2c4b9c	-0.042064294
13	0x3b511aeb	0.0031906914
14	0x3ca4c784	0.020114668
15	0xbba1f51d	-0.00494255
16	0x3cac9982	0.021069292
17	0xbd688784	-0.056769863
18	0xbb4e3607	-0.0031465308
19	0xbd00a4e3	-0.03140725
20	0xbc3aefac	-0.011409681
21	0xbd6ad212	-0.057329245
22	0xbd82ae68	-0.063809216
23	0x3d1b3684	0.037893787
24	0x3d8832f3	0.06650343
25	0x3d1c070a	0.03809265
26	0x3d45a689	0.048254523
27	0xbd84f18c	-0.06491384
28	0x3ce47281	0.027886631
29	0x3d026f99	0.03184471
30	0xbcc7620a	-0.02433874
31	0xbc80cd35	-0.01572285
32	0xbd0abbcd	-0.033870507
33	0x3b03ab8d	0.0020091266
34	0x3c4a0798	0.012330912
35	0x3d5750f4	0.052567437
36	0x3d787cc1	0.06066585
37	0x3b4c5e65	0.0031184193
38	0x3d25a805	0.04044344
39	0x3d22459c	0.039617166
40	0x3cfc7ca5	0.030821154
41	0x3d63dba8	0.055629402
42	0x3d067c5c	0.032833442
43	0xbd434d3d	-0.047681082
44	0xbaf2c7aa	-0.0018522639
45	0xbd8b6795	-0.06806866
46	0x3c0b658f	0.0085081
47	0xbcf452cf	-0.029824642
48	0xbd50e0d2	-0.050995655
49	0xbc6111d8	-0.013737164
50	0xbd22c800	-0.039741516
51	0x3d1ebc2a	0.038753666
52	0x3d891c21	0.06694818
53	0xbd546afd	-0.051859844
54	0x3d1a5df9	0.037687276
55	0xbced3749	-0.028957026
56	0xbc37f50f	-0.01122786
57	0xbb865083	-0.004098953
58	0x3d6c9128	0.05775562
59	0xbbf79ac0	-0.0075562894
60	0xbd4497eb	-0.047996443
61	0xbbafe39d	-0.00536771
62	0xbcb884c7	-0.02252425
63	0xbd026a1e	-0.031839482

fc2.weight f4 [5, 64]
0	0xbcc75070	-0.024330348
1	0x3d196fec	0.037460253
2	0xbd99236e	-0.07477461
3	0x3e02788b	0.12741296
4	0xbda11afb	-0.07866474
5	0x3dd989d6	0.10621993
6	0xbd9c2eba	-0.076261
7	0x3ce691f6	0.028145771
8	0xbc95a509	-0.018267171
9	0xbda06fc7	-0.0783382
10	0x3d994433	0.07483711
11	0x3db68401	0.089118965
12	0x3d9238d2	0.07139744
13	0x3ded54f1	0.11588467
14	0xbd25cf89	-0.040481124
15	0xbd0a0ea6	-0.033705376
16	0xbd1d6ec4	-0.038435712
17	0x3d0f4856	0.034981094
18	0x3d97911c	0.07400724
19	0x3dd3c145	0.103395976
20	0x3c926f01	0.017875196
21	0x3deb6bde	0.114951834
22	0x3d2f6fc3	0.042831194
23	0x3de24a29	0.11049301
24	0x3d9e366e	0.077252254
25	0xbded9595	-0.11600796
26	0x3dbdfe80	0.09277058
27	0xbde20753	-0.11036553
28	0xbd93e16e	-0.07220732
29	0xbc6b1e23	-0.014350447
30	0x3df42fa9	0.11923153
31	0x3c9a857c	0.018862478
32	0xbddad69d	-0.106854655
33	0xbda13e6e	-0.07873236
34	0xbe041b8e	-0.12901136
35	0x3d917f50	0.07104361
36	0xbdecc5e0	-0.11561179
37	0x3db85d6e	0.09002195
38	0xbd85b307	-0.065282874
39	0xbc8b87cf	-0.017032532
40	0xbd677ffd	-0.056518544
41	0x3aabbc0f	0.001310231
42	0x3d287e2a	0.041135944
43	0x3cfe6e7a	0.031058539
44	0x3dfcbbfe	0.12340544
45	0x3cb52683	0.02211309
46	0x3c08854a	0.00833256
47	0xbb8a2e97	-0.0042169797
48	0x3d9d4f8d	0.07681189
49	0x3ca383d0	0.019960314
50	0x3cb598c8	0.022167578
51	0x3dc3a644	0.09553197
52	0x3e0a5d37	0.13512121
53	0xbd9aa271	-0.075505145
54	0x3c8d7a8d	0.01727035
55	0xbd25d5d6	-0.040487133
56	0x3c268191	0.010162727
57	0x3c8f047e	0.017458197
58	0xbda85dcd	-0.08221016
59	0xbc477027	-0.012172735
60	0xbd76a321	-0.060214166
61	0xbd912053	-0.070862435
62	0x3df2455a	0.11829634
63	0xbcb9d958	-0.022686645
64	0x3bfa545c	0.007639451
65	0xbd56e4f8	-0.052464455
66	0xbd5c36a1	-0.053763036
67	0xbd7a33ac	-0.061084434
68	0xbdd8bd01	-0.10582925
69	0xbdbe524f	-0.09293043
70	0x3d956d5a	0.07296248
71	0x3ddadb6e	0.10686384
72	0xbd730520	-0.05933106
73	0xbe01bec7	-0.12670432
74	0xbdcba5bc	-0.09943721
75	0xbdd79a75	-0.10527507
76	0x3c27ffe0	0.010253876
77	0x3df4a0cc	0.11944732
78	0xbd02f9ab	-0.031976383
79	0x3e17a621	0.14809467
80	0x3c4dbdb6	0.012557438
81	0x3d6f6c3a	0.058452822
82	0xbdbfa172	-0.09356965
83	0x3d32c6b4	0.04364653
84	0x3d25cd69	0.040479098
85	0x3d4ce5e7	0.05002394
86	0xbdbaab44	-0.091146976
87	0x3d87e512	0.066354886
88	0xbdd19108	-0.10232741
89	0x3d48ad84	0.048993602
90	0xbc13ab10	-0.009012952
91	0x3db0c5bb	0.08631464
92	0xbd1a59fb	-0.03768347
93	0x3da77380	0.08176327
94	0xbbb224c9	-0.005436514
95	0x3c004ae8	0.007830359
96	0x3df043a7	0.11731654
97	0xbceb8a1c	-0.02875238
98	0x3d72ff5b	0.059325557
99	0xbe0088cd	-0.12552185
100	0xbdc2241f	-0.09479546
101	0x3db93b00	0.090444565
102	0x3c74c128	0.01493863
103	0x3cf33def	0.029692618
104	0x3ce46ce3	0.027883952
105	0x3d327fdf	0.04357898
106	0x3dc8215d	0.097719885
107	0x3dd8b42e	0.105812415
108	0xbb09b80a	-0.0021014237
109	0xba9613e4	-0.001145002
110	0x3d8c6b7b	0.06856438
111	0xbddc9a83	-0.10771658
112	0x3dd03ec8	0.101682246
113	0x3c61ea60	0.0137887895
114	0x3d802b3e	0.06258248
115	0xbe0b95f8	-0.13631427
116	0x3e127a46	0.14304456
117	0xbdd1150d	-0.10209093
118	0x3a3b8a17	0.0007154061
119	0x3db3d5a6	0.087809846
120	0xbd4b5334	-0.049639896
121	0xbdab5f15	-0.08367745
122	0x3d69e03b	0.05709861
123	0xbcdc2cbf	-0.026876805
124	0x3d6b2b72	0.05741448
125	0xbdc41f55	-0.095762886
126	0x3ced3a70	0.02895853
127	0xbc4aac5c	-0.012370195
128	0x3d9fe870	0.07808006
129	0x3d8f27a2	0.06989981
130	0xbdb29f2e	-0.08721767
131	0x3c29c53d	0.010361967
132	0xbd7f3ff2	-0.062316842
133	0x3c7ace39	0.015307956
134	0xbd582254	-0.052767113
135	0x3de579ab	0.11204847
136	0x3df0762a	0.11741288
137	0xbda6e892	-0.08149828
138	0xbcda972d	-0.026683414
139	0x3b00a26c	0.001962806
140	0xbddb8a04	-0.10719684
141	0x3bc34bc4	0.0059599597
142	0xbde9e6d8	-0.11420983
143	0xbdfeaccf	-0.124353044
144	0xbcef578c	-0.02921655
145	0xbd0031a2	-0.031297334
146	0x3c24a0a0	0.010048062
147	0x3dbb0a0f	0.09132778
148	0x3dd08305	0.1018124
149	0x3dced53d	0.10099266
150	0xbd06efd5	-0.032943565
151	0x3db092d0	0.08621752
152	0x3d802220	0.06256509
153	0xbd9d4ad7	-0.0768029
154	0x3b2ddec6	0.0026530488
155	0xbc7f4d0d	-0.015582335
156	0xbd6ca281	-0.057772163
157	0xbd7bf2c4	-0.061510816
158	0xbd456eb5	-0.04820128
159	0xbde1958d	-0.11014853
160	0x3d0a3447	0.03374126
161	0x3dd81744	0.105513126
162	0x3db79391	0.08963693
163	0x3e0bd545	0.13655575
164	0xbb0ecc53	-0.0021789267
165	0x3d83b797	0.06431501
166	0x3dd9ed19	0.10640926
167	0xbd52639d	-0.05136453
168	0x3d69fa24	0.05712332
169	0x3da94c3c	0.08266494
170	0xbd8386d6	-0.06422202
171	0x3db1ed1f	0.086878054
172	0xbc8830b3	-0.016624784
173	0xbcea0311	-0.028565915
174	0xbd4cfa8f	-0.05004364
175	0xbc736cd1	-0.014857487
176	0xbddc6821	-0.107620485
177	0xbd8d1e82	-0.068905845
178	0xbdf900e8	-0.12158376
179	0xbc57965a	-0.013158405
180	0x3dcc1333	0.099645995
181	0x3dc272d5	0.09494559
182	0xbdedcdde	-0.11611532
183	0x3d365a9d	0.04452001
184	0x3dab0887	0.08351236
185	0xbdaa2fb3	-0.08309879
186	0x3da8aea8	0.08236438
187	0x3d58d2c0	0.05293536
188	0xbc761ec9	-0.015021988
189	0x3da44efc	0.080228776
190	0x3df34644	0.118786365
191	0xbca35ff8	-0.019943222
192	0xbd8ad015	-0.0677797
193	0xbde83166	-0.11337547
194	0xbd3aedab	-0.045636814
195	0xbdf55bac	-0.11980376
196	0x3d1c356d	0.03813689
197	0x3df9f7ad	0.122054435
198	0x3dbace2e	0.09121357
199	0xbd7f0733	-0.062262725
200	0x3ddb6e78	0.107144296
201	0x3c84f3a0	0.01622945
202	0x3d85df05	0.06536678
203	0x3de4245c	0.111397475
204	0xba149000	-0.00056672096
205	0x3c138d3f	0.009005844
206	0x3d6e5b0d	0.0581923
207	0x3d42fcd9	0.047604416
208	0x3b2997a8	0.0025877748
209	0xbd9119de	-0.07085012
210	0xbcc2bad0	-0.02377072
211	0xbd38e488	-0.04513982
212	0xbd97ddfc	-0.07415387
213	0xbdb167bc	-0.08662364
214	0xbd8deb89	-0.069296904
215	0x3e0e48ac	0.1389491
216	0x3df60ff7	0.12014764
217	0xbd99f1d3	-0.075168274
218	0x3da3f74f	0.08006155
219	0xbca525a9	-0.02015956
220	0x3cbd4a1b	0.023106625
221	0xbd37ab14	-0.044840887
222	0x3ddc365f	0.10752558
223	0xbcec75b9	-0.028864728
224	0xba7d806a	-0.0009670319
225	0x3dd415cb	0.10355719
226	0xbcba4050	-0.022735745
227	0x3d71bfa2	0.059020646
228	0x3d02a171	0.031892244
229	0x3daa11cc	0.08304176
230	0xbc95b34e	-0.018273976
231	0xbdb84c94	-0.08998981
232	0xbb29137b	-0.0025798965
233	0x3d82e1c7	0.0639072
234	0x3d31e8cf	0.043434914
235	0xbd451eac	-0.048124954
236	0x3dba0b19	0.09084148
237	0x3c431472	0.01190673
238	0xbd9c0be5	-0.07619456
239	0xbc99a319	-0.018754529
240	0x3ba49f68	0.0050238855
241	0xbd945cfa	-0.07244296
242	0xbd93ec6c	-0.07222828
243	0x3d41b590	0.047292292
244	0x3e0156e8	0.12630808
245	0xbda199ee	-0.07890688
246	0x3dd53fa1	0.10412527
247	0x3ddcb037	0.10775798
248	0xbdf58444	-0.11988118
249	0x3ba3bda1	0.0049969708
250	0x3d80be94	0.0628635
251	0xbdb0fc88	-0.086419165
252	0xb837d97c	-4.3833148e-05
253	0x3d5d7327	0.054064896
254	0xbce72413	-0.028215444
255	0x3dc213f7	0.09476464

fc2.bias f4 [5]
0	0x3e06402e	0.1311042
1	0xbdbfe1f1	-0.09369267
2	0xbda3ccca	-0.07998045
3	0x3c8ec2a3	0.017426794
4	0xbdeb9f69	-0.115050144
