SimpleQMIX_everything_random_blox_gamma0.95_lr0.0001_hidden64_target10/agent3_40.pth (torch, 745108 bytes, 10 tensors)

c1.weight f4 [32, 8, 3, 3]
-0.097853765 0.107364774 -0.03409022 -0.051928006 0.019420478 -0.080762595 -0.06190895 -0.030496972
-0.012842646 0.12974182 0.04375471 -0.022733303 0.07153707 0.04559619 0.027712159 0.08918739
0.06272112 0.09488798 -0.049104467 -0.039998062 -0.06765804 -0.09801493 0.05505862 0.05490335
-0.0109868795 0.07104146 -0.040572353 0.10957158 0.061820306 0.0045184344 0.08437096 -0.0073633194
-0.09716022 0.016050883 -0.027635507 -0.059148844 -0.1315407 0.09610621 0.03305997 0.10973857
0.047834374 -0.04316175 0.057395417 -0.033328135 0.035868157 0.096367165 0.051440313 0.0056998427
-0.17634472 0.14483452 0.11365921 0.08017644 0.04428622 0.030764006 0.09008236 -0.14081293
-0.07433575 -0.060726784 0.025785131 -0.017369758 0.09233523 0.093617395 -0.077930674 -0.0055170376
0.104548484 -0.060037337 0.08434555 0.059651855 0.07998536 0.102157526 0.10695123 -0.121797614
0.033406775 -0.020883035 -0.034196865 0.11720609 0.04161727 0.114219554 -0.08815526 -0.03977995
-0.032681905 0.0986612 -0.05638252 0.026235867 0.11961629 0.10021704 0.056909706 0.01113631
0.092675336 0.0073102023 0.11289693 0.05134455 0.10773081 -0.015992746 -0.015202142 -0.019938044
0.059960403 -0.061365347 0.09925073 0.004125148 0.06023588 -0.035113253 -0.035309337 -0.11161036
-0.0731457 -0.04766293 0.07480494 0.088770024 0.01083011 0.029787838 0.03251611 -0.035058174
-0.010107239 -0.04749467 0.013924439 0.04876408 0.054963183 -0.09165048 0.08889645 0.010488519
0.12304074 -0.052604124 0.111907765 0.03295862 0.02181616 0.005828262 0.09932153 -0.033678308
-0.101261206 0.013337149 0.03451895 -0.020537581 0.04624583 -0.052951213 0.053250328 -0.092975125
0.09781653 -0.119827606 0.063075885 0.083682574 -0.11881867 0.0110621 -0.022428766 0.082589835
0.11184128 0.039307017 0.110690854 -0.101659596 0.042731743 -0.003932578 -0.050840855 -0.09744828
0.0012191259 0.13949205 0.05785578 -0.013592773 -0.051345274 0.04722697 0.13484924 -0.007864937
-0.010252957 0.10141723 -0.06492238 0.0984504 0.021703623 -0.0753725 0.038782112 0.006651759
-0.07041813 -0.10888339 0.08386467 0.035952695 0.07062576 -0.053829014 -0.10611138 -0.075761095
-0.074296504 0.05442155 0.02243819 -0.02695129 0.10170731 -0.11760473 -0.117874764 -0.07466554
0.058170922 0.04762909 -0.017894467 0.031644404 0.123235054 0.06563475 -0.02346868 0.06615539
-0.0038958741 -0.015537492 -0.043191426 0.031573992 -0.07292478 -0.0019423435 -0.0069191735 -0.102232166
0.065419845 -0.037134804 -0.117007084 -0.0149288 -0.09728131 -0.065001585 -0.054280445 -0.09127805
-0.028762162 -0.02036795 0.04712353 0.011693782 -0.041915372 0.08044919 -0.090159886 0.10082062
-0.011576444 -0.079891615 0.030690607 -0.081990145 -0.05178731 0.010654609 -0.012023424 -0.1047238
-0.00103697 -0.18065944 -0.069346465 -0.048387468 -0.0053147245 -0.19712587 0.05208158 -0.20942864
0.063364156 0.09187724 -0.07677449 -0.06522433 -0.08262856 -0.082145855 0.059294187 0.089770205
-0.065701306 -0.036639914 -0.00479006 0.041285865 -0.098722406 -0.11435527 -0.08001253 -0.02759125
-0.03908634 0.08928194 -0.004699245 -0.023421578 0.050153445 0.05417543 -0.0036817733 -0.11674583
00000000: 8e67 c8bd 10e2 db3d 30a2 0bbd 76b2 54bd
00000010: b217 9f3c dc66 a5bd 3d94 7dbd c9d4 f9bc
00000020: f669 52bc 0adb 043e 2438 333d 313b babc
00000030: 0782 923d 12c3 3a3d 9c04 e33c e1a7 b63d
00000040: ee73 803d a154 c23d c421 49bd 02d5 23bd
00000050: 4c90 8abd 0dbc c8bd 2685 613d 56e2 603d
00000060: 5002 34bc 2f7e 913d 322f 26bd 1167 e03d
00000070: 4a37 7d3d 600f 943b afca ac3d 0048 f1bb
00000080: f0fb c6bd 247d 833c dc63 e2bc 0f46 72bd
00000090: 9bb2 06be 55d3 c43d e469 073d 9ebe e03d
000000a0: faed 433d 60ca 30bd 7517 6b3d 1583 08bd
000000b0: 7dea 123d 265c c53d 14b3 523d bfc5 ba3b
000000c0: b693 34be 804f 143e 29c6 e83d 8c33 a43d
000000d0: 7865 353d cc04 fc3c 1a7d b83d 4431 10be
000000e0: 573d 98bd a6bc 78bd 573b d33c 064b 8ebc
000000f0: 411a bd3d 7aba bf3d 1e9a 9fbd 44c8 b4bb
00000100: 841d d63d b6e9 75bd 5cbd ac3d 8155 743d
00000110: 5dcf a33d f737 d13d 3f09 db3d 0771 f9bd
00000120: 8bd5 083d e612 abbc 0312 0cbd bf09 f03d
00000130: df76 2a3d f1eb e93d bf8a b4bd 4df0 22bd
00000140: 76dd 05bd e20e ca3d 5bf1 66bd 9aec d63c
00000150: 63f9 f43d 973e cd3d 271a 693d 1275 363c
00000160: 91cc bd3d 6c8a ef3b 8136 e73d aa4e 523d
00000170: f9a1 dc3d 3803 83bc 6812 79bc 1c55 a3bc
00000180: 0a99 753d 3b5a 7bbd f743 cb3d 402c 873b
00000190: e6b9 763d ead2 0fbd 86a0 10bd f993 e4bd
000001a0: 6acd 95bd 343a 43bd 5533 993d 0fcd b53d
000001b0: c670 313c a005 f43c 9d2f 053d 2999 0fbd
000001c0: d598 25bc c589 42bd 5523 643c d8bc 473d
000001d0: 1321 613d 3fb3 bbbd 580f b63d 0ad8 2b3c
000001e0: c9fc fb3d 6c77 57bd e62f e53d 9eff 063d
000001f0: ceb7 b23c 01fb be3b 1669 cb3d 44f2 09bd
00000200: 0962 cfbd 0f84 5a3c be63 0d3d 6e3e a8bc
00000210: 446c 3d3d 5fe3 58bd 041d 5a3d be69 bebd
00000220: 0854 c83d 2d68 f5bd ee2d 813d c561 ab3d
00000230: 3457 f3bd cf3d 353c 88bc b7bc dc24 a93d
00000240: 0a0d e53d 6500 213d e3b1 e23d e832 d0bd
00000250: 7b07 2f3d dbdc 80bb 803e 50bd f792 c7bd
00000260: 14cb 9f3a 01d7 0e3e 2ffa 6c3d 39b4 5ebc
00000270: 6c4f 52bd 1171 413d eb15 0a3e f0db 00bc
00000280: 05fc 27bc d6b3 cf3d 06f6 84bd 5da0 c93d
00000290: cccb b13c e65c 9abd fed9 1e3d 00f7 d93b
000002a0: 6137 90bd 41fe debd 3dc1 ab3d 2243 133d
000002b0: 3da4 903d d07b 5cbd ec50 d9bd a228 9bbd
000002c0: c428 98bd 22e9 5e3d 4cd0 b73c f4c8 dcbc
000002d0: ec4b d03d c0da f0bd 5368 f1bd 3fea 98bd
000002e0: a244 6e3d b816 433d 6b97 92bc 909d 013d
000002f0: a962 fc3d 836b 863d 6441 c0bc 7a7c 873d
00000300: ec51 7fbb f790 7ebc 7ee9 30bd bb53 013d
00000310: 9659 95bd 3c96 feba 3cba e2bb 195f d1bd
00000320: d7fa 853d aa1a 18bd 69a1 efbd ed97 74bc
00000330: 6c3b c7bd 8d1f 85bd 2c55 5ebd fcef babd
00000340: a09e ebbc b0da a6bc 9a04 413d 4797 3f3c
00000350: 74af 2bbd 8cc2 a43d bfa5 b8bd 0b7b ce3d
00000360: 20ab 3dbc 379e a3bd de6a fb3c 73ea a7bd
00000370: ee1e 54bd ab90 2e3c e5fd 44bc 6f79 d6bd
00000380: f0ea 87ba cafe 38be 8505 8ebd f031 46bd
00000390: 2427 aebb 5ddb 49be 7f53 553d 7674 56be
000003a0: 11c5 813d 222a bc3d f23b 9dbd 5594 85bd
000003b0: 2a39 a9bd 163c a8bd 76de 723d 71d9 b73d
000003c0: 688e 86bd bc13 16bd f0f5 9cbb 5e1b 293d
000003d0: f92e cabd 1933 eabd 9cdd a3bd 0c07 e2bc
000003e0: 0019 20bd 73d9 b63d 20fc 99bb 9cde bfbc
000003f0: b36d 4d3d 0ee7 5d3d e849 71bb 7018 efbd

c1.bias f4 [32]
0.076713406 0.11495364 -0.014749829 0.006272075 0.03867111 -0.04369009 0.10627585 -0.09479586
-0.029403131 0.03294879 0.0698286 0.068187065 0.087891705 0.05995712 -0.011253602 -0.0473362
0.032765392 -0.067153215 0.08279855 -0.07897304 -0.10760751 -0.07929952 -0.09824529 -0.11061756
0.07311958 0.096829176 0.06492008 -0.02744639 -0.10366903 -0.11544343 0.018055191 0.094298676
00000000: eb1b 9d3d d06c eb3d 44a9 71bc fb85 cd3b
00000010: 9965 1e3d 61f4 32bd 27a7 d93d 5524 c2bd
00000020: d6de f0bc 4ff5 063d 4c02 8f3d a9a5 8b3d
00000030: 9100 b43d 9995 753d 0761 38bc 9ae3 41bd
00000040: 0135 063d a087 89bd 4992 a93d 9ebc a1bd
00000050: 5461 dcbd c967 a2bd d434 c9bd 768b e2bd
00000060: b8bf 953d 604e c63d d2f4 843d 40d7 e0bc
00000070: 6e50 d4bd 9b6d ecbd 7be8 933c aa1f c13d

c2.weight f4 [64, 32, 3, 3]
0.002875033 -0.0057482184 -0.024382908 0.009388671 0.05418486 -0.023275658 0.020307662 -0.011301162
-0.018007515 -0.0071035526 -0.0024026204 0.025913086 -0.009042565 0.03238617 -0.040159978 -0.036054265
0.026614107 -0.022300024 0.017722 0.00018662366 -0.032083616 -0.030585065 0.027446242 0.03611716
-0.05519308 -0.0577558 -0.020212356 0.02780129 0.002196073 -0.011899869 -0.0083791 -0.034553435
0.03672044 -0.036972623 0.026864689 0.046805095 -0.033618715 0.010185574 -0.051828932 -0.049001712
-0.037339833 0.04798221 0.037322324 0.054381464 -0.0053207697 0.034873214 0.021255188 -0.052348875
-0.011328445 0.047416415 -0.044161756 -0.026872901 -0.031702247 -0.03963889 0.031940293 -0.0087791905
-0.016482787 -0.047761712 0.01313593 0.04793178 -0.0073766615 -0.056133535 0.05048446 -0.030378869
-0.015880693 0.014007787 0.041331433 -0.040307026 -0.03916502 0.015189643 0.014385449 -0.041625373
-0.059790764 0.010555708 -0.010485939 -0.04951937 -0.015266637 -0.045257658 0.055237 0.031978432
-0.046792682 0.011470161 0.047058787 0.004343086 -0.009926714 -0.049430866 0.041264635 -0.04919717
0.048489578 0.020208199 -0.020581821 0.008351963 -0.057138734 0.050803166 -0.034160554 -0.014111039
0.04028086 -0.046546657 -0.0023817508 0.04574007 -0.04406605 -0.015693948 -0.0021267678 -0.03547583
0.020900968 0.0034212274 0.020373123 -0.011612661 -0.03518974 0.020556998 -0.013785504 -0.054089714
0.047431134 -0.047730587 0.028771086 0.029270561 0.008139986 -0.029759571 -0.003823458 -0.022692053
-0.032450788 0.023884216 0.033239927 0.03219843 0.03283015 0.025787186 -0.05103327 0.0075234356
0.008255104 0.008672736 0.032194927 -0.015170793 0.015776286 0.01737604 0.040956844 0.019858154
0.05386625 -0.048007917 -0.05209329 0.0024317673 -0.040154893 0.049659483 0.05248129 -0.05080264
0.029827215 -0.013334886 0.037550293 -0.02073996 0.034223225 0.054556414 -0.05863746 -0.0381206
-0.053317394 -0.052075293 0.030725569 -0.029086055 0.04519158 -0.021984767 -0.0023305826 -0.030831175
0.023486705 -0.041444827 -0.05565587 -0.031980187 0.03691908 -0.06264413 -0.032708675 -0.038838193
-0.015621415 0.018450845 -0.055338517 -0.05459863 0.046120055 0.0061665718 -0.019984452 0.05837409
0.035300557 0.0011802483 -0.008082884 0.016052669 -0.046754684 -0.00638219 0.047885045 0.0064779813
0.04128534 0.05220118 0.057192486 -0.053596094 -0.009159877 0.0020179832 0.004805329 0.027776958
0.006737675 0.035608046 0.006062774 0.012129453 -0.0010666279 -0.014090289 0.042753525 -0.055664398
-0.026292244 0.019960219 0.030354341 -0.042623643 -0.018830067 -0.008362048 0.055217005 0.051107917
0.007827527 -0.050844315 0.010268281 -0.023627575 -0.02626358 0.050079565 0.014842721 0.055822395
0.05013077 0.041162197 0.05108487 0.044881854 0.026110481 0.039202295 -0.026252886 -0.043472715
0.0190425 0.01291433 -0.055564556 -0.030419357 -0.025269303 -0.038402677 0.034577318 -0.043362252
-0.044226475 0.011088206 -0.0060628657 -0.060136396 0.020366231 -0.05519524 -0.022504605 -0.034975287
-0.050045867 -0.057530865 0.007399632 0.03483498 -0.051022142 -0.058739383 -0.031626284 -0.05571613
0.0363712 -0.001391935 0.043087773 -0.05059007 -0.028154273 0.023634994 0.0016117649 0.029076494
00000000: 0d6b 3c3b 8d5b bcbb aabe c7bc f1d2 193c
00000010: f2f0 5d3d 98ac bebc 415c a63c 8228 39bc
00000020: 7f84 93bc ebc4 e8bb 4875 1dbb ae47 d43c
00000030: 4427 14bc 5ca7 043d ca7e 24bd a3ad 13bd
00000040: d405 da3c 8aae b6bc ba2d 913c 68b0 4339
00000050: 1c6a 03bd 888d fabc f1d6 e03c 96ef 133d
00000060: 2412 62bd 5991 6cbd 6294 a5bc 88bf e33c
00000070: feeb 0f3b abf7 42bc 7e48 09bc e787 0dbd
00000080: 2c68 163d 9b70 17bd 5613 dc3c b3b6 3f3d
00000090: c7b3 09bd 65e1 263c 934a 54bd 05b6 48bd
000000a0: a7f1 18bd fe88 443d 4bdf 183d 19bf 5e3d
000000b0: da59 aebb 37d7 0e3d 5c1f ae3c c66b 56bd
000000c0: f19a 39bc b737 423d f5e2 34bd 8f24 dcbc
000000d0: 37da 01bd 645c 22bd d3d3 023d 98d6 0fbc
000000e0: e906 87bc c9a1 43bd 1538 573c 1d54 443d
000000f0: ecb7 f1bb 47ec 65bd cbc8 4e3d 1bdd f8bc
00000100: 3a18 82bc eb80 653c 264b 293d fb18 25bd
00000110: 806b 20bd fbdd 783c f2b0 6b3c 5e7f 2abd
00000120: 29e7 74bd d9f1 2c3c 37cd 2bbc d3d4 4abd
00000130: eb20 7abc 1860 39bd 3140 623d d1fb 023d
00000140: afa9 3fbd 58ed 3b3c b7c0 403d 7250 8e3b
00000150: a8a3 22bc 0578 4abd 1b05 293d f982 49bd
00000160: 029d 463d aa8b a53c 359b a8bc acd6 083c
00000170: 4e0a 6abd fb16 503d f0eb 0bbd fd31 67bc
00000180: 8bfd 243d b5a7 3ebd 2617 1cbb f159 3b3d
00000190: 9a7e 34bd 9890 80bc 3e61 0bbb 1b4f 11bd
000001a0: 8238 ab3c ac36 603b 89e5 a63c 0843 3ebc
000001b0: 1e23 10bd 2667 a83c 98dc 61bc 2d8d 5dbd
000001c0: 2647 423d 2681 43bd 57b1 eb3c d1c8 ef3c
000001d0: 935d 053c 58ca f3bc fb92 7abb afe4 b9bc
000001e0: 1eeb 04bd d5a8 c33c 9726 083d 80e2 033d
000001f0: e878 063d a63f d33c 4308 51bd 2787 f63b
00000200: 6a40 073c 1718 0e3c d4de 033d eb8e 78bc
00000210: 453d 813c 3258 8e3c 5dc2 273d 91ad a23c
00000220: dba2 5c3d f3a3 44bd c65f 55bd 495e 1f3b
00000230: 7579 24bd be67 4b3d 9ff6 563d 6e16 50bd
00000240: 3458 f43c 917a 5abc 56ce 193d d9e6 a9bc
00000250: a72d 0c3d 8c76 5f3d d52d 70bd 5924 1cbd
00000260: 5763 5abd e74c 55bd 30b4 fb3c e145 eebc
00000270: ce1a 393d 6619 b4bc b0bc 18bb a991 fcbc
00000280: 3167 c03c 0dc2 29bd 69f7 63bd a8fd 02bd
00000290: 7638 173d 914b 80bd 88f9 05bd cc14 1fbd
000002a0: f7f0 7fbc 3a26 973c a4aa 62bd d0a2 5fbd
000002b0: 62e8 3c3d f410 ca3b 6fb6 a3bc ab19 6f3d
000002c0: 5197 103d 90b2 9a3a 136e 04bc e380 833c
000002d0: d781 3fbd b121 d1bb 1c23 443d 3f45 d43b
000002e0: d11a 293d e8d0 553d ab42 6a3d 9487 5bbd
000002f0: 4f13 16bc 2440 043b 0576 9d3b 818c e33c
00000300: b7c7 dc3b bed9 113d 3caa c63b 9dba 463c
00000310: 18ce 8bba f5da 66bc 521e 2f3d 5a00 64bd
00000320: d562 d7bc 9d83 a33c aba9 f83c 2196 2ebd
00000330: 8341 9abc f900 09bc 3a2b 623d 8956 513d
00000340: 073f 003c 2142 50bd 4b3c 283c 9e8e c1bc
00000350: b826 d7bc 3b20 4d3d e22e 733c 06a6 643d
00000360: ec55 4d3d b199 283d 5e3e 513d 09d6 373d
00000370: a6e5 d53c 9692 203d 4b10 d7bc 7210 32bd
00000380: 04ff 9b3c a096 533c a997 63bd 0432 f9bc
00000390: 9201 cfbc 204c 1dbd f2a0 0d3d 9e9c 31bd
000003a0: d226 35bd 4fab 353c 01ab c6bb 9551 76bd
000003b0: 15d7 a63c 6714 62bd 945b b8bc 3f42 0fbd
000003c0: e5fc 4cbd 7ca5 6bbd 9d78 f23b 20af 0e3d
000003d0: 98fc 50bd b598 70bd 908a 01bd 9936 64bd
000003e0: f8f9 143d 9771 b6ba ce7c 303d 8937 4fbd
000003f0: caa3 e6bc 2d9e c13c db41 d33a d431 ee3c

c2.bias f4 [64]
-0.052820746 0.06305325 0.026430875 0.02167087 -0.01864035 0.03242251 -0.034881882 0.05433481
-0.047691174 0.026868327 -0.04352647 -0.043886136 0.0034807622 -0.05098129 0.025425125 -0.025058294
0.063851126 0.074393936 0.042535987 -0.06556404 -0.01399763 -0.04555249 0.043836243 -0.021380724
0.0002328109 -0.018518835 0.028110208 0.03091536 -0.019326026 -0.052138593 0.021437766 -0.0004181211
0.03354748 0.03435254 -0.0019469751 0.0124017475 0.050456494 0.040245853 -0.022008507 0.06026165
-0.009197792 -2.7847827e-05 0.03611037 0.04844464 0.031011147 -0.008011801 -0.022319024 0.014161968
0.012571338 0.0011106697 -0.014229359 -0.021616388 0.040741 0.04304375 0.028345386 0.0031349307
-0.030218912 0.014194929 0.045395453 0.06543524 0.039827887 -0.046099816 -0.047064964 0.021529552
00000000: 915a 58bd 1022 813d 9085 d83c 1c87 b13c
00000010: a6b3 98bc 77cd 043d 4ee0 0ebd 2d8e 5e3d
00000020: d257 43bd f71a dc3c d048 32bd f3c1 33bd
00000030: 801d 643b c2d1 50bd 5a48 d03c 0d47 cdbc
00000040: 61c4 823d d95b 983d 373a 2e3d 7046 86bd
00000050: 5156 65bc 3f95 3abd a28d 333d a126 afbc
00000060: b31e 7439 d0b4 97bc 6147 e63c 3642 fd3c
00000070: 9d51 9ebc 478f 55bd 419e af3c 4437 dbb9
00000080: 1569 093d 40b5 0c3d a531 ffba b330 4b3c
00000090: 78ab 4e3d d6d8 243d 2f4b b4bc ebd4 763d
000000a0: 56b2 16bc c19a e9b7 78e8 133d e36d 463d
000000b0: 170b fe3c ee43 03bc 63d6 b6bc 9907 683c
000000c0: 03f8 4d3c e493 913a 4222 69bc da14 b1bc
000000d0: 09e0 263d a54e 303d 9534 e83c 6973 4d3b
000000e0: a78d f7bc d991 683c 95f0 393d e902 863d
000000f0: 9122 233d 29d3 3cbd 31c7 40bd be5e b03c

c3.weight f4 [256, 64, 3, 3]
0.020970557 0.0029562805 -0.02697355 0.0054880776 0.029629722 -0.017030481 0.009383397 -0.0002207211
0.031360496 0.04846131 0.03437461 0.033783007 0.05989633 0.049346846 0.032615326 -0.0001682147
0.0330735 -0.006257299 0.027413048 0.009236621 -0.016219288 -0.020057883 -0.0055923234 -0.017848508
0.057400756 0.023372296 0.053037923 -0.014419101 0.0017487691 0.063829385 0.0392816 0.020475281
-0.0110201845 0.049365398 -0.0035620204 0.056420673 0.041235186 0.022854026 0.009770738 -0.011443173
0.056502882 0.04443113 -0.00015651759 0.04904267 0.06165668 0.09671161 0.085268855 0.044908814
0.036127076 0.03882305 0.054584946 0.017622227 0.01474035 0.10162408 0.03447521 0.018784221
0.024357343 0.008352374 0.034695003 0.049693365 0.019170064 -0.0121567575 0.029314825 0.0002562279
0.024852103 -0.003459383 -0.010795582 -0.014640711 0.017841885 0.055985536 0.018755956 0.03273867
-0.00721332 -0.030383345 -0.013665982 0.017787758 0.011770698 -0.021176849 -0.0022462048 -0.0443904
-0.004759886 0.015180459 0.03269789 0.05549416 0.026404722 -0.016279979 0.022836033 0.03665354
0.01755424 0.06163396 0.094098456 0.07795693 0.09417842 0.046250675 0.11430265 0.095579155
0.02546024 0.028447932 0.050675914 0.042317137 0.04005051 0.015698396 0.04187432 -0.006299056
0.013222788 0.045820214 0.032675855 0.026513541 -0.011904801 -0.015115977 0.028111085 0.0051418156
0.035704322 0.026522502 0.0145030655 0.052168656 0.057186924 0.0378786 -0.0020345277 0.027102483
0.017500378 0.034009248 0.026626624 -0.02648138 -0.011673326 -0.02215553 0.033300336 0.042672765
-0.0015984924 0.05510344 0.00738717 0.010018191 0.0031717382 0.046940673 0.013897138 0.02960178
0.031307608 3.2538297e-05 0.08355521 0.030946165 0.08499736 -0.0034187625 0.039628755 0.040737685
-0.017271305 -0.020409424 -0.0021667478 -0.0012488025 0.004986134 0.0020484913 0.0092741735 0.05173033
-0.0130176945 0.029098673 -0.022065153 0.05965521 0.02468142 0.04856601 0.04745534 -0.009299101
0.03818176 0.011635903 0.011959663 -0.021928119 0.059028443 -0.0030142525 0.0011886273 -0.003145304
0.025792971 -0.013445977 0.0027418574 0.055046216 0.02822353 0.013644328 0.0525507 0.044209287
-0.005465562 0.012665335 0.05446311 0.05331303 0.04462618 -0.0030931905 -0.010699176 0.045242254
0.06111669 -0.011212506 0.05727175 0.064975284 -0.008257926 0.053777866 0.03902811 -0.0070122653
0.07577631 0.01276557 0.05946172 0.0070128394 -0.00840685 0.061790153 0.04173784 0.004938478
0.019740526 0.009109518 0.04269739 0.039944306 0.056050636 0.036520705 0.0027207332 0.06995866
0.035453834 0.03486245 0.046399705 -0.00793794 0.0638571 0.06099243 0.0226285 0.041656543
-0.016193714 0.026632179 0.0192946 -0.016793989 -0.009599594 -0.010203536 0.017290134 0.02260807
0.035667405 0.0007833326 0.033476073 0.042846754 0.047007464 0.009794448 0.048936695 0.024289044
0.009816367 0.008191068 -0.0055337055 -0.0099532185 -0.0040243496 0.046081528 0.015796838 0.017468417
0.005034324 0.005052046 0.024081672 0.020593667 0.059693612 -0.02115718 0.036589585 -0.015115404
-0.0071139582 0.025144862 0.006530671 -0.011018275 0.013827419 0.034675535 0.04611098 0.026244514
00000000: 72ca ab3c 28be 413b a2f7 dcbc 55d5 b33b
00000010: 08ba f23c 8283 8bbc d2bc 193c 5e71 67b9
00000020: dd73 003d 5e7f 463d 64cc 0c3d 0d60 0a3d
00000030: db55 753d eb1f 4a3d a697 053d ca62 30b9
00000040: 1478 073d 070a cdbb 5491 e03c 3255 173c
00000050: 50de 84bc 6e50 a4bc cf3f b7bb 0937 92bc
00000060: 0e1d 6b3d 4277 bf3c 4b3e 593d 183e 6cbc
00000070: f436 e53a fbb8 823d bee5 203d c7bb a73c
00000080: 018e 34bc 5f33 4a3d c970 69bb 5d19 673d
00000090: 3ae6 283d 5e38 bb3c 7215 203c 257c 3bbc
000000a0: 916f 673d 6bfd 353d df1e 24b9 f7e0 483d
000000b0: b78b 7c3d bd10 c63d 70a1 ae3d 4ef2 373d
000000c0: fcf9 133d eb04 1f3d 7794 5f3d 7d5c 903c
000000d0: 8281 713c 4920 d03d e135 0d3d 5ee1 993c
000000e0: 0d89 c73c 65d8 083c 591c 0e3d 458b 4b3d
000000f0: 8a0a 9d3c 232d 47bc a525 f03c 5456 8639
00000100: a396 cb3c d1b6 62bb f4df 30bc 98df 6fbc
00000110: 2529 923c 1751 653d 17a6 993c fc18 063d
00000120: b75d ecbb 7ee6 f8bc 48e7 5fbc a2b7 913c
00000130: e3d9 403c 127b adbc 1035 13bb b5d2 35bd
00000140: d1f8 9bbb 76b7 783c 39ee 053d d84d 633d
00000150: b74e d83c 975d 85bc a212 bb3c 0622 163d
00000160: e9cd 8f3c e473 7c3d b1b6 c03d e2a7 9f3d
00000170: 9ee0 c03d 5971 3d3d 8217 ea3d 01bf c33d
00000180: fe91 d03c a30b e93c 8c91 4f3d bc54 2d3d
00000190: 010c 243d ec99 803c 6884 2b3d 5068 cebb
000001a0: 65a4 583c faad 3b3d 1ed7 053d ed32 d93c
000001b0: 5b0c 43bc 01a9 77bc 3849 e63c ad7c a83b
000001c0: b23e 123d b845 d93c 449e 6d3c cdae 553d
000001d0: d63c 6a3d 9726 1b3d b655 05bb 0706 de3c
000001e0: f45c 8f3c 484d 0b3d 1420 da3c 7bef d8bc
000001f0: 7a41 3fbc 847f b5bc ef65 083d a3c9 2e3d
00000200: 8184 d1ba 25b4 613d 1310 f23b 5723 243c
00000210: f0dc 4f3b dd44 403d d2b0 633c 6f7f f23c
00000220: 683c 003d bb79 0838 fe1e ab3d d082 fd3c
00000230: 1913 ae3d 510d 60bb c351 223d 8fdc 263d
00000240: 8d7c 8dbc aa31 a7bc ffff 0dbb dcae a3ba
00000250: b962 a33b fb3f 063b b4f2 173c 2fe3 533d
00000260: 2b48 55bc 5760 ee3c fbc1 b4bc 0559 743d
00000270: b030 ca3c 27ed 463d 8860 423d 425b 18bc
00000280: 7a64 1c3d 84a4 3e3c 76f2 433c 99a2 b3bc
00000290: cfc7 713d c48a 45bb b7cb 9b3a 7221 4ebb
000002a0: c84b d33c 844c 5cbc bcb0 333b 2478 613d
000002b0: 0835 e73c 768c 5f3c 673f 573d cc14 353d
000002c0: 7518 b3bb 4482 4f3c b614 5f3d c45e 5a3d
000002d0: f1c9 363d 20b7 4abb 994b 2fbc f14f 393d
000002e0: 7f55 7a3d a9b4 37bc c895 6a3d c311 853d
000002f0: 414c 07bc 2e46 5c3d f1db 1f3d 25c7 e5bb
00000300: 9c30 9b3d ae26 513c 228e 733d f6cb e53b
00000310: e2bc 09bc ac17 7d3d 4cf5 2a3d f5d2 a13b
00000320: e2b6 a13c 1640 153c 75e3 2e3d a49c 233d
00000330: 5a95 653d bc96 153d 544e 323b 7c46 8f3d
00000340: 0a38 113d eecb 0e3d 9e0d 3e3d 220e 02bc
00000350: 83c7 823d 33d3 793d 675f b93c 0da0 2a3d
00000360: aea8 84bc ba2b da3c b50f 9e3c 8c93 89bc
00000370: 9e47 1dbc bb2c 27bc 0aa4 8d3c 8f34 b93c
00000380: fc17 123d 9058 4d3a 351e 093d 1480 2f3d
00000390: e68a 403d e478 203c d871 483d d1f9 c63c
000003a0: d4d4 203c d433 063c 1654 b5bb d312 23bc
000003b0: b1de 83bb fcbf 3c3d 5f68 813c ed19 8f3c
000003c0: f8f6 a43b a28b a53b ed46 c53c 0db4 a83c
000003d0: 4a81 743d d351 adbc f6de 153d 99a6 77bc
000003e0: 351c e9bb 99fc cd3c 3dff d53b ff85 34bc
000003f0: 668c 623c ef07 0e3d dede 3c3d bcfe d63c

c3.bias f4 [256]
0.0021817575 0.023290716 -0.03886811 -0.014134269 -0.04182731 -0.039393563 -0.013311093 -0.009109239
-0.030693403 0.02533315 0.01192731 0.055943456 -0.02656501 -0.030012725 0.0025480404 -0.03968128
0.02840652 -0.00016281634 -0.043165304 -0.010116516 0.012453817 0.0045122956 0.0120214475 0.027497113
-0.009394352 0.022198312 0.0055873105 -0.0019933714 0.027792567 -0.03754601 -0.015456391 0.008296156
-0.008953526 -0.021110704 -0.00424071 -0.030792525 -0.013903596 0.021833314 0.004935872 -0.011960105
-0.02908306 0.029619157 0.04377957 -0.026619622 -0.016161947 -0.002208448 0.015870068 -0.04893833
-0.03041582 0.014484678 0.048383567 -0.024463054 -0.00039029657 0.038448535 0.0038002895 0.03454849
0.039609477 -0.019735338 -0.0060017644 -0.044963375 -0.011741579 -0.0023490624 0.056930486 -0.01723309
0.004802934 0.0019342992 -0.024502583 0.015368397 -0.014920713 0.037355483 0.0037117098 -0.017158229
-0.019288212 0.007730639 -0.0085691055 -0.018383143 0.034418996 -0.04916687 -0.030197196 0.01183797
0.034134477 -0.016212761 -0.04331171 -0.0073525496 -0.01854943 -0.0019449396 0.020980963 -0.035119444
0.031032383 -0.02821586 0.0117983185 0.055347785 0.0040719467 -0.031522226 0.021377625 -0.02791996
0.0052742516 0.059075292 0.017133417 0.0014665982 0.017174276 0.013607448 -0.015183977 -0.037036553
-0.036982622 -0.040427145 -0.0010215869 0.011704321 -0.039532807 0.0035278965 0.05543906 0.043963365
0.013789965 0.0013477462 0.022759287 0.026332097 -0.030939126 -0.024015004 -0.03335168 -0.02113457
0.052838877 0.014294974 0.059497282 -0.012591681 0.014352869 0.007956007 0.01916866 0.008471212
0.06132888 -0.032011867 0.012285711 0.008895582 -0.034775138 -0.01607821 -0.02329458 -0.03952726
0.0040175715 0.021432916 0.046909995 -0.019284006 -0.0064682504 -0.023907188 0.00013731174 0.009958532
-0.0035001943 -0.0028325887 0.027828213 0.00015501284 0.019213356 -0.030827558 0.0059919287 0.0527794
0.023767082 0.02109161 -0.010487404 0.026390119 -0.028904304 -0.034058236 0.006835243 0.03862572
-0.004297036 -0.039217338 0.017194346 -0.020350251 -0.021280939 -0.012326427 -0.0066943183 0.061222833
-0.017848082 0.03683784 0.0373774 0.025103169 0.020304007 0.05452311 -0.029740661 0.016008431
-0.0012916852 -0.034957454 -0.04081876 0.059302095 0.03277279 -0.050319694 0.045491856 -0.0321481
-0.028252728 0.023352124 -0.023642065 -0.02237259 -0.0133602405 -0.01977206 0.03522817 0.017479725
0.045164257 0.037362 -0.03725713 -0.005322201 0.0051111714 0.02133444 0.0072211255 -0.0027207243
0.014637924 -0.020812307 0.038427312 -0.024359433 0.007804558 0.006693653 -0.006366437 0.06152893
-0.03670289 -0.043354005 -0.009425904 -0.00023831394 0.0077718417 0.06431399 0.01510494 0.023734592
-0.03930008 0.019341893 0.03438246 -0.009466773 0.023019018 0.004468499 0.032238375 0.03484827
-0.02903799 0.025137248 0.015328181 0.01650088 -0.024840739 0.015778549 0.01547672 -0.049137946
0.008740664 0.014232791 -0.01629074 -0.04290598 0.029477166 -0.017910542 -0.0029145482 0.02654106
-0.032643367 0.016413465 -0.024240894 0.036497112 0.03148125 -0.017833011 0.012587293 0.033078775
0.04880971 0.02787025 0.056347128 0.010241035 -0.024694435 0.01968268 0.033832047 -0.023868108
00000000: d1fb 0e3b 2ccc be3c 2b34 1fbd 6c93 67bc
00000010: 1d53 2bbd 255b 21bd c516 5abc eb3e 15bc
00000020: bb70 fbbc 7787 cf3c c46a 433c f724 653d
00000030: dd9e d9bc 3fdd f5bc 06fd 263b d688 22bd
00000040: cab4 e83c aeb9 2ab9 1ace 30bd bebf 25bc
00000050: 180b 4c3c e1db 933b 9bf5 443c a041 e13c
00000060: c5ea 19bc 3cd9 b53c c215 b73b 39a3 02bb
00000070: 3dad e33c d8c9 19bd cd3c 7dbc 9aec 073c
00000080: cfb1 12bc 5bf0 acbc a7f5 8abb 9b40 fcbc
00000090: e9cb 63bc c7db b23c 18bd a13b 51f4 43bc
000000a0: 993f eebc e0a3 f23c 3552 333d 6511 dabc
000000b0: 0f66 84bc 9cbb 10bb f201 823c 8f73 48bd
000000c0: 992a f9bc 2551 6d3c d92d 463d be66 c8bc
000000d0: b8a0 ccb9 367c 1d3d 470e 793b b882 0d3d
000000e0: 8c3d 223d 01ac a1bc 73aa c4bb 842b 38bd
000000f0: c05f 40bc baf2 19bb f12f 693d 692c 8dbc
00000100: ee61 9d3b 5088 fd3a a4b9 c8bc bbcb 7b3c
00000110: 0276 74bc 1002 193d 2840 733b 6a8f 8cbc
00000120: 5002 9ebc 4d51 fd3b 6f65 0cbc 3f98 96bc
00000130: effa 0c3d 3363 49bd 1c60 f7bc 0cf4 413c
00000140: 98d0 0b3d a0d0 84bc 9f67 31bd a8ed f0bb
00000150: f9f4 97bc 58ed feba 45e0 ab3c 68d9 0fbd
00000160: a037 fe3c f224 e7bc bc4d 413c 5cb4 623d
00000170: f76d 853b 731d 01bd 2120 af3c 66b8 e4bc
00000180: a1d3 ac3b eff8 713d 615b 8c3c df3a c03a
00000190: 11b1 8c3c c6f1 5e3c 37c6 78bc a4b3 17bd
000001a0: 177b 17bd ef96 25bd c5e6 85ba 7bc3 3f3c
000001b0: 27ed 21bd 4834 673b 1114 633d ee12 343d
000001c0: 4eef 613c dca6 b03a af71 ba3c 69b6 d73c
000001d0: 0d74 fdbc 1dbb c4bc c59b 08bd 6822 adbc
000001e0: 946d 583d 7735 6a3c 6cb3 733d 574d 4ebc
000001f0: 4c28 6b3c e959 023c 9807 9d3c d7ca 0a3c
00000200: fe33 7b3d e01e 03bd 024a 493c c6be 113c
00000210: 6070 0ebd 73b6 83bc 46d4 bebc 56e7 21bd
00000220: d5a5 833b 1594 af3c b224 403d 7ef9 9dbc
00000230: 9ef3 d3bb 02d9 c3bc 57fb 0f39 1c29 233c
00000240: 8463 65bb f4a2 39bb fef7 e33c f18a 2239
00000250: 5465 9d3c 138a fcbc f157 c43b 362f 583d
00000260: 2fb3 c23c 50c8 ac3c 5cd3 2bbc 1730 d83c
00000270: b8c8 ecbc a680 0bbd 2dfa df3b 0136 1e3d
00000280: 27ce 8cbb 5ca2 20bd 28db 8c3c 92b5 a6bc
00000290: 5d55 aebc c8f4 49bc 035c dbbb cbc4 7a3d
000002a0: 2436 92bc 46e3 163d 0b19 193d 29a5 cd3c
000002b0: 9754 a63c a053 5f3d b0a2 f3bc 1d24 833c
000002c0: c34d a9ba 8c2f 0fbd 9231 27bd c1e6 723d
000002d0: c33c 063d 061c 4ebd ab55 3a3d baad 03bd
000002e0: 4472 e7bc f44c bf3c 01ad c1bc b946 b7bc
000002f0: e9e4 5abc 04f9 a1bc 6a4b 103d a431 8f3c
00000300: 28fe 383d e608 193d ef9a 18bd dc65 aebb
00000310: 9d7b a73b 90c5 ae3c 319f ec3b 2e4e 32bb
00000320: e7d3 6f3c 927e aabc f565 1d3d 6f8d c7bc
00000330: 61bd ff3b 6e56 db3b 8b9d d0bb c205 7c3d
00000340: c555 16bd f893 31bd 1b6f 1abc e9e3 79b9
00000350: efaa fe3b 0eb7 833d b67a 773c 0c6f c23c
00000360: 1ff9 20bd e472 9e3c 9fd4 0c3d 861a 1bbc
00000370: 6192 bc3c 7d6c 923b 630c 043d 0fbd 0e3d
00000380: 14e1 edbc a1ec cd3c 0d23 7b3c da2c 873c
00000390: ce7e cbbc 0442 813c 1292 7d3c df44 49bd
000003a0: 0135 0f3c a730 693c 2874 85bc 2ebe 2fbd
000003b0: 197a f13c 21b9 92bc 0102 3fbb a36c d93c
000003c0: 0db5 05bd 8875 863c d794 c6bc ff7d 153d
000003d0: 7cf2 003d 8916 92bc ef3a 4e3c 9c7d 073d
000003e0: b1ec 473d 2750 e43c 3fcc 663d 04ca 273c
000003f0: fc4b cabc 923d a13c 7993 0a3d 0d87 c3bc

fc1.weight f4 [64, 256]
0.032871895 0.056289434 -0.003601037 -0.025155485 0.049582943 -0.053370975 0.012573995 0.001012668
-0.028392129 -0.044867255 -0.0114815235 0.05404097 0.01698386 0.052241802 0.033120193 0.05694651
0.048211887 -0.0043594763 -0.027497873 -0.038928747 -0.040054224 -0.018998548 -0.036378562 -0.034454577
0.026028797 -0.057984643 -0.007829666 -0.02748669 0.0069170445 -0.0380586 0.05669497 0.034134284
-0.012917981 0.04337427 0.03751505 0.05889426 -0.01682233 -0.03705497 0.023933694 0.030932099
-0.00866732 0.017942898 0.008383222 -0.053267084 0.06078943 0.024182178 0.0075820833 0.021909304
0.007489145 -0.01638107 -0.05213321 0.014890902 -0.039378934 0.054811053 0.040828787 -0.025599271
-0.04140143 0.044905692 -0.03877581 0.044721976 0.058684178 0.048455767 0.03770449 -0.03637217
-0.0054052994 -0.026447825 0.02373062 -0.0018884316 -0.04276479 0.04907549 0.030905962 -0.0089757815
0.005284101 0.035767853 0.021703586 0.0007781759 8.574128e-05 -0.03193658 0.039338186 0.04980301
-0.02079589 0.026087373 -0.028430916 -0.005814329 -0.00050666183 -0.037739545 0.027465887 -0.03463272
0.046906054 0.031677127 -0.033231586 -0.046029843 -0.06006547 -0.018457197 -0.03687027 0.04913584
0.045512386 -0.0246391 -0.04655776 -0.0050798506 -0.039489076 0.01776652 0.014861979 0.036736965
0.021490283 0.02466654 0.04506045 0.0019789636 -0.005751416 -0.009780079 0.05401382 -0.056766555
0.062429667 -0.011852637 0.053503893 -0.020830229 0.053548403 -0.008271217 0.01423531 0.022600867
0.012180574 -0.051925935 0.012746826 -0.00476259 -0.027487606 0.008820258 -0.03858547 -0.0152793825
-0.033529803 0.022370934 -0.02836518 0.059174865 0.055620335 -0.033509165 -0.0071545616 -0.0066476017
-0.037337832 -0.03220524 0.01058577 0.022462986 -0.03685587 -0.0066314936 -0.02022808 0.013496913
-0.0013000742 0.052210726 -0.023770846 0.010275893 -0.017907374 -0.019063435 -0.0323449 0.032903597
-0.0016354248 -0.012823693 0.0011093765 -0.034564823 0.03738743 -0.03776303 0.001144357 0.0063693374
-0.05859095 -0.05645986 -0.0281061 0.0139957145 -0.011998929 0.053249143 0.025130063 -0.04890403
0.023050763 0.0025482103 -0.013255402 -0.03813687 0.045185626 -0.0062260553 -0.006546147 -0.0032618344
0.026443265 -0.014581181 0.025573626 -0.059989236 -0.039386973 0.023779385 0.0064601228 -0.011683144
0.021691643 -0.0450005 0.0406757 -0.02129735 0.0009287223 0.03169883 0.05039393 0.039055176
0.02230364 0.020173289 -0.008693993 -0.0129841715 -0.025716715 -0.044493236 -0.025373958 0.04603231
0.026163533 -0.013613552 -0.035295412 -0.06008832 0.056254193 -0.05614662 -0.051569425 -0.0036941022
-0.010894276 -0.0013827756 0.055466183 -0.02530662 0.038665734 -0.022542939 0.023055784 0.006661758
-0.023836486 -0.048888966 -0.009914815 0.0030044764 -0.02672366 0.0014131591 -0.034281977 -0.009070553
-0.03668961 -0.055881336 -0.05954107 -0.037576586 0.048135146 0.006883234 0.038411535 0.044324458
0.06065426 -0.05501756 0.035465598 -0.033076316 -0.05791095 0.040986232 -0.05446808 -0.0019188225
0.024196886 -0.043651193 0.04174467 0.018768571 0.050391793 0.054030947 -0.0015610382 -0.043575913
-0.043488584 -0.054009065 -0.05982472 -0.059530333 -0.058844425 0.028734505 -0.036213025 0.017283723
00000000: aea4 063d c08f 663d 60ff 6bbb e012 cebc
00000010: 7c17 4b3d 869b 5abd 2803 4e3c 80bb 843a
00000020: 9c96 e8bc bac6 37bd 001d 3cbc 105a 5d3d
00000030: bc21 8b3c 80fb 553d 0aa9 073d be40 693d
00000040: d479 453d f0d9 8ebb 3843 e1bc c073 1fbd
00000050: e60f 24bd d8a2 9bbc b001 15bd 3e20 0dbd
00000060: 583a d53c 4e81 6dbd 0048 00bc c42b e1bc
00000070: 60a8 e23b 56e3 1bbd fc38 683d 64d0 0b3d
00000080: f0a5 53bc 38a9 313d 62a9 193d 1c3b 713d
00000090: fcce 89bc f4c6 17bd 9810 c43c 5065 fd3c
000000a0: 6001 0ebc fcfc 923c c859 093c 962e 5abd
000000b0: 56fe 783d b419 c63c 2073 f83b 247b b33c
000000c0: 8067 f53b 9831 86bc a289 55bd f8f8 733c
000000d0: ce4b 21bd 8e81 603d 163c 273d 90b5 d1bc
000000e0: 8c94 29bd 08ef 373d 62d3 1ebd 642e 373d
000000f0: d25e 703d 8e79 463d 0670 1a3d fcfa 14bd
00000100: f01e b1bb 1ca9 d8bc b866 c23c 4085 f7ba
00000110: 222a 2fbd 6203 493d 802e fd3c 280f 13bc
00000120: 4026 ad3b 5081 123d b8cb b13c 80fe 4b3a
00000130: 00d0 b338 eecf 02bd 1421 213d 3efe 4b3d
00000140: 245c aabc 30b5 d53c f4e7 e8bc 2086 bebb
00000150: 80d1 04ba c894 1abd 2400 e13c 0adb 0dbd
00000160: 9020 403d e0bf 013d d81d 08bd ca89 3cbd
00000170: 3607 76bd 8c33 97bc 4805 17bd aa42 493d
00000180: 326b 3a3d f0d7 c9bc 5ab3 3ebd e074 a6bb
00000190: 4cbf 21bd 188b 913c a87f 733c 8079 163d
000001a0: 640c b03c 7c11 ca3c 4e91 383d 80b1 013b
000001b0: 6076 bcbb a03c 20bc 983d 5d3d 0c84 68bd
000001c0: 40b6 7f3d 9031 42bc e626 5b3d 28a4 aabc
000001d0: 9255 5b3d 0084 07bc 383b 693c 7425 b93c
000001e0: 0891 473c 4ab0 54bd 10d8 503c 800f 9cbb
000001f0: b02d e1bc d882 103c cc0b 1ebd 6056 7abc
00000200: 8c56 09bd 4043 b73c 185e e8bc 5861 723d
00000210: 26d2 633d e840 09bd d070 eabb 20d4 d9bb
00000220: 8eef 18bd a4e9 03bd f06f 2d3c 4c04 b83c
00000230: 2ef6 16bd 004d d9bb 5cb5 a5bc 2822 5d3c
00000240: 4067 aaba eada 553d 14bb c2bc 385c 283c
00000250: 7cb2 92bc ec2a 9cbc 167c 04bd ecc5 063d
00000260: c05b d6ba 781a 52bc 8068 913a d893 0dbd
00000270: 9023 193d 68ad 1abd 40fe 953a e0b5 d03b
00000280: 10fd 6fbd 7442 67bd c43e e6bc 484e 653c
00000290: 2897 44bc c61b 5a3d 90dd cd3c 984f 48bd
000002a0: f4d4 bc3c e0ff 263b 302d 59bc 6835 1cbd
000002b0: 9014 393d f003 ccbb 1081 d6bb 80c4 55bb
000002c0: 8c9f d83c e8e5 6ebc c87f d13c 46b7 75bd
000002d0: 3c54 21bd fccc c23c 70af d33b a86a 3fbc
000002e0: acb2 b13c 7252 38bd 909b 263d c877 aebc
000002f0: 8075 733a a2d6 013d de69 4e3d 52f8 1f3d
00000300: 20b6 b63c 7442 a53c 4071 0ebc 90bb 54bc
00000310: dcab d2bc 8a3e 36bd 0cdd cfbc 608c 3c3d
00000320: e854 d63c 600b 5fbc ec91 10bd 2c1f 76bd
00000330: cc6a 663d 00fa 65bd 763a 53bd c018 72bb
00000340: e87d 32bc 403e b5ba 8230 633d d44f cfbc
00000350: f65f 1e3d f8ab b8bc 7cdf bc3c e04a da3b
00000360: bc44 c3bc cc3f 48bd c071 22bc c0e6 443b
00000370: 94eb dabc c039 b93a 426b 0cbd a89c 14bc
00000380: d847 16bd d4e3 64bd 56e1 73bd e8e9 19bd
00000390: 5c29 453d c08c e13b 6a55 1d3d 908d 353d
000003a0: 9a70 783d 185a 61bd 6044 113d 087b 07bd
000003b0: 0834 6dbd 2ee1 273d ec19 5fbd 0081 fbba
000003c0: 8c38 c63c 98cb 32bd 76fc 2a3d 8cc0 993c
000003d0: a067 4e3d 8e4f 5d3d c09b ccba a87c 32bd
000003e0: 1621 32bd 9c38 5dbd c40a 75bd 14d6 73bd
000003f0: da06 71bd a064 eb3c 1c54 14bd 9896 8d3c

fc1.bias f4 [64]
-0.0058852136 0.020727906 -0.029049825 0.020772498 -0.035306185 -0.059746437 -0.032716252 -0.03366103
-0.027073253 0.028260635 0.011704203 0.013095889 0.032248147 0.045444768 0.053566925 -0.060876593
-0.01681339 0.012412385 -0.010890883 0.0058870227 0.02878968 -0.03490927 0.012217608 -0.048010856
0.0050319433 0.03050411 -0.0013878134 -0.002892178 -0.016417677 -0.013817385 -0.068221964 -0.04944296
0.024234302 -0.06418147 -0.008751646 0.00420136 0.008363308 0.06395951 0.028672691 0.005464339
0.0068390192 0.031452246 0.008553746 -0.019828595 0.010547234 0.037449807 -0.047859922 0.020015536
0.025163373 0.047812108 0.057186585 -0.03703216 -0.053881362 0.06217418 0.083202586 0.046268955
-0.057849877 -0.033133056 0.04842822 0.06033682 0.029532433 -0.015024088 -0.050866686 0.0498206
00000000: c0d8 c0bb 92cd a93c e6f9 edbc 162b aa3c
00000010: 389d 10bd aeb8 74bd 7a01 06bd 26e0 09bd
00000020: bac8 ddbc d982 e73c fcc2 3f3c 2490 563c
00000030: a216 043d 4b24 3a3d fe68 5b3d bc59 79bd
00000040: 3cbc 89bc 515d 4b3c ad6f 32bc ede7 c03b
00000050: 56d8 eb3c 06fd 0ebd 5d2c 483c 08a7 44bd
00000060: 00e3 a43b c1e3 f93c 4ae7 b5ba b28a 3dbb
00000070: 5d7e 86bc 5062 62bc f5b7 8bbd b484 4abd
00000080: 0487 c63c 9371 83bd 1063 0fbc 90ab 893b
00000090: 4206 093c 34fd 823d fee2 ea3c 330e b33b
000000a0: da19 e03b 12d4 003d 0325 0c3c 946f a2bc
000000b0: 4ece 2c3c f864 193d c408 44bd 9ff7 a33c
000000c0: 6b23 ce3c a1d6 433d 7b3c 6a3d 09af 17bd
000000d0: b4b2 5cbd 5aaa 7e3d 1e66 aa3d 8484 3d3d
000000e0: fef3 6cbd 87b6 07bd ab5c 463d be23 773d
000000f0: 00ee f13c 9827 76bc 9659 50bd af10 4c3d

fc2.weight f4 [5, 64]
-0.06750457 -0.04809142 0.06122629 -0.1208597 -0.05123642 0.01749368 0.072376385 0.13161357
-0.0083589535 0.017692886 0.07614216 0.090384156 -0.033271078 0.098294586 -0.02789916 -0.12076507
-0.08798446 -0.011350136 0.00031591728 -0.098838896 -0.042538352 -0.11715297 0.16284035 0.017263815
0.011577725 0.124546506 -0.0728439 0.12458761 0.14241238 0.10049653 0.04307671 -0.10010929
-0.012225898 -0.046667714 0.10034087 -0.07486158 0.0761166 -0.065492675 -0.04996061 0.014775533
-0.092357166 -0.050859198 -0.048492346 -0.0886071 -0.10233935 -0.017277328 0.023187175 0.15571982
-0.069050714 0.12096888 0.065776736 -0.019396482 -0.019089818 -0.09265813 0.089224584 0.013837503
-0.08415001 0.025939634 0.055350758 -0.07224291 0.106487595 0.092675954 0.03390354 0.047455437
0.0839663 0.045622166 0.06632364 -0.09598778 0.018223807 0.1152975 0.09024696 -0.05698254
0.085356556 -0.09398773 0.07959152 0.0024250555 0.009233162 0.069733754 0.04712545 -0.097525366
0.05468197 0.09639156 0.028084537 0.05367256 0.1246477 0.10150754 0.040911276 -0.04454212
-0.046441898 0.14980465 -0.11938216 -0.093777895 0.12453314 -0.043833464 0.057202585 -0.018616261
-0.08571316 -0.09880923 0.117994934 0.011914462 -0.051250935 0.13158505 0.094128445 -0.110387065
-0.094574526 -0.0024310283 0.0366285 -0.10631269 0.067435324 -0.0716514 0.088599265 0.12511583
-0.072504945 -0.0799028 0.12877868 0.010462971 0.06363851 0.067629725 0.054247554 0.113423154
-0.10596425 -0.02133819 -0.07519542 -0.1014438 0.052082215 -0.007913187 0.106896415 -0.042936977
0.07542403 -0.09525871 -0.07174446 0.041568607 0.09564425 0.05525054 -0.10222514 0.09442491
-0.059900604 0.093549065 -0.0401173 -0.031358972 -0.034616526 0.05159622 -0.06060594 0.035394713
0.10630943 -0.11832522 -0.041643824 0.0487489 0.109367594 0.017748395 0.121202916 -0.048698425
0.10846551 -0.063363455 -0.018965162 -0.09003784 0.052815545 0.087227985 -0.059974723 0.09100272
0.03625878 0.019812033 -0.10887179 -0.11895403 -0.06344013 0.07088581 0.09089361 0.090553015
0.06516499 -0.05935235 -0.09549769 -0.0627535 0.09139591 -0.071545996 -0.075106055 0.0054087806
0.08966621 0.10794549 0.011435423 -0.06762407 0.0640679 0.0022310314 0.089537255 0.027278585
-0.074809715 0.006711869 -0.075351015 0.06311779 0.016680336 0.012814179 -0.074130565 -0.0608092
-0.107032955 -0.065157145 -0.11279556 -0.09353204 -0.0127838105 0.06024167 0.118348524 0.03073379
-0.09105757 0.04018601 -0.061509818 -0.10657556 -0.02853188 -0.019434927 -0.038734853 -0.09481786
0.050935507 -0.0874944 -0.06899671 0.09127853 0.041519646 -0.06794463 0.09354489 0.009379804
-0.022958934 0.06099195 0.04424141 0.058997422 0.047627896 0.05448371 -0.068222515 -0.10545029
-0.040499818 0.11530189 -0.005810216 -0.10398559 -0.048778623 -0.050604 0.010194736 -0.10016747
-0.05392245 0.004887766 -0.036383525 0.030393437 -0.028920876 0.053512838 0.006659195 0.09888832
-0.019765928 0.028528333 0.104844816 -0.064842686 -0.09424469 -0.102259845 0.049981188 0.13010333
0.026338257 -0.050092418 0.06957139 -0.045078993 -0.015805615 -0.079011425 -0.09088594 0.03169079
00000000: d63f 8abd 82fb 44bd 6bc8 7a3d 4a85 f7bd
00000010: 48dd 51bd e84e 8f3c 123a 943d b5c5 063e
00000020: fef3 08bc acf0 903c 6cf0 9b3d 541b b93d
00000030: 4147 08bd ac4e c93d c78c e4bc ad53 f7bd
00000040: 3231 b4bd ecf5 39bc b3a1 a539 0c6c cabd
00000050: b23c 2ebd e5ed efbd 9fbf 263e d86c 8d3c
00000060: 80b0 3d3c 3d12 ff3d 2f2f 95bd ca27 ff3d
00000070: 8dd4 113e 20d1 cd3d 3471 303d 1906 cdbd
00000080: 224f 48bc a526 3fbd 847f cd3d 0751 99bd
00000090: 05e3 9b3d 0621 86bd 7fa3 4cbd 1415 723c
000000a0: c125 bdbd bc51 50bd e99f 46bd a477 b5bd
000000b0: 4b97 d1bd 2f89 8dbc 08f3 bd3c 0475 1f3e
000000c0: 766a 8dbd 88be f73d f4b5 863d 5fe5 9ebc
000000d0: 4062 9cbc 8cc3 bdbd 61bb b63d b2b6 623c
000000e0: d756 acbd 5b7f d43c 7ab7 623d 17f4 93bd
000000f0: 2b16 da3d e4cc bd3d 70de 0a3d a260 423d
00000100: 86f6 ab3d 4fde 3a3d b0d4 873d 3e95 c4bd
00000110: 184a 953c 1821 ec3d 66d3 b83d 8666 69bd
00000120: 6bcf ae3d a47c c0bd e100 a33d aeed 1e3b
00000130: b046 173c 92d0 8e3d 9e06 413d 61bb c7bd
00000140: 34fa 5f3d f068 c53d 8b11 e63c c2d7 5b3d
00000150: 4b47 ff3d 2fe3 cf3d 9592 273d cc71 36bd
00000160: dc39 3ebd 6466 193e a27e f4bd a00e c0bd
00000170: 3b0b ff3d b88a 33bd 424d 6a3d 2181 98bc
00000180: 628a afbd 7e5c cabd 54a7 f13d e034 433c
00000190: 80ec 51bd 3bbe 063e 6ac6 c03d 9d12 e2bd
000001a0: 4ab0 c1bd e351 1fbb c407 163d 78ba d9bd
000001b0: 881b 8a3d f8bd 92bd 8873 b53d 5d1e 003e
000001c0: 797d 94bd 14a4 a3bd 8fde 033e e26c 2b3c
000001d0: e854 823d 7481 8a3d af32 5e3d 664a e83d
000001e0: c903 d9bd 6ecd aebc 0e00 9abd c4c1 cfbd
000001f0: 2954 553d 50a6 01bc 82ec da3d afde 2fbd
00000200: ea77 9a3d 0017 c3bd c2ee 92bd d843 2a3d
00000210: 22e1 c33d 644e 623d 6a5b d1bd d961 c13d
00000220: 565a 75bd a796 bf3d 0a52 24bd 4472 00bd
00000230: 0fca 0dbd 8f56 533d ef3d 78bd 0cfa 103d
00000240: c2b8 d93d 7e54 f2bd b792 2abd edac 473d
00000250: 1efc df3d 1565 913c 3c39 f83d 0078 47bd
00000260: 2a23 de3d b3c4 81bd d45c 9bbc c265 b8bd
00000270: 1d55 583d 96a4 b23d 0ea8 75bd a25f ba3d
00000280: 1684 143d d84c a23c 2cf8 debd 2c9e f3bd
00000290: e6ec 81bd 942c 913d 6e26 ba3d dc73 b93d
000002a0: 3975 853d 731b 73bd 4b94 c3bd e884 80bd
000002b0: c72d bb3d b586 92bd 34d1 99bd 243c b13b
000002c0: eba2 b73d 8612 dd3d a45b 3b3c 7d7e 8abd
000002d0: 0836 833d 7f36 123b 4f5f b73d 5777 df3c
000002e0: d635 99bd 3def db3b a251 9abd e643 813d
000002f0: 33a5 883c 90f2 513c c4d1 97bd 1113 79bd
00000300: 1834 dbbd 1c71 85bd 5c01 e7bd ba8d bfbd
00000310: 3073 51bc f8bf 763d b660 f23d 6ec5 fb3c
00000320: 647c babd 169a 243d b8f1 7bbd 4a44 dabd
00000330: b0bb e9bc ff35 9fbc 70a8 1ebd de2f c2bd
00000340: c0a1 503d 4430 b3bd 264e 8dbd 3df0 ba3d
00000350: 8110 2a3d 8e26 8bbd 7794 bf3d c0ad 193c
00000360: 6014 bcbc b2d2 793d 7b36 353d 48a7 713d
00000370: 7815 433d 502a 5f3d 3fb8 8bbd 52f6 d7bd
00000380: 23e3 25bd 6623 ec3d a063 bebb 66f6 d4bd
00000390: 18cc 47bd 2446 4fbd d207 273c 9a24 cdbd
000003a0: c9dd 5cbd 8e29 a03b e406 15bd a8fb f83c
000003b0: 79eb ecbc 4730 5b3d 6035 da3b f685 ca3d
000003c0: 28ec a1bc 40b4 e93c e1b8 d63d 3ecc 84bd
000003d0: 5c03 c1bd 9c6d d1bd 13b9 4c3d cf39 053e
000003e0: 54c3 d73c b52d 4dbd 727b 8e3d c0a4 38bd
000003f0: c77a 81bc bed0 a1bd 6822 babd 34ce 013d

fc2.bias f4 [5]
0.10785571 0.032084275 -0.09277767 0.10030749 0.07736386
00000000: 74e3 dc3d cd6a 033d 3802 bebd 036e cd3d
00000010: f270 9e3d
