SimpleQMIX_everything_random_blox_gamma0.95_lr0.0001_hidden64_target10/agent3_20.pth (torch, 745108 bytes, 10 tensors)

c1.weight f4 [32, 8, 3, 3]
-0.09368489 0.1067198 -0.031863447 -0.04779048 0.020156428 -0.073867425 -0.05831756 -0.030456973
-0.009343495 0.109398656 0.00797921 -0.021250118 0.05431347 0.021528326 -0.0037026263 0.08028605
0.051386096 0.087031186 -0.049104467 -0.039998062 -0.06765804 -0.09801493 0.05505862 0.05490335
-0.0109868795 0.07104146 -0.040572353 0.10957158 0.061820306 0.0045184344 0.08437096 -0.0073633194
-0.09716022 0.016050883 -0.027635507 -0.059148844 -0.14750725 0.10249433 0.036116675 0.106247105
0.050592896 -0.042289857 0.04789471 -0.039304692 0.04007612 0.11403826 0.03447701 0.010965271
-0.113392755 0.13156049 0.10552943 0.082971826 0.019372037 0.019075708 0.090425394 -0.1265547
-0.07569137 -0.060491744 0.026248166 -0.01667304 0.091076046 0.09442779 -0.076570585 0.006997287
0.116265126 -0.047170013 0.09524739 0.071625926 0.09013835 0.109392606 0.11461189 -0.110299505
0.032039456 -0.022039851 -0.035352014 0.11574936 0.03978282 0.11286964 -0.08893215 -0.041367203
-0.033377875 0.07897756 -0.031988133 0.001054217 0.103451714 0.08368713 0.03926554 -0.0021828872
0.084141575 -0.028397733 0.11289693 0.05134455 0.10773081 -0.015992746 -0.015202142 -0.019938044
0.059960403 -0.061365347 0.09925073 0.004125148 0.06023588 -0.035113253 -0.035309337 -0.11161036
-0.0731457 -0.04766293 0.07480494 0.088770024 -0.005482439 0.029037861 0.04263026 -0.05249385
-0.019293956 -0.04389844 0.0019610361 0.045570787 0.06801725 -0.0902305 0.088532805 -0.0072993264
0.12507448 -0.05077887 0.106663555 0.02661306 0.024597898 0.022694914 0.09995322 -0.032510053
-0.10021891 0.01438805 0.035556287 -0.019970378 0.045828685 -0.053068157 0.05316721 -0.08369507
0.10916768 -0.10622802 0.07238238 0.09462848 -0.11063574 0.018457597 -0.014193332 0.09117475
0.109718755 0.03900105 0.10825952 -0.1049839 0.0428786 -0.0068004914 -0.05456702 -0.09714602
-0.0017720211 0.11285731 0.03373498 -0.0040410105 -0.07489548 0.024142383 0.107743815 0.004097086
-0.005750474 0.08267851 -0.06492238 0.0984504 0.021703623 -0.0753725 0.038782112 0.006651759
-0.07041813 -0.10888339 0.08386467 0.035952695 0.07062576 -0.053829014 -0.10611138 -0.075761095
-0.074296504 0.05442155 0.02243819 -0.02695129 0.05992061 -0.07498086 -0.098436445 -0.055177514
0.04947656 0.022960749 0.012455736 0.010405238 0.10680697 0.080143414 -0.007566197 0.080348365
0.00619438 -0.024311619 -0.06857451 0.032256726 -0.063944936 0.004564317 -0.0011017454 -0.10225463
0.065960445 -0.027910138 -0.100549415 -0.0073647234 -0.09273435 -0.06192627 -0.04828106 -0.08040339
-0.019885458 -0.0068139345 0.060997967 0.026499307 -0.02834517 0.08882602 -0.089669995 0.108114704
-0.005495375 -0.06802105 0.033909827 -0.07830344 -0.041398942 0.014302266 -0.0062998976 -0.09200282
0.0053082234 -0.16138719 -0.010880927 -0.04821705 -0.002334882 -0.13923879 0.023656283 -0.18616933
0.052585658 0.076184876 -0.07677449 -0.06522433 -0.08262856 -0.082145855 0.059294187 0.089770205
-0.065701306 -0.036639914 -0.00479006 0.041285865 -0.098722406 -0.11435527 -0.08001253 -0.02759125
-0.03908634 0.08928194 -0.004699245 -0.023421578 0.064608544 0.046373863 0.018655958 -0.09954302
00000000: dddd bfbd e98f da3d 3f83 02bd f3bf 43bd
00000010: 181f a53c ce47 97bd 65de 6ebd e780 f9bc
00000020: 7515 19bc 670c e03d 3bbb 023c ba14 aebc
00000030: cd77 5e3d 2c5c b03c c3a7 72bb 036d a43d
00000040: 3a7a 523d 683d b23d c421 49bd 02d5 23bd
00000050: 4c90 8abd 0dbc c8bd 2685 613d 56e2 603d
00000060: 5002 34bc 2f7e 913d 322f 26bd 1167 e03d
00000070: 4a37 7d3d 600f 943b afca ac3d 0048 f1bb
00000080: f0fb c6bd 247d 833c dc63 e2bc 0f46 72bd
00000090: 240c 17be 8ce8 d13d 14ef 133d 1598 d93d
000000a0: 7f3a 4f3d 2138 2dbd 3e2d 443d f5fd 20bd
000000b0: dc26 243d e48c e93d c437 0d3d aea7 333c
000000c0: 763a e8bd cbb7 063e d01f d83d 22ed a93d
000000d0: 1bb2 9e3c a944 9c3c f330 b93d 8e97 01be
000000e0: 1404 9bbd 31c6 77bd 6506 d73c e695 88bc
000000f0: 1486 ba3d 5b63 c13d 0ad1 9cbd 7f49 e53b
00000100: 691c ee3d 5835 41bd 1011 c33d 9db0 923d
00000110: 759a b83d 3b09 e03d a3b9 ea3d b5e4 e1bd
00000120: ce3b 033d eb8c b4bc 46cd 10bd 000e ed3d
00000130: 4ff3 223d 3328 e73d 0f22 b6bd a870 29bd
00000140: 3db7 08bd fdbe a13d fd05 03bd a72d 8a3a
00000150: 7ede d33d 2864 ab3d e7d4 203d c50e 0fbb
00000160: 6b52 ac3d 5da2 e8bc 8136 e73d aa4e 523d
00000170: f9a1 dc3d 3803 83bc 6812 79bc 1c55 a3bc
00000180: 0a99 753d 3b5a 7bbd f743 cb3d 402c 873b
00000190: e6b9 763d ead2 0fbd 86a0 10bd f993 e4bd
000001a0: 6acd 95bd 343a 43bd 5533 993d 0fcd b53d
000001b0: 08a6 b3bb cfe0 ed3c 119d 2e3d cb03 57bd
000001c0: 5c0e 9ebc dace 33bd ba84 003b 6fa8 3a3d
000001d0: a14c 8b3d c5ca b8bd b050 b53d 302f efbb
000001e0: 8613 003e 81fd 4fbd 6c72 da3d a203 da3c
000001f0: 8881 c93c afea b93c 46b4 cc3d 4329 05bd
00000200: 923f cdbd dbbb 6b3c 78a3 113d eb98 a3bc
00000210: dcb6 3b3d ff5d 59bd dcc5 593d 5268 abbd
00000220: 4e93 df3d 138e d9bd 373d 943d 94cc c13d
00000230: fe94 e2bd 6334 973c 268b 68bc d4b9 ba3d
00000240: 3ab4 e03d 91bf 1f3d 2bb7 dd3d cd01 d7bd
00000250: 79a1 2f3d a8d6 debb ab81 5fbd 7ef4 c6bd
00000260: 2943 e8ba bc21 e73d b12d 0a3d 746a 84bb
00000270: cd62 99bd 3fc6 c53c caa8 dc3d d940 863b
00000280: 796e bcbb 5a53 a93d 06f6 84bd 5da0 c93d
00000290: cccb b13c e65c 9abd fed9 1e3d 00f7 d93b
000002a0: 6137 90bd 41fe debd 3dc1 ab3d 2243 133d
000002b0: 3da4 903d d07b 5cbd ec50 d9bd a228 9bbd
000002c0: c428 98bd 22e9 5e3d 4cd0 b73c f4c8 dcbc
000002d0: 506f 753d 918f 99bd 0c99 c9bd d101 62bd
000002e0: efa7 4a3d 2e18 bc3c 2513 4c3c bb7a 2a3c
000002f0: 9dbd da3d 3b22 a43d dced f7bb af8d a43d
00000300: 3afa ca3b 2929 c7bc cb70 8cbd a11f 043d
00000310: 90f5 82bd 4490 953b 7168 90ba e06a d1bd
00000320: 4516 873d cda3 e4bc daec cdbd c753 f1bb
00000330: 82eb bdbd 67a6 7dbd 5cc2 45bd 88aa a4bd
00000340: d4e6 a2bc 6d47 dfbb 01d9 793d 1315 d93c
00000350: 2134 e8bc 6bea b53d e7a4 b7bd 3e6b dd3d
00000360: 8c12 b4bb 9f4e 8bbd 08e5 0a3d 8e5d a0bd
00000370: f091 29bd 0d54 6a3c 5f6f cebb f96b bcbd
00000380: 9bf0 ad3b af42 25be ea45 32bc 3e7f 45bd
00000390: d204 19bb 9d94 0ebe d2ca c13c 2ca3 3ebe
000003a0: 0f64 573d d106 9c3d f23b 9dbd 5594 85bd
000003b0: 2a39 a9bd 163c a8bd 76de 723d 71d9 b73d
000003c0: 688e 86bd bc13 16bd f0f5 9cbb 5e1b 293d
000003d0: f92e cabd 1933 eabd 9cdd a3bd 0c07 e2bc
000003e0: 0019 20bd 73d9 b63d 20fc 99bb 9cde bfbc
000003f0: 7c51 843d 85f2 3d3d 61d4 983c 36dd cbbd

c1.bias f4 [32]
0.07776836 0.113544986 -0.016849548 0.011443337 0.036136586 -0.044440046 0.10420865 -0.089553125
-0.030301986 0.03310029 0.06887715 0.06661327 0.089092396 0.05665968 -0.010243973 -0.04849215
0.030613186 -0.066007726 0.08245327 -0.07649313 -0.10679226 -0.079880975 -0.09647638 -0.1052323
0.07156064 0.09475386 0.06258633 -0.02761506 -0.10467783 -0.1134134 0.023146462 0.094382845
00000000: 0545 9f3d 468a e83d 1008 8abc d67c 3b3c
00000010: f503 143d c406 36bd 586b d53d a167 b7bd
00000020: df3b f8bc 2b94 073d 770f 8d3d 8a6c 883d
00000030: 1376 b63d fb13 683d 56d6 27bc b49f 46bd
00000040: 81c8 fa3c 0f2f 87bd 43dd a83d 6ea8 9cbd
00000050: e7b5 dabd a398 a3bd 6995 c5bd 0884 d7bd
00000060: 638e 923d 500e c23d 432d 803d fa38 e2bc
00000070: 5561 d6bd 4945 e8bd a69d bd3c cb4b c13d

c2.weight f4 [64, 32, 3, 3]
0.0050431876 -0.005224558 -0.023831489 0.009388671 0.054267615 -0.022657882 0.020307662 -0.010798057
-0.01701457 -0.0050550434 -0.0023611109 0.026909277 -0.0083844345 0.03338334 -0.03932493 -0.03534889
0.026646871 -0.021963924 0.019922195 0.00031883403 -0.031847246 -0.030585065 0.027810406 0.03620776
-0.05519308 -0.05746942 -0.01968265 0.02780129 0.0025692305 -0.011881093 -0.0083791 -0.034161933
0.036722753 -0.036972623 0.026864689 0.047077764 -0.03336304 0.011152667 -0.05174581 -0.04842832
-0.036863644 0.049108908 0.037919287 0.055041377 -0.004636442 0.036973774 0.021255188 -0.052217744
-0.010813048 0.047465228 -0.04410741 -0.026357401 -0.031698365 -0.039609306 0.033911843 -0.00815906
-0.01608829 -0.0470291 0.013139456 0.04868579 -0.006657375 -0.055667028 0.05110428 -0.030378869
-0.015469963 0.014007787 0.041331433 -0.040307026 -0.039154135 0.015189643 0.014499313 -0.04132766
-0.059133895 0.010555708 -0.010485939 -0.04951937 -0.014946707 -0.045111563 0.055237 0.031978432
-0.046792682 0.011596339 0.047387656 0.004343086 -0.009856409 -0.0493559 0.04162328 -0.049126875
0.04873711 0.020570219 -0.020581821 0.009177001 -0.0562887 0.05124424 -0.03406865 -0.014071221
0.040716622 -0.046276096 -0.0016681219 0.04798556 -0.04349103 -0.0154839065 -0.00205158 -0.035196107
0.02098611 0.003479895 0.021125535 -0.010635509 -0.035183482 0.020594425 -0.013785504 -0.054089714
0.04828984 -0.047669303 0.028771086 0.029787222 0.008251728 -0.028142938 -0.0035491968 -0.021706386
-0.031777278 0.024357833 0.033872556 0.032906175 0.032961536 0.026114328 -0.05103327 0.008168621
0.008255104 0.008672736 0.032194927 -0.015170793 0.015793586 0.017552042 0.04099618 0.019858154
0.05386625 -0.048007917 -0.05209329 0.0024317673 -0.040147785 0.049678683 0.05248129 -0.05080264
0.029953297 -0.012920867 0.038009204 -0.020479696 0.034307152 0.054944195 -0.058380418 -0.03779487
-0.05274145 -0.052075293 0.031018168 -0.029086055 0.04519158 -0.021941978 -0.0022866474 -0.030828135
0.023751447 -0.04123096 -0.055645466 -0.031223625 0.037592478 -0.06257672 -0.0323649 -0.03845609
-0.015550452 0.018512959 -0.054527007 -0.05459863 0.04616337 0.0061665718 -0.019984452 0.05837409
0.035300557 0.0011802483 -0.008082884 0.016052669 -0.045311797 -0.0063606477 0.048020586 0.006510672
0.04128534 0.052251175 0.057225186 -0.053596094 -0.009086098 0.0036442198 0.004898135 0.028129274
0.007238068 0.03590068 0.0061718943 0.012666957 -0.0009149415 -0.014090289 0.04294483 -0.05561727
-0.026292244 0.019960219 0.030354341 -0.042623643 -0.018830067 -0.008362048 0.05554785 0.051107917
0.007827527 -0.050500967 0.010268281 -0.023627575 -0.026238624 0.050079565 0.0148850065 0.055822395
0.05017252 0.041900538 0.051923525 0.04504712 0.026864896 0.039347295 -0.026078762 -0.04250402
0.019514175 0.012955369 -0.05552457 -0.029189955 -0.024867048 -0.03789422 0.035711743 -0.04291988
-0.043933593 0.011135808 -0.005993384 -0.05947989 0.020474734 -0.05455415 -0.021851411 -0.034395315
-0.04935444 -0.05741914 0.008480619 0.035458352 -0.05039381 -0.058710106 -0.03128843 -0.055456117
0.036680758 -0.0010360542 0.04313341 -0.050228037 -0.028154273 0.02424762 0.0016856951 0.02909808
00000000: 5341 a53b c532 abbb 413a c3bc f1d2 193c
00000010: b847 5e3d 069d b9bc 415c a63c 55ea 30bc
00000020: 2462 8bbc c7a4 a5bb debc 1abb d870 dc3c
00000030: de5e 09bc f8bc 083d 2e13 21bd ffc9 10bd
00000040: 8a4a da3c b0ed b3bc df33 a33c 2e29 a739
00000050: 4272 02bd 888d fabc a6d2 e33c 974e 143d
00000060: 2412 62bd 0e65 6bbd 823d a1bc 88bf e33c
00000070: 8960 283b eaa8 42bc 7e48 09bc 62ed 0bbd
00000080: 996a 163d 9b70 17bd 5613 dc3c 9dd4 403d
00000090: afa7 08bd adb9 363c 6af3 53bd c65c 46bd
000000a0: 55fe 16bd 6c26 493d 4151 1b3d 1173 613d
000000b0: 4bed 97bb d071 173d 5c1f ae3c 46e2 55bd
000000c0: 3629 31bc e66a 423d f9a9 34bd 7aeb d7bc
000000d0: 25d6 01bd 5e3d 22bd 25e7 0a3d 94ad 05bc
000000e0: 97cb 83bc 96a1 40bd df46 573c c06a 473d
000000f0: 1c26 dabb 1c03 64bd b952 513d 1bdd f8bc
00000100: ba75 7dbc eb80 653c 264b 293d fb18 25bd
00000110: 1660 20bd fbdd 783c 878e 6d3c 3147 29bd
00000120: 6236 72bd d9f1 2c3c 37cd 2bbc d3d4 4abd
00000130: 08e3 74bc e7c6 38bd 3140 623d d1fb 023d
00000140: afa9 3fbd 92fe 3d3c 8f19 423d 7250 8e3b
00000150: c77c 21bc 6a29 4abd 2c7d 2a3d 4339 49bd
00000160: 90a0 473d e082 a83c 359b a8bc 225b 163c
00000170: fb8e 66bd 7be5 513d 928b 0bbd fb8a 66bc
00000180: 79c6 263d 018c 3dbd e2a4 daba 828c 443d
00000190: a623 32bd 36b0 7dbc cd73 06bb cb29 10bd
000001a0: 10eb ab3c f30e 643b 750f ad3c 8f40 2ebc
000001b0: 8e1c 10bd a4b5 a83c 98dc 61bc 2d8d 5dbd
000001c0: 91cb 453d e340 43bd 57b1 eb3c 5504 f43c
000001d0: 4132 073c 058c e6bc a499 68bb 97d1 b1bc
000001e0: e428 02bd 148a c73c f3bd 0a3d a0c8 063d
000001f0: ad02 073d b7ed d53c 4308 51bd aed5 053c
00000200: 6a40 073c 1718 0e3c d4de 033d eb8e 78bc
00000210: 8d61 813c 4dc9 8f3c 9ceb 273d 91ad a23c
00000220: dba2 5c3d f3a3 44bd c65f 55bd 495e 1f3b
00000230: 0172 24bd e07b 4b3d 9ff6 563d 6e16 50bd
00000240: 9e60 f53c 0bb2 53bc 8aaf 1b3d 09c5 a7bc
00000250: a885 0c3d 2a0d 613d 4e20 6fbd cbce 1abd
00000260: 6b07 58bd e74c 55bd d019 fe3c e145 eebc
00000270: ce1a 393d aabf b3bc 94db 15bb 498b fcbc
00000280: 6592 c23c cce1 28bd 80ec 63bd b0c8 ffbc
00000290: 92fa 193d 3928 80bd 0f91 04bd 2284 1dbd
000002a0: 53c7 7ebc 7da8 973c b657 5fbd d0a2 5fbd
000002b0: cd15 3d3d f410 ca3b 6fb6 a3bc ab19 6f3d
000002c0: 5197 103d 90b2 9a3a 136e 04bc e380 833c
000002d0: dd98 39bd fb6c d0bb 3cb1 443d 7a57 d53b
000002e0: d11a 293d 5405 563d f564 6a3d 9487 5bbd
000002f0: dbdd 14bc ddd3 6e3b 8980 a03b 5d6f e63c
00000300: 512d ed3b 970c 133d 9a3d ca3b 1289 4f3c
00000310: afd8 6fba f5da 66bc ebe6 2f3d efce 63bd
00000320: d562 d7bc 9d83 a33c aba9 f83c 2196 2ebd
00000330: 8341 9abc f900 09bc 2486 633d 8956 513d
00000340: 073f 003c 1ada 4ebd 4b3c 283c 9e8e c1bc
00000350: 62f2 d6bc 3b20 4d3d 3ee0 733c 06a6 643d
00000360: b381 4d3d e69f 2b3d c3ad 543d 5483 383d
00000370: c513 dc3c a12a 213d 21a3 d5bc b218 2ebd
00000380: 31dc 9f3c c242 543c bb6d 63bd c61f efbc
00000390: fbb5 cbbc f836 1bbd 7a46 123d c2cc 2fbd
000003a0: b6f3 33bd f772 363c 2664 c4bb 2fa1 73bd
000003b0: a1ba a73c 2c74 5fbd bb01 b3bc 1ae2 0cbd
000003c0: e227 4abd 5530 6bbd 4bf2 0a3c c73c 113d
000003d0: bd69 4ebd 027a 70bd 4c28 00bd f425 63bd
000003e0: 903e 163d 36cc 87ba a9ac 303d eabb 4dbd
000003f0: caa3 e6bc f2a2 c63c 8bf2 dc3a 195f ee3c

c2.bias f4 [64]
-0.050780978 0.056639098 0.020392643 0.015564768 -0.025231026 0.043193948 -0.03834621 0.048393656
-0.05027619 0.020197213 -0.045199107 -0.049801204 -0.0007122172 -0.04778398 0.019027151 -0.009896324
0.057698455 0.06866558 0.04045005 -0.054413285 -0.019774443 -0.04194991 0.03748976 -0.029269801
-0.0058450727 -0.019487547 0.03210708 0.025011312 -0.016684337 -0.04741865 0.018627923 -0.0046623885
0.028178062 0.028860789 0.0037167312 0.0076318784 0.044092163 0.04261086 -0.015478116 0.0545366
-0.014019409 -0.0024946684 0.03041837 0.04221746 0.024790542 -0.011904834 -0.028262628 0.008341305
0.006708188 -0.0038185085 -0.02113231 -0.030222122 0.03550665 0.033523962 0.01713775 0.006029959
-0.03602625 0.011344969 0.039365165 0.059388064 0.03573924 -0.043683745 -0.037787765 0.015617673
00000000: b7ff 4fbd 66fe 673d 790e a73c 5e03 7f3c
00000010: 4cb1 cebc 23ec 303d ea10 1dbd 6d38 463d
00000020: 68ee 4dbd a074 a53c b322 39bd 59fc 4bbd
00000030: 16b4 3aba 22b9 43bd d4de 9b3c 3124 22bc
00000040: 3755 6c3d 8aa0 8c3d f4ae 253d 77e0 5ebd
00000050: 03fe a1bc abd3 2bbd dd8e 193d 39c7 efbc
00000060: 0688 bfbb 59a4 9fbc b782 033d 86e4 cc3c
00000070: 97ad 88bc 0f3a 42bd 9699 983c f3c6 98bb
00000080: aed5 e63c 766d ec3c 6794 733b d614 fa3b
00000090: fc99 343d ba88 2e3d ed97 7dbc c561 5f3d
000000a0: aab1 65bc 977d 23bb f22f f93c 37ec 2c3d
000000b0: 8915 cb3c 7e0c 43bc 0787 e7bc f8a9 083c
000000c0: 5cd0 db3b f13f 7abb ab1d adbc 6294 f7bc
000000d0: 6c6f 113d 6c50 093d 7764 8c3c f696 c53b
000000e0: 4390 13bd 40e0 393c 5e3d 213d e640 733d
000000f0: 4f63 123d baed 32bd 58c7 1abd 45e1 7f3c

c3.weight f4 [256, 64, 3, 3]
0.02097021 0.0029559429 -0.026973896 0.0054877377 0.029629376 -0.017030828 0.009383054 -0.0002210583
0.03136015 0.035032697 0.021001974 0.020337814 0.046514697 0.03602102 0.019218821 -0.013079785
0.02020468 -0.01917891 0.014914221 -0.0032163665 -0.028719112 -0.032521717 -0.018011415 -0.03031134
0.04557129 0.011569065 0.041208405 -0.02834532 -0.01207584 0.04991288 0.025424996 0.0067181243
-0.02486566 0.036377184 -0.016474219 0.043452658 0.028694896 0.0103531545 -0.0027614909 -0.023959175
0.044028174 0.03193002 -0.011919048 0.03730641 0.049919847 0.060843427 0.049400963 0.0059081106
0.00046006762 0.0029146268 0.015275286 -0.0108027 -0.014281419 0.068481304 0.022064816 0.0065083406
0.011969889 -0.0040120045 0.022469899 0.0373645 0.0075967927 -0.023597592 0.01779748 -0.013176505
0.011431085 -0.016968988 -0.024182083 -0.028012482 0.0043862895 0.04315408 0.0059295627 0.019849367
-0.01484156 -0.03799904 -0.021281851 0.010168986 0.004163419 -0.028783726 0.016396463 -0.025748596
0.013882357 0.0020710498 0.019657424 0.042428255 0.013329967 -0.029282345 0.009807871 0.024193414
0.005146705 0.049219545 0.030658174 0.016345344 0.032442648 -0.01561496 0.052698217 0.03394619
-0.027578311 -0.024250828 -0.0020354425 0.030498115 0.028275888 0.0038536156 0.030094206 -0.018038597
0.0014189341 0.034765556 0.021643953 0.0154447025 -0.02288965 -0.026142603 0.01707118 -0.0057893684
0.024738703 0.015547667 0.004732318 0.042298123 0.047332477 0.021029608 -0.018344512 0.01024721
0.00074358704 0.01746947 0.009360592 -0.030884957 -0.016036453 -0.027118547 0.020485027 0.02990092
-0.014409616 0.04233084 -0.005344015 -0.0027498074 -0.0088402135 0.03494975 0.0018933979 -0.0034532812
-0.0015242919 -0.033201486 0.04983461 -0.0032280441 0.049957495 -0.025532855 0.016731344 0.01715935
-0.029865656 -0.0329489 -0.014764501 -0.013807127 -0.007516341 -0.0105143245 -0.0027819576 0.03971904
-0.025070505 0.016481522 -0.0346516 0.047039673 0.012089274 0.03600756 0.03487121 -0.02128921
0.026203323 -0.0003462647 0.00061130757 -0.03330694 0.047663067 -0.014333367 -0.010148461 -0.0144672245
0.015173714 -0.024124531 -0.0078945 0.02583262 0.00019730377 -0.0143120205 0.023451606 0.01631032
-0.03328346 -0.007833486 0.035003975 0.033915654 0.030953277 -0.016672377 -0.024405219 0.03164807
0.0476127 -0.024838472 0.04445286 0.052235227 -0.021104535 0.019075634 0.0047924863 -0.042422347
0.040981382 -0.021537352 0.023938073 -0.027770866 -0.042821117 0.026136668 0.029338025 -0.007416825
0.0073512895 -0.003287227 0.030345503 0.027560188 0.044259835 0.024761185 -0.009051358 0.038258325
0.00408968 0.0031673312 0.014789201 -0.03905472 0.032411296 0.031875547 -0.00611799 0.012483897
-0.02931289 0.01359796 0.006213342 -0.029856643 -0.022581028 -0.023226619 0.0047919434 0.010176481
0.023210855 -0.010649178 0.022384247 0.031752806 0.03568416 -0.001187159 0.03796136 0.014606989
0.00046870104 -0.0011528592 -0.019255444 -0.021478627 -0.015682394 0.032974806 0.0047076396 0.006243529
-0.008389641 -0.006195593 0.012743985 0.0087448 0.04786288 -0.033014756 0.024749989 -0.02693202
-0.018960515 0.013808129 -0.004803562 -0.022366611 -0.013961161 0.0067687137 0.015119748 -0.0018389074
00000000: b8c9 ab3c 7eb8 413b 5cf8 dcbc 7bd2 b33b
00000010: 4eb9 f23c 3c84 8bbc 62bb 193c e3cb 67b9
00000020: 8073 003d 727e 0f3d 550c ac3c 7d9b a63c
00000030: 3286 3e3d c78a 133d ca70 9d3c 984c 56bc
00000040: 4984 a53c 171d 9dbc c75a 743c adc9 52bb
00000050: 5844 ebbc 7e35 05bd ad8c 93bc 7d4f f8bc
00000060: f6a8 3a3d 2d8c 3d3c 25ca 283d 7234 e8bc
00000070: bed9 45bc 7371 4c3d 1548 d03c b623 dc3b
00000080: 12b3 cbbc 3e00 153d f1f4 86bc 6afb 313d
00000090: 8f11 eb3c 47a0 293c 21fa 34bb 0846 c4bc
000000a0: e356 343d 0dc9 023d 1c48 43bc 9bce 183d
000000b0: c178 4c3d f536 793d aa58 4a3d d398 c13b
000000c0: 3b35 f139 5303 3f3b 3145 7a3c cffd 30bc
000000d0: 9dfc 69bc ed3f 8c3d 46c1 b43c eb43 d53b
000000e0: 5a1d 443c 2277 83bb cb12 b83c 850b 193d
000000f0: 84ee f83b bd4f c1bc 05cc 913c 45e2 57bc
00000100: 7249 3b3c 8c02 8bbc 8119 c6bc 6f7a e5bc
00000110: ddba 8f3b 55c2 303d c74c c23b 249b a23c
00000120: 042a 73bc e2a4 1bbd 4757 aebc d29b 263c
00000130: 4a6d 883b d9cb ebbc e051 863c b8ee d2bc
00000140: d372 633c 73ba 073b 9b08 a13c 40c9 2d3d
00000150: ef65 5a3c 87e1 efbc 31b1 203c 4431 c63c
00000160: b1a5 a83b 6f9a 493d da26 fb3c ace6 853c
00000170: 95e2 043d e4d5 7fbc 16da 573d 290b 0b3d
00000180: e9eb e1bc aca9 c6bc 0f65 05bb 2fd7 f93c
00000190: d6a2 e73c f18c 7c3b 2088 f63c aec5 93bc
000001a0: 87fb b93a 5466 0e3d a94e b13c c70b 7d3c
000001b0: 1383 bbbc 0329 d6bc dcd8 8b3c beb4 bdbb
000001c0: d2a8 ca3c a4bb 7e3c 9011 9b3b cc40 2d3d
000001d0: b3df 413d 4946 ac3c 3b47 96bc eae3 273c
000001e0: 48ed 423a 221c 8f3c 2b5d 193c 7302 fdbc
000001f0: e15e 83bc b727 debc 37d0 a73c c6f2 f43c
00000200: 4f16 6cbc 1a63 2d3d d91c afbb 1d36 34bb
00000210: 8bd6 10bc 7827 0f3d e42b f83a 7250 62bb
00000220: c0ca c7ba 48fe 07bd 601f 4c3d 988d 53bb
00000230: 3ba0 4c3d 472a d1bc 2c10 893c c491 8c3c
00000240: d2a8 f4bc 6df5 06bd cee6 71bc 4a37 62bc
00000250: a34b f6bb 4644 2cbc 8151 36bb 6fb0 223d
00000260: a960 cdbc 4204 873c d6ee 0dbd acac 403d
00000270: 1712 463c aa7c 133d 1dd5 0e3d b666 aebc
00000280: 5aa8 d63c dc8a b5b9 2840 203a dc6c 08bd
00000290: 593a 433d 80d6 6abc bb45 26bc f007 6dbc
000002a0: 2b9b 783c cfa0 c5bc ef57 01bc ee9e d33c
000002b0: 54e3 4e39 f77c 6abc 951d c03c 389d 853c
000002c0: 3d54 08bd 0658 00bc 5460 0f3d 24eb 0a3d
000002d0: ba91 fd3c 8294 88bc 74ed c7bc 68a1 013d
000002e0: 8905 433d 0d7a cbbc 3414 363d 9bf4 553d
000002f0: 6be3 acbc 8144 9c3c 4a0a 9d3b 0ec3 2dbd
00000300: 18dc 273d 1a6f b0bc c719 c43c ba7f e3bc
00000310: 3265 2fbd 911c d63c 4c56 f03c d608 f3bb
00000320: 16e3 f03b 846e 57bb 2297 f83c e7c5 e13c
00000330: cd49 353d f8d7 ca3c 264c 14bc c3b4 1c3d
00000340: b902 863b 0093 4f3b 684e 723c d8f7 1fbd
00000350: b5c1 043d ef8f 023d 6b79 c8bb 4289 4c3c
00000360: 9621 f0bc fac9 5e3c 4a99 cb3b eb95 f4bc
00000370: d9fb b8bc c045 bebc bc05 9d3b 41bb 263c
00000380: b124 be3c e479 2ebc 2b5f b73c 3b0f 023d
00000390: 8e29 123d 729a 9bba 5f7d 1b3d 2752 6f3c
000003a0: fdbb f539 891b 97ba 98bd 9dbc f2f3 afbc
000003b0: 5d78 80bc 9710 073d 8b42 9a3b 8496 cc3b
000003c0: b474 09bc 6704 cbbb 26cc 503c 5a46 0f3c
000003d0: de0b 443d 7b3a 07bd 7dc0 ca3c 8aa0 dcbc
000003e0: 1553 9bbc 7e3b 623c 3367 9dbb 2f3a b7bc
000003f0: 5abd 64bc 16cc dd3b d2b8 773c 7e07 f1ba

c3.bias f4 [256]
-0.011103962 0.023290716 -0.038638674 -0.013150369 -0.03575705 -0.039131876 -0.0131065035 -0.0012957747
-0.030693403 0.007840504 0.012198329 0.049481917 -0.027008276 -0.029447448 -0.0031687638 -0.03968128
0.029411338 -0.009640648 -0.043165304 -0.0081692515 0.00875212 -0.005903753 0.0120214475 0.027497113
-0.019128947 0.029265286 0.0051303674 -0.00884124 0.017755028 -0.03839266 -0.015275663 -0.0009867446
-0.016407942 -0.021110704 -0.009843643 -0.030792525 -0.0155928135 0.008223746 0.0066919564 -0.010155338
-0.02635479 0.019864576 0.03945063 -0.026675144 -0.016161947 -0.0015762018 0.015870068 -0.039982162
-0.030477729 0.0077810446 0.038488213 -0.021296637 -0.012753782 0.03917662 0.0038002895 0.035219572
0.034117885 -0.019735338 -0.0060017644 -0.044842206 -0.025183018 -0.0023490624 0.038391307 -0.016749982
0.0005157447 -0.0005332097 -0.02302754 0.005470787 -0.014644148 0.039035443 -0.0016282714 -0.0137054175
-0.019446291 0.013706956 -0.0018320328 -0.017412722 0.028914 -0.042942293 -0.030197196 0.012854327
0.034177333 -0.010880058 -0.04331171 -0.007015031 -0.009961077 -0.009679106 0.0125170695 -0.035119444
0.031118361 -0.027082212 0.0117983185 0.04401151 0.0008196236 -0.029509468 -0.0028968146 -0.02791996
0.007837369 0.04987831 0.017367946 -0.0037423891 0.0046372 0.005743663 -0.027102837 -0.037036553
-0.036975525 -0.040427145 -0.0010215869 0.01170346 -0.03818847 0.0028950723 0.044790763 0.03362041
0.018808803 0.0083943745 0.016758014 0.011574251 -0.0320122 -0.024015004 -0.03292616 -0.02113457
0.025300497 0.014294974 0.048218314 0.001162085 0.014352869 0.009579228 0.018256405 0.019771174
0.049301647 -0.032011867 0.00062206475 -0.00087143 -0.034775138 -0.0138562955 -0.023006266 -0.03698926
0.0040175715 0.021188509 0.0375425 -0.027697744 0.00398036 -0.022807527 0.00013509853 0.012882348
-0.0035001943 -0.0024709303 0.029003272 -0.008975474 0.019447524 -0.030087577 0.011152552 0.04466494
0.031370826 0.014037685 -0.018572085 0.02432088 -0.028904304 -0.033432562 -0.0014840498 0.040003587
-0.004215505 -0.039217338 0.018667942 -0.020831322 -0.027943145 -0.009766157 -0.0066943183 0.051431287
-0.017848082 0.03736649 0.0373774 0.025377274 0.020387169 0.046651542 -0.028534237 0.0113435555
0.00054237404 -0.03503733 -0.039295893 0.053209618 0.027704647 -0.042074367 0.034638688 -0.032102883
-0.037865896 0.026009 -0.030713089 -0.023708034 -0.011290421 -0.024603073 0.035523612 0.017587127
0.039222673 0.038393788 -0.031489275 -0.009038861 0.0035834946 0.021721695 0.008389001 -0.0100445105
0.0041606687 -0.016987603 0.038429182 -0.035236232 0.007804558 0.008935444 -0.013430687 0.050336458
-0.035031363 -0.043354005 -0.0093914755 -0.00023831394 -0.002194201 0.057629105 0.004909371 0.016735652
-0.03930008 0.021928705 0.031851556 -0.017513262 0.018854434 0.016140338 0.032238375 0.031792343
-0.03109305 0.025137248 0.007082121 0.01922311 -0.024840739 0.002170355 0.01070317 -0.03835802
0.010892794 0.0109860245 -0.021973409 -0.038245082 0.018163279 -0.015347038 -0.013934996 0.01786712
-0.039902836 0.016623594 -0.024240894 0.037074614 0.03148125 -0.017833011 0.012321489 0.033078775
0.0331404 0.024549313 0.047246486 0.010241035 -0.026634779 0.017510507 0.033921238 -0.023817942
00000000: 64ed 35bc 2ccc be3c 9643 1ebd a574 57bc
00000010: fc75 12bd bf48 20bd a9bc 56bc fcd6 a9ba
00000020: bb70 fbbc 7575 003c 80db 473c 8dad 4a3d
00000030: 7640 ddbc c63b f1bc 09ab 4fbb d688 22bd
00000040: 0cf0 f03c cff3 1dbc 1ace 30bd 53d8 05bc
00000050: 0d65 0f3c 4574 c1bb 9bf5 443c a041 e13c
00000060: 4fb4 9cbc c1bd ef3c a41c a83b d9da 10bc
00000070: fe72 913c 9f41 1dbd c646 7abc a855 81ba
00000080: f369 86bc 5bf0 acbc 3b47 21bc 9b40 fcbc
00000090: 0079 7fbc e4bc 063c 3348 db3b 9362 26bc
000000a0: 00e6 d7bc 09bb a23c fc96 213d d585 dabc
000000b0: 0f66 84bc 8e98 ceba f201 823c 56c4 23bd
000000c0: 6eac f9bc 22f8 fe3b d1a5 1d3d 4976 aebc
000000d0: 3df5 50bc aa77 203d 470e 793b 6642 103d
000000e0: 32bf 0b3d 01ac a1bc 73aa c4bb 76ac 37bd
000000f0: 9e4c cebc baf2 19bb 3440 1d3d 4237 89bc
00000100: 0a33 073a 19c7 0bba 40a4 bcbc 4a44 b33b
00000110: 02ee 6fbc a1e3 1f3d b96b d5ba b08c 60bc
00000120: d44d 9fbc 2493 603c d220 f0ba 20a5 8ebc
00000130: 0edd ec3c 42e4 2fbd 1c60 f7bc f59a 523c
00000140: 88fd 0b3d 4542 32bc 9f67 31bd 58de e5bb
00000150: c933 23bc 1d95 1ebc 6514 4d3c 68d9 0fbd
00000160: efeb fe3c 84db ddbc bc4d 413c 6a45 343d
00000170: 02dc 563a d7bd f1bc 7cd8 3dbb 66b8 e4bc
00000180: 4f68 003c 334d 4c3d 3947 8e3c df42 75bb
00000190: a7f3 973b 5635 bc3b c506 debc a4b3 17bd
000001a0: a673 17bd ef96 25bd c5e6 85ba debf 3f3c
000001b0: 836b 1cbd 41bb 3d3b 8576 373d 8eb5 093d
000001c0: eb14 9a3c 8f88 093c 1a48 893c eda1 3d3c
000001d0: 3a1f 03bd 1dbb c4bc 95dd 06bd 6822 adbc
000001e0: fd42 cf3c 7735 6a3c 9180 453d 1a51 983a
000001f0: 4c28 6b3c 32f2 1c3c 758e 953c 28f7 a13c
00000200: 86f0 493d e01e 03bd 0f12 233a ad70 64ba
00000210: 6070 0ebd 8405 63bc a377 bcbc 0d82 17bd
00000220: d5a5 833b 8693 ad3c 2ac6 193d 61e6 e2bc
00000230: ae6d 823b dad6 babc 3ca9 0d39 7c10 533c
00000240: 8463 65bb 55ef 21bb 4598 ed3c de0d 13bc
00000250: 6a50 9f3c 397a f6bc 32b9 363c 96f2 363d
00000260: b27e 003d 51fe 653c 7c24 98bc 953c c73c
00000270: b8c8 ecbc 95f0 08bd 7384 c2ba cdda 233d
00000280: 3822 8abb 5ca2 20bd 83ed 983c 73a6 aabc
00000290: 06e9 e4bc 3b02 20bc 035c dbbb 9da9 523d
000002a0: 2436 92bc 9b0d 193d 0b19 193d 00e4 cf3c
000002b0: fe02 a73c b015 3f3d a2c0 e9bc 52da 393c
000002c0: 1b2e 0e3a 4e83 0fbd bbf4 20bd 54f2 593d
000002d0: dbf4 e23c 2c56 2cbd 4ce1 0d3d 507e 03bd
000002e0: 4519 1bbd d410 d53c 049a fbbc 5a37 c2bc
000002f0: 75fb 38bc 628c c9bc 3581 113d e112 903c
00000300: f4a7 203d ce42 1d3d e6fa 00bd bb17 14bc
00000310: 10d9 6a3b b2f1 b13c 0572 093c bb91 24bc
00000320: 3856 883b 9629 8bbc eb67 1d3d de53 10bd
00000330: 61bd ff3b f865 123c 620c 5cbc 9a2d 4e3d
00000340: 0c7d 0fbd f893 31bd b4de 19bc e9e3 79b9
00000350: 96cc 0fbb 7f0c 6c3d cade a03b 3519 893c
00000360: 1ff9 20bd d4a3 b33c c776 023d f977 8fbc
00000370: 9d74 9a3c be38 843c 630c 043d b038 023d
00000380: dab6 febc a1ec cd3c 2311 e83b c979 9d3c
00000390: ce7e cbbc 843c 0e3b 595c 2f3c 4d1d 1dbd
000003a0: b077 323c bafe 333c 9401 b4bc e0a6 1cbd
000003b0: 28cb 943c 2572 7bbc 9c4f 64bc 115e 923c
000003c0: 2871 23bd 342e 883c d794 c6bc 8ddb 173d
000003d0: 7cf2 003d 8916 92bc 12e0 493c 9c7d 073d
000003e0: 3abe 073d a41b c93c 8885 413d 04ca 273c
000003f0: 2e31 dabc 3272 8f3c fff0 0a3d d81d c3bc

fc1.weight f4 [64, 256]
0.032871895 0.056289434 -0.003601037 -0.025155485 0.049582943 -0.053370975 0.012573995 0.001012668
-0.028392129 -0.044867255 -0.0114815235 0.05404097 0.01698386 0.052241802 0.033120193 0.05694651
0.048211887 -0.0043594763 -0.027497873 -0.038928747 -0.040054224 -0.018998548 -0.036378562 -0.034454577
0.026028797 -0.057984643 -0.007829666 -0.02748669 0.0069170445 -0.0380586 0.05669497 0.034134284
-0.012917981 0.04337427 0.03751505 0.05889426 -0.01682233 -0.03705497 0.023933694 0.030932099
-0.00866732 0.017942898 0.008383222 -0.053267084 0.06078943 0.024182178 0.0075820833 0.021909304
0.007489145 -0.01638107 -0.05213321 0.014890902 -0.039378934 0.054811053 0.040828787 -0.025599271
-0.04140143 0.044905692 -0.03877581 0.044721976 0.058684178 0.048455767 0.03770449 -0.03637217
-0.0054052994 -0.026447825 0.02373062 -0.0018884316 -0.04276479 0.04907549 0.030905962 -0.0089757815
0.005284101 0.035767853 0.021703586 0.0007781759 8.574128e-05 -0.03193658 0.039338186 0.04980301
-0.02079589 0.026087373 -0.028430916 -0.005814329 -0.00050666183 -0.037739545 0.027465887 -0.03463272
0.046906054 0.031677127 -0.033231586 -0.046029843 -0.06006547 -0.018457197 -0.03687027 0.04913584
0.045512386 -0.0246391 -0.04655776 -0.0050798506 -0.039489076 0.01776652 0.014861979 0.036736965
0.021490283 0.02466654 0.04506045 0.0019789636 -0.005751416 -0.009780079 0.05401382 -0.056766555
0.062429667 -0.011852637 0.053503893 -0.020830229 0.053548403 -0.008271217 0.01423531 0.022600867
0.012180574 -0.051925935 0.012746826 -0.00476259 -0.027487606 0.008820258 -0.03858547 -0.0152793825
-0.033529803 0.022370934 -0.02836518 0.059174865 0.055620335 -0.033509165 -0.0071545616 -0.0066476017
-0.037337832 -0.03220524 0.01058577 0.022462986 -0.03685587 -0.0066314936 -0.02022808 0.013496913
-0.0013000742 0.052210726 -0.023770846 0.010275893 -0.017907374 -0.019063435 -0.0323449 0.032903597
-0.0016354248 -0.012823693 0.0011093765 -0.034564823 0.03738743 -0.03776303 0.001144357 0.0063693374
-0.05859095 -0.05645986 -0.0281061 0.0139957145 -0.011998929 0.053249143 0.025130063 -0.04890403
0.023050763 0.0025482103 -0.013255402 -0.03813687 0.045185626 -0.0062260553 -0.006546147 -0.0032618344
0.026443265 -0.014581181 0.025573626 -0.059989236 -0.039386973 0.023779385 0.0064601228 -0.011683144
0.021691643 -0.0450005 0.0406757 -0.02129735 0.0009287223 0.03169883 0.05039393 0.039055176
0.02230364 0.020173289 -0.008693993 -0.0129841715 -0.025716715 -0.044493236 -0.025373958 0.04603231
0.026163533 -0.013613552 -0.035295412 -0.06008832 0.056254193 -0.05614662 -0.051569425 -0.0036941022
-0.010894276 -0.0013827756 0.055466183 -0.02530662 0.038665734 -0.022542939 0.023055784 0.006661758
-0.023836486 -0.048888966 -0.009914815 0.0030044764 -0.02672366 0.0014131591 -0.034281977 -0.009070553
-0.03668961 -0.055881336 -0.05954107 -0.037576586 0.048135146 0.006883234 0.038411535 0.044324458
0.06065426 -0.05501756 0.035465598 -0.033076316 -0.05791095 0.040986232 -0.05446808 -0.0019188225
0.024196886 -0.043651193 0.04174467 0.018768571 0.050391793 0.054030947 -0.0015610382 -0.043575913
-0.043488584 -0.054009065 -0.05982472 -0.059530333 -0.058844425 0.028734505 -0.036213025 0.017283723
00000000: aea4 063d c08f 663d 60ff 6bbb e012 cebc
00000010: 7c17 4b3d 869b 5abd 2803 4e3c 80bb 843a
00000020: 9c96 e8bc bac6 37bd 001d 3cbc 105a 5d3d
00000030: bc21 8b3c 80fb 553d 0aa9 073d be40 693d
00000040: d479 453d f0d9 8ebb 3843 e1bc c073 1fbd
00000050: e60f 24bd d8a2 9bbc b001 15bd 3e20 0dbd
00000060: 583a d53c 4e81 6dbd 0048 00bc c42b e1bc
00000070: 60a8 e23b 56e3 1bbd fc38 683d 64d0 0b3d
00000080: f0a5 53bc 38a9 313d 62a9 193d 1c3b 713d
00000090: fcce 89bc f4c6 17bd 9810 c43c 5065 fd3c
000000a0: 6001 0ebc fcfc 923c c859 093c 962e 5abd
000000b0: 56fe 783d b419 c63c 2073 f83b 247b b33c
000000c0: 8067 f53b 9831 86bc a289 55bd f8f8 733c
000000d0: ce4b 21bd 8e81 603d 163c 273d 90b5 d1bc
000000e0: 8c94 29bd 08ef 373d 62d3 1ebd 642e 373d
000000f0: d25e 703d 8e79 463d 0670 1a3d fcfa 14bd
00000100: f01e b1bb 1ca9 d8bc b866 c23c 4085 f7ba
00000110: 222a 2fbd 6203 493d 802e fd3c 280f 13bc
00000120: 4026 ad3b 5081 123d b8cb b13c 80fe 4b3a
00000130: 00d0 b338 eecf 02bd 1421 213d 3efe 4b3d
00000140: 245c aabc 30b5 d53c f4e7 e8bc 2086 bebb
00000150: 80d1 04ba c894 1abd 2400 e13c 0adb 0dbd
00000160: 9020 403d e0bf 013d d81d 08bd ca89 3cbd
00000170: 3607 76bd 8c33 97bc 4805 17bd aa42 493d
00000180: 326b 3a3d f0d7 c9bc 5ab3 3ebd e074 a6bb
00000190: 4cbf 21bd 188b 913c a87f 733c 8079 163d
000001a0: 640c b03c 7c11 ca3c 4e91 383d 80b1 013b
000001b0: 6076 bcbb a03c 20bc 983d 5d3d 0c84 68bd
000001c0: 40b6 7f3d 9031 42bc e626 5b3d 28a4 aabc
000001d0: 9255 5b3d 0084 07bc 383b 693c 7425 b93c
000001e0: 0891 473c 4ab0 54bd 10d8 503c 800f 9cbb
000001f0: b02d e1bc d882 103c cc0b 1ebd 6056 7abc
00000200: 8c56 09bd 4043 b73c 185e e8bc 5861 723d
00000210: 26d2 633d e840 09bd d070 eabb 20d4 d9bb
00000220: 8eef 18bd a4e9 03bd f06f 2d3c 4c04 b83c
00000230: 2ef6 16bd 004d d9bb 5cb5 a5bc 2822 5d3c
00000240: 4067 aaba eada 553d 14bb c2bc 385c 283c
00000250: 7cb2 92bc ec2a 9cbc 167c 04bd ecc5 063d
00000260: c05b d6ba 781a 52bc 8068 913a d893 0dbd
00000270: 9023 193d 68ad 1abd 40fe 953a e0b5 d03b
00000280: 10fd 6fbd 7442 67bd c43e e6bc 484e 653c
00000290: 2897 44bc c61b 5a3d 90dd cd3c 984f 48bd
000002a0: f4d4 bc3c e0ff 263b 302d 59bc 6835 1cbd
000002b0: 9014 393d f003 ccbb 1081 d6bb 80c4 55bb
000002c0: 8c9f d83c e8e5 6ebc c87f d13c 46b7 75bd
000002d0: 3c54 21bd fccc c23c 70af d33b a86a 3fbc
000002e0: acb2 b13c 7252 38bd 909b 263d c877 aebc
000002f0: 8075 733a a2d6 013d de69 4e3d 52f8 1f3d
00000300: 20b6 b63c 7442 a53c 4071 0ebc 90bb 54bc
00000310: dcab d2bc 8a3e 36bd 0cdd cfbc 608c 3c3d
00000320: e854 d63c 600b 5fbc ec91 10bd 2c1f 76bd
00000330: cc6a 663d 00fa 65bd 763a 53bd c018 72bb
00000340: e87d 32bc 403e b5ba 8230 633d d44f cfbc
00000350: f65f 1e3d f8ab b8bc 7cdf bc3c e04a da3b
00000360: bc44 c3bc cc3f 48bd c071 22bc c0e6 443b
00000370: 94eb dabc c039 b93a 426b 0cbd a89c 14bc
00000380: d847 16bd d4e3 64bd 56e1 73bd e8e9 19bd
00000390: 5c29 453d c08c e13b 6a55 1d3d 908d 353d
000003a0: 9a70 783d 185a 61bd 6044 113d 087b 07bd
000003b0: 0834 6dbd 2ee1 273d ec19 5fbd 0081 fbba
000003c0: 8c38 c63c 98cb 32bd 76fc 2a3d 8cc0 993c
000003d0: a067 4e3d 8e4f 5d3d c09b ccba a87c 32bd
000003e0: 1621 32bd 9c38 5dbd c40a 75bd 14d6 73bd
000003f0: da06 71bd a064 eb3c 1c54 14bd 9896 8d3c

fc1.bias f4 [64]
-0.0058852136 0.02340114 -0.029049825 0.020772498 -0.035306185 -0.059746437 -0.032716252 -0.034641247
-0.027073253 0.03664059 0.011704203 0.01413499 0.032248147 0.045444768 0.053566925 -0.058327075
-0.01681339 0.012412385 -0.007835285 0.0058870227 0.02204192 -0.03490927 0.0021244197 -0.048010856
0.0050319433 0.011827437 0.0010174582 0.00027815253 -0.028212368 -0.013817385 -0.06500461 -0.046269417
0.024234302 -0.062450644 -0.008751646 0.00420136 0.008363308 0.05802754 0.028672691 0.005464339
0.01085587 0.031452246 0.008553746 -0.019828595 0.010547234 0.04050442 -0.047859922 0.0032559012
0.0322217 0.047812108 0.04914505 -0.03703216 -0.053881362 0.06217418 0.07220752 0.038176
-0.05230396 -0.033087496 0.04842822 0.06033682 0.032085106 -0.015024088 -0.050866686 0.0498206
00000000: c0d8 c0bb bfb3 bf3c e6f9 edbc 162b aa3c
00000010: 389d 10bd aeb8 74bd 7a01 06bd fbe3 0dbd
00000020: bac8 ddbc 7114 163d fcc2 3f3c 7296 673c
00000030: a216 043d 4b24 3a3d fe68 5b3d 5fe8 6ebd
00000040: 3cbc 89bc 515d 4b3c 915f 00bc ede7 c03b
00000050: 4291 b43c 06fd 0ebd d939 0b3b 08a7 44bd
00000060: 00e3 a43b dec7 413c 3b5c 853a 00d5 9139
00000070: a01d e7bc 5062 62bc 2321 85bd 0085 3dbd
00000080: 0487 c63c 3fcc 7fbd 1063 0fbc 90ab 893b
00000090: 4206 093c 49ae 6d3d fee2 ea3c 330e b33b
000000a0: d2dc 313c 12d4 003d 0325 0c3c 946f a2bc
000000b0: 4ece 2c3c f6e7 253d c408 44bd f560 553b
000000c0: e7fa 033d a1d6 433d 524c 493d 09af 17bd
000000d0: b4b2 5cbd 5aaa 7e3d 89e1 933d 705e 1c3d
000000e0: ad3c 56bd c186 07bd ab5c 463d be23 773d
000000f0: ac6b 033d 9827 76bc 9659 50bd af10 4c3d

fc2.weight f4 [5, 64]
-0.06750457 -0.048322506 0.06122629 -0.1208597 -0.05123642 0.01749368 0.072376385 0.13148256
-0.0083589535 0.018038949 0.07614216 0.09794739 -0.033271078 0.098294586 -0.02789916 -0.12392196
-0.08798446 -0.011350136 0.00031591728 -0.098838896 -0.06615992 -0.11715297 0.15197459 0.017263815
0.011577725 0.09599509 -0.07262166 0.12458946 0.119792774 0.10049653 0.043634314 -0.10322344
-0.012225898 -0.046667714 0.10034087 -0.07486158 0.0761166 -0.09497206 -0.04996061 0.014775533
-0.09880051 -0.050859198 -0.048492346 -0.0886071 -0.10233935 -0.017277328 0.023187175 0.12854713
-0.06966133 0.12096888 0.04592605 -0.019396482 -0.019089818 -0.09265813 0.06525544 -0.0095609445
-0.084925264 0.025939634 0.055350758 -0.07224291 0.106487595 0.092675954 0.03390354 0.047455437
0.0839663 0.04692797 0.06632364 -0.09598778 0.018223807 0.1152975 0.09024696 -0.06969251
0.085356556 -0.1061771 0.07959152 0.00927643 0.009233162 0.069733754 0.04712545 -0.10066699
0.05468197 0.09639156 0.030523939 0.05367256 0.0943225 0.10150754 0.024016688 -0.04454212
-0.046441898 0.11976784 -0.12013821 -0.093777895 0.09754175 -0.043833464 0.056046143 -0.02175285
-0.08571316 -0.09880923 0.117994934 0.011914462 -0.051250935 0.09483868 0.094128445 -0.110387065
-0.100169405 -0.0024310283 0.0366285 -0.10631269 0.067435324 -0.0716514 0.088599265 0.09760887
-0.085829556 -0.0799028 0.10398773 0.010462971 0.06363851 0.067629725 0.028752973 0.08491577
-0.11382789 -0.021338219 -0.07519542 -0.1014438 0.052082215 -0.007913187 0.106896415 -0.042936977
0.07542403 -0.098223515 -0.07174446 0.041568607 0.09564425 0.05525054 -0.10222514 0.09227445
-0.059900604 0.091153495 -0.0401173 -0.040045757 -0.034616526 0.05159622 -0.06060594 0.03183488
0.10630943 -0.11832522 -0.041643824 0.0487489 0.1194159 0.017748395 0.12161442 -0.048698425
0.10846551 -0.051080927 -0.019327143 -0.09315471 0.06140185 0.087227985 -0.059984967 0.09100272
0.03625878 0.020543406 -0.10887179 -0.11895403 -0.06344013 0.0833971 0.09089361 0.090553015
0.06411762 -0.05935235 -0.09549769 -0.0627535 0.09139591 -0.07208205 -0.075106055 0.015324147
0.08714844 0.10794549 0.017973395 -0.06762407 0.0640679 0.0022310314 0.09850837 0.037293795
-0.080083735 0.0067118825 -0.075351015 0.06311779 0.01957015 0.012814179 -0.074130565 -0.0608092
-0.107032955 -0.069036305 -0.11279556 -0.09353204 -0.0127838105 0.06024167 0.118348524 0.033235613
-0.09105757 0.04191523 -0.061509818 -0.10831102 -0.02853188 -0.019434927 -0.038734853 -0.09185101
0.050935507 -0.0874944 -0.06899671 0.09127853 0.04950643 -0.06794463 0.09850369 0.009379804
-0.022958934 0.07274787 0.04496791 0.058997422 0.055050686 0.05448371 -0.06878647 -0.10545029
-0.040499818 0.115326576 -0.005810216 -0.10398559 -0.048778623 -0.041196723 0.010194736 -0.10016747
-0.04938373 0.004887766 -0.036383525 0.030393437 -0.028920876 0.053512838 0.006659195 0.10764773
-0.02049657 0.028528333 0.11198866 -0.064842686 -0.09424469 -0.102259845 0.05683588 0.13928759
0.029579453 -0.050092418 0.06957139 -0.045078993 -0.015805615 -0.079011425 -0.09088594 0.03169079
00000000: d63f 8abd d2ed 45bd 6bc8 7a3d 4a85 f7bd
00000010: 48dd 51bd e84e 8f3c 123a 943d 5da3 063e
00000020: fef3 08bc 6bc6 933c 6cf0 9b3d a498 c83d
00000030: 4147 08bd ac4e c93d c78c e4bc ccca fdbd
00000040: 3231 b4bd ecf5 39bc b3a1 a539 0c6c cabd
00000050: da7e 87bd e5ed efbd 3a9f 1b3e d86c 8d3c
00000060: 80b0 3d3c 1399 c43d aaba 94bd c228 ff3d
00000070: ea55 f53d 20d1 cd3d e5b9 323d d066 d3bd
00000080: 224f 48bc a526 3fbd 847f cd3d 0751 99bd
00000090: 05e3 9b3d b680 c2bd 7fa3 4cbd 1415 723c
000000a0: ec57 cabd bc51 50bd e99f 46bd a477 b5bd
000000b0: 4b97 d1bd 2f89 8dbc 08f3 bd3c dca1 033e
000000c0: 99aa 8ebd 88be f73d f41c 3c3d 5fe5 9ebc
000000d0: 4062 9cbc 8cc3 bdbd a5a4 853d 82a5 1cbc
000000e0: 4ced adbd 5b7f d43c 7ab7 623d 17f4 93bd
000000f0: 2b16 da3d e4cc bd3d 70de 0a3d a260 423d
00000100: 86f6 ab3d 8b37 403d b0d4 873d 3e95 c4bd
00000110: 184a 953c 1821 ec3d 66d3 b83d f2ba 8ebd
00000120: 6bcf ae3d 6173 d9bd e100 a33d 2bfc 173c
00000130: b046 173c 92d0 8e3d 9e06 413d 7f2a cebd
00000140: 34fa 5f3d f068 c53d 570d fa3c c2d7 5b3d
00000150: 282c c13d 2fe3 cf3d a5be c43c cc71 36bd
00000160: dc39 3ebd d748 f53d 060b f6bd a00e c0bd
00000170: f8c3 c73d b88a 33bd a490 653d 0833 b2bc
00000180: 628a afbd 7e5c cabd 54a7 f13d e034 433c
00000190: 80ec 51bd c83a c23d 6ac6 c03d 9d12 e2bd
000001a0: 9e25 cdbd e351 1fbb c407 163d 78ba d9bd
000001b0: 881b 8a3d f8bd 92bd 8873 b53d 29e7 c73d
000001c0: 68c7 afbd 14a4 a3bd 85f7 d43d e26c 2b3c
000001d0: e854 823d 7481 8a3d 5b8b eb3c 52e8 ad3d
000001e0: 991e e9bd 7dcd aebc 0e00 9abd c4c1 cfbd
000001f0: 2954 553d 50a6 01bc 82ec da3d afde 2fbd
00000200: ea77 9a3d 6929 c9bd c2ee 92bd d843 2a3d
00000210: 22e1 c33d 644e 623d 6a5b d1bd 63fa bc3d
00000220: 565a 75bd afae ba3d 0a52 24bd 0507 24bd
00000230: 0fca 0dbd 8f56 533d ef3d 78bd 4b65 023d
00000240: c2b8 d93d 7e54 f2bd b792 2abd edac 473d
00000250: 5390 f43d 1565 913c fb10 f93d 0078 47bd
00000260: 2a23 de3d 3c3a 51bd f553 9ebc e6c7 bebd
00000270: 8280 7b3d 96a4 b23d ccb2 75bd a25f ba3d
00000280: 1684 143d a54a a83c 2cf8 debd 2c9e f3bd
00000290: e6ec 81bd 19cc aa3d 6e26 ba3d dc73 b93d
000002a0: 1950 833d 731b 73bd 4b94 c3bd e884 80bd
000002b0: c72d bb3d c19f 93bd 34d1 99bd 2212 7b3c
000002c0: e27a b23d 8612 dd3d f13c 933c 7d7e 8abd
000002d0: 0836 833d 7f36 123b c2be c93d 61c1 183d
000002e0: f102 a4bd 5aef db3b a251 9abd e643 813d
000002f0: 9451 a03c 90f2 513c c4d1 97bd 1113 79bd
00000300: 1834 dbbd e862 8dbd 5c01 e7bd ba8d bfbd
00000310: 3073 51bc f8bf 763d b660 f23d 1122 083d
00000320: 647c babd 4eaf 2b3d b8f1 7bbd 2bd2 ddbd
00000330: b0bb e9bc ff35 9fbc 70a8 1ebd 621c bcbd
00000340: c0a1 503d 4430 b3bd 264e 8dbd 3df0 ba3d
00000350: 41c7 4a3d 8e26 8bbd 4dbc c93d c0ad 193c
00000360: 6014 bcbc d6fc 943d 4530 383d 48a7 713d
00000370: d47c 613d 502a 5f3d ecdf 8cbd 52f6 d7bd
00000380: 23e3 25bd 5730 ec3d a063 bebb 66f6 d4bd
00000390: 18cc 47bd e5bd 28bd d207 273c 9a24 cdbd
000003a0: 9846 4abd 8e29 a03b e406 15bd a8fb f83c
000003b0: 79eb ecbc 4730 5b3d 6035 da3b 6a76 dc3d
000003c0: 6ce8 a7bc 40b4 e93c 505a e53d 3ecc 84bd
000003d0: 5c03 c1bd 9c6d d1bd bdcc 683d 68a1 0e3e
000003e0: 9c50 f23c b52d 4dbd 727b 8e3d c0a4 38bd
000003f0: c77a 81bc bed0 a1bd 6822 babd 34ce 013d

fc2.bias f4 [5]
0.08359518 0.00556084 -0.093030505 0.101148024 0.085873745
00000000: f333 ab3d b537 b63b c786 bebd b226 cf3d
00000010: 93de af3d
