SimpleQMIX_everything_random_blox_gamma0.95_lr0.0001_hidden64_target10/agent3_100.pth (torch, 745122 bytes, 10 tensors)

c1.weight f4 [32, 8, 3, 3]
00000000: 7734 f9bd 7f84 0d3d 8912 9bbd 3c14 a3bd
00000010: 14b4 4dbd e5ec 55bd 6a55 27bd 2910 2ebd
00000020: 13e1 0f3d ddd5 0d3e fbea 4c3e 03ad 44be
00000030: 11e2 3abe 1539 b73d 4ae8 263e 602b 1e3e
00000040: 5509 213e 2181 613e 7254 83bd 9867 0b3c
00000050: 00fd c2bc e3c1 863d e10b 993d bc31 29bd
00000060: 6879 32bc 71b0 bdbd 3a8c cabd 00fc a4b8
00000070: a580 cc3d e866 533c 6802 84bc 549c cdbd
00000080: 2720 ce3d 3cc2 eb3c 05e2 c13d 9256 afbd
00000090: 327d 0cbe 618f 4dbd c13d a1bd beb0 b1bc
000000a0: 22a6 8dbd ced8 8c3c 3641 7dbd 9487 27be
000000b0: 8648 88bc 3e42 0e3d 663f ca3d 98ec d13d
000000c0: 3064 0d3c c786 de3c ada1 aebd 7a56 973d
000000d0: 914d 3ebd 4ad9 af3b cf19 02bd e070 213d
000000e0: 9054 dcbd e4d6 813c 5c42 1fbe d7dd 893d
000000f0: 9a7c 48be ef5a fbbd e6ed 90bd f640 f4bd
00000100: 1e4d 24bb 803c 1dbc e6fb 6c3d 1fc7 dc3a
00000110: 627f 283c 2213 1bbd 069b 153d 5267 9bbd
00000120: d05d 603d c366 00bd b171 4dbd 597e 373d
00000130: d958 e1bd 82bd f03c 13ab 0dbe ee4f a5bc
00000140: ccfe c8bd 56b9 a33c f1db 3fbd a80c 0ebe
00000150: 53d7 cdbd 72e4 c7bd 8ee6 1f3e e5c7 3b3e
00000160: 2427 45be dcbe 053e e242 eebd 671a c63d
00000170: 20b6 29bc 5964 8c3d 8611 71bd 1806 94bc
00000180: f6f8 04bd 35e3 da3d 8eb0 18bd 5853 12bc
00000190: 4fba e23d 318b 913d bf6f e13d 9722 ad3d
000001a0: 9cbf e93c e0aa 02bc f5e0 cc3d 0a29 653d
000001b0: 39d0 27be fa0b 77bd c0c4 61bd 7429 bb3d
000001c0: a6cf 7abd d274 b2bd 6f7f 2cbd 58d3 cbbc
000001d0: d691 14bd 1a64 873d 04be 2abe 9484 cdbd
000001e0: 4fe1 88bd 0561 9b3d af19 97bd 01be f4bd
000001f0: 57d5 21be fc8a b63d 681a ddbd 0b72 efbd
00000200: 66a3 95bd fc7d f5bc 190c 1bbe f3ee 893d
00000210: 5be1 cfba 73fa 0abd f8ed 8f3d f87f 283c
00000220: a60d a9bd da88 873d ae5d 5e3d b1ef efbd
00000230: ae4b 303c 631e 93bb a870 c1bd 7b2b e43c
00000240: 40e9 853d baff fd3b c13a 913c 9f83 edbc
00000250: 4505 8a3d f434 8abd ecaf a8bc 38e0 2a3d
00000260: 8cb3 85bd 67f3 003e 19bc 2b3e 2455 52be
00000270: 5cdd eb3d 7ab6 d5bd ab75 2f3e 50f2 2cbe
00000280: 1d7c 333e b95f 1c3e 16d8 203d 28b3 99bd
00000290: 3e6f 94bd a2c2 3cbd 9c74 dcbc 9d24 bebd
000002a0: d4d0 cfbc 1b10 a13d 18b0 3bbc 40e9 e8ba
000002b0: def2 4c3d 81c8 c7bd 3833 283c d235 bebd
000002c0: c422 9a3c 2de7 e0bd 6612 adbd f8cc 063c
000002d0: bfbc 3cbe 582e 6b3d a141 5dbd 1620 1dbe
000002e0: 1c15 c73a 6945 e0bd 283b 5cbe 1390 bbbd
000002f0: 5821 28be c69e a5bd 630f 8ebd d9c0 203c
00000300: ddad 4dbe 3bb4 073d 0f01 8abc 9109 3bbd
00000310: 33aa 5f3d c105 c0bd 1492 853a b0c7 37bd
00000320: cc7e 51bd 6935 dfbd 85de 87bd b01b 8e3d
00000330: 8f99 28be 5bb3 78bc 39b2 1abd 2898 2bbc
00000340: eba6 bdbd 0ea2 38bd ffe4 2fbd 10f7 6ebd
00000350: 4b8c 23be fb15 b6bc 6012 9fbd 2c54 8fbd
00000360: 67f0 f73c 3267 9f3c df84 74bd e463 a53d
00000370: f8c8 87bd ae46 953d bfbf 8fbd 95e1 e83d
00000380: 5537 853c ca3b f6bc dd13 543c a531 33bd
00000390: 12f3 3bbd e905 5cbd 419d bdbd d9ef a13d
000003a0: fae1 bcbc 34b4 fdbb 070a 6bbd 5697 3a3d
000003b0: 0042 a83b 357c b43d a3d7 eb3d ba1d a7bd
000003c0: 722b d2bd e63b 7c3d 9ed0 36bd fc90 d03c
000003d0: a82b 76bd e112 d43d cd72 8a3d 30b2 b6bc
000003e0: 4456 5dbd bd18 d93d 3a14 42bd d120 883d
000003f0: 6a33 1bbd 51b9 183e 7b87 78bd 1a3c 243d
-0.1216821 0.034550186 -0.07571895 -0.07962844 -0.050220564 -0.052227873 -0.04085294 -0.04249588
0.035126757 0.13851114 0.20011513 -0.19206624 -0.182503 0.089464344 0.16299549 0.15446234
0.15726216 0.22021915 -0.06412591 0.008508585 -0.02380228 0.0657995 0.07472969 -0.041307196
-0.010893203 -0.09262169 -0.09890027 -7.867068e-05 0.099854745 0.012902953 -0.016114429 -0.10039583
0.10064726 0.028779142 0.09466938 -0.08561434 -0.13719633 -0.050185565 -0.07873107 -0.021690723
-0.06916453 0.017193224 -0.061829768 -0.16360313 -0.016636144 0.034731142 0.098753735 0.10250205
0.008629844 0.027163876 -0.08526931 0.07389541 -0.04646069 0.005366479 -0.031762894 0.039414287
-0.107583165 0.015849538 -0.15552658 0.06731766 -0.19578782 -0.122732036 -0.070766255 -0.11926453
-0.002507038 -0.009596944 0.057857417 0.0016844011 0.010284277 -0.037860043 0.036524795 -0.07588066
0.054776967 -0.031348 -0.050157253 0.04479823 -0.110032745 0.02938724 -0.13834791 -0.020179715
-0.09814224 0.019985836 -0.04684061 -0.13872015 -0.100508355 -0.09760369 0.15615293 0.18337972
-0.19253212 0.13061088 -0.11633851 0.096730046 -0.010358363 0.06855077 -0.058854602 -0.018069312
-0.03246399 0.106878676 -0.03727775 -0.0089310035 0.11070692 0.07106627 0.11007642 0.08453863
0.02853375 -0.00797531 0.10003845 0.05594734 -0.16388024 -0.060314156 -0.055119276 0.09138766
-0.061233185 -0.08713688 -0.042113718 -0.02488105 -0.036271892 0.0661089 -0.16674048 -0.10035053
-0.06683599 0.075868644 -0.07377946 -0.11950303 -0.15804039 0.08913228 -0.10796052 -0.11691674
-0.073065564 -0.0299673 -0.15141334 0.06735029 -0.0015860008 -0.033930253 0.07027811 0.010284416
-0.08254556 0.06617899 0.05428856 -0.117156394 0.010760231 -0.0044897064 -0.094453156 0.027852764
0.065386295 0.0077514322 0.017728211 -0.028993426 0.06739286 -0.06748381 -0.020591699 0.041717738
-0.065283865 0.1259285 0.16770972 -0.20540291 0.1151683 -0.10435195 0.1713473 -0.1688931
0.17527814 0.1527089 0.039268576 -0.075048745 -0.0724778 -0.046084054 -0.026911072 -0.09284327
-0.025368132 0.078644 -0.011455558 -0.0017769709 0.050036304 -0.0975504 0.010266118 -0.09287609
0.018815406 -0.10981593 -0.08450775 0.008227579 -0.18431376 0.057417244 -0.054017667 -0.15344271
0.0015188786 -0.10950739 -0.21506941 -0.09158339 -0.1641897 -0.08086924 -0.069365285 0.009811603
-0.20085855 0.033130866 -0.016846208 -0.04566342 0.054605674 -0.093760975 0.0010190629 -0.04486817
-0.051146314 -0.10898859 -0.06634239 0.06938875 -0.16464828 -0.01517948 -0.037767623 -0.010473289
-0.09260353 -0.045076422 -0.042942997 -0.058341086 -0.15971486 -0.022227278 -0.07767177 -0.069984764
0.030266 0.019458387 -0.05969703 0.08075693 -0.066301286 0.07288872 -0.070189945 0.11371151
0.016261736 -0.030057807 0.012944189 -0.043748517 -0.045886107 -0.053716574 -0.092585094 0.079070754
-0.023056973 -0.007742429 -0.05738261 0.04555448 0.005134821 0.08812753 0.11515739 -0.08159967
-0.10262193 0.06158056 -0.044632547 0.025459759 -0.060100228 0.10355163 0.06760178 -0.022301763
-0.054037347 0.106004216 -0.04738257 0.06646884 -0.03789083 0.14914443 -0.06067608 0.04009638

c1.bias f4 [32]
00000000: 6bdc 473d a685 c2bc 7830 a9bd 07e8 013e
00000010: 19c9 35bd 23df 463d fbb4 a83c 3eb6 08be
00000020: 919c d9bd 382a 0fbd 1317 0d3d 1532 a2bd
00000030: 7efa a8bd 3d97 5b3d c371 8dbb cb9d 01be
00000040: 5142 2ebd 37ec cabb 0bc0 edbd 9a3d afbd
00000050: cfa9 75bd bced 11be 24d0 0a3d 2cc0 8f3d
00000060: 330c 04be 706f f6bd e900 10bd ea62 9c3d
00000070: 4572 ccbd b5f7 583d da76 9fbd f913 e23d
0.04879419 -0.02374537 -0.08261198 0.12686168 -0.044381235 0.048552644 0.02059411 -0.1335077
-0.10625566 -0.034952372 0.034445833 -0.07919709 -0.082509026 0.05361103 -0.00431654 -0.1265785
-0.042543713 -0.00619271 -0.11608895 -0.085566714 -0.059976395 -0.14250845 0.033889905 0.07019076
-0.12895279 -0.12032974 -0.035157118 0.07636054 -0.09982733 0.052970607 -0.07786341 0.11038966

c2.weight f4 [64, 32, 3, 3]
00000000: bc70 5f3c a39c 303c bc18 a33c e6c3 363d
00000010: daea 123c 00b5 853d 71a7 993d 52eb 2bbd
00000020: 2678 3a3c f8aa d339 9d24 273d a609 a83d
00000030: 5e4c ca3d 92f2 6b3c c255 da3d 9910 a03d
00000040: 499f 3cba 751a b33d a40a e53d 9387 6d3d
00000050: 8f36 183d f10a de3d b52a 453d 128c a63d
00000060: c8a5 2d3d daf1 9b3d 786b 933d 9536 0cbd
00000070: 0f0f 71bc 8994 03bd b6b2 a3bc e6ce 46bd
00000080: fe46 86bd 70ad d13c 9313 33bc 182b 9fbd
00000090: d9d4 e9bd 158f 9dbd a6e0 8ebd d816 26bc
000000a0: 1bd4 96bd 61bf cfbd 873e c7bd cb3c 2cbe
000000b0: e436 f2bc d0c9 363c bca7 f0bc 8bfd 91bd
000000c0: c64f 7c3c 4b51 173c ed27 51bd e4d9 b9bd
000000d0: 7558 84bc 9486 e3bc 379a cc3c 20bc a6bc
000000e0: 6377 983d 510f 11bd 08fb f0bc 4f13 ab3d
000000f0: 21b4 3f3d af60 2cbb 709e acbc 682d f53c
00000100: ce04 ae3d 526e 283d 72f2 d93d e45a 393d
00000110: 9232 a93d 4606 913d a1b9 ee3d 869b b23c
00000120: 28d3 203e 525c 6f3d fedb 1d3e 8296 053e
00000130: d32a 143e 849f f03d b87c 1c3e e61e ad3d
00000140: 5746 e83d cc7d 993d ae47 4d3a e986 9d3d
00000150: ce68 3f3d dc8e 933d d0ae 933d 6365 be3d
00000160: 2180 c63c 020d fc3b 36cc a23d 4e15 af3b
00000170: 586d 4d3d c0bd ae3d 2aff 9e3a 4673 f83b
00000180: 327b b23d 37c0 1dbc bf5b 663d a078 57bd
00000190: 8d48 adbd 467a 5f3c a20b 4bbc 76b0 34bc
000001a0: a619 0bbd 0166 a73c bbd3 863c bcac 7d3c
000001b0: 4ab0 ab3c 9eb6 c93c 8e8d 273c f2b7 903d
000001c0: 6eb3 f73c 8f8f ec3c 90d6 28bc bf16 9f3d
000001d0: dd42 84bb c9af 203c 259a 2c3d 62ab 313d
000001e0: 554d 483d 25d0 efbc 5a81 593d f9c5 57bc
000001f0: 670c b53d dfa6 5e3d 35cf 4d3d b16a 303c
00000200: f5ff 7f3d 552c 153d b37b b53d 7dbd fd3c
00000210: f5d3 81bc cd85 9d3c 41a9 8a3d 1189 bf3d
00000220: 7e7f 583c 740a bf3d 4ec9 b4bc 51a2 4a3d
00000230: e112 a43d 2feb 18bc 5d67 4c3d e88a 0e3d
00000240: 47d7 a23d 7b52 27bc 202f 7f3d e118 9cbc
00000250: e42a ab3c 8d9b 3cbc 4bb5 a93d bab9 183d
00000260: 19ba 6d3c a6a7 9a3c 54fc d8bc dcce 4c3b
00000270: 1006 113c e75c d23c e589 633d cb89 0b3d
00000280: e5d6 7fbb 5a00 a23c bccd 973d aa55 d23b
00000290: 4e14 3a3d 75bb b53d 45d3 ae3d 26ba c83d
000002a0: f25b 17bd 36ea 2a3d dda9 b23d b090 903d
000002b0: e250 f73b 94dd 6e3d 501a d73d 0abd c33d
000002c0: ea48 6c3d d0c5 56bc cbc8 1a3d dbad f639
000002d0: 099e 5f3d 02c3 673d 4da8 bc3d af6c ce3d
000002e0: f29e 173e e67f 263e 1ed2 a03d 6f05 dc3d
000002f0: d692 113e 62e3 ab3d 2cff 8a3c 56ba f23d
00000300: c85e 603c bce9 ed3d ebeb 053e 76cc 723d
00000310: 3609 093e 197f 823d 1bc5 383d a1a5 91bc
00000320: 9ebf 6e3b 8903 4dbc ac06 8b3d d335 1abd
00000330: cfe5 513d 1a1e 233d da6e 1a3c 1e86 67bc
00000340: 3e24 ec3c 46d6 173c be72 1ebd 3eee 883c
00000350: e162 babc 7750 f0bc 6eae 053d f765 3a3d
00000360: 3e28 683d 5af7 b93d 2a4f f33d c0cd 933d
00000370: a377 ba3d 1bfd cf3d 681e bb3c d064 c13d
00000380: fcee 653d d2c4 963d 38f3 173c 053e e6bb
00000390: 4a25 563d f6da 273d 14fb 83bb fa45 1d3d
000003a0: 50c5 acba 7a45 1cbc c2b0 393d a37b 5d3d
000003b0: 3254 0b3d 6958 2ebc af32 5f3d 0996 4c3b
000003c0: 325d 253d c261 84ba ad9c b2bb 48b4 dcbc
000003d0: 2b8a 273d 8e15 a23a 1eb8 08bd 43d7 88bd
000003e0: 3592 c13c eb29 433d c3c1 503c 6194 60bd
000003f0: 5d41 0bbc 5cbf d6bc 146e 0bbc caf2 b53c
0.013637718 0.010779533 0.019909255 0.044620417 0.008967126 0.06528664 0.0750264 -0.041972466
0.011381185 0.00040372438 0.0408064 0.08204965 0.09877847 0.014401095 0.10660888 0.07815666
-0.0007195366 0.08745281 0.1118367 0.05799062 0.037161406 0.10841931 0.04813643 0.08132185
0.04239443 0.07614489 0.071982324 -0.03423174 -0.014713063 -0.032124076 -0.019982677 -0.048537157
-0.065565094 0.025595397 -0.01092996 -0.07771891 -0.114175506 -0.07693306 -0.06976442 -0.010137282
-0.07364675 -0.101439245 -0.09728723 -0.16820066 -0.02956719 0.011156514 -0.029376857 -0.071284376
0.015399879 0.00923569 -0.051063467 -0.090747625 -0.01615546 -0.027774133 0.02497588 -0.020353377
0.07444646 -0.035414997 -0.029416576 0.08353292 0.046802644 -0.0026302745 -0.021071643 0.029928878
0.0849701 0.041120835 0.10641946 0.045252696 0.08261599 0.07081275 0.116565 0.021802675
0.1570555 0.058437653 0.15415952 0.13045695 0.14469461 0.11749175 0.15281951 0.08453159
0.11341541 0.07494697 0.00078308105 0.07691748 0.04673081 0.07204983 0.07211077 0.09296682
0.024231018 0.0076919803 0.079491064 0.005343116 0.050153106 0.08532286 0.0012130488 0.007582101
0.08714904 -0.009628347 0.05623984 -0.05260527 -0.084611036 0.013639992 -0.01239291 -0.0110284
-0.033960007 0.020434381 0.016458383 0.015483078 0.020958085 0.024623211 0.01022662 0.07066335
0.030236926 0.028877048 -0.010305062 0.0776801 -0.004036291 0.009807535 0.04213919 0.043376334
0.048901875 -0.029274056 0.053101875 -0.013169759 0.08840256 0.05435836 0.050246436 0.010767625
0.06249996 0.03641923 0.088614844 0.030974144 -0.01584814 0.01922884 0.06770564 0.09352315
0.01321399 0.09328166 -0.022068646 0.049471203 0.08011413 -0.009333416 0.049903262 0.03480044
0.07951217 -0.010212536 0.0623008 -0.019054832 0.020894475 -0.011511696 0.08286532 0.037286498
0.014509701 0.01887877 -0.026487507 0.0031251227 0.008851543 0.025679065 0.05555143 0.034066956
-0.0039038 0.019775558 0.074122876 0.0064189034 0.04542952 0.08873645 0.0853639 0.0980113
-0.03695292 0.041727267 0.08723805 0.07058847 0.007547484 0.058316782 0.105030656 0.09557541
0.057686724 -0.013108686 0.037789147 0.0004705031 0.054594073 0.05658246 0.09211788 0.100793235
0.14806727 0.16259727 0.07852577 0.10743224 0.1421617 0.08392979 0.016967379 0.11851947
0.013694473 0.11616847 0.13078277 0.05927702 0.1338242 0.06371898 0.04510985 -0.017779173
0.003643013 -0.01251305 0.06788382 -0.037648987 0.051244553 0.03982363 0.009425843 -0.014131097
0.028825875 0.009267395 -0.038683645 0.016715165 -0.022752227 -0.029335244 0.032637052 0.045507398
0.056679003 0.09080382 0.11880334 0.07216978 0.0910485 0.10155698 0.022841647 0.094430566
0.056136116 0.07361759 0.009274296 -0.0070264363 0.052281655 0.0409803 -0.0040277336 0.038396813
-0.0013181362 -0.009538049 0.045334585 0.054072987 0.03401584 -0.010641196 0.054491695 0.0031217358
0.04037208 -0.0010099935 -0.005450806 -0.026941434 0.04090325 0.0012366043 -0.033378713 -0.06681683
0.023629287 0.047647398 0.012741509 -0.054829005 -0.008499471 -0.026214294 -0.008510131 0.022210497

c2.bias f4 [64]
00000000: 8ec3 b3bd baae 90bb 41e4 a5bd e0c9 473c
00000010: 6e8a b8bd 945d 80bb 84cb f8bb 3a72 233b
00000020: 794b cabc 4f35 cf3c 94f2 95bd 93f4 a5bd
00000030: f833 36bb 11a8 99bd 44e7 0cbd 7e70 dabd
00000040: e402 163d 66cc 2f3c 8844 2c3d 4171 76bd
00000050: dd93 a2bc 8a19 c83c 1b79 b2bd 13c6 103d
00000060: 8d79 093c 9d67 acbd dcfc bbbd 8570 81bd
00000070: b3a2 7f3d b161 59bd 6ec9 f4bc 6db5 02bd
00000080: 49e6 66bd cf2c e23c 5abb dc3c ca96 38bd
00000090: 354a f3bc 9bf2 9abd ff45 183d 0609 b0bd
000000a0: 3bb8 f4bc 885d afbd ea6c 56bd 4217 6cbd
000000b0: 1d63 4bbd 2658 433b 9498 65ba 30c4 bfbd
000000c0: ab40 26bd 136e 9dbd d8b0 96bc eb14 f63c
000000d0: 6347 733b c6a0 65bc 1756 d3bd c9d7 56bb
000000e0: 5e05 30bd b67a 1a3d dc37 4abd 8709 783b
000000f0: adf6 d33c 935c 3dbd 3b70 9dbd df29 e3bc
-0.087775335 -0.0044153603 -0.081001766 0.012194127 -0.09010778 -0.0039174054 -0.0075926203 0.002493991
-0.024694191 0.025293974 -0.07321659 -0.081032895 -0.0027801972 -0.07502759 -0.03440024 -0.106659874
0.03662385 0.010729885 0.042057544 -0.0601666 -0.019845897 0.02442624 -0.08714505 0.03534515
0.008390796 -0.084182 -0.091790885 -0.063202895 0.06241102 -0.05307168 -0.029881205 -0.031911302
-0.05637196 0.027609257 0.026944805 -0.04506568 -0.02969847 -0.075658046 0.03717613 -0.08595471
-0.029873004 -0.085627615 -0.052349962 -0.057639368 -0.04965507 0.002980718 -0.00087583927 -0.09363592
-0.040589016 -0.076870106 -0.018394873 0.030039271 0.0037121407 -0.014015382 -0.10319155 -0.0032782427
-0.04297387 0.037714683 -0.049369678 0.0037847476 0.02587446 -0.046230864 -0.07687422 -0.027729927

c3.weight f4 [256, 64, 3, 3]
00000000: ea13 0a3d 5f6e ba3c ac83 5c3d e868 573d
00000010: 89fa 9d3d b276 e83c 433b ae3d 9aa5 123d
00000020: 52ff ff3c ea10 113d d126 923c d1ac 533c
00000030: 0615 153d 99de 8b3d fb3d e13c 2e68 413d
00000040: 11d4 283d 4977 2c3d 91c1 7a3d f7f3 823d
00000050: a37c df3c c48e a73d 41db b93c 77b2 743d
00000060: cabf 193d d893 353c 503d a23d b003 363d
00000070: 9215 f43c dfe7 6c3c 8c4c 993d 8dcb b33d
00000080: 4fea 0b3d df8f 4e3c ce7d 863c 28bf 593d
00000090: 0c95 053d 6806 9f3c 709d ad3d 2f9f 643d
000000a0: 9649 163d d052 783d 4be5 3c3d c3e3 823d
000000b0: 7e9f c43d d704 473c f60a 6b3d 79d1 4f3d
000000c0: efdd 923d b333 973d c97e 5a3d f4f9 3a3d
000000d0: b339 303d 381f 2e3c 2789 e33c ec09 24bc
000000e0: cd65 b5bc b638 9bbb f185 b83c 7bea 04bd
000000f0: 6f0e 303d 7943 22bc c902 deb8 c337 0bbd
00000100: e5a3 db3b 2de8 493c 2d22 033d f629 1bbd
00000110: 3c51 a63b 2d1d b1bc 2eb9 d53c 22bb 88bb
00000120: a8e7 90bc 0e14 7a3c cd1a 323d 0dc5 e13c
00000130: 1e83 543d db1c 483d 2397 ff3c ceba 7bbc
00000140: fe96 5ebc b25a 013a 5fcd 153d 50f6 0bba
00000150: 725f cdbc 36a9 8e3c 78f9 113d a3f8 e53c
00000160: 91ca 043d 1a7f 9abc e1e6 9a3d dc71 743d
00000170: be4a 4e3d 1ff6 233d a27e c53c c63d 593d
00000180: 516b b13d 0453 b23c b895 8b3d 7f9c 3b3d
00000190: 7551 e23c 9585 ad3d e475 ac3d 2c1c f03c
000001a0: c837 5f3d 8439 843d 1e96 163d d85c bc3d
000001b0: 18e0 3a3d 433d bb3d a8e7 b23d ef5e 383d
000001c0: d624 8e3d 0b76 af3d 2ed6 1f3d 44d1 bb3d
000001d0: 9893 8b3c 33ca 073d ab6f 153d 05b9 7d3d
000001e0: e960 6d3d 5dca 493d 526e a63d 47ee 973d
000001f0: 4f9e 723d c208 4d3d 9736 3a3d f75f ce3b
00000200: 414d 653d 527a 91bb 8e5f 5f3d 0501 9b3d
00000210: fa26 853d 12e8 f3bb f72e 483d 7bae 043d
00000220: f4a1 a33d 2f7d e53c 31d3 b03d c6da 8b3c
00000230: e54e a23d f1b5 af3c ead7 b93c cb7d 883d
00000240: 79fc b1bb 977e 06bd aeab 9dbc f4be 83bc
00000250: e857 0f3d 102a d03c 2b1e 00bd ea4a 40bc
00000260: f21b b5bc 7da0 2b3d fe76 413d 765b 1e3c
00000270: 0f83 fd3a a5b7 613d d282 223d cc3a 093d
00000280: 9bb0 053d a86f 943d 3aec 6cbd 17d9 f43b
00000290: e705 bb3c 0dd1 11bc f0ac 103c 0bf3 87bb
000002a0: 59f7 6bbd 7365 083c d77d 05bd 253f 383d
000002b0: d208 9c3d c10e 873d e497 a93d 8990 283d
000002c0: f73b 603d 62aa b83d c51f 753c b102 9d3d
000002d0: 1a88 a83c e7a0 113d 2693 933d 8cf7 8e3d
000002e0: 6888 5d3d 97cf 403d 1822 193d 0d66 953d
000002f0: 6ea4 313d 3fab 08bd 4823 41bd 008c 87bd
00000300: b992 bebb b909 22bd 9863 cb3b 2775 94bd
00000310: 9d16 77bc adda 31bd a803 8f3d efd6 d83c
00000320: 00d9 4c3d 9c2a a13d 8c1a 3e3c ee5f ae3d
00000330: 4f67 823d 2deb 773d d020 743d 474f e1bc
00000340: 3dbd 3ebd a884 cc3c 1cea dfbc 824f c53c
00000350: 740f 3cbd 4184 0c3c 4cd7 5cbd 0275 13bd
00000360: e6c0 0a3d e211 aa3c 1314 813d 7fd5 133d
00000370: a83d b73d 7a10 1e3d b573 8d3d 110f c73c
00000380: 8178 893d c41f 183d fb35 823d 1ede 713d
00000390: bb40 9c3d b7e1 913c 146e a03d cea6 7d3d
000003a0: ff27 8f3d 61bf 8d3d 545a bd3c f6a1 243d
000003b0: f94e b23d 6cca 2e3d 65a5 a13d 3cb5 ac3d
000003c0: 0292 933d 392b 643c b12d 993d 6c59 4a3d
000003d0: c433 543d 5836 473d fe99 aa3d 5c63 5e3d
000003e0: f9d7 b83d a0af 7b3d 3232 783d b6f6 ad3c
000003f0: 5789 00bd 6a8e a7bd ab0e 72bd cf00 52bd
0.033710398 0.022757707 0.05383651 0.05259028 0.077138014 0.02837691 0.08507397 0.03580246
0.031249676 0.03541652 0.017840775 0.012919621 0.036397003 0.068295665 0.027495375 0.047218494
0.041217867 0.042105947 0.061219756 0.06394189 0.027281111 0.08181527 0.022687556 0.05974051
0.03753642 0.011082612 0.07921851 0.04443711 0.029795442 0.014459579 0.07485303 0.087790586
0.034159 0.012607544 0.01641741 0.053160816 0.032612845 0.019412234 0.084772944 0.05581587
0.03669127 0.06062585 0.04611711 0.06391098 0.09600733 0.01214715 0.0573835 0.050736878
0.07171237 0.07382908 0.053343568 0.04564853 0.043023776 0.01062756 0.02777536 -0.010012131
-0.022143269 -0.004736985 0.022524806 -0.03245018 0.042982515 -0.009903782 -0.00010586304 -0.033988725
0.0067028874 0.012323421 0.032015014 -0.037881814 0.005075602 -0.021620357 0.026089277 -0.0041726986
-0.017688587 0.0152635705 0.04348259 0.027559781 0.051882856 0.048855644 0.031199997 -0.015364362
-0.013585804 0.0004934474 0.03657281 -0.00053391326 -0.025069926 0.01741467 0.035638303 0.02807266
0.032419745 -0.018859435 0.07563568 0.059678897 0.05036425 0.04002964 0.024108235 0.053037427
0.08663047 0.0217681 0.06815666 0.045803543 0.027626732 0.084727444 0.08420923 0.029310308
0.054496557 0.06456283 0.036764257 0.09197396 0.04562387 0.09142544 0.08735591 0.04501241
0.0694062 0.08567437 0.039022617 0.091707736 0.017038152 0.033151817 0.036483448 0.061944026
0.05795375 0.049265254 0.08126511 0.07418495 0.059233006 0.05005718 0.045462217 0.006298061
0.05598188 -0.0044396305 0.054534487 0.07568554 0.06501575 -0.0074434364 0.048872914 0.03239296
0.079898745 0.028013794 0.086340316 0.017072093 0.07925204 0.021449061 0.022685964 0.06664618
-0.0054317084 -0.03283557 -0.019246902 -0.016082264 0.034995943 0.025410682 -0.03127877 -0.011736611
-0.022108052 0.0419011 0.04723262 0.009665361 0.0019341427 0.055106778 0.03967554 0.03350334
0.032639127 0.07247859 -0.05784247 0.007472168 0.022829963 -0.008899939 0.008830294 -0.004148846
-0.057608936 0.008324969 -0.032590713 0.044982094 0.0761887 0.06594611 0.08280924 0.041153464
0.054744687 0.09016873 0.014961188 0.07666529 0.02057271 0.03555384 0.07205801 0.069808096
0.054085165 0.047072973 0.03738603 0.07294855 0.043369703 -0.033366438 -0.047152787 -0.066185
-0.0058158305 -0.039560053 0.006206941 -0.072489075 -0.015081075 -0.043421436 0.06983119 0.026469676
0.050011635 0.07869455 0.011603009 0.08514391 0.06367361 0.060527015 0.059601605 -0.027503623
-0.04656719 0.0249656 -0.027333312 0.024085764 -0.045913175 0.008576454 -0.05391626 -0.03600026
0.03387537 0.02076048 0.06302657 0.036092278 0.08947307 0.038589932 0.06906835 0.024299176
0.067124374 0.03713967 0.06357952 0.059049718 0.07629534 0.017807825 0.07833496 0.061926655
0.069900505 0.06921268 0.02311436 0.04019352 0.08706469 0.042673513 0.07892875 0.08433005
0.07205583 0.013926321 0.07479418 0.049401686 0.05180718 0.04863581 0.08330153 0.054293975
0.090255685 0.061446786 0.060594745 0.021235805 -0.031380977 -0.0818146 -0.05909602 -0.051270302

c3.bias f4 [256]
00000000: 07db 84bd 821e 90bd b43a a7bc d6ca 08bd
00000010: f43e 08bd 7995 63bd f6eb 2a3d 0b1e 77bc
00000020: 6b1e c9bd a157 6d3d 65e8 65bd ca63 25bd
00000030: 0ad8 ec3c 09be 7fbd 9692 4e3d 996d 99bc
00000040: 49a3 bbbd 49c4 d73c fd62 06bd 12ce 203d
00000050: 9706 5bbd d380 263b f0a7 c4bb 60ec e5bb
00000060: 00bc d7bb d69b 043d b0a8 af3c 1549 58bb
00000070: 4c2f 003d 787b 6e3d 5301 573d aded f43b
00000080: b39a a53c 7738 81bb 7837 4abd e53d 993b
00000090: 6b4f ffbc 398e 4b3d 8375 3a3d 30a5 13bd
000000a0: 8466 1bbd 0ea8 a93d 8126 26bd 96ad 68bc
000000b0: 0d34 0e3a 1a75 a33c 7d60 a23d 2849 e9bc
000000c0: 8aac aabc fe20 26bc 8ccd 24bd c5a5 6a3a
000000d0: 79ca 2a3d 135e 68bc c129 003d 4220 3a3a
000000e0: af99 dc3c 6ef6 eabc e439 11bc ab28 42bc
000000f0: 1ff3 f9bb 98d8 07bb 8ed8 5ebc ac02 61bd
00000100: 4edb 2dbd 3e8b 1dbd 5684 11bd 4837 d63b
00000110: 2a9c 6d3d 04f8 bdbc 0b92 3bbd 1b0d b73c
00000120: 559e 7c3d 6039 42bd d2e6 e3bc 2401 fcbc
00000130: 44a7 4c3d 15ec 8ebd 260e 103d 756c cbbc
00000140: 3aa2 3fbd 8312 d53c 188d 09bc 553a cc3c
00000150: 8385 1fbc de33 63bd 206a 9bba 8c1f 6e3d
00000160: 221a b03c 7f5a 25bd 6450 2c3d 4931 3dbd
00000170: d2b3 96bd 240c 0cbd ab07 5cbd 3ca7 64bd
00000180: d5ad 7a3c 99f9 da3c 0596 133d 6219 1a3d
00000190: 7059 19bd 67b2 f63c bca7 a3bd 995f 15bd
000001a0: ca21 20bd 4755 e6bc 6850 823d 0b05 1a3d
000001b0: 4be2 a0bd c449 dbbc a06e f3bb 49e5 fc3c
000001c0: 975e 723c a928 a23d f3dd ccbc 23c8 19bd
000001d0: 503b b5bc 208b 633d 4692 89bd 4233 693d
000001e0: 3cd2 2c3d 0b54 263c d4ea 35bd df5d 7dbd
000001f0: 66e1 f03c 9ed2 4b3d 64ac 5c3d b8e8 a1bc
00000200: e2fa 583d 524a 97bd 1a12 633d 0060 b7bc
00000210: 1c39 5d3d 8c19 97bc 55b2 bebd 0ae6 1dbd
00000220: 9487 44bd 0540 263c 9935 67bc 1395 5cbd
00000230: 6e0c 61bd f03c 28bd a644 1abd 0dc0 083c
00000240: 3192 17bc 361c 2fbd a8f5 013d 56e4 9d3c
00000250: f8f5 d0bd 55e6 7b3c 258a 1d3d 3e63 103d
00000260: 39d7 893c 2b22 b03c 9424 0cbd ae7f 1a3d
00000270: 63b4 d23c 089a 833d e8a7 e739 21de 5e3c
00000280: b83d 04bd b051 1cbd 3a16 8cbc cde0 153d
00000290: 1779 ae3b 6801 593d 2e7e 6ebd 4667 5b3a
000002a0: d4cf fd3c 6e80 713c 20ca 26bd dc31 50bd
000002b0: 1f36 98bd 4ff2 333d 4a6d 8e3d d8a6 d43d
000002c0: 9854 8bbd b86b 74bd 2ef5 98bc 43a1 1dbd
000002d0: 0acf 363c 250b f13b 0ad0 48bd f257 e7bb
000002e0: d2a5 80bd a55e 823d 847d 29bc c1ae 5dbd
000002f0: f0e1 833c 3a3a 3d3d 74f4 a2bd 7edd 67bd
00000300: ee5f 37bd 7e9c a7bd dade 6b3d 421e 1abd
00000310: 019d 403d c629 8ebd a22d 763d f36f 97bd
00000320: 821f 383d 2d2f c83c 3356 8e3d f159 dc3c
00000330: f816 003d c2fe df3a 75d6 493d 82cb 4cbd
00000340: 0707 0ebd 0e43 f33c 91f2 c2bc 0dec 163d
00000350: 84c5 1bbd a103 c1bc 4fe1 85bc 4c1a 85bd
00000360: 1f4c 803d 18a5 13bd 139d 09bd 29b3 043c
00000370: ce23 2fbd 6960 2c3d 6fe2 013d 701a 3ebd
00000380: 8ce3 963c 6340 3abc e0cd 43bd 21ae 8e3c
00000390: 76ff 8bbd e302 533d df13 6b3d 1a43 62bd
000003a0: 52d4 2cbc 2e58 9ebd d43e 08bd b342 81bd
000003b0: 42f3 5bbd 0f40 8f3d ad29 4e3c 2f67 93bb
000003c0: 68ac 25bd c047 87bd 1338 cdbc 0174 223d
000003d0: 1d62 8f3c a745 afbd 9260 dc3c 871e 003d
000003e0: c9da 89bc 3624 7d3d 16af b73c 0be7 0e3d
000003f0: 91e0 90bc b6ac 32bd 4e79 09bd dd0a 40bd
-0.06487089 -0.07037069 -0.020413734 -0.033396564 -0.03326316 -0.05556247 0.041728936 -0.015082846
-0.09820255 0.057944898 -0.05612983 -0.04037837 0.02891161 -0.06243709 0.050432764 -0.018729018
-0.091620035 0.026338713 -0.032809246 0.039259024 -0.05347308 0.0025406375 -0.006001465 -0.0070167035
-0.0065836906 0.03237518 0.021442741 -0.0033002545 0.031295106 0.058223218 0.052491497 0.007474622
0.020215368 -0.0039434987 -0.049369305 0.004676568 -0.0311658 0.04969618 0.045522224 -0.036046207
-0.037939563 0.08284007 -0.040564064 -0.014201542 0.0005424626 0.0199533 0.0792856 -0.028477266
-0.020834226 -0.010139702 -0.040235087 0.0008951093 0.041697 -0.014182585 0.03128982 0.00071001437
0.02692875 -0.02868196 -0.0088639 -0.011850516 -0.0076278592 -0.0020728465 -0.013601435 -0.05493419
-0.042445473 -0.03846287 -0.035526596 0.0065373518 0.058010258 -0.023189552 -0.045793574 0.022345116
0.061674435 -0.047418 -0.027820025 -0.030762263 0.049964204 -0.06978623 0.035169743 -0.02483199
-0.04678557 0.026009804 -0.008395456 0.024930159 -0.0097364215 -0.055469386 -0.0011857189 0.058135554
0.021496836 -0.040369507 0.042068854 -0.04618958 -0.07358517 -0.034191266 -0.05371825 -0.05582355
0.015300234 0.026730346 0.03603174 0.037621863 -0.03743881 0.030114366 -0.07990977 -0.036468122
-0.039094724 -0.028116835 0.063629925 0.037602466 -0.07855662 -0.026768573 -0.007428959 0.03087105
0.01479306 0.079179116 -0.025008177 -0.03754438 -0.022123009 0.0555526 -0.067173526 0.05693365
0.042192683 0.010151873 -0.044413403 -0.0618571 0.029404353 0.049761407 0.053875342 -0.01976429
0.052973635 -0.07387222 0.055437185 -0.022384644 0.054009542 -0.018444799 -0.09311358 -0.03854946
-0.04798086 0.010147099 -0.0141119 -0.053853106 -0.054943494 -0.04107374 -0.037663125 0.00834657
-0.009251163 -0.042751513 0.031728417 0.019273918 -0.10203165 0.01537474 0.038461823 0.035250895
0.016826259 0.021500668 -0.03421457 0.03771942 0.02572078 0.064258635 0.00044184853 0.013602764
-0.032285422 -0.03816384 -0.017100442 0.03659134 0.0053244936 0.052979857 -0.058225803 0.0008369576
0.03098289 0.014740093 -0.040720105 -0.0508288 -0.07432198 0.043932255 0.06954439 0.103833854
-0.06803244 -0.05967304 -0.018671598 -0.03848387 0.01115776 0.007356065 -0.049026527 -0.0070600444
-0.06281628 0.06365708 -0.010344867 -0.054121736 0.016098946 0.046198107 -0.07956782 -0.056607716
-0.04476922 -0.081841454 0.057585575 -0.037626512 0.04702473 -0.069415614 0.060102113 -0.073943995
0.044951923 0.024436558 0.06950035 0.026898356 0.031271905 0.0017089474 0.049276788 -0.049998768
-0.03467467 0.02969506 -0.023797305 0.03684621 -0.038030162 -0.0235613 -0.016342787 -0.06499156
0.06264519 -0.036046118 -0.033597063 0.008099356 -0.042758755 0.04208413 0.031710085 -0.04641193
0.01841905 -0.01136789 -0.04780376 0.017417016 -0.06835835 0.051516425 0.057391997 -0.055239774
-0.010548668 -0.07731663 -0.033263043 -0.0631155 -0.053698786 0.0699464 0.0125831785 -0.0044983844
-0.040447623 -0.06605482 -0.025051152 0.03966141 0.017502839 -0.08558207 0.026901517 0.031279113
-0.016827958 0.06180211 0.022422355 0.03488831 -0.017685207 -0.04362174 -0.03356295 -0.04688536

fc1.weight f4 [64, 256]
00000000: c920 a73c 9015 c53c 8da4 07bd 8584 b73c
00000010: abf7 1e3d c468 6fbc d793 be3b 6717 303d
00000020: 822c babc 466a 433d 3bcc 91bc dfbe 80bc
00000030: 8b5f 893c 2a39 033c 7e99 c33c b414 fc3c
00000040: 30f9 11bc 4420 773c 088e bc3c 19df 6dbd
00000050: 548e ecbc acab 31bd ea13 1b3c d693 a63c
00000060: fbc7 683d c275 77bc 4763 c43b a6ff 2cbd
00000070: f294 f1bb 6088 0d3d 78e3 913b 1ff9 f13c
00000080: 93b9 023d 1c19 4d3d c5f3 0a3d f4c4 ee3c
00000090: 948a a0bc 4c0c caba 6f31 f23c 4019 debb
000000a0: 4958 e53c e8ed fcbb 94b9 66bd 9efc 563d
000000b0: bf07 6dbd 3132 a0bc 4633 56bd 4f15 95bc
000000c0: 884f c1bc e479 dbbc 0355 cdbc 37d0 4bbd
000000d0: d643 87bd cd7c 33bd 1904 613d 3fb0 81bd
000000e0: 9af8 72bd 5e5a 0cbc 5e4a fdba d63a 4ebd
000000f0: ca45 4fbd 3bd3 d0bc cdd4 493d 544b 423d
00000100: 3efa 5ebd 8c62 1b3d 3169 413d 8a0b f2bc
00000110: 95a0 3d3d bac3 4c3d 98ad 9a3c bbbc 08bd
00000120: c5a8 7cbd 90f8 7bbd 0910 bf3c d011 eebb
00000130: a6b4 9ebd 855e 5d3d 3d7d 71bd 018f 333d
00000140: ba20 0e3d ba21 133d 3b4c 36bc 4dd3 e8bc
00000150: 29d0 60bd 166a 953c ef90 42bd c7ae 8c3c
00000160: f386 0bbd b1dc 3a3d 3fea b1bb a6f6 c93c
00000170: af9e 23bd ac91 333c a6e4 26bc dd1f 343d
00000180: 478b 75bc b356 31bc 856b 10bd 3dc3 f9bc
00000190: 600c 07bd 0a4d de3c 5911 65bb 07e9 5dbd
000001a0: 7666 27bc a08e 30bd 2621 313b 3370 30bd
000001b0: f9dd d23c 9b1f 393d 9ef8 b9bc 67f1 223d
000001c0: d25e e1bc 8345 7fba 86be 1c3c bb83 38bc
000001d0: 64c3 c1bb 9ea3 3b3d 4ed0 e83c 742d 7ebd
000001e0: d20f 1d3d caa0 3ebd b0ea 49bd 765e 243b
000001f0: cf29 7dbc 64d2 583c 3a4e 66bd bcb5 633d
00000200: 17c4 81ba acc1 533d bb39 d23c 0e9f b33b
00000210: 8295 e23c 0e86 f73c 166e c2b9 0cf3 5f3b
00000220: e0c7 463d ce28 4f3c cf61 c7bb 7457 29bd
00000230: 8eb6 e7bc 6d83 e23c 560e 333d e705 e23b
00000240: 0eab 01bd 012c 0c3d 17ca 9e3c 2823 d63c
00000250: ee07 713d 8d2a c23c e7c7 7ebd ede3 2ebd
00000260: 6b36 5bbd 6221 24bb db1d 9e3c 935d 3abd
00000270: aac4 5fbd 9206 2d3d a662 fbbc 485b 28bd
00000280: a948 68bd cb99 583d 6281 8dbd 3edd a53c
00000290: 25d3 56bd 6e71 fbbc a219 583c 897f 873b
000002a0: 934e 1a3d 515a 85bd f1ec 2bbd 7c24 af3c
000002b0: 8556 2dbd 70e3 74bd 1d31 063d c759 323d
000002c0: 1476 513d 4e44 ab3c c7d7 81bc 57b0 2dbd
000002d0: 2c2b 503d 79bd 2c3d b55e 513c 8789 2d3d
000002e0: 8656 c83c f44b c5bc 626d d2bc 0e96 14bc
000002f0: 531e 83bd 358a 49bd da6a 3f3d 3649 d1bc
00000300: 9819 1abd 0599 df3c 7b29 eb3b 0d02 ad3c
00000310: d59e 99bd 66d6 6cbd 1621 cb3c 779c 82bd
00000320: 5488 81bd 4484 62bd 6289 5dbd 96b1 7bbd
00000330: 055b 133c ef4f 80bc d3f3 07bd 15dd 47bc
00000340: fe36 463d a715 a5bc 6b61 7cbd 9cf3 23bc
00000350: e2c5 f5bb ecbf 1bbd 4f68 0a3d 4024 86bd
00000360: 31c5 2b3d 01fc 80bd dd62 bdbc 5ea0 073d
00000370: bed3 553c aba1 80bd 34a6 cbbc 5643 0c3d
00000380: 0e2e 01bd 7136 1bbd 9e95 59bd 73a8 193c
00000390: 28a9 6dbd 3e19 573d 23d2 34bb a78b 793c
000003a0: 2807 463d adcd 39bd c27a 5a3d 8d68 30bd
000003b0: a14a bbbc c923 cd3c 2d8e 073c c397 9d3c
000003c0: 20af 2e3d 297e e03c f914 4cbd 65e0 41bc
000003d0: 39f8 25bd 89b3 0bbd 2977 fd3c 52c2 993c
000003e0: 6316 0a3d d4f9 1e3d f17a f9ba 130d 8bbd
000003f0: 003b 73bd 32c9 503d c5b5 ecbc cee4 373d
0.020401375 0.024058133 -0.033115912 0.022402057 0.038810413 -0.01461238 0.0058159637 0.04299107
-0.022726301 0.047708772 -0.01779758 -0.015716014 0.016769191 0.008009234 0.023876902 0.03077159
-0.008909509 0.015083376 0.023016945 -0.05807409 -0.028876461 -0.04337661 0.009465197 0.020334166
0.05683134 -0.015103759 0.00599328 -0.042235993 -0.007372492 0.034553885 0.004452165 0.029537736
0.03191526 0.050072774 0.033923883 0.029146649 -0.01959733 -0.0015415042 0.029564587 -0.0067779124
0.0279962 -0.0077187903 -0.056329325 0.05248701 -0.057868715 -0.019555183 -0.052294992 -0.018198637
-0.023597494 -0.02679152 -0.02506495 -0.049759116 -0.066047356 -0.04382019 0.05493555 -0.063324444
-0.059319116 -0.008566467 -0.0019324531 -0.05034908 -0.050603665 -0.025491348 0.04927521 0.04743512
-0.05443787 0.03793578 0.04721946 -0.029546518 0.04629572 0.049991347 0.018881604 -0.033383112
-0.06168439 -0.061516345 0.023323076 -0.007265307 -0.077493 0.05404522 -0.058957327 0.04383755
0.03469918 0.035920836 -0.011126573 -0.028421069 -0.054886017 0.018239062 -0.0475015 0.017173184
-0.034064244 0.045620624 -0.0054295356 0.024653744 -0.039946254 0.010960024 -0.01018635 0.0439757
-0.01498682 -0.010823893 -0.03525879 -0.030488605 -0.032970786 0.027136344 -0.0034952967 -0.05417731
-0.0102173 -0.043104768 0.0027027815 -0.04307575 0.02574061 0.045196157 -0.022701558 0.039781
-0.027511034 -0.0009737836 0.009566909 -0.011261876 -0.005913185 0.045810334 0.02841964 -0.062055066
0.038345166 -0.04654006 -0.04929608 0.0025080717 -0.0154518625 0.013233755 -0.056226946 0.055593237
-0.0009900358 0.05169837 0.025662294 0.0054816073 0.027659182 0.03021529 -0.00037084584 0.0034171967
0.04853046 0.012644006 -0.0060846577 -0.041343167 -0.028285291 0.02765056 0.043714844 0.0068976763
-0.03165727 0.034221653 0.019383473 0.02613981 0.058845453 0.02370193 -0.06220236 -0.042697836
-0.053518694 -0.0025044312 0.019301346 -0.045499396 -0.054630913 0.042242594 -0.030686688 -0.041102678
-0.05670992 0.052881043 -0.069094434 0.020247098 -0.052447457 -0.030693736 0.013189705 0.0041350764
0.03767259 -0.06511367 -0.04197401 0.021379702 -0.04231884 -0.059787214 0.03276168 0.04354265
0.051138 0.020906594 -0.015849961 -0.0424045 0.050822422 0.042172883 0.012778928 0.042367484
0.02445532 -0.024084069 -0.025686923 -0.009068979 -0.06402268 -0.04920407 0.04673276 -0.025547605
-0.037622064 0.027294645 0.0071765757 0.021119142 -0.07500998 -0.057821654 0.02479605 -0.063774996
-0.06324831 -0.05530192 -0.054086097 -0.061448656 0.008993869 -0.015663115 -0.033191513 -0.012198706
0.04839229 -0.020151926 -0.061616343 -0.0100068115 -0.007500396 -0.038024828 0.033790883 -0.06549883
0.041936103 -0.06298066 -0.02311843 0.033111922 0.013050972 -0.06280836 -0.024859525 0.034243904
-0.03153806 -0.037893716 -0.0531212 0.00937854 -0.058022648 0.052514307 -0.0027591072 0.01523105
0.04834667 -0.045362163 0.053339727 -0.043068457 -0.022862734 0.025041478 0.008273643 0.019237405
0.04264748 0.027403908 -0.04982469 -0.011833285 -0.040519927 -0.034106765 0.030940609 0.018769417
0.033712756 0.038812473 -0.0019033832 -0.06789603 -0.05938244 0.050973125 -0.028895268 0.04489594

fc1.bias f4 [64]
00000000: b079 023d 8a31 54bd 180c ae3c c1f7 bfbd
00000010: d4fe 603c 4c66 e9bc 3ee4 2fbc c223 f2bc
00000020: a741 31bd 3858 0cbd 8239 19bd 062c 2c3b
00000030: 9c4b 2cbd 29fe 75ba 84c7 a43c 1df5 a1bb
00000040: 0c01 983c fa36 82bd 0736 4ebb 81f7 7ebd
00000050: acef 3abc 12d2 6abd 082e 89bd a05e d83c
00000060: 4c39 943d 5986 c73d 9168 853d 4b7d 89bd
00000070: ad46 ba3c 996f 023d d9c4 b1bc 0f0b 82bc
00000080: 4271 f0bc 9222 a1bb 21c9 d33c d0d5 943d
00000090: 773e 193d 655e 4c3b e0b8 043d 9c45 223d
000000a0: 2b9e 483d 747f 523d 5c7c 063d 23d5 91bd
000000b0: c1c2 faba 9567 8bbd 8f65 0b3c 8a78 11bd
000000c0: 0838 5bbd d811 61bc 00c8 22bd 3772 e23c
000000d0: 8739 8e3d 7c15 5abd 29b8 a53c c04f 40bd
000000e0: 3264 69bc c67b bdbb 5aef 873d 03e4 27bc
000000f0: eb97 44bd c520 22bc adb0 d9bc 1e6a 02bd
0.03185433 -0.051805057 0.021246001 -0.09373427 0.013732631 -0.028491162 -0.0107355695 -0.029558066
-0.0432755 -0.03426382 -0.03740836 0.0026271357 -0.042064294 -0.0009383881 0.020114668 -0.00494255
0.018555187 -0.06358142 -0.0031465308 -0.062247757 -0.011409681 -0.057329245 -0.06698233 0.026412308
0.07237491 0.09742422 0.06514085 -0.06713351 0.022738779 0.03184471 -0.02170031 -0.015874414
-0.02935088 -0.004917451 0.025852742 0.07267344 0.037413087 0.0031184193 0.032402873 0.039617166
0.048978966 0.05139108 0.032833442 -0.07120731 -0.0019131528 -0.06806866 0.0085081 -0.035515346
-0.053520232 -0.013737164 -0.039741516 0.027642353 0.06944566 -0.053243145 0.020229416 -0.046951056
-0.01424508 -0.005782577 0.066374496 -0.010247233 -0.047996443 -0.009895508 -0.026573503 -0.031839482

fc2.weight f4 [5, 64]
00000000: 95eb d0bc ec6f 193d 1f02 99bd 23ca d83d
00000010: d3ad 99bd 7017 113e 86f6 8dbd f691 e63c
00000020: 1fd6 663d c76f a0bd b508 8b3d 249c 983d
00000030: d238 923d 9b72 013e 89cf 25bd a60e 0abd
00000040: c46e 1dbd eec1 143d 1c91 973d ddc2 3c3e
00000050: 016f 923c de6b eb3d c36f 2f3d 0fd6 0b3e
00000060: fe1b cf3d 4db5 3fbe 11c6 263e 5307 e2bd
00000070: e5bf 8bbd 231e 6bbc 1e4a eb3d 7c85 9a3c
00000080: 86b2 b3bd 881f 91bd 391c 13be 079f 883d
00000090: 0650 d3bd 6e5d b83d 5438 85bd cf87 8bbc
000000a0: 8fb3 3bbd 7d13 a63c 2a7e 283d 1e7c 463d
000000b0: febb fc3d 8326 b53c 4a85 083c fff1 85bb
000000c0: 8d4f 9d3d d083 a33c c898 b53c 73b6 ce3d
000000d0: 9163 2c3e 71a2 9abd 7dba eb3c 664b c6bc
000000e0: 870c a33c 8013 1a3d 2080 87bd 0773 45bc
000000f0: 21a3 76bd e871 91bd 2cc4 f93d 58d9 b9bc
00000100: 04a0 e13b f8e4 56bd a136 5cbd 07dc 4bba
00000110: 30de ddbd ff0f a6bd 7b28 113e 6edb da3d
00000120: f663 8bbd c7be 01be c115 bebd 91f4 23be
00000130: e0ff 273c 952b 273e abf9 02bd 21a6 173e
00000140: b6bd 4d3c 3988 073e 72a1 bfbd 0360 d93d
00000150: 69cd 253d e7e5 4c3d 43c2 b4bd c3ff e73b
00000160: 0773 2bbe 0efe a63d d1c9 c8bc 7bb2 b03d
00000170: ff58 1abd 8073 a73d e79c 95bd e84a 003c
00000180: 5742 0c3e fa77 a2bc ea6d e73d 607f 3cbe
00000190: 6776 bcbd 003b b93d c8c3 743c ef3d f33c
000001a0: 1331 983d 2a5d 993d 5d21 c83d 2724 183e
000001b0: 5601 363a e413 96ba 7b6b 8c3d dc73 dcbd
000001c0: c83e d03d 60ea 613c 3e2b 803d a473 04be
000001d0: 16fb 0b3e 0d15 d1bd 3a56 913a bbd1 083e
000001e0: fedb 48bd b502 0fbe 263d c43d bf2c dcbc
000001f0: 722b 6b3d 18a5 c8bd 1ab9 bd3c 5cac 4abc
00000200: 0ac5 a03d a227 8f3d 2e9f b2bd b7cb 82bc
00000210: da02 79bd 632a 4e3d 36a6 8ebd a579 e53d
00000220: 4fad 093e 92e8 a6bd 6fe5 c7bc dce0 283d
00000230: 048a dbbd 2932 d2bb d8e6 e9bd cfac febd
00000240: b151 efbc 227e 2cbd a0a0 243c ebf2 b43d
00000250: 0583 d03d 3dd5 ce3d d5ef 06bd 7182 ab3d
00000260: e154 f73d b8c1 86bd 85ff a43d 0d4d 7fbc
00000270: 90e2 60bd c4f2 7bbd 056f bcbc 6295 e1bd
00000280: bc82 383d 4609 c83d e469 cf3d bfda 323e
00000290: c4f1 e73b 97b7 833d fa0f da3d 9d63 52bd
000002a0: 8e84 803d bd0a b13d d686 83bd ae92 b13d
000002b0: b330 88bc 1103 eabc 8ffa 4cbd 9a33 73bc
000002c0: 9722 d6bd 821e 8dbd e800 f9bd f116 c2bb
000002d0: 6900 f23d 7b72 bf3d a036 e5bd 0ec7 213d
000002e0: 4b79 b13d 721f 2ebd f3c4 aa3d c0d2 583d
000002f0: c91e 76bc d044 a23d 9d58 e93d f85f a3bc
00000300: 7135 89bd 6631 e8bd 92f2 3abd 092d 14be
00000310: 5797 0d3d a5b5 b83d cbc8 aa3d 3307 7fbd
00000320: c4c5 ed3d a0f3 843c ba34 863d aa8c d03d
00000330: 0090 14ba 02b9 e4ba 0d5b 6e3d d9fc 423d
00000340: a897 293b 590d a3bd d0ba c2bc ee6b 72bd
00000350: fcdd 97bd bc67 b1bd 89eb 8dbd d6e2 023e
00000360: d26b ff3d 4209 49bd 5161 6d3d a925 a5bc
00000370: e943 d83c 14ab 37bd 473b dc3d b975 ecbc
00000380: 318d d83b 84bc c43d d3e9 c43a 9a85 643d
00000390: f3ab da3c cc11 aa3d c85b 98bc 944c b8bd
000003a0: 5e6c c4ba 7e55 963d cfe8 313d df85 5fbd
000003b0: 190b ba3d 7214 433c e50b 9cbd d4d7 99bc
000003c0: 689f a43b fa5c 94bd 6cec 93bd ef03 2c3d
000003d0: 390f de3d ee99 a1bd 358d c83d 8438 023e
000003e0: d74a f8bd 2c00 12bc 6f53 9c3d 88fc b0bd
000003f0: 7cd9 37b8 a372 5c3d 141b e5bc f713 c23d
-0.02550296 0.037460253 -0.07471108 0.105854295 -0.075038575 0.14169097 -0.06931786 0.028145771
0.056356546 -0.0783382 0.0678877 0.074516565 0.07139744 0.12641375 -0.040481124 -0.033705376
-0.038435712 0.03631776 0.07400724 0.1843371 0.017875196 0.114951834 0.042831194 0.13655876
0.10112761 -0.18721505 0.16286494 -0.11036553 -0.0682371 -0.014350447 0.11488746 0.018862478
-0.08774285 -0.07086092 -0.14366235 0.06670957 -0.10317998 0.09002195 -0.06504884 -0.017032532
-0.045825537 0.020272965 0.041135944 0.04845821 0.12340544 0.02211309 0.00833256 -0.004087686
0.07681189 0.019960314 0.022167578 0.10093393 0.16834857 -0.075505145 0.028775448 -0.024205875
0.019903434 0.037616253 -0.06616235 -0.01205135 -0.060214166 -0.07101804 0.1219562 -0.022686645
0.0068855304 -0.052464455 -0.053763036 -0.0007776622 -0.108333945 -0.0810852 0.14175598 0.10686384
-0.068061754 -0.12670432 -0.09281493 -0.16011263 0.010253876 0.16325219 -0.031976383 0.14809467
0.012557438 0.13235559 -0.09356965 0.10614016 0.040479098 0.05002394 -0.08826115 0.0070800497
-0.16743098 0.08153926 -0.024510296 0.086277924 -0.03768253 0.08176327 -0.07305317 0.007830359
0.13697182 -0.0198326 0.11300261 -0.18407965 -0.09202271 0.090444565 0.014939256 0.029692618
0.07431235 0.07488473 0.097719885 0.14857541 0.0006942948 -0.001145002 0.06856438 -0.10764286
0.101682246 0.0137887895 0.06258248 -0.12934738 0.1367 -0.10209093 0.001108832 0.13361256
-0.049037926 -0.13965876 0.09581976 -0.026876805 0.05741448 -0.09797114 0.023159552 -0.012370195
0.07850082 0.06989981 -0.08721767 -0.01596628 -0.060793735 0.050333392 -0.06965296 0.112048425
0.13445018 -0.08149828 -0.024401395 0.041230068 -0.10719684 -0.006414671 -0.11420983 -0.124353044
-0.029213758 -0.042112477 0.010048062 0.088353954 0.1018124 0.10099266 -0.032943565 0.08374489
0.12076736 -0.06579918 0.08056549 -0.015582335 -0.054903567 -0.061510816 -0.023002157 -0.11014821
0.045046553 0.09767394 0.10127619 0.17466258 0.0070783813 0.06431501 0.106475785 -0.05136453
0.06275283 0.08644626 -0.06422202 0.08670555 -0.016624784 -0.028565915 -0.05004364 -0.014843846
-0.10455816 -0.068905845 -0.12158376 -0.005923145 0.118164845 0.09348007 -0.111920595 0.039496474
0.08665713 -0.042510457 0.08338346 0.05293536 -0.015021988 0.07923281 0.11393855 -0.019943222
-0.06699646 -0.11337547 -0.04564149 -0.14470305 0.034568157 0.09019021 0.083390795 -0.062262725
0.116099864 0.01622945 0.065530255 0.101830795 -0.00056672096 -0.0017450156 0.0581923 0.047604416
0.0025877748 -0.0796153 -0.02377072 -0.05918496 -0.07415387 -0.08662364 -0.069296904 0.12781844
0.12471737 -0.049081095 0.057954136 -0.02015956 0.02639957 -0.044840887 0.10753494 -0.028864728
0.006608628 0.09606269 0.0015023298 0.055791475 0.02669332 0.08304176 -0.018598452 -0.08998981
-0.0014985909 0.07340525 0.043434914 -0.05457103 0.09084148 0.01190673 -0.07619456 -0.018779673
0.0050238855 -0.07244296 -0.07222828 0.04199594 0.10842747 -0.07890688 0.09792558 0.12716872
-0.121236496 -0.008911174 0.07633101 -0.086419165 -4.3833148e-05 0.053820264 -0.027967013 0.09476464

fc2.bias f4 [5]
00000000: 291c f53d 2706 8ebd c955 41bd dfdf c83a
00000010: d968 d1bd
0.11968262 -0.06934767 -0.04720095 0.0015325508 -0.10225076
