SimpleQMIX_everything_random_blox_gamma0.95_lr0.0001_hidden64_target10/agent3_180.pth (torch, 745122 bytes, 10 tensors)

c1.weight f4 [32, 8, 3, 3]
0	0xbdc1ece5	-0.09469012
1	0x3cf866a6	0.030322384
2	0xbd95c3e2	-0.07312752
3	0xbd83c22b	-0.06433519
4	0xbd61e690	-0.055151522
5	0xbd6c9f42	-0.057769068
6	0xbd44521b	-0.047929864
7	0xbd3a2951	-0.04544956
8	0x3d023513	0.031788897
9	0x3e0a87e9	0.13528408
10	0x3e4c0a89	0.19925894
11	0xbe622dae	-0.22087738
12	0xbe3ded17	-0.18547474
13	0x3dc70597	0.09717863
14	0x3e35cb03	0.17753224
15	0x3e130143	0.1435595
16	0x3e1e3bb1	0.15452458
17	0x3e634bc3	0.2219687
18	0xbd835472	-0.06412591
19	0x3c0b6798	0.008508585
20	0xbcc2fd00	-0.02380228
21	0x3d86c1e3	0.0657995
22	0x3d990be1	0.07472969
23	0xbd2931bc	-0.041307196
24	0xbc327968	-0.010893203
25	0xbdbdb071	-0.09262169
26	0xbdca8c3a	-0.09890027
27	0xb8a4fc00	-7.867068e-05
28	0x3dcc80a5	0.099854745
29	0x3c5366e8	0.012902953
30	0xbc840268	-0.016114429
31	0xbdcd9c54	-0.10039583
32	0x3dce2027	0.10064726
33	0x3cebc23c	0.028779142
34	0x3dc1e205	0.09466938
35	0xbdaf5692	-0.08561434
36	0xbce5a73b	-0.028033843
37	0xbb3a51f5	-0.0028430198
38	0xbd29f492	-0.041493006
39	0x3a08b228	0.00052145356
40	0xbd2d1edf	-0.04226577
41	0x3d927be6	0.07152538
42	0xbb5444b9	-0.0032389595
43	0xbe41efe1	-0.18939163
44	0xbd376013	-0.044769358
45	0x3d6d68ef	0.0579614
46	0x3d839a83	0.06425955
47	0x3db01c3c	0.08599135
48	0x3d912508	0.07087141
49	0x3d32a854	0.04361756
50	0xbe057b43	-0.13035302
51	0x3decf9ac	0.11571059
52	0x3ca0dcb1	0.019636484
53	0xbde5dfb8	-0.112243116
54	0x3b9fabda	0.004872781
55	0x3ccc431d	0.024934346
56	0xbdb7377d	-0.089461304
57	0x3c5836bd	0.013196644
58	0xbe13a8c1	-0.14419843
59	0x3d8ad656	0.067791626
60	0xbe457d5c	-0.19286102
61	0xbdec4080	-0.1153574
62	0xbd9d0e24	-0.07668713
63	0xbdcc0963	-0.09962728
64	0x3c77a5e2	0.015115233
65	0x3d047fed	0.032348562
66	0x3db1e8d4	0.086869866
67	0x3d41768e	0.047232203
68	0x3d475824	0.04866804
69	0xbb2ad3f4	-0.0026066275
70	0x3d9db292	0.07700075
71	0xbd56dd0c	-0.0524569
72	0x3d09d3e3	0.033649337
73	0xbcf01f59	-0.029311823
74	0xbd95058c	-0.072764486
75	0x3d18cc53	0.037304234
76	0xbdb36d77	-0.08761113
77	0x3d1b8ace	0.03797417
78	0xbe47a719	-0.19497336
79	0xbc9a0ca7	-0.018804861
80	0xbe12125b	-0.14264815
81	0x3d4aebe4	0.04954137
82	0xbce1f38c	-0.027581953
83	0xbde95249	-0.11392648
84	0xbdb94475	-0.0904626
85	0xbdc2a444	-0.095039874
86	0x3e239139	0.15973367
87	0x3e3d4f3b	0.18487255
88	0xbe5d9ad1	-0.21641089
89	0x3e096b8b	0.1341993
90	0xbdee42e2	-0.11633851
91	0x3dc61a67	0.096730046
92	0xbc29b620	-0.010358363
93	0x3d8c6459	0.06855077
94	0xbd711186	-0.058854602
95	0xbc940618	-0.018069312
96	0xbd04f8f6	-0.03246399
97	0x3ddae335	0.106878676
98	0xbd18b08e	-0.03727775
99	0xbc125358	-0.0089310035
100	0x3de2ba4f	0.11070692
101	0x3d918b31	0.07106627
102	0x3de16fbf	0.11007642
103	0x3dad2297	0.08453863
104	0x3ce9bf9c	0.02853375
105	0xbc02aae0	-0.00797531
106	0x3dcce0f5	0.10003845
107	0x3d65290a	0.05594734
108	0xbe37135e	-0.17878482
109	0x3c285eb2	0.010276483
110	0xbc045c20	-0.008078605
111	0x3e015ba6	0.12632617
112	0xbc34be1e	-0.011031656
113	0xbd8717a5	-0.06596307
114	0xbd2e07e2	-0.042487986
115	0xbdb081d8	-0.08618516
116	0xbe01e530	-0.12685084
117	0x3d791366	0.060809515
118	0xbe2759e8	-0.1634289
119	0xbe48f6e6	-0.19625434
120	0xbe000093	-0.12500219
121	0x3dd38c7c	0.1032953
122	0xbe06ce44	-0.13164622
123	0xbdf0b479	-0.117531724
124	0xbdf1640a	-0.11786659
125	0x3dc035b3	0.09385242
126	0xbe11cfec	-0.14239472
127	0xbe454dd2	-0.19267967
128	0xbd8c4d51	-0.068506844
129	0x3c041f78	0.008064143
130	0xbdde7eca	-0.10864027
131	0x3d8524ca	0.065011576
132	0x3c1af798	0.009458445
133	0xbd1ed7cc	-0.03878002
134	0x3dab8c93	0.08376422
135	0x3cdff257	0.027337236
136	0xbe07bc1e	-0.13255355
137	0x3dc7890e	0.09742938
138	0x3d442385	0.047885437
139	0xbd75da61	-0.060022715
140	0xbb445f67	-0.002996409
141	0xbc0de684	-0.008660916
142	0xbccfa5dd	-0.025347644
143	0x3d90b8a5	0.07066468
144	0x3d917ed4	0.07104269
145	0x3c4e61ac	0.012596529
146	0x3c8628a3	0.016376799
147	0xbcb3d050	-0.021949917
148	0x3d8f1bd1	0.069877274
149	0xbd4e56d0	-0.05037576
150	0xbd00bf86	-0.03143265
151	0x3d082301	0.033236507
152	0xbd7bb4f1	-0.061451856
153	0x3e02b3b2	0.12763861
154	0x3e1be930	0.15225673
155	0xbe525524	-0.20540291
156	0x3df48d37	0.11940997
157	0xbdef3c26	-0.11681394
158	0x3e38674c	0.18008155
159	0xbe2cf250	-0.1688931
160	0x3e3692bc	0.17829412
161	0x3e25bf29	0.16186203
162	0x3d20d816	0.039268576
163	0xbd99b328	-0.075048745
164	0xbd946f3e	-0.0724778
165	0xbd3cc2a2	-0.046084054
166	0xbcdc749c	-0.026911072
167	0xbdbe249d	-0.09284327
168	0xbccfd0d4	-0.025368132
169	0x3da1101b	0.078644
170	0xbc3bb018	-0.011455558
171	0xbae8e940	-0.0017769709
172	0x3d4cf2de	0.050036304
173	0xbdc7c881	-0.0975504
174	0x3c283338	0.010266118
175	0xbdbe35d2	-0.09287609
176	0x3c9a22c4	0.018815406
177	0xbde0e72d	-0.10981593
178	0xbdad1266	-0.08450775
179	0x3c06ccf8	0.008227579
180	0xbe1b3054	-0.15155154
181	0x3de308b8	0.11085647
182	0xbd9f6e0f	-0.07784664
183	0xbe3201ea	-0.17383543
184	0x3d3b2326	0.045687817
185	0xbdb8050e	-0.08985339
186	0xbe541d7e	-0.20714375
187	0xbdb40b7d	-0.08791254
188	0xbe141cf4	-0.1446417
189	0xbdfe6dc7	-0.12423282
190	0xbd827142	-0.063692585
191	0xbc437535	-0.0119298
192	0xbe264be0	-0.16239882
193	0xbc9b00b1	-0.018921228
194	0xbdea9799	-0.11454696
195	0xbd553efc	-0.05206202
196	0x3da36267	0.07977753
197	0xbe22734f	-0.15864299
198	0x3d2098e4	0.039208308
199	0xbd06ba83	-0.032892715
200	0xbd4b9ef2	-0.04971213
201	0xbdf2e70b	-0.11860474
202	0xbcac15b4	-0.021006443
203	0x3d9f6d61	0.07784534
204	0xbe3b622d	-0.1829917
205	0x3c555e85	0.0130230235
206	0xbd339cf5	-0.043850858
207	0x3c067d76	0.008208623
208	0xbd9724f1	-0.07380093
209	0xbc65110a	-0.013981113
210	0xbd123a8e	-0.035700373
211	0x3d436674	0.04770513
212	0xbe156d75	-0.14592536
213	0x3d394475	0.0452313
214	0x3a09bbae	0.00052541017
215	0xbd5c30c2	-0.053757437
216	0x3ceedd63	0.0291583
217	0x3c56eb9b	0.013117696
218	0xbd804195	-0.06262509
219	0x3da1eff6	0.07907097
220	0xbd914291	-0.07092775
221	0x3d8ff103	0.07028391
222	0xbd834fcf	-0.06411707
223	0x3de9dd7d	0.11419199
224	0x3cb14b25	0.021642277
225	0xbd07cfb4	-0.033157066
226	0x3c3796c3	0.011205378
227	0xbd88fae6	-0.0668848
228	0xbd71595a	-0.058923103
229	0xbdc16ebb	-0.09444948
230	0xbe08c4ac	-0.13356274
231	0x3d99a028	0.075012505
232	0xbd0bd668	-0.03414002
233	0xbce4fa89	-0.027951496
234	0xbd6b0a07	-0.05738261
235	0x3d3a9756	0.04555448
236	0x3ba84200	0.005134821
237	0x3db47c35	0.08812753
238	0x3debd7a3	0.11515739
239	0xbda71dba	-0.08159967
240	0xbdd22b72	-0.10262193
241	0x3d7c3be6	0.06158056
242	0xbd36d09e	-0.044632547
243	0x3cd090fc	0.025459759
244	0xbd762ba8	-0.060100228
245	0x3dd412e1	0.10355163
246	0x3d8a72cd	0.06760178
247	0xbcb6b230	-0.022301763
248	0xbd5d5644	-0.054037347
249	0x3dd918bd	0.106004216
250	0xbd42143a	-0.04738257
251	0x3d8820d1	0.06646884
252	0xbd7d53fd	-0.061847676
253	0x3e02d5b8	0.1277684
254	0xbd44d977	-0.048058953
255	0x3cc202c2	0.023682956

c1.bias f4 [32]
0	0x3d33a766	0.043860815
1	0xbd060e16	-0.032728277
2	0xbd9d2789	-0.07673556
3	0x3e03c2ee	0.12867329
4	0xbd5ce732	-0.053931423
5	0x3d35de74	0.0444016
6	0x3c60515f	0.013691275
7	0xbe022532	-0.12709501
8	0xbdcf4873	-0.101212405
9	0xbcfb7f7c	-0.030700438
10	0x3cd5dace	0.02610531
11	0xbdb14b49	-0.08656938
12	0xbdc3abcd	-0.09554253
13	0x3d5a12c2	0.053240545
14	0xbbecbee9	-0.0072249067
15	0xbdfd20b2	-0.12359752
16	0xbd3813e1	-0.044940833
17	0xbc235ae9	-0.009970405
18	0xbdd8cda8	-0.10586101
19	0xbdafde36	-0.08587305
20	0xbd6ebf3c	-0.058287844
21	0xbe232dd3	-0.1593545
22	0x3d189586	0.03725197
23	0x3d6b8161	0.057496432
24	0xbdf381ea	-0.118900135
25	0xbde5556c	-0.111979336
26	0xbd1cb978	-0.038262814
27	0x3d790dcf	0.060804185
28	0xbdbfd65a	-0.09367056
29	0x3d489acf	0.048975762
30	0xbda00fa9	-0.07815487
31	0x3dd82db8	0.10555595

c2.weight f4 [64, 32, 3, 3]
0	0x3c7f59b8	0.015585355
1	0x3c3ca563	0.011514041
2	0x3c270620	0.010194331
3	0x3d36849c	0.04456006
4	0x3c066d78	0.00820481
5	0x3d70befa	0.05877588
6	0x3da2d119	0.079500385
7	0xbd24a56d	-0.040196825
8	0x3ba5112d	0.005037448
9	0xbbfb6967	-0.007672477
10	0x3d2129e0	0.039346576
11	0x3da59e57	0.080868416
12	0x3db48873	0.08815088
13	0x3c39cb9d	0.011340049
14	0x3dd6bda4	0.1048539
15	0x3daa11c5	0.083041705
16	0xbc251865	-0.010076617
17	0x3da5a441	0.080879696
18	0x3dde3fa0	0.10851979
19	0x3d674055	0.056457836
20	0x3d116e4a	0.03550557
21	0x3dd5ce0c	0.10439691
22	0x3d51eb82	0.05124999
23	0x3da83040	0.08212328
24	0x3d100672	0.035162397
25	0x3d98259e	0.0742905
26	0x3d8daa93	0.069173
27	0xbd0b62a6	-0.034029625
28	0xbc651207	-0.013981349
29	0xbcbddbac	-0.023176037
30	0xbcbe76e3	-0.023250049
31	0xbd53f56a	-0.051747717
32	0xbd7179eb	-0.05895416
33	0x3cb8e4a9	0.022569971
34	0xbc6e1314	-0.014530916
35	0xbd90e56d	-0.070750095
36	0xbdbe1f57	-0.09283321
37	0xbd56e45d	-0.052463878
38	0xbd69870e	-0.057013564
39	0x3be000b5	0.006836022
40	0xbd64d277	-0.055864777
41	0xbdbb518f	-0.091464154
42	0xbd982e44	-0.074306995
43	0xbe1888eb	-0.1489598
44	0xbca62765	-0.020282457
45	0x3c8e3356	0.017358463
46	0xbc85845f	-0.016298471
47	0xbd6ed4e2	-0.05830849
48	0x3c9d2787	0.019183887
49	0x3cb296ee	0.021800485
50	0xbd398d2b	-0.045300644
51	0xbdaf4f08	-0.08559996
52	0xbbf9a02b	-0.0076179705
53	0xbcc36cf5	-0.023855666
54	0x3ce8573e	0.028361913
55	0xbc98b167	-0.01863928
56	0x3d938381	0.07202817
57	0xbd0c0eac	-0.03419368
58	0xbce3ed01	-0.027822973
59	0x3da81944	0.08207944
60	0x3d7d7136	0.061875544
61	0x3b712770	0.0036797188
62	0xbcdac4f9	-0.026705252
63	0x3cc3844d	0.023866797
64	0x3da27b11	0.07933629
65	0x3d0c2943	0.034219038
66	0x3dc7fa24	0.097645074
67	0x3d1d7fe1	0.038452033
68	0x3d9d9275	0.0769395
69	0x3d4dfbef	0.05028909
70	0x3dde51e7	0.108554654
71	0x3c87bbf5	0.016569117
72	0x3e216ab5	0.15763362
73	0x3d7273c8	0.05919245
74	0x3e1aff75	0.15136512
75	0x3e04af20	0.1295743
76	0x3e116866	0.14199981
77	0x3deb56f4	0.11491194
78	0x3e193005	0.14959724
79	0x3da64a9e	0.08119701
80	0x3ddccd45	0.107813396
81	0x3da0aba6	0.07845239
82	0x3b7f6034	0.0038967254
83	0x3d913217	0.07089632
84	0x3d4c0cb9	0.04981682
85	0x3d995551	0.07486976
86	0x3d901c37	0.070366316
87	0x3db635e5	0.08896998
88	0x3cb60dbc	0.022223346
89	0x3aadf901	0.0013273061
90	0x3d8c225d	0.06842492
91	0xbb5f2d69	-0.0034054166
92	0x3d3a527f	0.04548883
93	0x3d9c58a8	0.07634097
94	0xbc08817b	-0.008331652
95	0xbb742ce5	-0.0037258205
96	0x3daa9ee7	0.083310895
97	0xbc5a1880	-0.013311505
98	0x3d399727	0.045310166
99	0xbd5033f2	-0.05083079
100	0xbda46180	-0.08026409
101	0x3c3e54c0	0.011616886
102	0x3b296118	0.0025845226
103	0xbad81fdc	-0.0016488987
104	0xbcd7e380	-0.026353598
105	0x3ccb6ae9	0.024831252
106	0x3ca25b39	0.019818889
107	0x3c66cfd5	0.014087637
108	0x3c2ce511	0.010552661
109	0x3c6ade65	0.01433525
110	0xbc071e31	-0.008246944
111	0x3d5e52b2	0.054278083
112	0x3c8a4243	0.0168773
113	0x3c439e34	0.011939574
114	0xbcc55b54	-0.0240914
115	0x3d855d07	0.06511884
116	0xbc4b5f35	-0.012412836
117	0x3b6b0c07	0.0035865323
118	0x3d13478e	0.03595691
119	0x3d055a71	0.032556955
120	0x3d2306e0	0.03980148
121	0xbd04d880	-0.032433033
122	0x3d3c37cf	0.04595166
123	0xbcc0c7ef	-0.023532836
124	0x3da493e7	0.08036023
125	0x3d1b8b04	0.037974373
126	0x3d43ab3f	0.047770735
127	0x3c14725a	0.009060467
128	0x3d674d9e	0.056470506
129	0x3d229f69	0.039702807
130	0x3dc16f60	0.09445071
131	0x3d0d31e3	0.034471404
132	0xbc468cf3	-0.012118566
133	0x3cd686d6	0.026187342
134	0x3d885220	0.06656289
135	0x3dc5dd9c	0.09661409
136	0x3c3c90e5	0.011509155
137	0x3db82083	0.08990576
138	0xbc9d8ad9	-0.019231247
139	0x3d4ecb8d	0.05048709
140	0x3d9dcf33	0.07705536
141	0xbc7d13b0	-0.015446588
142	0x3d3aff1a	0.04565344
143	0x3cbadc2b	0.022810062
144	0x3d92e353	0.07172265
145	0xbc91c182	-0.017792467
146	0x3d56e308	0.052462608
147	0xbd218592	-0.039434023
148	0x3c04204a	0.008064339
149	0xbc9a7366	-0.018853854
150	0x3d81dfd4	0.0634152
151	0x3c8159f6	0.015789967
152	0xbbd89f1d	-0.0066107647
153	0x3ca2ebdb	0.019887855
154	0xbcca2ba1	-0.024679007
155	0x3a71deab	0.00092266005
156	0x3c1e3d32	0.009658145
157	0x3d08ba22	0.033380635
158	0x3d829d63	0.063776754
159	0x3ce281f0	0.02764985
160	0xbbc5944f	-0.0060296427
161	0x3c90456a	0.017611224
162	0x3da9b22d	0.082859375
163	0x3c898ddc	0.016791277
164	0x3d55a669	0.052160654
165	0x3dcb608d	0.09930525
166	0x3dc51e69	0.09624941
167	0x3ddbf98b	0.10740956
168	0xbca374f8	-0.019953236
169	0x3d6778b7	0.056511607
170	0x3dbef5ee	0.09324251
171	0x3d9c4181	0.076296814
172	0x3bec8b4e	0.007218755
173	0x3d72db36	0.059291087
174	0x3ddacb89	0.106833525
175	0x3dc39d6a	0.09551509
176	0x3d7099ee	0.05874055
177	0xbb9b7070	-0.004743628
178	0x3d3d92f2	0.046282716
179	0x3c64a399	0.01395502
180	0x3d4c7389	0.04991487
181	0x3d6ee11f	0.05832016
182	0x3db955fc	0.09049603
183	0x3dd5f730	0.10447538
184	0x3e1dc13c	0.15405744
185	0x3e2c0394	0.1679824
186	0x3da4000a	0.0800782
187	0x3dde1bce	0.10845147
188	0x3e10913d	0.14117904
189	0x3d83800b	0.06420907
190	0xb9cc3008	-0.00038945698
191	0x3dcb940e	0.099403486
192	0xb9aeea00	-0.0003336221
193	0x3dcb2050	0.099182725
194	0x3de4c1db	0.111697875
195	0x3d2fd4dd	0.04292761
196	0x3df377fd	0.1188812
197	0x3d3f3c41	0.046688322
198	0x3d30e2bc	0.04318498
199	0xbc86c1d3	-0.016449844
200	0x3b96066d	0.0045784027
201	0xbc99eb5e	-0.01878899
202	0x3d8dd9e0	0.06926322
203	0xbd0c5d9f	-0.03426897
204	0x3d28c84d	0.041206647
205	0x3d16d48b	0.03682379
206	0x3b8613f3	0.0040917336
207	0xbcd5c7a3	-0.02609617
208	0x3cd5feb1	0.026122423
209	0x3be64a61	0.0070279096
210	0xbd53fe77	-0.05175635
211	0x3c48bc5b	0.012251939
212	0xbcd5f90e	-0.026119735
213	0xbd0f7df9	-0.035032246
214	0x3ceb51fd	0.028725618
215	0x3d3dce07	0.04633906
216	0x3d6fccf5	0.05854507
217	0x3dc1111b	0.09427091
218	0x3df30605	0.118663825
219	0x3da49b3d	0.08037422
220	0x3dc2bd56	0.09508769
221	0x3dd57146	0.10421996
222	0x3cafb3ec	0.021448098
223	0x3dc51b39	0.09624333
224	0x3d547cb7	0.05187675
225	0x3d77ba36	0.06048032
226	0x3b4f6afb	0.0031649459
227	0xbc274ac4	-0.010210697
228	0x3d2bfc16	0.041988455
229	0x3d0ccf6e	0.034377508
230	0xbc16985c	-0.009191599
231	0x3cbe13c7	0.02320279
232	0xbc209e6a	-0.009803394
233	0xbc856266	-0.016282272
234	0x3d2e9134	0.042618945
235	0x3d52c2fe	0.05145549
236	0x3cf175a1	0.029475035
237	0xbc8c4ea6	-0.017127346
238	0x3d3e0357	0.046389904
239	0xba3dd423	-0.00072413887
240	0x3d00be06	0.03143122
241	0xbbe0c30c	-0.006859189
242	0xbc5963a6	-0.013268387
243	0xbd146aa2	-0.036234505
244	0x3d0da686	0.034582637
245	0x3a4d0452	0.0007820773
246	0xbd375a82	-0.04476405
247	0xbd96db62	-0.07366063
248	0x3c9e8639	0.019351112
249	0x3cd25e52	0.025679741
250	0xbbb01a72	-0.0053742463
251	0xbd89e8d3	-0.06733861
252	0x3b2dc6ab	0.002651612
253	0xbcaa81d2	-0.020813856
254	0xbc29aff3	-0.010356891
255	0x3cfb8b2b	0.030706009

c2.bias f4 [64]
0	0xbdae79a3	-0.08519294
1	0xbbfbd802	-0.0076856622
2	0xbda47df8	-0.08031839
3	0x3c03ca50	0.0080438405
4	0xbdb2a9bd	-0.08723781
5	0xbbc1da09	-0.0059158844
6	0xbc1ceaee	-0.009577496
7	0xbc8376bb	-0.016047826
8	0xbc9c1511	-0.019053014
9	0x3c896c5d	0.016775304
10	0xbd93d911	-0.072191365
11	0xbda1b1fc	-0.07895276
12	0x3abc1e9d	0.0014352385
13	0xbd90401c	-0.07043478
14	0xbd1a703e	-0.0377047
15	0xbdda04cd	-0.10645447
16	0x3c84befd	0.016204352
17	0x3bf79298	0.007555317
18	0x3cf11b35	0.029431919
19	0xbd76bc7b	-0.060238343
20	0xbcac9480	-0.021066904
21	0x3cef5e41	0.029219748
22	0xbdb3f1ef	-0.087863795
23	0x3c8fe70a	0.017566223
24	0x3c0f0e0a	0.0087313745
25	0xbda2d920	-0.079515696
26	0xbdba93dd	-0.09110234
27	0xbd845127	-0.06460791
28	0x3dcba9f3	0.099445246
29	0xbd4c53b8	-0.049884528
30	0xbcf7830a	-0.030213851
31	0xbd009f20	-0.031401753
32	0xbd692743	-0.05692221
33	0x3bb5fef0	0.0055540726
34	0x3c9e4e68	0.019324496
35	0xbd2206b9	-0.039557192
36	0xbcfb504d	-0.030677939
37	0xbd9b5235	-0.07584039
38	0x3d036431	0.03207797
39	0xbdaa3b14	-0.083120495
40	0xbcff239e	-0.031144913
41	0xbdb00a08	-0.08595663
42	0xbd4c8266	-0.049929045
43	0xbd706cc2	-0.05869747
44	0xbd4948ba	-0.049141623
45	0xba86203e	-0.0010232998
46	0xbada94f7	-0.0016676475
47	0xbdb067ac	-0.08613524
48	0xbd1918dc	-0.037377223
49	0xbda3becc	-0.07995376
50	0xbc724b97	-0.01478853
51	0x3be8441b	0.007088197
52	0xba498961	-0.00076880126
53	0xbc87e2de	-0.01658767
54	0xbdd4176c	-0.1035603
55	0xbbef2509	-0.007298116
56	0xbd36ba35	-0.044611175
57	0x3c65669d	0.014001516
58	0xbd4cea33	-0.050028037
59	0xb9896215	-0.00026203753
60	0x3c52a11e	0.012855796
61	0xbd44ac77	-0.048016038
62	0xbd9859ff	-0.074390404
63	0xbce5f437	-0.028070552

c3.weight f4 [256, 64, 3, 3]
0	0x3cf31e0d	0.029677415
1	0x3c9b3af0	0.018949002
2	0x3d48bdc3	0.049009096
3	0x3d46d509	0.04854301
4	0x3d95c6f5	0.07313339
5	0x3cbf4965	0.023350427
6	0x3da73087	0.08163553
7	0x3d04d3d2	0.03242857
8	0x3cdc75fa	0.026911724
9	0x3cfc5f2a	0.030807097
10	0x3c5bcb51	0.013415174
11	0x3bfd063c	0.0077216905
12	0x3d02fb74	0.031978086
13	0x3d82b9c2	0.06383087
14	0x3cb5077d	0.022098297
15	0x3d32c31a	0.043643095
16	0x3d1a5d90	0.037686884
17	0x3d19424b	0.037416738
18	0x3d701a53	0.058618855
19	0x3d7b2215	0.0613118
20	0x3cc016e0	0.023448408
21	0x3da1ea02	0.079059616
22	0x3ca3297a	0.019917239
23	0x3d63efba	0.055648543
24	0x3d111d90	0.035428584
25	0x3c15a8fb	0.009134526
26	0x3d9baa74	0.07600871
27	0x3d23db76	0.040004216
28	0x3ccfbdac	0.025358997
29	0x3c14a507	0.009072549
30	0x3d905156	0.070467636
31	0x3daa8fd9	0.08328218
32	0x3cea3b14	0.028592624
33	0x3c152f21	0.009105475
34	0x3c518a01	0.01278925
35	0x3d46261b	0.048376184
36	0x3cf5818d	0.029969001
37	0x3c8b5180	0.017006636
38	0x3da6814b	0.081301294
39	0x3d5a0d34	0.053235248
40	0x3d0b9027	0.03407302
41	0x3d68a4e9	0.056797896
42	0x3d349756	0.044089638
43	0x3d7d6c67	0.06187096
44	0x3dbde6f5	0.09272567
45	0x3bf6ca1b	0.007531417
46	0x3d582866	0.052772902
47	0x3d3a4e45	0.0454848
48	0x3d89445c	0.06702492
49	0x3d8d505d	0.06900094
50	0x3d438ba8	0.04774061
51	0x3d2adeea	0.041716494
52	0x3d1fa94b	0.03897981
53	0x3bb46f48	0.00550643
54	0x3cd3a1ac	0.025833927
55	0xbc4712e8	-0.012150504
56	0xbccb35d3	-0.024805939
57	0xbbdcbcd5	-0.0067363777
58	0x3ca4f3e6	0.020135831
59	0xbd109d08	-0.035306007
60	0x3d2cda70	0.042200506
61	0xbc371ca5	-0.011176263
62	0xbb30516b	-0.0026903998
63	0xbcf0877a	-0.029361475
64	0x3c38e7e7	0.011285759
65	0x3c89ac4c	0.01680579
66	0x3d156444	0.036472574
67	0xbd08f903	-0.0334406
68	0x3c1a6c3c	0.009425219
69	0xbc8cd9d7	-0.017193718
70	0x3cfa7db8	0.030577525
71	0x3955bfd0	0.00020384719
72	0xbcb6c360	-0.022309959
73	0x3c2fc4ca	0.0107280705
74	0x3d1cfe85	0.038328666
75	0x3cbcf458	0.02306573
76	0x3d41f19d	0.04734956
77	0x3d3305f4	0.04370685
78	0x3ce3a538	0.027788743
79	0xbc9afa9e	-0.018918332
80	0xbc99589b	-0.018719008
81	0xba15cf95	-0.0005714831
82	0x3d0fc97a	0.035104252
83	0xbb1e24da	-0.0024130852
84	0xbcd6972d	-0.026195133
85	0x3c7ff342	0.015621962
86	0x3d095bf2	0.03353495
87	0x3cea93bc	0.028634898
88	0x3d03e69f	0.03220236
89	0xbca69e1b	-0.020339062
90	0x3d933138	0.07187122
91	0x3d651de2	0.0559367
92	0x3d39bfca	0.04534892
93	0x3d14bde7	0.036313917
94	0x3ca5d82b	0.020244678
95	0x3d43125f	0.047624942
96	0x3dabb7ef	0.08384692
97	0x3c9a5657	0.018839998
98	0x3d8247b2	0.06361331
99	0x3d2fa25b	0.042879444
100	0x3cc9e26a	0.024644095
101	0x3da5a6a4	0.08088425
102	0x3da5c749	0.08094651
103	0x3cd50fae	0.026008453
104	0x3d4ce0a3	0.050018918
105	0x3d7d51b9	0.061845515
106	0x3d0bb067	0.034103777
107	0x3db49885	0.08818153
108	0x3d23a0e3	0.039948355
109	0x3db01ed8	0.08599633
110	0x3da79344	0.081823856
111	0x3d1e27dd	0.038612235
112	0x3d819dae	0.06328903
113	0x3da10eb2	0.07864131
114	0x3d06645e	0.03281056
115	0x3daeedee	0.08541475
116	0x3c222820	0.009897262
117	0x3cec731d	0.028863484
118	0x3d0538f4	0.032525018
119	0x3d68661e	0.05673801
120	0x3d5bb5c5	0.053640146
121	0x3d38c431	0.045108978
122	0x3d9b1ed0	0.075742364
123	0x3d9065a1	0.07050634
124	0x3d643535	0.055714805
125	0x3d3889d1	0.045053307
126	0x3d26aa6b	0.040689867
127	0x3acbd036	0.0015549723
128	0x3d4fd577	0.050740685
129	0xbc18a11f	-0.009315758
130	0x3d4b38c8	0.049614698
131	0x3d8fdd41	0.07024623
132	0x3d7a6075	0.061127145
133	0xbc3b2330	-0.011421964
134	0x3d345595	0.04402693
135	0x3cf9f9f2	0.030514691
136	0x3d9ff905	0.078111686
137	0x3ccde005	0.025131235
138	0x3dacd404	0.08438876
139	0x3c748b65	0.014925812
140	0x3d9b35b2	0.07578601
141	0x3ca31b6c	0.019910537
142	0x3cacde2b	0.021102032
143	0x3d824807	0.063613944
144	0xbaa30ff3	-0.0012440666
145	0xbced85ba	-0.02899443
146	0xbc8097c3	-0.015697366
147	0xbc51ae0c	-0.012797844
148	0x3d17f60b	0.03709988
149	0x3ce2fd8a	0.027708787
150	0xbce87395	-0.028375426
151	0xbc1c32cd	-0.009533596
152	0xbca2e375	-0.01988385
153	0x3d1648de	0.036690585
154	0x3d2d57ae	0.042319946
155	0x3b83733f	0.004011541
156	0xbb438fc7	-0.0029840337
157	0x3d4d43b2	0.050113387
158	0x3d0b0776	0.033942662
159	0x3cf02f94	0.029319562
160	0x3ce8d28b	0.028420707
161	0x3d89f868	0.06736833
162	0xbd45e42c	-0.048313305
163	0x3c83ca50	0.016087681
164	0x3ce32836	0.027729135
165	0xb991a1c1	-0.0002777707
166	0x3c8799f2	0.016552899
167	0x3a76145e	0.000938719
168	0xbd4d496f	-0.05011886
169	0x3c888f58	0.016669914
170	0xbce48b8f	-0.027898578
171	0x3d25c5be	0.040471785
172	0x3d931a44	0.07182744
173	0x3d776f94	0.060409144
174	0x3da00a63	0.07814481
175	0x3d154be0	0.036449313
176	0x3d4752f8	0.04866311
177	0x3db0585a	0.08610602
178	0x3c346350	0.011010006
179	0x3d921f65	0.07134894
180	0x3c80d7cb	0.015727898
181	0x3cfb9e15	0.030715028
182	0x3d87d1bf	0.06631803
183	0x3d84ed00	0.06490517
184	0x3d4884a8	0.048954636
185	0x3d2760db	0.040863853
186	0x3d091f6e	0.03347724
187	0x3d8cb2f5	0.06870071
188	0x3d1b8a1f	0.03797352
189	0xbcd21b20	-0.0256477
190	0xbd0b4094	-0.033997133
191	0xbd52607b	-0.051361542
192	0x3b1facc4	0.002436445
193	0xbcefa09f	-0.029251395
194	0x3c8bf634	0.017085172
195	0xbd8662e0	-0.06561828
196	0xbbc9f60f	-0.0061633657
197	0xbd101fb6	-0.035186492
198	0x3d87a6fb	0.06623646
199	0x3cbcb2b2	0.023034427
200	0x3d3aa9eb	0.045572203
201	0x3d9a0059	0.075195976
202	0x3c05537e	0.008137582
203	0x3da4e871	0.08052147
204	0x3d78eabb	0.06077073
205	0x3d6c24d9	0.05765233
206	0x3d631c54	0.055446938
207	0xbcf74987	-0.030186428
208	0xbd4a1432	-0.049335666
209	0x3cb9fac5	0.022702584
210	0xbcf9cce3	-0.030493205
211	0x3ca940c2	0.020660762
212	0xbd473c42	-0.04864145
213	0x3bcc49f9	0.006234404
214	0xbd681b7d	-0.05666684
215	0xbd1c36e2	-0.038138278
216	0x3cf148b0	0.029453605
217	0x3c8883cc	0.016664408
218	0x3d6d9351	0.05800182
219	0x3d030d31	0.031995002
220	0x3daecd6f	0.08535277
221	0x3d085b30	0.03329009
222	0x3d8558b2	0.06511058
223	0x3ca9d28e	0.020730283
224	0x3d7ef0f7	0.06224152
225	0x3d09a7ed	0.033607412
226	0x3d771324	0.06032099
227	0x3d608ee7	0.054823782
228	0x3d95aa56	0.073078796
229	0x3c6f46fd	0.014604327
230	0x3d97c949	0.07411439
231	0x3d711a03	0.058862697
232	0x3d896db1	0.06710375
233	0x3d8593f3	0.0652236
234	0x3ca882e5	0.020570228
235	0x3d1b2735	0.037879188
236	0x3dab507b	0.0836496
237	0x3d248fc7	0.04017618
238	0x3d9c45e9	0.07630522
239	0x3da4f1a2	0.080539
240	0x3d8f1ca0	0.06987882
241	0x3c40b32d	0.011761469
242	0x3d9210d6	0.071321175
243	0x3d3bf182	0.045884617
244	0x3d4545cd	0.04816227
245	0x3d338ad3	0.043833565
246	0x3da2cf34	0.07949677
247	0x3d4e162e	0.05031412
248	0x3dae0602	0.0849724
249	0x3d6e078f	0.058112677
250	0x3d69f38d	0.057117034
251	0x3c877b48	0.016538277
252	0xbce213aa	-0.027597267
253	0xbda0a979	-0.07844824
254	0xbd66ce6a	-0.056349196
255	0xbd494d64	-0.04914607

c3.bias f4 [256]
0	0xbd837e42	-0.06420566
1	0xbd958b2f	-0.07301938
2	0xbd03554d	-0.03206377
3	0xbd4ea5c1	-0.050451044
4	0xbda57b2f	-0.08080136
5	0xbd958734	-0.073011786
6	0x3d09e8dd	0.03366934
7	0xbb6297f3	-0.0034575432
8	0xbdc2df1b	-0.0951521
9	0x3d2de9fe	0.04245948
10	0xbd7d35b3	-0.06181879
11	0xbd250419	-0.04028711
12	0x3d887c2f	0.06664311
13	0xbd81f0b2	-0.06344737
14	0x3cc0edfb	0.023550978
15	0xbd43fdf4	-0.04784961
16	0xbdcac5c6	-0.099010035
17	0x3a582375	0.00082450296
18	0xbcdcd7bc	-0.026958339
19	0x3c965ad4	0.018353857
20	0xbd3b10be	-0.045670263
21	0xbd125f8f	-0.035735663
22	0x3d955bf7	0.072929315
23	0xbb867410	-0.004103191
24	0x3c6eb779	0.0145701105
25	0x3ad6719b	0.0016360761
26	0xbb30961b	-0.0026944939
27	0x3c77802c	0.015106242
28	0x3c5f1467	0.013615704
29	0x3cb96ac2	0.022633914
30	0x3ca6ae52	0.020346794
31	0xbc6e86cf	-0.014558508
32	0x391c2b29	0.00014893398
33	0xbcf82334	-0.030290224
34	0xbd4a3778	-0.049369305
35	0xbc832dcc	-0.016013049
36	0xbcea8965	-0.028629968
37	0x3d08de3f	0.033415075
38	0x3d8aa17b	0.06769081
39	0xbd3fc55f	-0.046819087
40	0xbd117537	-0.035512175
41	0x3d744d8f	0.05964428
42	0xbd1cf478	-0.03831908
43	0xbd353a46	-0.044245027
44	0x3ba14360	0.004921362
45	0x3b0b9df3	0.0021303862
46	0x3dbf3ea4	0.093381196
47	0xbd0da9ce	-0.034585766
48	0xbccfdcc3	-0.025373822
49	0xbd2ade24	-0.041715756
50	0xbd5d975c	-0.054099426
51	0xbc0fa118	-0.008766435
52	0x3cbc2f48	0.022971764
53	0xbd0da599	-0.034581754
54	0x3c490c62	0.012271019
55	0x3c8e1af8	0.017346844
56	0x3b278676	0.0025562323
57	0xbd03aef8	-0.032149285
58	0x3cf2654a	0.029589314
59	0xbcb91af4	-0.02259586
60	0xbc85655f	-0.016283689
61	0xbbe16571	-0.006878548
62	0x3b89192d	0.0041839094
63	0xbd811720	-0.06303239
64	0xbd8348d2	-0.06410374
65	0xbd19765d	-0.037466396
66	0xbd0004b2	-0.031254478
67	0x3d743be7	0.05962744
68	0x3cc0cdae	0.023535576
69	0xbc92254d	-0.017840052
70	0xbd6ba458	-0.057529777
71	0x3c1c88fc	0.009554144
72	0x3dc0d3c8	0.09415394
73	0xbd4a1e4b	-0.049345296
74	0xbd3746e4	-0.04474534
75	0xbcf65473	-0.030069565
76	0x3cd2ab46	0.025716435
77	0xbd949045	-0.0725408
78	0x3cb50d9d	0.022101218
79	0x3d74decb	0.059782784
80	0xbcd8b61f	-0.02645403
81	0xba15468c	-0.0005694411
82	0xbccaabd4	-0.024740137
83	0x3b8e5504	0.0043436307
84	0xbcae71b2	-0.021294449
85	0xbd654b3d	-0.055979956
86	0xbcc8aa35	-0.024495224
87	0x3da9d63e	0.082928166
88	0xbb7ebfb5	-0.003887159
89	0xbd1adef0	-0.037810266
90	0x3cc8cc32	0.02451143
91	0xbcdbb14b	-0.026817938
92	0xbd736b6e	-0.059428625
93	0xbd1e3295	-0.038622458
94	0xbd92abb0	-0.07161653
95	0xbda2a333	-0.07941284
96	0xbbb866ec	-0.0056275036
97	0x3c41cbce	0.011828376
98	0x3c543e34	0.0129542835
99	0x3c386015	0.0112533765
100	0xbd0a83c1	-0.033817057
101	0x3c2106d6	0.00982829
102	0xbd9aabda	-0.07552309
103	0xbcf7a893	-0.03023175
104	0xbd21c8f1	-0.039498273
105	0xbcf21b8c	-0.029554151
106	0x3d07d82b	0.03316514
107	0x3d490ca7	0.04908433
108	0xbd9913c4	-0.07474473
109	0xbca70078	-0.020385966
110	0xbce9b2f0	-0.028527707
111	0x3d910f62	0.07083012
112	0x3ab97c82	0.0014151486
113	0x3dfbc887	0.12294107
114	0xbd2efbc4	-0.04272057
115	0xbd35a37c	-0.044345364
116	0xbd13ebe7	-0.036113646
117	0x3d2199a5	0.039453167
118	0xbd6c3f70	-0.057677686
119	0x3da81525	0.08207158
120	0x3d505f65	0.050872225
121	0xbbacece5	-0.0052772635
122	0xbd3aa0e5	-0.045563597
123	0xbd502422	-0.05081571
124	0x3bfe87f4	0.0077676717
125	0x3cdcd2dc	0.026956014
126	0x3d031b26	0.032008313
127	0xbcb026bf	-0.02150285
128	0x3cda00f6	0.026611786
129	0xbda3e0e4	-0.08001879
130	0x3d001940	0.03127408
131	0xbcd77840	-0.026302457
132	0x3cda91ef	0.026680915
133	0xbd3300cf	-0.043701943
134	0xbdb30899	-0.08741874
135	0xbd322695	-0.043493826
136	0xbd17795a	-0.036980964
137	0x3b32e7ff	0.0027298925
138	0xbc9de029	-0.019271927
139	0xbd6a0a17	-0.05713853
140	0xbd7ecf03	-0.06220914
141	0xbd3c9262	-0.04603804
142	0xbceb62d4	-0.028733648
143	0xbc13b004	-0.009014133
144	0xbcd8400b	-0.026397726
145	0xbc987852	-0.01861206
146	0x3c2dd383	0.01060951
147	0x3c3d7a54	0.01156481
148	0xbdd03ebb	-0.10168215
149	0x3d750d40	0.05982709
150	0x3cef6519	0.029223012
151	0x3c678242	0.014130177
152	0xbc11420e	-0.008865846
153	0xbb074192	-0.0020638448
154	0xbd2da8f4	-0.042397454
155	0x3cd87db7	0.026427133
156	0x3d252ad6	0.040324055
157	0x3d0afcc9	0.03393248
158	0xbc6f0c19	-0.014590287
159	0x38ff97dd	0.00012187634
160	0xbd061491	-0.032734457
161	0xbd081319	-0.033221338
162	0xbc8cc0a1	-0.017181696
163	0x3ca6140e	0.020273235
164	0xbc08584b	-0.008321832
165	0x3d37ff71	0.044921342
166	0xbd2a3fa1	-0.041564588
167	0xbc9a8a75	-0.01886485
168	0x3c6fae18	0.0146289095
169	0xbb127dc9	-0.0022352806
170	0xbd26ca20	-0.040720105
171	0xbd54c085	-0.051941413
172	0xbda24aa0	-0.0792439
173	0x3d1811cb	0.037126344
174	0x3cb54bce	0.022130873
175	0x3e1de408	0.15419018
176	0xbd66e103	-0.05636693
177	0xbd718b59	-0.058970783
178	0x3d7bd2f5	0.06148048
179	0xbce39990	-0.027783185
180	0x3db94b7c	0.090476006
181	0xbb6e8af2	-0.0036398736
182	0xbd1e53e4	-0.038654223
183	0xbc82b3c3	-0.015954858
184	0xbd892dd3	-0.066981934
185	0x3d852612	0.06501402
186	0xbc05478d	-0.008134735
187	0xbd1e3aeb	-0.038630407
188	0xbbb23de5	-0.0054395073
189	0x3c568568	0.01309333
190	0xbd9a5e9e	-0.07537578
191	0xbd5d7328	-0.0540649
192	0xbd37fd6c	-0.044919416
193	0xbd9a8c16	-0.075462505
194	0x3cfae73f	0.030627845
195	0xbc8ea827	-0.017414166
196	0x3c846c5c	0.016164951
197	0xbd9704f4	-0.073739916
198	0x3cd2cb96	0.025731843
199	0xbd936790	-0.07197487
200	0x3bae6bd6	0.0053229136
201	0x3c4063ee	0.011742575
202	0x3d138c9f	0.03602278
203	0xba721c52	-0.00092357874
204	0x3c1ca660	0.009561151
205	0xbc9aa4c2	-0.01887739
206	0x3cb61a2d	0.022229278
207	0xbd7d62cd	-0.061861802
208	0xbcf61a2e	-0.03004178
209	0x3c5c7568	0.013455726
210	0xbd0fafcd	-0.035079766
211	0x3cb21679	0.021739231
212	0xbd1bc584	-0.038030162
213	0xbcd6dfaa	-0.026229698
214	0xbd039c13	-0.032131266
215	0xbd508e2e	-0.050916843
216	0x3d5b5821	0.053550843
217	0xbd0780c6	-0.033081792
218	0xbd16ff31	-0.036864463
219	0x3a2e39b4	0.00066461717
220	0xbc8f3531	-0.017481418
221	0x3c1b298c	0.009470355
222	0x3c3015ce	0.010747386
223	0xbd13978f	-0.03603321
224	0x3bc00296	0.0058596833
225	0xbc6dca5e	-0.01451358
226	0xbcf2f188	-0.029656187
227	0xbc105bcf	-0.008810951
228	0xbd878669	-0.066174336
229	0x3cf7e130	0.030258745
230	0x3cd7f56b	0.026362142
231	0xbd674505	-0.056462307
232	0xbd33aae9	-0.043864165
233	0xbda01f28	-0.078184426
234	0xbd4572d5	-0.048205215
235	0xbd4c16ca	-0.04982642
236	0xbd6bbe4e	-0.057554536
237	0x3d7fecdf	0.062481757
238	0x3c0e329f	0.008679061
239	0xbd0b1af9	-0.03396127
240	0xbd4f45b1	-0.050603572
241	0xbd6c6068	-0.057709128
242	0xbd04e9ce	-0.032449536
243	0x3d446a7f	0.047953125
244	0x3a597c8f	0.0008296454
245	0xbda7d3d7	-0.08194702
246	0x3c6624d1	0.014046864
247	0x3c10798a	0.00881804
248	0xbd112eae	-0.035444908
249	0x3d6657c6	0.05623605
250	0x3bd9de10	0.0066487864
251	0x3bfcfbe9	0.0077204597
252	0xbd17ffa7	-0.037109043
253	0xbd780ea5	-0.06056084
254	0xbd0d12fe	-0.03444194
255	0xbd16e2cd	-0.036837388

fc1.weight f4 [64, 256]
0	0x3c97c1b4	0.018524982
1	0x3cb9fd14	0.022703685
2	0xbd11f6b1	-0.035635654
3	0x3c9e08ca	0.0192913
4	0x3d152a65	0.036417384
5	0xbc88ce1d	-0.016699845
6	0xbbe5c733	-0.007012272
7	0x3d2060a5	0.039154667
8	0xbcb9068d	-0.022586131
9	0x3d18c0e0	0.037293315
10	0xbc9fbe69	-0.019499974
11	0xbc85e9fe	-0.016346928
12	0x3c1603da	0.009156192
13	0x3c03e6c4	0.008050624
14	0x3c508cfa	0.012728924
15	0x3cfc1473	0.03077147
16	0xbc31d544	-0.010854069
17	0x3bf94f36	0.0076083196
18	0x3caaeaa7	0.020863844
19	0xbd8ceeee	-0.0688151
20	0xbcfab5f9	-0.03060435
21	0xbd3ad9dd	-0.045617927
22	0x3ad6262b	0.0016338279
23	0x3c8cd36f	0.017190663
24	0x3d5e0e95	0.054213125
25	0xbcc60aac	-0.02417501
26	0x3aac4b55	0.0013145009
27	0xbd3925e5	-0.045202155
28	0xbc520241	-0.01281792
29	0x3cbb6771	0.022876473
30	0xbbc49c95	-0.0060001113
31	0x3ccbebb1	0.02489266
32	0x3cc4f54c	0.024042748
33	0x3d43aa25	0.047769684
34	0x3d0af3c5	0.033923883
35	0x3cd53991	0.026028426
36	0xbc9e6543	-0.019335395
37	0xbc6c4454	-0.014420588
38	0x3c8a7925	0.01690347
39	0xbc1925ed	-0.009347421
40	0x3cd1fc73	0.025633072
41	0xbcaeaf48	-0.021323815
42	0xbd6afe9c	-0.05737172
43	0x3d4c9011	0.04994208
44	0xbd77cd9b	-0.060498815
45	0xbcfc88a4	-0.030826874
46	0xbd85adf7	-0.06527322
47	0xbca444a5	-0.020052264
48	0xbcd6881a	-0.026187945
49	0xbcf5edf2	-0.030020688
50	0xbce880f6	-0.028381806
51	0xbd6ac29a	-0.057314493
52	0xbda14823	-0.07875087
53	0xbd422cbf	-0.047405954
54	0x3d3a4313	0.045474123
55	0xbd86e0ca	-0.06585844
56	0xbd9042f1	-0.07044018
57	0xbc41e604	-0.011834625
58	0xbb8daaab	-0.0043233237
59	0xbd599531	-0.053120796
60	0xbd5735a9	-0.05254141
61	0xbceb4b60	-0.028722465
62	0x3d2ed4a8	0.042683274
63	0x3d38af5b	0.045089107
64	0xbd6886ca	-0.05676917
65	0x3d1b628c	0.03793578
66	0x3d41eb2c	0.047343418
67	0xbd222803	-0.03958894
68	0x3d1053f9	0.035236333
69	0x3d410b54	0.047129944
70	0x3c81c497	0.015840812
71	0xbd21dec9	-0.039519105
72	0xbd994c5a	-0.07485266
73	0xbd83e297	-0.06439703
74	0x3ca9b0b1	0.020714136
75	0xbc0bebd0	-0.008540109
76	0xbdb49f0d	-0.08819399
77	0x3d532e33	0.05155773
78	0xbd91abe4	-0.07112864
79	0x3d1f3666	0.038870238
80	0x3d0e991c	0.034813985
81	0x3ccf2df3	0.025290465
82	0xbc5f1c94	-0.013617653
83	0xbd228b67	-0.039683726
84	0xbd6da4c6	-0.05801847
85	0x3c93499e	0.01797944
86	0xbd5048d7	-0.050850715
87	0x3b9d55ce	0.0048014885
88	0xbd3a47a2	-0.04547847
89	0x3d31d855	0.0434192
90	0xbc8d5d1c	-0.017256312
91	0x3cad747c	0.021173708
92	0xbd264abd	-0.04059862
93	0x3c1a96b9	0.009435349
94	0xbc56d834	-0.01311307
95	0x3d2b527c	0.04182671
96	0xbce8cd6a	-0.028418262
97	0xbca89cac	-0.02058252
98	0xbd385993	-0.0450073
99	0xbd22d72a	-0.039755978
100	0xbd132590	-0.035924494
101	0x3ca0eaf5	0.019643286
102	0xbb8bffbb	-0.004272429
103	0xbd64129d	-0.055681814
104	0xbc3701be	-0.011169849
105	0xbd308ea0	-0.043104768
106	0xbc01fc8a	-0.007933745
107	0xbd617720	-0.055045247
108	0x3cce8195	0.025208274
109	0x3d30184e	0.04299193
110	0xbcd1c8cd	-0.025608445
111	0x3ce24500	0.027620792
112	0xbd0b1f9a	-0.033965684
113	0xbc81b309	-0.01583244
114	0x3c006a2b	0.007837812
115	0xbc710568	-0.014710762
116	0xbbefade5	-0.007314431
117	0x3d149c25	0.036281724
118	0x3cdcaca8	0.026937798
119	0xbd9ccb4f	-0.076559655
120	0x3cd236b0	0.025660843
121	0xbd517072	-0.051132627
122	0xbd5221ed	-0.051301885
123	0x3a11517c	0.0005543453
124	0xbcd929e9	-0.026509242
125	0x38e2de8f	0.000108179745
126	0xbd86c7ad	-0.06581054
127	0x3d5a4a5d	0.053293575
128	0xbc59e639	-0.013299518
129	0x3d4ebee5	0.05047502
130	0x3c54ee40	0.012996256
131	0x3bb39f0e	0.0054816073
132	0x3c891ec5	0.016738305
133	0x3ce3ef88	0.027824178
134	0xbae8ed04	-0.0017770831
135	0x39a922a8	0.00032260013
136	0x3d3e3b6d	0.04644339
137	0x3c0dbc16	0.0086508
138	0xbbc761cf	-0.0060846577
139	0xbd30f987	-0.043206718
140	0xbcf9e1b5	-0.030503133
141	0x3cd3931d	0.025826985
142	0x3d2e0d89	0.042493377
143	0x3b5cd8a5	0.0033698466
144	0xbd0e6bc8	-0.034770757
145	0x3d0cd941	0.034386877
146	0x3c5100f4	0.012756575
147	0x3ca00632	0.019534204
148	0x3d6d16e8	0.057883173
149	0x3c4f3ab0	0.0126482695
150	0xbd8b4f6c	-0.06802258
151	0xbd5b19dd	-0.053491462
152	0xbd6a92bd	-0.057268847
153	0xbc0479c3	-0.008085671
154	0x3c88abad	0.016683424
155	0xbd58dd1a	-0.052945234
156	0xbd880cfa	-0.066431
157	0x3d01658a	0.031590976
158	0xbd0e4db7	-0.034742083
159	0xbd3b300c	-0.045700118
160	0xbd731e97	-0.059355345
161	0x3d4ae443	0.049534094
162	0xbd90f830	-0.07078588
163	0x3c242f71	0.010021077
164	0xbd61bf57	-0.055114117
165	0xbd32def1	-0.043669645
166	0x3c59a7a6	0.013284599
167	0x3a4d21fa	0.00078251923
168	0x3ce63e2c	0.028105818
169	0xbd9a3606	-0.075298354
170	0xbd2becf1	-0.04197401
171	0x3c9a27da	0.01881783
172	0xbd35a390	-0.04434544
173	0xbd8fab63	-0.07015111
174	0x3caf0b39	0.021367656
175	0x3cf91dd5	0.030409733
176	0x3d517614	0.051138
177	0x3c95d3f5	0.018289546
178	0xbca78d71	-0.020453187
179	0xbd35c168	-0.0443739
180	0x3d2cad5c	0.042157516
181	0x3d1f9948	0.03896454
182	0x3c36c55a	0.011155451
183	0x3d22c19b	0.039735418
184	0x3cb47ce7	0.022032214
185	0xbd113184	-0.035447612
186	0xbce4b6f5	-0.027919272
187	0xbc137615	-0.009000321
188	0xbd8f94e4	-0.070108205
189	0xbd70e6dd	-0.05881392
190	0x3d3d3106	0.04618933
191	0xbcd21c41	-0.025648238
192	0xbd1a1998	-0.037622064
193	0x3ce11e3f	0.027480243
194	0xbb5ded9f	-0.0033863557
195	0x3cae1eed	0.021254981
196	0xbdaf5834	-0.08561745
197	0xbd6f475a	-0.058417656
198	0x3c6047ac	0.013688963
199	0xbd8211f5	-0.06351081
200	0xbd9817a6	-0.074263856
201	0xbd73d9df	-0.05953395
202	0xbd88945f	-0.066689245
203	0xbd923dad	-0.0714067
204	0xbac2f39b	-0.0014873625
205	0xbc9b03e6	-0.018922757
206	0xbd3157b4	-0.04329653
207	0xbc697248	-0.014248438
208	0x3d39f63a	0.045400836
209	0xbccde872	-0.025135253
210	0xbd848fcb	-0.06472739
211	0xbc82bfe0	-0.015960634
212	0xbbf5c5e2	-0.007500396
213	0xbd2a19f4	-0.041528657
214	0x3cfd21df	0.03089994
215	0xbd85a74c	-0.0652605
216	0x3cf2d5e3	0.029643005
217	0xbd8182ec	-0.063237995
218	0xbcd90d69	-0.026495652
219	0x3ce781ab	0.028260073
220	0x3c2ccbfa	0.010546679
221	0xbd9b561c	-0.075847834
222	0xbd0bf6dd	-0.034170974
223	0x3d031b68	0.03200856
224	0xbd198393	-0.037478995
225	0xbd1b3671	-0.037893716
226	0xbd58f296	-0.052965723
227	0xb970bf51	-0.00022959455
228	0xbd73336a	-0.059375204
229	0x3d1f85f0	0.038946092
230	0xbc5e8f30	-0.013583943
231	0x3c798ba7	0.01523105
232	0x3d3c36c3	0.045950662
233	0xbd3e792e	-0.046502285
234	0x3d4d3ba3	0.050105702
235	0xbd2f4f62	-0.042800315
236	0xbccbe610	-0.024889976
237	0x3c42d224	0.011890922
238	0xbb1a9a83	-0.0023590631
239	0x3c8bd353	0.01706854
240	0x3d2eaf20	0.04264748
241	0x3cdae9e5	0.026722858
242	0xbd53e168	-0.051728636
243	0xbcc68506	-0.024233352
244	0xbd4638eb	-0.048394125
245	0xbd0ca293	-0.03433473
246	0x3ca3389d	0.019924456
247	0x3be4079f	0.0069589163
248	0x3cffcc99	0.03122549
249	0x3ccb427e	0.02481198
250	0xbc3786f5	-0.01120161
251	0xbd9cc64e	-0.07655011
252	0xbd7b71b0	-0.061387718
253	0x3d49e54f	0.04929095
254	0xbcecb5c5	-0.028895268
255	0x3d2f8fcc	0.042861745

fc1.bias f4 [64]
0	0x3c90b440	0.017664075
1	0xbd54318a	-0.051805057
2	0x3df81183	0.12112715
3	0xbdbff7c1	-0.09373427
4	0x3c25b569	0.010114052
5	0xbd0f3658	-0.034963936
6	0xbccf2aec	-0.025289021
7	0xbcf223c2	-0.029558066
8	0xbd555506	-0.052083038
9	0xbd0c5838	-0.03426382
10	0xbd193982	-0.03740836
11	0xbb989746	-0.004656705
12	0xbd2c4b9c	-0.042064294
13	0xbc55887d	-0.01303303
14	0x3b56eb69	0.0032794124
15	0xbc3d4f22	-0.011554511
16	0x3d9194af	0.07108437
17	0xbc8d878a	-0.017276544
18	0xbb4e3607	-0.0031465308
19	0xbdb422ed	-0.08795724
20	0xbc3aefac	-0.011409681
21	0xbd6ad212	-0.057329245
22	0xbd892e08	-0.06698233
23	0x3ccebfc3	0.025237923
24	0x3d04972a	0.032370724
25	0x3e08b17c	0.13348955
26	0x3c9fdb6a	0.019513804
27	0xbd897d4b	-0.06713351
28	0x3cade4a0	0.021227181
29	0x3da8da82	0.08244802
30	0xbcb1c4d9	-0.02170031
31	0xbc820b0f	-0.015874414
32	0xbca92d74	-0.020651557
33	0xbba12292	-0.004917451
34	0x3d147292	0.036242075
35	0x3d609b45	0.054835577
36	0x3cf61cc0	0.030043006
37	0xbb135f6b	-0.0022487293
38	0x3daba634	0.0838131
39	0x3e0d0ce2	0.13774446
40	0x3ca23cbb	0.01980435
41	0x3c98c7aa	0.018649895
42	0x3d067c5c	0.032833442
43	0xbd864939	-0.06556935
44	0xbc48afc6	-0.012248939
45	0xbd8b6795	-0.06806866
46	0x3d3856cd	0.045004655
47	0xbd11788a	-0.035515346
48	0xbd5b3808	-0.053520232
49	0xbc6111d8	-0.013737164
50	0xbd22c800	-0.039741516
51	0x3cc75ac4	0.024335273
52	0x3d0fe80d	0.03513341
53	0xbd5a157c	-0.053243145
54	0x3c01aa38	0.0079141185
55	0xbd193b4a	-0.037410058
56	0xbc696432	-0.01424508
57	0xbc1ac046	-0.009445256
58	0x3cdd9141	0.027046802
59	0xbc27e403	-0.010247233
60	0xbd3a2b35	-0.04545136
61	0xbc5e7f4f	-0.013580157
62	0xbcd9b0ad	-0.026573503
63	0xbd026a1e	-0.031839482

fc2.weight f4 [5, 64]
0	0xbcdca5ba	-0.026934493
1	0x3d196fec	0.037460253
2	0xbd8e45e7	-0.069469266
3	0x3dd8ca23	0.105854295
4	0xbd99a85b	-0.075028144
5	0x3e37734a	0.17915073
6	0xbd63aead	-0.055586506
7	0x3ce691f6	0.028145771
8	0x3da956a7	0.08268481
9	0xbda06fc7	-0.0783382
10	0x3d8b08b5	0.0678877
11	0x3db90fae	0.09036194
12	0x3d9238d2	0.07139744
13	0x3e181928	0.14853346
14	0xbd30ec34	-0.04319401
15	0xbbf49e46	-0.0074651567
16	0xbda78d86	-0.0818129
17	0x3d8017a2	0.062545076
18	0x3d97911c	0.07400724
19	0x3e59f4b7	0.21284758
20	0x3c926f01	0.017875196
21	0x3deb6bde	0.114951834
22	0x3d2f6fc3	0.042831194
23	0x3dd2e68c	0.102978796
24	0x3dd88709	0.10572631
25	0xbe5fe6b7	-0.21865354
26	0x3e370a6e	0.17875072
27	0xbde20753	-0.11036553
28	0xbd8bbc0b	-0.06822976
29	0xbcba6421	-0.022752823
30	0x3deb4a1e	0.11488746
31	0x3c9a857c	0.018862478
32	0xbda416a0	-0.08012128
33	0xbd911f88	-0.07086092
34	0xbe185797	-0.14877163
35	0x3d96488c	0.07338056
36	0xbdb97e73	-0.090573214
37	0x3db86e95	0.09005467
38	0xbd5e62cb	-0.054293435
39	0xbaf1a746	-0.0018436692
40	0xbd280034	-0.04101582
41	0x3cf692ce	0.030099299
42	0x3d287e2a	0.041135944
43	0x3da3b5e1	0.07993675
44	0x3df73971	0.12071503
45	0x3cb52683	0.02211309
46	0xbd800dff	-0.062526695
47	0xbb85f1ff	-0.004087686
48	0x3d9d4f8d	0.07681189
49	0x3ca383d0	0.019960314
50	0x3cb598c8	0.022167578
51	0x3dc2201f	0.09478783
52	0x3e3e3927	0.1857649
53	0xbd9aa271	-0.075505145
54	0x3d08ba62	0.033380874
55	0x3bbf6a96	0.0058415635
56	0x3ca30c87	0.019903434
57	0x3d4afb7e	0.049556248
58	0xbd852f54	-0.06503168
59	0xbc457307	-0.01205135
60	0xbd9ae891	-0.0756389
61	0xbd8e3f4b	-0.06945666
62	0x3df9c42c	0.1219562
63	0xbcb9d958	-0.022686645
64	0xba0413b7	-0.0005038338
65	0xbd56e4f8	-0.052464455
66	0xbe1f447d	-0.1555347
67	0xba4bdc07	-0.0007776622
68	0xbdddde30	-0.108333945
69	0xbd9db592	-0.077006474
70	0x3e0efb99	0.13963164
71	0x3ddadb6e	0.10686384
72	0xbd86a018	-0.06573504
73	0xbe01bec7	-0.12670432
74	0xbdbe15c1	-0.09281493
75	0xbe208ebb	-0.15679447
76	0x3c27ffe0	0.010253876
77	0x3e2819ab	0.16416042
78	0xbd267403	-0.04063798
79	0x3e0af6da	0.13570729
80	0x3ca1d2ed	0.019753898
81	0x3e071c88	0.13194478
82	0xbdbfa172	-0.09356965
83	0x3dd9301f	0.106048815
84	0x3d25cd69	0.040479098
85	0x3d4ce5e7	0.05002394
86	0xbdb4c243	-0.08826115
87	0xbae5f16a	-0.001754326
88	0xbe283b29	-0.16428818
89	0x3dc7148a	0.097207144
90	0xbcae7824	-0.021297522
91	0x3db0b27b	0.086277924
92	0xbd1a8875	-0.03772779
93	0x3c6d9440	0.014500678
94	0xbd959ce7	-0.07305317
95	0x3c004ae8	0.007830359
96	0x3e061658	0.13094461
97	0xbca277fa	-0.0198326
98	0x3dcec1bf	0.10095548
99	0xbe37c452	-0.17945984
100	0xbdbbc9c1	-0.09169341
101	0x3db93b00	0.090444565
102	0xbd88409d	-0.06652949
103	0xbd36cfd5	-0.044631798
104	0x3d96e82b	0.07368501
105	0x3d956fcb	0.072967134
106	0x3dc8215d	0.097719885
107	0x3e15512b	0.14581744
108	0xbb742fc6	-0.003725992
109	0xba9613e4	-0.001145002
110	0x3d853758	0.065046966
111	0xbddc73dc	-0.10764286
112	0x3dd03ec8	0.101682246
113	0x3c61ea60	0.0137887895
114	0x3d802b3e	0.06258248
115	0xbe0e43cf	-0.13893054
116	0x3e0d0d3f	0.13774584
117	0xbdd1150d	-0.10209093
118	0xbc38ea79	-0.011286371
119	0x3e03dbaf	0.12876771
120	0xbd48dbfe	-0.049037926
121	0xbe0ab145	-0.13544185
122	0x3dbe5a90	0.09294617
123	0xbcdc2cbf	-0.026876805
124	0x3d85b3d2	0.06528439
125	0xbdc97b82	-0.0983801
126	0x3cbdb91a	0.023159552
127	0xbc4aac5c	-0.012370195
128	0x3d995af2	0.074880496
129	0x3d8f27a2	0.06989981
130	0xbdbc6403	-0.09198763
131	0xbc82cbb7	-0.01596628
132	0xbd78ff88	-0.06079057
133	0x3d4ee059	0.050506923
134	0xbd890922	-0.06691195
135	0x3de579a5	0.112048425
136	0x3e0a315c	0.13495392
137	0xbda6e892	-0.08149828
138	0xbcc7e56f	-0.024401395
139	0xba80f851	-0.0009839629
140	0xbddb8a04	-0.10719684
141	0xbb504ed4	-0.0031785266
142	0xbde2cf32	-0.110746756
143	0xbe087124	-0.1332441
144	0xbd3310ee	-0.043717317
145	0xbd1c2ad8	-0.038126796
146	0x3c24a0a0	0.010048062
147	0x3dba85b3	0.09107532
148	0x3dd08305	0.1018124
149	0x3dced53d	0.10099266
150	0xbd06efd5	-0.032943565
151	0x3e074ed8	0.1321367
152	0x3df77bb2	0.1208414
153	0xbdb846eb	-0.089979015
154	0x3dac8136	0.084230825
155	0xbc7f4d0d	-0.015582335
156	0xbd5d6feb	-0.05406181
157	0xbd90e09d	-0.070740916
158	0xbcbc6f05	-0.023002157
159	0xbde19562	-0.11014821
160	0x3d436c78	0.047710866
161	0x3dc80946	0.09767394
162	0x3dcfdc4d	0.10149441
163	0x3e24ec92	0.1610587
164	0x3b94224a	0.004520689
165	0x3d83b797	0.06431501
166	0x3e04a095	0.12951882
167	0xbd7b1176	-0.06129595
168	0x3d84ff7a	0.06494041
169	0x3db668a9	0.08906681
170	0xbd8386d6	-0.06422202
171	0x3dbf5ac5	0.09343485
172	0xbc966174	-0.018357016
173	0xbcea0311	-0.028565915
174	0xbd1eef0c	-0.03880219
175	0xbc73339a	-0.014843846
176	0xbdd62297	-0.10455816
177	0xbd8d1e82	-0.068905845
178	0xbdf900e8	-0.12158376
179	0xbb86c3c4	-0.0041126925
180	0x3df8ab72	0.121420756
181	0x3dbf727b	0.09348007
182	0xbddc5ff1	-0.10760487
183	0x3d267dc0	0.04064727
184	0x3db1794b	0.08665713
185	0xbd5408c4	-0.051766172
186	0x3db109fe	0.08644484
187	0x3d58d2c0	0.05293536
188	0x3cc8f2cb	0.024529835
189	0x3da228d8	0.079179466
190	0x3de9589d	0.11393855
191	0xbca35ff8	-0.019943222
192	0xbd710419	-0.0588418
193	0xbde83166	-0.11337547
194	0xbe361e27	-0.1778494
195	0xbe142d09	-0.14470305
196	0x3d0d9757	0.034568157
197	0x3de5854f	0.11207067
198	0x3dd8e9f1	0.10591496
199	0xbd7f0733	-0.062262725
200	0x3e0b50f5	0.13605101
201	0x3c84f3a0	0.01622945
202	0x3d8634ba	0.065530255
203	0x3df028cb	0.11726531
204	0xba149000	-0.00056672096
205	0x3c95bf8f	0.018279819
206	0x3d4bcda0	0.049756646
207	0x3d1e010f	0.03857523
208	0x3cce95b4	0.025217868
209	0xbd4bf2b4	-0.049792007
210	0xbcc2bad0	-0.02377072
211	0xbd1cbdf1	-0.03826708
212	0xbd97ddfc	-0.07415387
213	0xbdb167bc	-0.08662364
214	0xbd8deb89	-0.069296904
215	0x3e0d6416	0.13807711
216	0x3e1055e3	0.14095263
217	0xbd1229bf	-0.035684343
218	0x3d958ecd	0.07302628
219	0xbca525a9	-0.02015956
220	0x3cccf5b1	0.025019499
221	0xbdfe6a7f	-0.12422656
222	0x3ddc3b47	0.10753494
223	0xbcec75b9	-0.028864728
224	0x3cfc100a	0.030769367
225	0x3dc4bc84	0.09606269
226	0x3cc8c2b1	0.024506899
227	0x3d8cd1bc	0.06875941
228	0x3d05cfaa	0.032668747
229	0x3da96b2b	0.08272394
230	0xbe184c7d	-0.14872928
231	0xbe643b81	-0.22288324
232	0x3c6fb245	0.014629905
233	0x3db68d6e	0.08913694
234	0x3d31e8cf	0.043434914
235	0xbd0569d0	-0.032571614
236	0x3db23579	0.08701605
237	0x3c431472	0.01190673
238	0xbdcaa856	-0.09895389
239	0xbc99d7d4	-0.018779673
240	0x3ba49f68	0.0050238855
241	0xbd945cfa	-0.07244296
242	0xbd93ec6c	-0.07222828
243	0x3d1a00e0	0.03759849
244	0x3dfcf4c8	0.12351376
245	0xbda199ee	-0.07890688
246	0x3db5fccb	0.08886107
247	0x3e211e42	0.15734199
248	0xbdf84ad7	-0.121236496
249	0x3c119d87	0.008887655
250	0x3dbe04fd	0.09278295
251	0xbdb0fc88	-0.086419165
252	0xbc57a3d5	-0.013161619
253	0x3d4646ed	0.048407484
254	0xbce51b14	-0.027967013
255	0x3dc213f7	0.09476464

fc2.bias f4 [5]
0	0x3decc1cb	0.115604006
1	0xbdc10f4b	-0.09426745
2	0xbd8eef4f	-0.06979238
3	0xbd21710d	-0.039414454
4	0xbdec0537	-0.11524432
